src/util/AI/checkpoints/001.ckpt (torch, 353508 bytes, 14 tensors)

lstm.weight_ih_l0 f4 [256, 12]
00000000: 60d9 3a3d 8d45 a43c ed75 e0bd b363 e93c
00000010: a5af 203d 3b3d 143d cdd4 703d 5206 5c3a
00000020: 41fe c4bd 644e 853d b831 6abd 4bc7 68bd
00000030: f59b 3bbe 1ee4 7bbc dec9 0cbc fccd 08bd
00000040: 1931 863d 27d3 443d cffa 813d 8094 3c3d
00000050: 0ebb 7abc 3e6f 6e3d 9856 71bd cc45 913d
00000060: f41a 003e 9bb1 8c3d 6cef a03d 0655 063e
00000070: 6fe6 d03c f086 833d 9f47 443d 8047 e5bc
00000080: ddf3 c4bc 90cf 95bd 74cf 013e 19a5 cfbd
00000090: 0bd8 ab3d f7ce ad3d 2493 bf3d c72f 1fbe
000000a0: 97a2 d0bd 6dcf 7b3c 1b5c bb3d c60b e53c
000000b0: 152f 0abe d9cb bfbd 18db 843d 60f8 953c
000000c0: 3ee6 1a3d 1553 a1bd 6541 dcbc 8c2b 88bd
000000d0: 6d22 d63d d785 afbc 2b70 983c 0002 db3d
000000e0: 4ec9 dc3d 15cb 433d 27db cdbc ca3a dabb
000000f0: 4859 783d adae 7e3d db40 9b3c 43ea 973d
00000100: a4aa fc3d 8b26 cdbd e421 c73d 822e ca3d
00000110: 4d0a c13a a228 8f3d 5893 0abb fa02 55bd
00000120: 044d 083e a16c 093d b9c5 0bbe b7de d5bd
00000130: 8908 603d 673f 1abd 07ef 04bd ea98 b03d
00000140: 6ca5 80bc 2900 fc3c a881 bdbc d339 393c
00000150: 95b4 4ebd 90fa da3d 1cf7 4abd 41d0 aa3d
00000160: cab9 8c3d 92ff 923d ee42 033d 3163 d63d
00000170: 75bc 3a3c f2cf e13c d224 b3bc 2d06 d23c
00000180: 265f 56bd 3ae0 20bd 7ca7 b4bd 95df 543c
00000190: 0c97 9d3d 23d0 a03d e6a7 233e c978 003e
000001a0: 171b 2cbd e572 70bc 5005 523d 2f2f ba3d
000001b0: c069 f33d 767c 9cbc 3526 aa3d f373 813d
000001c0: 74b5 863c bad7 45ba 9d90 d43c 24e7 11bb
000001d0: 0b14 94bd fba2 853d 241a 5abc 567a 863b
000001e0: 0beb 993d cc1d b3bc 1d7f ecbd 6695 08bd
000001f0: e95d 0a3e 6b9e 5cbb e306 a83d eba2 14bc
00000200: e061 d03d a27e 823d e291 883d fd82 c0bd
00000210: 45fb 643d c345 583c 637e 6a3c d6e7 e0bd
00000220: 1076 f83d 29ce 15bd 4da7 d9bd 2a4f d5bd
00000230: 29ad 1abe c1d9 7b3d f9ef 893d 1f33 b43d
00000240: 82bc 7d3d 1c35 bd3c 3fea f5bd 867d 03bd
00000250: a422 463d a217 bb3d 9cc6 6c3c 8c1d f4bd
00000260: 0158 b4bd 78e4 0bbd 83f7 8dbd 6bba 14bd
00000270: 4036 0a3c f29c b93c da4c 573b bd33 dabd
00000280: 5db0 c4bd c469 dcbd 5d1f d13d 9b2d c7bd
00000290: cb2a dbbd c03e 9dbd 64b1 a7bd 2e44 923d
000002a0: d603 9cbd 4a66 5b3b 0d94 f0bd b01b 0b3d
000002b0: 7390 8bbd be50 d1bd 6c0c b93d 7d77 a83c
000002c0: a934 67bd b68f fb3c 204b 913c 1333 9c3d
000002d0: 05e2 25bd 9d30 42bd c44d f33d 8267 233d
000002e0: cc87 af3d 177f 3e3c 416b b7bd 54d8 503d
000002f0: fe07 ecbc b54c a0bd b5ee fcbd cc4e 1b3d
00000300: c33d 34bd a96e 123d 35d0 213d 4ea9 b93d
00000310: 71ca 883c 7b08 0a3e 0cb0 913d 3dbf d7bd
00000320: c6c1 2fbd 31f0 d0bb 8db2 8bbd 053d 27bd
00000330: 401b b6bd 6a75 84bc 1e3d 1ebc bc47 efbd
00000340: ea3b 2ebb 75db 293e 08fa ac3d 8c3e b9bd
00000350: 92b1 82bc e75b bdbb 04f2 873d 62e2 a3bd
00000360: 8942 19be a2a6 2fbd 2640 2abc ebff a93d
00000370: d333 0f3d 77e8 acbd adf1 ddbd 83ec 8f3d
00000380: 6bf8 38bc b743 cf3d 69ba aebd 3cba 8cbd
00000390: 5892 05be f736 cbbb 6bca e4bd 1244 d33c
000003a0: 42b6 433d c0d7 683d 199d f3bd 52d5 babd
000003b0: 9781 8cbc 9d5b aabb a5b6 81bd 0051 103c
000003c0: d65f dcbd d441 133e 68ba ae3a ca49 39bd
000003d0: 0b39 6f3d 966b 563c 439e 0bbd a78b be3d
000003e0: 26b3 94bd 2c2e 95bd 49ef 263d 88c1 183d
000003f0: 9799 dbbc 31fa 053d 37d4 a3bd 2484 e43c
0.04561746 0.020052696 -0.109599926 0.028489923 0.039230008 0.036191206 0.058796693 0.0008393276
-0.096188076 0.065090925 -0.05717632 -0.056830686 -0.18321212 -0.015374212 -0.008593051 -0.033399567
0.065523334 0.048052933 0.06346666 0.046040058 -0.015303386 0.058211558 -0.058920473 0.07093391
0.12510282 0.06869813 0.07858166 0.13118371 0.025500504 0.06422222 0.047919866 -0.027988195
-0.024042064 -0.0731498 0.12676793 -0.10138912 0.08390816 0.08486741 0.09354237 -0.1554557
-0.101872616 0.015369278 0.09148427 0.027959716 -0.13494523 -0.09365053 0.06487101 0.018306911
0.037817232 -0.07877175 -0.026886651 -0.06648931 0.10455785 -0.021426124 0.018608173 0.10693741
0.10780583 0.047801096 -0.025128914 -0.0066598402 0.06063202 0.062178303 0.018951824 0.07417729
0.123372346 -0.10017117 0.09723261 0.09872152 0.0014727801 0.06990172 -0.0021144953 -0.05200479
0.13310629 0.033550862 -0.13649644 -0.1044287 0.05469564 -0.03765812 -0.032454517 0.08622916
-0.01570388 0.030761795 -0.023133114 0.01130529 -0.050465185 0.10692322 -0.049552068 0.083405025
0.06871374 0.071776524 0.03204625 0.10468138 0.011397471 0.027564976 -0.021868143 0.02563771
-0.052336834 -0.03927634 -0.088210076 0.012992759 0.076948255 0.07852199 0.15982017 0.12546076
-0.042018022 -0.0146758305 0.051274598 0.09091031 0.118854046 -0.019102316 0.08308069 0.06320944
0.016443945 -0.00075470994 0.025947863 -0.0022263015 -0.072303854 0.06525227 -0.0133118965 0.004103939
0.07515534 -0.021864794 -0.115476824 -0.033345602 0.13512386 -0.003366376 0.082044385 -0.009072046
0.10174918 0.063718095 0.0666845 -0.09399984 0.05590369 0.013200226 0.0143123595 -0.10981719
0.12131894 -0.036573563 -0.10627613 -0.1041549 -0.15105118 0.061486963 0.06735224 0.08798813
0.061947353 0.023096614 -0.120075695 -0.03210213 0.04837288 0.09135367 0.014451649 -0.11919698
-0.08805848 -0.03415343 -0.06931975 -0.036310595 0.008435786 0.022657845 0.0032852204 -0.106543995
-0.09603951 -0.10762361 0.1021106 -0.097254954 -0.107015215 -0.07677984 -0.081881315 0.071419105
-0.07617919 0.0033477717 -0.117469884 0.03396195 -0.06814661 -0.102204785 0.090355724 0.020564789
-0.056446705 0.030708175 0.017736018 0.07626929 -0.040498752 -0.047409642 0.11880067 0.039893635
0.08570823 0.01162698 -0.08956004 0.050987557 -0.028812405 -0.07827131 -0.12350217 0.037916943
-0.044004213 0.035750065 0.039505202 0.090654954 0.016698094 0.13479798 0.071136564 -0.10534523
-0.042909406 -0.0063762893 -0.06821165 -0.040829677 -0.08891916 -0.016169269 -0.009658126 -0.11683604
-0.0026586005 0.16587622 0.08446127 -0.09045133 -0.015953813 -0.005778778 0.06637958 -0.080021635
-0.14966787 -0.042883523 -0.010391271 0.083007656 0.034961533 -0.08442777 -0.108371116 0.07027533
-0.011289696 0.101203375 -0.08531649 -0.06871459 -0.13044107 -0.0062016207 -0.11171421 0.025789294
0.047781236 0.05684638 -0.118951984 -0.09122719 -0.017151637 -0.0051989094 -0.06333665 0.008808374
-0.10760467 0.1438058 0.00133307 -0.045236386 0.05840401 0.013087174 -0.034086477 0.0930398
-0.07260732 -0.07284197 0.040755544 0.03729394 -0.026806636 0.032709304 -0.07999461 0.02789504

lstm.weight_hh_l0 f4 [256, 64]
00000000: 15a4 b53c 0574 26bd 346a d13d d842 153d
00000010: 1ffe b13c f06c ca3d e779 a8bd 3e4d 27ba
00000020: 76f9 1a3d 9d21 053e ccfb 493d 808a 8e3d
00000030: c745 083e 305d cebd d3a1 053e ffaa 93ba
00000040: 4bbf c1bd bee2 8a3d 5f67 9b3c a9e1 a13d
00000050: 56d5 c13c df5c b7bd 8bf6 d33d cd55 cbbc
00000060: bfcd 0a3e 6176 913c e586 8bbd f762 7f3d
00000070: 57be ce3c fca6 963d 211f b6bd d3de 4fbd
00000080: c070 b9bd aa54 6f3b 6bea 25bd 990d 89bd
00000090: 588a d63d 04ca 9b3c 0204 71bd 33bf d3bc
000000a0: 8535 81bd 8d73 0dbd d5e6 5d3d 375e d1bd
000000b0: 6bb4 b5bd b95b e6bd 992b babd 5ff7 23bd
000000c0: 5790 b53d 95e6 683d eca3 f03d 67b6 a83d
000000d0: 7938 91bd 68d7 a43b ccbf 003e 86a4 97bb
000000e0: 8c71 993d 1ddf 103e 5195 ab3c 1cd5 8dbd
000000f0: 73b5 7dbd 45a3 ac3d e577 d93c 4686 833d
00000100: b71b 473d ced1 d03c 834c f83d d8c0 8e3d
00000110: 9a82 b13d a163 7fbc e6d3 bebc 2fff 143d
00000120: 5fef 81bd b15f b3bd 6abf a83d f710 a33d
00000130: 0d68 e23c 14f2 4dbd a928 f4bd 8686 923d
00000140: 7b65 f33d 551b e0bd df1a c23d 4769 783d
00000150: 77ac 11bc c2a7 b5bd 2ed7 dfbd 26ca 543d
00000160: 2af1 8f3d 70d0 d8bd be52 873d ce20 063e
00000170: 8b0c 9bbd 8688 09be a96f dfbc 62cf 203e
00000180: 0e62 d3bd d87e 97bd f83c afba e9d9 cbbc
00000190: 0f7b ea3d 6db5 43bd 0ddc e5bd eb3f ea3d
000001a0: 0868 333c a1d9 0bbe fe6e 87ba 527a 73bd
000001b0: 5a1b f9bd cbae 02be 20a5 b7bd 54a8 debc
000001c0: 912d 29bd 7dfe 523d b9ea 743d e73e 51bd
000001d0: 9e8e 0cbe 06cb 843d 78f7 e43c cfa5 dd3d
000001e0: 7d29 31bc a2c6 b93d 3c89 c8bd 1533 8b3d
000001f0: 3249 173a 51bb 50bd d29a 683d 9335 afbd
00000200: 29f5 573d 7b95 03be b0f1 90bd 1dba 963d
00000210: bfbb 7cbd 27dc de3d 58ef 09bd c084 c83d
00000220: 6d85 9ebd 9378 8f3c b3e2 01bc a2fd 3b3d
00000230: 740a 0f3e 18cb 33bd bdea 49bd 728c bf3d
00000240: 236d 0abe 83f1 143d 1de8 a73d 95e8 d93b
00000250: a01f c9ba 824e ce3d c1ca a93c 6633 bc3b
00000260: 4d32 dcbc e751 e2bd ca6d e5bc 15fb f0bd
00000270: 7757 cebc 8932 983d ea3b 17be dd93 ecbd
00000280: 1110 4fbd 5404 96bd 01a4 36bd 0fc6 db3d
00000290: 7b58 de3d 28aa dc3d 6c86 a239 4c4b 633d
000002a0: 0f3b 143e 0473 f93d 450b 58bc 3b92 403c
000002b0: a0ca 2d3d b64c 4c3d 48a8 90bd 4903 cf3d
000002c0: 5b04 55bd f4eb 6b3d 2c9d 0e3b 572a e0bd
000002d0: b2a6 893d 535a b9bd af2f a1bd d97f 98bd
000002e0: bb1d 9dbd 0e56 36bc 1687 9b3d ba70 f73b
000002f0: 5363 0cbd 1f29 66bd 4c7f 32bd 295f e63d
00000300: 7afc 003e e3a5 39be 64ff ff3d 7073 d7bd
00000310: d769 2bbd 4842 08be 4782 a0bd 82a2 223c
00000320: 0fc4 a93d 5202 0dbe e76c 81bd 2416 d0bb
00000330: c941 783d 475e 9a3d bd1a 52bc 7c03 763d
00000340: f56c ab3d 9073 64bd ae1a c0bd b7ac 163e
00000350: 6646 1ebd 65d6 6ebc a098 893b 7023 d03c
00000360: 5475 a03c f50d b3bd ea76 a5bd 1acd c93d
00000370: deb8 b83c 24f4 4d3d f70b 933d 7a47 eebc
00000380: 218d ff3d d121 a73c 8a3a 83bd 2c7f 883d
00000390: 168b 97bc 0b9e cd3d e06c 81bd d296 2e3c
000003a0: 1b30 ad3d 505f c43d 6154 823c ef96 60bd
000003b0: 79d9 cfbc 6ad1 bdbc 1f8e b43d 7271 e23d
000003c0: dd2c 72bc 2ed8 e9bd f264 6fbd d28f b2bd
000003d0: 1ff3 c73b 6e0c f63d a6cb dabd 2ec9 293d
000003e0: 1ce7 773d ecf0 723d e3dc 3bbd 99d6 fdbd
000003f0: a2f0 cbbc 7cf4 04be 90fa 1e3e 5b68 90bc
0.022172967 -0.04063799 0.10225335 0.0364407 0.02172762 0.098840594 -0.08226376 -0.00063820544
0.03783556 0.13001104 0.049312398 0.069600105 0.13307868 -0.10076368 0.13050012 -0.0011266171
-0.09460314 0.06781529 0.01897019 0.079043694 0.023661297 -0.08953261 0.10349759 -0.024821186
0.13555048 0.017756643 -0.068128385 0.06235024 0.025237245 0.073560685 -0.08892656 -0.05074961
-0.090547085 0.003651897 -0.04050676 -0.06692047 0.10475606 0.019017227 -0.058841713 -0.025848007
-0.06309036 -0.034534026 0.054175217 -0.10223048 -0.088723026 -0.112479635 -0.09090347 -0.040030833
0.08865421 0.056860525 0.117500156 0.082379155 -0.070908494 0.0050305612 0.12573165 -0.004627767
0.074923605 0.14147611 0.020945223 -0.06925413 -0.06194062 0.08429579 0.026546428 0.06422095
0.048610415 0.025490668 0.121239685 0.06970376 0.086674884 -0.015587718 -0.0232944 0.036376175
-0.063444845 -0.08758486 0.08239634 0.0796222 0.027637506 -0.05027969 -0.11921818 0.071545646
0.1188459 -0.10942713 0.094777815 0.060647275 -0.0088912165 -0.08869888 -0.10929714 0.051950596
0.0702842 -0.10586631 0.06607579 0.13098451 -0.07570752 -0.13430986 -0.027274923 0.1570411
-0.10321437 -0.073972404 -0.001336961 -0.024884181 0.11449253 -0.047780443 -0.11223612 0.11437973
0.010950096 -0.13657238 -0.0010332761 -0.059442826 -0.1216342 -0.1276199 -0.08967042 -0.027179874
-0.04130322 0.05151223 0.05979416 -0.05108538 -0.13726279 0.06484036 0.027950034 0.10822641
-0.010813114 0.09071089 -0.097918004 0.067968525 0.00057711 -0.05095989 0.056788273 -0.0855514
0.052724037 -0.12849991 -0.07077348 0.07359717 -0.061702486 0.108818345 -0.03367552 0.09790945
-0.07740293 0.017513549 -0.007927584 0.04589618 0.13968831 -0.043894857 -0.04929613 0.0935296
-0.13518195 0.036363136 0.08198569 0.0066500404 -0.0015344508 0.10073568 0.020726563 0.005743432
-0.026879454 -0.11050778 -0.028006453 -0.1176664 -0.02518819 0.07431514 -0.14768949 -0.1155164
-0.05055243 -0.07325044 -0.04459 0.10731136 0.1085672 0.10774642 0.000309992 0.05549173
0.14475654 0.121801406 -0.013186281 0.011753614 0.042429566 0.049877845 -0.07063347 0.101080485
-0.052006107 0.05759807 0.0021761162 -0.10945576 0.06721248 -0.09050431 -0.07870423 -0.0744626
-0.07671686 -0.0111289155 0.07594125 0.00755128 -0.03427441 -0.05619156 -0.04357843 0.11248619
0.12596312 -0.18129687 0.12499884 -0.10520065 -0.041848984 -0.13306534 -0.078373484 0.00992644
0.08289348 -0.13770416 -0.063195996 -0.0063502956 0.060609613 0.07537513 -0.012823758 0.060061917
0.08370391 -0.05577427 -0.09380089 0.14714323 -0.038641356 -0.014577483 0.0041991025 0.025407523
0.019587196 -0.087428965 -0.08079322 0.09853573 0.022549089 0.05028166 0.071800165 -0.029086817
0.1247809 0.020401867 -0.0640765 0.06664881 -0.018498939 0.1003991 -0.063195944 0.010656076
0.08456441 0.09588492 0.015909376 -0.05483144 -0.025372254 -0.023171145 0.0881617 0.11056794
-0.014781204 -0.11418186 -0.05844588 -0.08718838 0.0061019803 0.120140895 -0.10683374 0.041451626
0.060523137 0.059311792 -0.04586495 -0.12394447 -0.024895016 -0.12983888 0.1552527 -0.017627886

lstm.bias_ih_l0 f4 [256]
00000000: 7033 d93c 286a 90bd 6732 b2bd 7470 a63a
00000010: 829c 45bd 046b 6d3d d657 543d e77b b93d
00000020: 1830 a93d e0a9 3dbd f3c0 b13b d428 4cbc
00000030: 2524 99bc 9a34 83bd e937 3a3d c33c 8cbd
00000040: 26a5 e6bd b308 2b3d e471 203b 6a37 49bb
00000050: 7ab0 e3bc 0111 a33d 8cc7 89bd d488 b2bc
00000060: cb3c 863d 22a5 14bd 95e2 1cbe 8504 503c
00000070: 6131 8a3d 2623 56bc f47f 8fbc 05c6 873d
00000080: 3e42 a73d 5478 2ebd 9339 afbc f829 ec3d
00000090: b63d 813d 4ecc 07bd 787d d0bd 85ba e4bd
000000a0: d9d3 ddbc 8eca 20bd 1495 623d cc56 023e
000000b0: 6f9a 033d f9fa c6bd 67f7 1c3d 21f3 e43d
000000c0: 4a27 98bd 47ce b4bd dfb1 8e3c 6ace dabb
000000d0: 360b 35bc 44da 81bd b61f 9c3d 36c8 dabd
000000e0: 7acb 02be 8174 16be f7fb 36bd 9a35 72bd
000000f0: f66a 6a3d d7f2 30bd 9b2c 163e b06c 653c
00000100: b5e8 3e3b a369 36bd e7df 2f3d 30aa 09be
00000110: da82 c23d 9f28 a7bc 6e35 713d e745 17bc
00000120: b888 e9bc 5c5d 7a3d 6d69 323d a6dc 0abd
00000130: 4f91 e2bd 9edc fdbd 71db 3f3b 98b1 283d
00000140: 06ff 0ebd ac40 d8bd 8f53 26bd ed88 f139
00000150: 54e8 133d af03 6f3d 9877 a83d cca0 543d
00000160: a07c 323d 0532 1e3d 8b62 983b ec34 d83c
00000170: 5e99 053d 7129 233e 714c 18bd 2b24 c83d
00000180: 6297 c53d 8e07 873c eb13 c6bc a9fb d93d
00000190: fe56 183d 6359 8dbd 5cf4 73bd aad4 ddbd
000001a0: c766 af3d 38b3 d63d 29ed 9b3c 0e18 043d
000001b0: 8022 783d 21fe 68bc 7b49 783d 149e 82bc
000001c0: 26a0 b1bc 1ffb 383d b4d0 e23d 5928 fcbc
000001d0: a03e 443d f084 7e3d 2387 c13a 629a 163e
000001e0: 9cc2 09bd fe7b 8c3c b2f6 74bd 67bb dfbd
000001f0: 24cc d0bd 7be5 63bd 0929 a23d fb70 b9bc
00000200: 5029 97bd d4c7 a9bd 4a2c ec3d 4035 603d
00000210: 07fd 21bd a739 8f3d 6fde be3d 2471 b1bd
00000220: f476 cabd bf74 b6bd bdd7 c3bd bd3d 9fbd
00000230: 7db7 e23d 9492 0bbd 6d41 93bd 57ed 9f3d
00000240: abc1 bc3d 3093 8d3c 7ee2 253c 03b3 cc3d
00000250: 28b0 a7bd 76b3 323d 5e59 153d 2cfe 963d
00000260: d853 313d 5fc5 623d 5921 ed3d ae7e 133d
00000270: f124 8a3c fae1 2dbd 2343 3f3c d811 80bc
00000280: 948e 913d 4d81 ccbd c97b 93bd 6662 34bd
00000290: 7d6d dd3d a9fb 25bd 7c80 413d fe40 80bd
000002a0: ddb7 cc3d a5f0 993c 089c 8dbd b50d 7fbd
000002b0: b3ad 523a e70b f3bd f28b a33a 8a84 e5bd
000002c0: 2e07 b2bd 6d98 483d 6464 693d 9091 9c3d
000002d0: 4ec5 92bd 17ba d43d c99d cabd fdeb 83bd
000002e0: b9d8 94bd 7f8c bb3d fdee bc3d 4413 443d
000002f0: 4839 09bc 55f2 c03d 9916 2b3c ec41 283d
00000300: 7815 a63d 8e4c bc3b 330f 6abd 0dd3 c23d
00000310: fb69 d5bc 4e9f 65bd 0931 0abe 1a38 883d
00000320: b585 b0bd cf27 7ebd d6f3 6abd 1455 81b9
00000330: 5283 643d 6246 cebc f45b f9bd e9d3 423d
00000340: 3eef b2bd 38a8 b3bd 873f 0abe a606 a23d
00000350: 55cb debd 2638 66bd dc28 8c3c f48e 053d
00000360: a0a2 b9bd 0436 be3d c53c fa3d ff45 863d
00000370: 733f 743d b237 2dbc 5099 903d be8e 06be
00000380: 9ee1 ecbc 4cdf 72bc df1a e7bd 7a21 87bd
00000390: 54ed 613d 8b81 ffbd 641b 57bb 488e a43c
000003a0: c8be 1e3d 56df b93d 620b e83b f2ca 9f3d
000003b0: 654e e43d ecf6 ddbd 5124 a4bd de4e 83bd
000003c0: 5c37 e6bd eb5b efbd 685c ebbd 67e2 c43d
000003d0: 072c ae3d d642 d13c 3982 65ba fe52 0bbe
000003e0: 6438 debd fb56 433d 5620 f9bd 04ee bf3d
000003f0: 1fa6 813d 9549 1fbd 526f 033d 8571 7dbd
0.026513785 -0.07051498 -0.0870102 0.0012698309 -0.04824496 0.057963386 0.05184158 0.090568356
0.08261126 -0.046304584 0.0054246127 -0.012460906 -0.018693993 -0.06406517 0.045463476 -0.06847527
-0.11261968 0.041756343 0.0024481947 -0.0030703195 -0.027794112 0.079622276 -0.06727514 -0.02179376
0.06554564 -0.036290295 -0.15320809 0.01269639 0.067476995 -0.0130699035 -0.017517067 0.06629566
0.081669316 -0.042595223 -0.021389758 0.115314424 0.063105986 -0.033153825 -0.10180181 -0.11168388
-0.027078556 -0.03925567 0.055317953 0.12728423 0.0321297 -0.09715838 0.03832188 0.11179186
-0.07429369 -0.08828407 0.0174188 -0.0066774385 -0.011050036 -0.06340459 0.07623236 -0.106827185
-0.12772933 -0.1469288 -0.044673886 -0.05913315 0.057230912 -0.04320034 0.14665453 0.014002964
0.0029130403 -0.044534337 0.04293814 -0.13443828 0.09497614 -0.020405112 0.058888845 -0.009232975
-0.028507575 0.06112419 0.043557573 -0.033901833 -0.11062872 -0.12395595 0.0029275084 0.04118499
-0.034911178 -0.1055921 -0.04060703 0.0004606912 0.036110237 0.058353122 0.08225936 0.05191116
0.043575883 0.03862192 0.004650419 0.026392423 0.032616965 0.15933777 -0.037182275 0.097725235
0.096480146 0.016483095 -0.02417942 0.106437035 0.037192337 -0.06901815 -0.05955921 -0.10831578
0.08564525 0.10483402 0.019033985 0.032249503 0.060579777 -0.014220745 0.06061695 -0.015944518
-0.02168281 0.045161363 0.11074963 -0.030780958 0.047911286 0.062138498 0.0014765005 0.1470733
-0.03363286 0.017148968 -0.05980558 -0.10924416 -0.10195187 -0.05563877 0.07917983 -0.022636881
-0.073809266 -0.08290067 0.11531885 0.054738283 -0.039547946 0.06993418 0.093197696 -0.08664158
-0.0988597 -0.08908986 -0.09562633 -0.077754475 0.11070154 -0.034075335 -0.07190213 0.07808941
0.09216627 0.017282099 0.010124801 0.09995081 -0.08187896 0.04362818 0.03646218 0.07372698
0.04329285 0.05536401 0.11578626 0.036009483 0.016863318 -0.042451836 0.0116737215 -0.015633509
0.07107273 -0.099856 -0.072013445 -0.044039153 0.10811899 -0.040523205 0.047241673 -0.06262396
0.09996007 0.018791506 -0.06914526 -0.06226893 0.00080367475 -0.118675046 0.001247762 -0.112069204
-0.08692776 0.04897349 0.056980506 0.07644951 -0.07166539 0.10387056 -0.098933764 -0.064414956
-0.07267899 0.09157657 0.09225271 0.047869936 -0.008375473 0.09421221 0.010442399 0.041078493
0.081095636 0.0057464307 -0.0571434 0.09512911 -0.026051512 -0.056060128 -0.13495268 0.066513255
-0.086192526 -0.062049683 -0.057361446 -0.00024668186 0.0557893 -0.025180046 -0.12175742 0.047565375
-0.08737038 -0.087723196 -0.13500796 0.07911424 -0.10878626 -0.05620589 0.017109327 0.032607034
-0.090642214 0.092876464 0.12218622 0.065563194 0.059630822 -0.010572361 0.07060492 -0.1314039
-0.028916176 -0.014823746 -0.11284422 -0.06598182 0.055157974 -0.1247588 -0.0032822723 0.020087376
0.038756162 0.09075801 0.007081435 0.078023806 0.11147765 -0.10838112 -0.08014739 -0.06411527
-0.11241028 -0.11687454 -0.114922345 0.09613495 0.08504491 0.025544565 -0.00087550614 -0.13605878
-0.108505994 0.047690373 -0.12164371 0.0937157 0.06330513 -0.038888533 0.032088585 -0.06187584

lstm.bias_hh_l0 f4 [256]
00000000: cd3d 98bd a3d6 afbc 77be 66bd 488c 08be
00000010: ac15 c0bd 224d 96bd 8a1d 8e3a 2d75 003e
00000020: a4b7 923d 496d 033e b697 f63d 32c4 9cbc
00000030: 0bf2 e53d 1111 4bbc 4197 813d 3848 fe3c
00000040: 7523 4d3d 1e5e afbd ec3e c7bd f0c0 ba3d
00000050: fbff 933c b85c 023e 19ef ee3c d32b 20bd
00000060: f9d9 c9bd bf92 abbd 9a46 7c3c 2a57 edbd
00000070: 1965 94bd c909 103d 2856 65bd cef2 72bd
00000080: bfcf 07be 4674 80bd 422d b4bd 8802 543d
00000090: bbb3 23bd 06ec e03c dcef a23b a11e 7b3d
000000a0: c60a 09be 03ee ab3d 4d0a 5d3d 389c aebd
000000b0: c888 bf3d 93e3 c7bd f0d4 8cbc b70c 91ba
000000c0: 570c 6e3d e631 a3bc 90b3 0abe 20ea 8dbd
000000d0: e11e 803c f376 a63d 51dd 7e3d eb68 87bd
000000e0: 7c5c 5f3d c933 06be a913 07bc f583 a53d
000000f0: cb5d c53d db69 123e 4943 47bd 55e0 71bb
00000100: 86f4 8c3d 5344 743d e891 8fbd 3914 403c
00000110: e872 c2bc 68b9 8bbd d3aa 0a3c a770 1cbc
00000120: f3e6 dabd ae83 133e 22e5 84bc 1494 24be
00000130: c53f 3c3d f3c6 21bc b1a7 06bd 35de d23c
00000140: 58d6 653c e832 2c3d b17e 19bc 96e6 9ebd
00000150: c305 e9bd 418e 6abd c604 c13d efc6 b5bd
00000160: 99b5 bf3d 0418 f43d f0ad a2bd 211f 2fbd
00000170: 95f5 843d c258 033e 4bb9 ab3d cbd7 4b3c
00000180: a2c1 f0bd 00ef 6cbc 47bc ab3d 2b95 5cbd
00000190: 4eb0 bb3d 7df5 b43c 27f2 24bd ed93 993c
000001a0: 3bc0 bf3d a9f2 cbbd f309 babd cf74 ae3d
000001b0: b922 b73d f58c e43d d530 f3bc ad16 e13d
000001c0: da84 ea3c b118 fd3d a06d ea3d 3f8e 823d
000001d0: 6309 7e3c cc74 4f3d e82d af3d 9763 ca3d
000001e0: 8c1c 69bd fc86 a13c 0df4 9fbc 8b8f 383c
000001f0: 4266 4d3d 3d1b 2d3d 2927 813b 4aad 87bd
00000200: 912d ab3c e895 cb3d 6a10 03be 83f5 18bc
00000210: 3096 133e b7b3 bdbd 317a cb3d c93e 623d
00000220: f6cb d9bd 6d09 d2bd bd68 b03d 7461 803d
00000230: a1a9 abbd f212 7ebd 70cb b9bd 7248 38bd
00000240: 541d e63c a6c0 d43d a1c1 c23d 7d63 bebd
00000250: 507b 9fbb 07eb 97bd 3363 f23d fa68 003d
00000260: 1e40 cd3d 56c9 f03d e64a 40bd 1441 d3bd
00000270: 8d3b 16bd debd 173d d1b0 253c 8027 e33d
00000280: b325 44bb 75a8 8d3c 4c37 0abe 5366 023d
00000290: 152b 353d d385 3b3d 3ab6 0ebd f2e5 523d
000002a0: e0b5 63bd c134 1d3c a1fc 843d 9d8d f53d
000002b0: a0f2 b6bd 6888 e53d 0500 f5bb 6e1f 9cbd
000002c0: 412b 04bd d1c7 99bd 9c1a a53d 0fbf e7bc
000002d0: 4531 a53d 6b2d 5abc 2f01 e0bd 66e3 d7bd
000002e0: 2206 06be 56a1 1b3e 3daa d8bd b3ce bf3c
000002f0: d19f a5bd f6ec d03c 9044 3c3d 22e5 293c
00000300: d22b 1f3e 770b f13d e030 ddbd c952 3dbd
00000310: fb9d f73d 8cc5 9fbd dd5b 173d 60cf d0bd
00000320: b0f1 fdbd 2db9 813d a073 033e 92bf f7bc
00000330: 6a47 673d 984c 4c3d 09e1 ac3b f6fa 453d
00000340: 32b8 b33d 2e4e 8f3b fc42 fd3c 04fb 12be
00000350: f14c c63d 7ef1 23bd c7d1 003e d962 123d
00000360: 9a3b b03d fb2a 513d 8bb3 ee3d 5666 9cbd
00000370: 8a5e ee3d a7d4 d33d 0658 d6bd c766 d73d
00000380: 637a e53c 96aa 9c3d 038e 33bd 0050 28bc
00000390: 224c 1ebc d125 7c3d 1f6b 07bd 9f1a 203d
000003a0: 9e9c cebc de7c 7c3d a018 423d 3de3 c2bc
000003b0: 9170 713d a3d6 4abd de08 18bd 72a9 a03d
000003c0: 2c90 cebc 4dbb 71bc 3cf6 e13d a5e8 20bd
000003d0: 1163 44bd e91a 683d 507b 53ba 3690 6a3c
000003e0: b66c 89bd 322c eebc d371 263d 6561 4e3c
000003f0: 24e4 e83d 2d73 dd3c ec2f dd3c 6f8b 133e
-0.074336626 -0.021464651 -0.056333985 -0.13334763 -0.093791336 -0.07338931 0.0010842544 0.12544699
0.07163933 0.12834658 0.12040655 -0.019136522 0.11227807 -0.012394206 0.063276775 0.031040296
0.050082643 -0.08562873 -0.09728798 0.09118831 0.018066397 0.12730682 0.029166745 -0.039104294
-0.09856028 -0.08377599 0.015397692 -0.11588891 -0.07245845 0.03516558 -0.055990368 -0.059313588
-0.13262843 -0.062721774 -0.08797695 0.051760226 -0.039966326 0.027456295 0.004972441 0.061308507
-0.13383016 0.083950065 0.0539649 -0.0852589 0.09352261 -0.09760203 -0.01719138 -0.0011066411
0.058117237 -0.019921254 -0.1354506 -0.069294214 0.015639724 0.081281565 0.062222783 -0.066118084
0.05453156 -0.13105692 -0.008244433 0.080818094 0.0963703 0.14298193 -0.048648153 -0.0036907394
0.06882577 0.05963547 -0.07010251 0.011723571 -0.023736432 -0.06822473 0.008463579 -0.009548343
-0.10688581 0.144057 -0.01622254 -0.16072112 0.045959253 -0.009874093 -0.032874767 0.025740722
0.014028154 0.042040735 -0.0093685845 -0.077588245 -0.11378052 -0.05726457 0.094247386 -0.08875834
0.09360809 0.11918643 -0.07943332 -0.042754296 0.064921536 0.12826827 0.08384951 0.012441586
-0.117556825 -0.014461279 0.083855204 -0.053853195 0.09164487 0.022089714 -0.040269997 0.018747294
0.09362837 -0.09958393 -0.09083929 0.08518373 0.0894217 0.11159698 -0.02968637 0.10990653
0.028627802 0.12358225 0.114466906 0.063747875 0.015505168 0.050648496 0.08553678 0.098822765
-0.05691199 0.019717686 -0.019525552 0.011264692 0.05014635 0.042262305 0.003941436 -0.06624849
0.020895751 0.09940702 -0.1279923 -0.009335878 0.1441276 -0.092627935 0.099354155 0.055235658
-0.106346056 -0.10255704 0.08613727 0.06268588 -0.083819635 -0.062029786 -0.09072006 -0.044990964
0.028090157 0.10388307 0.09509588 -0.0929632 -0.004866995 -0.07417875 0.11835327 0.031350113
0.10021995 0.11757152 -0.04694643 -0.10315147 -0.036677886 0.037046306 0.010112957 0.110915184
-0.0029929697 0.01729224 -0.13497657 0.031835865 0.04423054 0.04578192 -0.034841754 0.051488824
-0.05559337 0.009595097 0.06493498 0.11989901 -0.08932996 0.11207658 -0.007476809 -0.07623182
-0.032267813 -0.07508815 0.08061716 -0.028289346 0.08066038 -0.013316493 -0.10937726 -0.1054142
-0.13088277 0.15198264 -0.105793454 0.023413992 -0.08087123 0.025503617 0.045963824 0.010369571
0.1554406 0.11769765 -0.10800338 -0.04622153 0.12090679 -0.07801351 0.036952842 -0.10195804
-0.12399614 0.063341476 0.12837076 -0.030242715 0.05646459 0.049877733 0.0052758497 0.048335038
0.08775367 0.0043733334 0.03091573 -0.14353567 0.09682644 -0.040025227 0.12580024 0.0357388
0.08605118 0.05106638 0.11655339 -0.076367065 0.11639126 0.103432946 -0.10466008 0.1051765
0.02801246 0.07649724 -0.043836605 -0.01027298 -0.009661706 0.061559502 -0.033061143 0.039087888
-0.025221165 0.06164252 0.047386765 -0.023789996 0.058945242 -0.0495211 -0.03711783 0.07844819
-0.02521523 -0.014754129 0.110332936 -0.039284367 -0.04794604 0.05666629 -0.0008067386 0.014316609
-0.06710188 -0.029073808 0.040635895 0.012596463 0.11371639 0.02703246 0.02700039 0.14408658

lstm.weight_ih_l1 f4 [256, 64]
00000000: 0972 0ebe 85a1 07be 8b15 85bd 8394 f0bd
00000010: 61aa b8bd ecf7 9fbb c616 1a3d ad6f 72bc
00000020: 7a38 4d3d 0ed4 8abd 2e2c 403c a7ef 113d
00000030: 7006 e23d d5c9 3aba 48d9 3ebd 7d39 d0bd
00000040: 00dd 0bbd f31c a73d 1ae3 b53d d14d 0dbd
00000050: 33ad 51bd 45d9 e23d 2478 913c 63d3 09be
00000060: 840e 04bd 62bd 87bc 3367 fbbd ca51 423d
00000070: 9292 c5bb f13a 80bc b304 06be a479 eabd
00000080: f0ec a2bd e7b8 cabd d1b1 b8bd 3228 aebd
00000090: 57c6 e3bd 6038 9dbd 6e36 0c3c 3044 c33d
000000a0: 8816 16bb 0f1f 1bbd 2a9d 1dbc baaa fc3c
000000b0: 83dc bcbd 8a67 2bbd ce82 6dbd 1585 afbd
000000c0: be46 2c3c 2c70 fa3c f376 a6bd 5931 76bd
000000d0: 19dd e0bc 57d5 99bd df1f b03d 7aac 613d
000000e0: ca6a adbc 864a 553d c12c 623c 13ae fb3c
000000f0: 604b 7fbd 1050 e33b e4e1 843b 3120 b23d
00000100: 71cf a2bd b3d2 a43d 5941 a03d 310e cc3c
00000110: 75aa a93d 505e 843d b4ba ff3d 4527 fdbc
00000120: 12de 8a3b b8d5 d53d f9a6 bd3c f934 20bd
00000130: 4a48 81bc 1e58 e7bd 4e24 613d f17e 4f3c
00000140: 4b5c a83d 9380 ac3d 99df 8c3b 0944 a03d
00000150: 5b52 d0bd 6bcf ad3d 0ed2 da3c cdba 41bd
00000160: aed0 c7bb d9df 4c3d 6972 8a3b ad29 8b3d
00000170: fd9e 053e 05a7 273e d675 b33d 6736 a93b
00000180: b389 05be 70ee 95bd 1063 5fbd 2daf 623c
00000190: f053 d13c aba7 ea3d a443 35bd cf99 c4bd
000001a0: 205a d9bd 3b82 c3bd 837b 5f3a 2c43 beba
000001b0: 6673 a93d 8983 a83c 1396 e5bd 1e11 12be
000001c0: 70aa e7bc 24ac 003e fc8e c7bd b85c 2f3d
000001d0: 7549 b1bd bcf9 393d 2c55 9a3d 2206 66bd
000001e0: 56e5 ad3d 3af5 123d e120 dbbd 9fc1 d0bd
000001f0: 0993 003e 2708 8ebd 7f65 bbbb daa1 ae3d
00000200: 96fb 22bd 067f 683d cb88 cdb9 5876 febc
00000210: 0bb9 063d 58e5 dabd 6fd4 d2bc 7505 01be
00000220: 3381 6bbd 6a39 34bd bb16 d4bc b203 36bd
00000230: bea7 093d a436 b63c 90ff 5fbd a0d9 1b3d
00000240: 95f1 3d3c fecc a9bc c1b6 33bd 048f b4bd
00000250: 9b93 40bc 5486 cbbd 4ef3 f23d c52a 9cbb
00000260: 21d3 13bc 8436 6bbc 898f 92bb 93ca da3d
00000270: d8ce 96bd 7845 73bc 71c2 6cbd 0212 6e3d
00000280: af6b 113d 3be2 183d 4066 88bd 7f82 713d
00000290: 95de d7bd 9725 32bd d340 27bc 4c25 7f3d
000002a0: 463d 0fbd e42b 09bd d123 71bd 1f87 9fbd
000002b0: 4b16 ffbc ff66 88bd 4e22 e3bd b8ba d53d
000002c0: 60e8 89bd 9757 123d 2132 e2bc 6c5e 04bd
000002d0: 0b10 f23c 7dd6 0dbe b68d a1bc 867f 813d
000002e0: ea90 ae3d 7408 d13d a65d a0bd ea15 afbd
000002f0: a86c f93a 7856 0e3d 3d67 25bd 085a 43bc
00000300: 2fd8 c3bc 39b2 a4bd c8f4 503d 8cb3 16be
00000310: 8a5a 193e 4af0 943d 0b83 f13d ac06 f3bd
00000320: 001a 65bd b4f4 89bd 19d6 093d 7ef9 923d
00000330: 3173 1a3e 7a5e cebd d09c 533d c33a 87bd
00000340: fa7a 00be 3a8a 053b 5781 d23d 4279 0f3d
00000350: a847 e23c c944 a5bd 2023 d23c 8ad4 6b3d
00000360: c36d bd3d 83c9 ee3c 3ca2 fbbc c73f e1bd
00000370: 59be f13d 88ee 753d e75a bfbd 5a4e 61bb
00000380: b0a2 623d 11de 0bbe 1efb a6bd 1005 e93d
00000390: 3a99 9b3c 58ce 0d3d 7ef0 d63d dbcd fc3d
000003a0: b6ba f93c 4975 a43d 2708 a5bd dfe4 73bd
000003b0: 63b1 96bd 6934 0c3d 32af 46bd aadf 31bc
000003c0: f5fc b63d dd0c bbbd d920 4a3d c5f9 5e3d
000003d0: ea77 963d 7080 10bd 6a5c dd3d ac96 993c
000003e0: 4830 e93c 56e3 febd 7942 90bd 0bce 843c
000003f0: 3a60 ecbb 8add c9bb 6200 c23d 4554 f03d
-0.13910688 -0.13245209 -0.064982496 -0.11747076 -0.09016872 -0.0048818495 0.037619375 -0.014797133
0.05010269 -0.067787275 0.011729283 0.03562894 0.11036384 -0.0007125412 -0.046593934 -0.10167215
-0.03414631 0.081598185 0.08881207 -0.03449804 -0.051190566 0.11076597 0.017757483 -0.13459544
-0.032240406 -0.016569797 -0.12275543 0.04744128 -0.0060294354 -0.015653105 -0.1308773 -0.11448982
-0.079553485 -0.098985486 -0.09018291 -0.085037604 -0.11121815 -0.07676768 0.008557899 0.0953449
-0.0022901613 -0.037871417 -0.00961999 0.030843128 -0.09221747 -0.04184679 -0.057986073 -0.08570305
0.010514913 0.030571066 -0.081281565 -0.060105655 -0.027449178 -0.075113945 0.08599829 0.055096127
-0.021169085 0.052073024 0.0138046155 0.030722653 -0.062327743 0.0069370344 0.0040552486 0.08697546
-0.079497226 0.08048 0.07824964 0.02490911 0.08284465 0.06463301 0.12486783 -0.030902514
0.0042378986 0.10441154 0.023150908 -0.03911302 -0.01578154 -0.11296104 0.054966263 0.0126645425
0.082207285 0.08422961 0.004299116 0.07825477 -0.10171958 0.084868275 0.02671149 -0.047297288
-0.0060978746 0.050018165 0.0042250645 0.067950584 0.1304893 0.16372307 0.0876271 0.005163956
-0.1304081 -0.07320869 -0.054537833 0.0138357105 0.02555272 0.114577614 -0.04425396 -0.09599649
-0.10612893 -0.09546324 0.00085251796 -0.0014515868 0.08273964 0.020570533 -0.11210265 -0.14264342
-0.028279513 0.12565666 -0.09744069 0.042813033 -0.08656589 0.04540418 0.075357765 -0.056158192
0.08491008 0.035878398 -0.106996305 -0.1019318 0.1255609 -0.06935149 -0.0057188864 0.085269645
-0.039790712 0.056761764 -0.00039202566 -0.03106229 0.032891314 -0.10688275 -0.025736062 -0.12599738
-0.05749626 -0.044000067 -0.025889745 -0.044437118 0.033607237 0.022242852 -0.054687083 0.03804934
0.011593242 -0.02072763 -0.04387546 -0.088163406 -0.011753942 -0.099377304 0.11862813 -0.0047658407
-0.009022505 -0.014356259 -0.004472677 0.10683169 -0.07363671 -0.014848106 -0.05780262 0.058122642
0.035503086 0.037325125 -0.06660128 0.05896234 -0.10540501 -0.04349288 -0.010208326 0.06229143
-0.034970544 -0.033489123 -0.058872048 -0.07789444 -0.03113856 -0.0666027 -0.110905275 0.104360044
-0.06733775 0.035728063 -0.027611794 -0.03231661 0.029548666 -0.13851352 -0.019720893 0.06323151
0.08523734 0.102066904 -0.07830362 -0.08549102 0.0019029574 0.03475043 -0.04038166 -0.011923321
-0.023906795 -0.08041806 0.05101469 -0.14716929 0.14975944 0.07272394 0.117925726 -0.11866507
-0.055933 -0.067361265 0.033651445 0.07176493 0.15083005 -0.10076614 0.05166322 -0.06603005
-0.12546912 0.002037658 0.10278576 0.03502775 0.027622059 -0.0806976 0.025651515 0.05757574
0.09249451 0.029148823 -0.030717008 -0.10998493 0.11803884 0.060041934 -0.0934351 -0.0034378977
0.055330932 -0.1365893 -0.081533656 0.11377919 0.018993963 0.034620613 0.10495089 0.12343951
0.030484539 0.08030183 -0.080581956 -0.05954444 -0.073580526 0.03422967 -0.048506923 -0.010856548
0.089349665 -0.09133313 0.049347732 0.054437418 0.073470905 -0.035278738 0.10808642 0.018748604
0.028465405 -0.12445705 -0.07043929 0.01621153 -0.0072136195 -0.0061604427 0.09472729 0.11734823

lstm.weight_hh_l1 f4 [256, 64]
00000000: f008 98bc 205b 7b3c 970e b43d ea6e 063d
00000010: e8f9 8b3d b963 10be 2d40 873c 265b bdbc
00000020: 10b6 af3c d4d3 763d 9265 b4bc 875e c53d
00000030: e347 c5bd 682d 98bd fd4a 14bd fe90 c6bd
00000040: 32b7 89bd 1c1f 393c 021d 64bd 85ca b4bd
00000050: 01db adbb 8a7a 993d ce4b d53d 9b9b 3fbc
00000060: 4f31 203e e0c4 02be a5f5 fabc 9deb 533d
00000070: 70f1 8ebd 5bca ed3d 6b6c b23d c5ef 1d3e
00000080: f65f 92bb 59e4 debd 07eb a0bc ffc2 6f3c
00000090: 0708 723d d4fc 24bb 781f ad3d ec6e b4bd
000000a0: 6642 213d 91ad c03d 06a9 753d 03e3 c43b
000000b0: 397b 8cbc 6619 f9bc d384 c13d b6f1 bebd
000000c0: 7d02 a8bd 2250 a33d 0d48 013d 97f9 b03d
000000d0: 65fa 07be 4771 86bc 1597 5fbc 43c3 22bd
000000e0: 26a4 14be a673 cabc 7de0 013e 2457 3fbd
000000f0: d77e 6bbc a6bd d33c 798d ad3d 9c47 173e
00000100: 0b48 d83c 33bc 21bc 83cb 583a 4396 f0bd
00000110: ff27 64bc 3b49 d9bb cb32 afbd 6718 483a
00000120: 5e8a 7cbd eb72 b4bd bf30 513d 925b 98bd
00000130: 1e28 df3d 77c7 a8bd 9d7c 01be e712 61bd
00000140: be4f f23d 10fb 31bd 0b33 763d 131f eebd
00000150: 3165 debd 7f78 753d da90 92bc 453e 0abd
00000160: 07e6 57bd e6f7 bbbd 3963 25bd 8c00 61bd
00000170: 843e 133d 7863 e3bc 9760 89bd cc42 0b3d
00000180: 4ba5 f9bc 12d4 863d 1292 b1bd e406 debd
00000190: 0f15 c7bd 500f f8bc d881 f7bd 0605 03be
000001a0: 4402 aabd a374 10be b036 4abd de0c 19be
000001b0: 9b63 e5bd d9bb 14be 26d5 0bbc 682f 2bbd
000001c0: 6542 fbbd f4d5 fcba d7c2 1a3e 4ca0 b7bd
000001d0: d032 043e b39c 3d3c 717c aa3d 0539 e03d
000001e0: ac2c 523d 1971 94bd c0a4 86bd 02a7 343d
000001f0: 9858 36bd 7c85 a33d 974a a3bd 7190 c8bc
00000200: c97d 4c3d ec15 f53b b25a 6d3c eda6 39bd
00000210: ac97 ae3d 18b8 eabd 84f1 febc e52d 653d
00000220: 513b d63c 0e6d 12be d0db 0b3d df21 70bd
00000230: 26e0 f0bc 43d3 bb3d dd25 123d bd5c eb3d
00000240: 774d 5e3d c9dd 4b3d f960 163b a3a4 433d
00000250: 2ad7 acbc bf26 c4bd 7387 94bb 1ad9 f13b
00000260: c129 83bd 6e8e 7b3d 0da2 c93d 5063 01bd
00000270: 66f5 3abd e32e 4fbd 4292 ac3d cc91 4cbd
00000280: fca6 813d b5a2 d5bd 5333 6dbd 81a2 a63d
00000290: eb33 a33c 4ffc cebd 7177 383d 0cc2 23be
000002a0: 3e46 e03d b741 03be 4e0c da3d dfde 51bc
000002b0: b1a9 dd3d ad4e 0fbe 20d6 973c 34cc 103d
000002c0: b664 2fbd ba29 a1bd c501 1c3e 2072 69bd
000002d0: 2220 043e c017 5a3b 7f74 813c 0281 3cbd
000002e0: 1196 8cbd 9e90 d53d d9a4 4ebc 30da 4abd
000002f0: c506 5fbd c6a4 c1bd 8dfe e5bc 4c8a e93c
00000300: f89d 34bd 04e3 d0bd 9987 9c3d cda3 aebd
00000310: fa7a d0bc 856c 4ebd 4fe9 90bd e3cf 16bd
00000320: c20e 073e f1b4 43bc 6e03 d63d 3814 353d
00000330: d29c 9abd 87da bcbd d8d1 123e 611d dfbd
00000340: 8ff2 ca3d 2d58 25bd d9cc 76bd 1d57 863b
00000350: 29bd dc3d 8a7e 9e3d 40a6 ed3d 2e40 d6bd
00000360: d203 083d df3a 9c3d 0664 113e bd5c cbbd
00000370: ce7c 38bd a4fc 743d f481 a4bc a9e7 b53d
00000380: a89e 783c 7ebb 703d 9e5f c0bd 0afb bb3d
00000390: bbda b13d 245a e73d 66fe 213e 9500 a8bd
000003a0: e25c 813b 191c 66bd 1bda 0dbd 33db 27bd
000003b0: 2322 7f3d 2751 b5bb e50b 383e a98a 09be
000003c0: f780 8bbd b47f e2bc 094d 8f3d 68d3 093c
000003d0: 8ff5 0fbe 84c7 c33c b763 43bc 135d 883c
000003e0: 2a24 2dbe c331 1e3d 3198 473d 4e6c 0cbd
000003f0: 899e 33be 91bd 98bd d0c6 5fbd a051 0dbc
-0.01855895 0.01534155 0.08791845 0.03282062 0.06834775 -0.14100541 0.016510094 -0.023114752
0.021449119 0.06026061 -0.022021089 0.0963717 -0.09632852 -0.074305356 -0.036204327 -0.09695624
-0.06724395 0.011298921 -0.055691727 -0.0882769 -0.0053056483 0.074940756 0.10414849 -0.011694814
0.1564381 -0.12770414 -0.03063471 0.05173837 -0.06979644 0.11610862 0.08712085 0.15423496
-0.004467006 -0.108833976 -0.01964332 0.014633893 0.059089687 -0.0025175111 0.08453268 -0.08810219
0.039369963 0.09408105 0.059975646 0.006008507 -0.0171486 -0.030407619 0.09449162 -0.093234465
-0.082035996 0.079742685 0.031562854 0.086413555 -0.13279112 -0.016411437 -0.013646861 -0.039736997
-0.14515743 -0.024713349 0.12683292 -0.046713963 -0.014373503 0.025847267 0.084742494 0.1477341
0.02640154 -0.00987153 0.00082700717 -0.1174741 -0.013925551 -0.006631044 -0.0855461 0.0007633031
-0.061655395 -0.08810981 0.05107188 -0.07439341 0.108963236 -0.0824117 -0.12645192 -0.054949667
0.11831616 -0.043452322 0.060107272 -0.11627021 -0.108591445 0.059929367 -0.017891336 -0.03375079
-0.052709606 -0.09178142 -0.04037783 -0.054932162 0.03594829 -0.027757391 -0.06707876 0.03399925
-0.030474326 0.06583418 -0.08670439 -0.10841158 -0.097208135 -0.03028074 -0.120853126 -0.12794885
-0.083012134 -0.14106993 -0.04936856 -0.14946315 -0.11200639 -0.14524783 -0.008534705 -0.041793257
-0.12268523 -0.0019289837 0.15113388 -0.08966121 0.12910008 0.011573005 0.083245166 0.109483756
0.051312134 -0.07248134 -0.06574392 0.044104584 -0.044518083 0.079844445 -0.07973211 -0.024482938
0.049924646 0.00747942 0.0144869555 -0.04532521 0.08525023 -0.11460894 -0.031121023 0.05595197
0.026151331 -0.14299414 0.034145176 -0.058626052 -0.029403757 0.09171154 0.03568064 0.11492298
0.054273095 0.049772058 0.0022945984 0.04776443 -0.021098692 -0.09577703 -0.0045327484 0.007380617
-0.06404448 0.06141513 0.09845362 -0.031588852 -0.045644186 -0.050581824 0.08426334 -0.04994373
0.06330678 -0.104314245 -0.057910275 0.08136464 0.019922217 -0.10106718 0.045035783 -0.15991992
0.10950898 -0.12818037 0.10646878 -0.012809484 0.10823382 -0.13994856 0.01853472 0.035350993
-0.042820655 -0.07869287 0.1523505 -0.056993604 0.12902883 0.0033278316 0.01580262 -0.04602147
-0.068645604 0.10427974 -0.012612545 -0.049524486 -0.054449815 -0.09455256 -0.02807548 0.028508328
-0.044095963 -0.1019955 0.07643051 -0.08527336 -0.025449265 -0.05039646 -0.0707575 -0.03681935
0.13189223 -0.011944995 0.10449873 0.044208735 -0.07549442 -0.09221368 0.14337862 -0.108942755
0.09909546 -0.040367294 -0.06025395 0.00409974 0.10778267 0.07738979 0.11603975 -0.1046146
0.03320677 0.07628416 0.14198312 -0.09929798 -0.045040898 0.05981125 -0.020081498 0.08882076
0.015174545 0.058772556 -0.093932375 0.09178741 0.08684298 0.1129649 0.15819702 -0.08203236
0.00394784 -0.05617914 -0.03463183 -0.04098053 0.062288415 -0.0055333558 0.17973287 -0.13431801
-0.068117075 -0.027648784 0.06997115 0.00841222 -0.14058517 0.023898847 -0.011925629 0.016645944
-0.16908327 0.038621675 0.048729125 -0.034282975 -0.17540945 -0.07458032 -0.05463296 -0.008625418

lstm.bias_ih_l1 f4 [256]
00000000: d2c3 bf3c 638a 7bbd b8dc a9bd cfbb 12bd
00000010: 2142 c53c 463d a6bd b607 5ebd 6e73 fb3c
00000020: dd1d 5d3c 6e47 0dbe 1e37 c8bd 3f21 71bd
00000030: feda 733d b835 ebbd a759 c0bd 5e05 abbc
00000040: 75e4 6e3d d903 933d dc45 4a3d e782 69bd
00000050: b89d 923d 2242 d6bd 54e3 c2bb 0952 02bc
00000060: f38f ae3d f16b 5f3d 2d62 7b3d 0acb beba
00000070: d14e 8f3d 7637 593a 4883 073e f431 023e
00000080: 5972 e2bd cd79 14be 30c1 b4bd 213c 97bd
00000090: c228 d2bd a1f0 a5bd 90e8 f1bd e077 d53d
000000a0: e338 bebc 7b8d d7bc 430f cc3d 9bf4 d63d
000000b0: 8761 e1bd 2a5f a0bd 57a2 96bd d73e 873c
000000c0: 5fb1 df3d 1221 b6bd e984 1f3d 0b54 863c
000000d0: addb 1abd 9c7c 303d 3d36 69bc cfc5 a63c
000000e0: d4dc 89bd c926 9bbd 992d 3fbd f7c7 aa3d
000000f0: 21b0 ea3d 9742 2cbd 130f 8f3d aa29 d63d
00000100: cd32 dfbd 55e4 67bd e9ee dbbd 8c44 dfbd
00000110: 44ec 19ba dbb5 16be c0a6 f8bd 9574 513d
00000120: d170 d83d 7b01 ae3d 5688 093c abc8 dd3b
00000130: a537 b2bc b6fe 0bbd 4b69 a2bd f024 fd3d
00000140: a1fd b33c 530d 9abc cf51 cc3d 7ca3 9c3d
00000150: 933d c6bd 93d1 c7bc 0c08 56bd 55e2 1e3d
00000160: a4a9 29bd 0886 6abd c7d7 45bc e743 70bd
00000170: ff66 373d 6077 b7bd dbd0 c83d 71d9 cebd
00000180: 65a7 9d3d a061 15be e864 683c 2dae ffbd
00000190: a70c 12be 9b76 0c3e 1165 35bd 698a 773d
000001a0: 9bf6 abbd 7890 07bc 4687 c5bd e4b8 f3b9
000001b0: d6e4 693d dd5e 08be 7ff1 c23d 3b5a 6cbd
000001c0: f589 e43d f152 9a3d 85ef 9f3d 45ca ce3d
000001d0: 764e cbbc 7326 c8bc b987 da3c 4b09 05be
000001e0: 0c46 d1bd 19c9 04ba 6e60 18bd 4f48 36bc
000001f0: 8586 c1bb 087d 333d 7226 4dbd 42e0 c53d
00000200: 0f52 78bc cbdc b4bd 5f4b 81bd d479 cebc
00000210: 6867 09bc f68b ae3d 9079 e03d 1294 7e3a
00000220: ec77 b23d adb2 8bbd e66e b33d 2b27 913d
00000230: 4284 afbd 651b d2bd 3897 66bd ece0 c03d
00000240: 76c8 0ebd e492 9abd 1c78 ca3d c55e 603d
00000250: 41a8 3bbc d050 8ebd b197 6dbd fac4 7b3d
00000260: 4928 613d 4dd5 d03c cd14 8f3d 8e4a 0e3b
00000270: cc35 dabd 30d8 92bc c5e5 0bbe bc53 f0bd
00000280: d502 bd3d b880 c53b fe2b b93d e5c9 113d
00000290: 0c66 f93d 0edb e6bd 5ebc 283b 8294 103d
000002a0: ca02 92bd 0383 8f3d 7317 f8bd c1f0 df3c
000002b0: 7631 48bd 230b 8a3d 8bb6 373d c5db a93d
000002c0: 82d9 403c 1312 ac3d eaea afbd 44ec 073d
000002d0: 52d4 b2bd e196 f8bd 518c 1dbd 5c07 cdbd
000002e0: 6fb5 7abd 4edc b3bd 46be a73d bda7 2dbd
000002f0: 955a ca3d 2373 d6bd bb84 8cbd 7cd1 bd3c
00000300: 8179 2ebd ddb9 03be 95c6 11bd ad75 07be
00000310: d4bb cebc ed32 1fbc 1b5a a73d 4af5 853d
00000320: 37ad 55bd 14df db3d 1b9c 143d c4a2 0bbc
00000330: 8aa3 173d fcd3 e3bb fa43 353d fac3 6c3d
00000340: 5b67 0d3d b8cc d03d f9c8 9ebc 6bc8 72bd
00000350: fbd1 623d a2d6 63bd 9666 4c3c ad5a 9fbb
00000360: f876 58bc 2bcb 96bc c838 ca3d 21ed 0dbd
00000370: 386a 03be 94e6 59bd 06b7 7bbd 64e9 a5bd
00000380: 3f29 ba3d ea8b e0ba be4a c33d 056c e3bc
00000390: 4235 7cbd 70d0 6a3d 8b18 af3d 5b4b e33c
000003a0: d0db 5a3d aa28 04be 3bec 6bbd a3cc 2a3d
000003b0: b856 52bd de94 c3bd ff6c e93d f2b9 d6bc
000003c0: 29f3 093e 939f 6e3c 8af2 38bd 5e13 83bd
000003d0: c0cb 993d 5a0e 99bd d5b1 e3bd 752c 513d
000003e0: 8b00 923d d6c4 8dbd 7b11 083e f1e2 c33d
000003f0: f8fd 163d a61c f3bc 3bda 02be 4f76 7c3c
0.023408804 -0.061411273 -0.08294052 -0.03582364 0.024079384 -0.08117156 -0.054206572 0.03069469
0.0134958895 -0.1379678 -0.09776138 -0.058869597 0.05953502 -0.114848554 -0.093921 -0.020876583
0.058323342 0.07178468 0.04938303 -0.057009604 0.07158989 -0.104618326 -0.00594751 -0.007954129
0.0852355 0.0545463 0.061372925 -0.001455636 0.06997455 0.00082861574 0.13233674 0.12714368
-0.11056966 -0.14499588 -0.0882591 -0.073845156 -0.1026168 -0.08102537 -0.11811936 0.10423255
-0.023220485 -0.02631258 0.099638484 0.104958735 -0.1100493 -0.07830651 -0.073551826 0.016509457
0.10922503 -0.088930264 0.038945112 0.016397497 -0.037807155 0.043087587 -0.014234123 0.020357994
-0.06731573 -0.07575757 -0.046674345 0.083389215 0.11459375 -0.042055693 0.06985297 0.104571655
-0.10898361 -0.05661424 -0.10738928 -0.10901746 -0.0005871693 -0.1471781 -0.1214118 0.051136572
0.10568393 0.08496376 0.008394321 0.0067683063 -0.021755049 -0.03417846 -0.07930239 0.12360561
0.021971526 -0.018805182 0.09976541 0.0764837 -0.09679713 -0.024391925 -0.052253768 0.038790066
-0.041421548 -0.05725673 -0.012075371 -0.058658507 0.04477596 -0.08958316 0.09805461 -0.101000674
0.076979436 -0.14588022 0.014184214 -0.12484393 -0.14262639 0.1371712 -0.044285838 0.060434733
-0.08396646 -0.00827419 -0.09644942 -0.00046486326 0.057103 -0.13317437 0.09518718 -0.057703238
0.11159126 0.07535351 0.078093566 0.100971736 -0.024817687 -0.024432397 0.026676046 -0.12991826
-0.102184385 -0.0005065366 -0.037201338 -0.011125638 -0.0059059286 0.04382041 -0.050085492 0.096619144
-0.015156283 -0.088311754 -0.06313204 -0.025204577 -0.00838647 0.08522789 0.10960686 0.0009711395
0.087142795 -0.06821189 0.087613866 0.07087549 -0.08570148 -0.10259131 -0.056296557 0.094179004
-0.034859143 -0.075475484 0.0988619 0.05477788 -0.011453689 -0.069490075 -0.058005992 0.06146715
0.05497006 0.025492335 0.06986389 0.0021711919 -0.10654792 -0.017925352 -0.13661869 -0.11734721
0.09229056 0.0060273074 0.09041594 0.035592932 0.12177667 -0.1127225 0.0025747041 0.035297878
-0.07129438 0.070074104 -0.121138476 0.02733648 -0.048875295 0.067404054 0.04485182 0.08293871
0.011770608 0.08401885 -0.08589728 0.033184305 -0.08731903 -0.12138153 -0.038463894 -0.10011169
-0.061208185 -0.08782254 0.08190589 -0.042396296 0.098805584 -0.10471179 -0.06861254 0.023171179
-0.042596344 -0.1286387 -0.035589773 -0.13228483 -0.025236048 -0.0097167315 0.08171483 0.06540926
-0.052167144 0.10735908 0.036281686 -0.008522693 0.037021197 -0.0069527607 0.04425428 0.057804085
0.034522396 0.10195297 -0.01938294 -0.059273165 0.055376034 -0.05562461 0.01247563 -0.0048631043
-0.013211958 -0.018407425 0.098741114 -0.034649972 -0.12833488 -0.053198412 -0.06145384 -0.08101156
0.09089898 -0.0017131541 0.0953574 -0.027761469 -0.061574228 0.057327688 0.08549603 0.027745893
0.053432286 -0.12906137 -0.057598334 0.041699063 -0.051352233 -0.095498785 0.113977425 -0.026211713
0.13471664 0.014564413 -0.04515318 -0.064001784 0.07509565 -0.074734405 -0.11117903 0.05106779
0.0712901 -0.06922309 0.13287918 0.0956477 0.036863297 -0.029676747 -0.12778561 0.015409066
