src/util/AI/checkpoints/002.ckpt (torch, 353508 bytes, 14 tensors)

lstm.weight_ih_l0 f4 [256, 12]
00000000: 6027 303d 2503 bd3c ad20 fdbd ca51 f83c
00000010: ab07 1d3d 6286 0b3d 6320 633d 602a 4abb
00000020: 9567 cdbd fcc4 853d 9c74 62bd 557b 21bd
00000030: ce65 5fbe 52d4 35bc 3ea4 3dbd a8cd 87bd
00000040: 5b4f 86bc d061 aa3c 1eab de3c e3a5 bc3c
00000050: 7e11 41bd 2b7f 063d 4ad7 8bbd 6f67 243d
00000060: f2d9 cc3d c785 c63d 49c1 533d 7aaa 0e3e
00000070: ae40 043d d7d4 bc3d aca9 1e3d 4328 1ebd
00000080: 7cc2 78bb 07e7 41bd 9cdf ae3d 334f fabd
00000090: ac24 4e3d eb10 a13d 5b13 563d 0c45 34be
000000a0: 01f0 35be 4a6b cb3b f3fc c13d 86ed beb9
000000b0: 4e6b 1fbe e14b 88bd 5389 f33d a276 4abc
000000c0: 2b30 e53c d02a b3bd 720e b6bc f49a 7cbd
000000d0: 502c e53d fb72 acbc dcfa a63c 7f1e f73d
000000e0: 79c6 013e deaa 483d 04ea 02bd c7b1 edba
000000f0: 5d9b 833d b03e 573d 380c 473d 4673 fd3d
00000100: fe52 053e 3b31 96bd 5055 dc3d e54d de3d
00000110: b212 eeba be20 6e3d fe7f 0c3b 9383 36bd
00000120: c49c 183e 8298 293c 0d86 10be 212c e9bd
00000130: 794a 8b3d 0b14 81bd 25e4 7cbd dad4 7f3d
00000140: 21e5 f3bc f920 8f3b 19b9 56bd adac 293c
00000150: dc90 b1bd 15d3 b23d 3e08 6cbd d4e7 9a3d
00000160: 4cad b33d b502 813d 88a9 2b3d 30c3 fa3d
00000170: cdd9 453c 3813 373d 341f 09bd cdb8 9bbb
00000180: 1fb4 32bd 0cda d7bc 442e 19be eb09 433d
00000190: b902 6e3d 883e 5d3d 18c3 1c3e f456 b83d
000001a0: ed9e 2ebd 0ade c6bc c14e 2cbc ecbc 863d
000001b0: 7eee fd3d 8a67 633b 69cb 1a3d d57e 993d
000001c0: fc09 8a3c b32c 0d3d 8e0a 8b3c 8786 15bd
000001d0: 5259 07be dc8b b03d e4a4 de3b a7c4 a2bc
000001e0: ae78 b63c 6d56 b8bc 9a2b 12be 079f e8bc
000001f0: e31d 2a3e d0e6 b23c 0860 023e 911b cf3c
00000200: 92a4 f03d 52d5 863d 35b0 5f3d 8b46 aabd
00000210: 671c 693d 4263 433c 529d 123c e3eb 0bbe
00000220: e510 d83d 1d5c 94bb f9c1 bdbd ada3 1cbe
00000230: 164e 3fbe dac3 983d a00c 2e3d 3ac1 a43d
00000240: 5c5f 473d 28e0 d63c 1c8b f8bd 6586 f0bc
00000250: 2794 863d 8fc6 ea3d 137c 9abb a686 1dbe
00000260: 49b6 aebd 56ef 15bc f4aa bdbd d7fb 79bd
00000270: c48b e0bb 7147 423d 6fc0 273c c347 d6bd
00000280: 76c1 ccbd c76c a3bd 6582 053e 0ced b4bd
00000290: cb92 f3bd f127 65bd 496b 5dbd 08ef 343d
000002a0: 090e 99bd 598d 213c 9afb f4bd a7d5 263d
000002b0: 49ba 8abd 083b c1bd d661 b53d 36dd 883c
000002c0: 6340 8dbd 6ec1 ff3c 5646 653c f65f 923d
000002d0: 21ff 47bd 3b52 0dbd de78 e03d 79fc 173d
000002e0: 938b cb3d 9301 cd3b 19f7 eabd 8bba 193d
000002f0: 0ada 15bd dff6 c9bd 4304 04be 3a01 e43c
00000300: 6857 fcbc 01fb 463d 8456 1a3d d1dc cf3d
00000310: 1b84 b33c 6334 053e bd31 8e3d 3a79 e9bd
00000320: 25b4 54bd 8ad1 55bb 3b79 8fbd 9284 07bd
00000330: 3098 b8bd 3669 c8bb 3a75 57bd 23f4 0dbe
00000340: 1219 03bd 7757 263e bb6b e13d da24 69bd
00000350: 2fe4 57bc d058 47bd c9d6 cc3c 3127 fabd
00000360: 44c7 04be 5f88 16bd 80ee bcbb 01f1 c43d
00000370: 1a92 6f3d d236 bcbd 2daa 0abe 268f 9b3d
00000380: 4a84 7abc 9ba9 c63d 4f25 fcbd 4707 cebd
00000390: b0b9 1cbe 1ede c5bc 3c2f debd b414 8dbb
000003a0: 7a42 4c3d b281 0e3d 80db c5bd 31e1 a1bd
000003b0: fff3 d2bb 2e7b e6bb bb4a 91bd 00af c43c
000003c0: c66c e8bd 8fde 183e 3eb6 c4bb 9145 80bd
000003d0: d177 1f3d 2783 91bb 250e 87bd 542d b43d
000003e0: ce16 a9bd 22b3 ddbd 10b1 b4bb a408 2c3c
000003f0: 490a d9bc 62da 103d 6c25 a8bd c52c 163d
0.0430063 0.023072788 -0.12359748 0.030312438 0.03833739 0.034063704 0.05545081 -0.0030848011
-0.10029522 0.065317124 -0.05528699 -0.03942426 -0.21816179 -0.011097984 -0.04629921 -0.06631023
-0.016395262 0.020798594 0.027181204 0.02302832 -0.047135822 0.03283612 -0.068281725 0.040137704
0.10002507 0.09693485 0.051698003 0.13932219 0.032288246 0.092202835 0.03873603 -0.038612615
-0.0037957719 -0.047339465 0.08538744 -0.12222137 0.05032794 0.07864555 0.052264553 -0.17604464
-0.17767335 0.006207858 0.09472074 -0.00036416593 -0.15568277 -0.06655098 0.11891427 -0.012357386
0.02797707 -0.087484 -0.022223685 -0.061671212 0.111900926 -0.02105092 0.020383291 0.120663635
0.12673368 0.048991077 -0.031961456 -0.0018134647 0.064261176 0.052550018 0.048595637 0.12375502
0.1301994 -0.07333609 0.107584596 0.10854701 -0.0018163531 0.058136694 0.0021438594 -0.044559073
0.14903551 0.010351302 -0.14113636 -0.1138537 0.06801314 -0.06302651 -0.061741013 0.06245885
-0.029772343 0.0043679443 -0.052422617 0.0103561105 -0.08670208 0.08731667 -0.057625048 0.07563749
0.08773288 0.062993445 0.041909724 0.1224426 0.0120758535 0.044696063 -0.033477023 -0.0047522546
-0.043628808 -0.02634909 -0.14959055 0.04761688 0.058108065 0.054014713 0.15308797 0.0900096
-0.042632032 -0.024275798 -0.010516823 0.06579003 0.123990044 0.0034699165 0.037791643 0.074948944
0.016850464 0.034466457 0.016972806 -0.03650525 -0.13217667 0.08620426 0.006794559 -0.019869162
0.022274341 -0.022502149 -0.14274445 -0.028396143 0.16612963 0.021838576 0.12731946 0.0252817
0.11750139 0.06583656 0.054611403 -0.08314236 0.056911852 0.01192552 0.008948641 -0.13664202
0.105500974 -0.0045275823 -0.09265513 -0.15296812 -0.18682131 0.07459231 0.04249251 0.080446675
0.048674926 0.026229933 -0.12135908 -0.02936096 0.065712266 0.11463653 -0.004714498 -0.15383396
-0.08530862 -0.0091513 -0.09261122 -0.06103119 -0.006852599 0.047431413 0.010238751 -0.10462906
-0.09997837 -0.07979732 0.13038023 -0.088342756 -0.11893233 -0.055946294 -0.054057393 0.04417327
-0.0747338 0.00986036 -0.11962052 0.0407311 -0.06773812 -0.094350874 0.08856551 0.016707044
-0.068970464 0.031220164 0.01399382 0.07147209 -0.048827294 -0.03450225 0.109605536 0.03710601
0.09938731 0.006256291 -0.114729114 0.037531417 -0.03658489 -0.0986154 -0.1289225 0.027832616
-0.030803397 0.04857922 0.037680164 0.10149539 0.021913579 0.13008265 0.069430806 -0.11400075
-0.05192961 -0.0032626116 -0.07005545 -0.033085413 -0.090134025 -0.0061160577 -0.05260203 -0.13862662
-0.03200633 0.16244303 0.11006876 -0.05691991 -0.013176962 -0.048668683 0.025004761 -0.122145064
-0.12966639 -0.036751147 -0.005765736 0.0961628 0.058488943 -0.09190144 -0.1354148 0.07595663
-0.015290329 0.097003184 -0.123118035 -0.10059982 -0.15305209 -0.024153765 -0.10848853 -0.0043054465
0.049868084 0.034791656 -0.09661007 -0.0790428 -0.006437778 -0.007033727 -0.07094332 0.024009228
-0.11348872 0.1492865 -0.0060031703 -0.06263269 0.038932625 -0.0044406834 -0.06594495 0.08797708
-0.08256303 -0.108251825 -0.0055142716 0.010500107 -0.026494162 0.035364516 -0.08210263 0.03666379

lstm.weight_hh_l0 f4 [256, 64]
00000000: b1d2 8d3c 02f8 fdbc 0cf0 013e af8c 043d
00000010: d842 4d3c 709f 1a3e 6e8a aebd 2b6c ec3a
00000020: e19e 793d 7285 183e 26cc 033d f1b0 ac3d
00000030: 725a 133e e077 dcbd 3e5b 0c3e 6473 5aba
00000040: 678a 9abd 7e2b a23d 4399 233c d14b 253d
00000050: abe9 923c 1eec 91bd b2d4 cd3d de88 8dbc
00000060: 0148 153e 8680 e63a c394 d5bd eec5 8f3d
00000070: 62f8 7d3c 3d6b a53d 3459 11be a0ef 2bbd
00000080: 6d80 53bd 2fa0 393b 71c6 8ebc 54a4 b8bd
00000090: db3d 9c3d 805d 1e3d 0acb 6dbd 5606 a73c
000000a0: e481 89bd 3edf 33bd 14dd 523d 61b7 f3bd
000000b0: 6c38 abbd 5067 06be 198a e5bd e34b a9bd
000000c0: 58a8 b83d 83f3 663d 3826 b23d 5ba4 c63d
000000d0: 70e2 b2bd 3732 f23a e577 143e 84d9 29bd
000000e0: 8200 b23d ece3 113e 6009 dcbc ea16 8cbd
000000f0: 516e 74bd c1dd ab3d aba4 433c a434 663d
00000100: 6b09 af3d eb51 96bc 61da 2d3e b17a 763d
00000110: 2603 983d 28ca 59bd a53f 85bc 7c58 343b
00000120: c1b5 0fbd 70a0 e1bd c6ae 043e 6274 813d
00000130: 7c5e d7bb ce6a 9fbd a503 f9bd bb9b cd3d
00000140: f4d9 a93d 4b7a 01be 7d30 d23d de8b 463d
00000150: 96e5 febb 1177 0dbe 49a2 0cbe bbcc 923c
00000160: 28d5 593d 04cd ffbd 270f 773d cd67 253e
00000170: 6aa3 88bd def3 39be 9cb0 51bc 71b3 283e
00000180: e810 f9bd bea4 b6bd 550b 503d da56 b0bc
00000190: 0419 9f3d b46a 9bbd 3065 ccbd 99b7 f13d
000001a0: 8909 0c3c 84b9 24be a708 1fbc 0a46 b0bd
000001b0: c717 febd ccb5 dcbd 1ec8 95bd 8ee3 86bc
000001c0: 177f 9bbc f9dc 0d3d 91f6 913d 8f45 66bc
000001d0: 3834 20be 630c 353d 03fd 333c b13b 183e
000001e0: 0ee3 e6bb e1b8 e13d 4545 00be 0332 303d
000001f0: ca17 dc3c 849f 89bd 55dc 853d 04a7 a0bd
00000200: 04d5 383d 461d 1abe c653 0bbd 8364 b63d
00000210: 82ce 07bd 5ef8 023e 8b6e 8cbc 98d9 023e
00000220: b8bc 81bd 8e7f 013d 561b 10bd bddd 083d
00000230: b8d1 2c3e 5327 23bd 68df 8fbd 6c79 833d
00000240: b2d6 e9bd 063f 483c c78d a03d 6303 97bc
00000250: d786 7a3b 4cb8 ea3d 7106 60bb 268b 133b
00000260: 8b6b 16bd 8baf 25be ad3c 8fbd ea2b 17be
00000270: 70c1 17bd c3a4 a73d 1c7e 3abe b970 fabd
00000280: edb3 86bd 97d4 92bd ca89 62bc 4500 a63d
00000290: 1205 143e 4b90 0b3e 6501 19bc 88f6 a33d
000002a0: b968 163e 31eb ee3d 5aa7 6ebc 5af8 d03c
000002b0: 3d04 903d c90c 1d3d e595 4cbd bae4 a83d
000002c0: 4668 aebd 86ee 973d aa25 af3c 1d1c 08be
000002d0: d34a 853d e2bb cbbd 9583 bbbd 49f8 c0bd
000002e0: e7c8 b6bd d879 dbbc dacb 4d3d 6c9c e73c
000002f0: cf3c 9ebd 4635 88bc 73ff 87bd afca 223e
00000300: dc41 233e b518 6dbe 3da0 0d3e a2a9 1bbe
00000310: 1996 043b d541 0dbe 5d51 acbd 3a15 b9bc
00000320: a755 ef3d 4eb4 e9bd 072a 26bd a039 d9bc
00000330: c0a6 ee3c b4b1 c13c 3560 5cbc fb39 d53d
00000340: ae7a 633d ab49 cebc f881 cfbd 214c 1e3e
00000350: 145a 1dbd 6055 64bd 67ba 9bbd 8509 103d
00000360: bc12 533c c32f f0bd 93fa d6bd d7c2 0f3e
00000370: ecf0 423d b2d3 0c3c 58ec c23d b163 fbbc
00000380: f2e4 213e a459 133d 6a66 13bd a369 283d
00000390: 7093 34bd 91eb 8c3d 35f1 8ebd 38b1 c63c
000003a0: 158b a63d bb88 f83d 1ff5 1b3c a9d5 00be
000003b0: 5b07 aabb b596 993d 9312 b33d 5ed6 e63d
000003c0: 2d7c ee3c 21e2 25be 1125 c7bd ef9f 82bd
000003d0: a26e 24bc 7595 d13d a710 c2bd 3731 2b3d
000003e0: 3e0d f23d 7d54 b83d 3689 9dbd 4951 23be
000003f0: d01f a43c a1fc 28be 70b7 373e bca4 513d
0.01731238 -0.031002048 0.12689227 0.03236073 0.012528144 0.15099883 -0.08522497 0.0018037608
0.060942534 0.14894655 0.032177113 0.084321864 0.14389971 -0.10765052 0.13706681 -0.00083332346
-0.075459294 0.07918452 0.009985271 0.040355507 0.017933687 -0.07125114 0.10050334 -0.017277177
0.14578249 0.001758591 -0.10428765 0.07020174 0.015501114 0.08077095 -0.14194185 -0.04197657
-0.05163615 0.0028324237 -0.017428609 -0.09015718 0.076289855 0.038663387 -0.05805496 0.020388763
-0.06714228 -0.043914072 0.051480368 -0.11900211 -0.08360371 -0.13125348 -0.11207981 -0.08266427
0.09016484 0.056384575 0.08698696 0.09699317 -0.08734596 0.00184781 0.14498861 -0.041467205
0.08691503 0.14247102 -0.02685994 -0.06840308 -0.05967552 0.083919056 0.011941115 0.056202546
0.08546718 -0.018349608 0.16977836 0.0601756 0.074224755 -0.053171307 -0.0162657 0.002751856
-0.035085443 -0.11016929 0.12957296 0.063210264 -0.0065725427 -0.07784043 -0.12158898 0.10039469
0.082935244 -0.12644307 0.10263155 0.04847323 -0.0077788336 -0.13814951 -0.13733782 0.017919889
0.053181797 -0.124902755 0.060317185 0.16152878 -0.06671794 -0.18159434 -0.012798455 0.16474701
-0.12161428 -0.08918141 0.050792057 -0.021525789 0.07768443 -0.075887114 -0.099802375 0.118025966
0.008547195 -0.16086394 -0.009706653 -0.08607109 -0.12406879 -0.107768625 -0.0731356 -0.016465928
-0.0189815 0.034634564 0.07127107 -0.01405467 -0.1564492 0.044201266 0.010985616 0.1486652
-0.00704611 0.11021591 -0.12526424 0.043016445 0.026866812 -0.06719878 0.065361656 -0.07844356
0.045125023 -0.1505023 -0.03401544 0.0890589 -0.033155926 0.12790057 -0.017142555 0.12778318
-0.06334823 0.031615786 -0.03518232 0.03341459 0.16876876 -0.039832424 -0.07025033 0.06419644
-0.11417903 0.012222057 0.07839542 -0.018434232 0.0038227343 0.11460933 -0.0034183527 0.002251336
-0.036723655 -0.16180246 -0.06993995 -0.14762846 -0.03704971 0.08185723 -0.1821217 -0.122285314
-0.06577287 -0.071694545 -0.013826797 0.0810552 0.14455059 0.13629262 -0.009338711 0.080060065
0.14688386 0.11665953 -0.014566267 0.025509048 0.070320584 0.03834227 -0.049947638 0.08246751
-0.08515982 0.074185416 0.021380264 -0.13291974 0.06508412 -0.09947945 -0.09155957 -0.09422357
-0.08925038 -0.026791498 0.050243236 0.02827283 -0.07726442 -0.016626965 -0.0664052 0.1589763
0.15943092 -0.23153956 0.13830657 -0.15201429 0.0020231067 -0.13794644 -0.08413956 -0.02259313
0.11686259 -0.114113435 -0.040567424 -0.026516736 0.029132247 0.023644306 -0.013450672 0.104114495
0.05553692 -0.025181612 -0.101322114 0.15458728 -0.038415983 -0.055745482 -0.07603913 0.03516533
0.012882885 -0.1172786 -0.10497012 0.14039169 0.047593042 0.008595394 0.09517735 -0.030687185
0.15809992 0.03597416 -0.03598634 0.041116368 -0.04408592 0.06880868 -0.069796 0.024254426
0.081319965 0.12135454 0.009518891 -0.12581505 -0.005188865 0.07499448 0.08743777 0.11271356
0.029111946 -0.16199543 -0.09723867 -0.06378161 -0.010036143 0.10233585 -0.094758324 0.04179498
0.11818932 0.0900049 -0.076921865 -0.15948977 0.0200347 -0.1650262 0.1794107 0.051182494

lstm.bias_ih_l0 f4 [256]
00000000: 8341 433c 8625 cdbd 199e 8dbd 3ed5 15bd
00000010: 3e0f 5cbd 3544 5b3d 7762 f63c 4022 ae3d
00000020: 4aae b63d 123e 38bd 3008 ee3c 058d e0bc
00000030: 7308 14bc 75a0 7ebd f443 533d 7048 50bd
00000040: 1fcb dbbd f8c8 173d 925a 0f3c ee47 dbbc
00000050: c69b d6bc acac b83d f66d bebd dd9d 41bd
00000060: a2b9 933d b185 923b 5859 25be d383 af3b
00000070: da8f 903d c236 acbc d328 2e3c b249 8e3d
00000080: d2ca b13d dc86 2ebd 60e6 11bd 03fd f33d
00000090: 0149 a33d f97a 9ebc 5068 d9bd 02ec edbd
000000a0: c2dc 2fbd eaca 75bd 9d6d 883d a88b 083e
000000b0: b93a c33c 786b e5bd 7107 333d 14a3 ee3d
000000c0: ef45 93bd 0fc4 83bd 6d7a 86bb 5df6 51bc
000000d0: 25d0 b3bc 8ed2 84bd ac75 a93d 3673 d8bd
000000e0: 75e9 34be 9269 09be b1f0 48bc 9187 43bd
000000f0: 9bb3 5a3d a4ae 66bc 5ef5 313e 7c68 cb3b
00000100: c2cb b2bc 7c5f fbbc 4832 063d bb53 06be
00000110: 24eb ce3d 702f 32bc b1fb f93c 71f3 dfbc
00000120: 9889 b2bc 5d6a 283d 441b 573d cfa3 afbb
00000130: 206a e9bd 7c04 ecbd 94a7 d03b 1fc6 4b3d
00000140: 120c 3cbd 9c49 8bbd 70d8 02bd efdb 71bc
00000150: 329f 263d 4665 1e3d 2ee2 c73d 0a40 9b3d
00000160: 8aed fc3c 22cf 7c3d 83cd 17bc 57d2 de3c
00000170: b9fc 3b3d 19bb 3b3e 0b17 c4bc 60f5 c73d
00000180: 14be d83d d5c1 c73c 717a 103c 00c1 cc3d
00000190: c899 613d 031f a6bd 472d 29bd a1df 05be
000001a0: a266 7e3d f3a7 cb3d 9c4e 0a3d adc3 473d
000001b0: 40c6 7e3d ba9b bbbc e9c1 853d 0c94 aaba
000001c0: d878 20bd a475 9d3d 1aca d83d a272 3dbd
000001d0: b00c 493d 2190 833d 32b8 86bc 9aa3 203e
000001e0: a7c4 ebbc 5e72 fe3c 0cef 5cbd ae31 cfbd
000001f0: 16dc c8bd fadc 85bd af21 c33d f40f 443c
00000200: d2e2 32bd bc26 c4bd 30fc e93d 138d 753d
00000210: 0883 edbc d26b 9b3d 9d5d 933d 6600 88bd
00000220: 826f fdbd 30c3 61bd 2fd6 e1bd 1dbb aabd
00000230: 1f4b d33d 9c07 58bc ac3a 93bd 6311 5e3d
00000240: 7dcc b43d 74d3 0c3c 3ce2 51bc ffc0 d43d
00000250: b102 80bd 7784 843d 537f 153d 4986 b73d
00000260: eb0e 133d e44c 873d fcaa fb3d 1d9c 323d
00000270: 25ef 8a3c 6e7b 1bbd 76c6 1bba c51f 21bd
00000280: 4fd9 ce3d d474 9fbd 0aef b4bd 8131 40bd
00000290: bb72 f73d 39ce a3bd 3683 ac3c c133 d1bc
000002a0: cf70 dc3d 65e1 c43c 467c dabd a995 38bd
000002b0: c1d8 503d 5d19 f6bd 3035 0c3d f118 fabd
000002c0: 6a72 a3bd af56 ae3d e6d6 6c3d 8eb3 c83d
000002d0: ee45 aabd 709f 9b3d 849a 96bd ccbd 98bd
000002e0: ea46 90bd e864 903d e501 a33d 8a1f 843d
000002f0: b79d e8bc 98a7 ae3d 45b6 243c 3fa3 763c
00000300: c472 a23d 4ddb 29bc 63d9 49bd 3cab c73d
00000310: 85d7 89bc 0ed6 31bd 7ed8 17be 56fe 933d
00000320: 63ec a9bd de23 a6bd 6da7 febc c8a3 3f3c
00000330: 1c1a 283d 9f65 43bd a558 0fbe 7b6a 9c3d
00000340: ebf1 b2bd 7fd6 bbbd e151 08be 6b0f ac3d
00000350: b68e d9bd c561 95bd 19ae cd3c 09b0 573c
00000360: ee2c edbd d9d8 993d ccd1 f53d a3d9 863d
00000370: 0dcb 823d d4ae 183c 08b2 983d 8755 ffbd
00000380: f3aa 79bc d75a aebb 5166 e0bd 0df1 c3bd
00000390: 401a 203d a31f b5bd 7315 27bb 6f17 f7b9
000003a0: f8d1 c23c 5e2f d23d 4a88 bb3c 0af6 b33d
000003b0: 2ec0 db3d c536 4fbd bfbc 8fbd 6d42 6cbd
000003c0: 7356 c3bd 8635 fdbd b9f5 efbd 4091 c43d
000003d0: 5424 bb3d 30c1 be3c 7276 e8bc fecd f6bd
000003e0: a985 c2bd f0ab 513d 7f0f 08be 2626 d43d
000003f0: 892b 713d 1d64 5abd 026a 2e3d a540 9ebd
0.011917475 -0.10016923 -0.0691492 -0.036580317 -0.053725474 0.053531844 0.030076249 0.085026264
0.08919962 -0.04498107 0.029056638 -0.027410993 -0.009035218 -0.062164742 0.051578477 -0.05085033
-0.10732102 0.037056893 0.008749621 -0.026767697 -0.026197325 0.090173095 -0.09298317 -0.04726969
0.07213141 0.0044715037 -0.16147363 0.005356291 0.070586875 -0.021022204 0.01062985 0.0694765
0.08681263 -0.04260908 -0.035620093 0.119134925 0.07972909 -0.019345747 -0.10615599 -0.116172805
-0.04293514 -0.060007967 0.06661532 0.13334525 0.023831712 -0.11202139 0.04370827 0.116521984
-0.07191073 -0.064338796 -0.0041039498 -0.012815085 -0.021949837 -0.064854726 0.08274397 -0.1056885
-0.17667182 -0.13419178 -0.012264417 -0.047736708 0.05339394 -0.0140797235 0.17378756 0.006207524
-0.021825675 -0.030685179 0.032762796 -0.13117878 0.10103443 -0.010875568 0.030515524 -0.027337762
-0.021794125 0.04111706 0.052516237 -0.0053601037 -0.11397195 -0.11524293 0.006367633 0.04974949
-0.04590995 -0.06801149 -0.031944692 -0.014761909 0.040679164 0.0386708 0.09759937 0.07580574
0.030874986 0.061720975 -0.009265306 0.027199907 0.045895312 0.18333091 -0.023936769 0.097635984
0.105831295 0.024384419 0.008818255 0.09997749 0.055078298 -0.08111384 -0.041302945 -0.13073589
0.062109597 0.09944143 0.033766374 0.048770595 0.062200785 -0.022901405 0.06531126 -0.0013014092
-0.039177746 0.07688454 0.10585423 -0.0462519 0.049084365 0.06423975 -0.016445253 0.15687409
-0.028780295 0.031060394 -0.05393891 -0.101168975 -0.09807603 -0.065362886 0.09527909 0.011966694
-0.043673344 -0.095777005 0.11425054 0.059948992 -0.028993145 0.075889245 0.0719559 -0.06640701
-0.12374784 -0.055117786 -0.110271804 -0.0833647 0.103170626 -0.013185408 -0.07188925 0.0542158
0.088280655 0.008595336 -0.012810286 0.103883736 -0.06250513 0.06470578 0.03649838 0.0896116
0.0359029 0.066064626 0.12288472 0.043605912 0.016959736 -0.03795951 -0.0005942354 -0.03933694
0.10100042 -0.07785955 -0.088346556 -0.04692221 0.1208243 -0.07998318 0.02105866 -0.025537373
0.10763704 0.024033258 -0.106682345 -0.045064602 0.050987963 -0.120165564 0.03423041 -0.122117884
-0.07980807 0.08512627 0.05782213 0.09799872 -0.08314119 0.0759877 -0.0735369 -0.07458076
-0.07044776 0.07050496 0.07959346 0.06451328 -0.028395517 0.0852806 0.010053222 0.015053569
0.07932046 -0.010367227 -0.04927958 0.09749457 -0.0168264 -0.04341703 -0.14828679 0.07226245
-0.0829704 -0.0811231 -0.031085694 0.011696763 0.041040525 -0.047704335 -0.13998659 0.07637497
-0.087375484 -0.09171771 -0.13312484 0.08401378 -0.10622923 -0.07294039 0.02510743 0.013164529
-0.11580835 0.075120635 0.12002906 0.0658448 0.06386385 0.009319026 0.07455832 -0.12467485
-0.015238511 -0.0053208875 -0.10957015 -0.09567461 0.039087534 -0.08843925 -0.0025494962 -0.0004712897
0.023781762 0.10262941 0.022892136 0.087871626 0.10730015 -0.05058934 -0.07018422 -0.057680536
-0.09537973 -0.123637244 -0.1171679 0.09598017 0.091377884 0.023285478 -0.028376792 -0.12051009
-0.0949815 0.051189363 -0.13287161 0.10358839 0.05887941 -0.05331813 0.042581566 -0.07727174

lstm.bias_hh_l0 f4 [256]
00000000: 7822 b6bd 0562 51bd d895 1dbd 7a4e 2fbe
00000010: 104f cbbd 8b60 9fbd 596b a9bc b090 f53d
00000020: d635 a03d 39c8 043e d47e 133e 629e 0bbd
00000030: 0cba f93d 28ee 2bbc 401d 8e3d 3455 473d
00000040: 85d7 623d 07fe b8bd 2f57 babd b338 8a3d
00000050: b314 a13c 882a 0d3e 44ac 623b a342 84bd
00000060: 225d bcbd a22f 30bd 2cb4 e93b 795f fcbd
00000070: 9f06 8ebd 66ee de3c eb17 e4bc 69eb 65bd
00000080: 728b 02be 887b 80bd 0a52 d1bd 9ea8 633d
00000090: 4a3a bfbc d704 293d b413 223a 9dbb 683d
000000a0: 7a47 19be d66d 813d 39a8 853d 8832 a2bd
000000b0: 3e8a ae3d 1254 e6bd b069 41bc 7a78 6d3b
000000c0: 0acf 773d 1ddc 833b 99bd 20be 017c 9abd
000000d0: 8651 9b3b a97e a33d 99c4 8c3d ea13 85bd
000000e0: 2224 b73b b951 f2bd cdf5 c53c f6da bc3d
000000f0: 1d82 bd3d a13b 303e 3c40 b0bc 8c30 3cbc
00000100: aa94 343d 167f 963d b568 a4bd b77b 753c
00000110: c1d1 90bc 5d6a 70bd bd19 a3bc cf88 e2bc
00000120: 2d27 cdbd e60d fe3d b305 eebb 015a 07be
00000130: 2f8e 2e3d af2f 98ba e320 f1bc a383 0c3d
00000140: 3d88 463b 8310 a33d 1a24 39ba 9e13 bebd
00000150: 52aa dfbd 5296 9dbd 5c6f e03d 49d7 84bd
00000160: aeb2 a53d 4ab3 113e ce2d bfbd 6ad0 2bbd
00000170: 3b27 a03d 6aea 1b3e c3d9 c63d 9261 4a3c
00000180: f09a ddbd eaf4 d6bb 9150 ef3d 800a 77bd
00000190: b351 e03d c5bd 233c 2756 b4bc 2cb3 70bb
000001a0: c48c 8f3d edfd d6bd f2dd 9bbd a04a d03d
000001b0: 9574 ba3d cac5 d23d 20bc ccbc dd13 ff3d
000001c0: 9e66 363c 5e08 1f3e 0667 e03d 06be 453d
000001d0: c4a0 883c 1b10 583d bd79 8a3d 0376 de3d
000001e0: 473c 55bd afbe 093d 5ac9 5fbc 9a6e 9e3c
000001f0: 6846 5d3d c946 053d 882c a43c 199e 01bd
00000200: 9406 513d 0037 b13d 7328 04be cb2c 87bb
00000210: 0e65 1e3e 8c81 b1bd 5ff9 9f3d 2290 9a3d
00000220: 4562 06be 3c76 8cbd 4a6a 923d 28c8 693d
00000230: ff15 bbbd 4982 28bd afc4 b9bd da08 8dbd
00000240: 9248 c63c 48f6 c23d 0bc9 933d 8155 b6bd
00000250: 2dae 6d3c 9a80 59bd 2276 f23d 2679 413d
00000260: b31d be3d c159 033e 9c37 23bd 55b2 c3bd
00000270: 77d6 15bd 6a24 2a3d e23a 0dbb 129c b23d
00000280: 35a6 dc3c 32ed 203d f0f0 1abe 752e ed3c
00000290: 9435 693d 5528 cf3b 16f5 79bd 0067 b53d
000002a0: fb43 44bd 4016 733c 9871 e03c d664 0c3e
000002b0: 3757 20bd f17a e23d 98f1 d03c dab3 b0bd
000002c0: 6e03 cebc ab7a 1fbd d5d3 a63d 7adc dcbb
000002d0: a5b0 8d3d c3c0 28bd eafd abbd 36b5 ecbd
000002e0: 36bd 03be 8e0d 063e 5597 f2bd 2213 243d
000002f0: 15a0 cebd 00c2 873c 7bac 3a3d b13f 80bc
00000300: 735a 1d3e 440b d03d f215 cdbd 68a2 33bd
00000310: 4f41 053e f6e0 85bd e87b c13c 2409 c5bd
00000320: 5458 f7bd 6c52 353d b15b 1e3e 50e8 95bc
00000330: 34de 2a3d 5c14 e03c ed39 54bc 03fe 9d3d
00000340: 85b5 b33d 0098 c639 2858 063d a0f6 0dbe
00000350: 9089 cb3d de7c 68bd 6802 093e cc7f 853c
00000360: 9762 793d a670 083d 9848 ea3d b6d2 9bbd
00000370: da09 f73d 7291 fc3d 4e3f cebd bd2e e53d
00000380: 45c3 2a3d d720 b03d f024 26bd 39b3 23bd
00000390: 30cc d2bc d374 c83d be6a 04bd 8aca 973c
000003a0: 16a4 24bd 778e 963d ad6d 813d d66d 64bc
000003b0: 2f54 603d d581 073c 5973 debc 17d7 ad3d
000003c0: f718 06bc 1e44 b0bc eb5c dd3d eb8a 21bd
000003d0: 6372 2abd 20da 5e3d 3be6 e7bc 55a8 f43c
000003e0: f373 5bbd 3d82 d1bc f3e8 f03c 4211 b83c
000003f0: c8d3 df3d 5e7c 4e3c a492 193d 83c7 033e
-0.08893293 -0.05111887 -0.03847298 -0.1711978 -0.09927189 -0.07782086 -0.02068107 0.119904876
0.078227684 0.12967004 0.1440385 -0.034086592 0.12193689 -0.010493793 0.06939173 0.04866524
0.055381317 -0.09032827 -0.0909866 0.06749096 0.01966319 0.13785756 0.0034587542 -0.064580224
-0.09197451 -0.043014176 0.007132074 -0.123228975 -0.069348566 0.027213287 -0.027843436 -0.056132708
-0.12748507 -0.06273562 -0.10220726 0.055580728 -0.023343224 0.04126438 0.00061827456 0.056819547
-0.14968672 0.06319778 0.065262266 -0.07919794 0.08522461 -0.11246504 -0.011804983 0.003623514
0.060500182 0.0040240423 -0.15697326 -0.07543183 0.004739943 0.07983143 0.068734355 -0.06497939
0.005589024 -0.118319936 0.024165059 0.09221451 0.09253333 0.17210247 -0.021515004 -0.011486184
0.04408709 0.073484585 -0.08027784 0.014983109 -0.017678143 -0.058695186 -0.019909734 -0.027653126
-0.10017238 0.12404995 -0.007263863 -0.13217928 0.042616066 -0.001161089 -0.029434627 0.034305226
0.0030293607 0.07962134 -0.00070625695 -0.092810854 -0.10921158 -0.07694687 0.1095874 -0.06486375
0.08090721 0.1422855 -0.093349084 -0.041946806 0.078199826 0.1522614 0.097095035 0.012352364
-0.108205676 -0.0065599578 0.11685289 -0.060312748 0.10953083 0.009993975 -0.022013737 -0.0036727889
0.07009271 -0.10497651 -0.07610692 0.101704836 0.091042675 0.102916315 -0.024992049 0.124549605
0.011132864 0.15530536 0.1095715 0.048276924 0.016678222 0.052749734 0.06761501 0.10862353
-0.052059438 0.033629116 -0.013658846 0.019339848 0.054022223 0.03253821 0.020040765 -0.031644914
0.051031664 0.086530685 -0.12906055 -0.004125213 0.15468237 -0.08667287 0.07811236 0.075470224
-0.13123424 -0.06858489 0.07149179 0.05707565 -0.09135055 -0.041139875 -0.090707175 -0.06886454
0.024204526 0.09519631 0.0721608 -0.08903027 0.014506859 -0.05310116 0.11838938 0.047234677
0.092830084 0.12827207 -0.039847955 -0.095554985 -0.036581483 0.041538633 -0.002154999 0.08721174
0.026934722 0.039288707 -0.15130973 0.028952817 0.05693586 0.0063219466 -0.061024748 0.08857536
-0.047916394 0.014836848 0.027397916 0.13710341 -0.039145675 0.110586055 0.025505826 -0.08628054
-0.02514812 -0.038935345 0.081458725 -0.00674015 0.06918458 -0.041199457 -0.0839804 -0.11558001
-0.12865147 0.13091108 -0.118452705 0.04005731 -0.10089127 0.016571999 0.045574646 -0.01565537
0.15366535 0.10158399 -0.10013951 -0.043856055 0.13013195 -0.065370485 0.023618653 -0.09620884
-0.12077394 0.044268057 0.15464665 -0.018299252 0.041715816 0.027353458 -0.012953264 0.077144645
0.087748565 0.00037878752 0.032798916 -0.13863611 0.09938347 -0.056759708 0.13379824 0.01629629
0.06088504 0.033310555 0.114396274 -0.07608549 0.12062426 0.12332429 -0.10070668 0.11190555
0.04169013 0.08600014 -0.04056257 -0.039965842 -0.02573213 0.097879075 -0.03232836 0.018529195
-0.040195547 0.07351392 0.06319747 -0.013942203 0.054767784 0.0082707 -0.027154611 0.08488291
-0.008184663 -0.021516856 0.10808738 -0.039439123 -0.041612994 0.05440724 -0.028308025 0.029865423
-0.053577375 -0.025574798 0.029407954 0.022469167 0.10929066 0.012602894 0.037493363 0.12869076

lstm.weight_ih_l1 f4 [256, 64]
00000000: 75bf 06be 00b5 41be 6025 593b 1b04 10be
00000010: cdac 89bd 60fc e73c 1860 633d 5ab4 83bc
00000020: ca30 583d 6616 b4bd 785c 713c a487 24bb
00000030: 6ae8 dd3d ce41 0bbd 8d3d 3abd f941 c5bd
00000040: 8103 70bd b921 053d e00f 503d 5e6a 2fbd
00000050: b5bf 6bbd 3b73 c03d 7464 68bc 9c44 27be
00000060: 18ca 03bd 2cdd 44bd 22e5 52be bf60 2e3d
00000070: 5b13 343c 9d34 1bbd 3018 0bbe bf54 f3bd
00000080: 5613 a3bd ed18 cfbd 188f 2fbd 81f8 afbd
00000090: d035 dcbd 4de7 5bbd ebef bb3b 76c6 063e
000000a0: 9232 4e3a a8e5 0ebd 3d07 d3bb 2a72 bd3c
000000b0: 0f4d 68bd 9d24 32bd d891 85bd dda4 d7bd
000000c0: 4216 9f3c 22d9 3a3d 1bf9 afbd 0261 4abd
000000d0: 9f60 46bd c8f1 a3bd c8fa 9d3d a56e 573d
000000e0: 37a4 82bc ef74 3f3d b15d 84bc e5fc d13c
000000f0: b3ef 7fbd 5a2d 3b3d 8881 2b3b 523e e63d
00000100: 033b 87bd 4785 a73d 29dd c03d 019a 853c
00000110: 6a07 b33d 199d 333d 9ee7 063e 47a6 04bd
00000120: 0b96 c83b e517 d43d 2e7d 333d 6646 64bc
00000130: aa27 0abd 77d1 e2bd 7992 153d e63b 663c
00000140: 83cd 823d be11 da3d 6fbe 4cbc f3c7 9d3d
00000150: ab1a e6bd 4cef 9e3d 3689 173d 62b4 37bd
00000160: 6f46 893b 263d 393d 3a55 e13a e5a6 973d
00000170: b09d 0e3e e992 2d3e f2a5 b43d c2a7 0b3c
00000180: 2c02 0abe 8e3d a5bd 55d2 59bd 8091 b63c
00000190: 1553 a23c c695 ed3d e73c 1abd 00b7 b1bd
000001a0: d0c8 c5bd 4ef4 dbbd 71f4 d13b 8c25 2e3c
000001b0: 4f36 af3d 1b85 48b9 0f4f f2bd b1be 0bbe
000001c0: 2c07 babc dc2f 2b3e 7fd5 ecbd 687a 5c3d
000001d0: 4db8 c2bd 11f4 4a3d b6c5 bb3d 9eed e1bc
000001e0: 62ee a53d d169 323d bbed e4bd ed4a dfbd
000001f0: 93b3 f33d c3ad 5cbd 4c80 96bc 6b3d a73d
00000200: 911c 4abd 65f5 883d 7471 323a 34ae 0dbd
00000210: f29d a83c 4682 c5bd bad0 96bc 8bd6 03be
00000220: 0b70 8fbd 9c08 85bd 7e18 a9bc fc72 62bd
00000230: 6361 283d 80e5 bd3c 9f00 6abd 4b93 263d
00000240: d040 b03b ec5e ffbb 401c 59bd bd86 b5bd
00000250: 03c4 1ebc bbe1 d1bd 2762 083e 4637 61bb
00000260: 22c4 debb c0f7 3ebc 10ea a3bc fc6d ca3d
00000270: d736 9fbd 299c b6bb 51a3 7dbd cc78 653d
00000280: ebab e83c e75c 1e3d c97a 81bd 09e5 793d
00000290: e64f babd 77f9 d2bc 40c8 13bc 5847 913d
000002a0: 7292 13bd a0ed 2fbd 4139 58bd be91 8abd
000002b0: 9263 56bc 54e3 ddbd 667e d0bd d2e9 cd3d
000002c0: 0293 68bd 83d1 2b3d 950b e6bc 04ae 4cbd
000002d0: 12fd 9e3c ae20 0fbe 5fcb 6ebc 4a5b 843d
000002e0: 1f64 903d 7b29 d73d db05 98bd 3bdc b2bd
000002f0: 9b14 3e3c 06e2 353d a92f 23bd 47a0 79bc
00000300: 692c 58bb ce86 fabd 0cf3 11bb 58d3 01be
00000310: 0fce 313e 316d 423d e5d6 ef3d 5e51 f7bd
00000320: 9326 86bd 1544 92bd b45d b03c 55ff 763d
00000330: 6bcd 283e d4d7 c3bd 800f a33d d811 67bd
00000340: d8e7 28be 2b85 93bc ae38 cd3d 0a4b 133d
00000350: 0e04 9f3c d8cb adbd b6f9 533d 5ae8 fb3c
00000360: eb81 d43d be59 2a3b 9e64 0c3a 25d8 fbbd
00000370: df1a e43d 3ce0 b03c e793 ecbd ab1b 253c
00000380: c66a 193d 9b13 1bbe 02cd d9bd e274 ed3d
00000390: d229 d03c 1fb6 293c f27c ea3d e18e ec3d
000003a0: 79de 0a3d 506f a63d 36eb 81bd 5771 8dbd
000003b0: e05e 09bd 510f 7a3d 018c 3bbd 0d4c 04bd
000003c0: 901f a93d d219 aabd 2881 903d f206 6d3d
000003d0: 93f7 ae3d f363 2dbd 08ad ad3d 4873 473d
000003e0: 85ac 303c bfc9 ffbd 5437 e3bd b46f 013c
000003f0: 5ccc 893a 7e4f 333c d103 cd3d 2b1b d93d
-0.13158973 -0.18916702 0.003313385 -0.14064066 -0.06722412 0.028318584 0.055511564 -0.01607721
0.052780904 -0.08793335 0.014731519 -0.0025105262 0.10835345 -0.033998303 -0.045468856 -0.09631724
-0.05859709 0.032502864 0.05079639 -0.04282605 -0.057555873 0.093969785 -0.014184106 -0.16334766
-0.032175153 -0.04806249 -0.2059522 0.042572733 0.010990943 -0.037891973 -0.13583446 -0.118813984
-0.079626724 -0.10112176 -0.042861074 -0.0859232 -0.107524514 -0.053687382 0.0057353876 0.13161644
0.0007865812 -0.034886986 -0.006440072 0.023125727 -0.056714114 -0.04349195 -0.06521958 -0.10529492
0.019419793 0.04561723 -0.08592435 -0.04940892 -0.04843199 -0.080051005 0.07713848 0.052595753
-0.015947444 0.046742376 -0.016157957 0.025633285 -0.062484454 0.045697547 0.0026169736 0.112423554
-0.066030525 0.081797175 0.09417183 0.016308786 0.087416485 0.043850992 0.13174292 -0.032385137
0.006121402 0.1035612 0.043820553 -0.0139328 -0.033729233 -0.110751085 0.03651664 0.014052367
0.063868545 0.10647915 -0.012496575 0.07704153 -0.11235555 0.07760486 0.03699609 -0.04484976
0.0041893045 0.04522433 0.0017191537 0.074048795 0.1392734 0.16950573 0.08820714 0.008523883
-0.13477391 -0.08068381 -0.053179104 0.022286177 0.019815007 0.11600833 -0.037655737 -0.086774826
-0.096574426 -0.10739957 0.0064073135 0.010629069 0.085552804 -0.00019123072 -0.118314855 -0.13646962
-0.022708498 0.16717476 -0.11564159 0.053827673 -0.09507809 0.049549166 0.0916857 -0.027579125
0.081021085 0.043557946 -0.11178156 -0.10902963 0.118994854 -0.05387665 -0.018371724 0.081660114
-0.04934365 0.0668743 0.0006807067 -0.03458996 0.020583127 -0.09643988 -0.018410075 -0.1287481
-0.070037924 -0.06495783 -0.020641562 -0.05528544 0.0411085 0.023180723 -0.0571295 0.040667813
0.00537882 -0.007793298 -0.053005457 -0.0886359 -0.0096902875 -0.10248133 0.13318692 -0.003436522
-0.006798283 -0.011655748 -0.02000907 0.09884259 -0.07774132 -0.005572815 -0.06192333 0.056023404
0.02840229 0.038662817 -0.063222475 0.06100944 -0.09097271 -0.02575372 -0.009019911 0.07093686
-0.036028333 -0.042951226 -0.052788977 -0.06766079 -0.013085263 -0.10834375 -0.101803586 0.10054363
-0.056780823 0.041947853 -0.028081695 -0.04997064 0.019407783 -0.1397731 -0.014574855 0.064627245
0.070503466 0.10505959 -0.07422992 -0.08733412 0.011601592 0.044405006 -0.039840374 -0.015235967
-0.0032985455 -0.12232743 -0.0022270111 -0.12678277 0.17363761 0.047467414 0.1171091 -0.120760664
-0.06550326 -0.07141892 0.021529056 0.060302097 0.1648461 -0.0956265 0.07961941 -0.0564135
-0.16494691 -0.018007835 0.100205764 0.035960235 0.019411113 -0.08486146 0.051751815 0.030750442
0.103763424 0.0025993432 0.00053555693 -0.12297086 0.11137938 0.021591298 -0.11551648 0.010077397
0.037455343 -0.15144198 -0.10634805 0.11594559 0.025410566 0.010358362 0.11449613 0.115506895
0.033903573 0.081267 -0.06343691 -0.069063835 -0.033537745 0.061049763 -0.045787815 -0.03229909
0.08257973 -0.08305706 0.070558846 0.05786795 0.08543315 -0.042331647 0.08480269 0.048693925
0.010783319 -0.12489652 -0.110945374 0.007900167 0.0010513174 0.010944245 0.100104935 0.10600885

lstm.weight_hh_l1 f4 [256, 64]
00000000: 9ac4 13bb 02ad dd3c 9b09 da3d ee00 173c
00000010: 3487 ad3d ca11 26be 3406 bcbb cf8c efbc
00000020: c753 e93c b718 8b3d 75d1 e2bc 72a5 9a3d
00000030: 2bb6 adbd 7c67 8bbd 2a9e 4cbd be01 c4bd
00000040: 7282 c0bd 1ceb 8f3c 8616 8dbd 22b1 bcbd
00000050: dd0d 233d afe6 873d fb7b c13d 9ccc aebc
00000060: a2c1 163e 6a28 0bbe 8144 27bd 484e 1a3d
00000070: 64ee 6ebd b281 953d 5a20 c13d f1d3 153e
00000080: 4449 913b 7dd8 02be e854 febc c713 3a3c
00000090: 3048 fe3c 76e5 86b9 1ed1 9b3d db7d c7bd
000000a0: 81e1 4e3d d57d a23d eb66 893d ad91 fe3a
000000b0: 3362 d3bc fd16 30bd 5617 af3d de55 b3bd
000000c0: ad6c c0bd a8d1 a63d 6e0e 4c3d 0159 8f3d
000000d0: e3be f9bd 801a 48bc 491b 753c 1262 a5bc
000000e0: 060a 11be 6591 cdbc c401 cb3d 00dc 7cbc
000000f0: 349e 1bbc 3aef 89bc 6ccb b83d c88b 213e
00000100: 2f50 5b3d 72b0 7cba 4d40 813c 4132 02be
00000110: b863 5537 f60b 33bc 5822 bcbd 8d2c ae3b
00000120: c631 88bd 5e72 d3bd 017c 313d 9a4d c9bd
00000130: 9a0c f43d 4421 87bd 986f 1bbe 51bd 61bd
00000140: 8fd3 e83d eb28 e1bc 3f34 6b3d 1d0c fdbd
00000150: 4807 b4bd e255 543d 7918 0bbd a12c 14bd
00000160: 715f 84bd 881c acbd 37b7 40bd a8d3 7fbd
00000170: af93 333d 6ed3 52bc 96a1 50bd 270f f53c
00000180: 378e 6ebc 89e5 693d 1811 bebd e7c4 f6bd
00000190: 42f5 d4bd 1f9f 5abd 028e 04be fea9 0dbe
000001a0: e8f2 a4bd b072 17be bbc0 06bd 319c 27be
000001b0: 3492 fabd c42f 1ebe 9997 87bc dce3 d4bc
000001c0: 01a5 17be 028b 12bc 8df0 293e 7575 d4bd
000001d0: 3b91 0d3e 107f 523c 844c bf3d 2868 fd3d
000001e0: 19a9 633d 1809 74bd 82d4 50bd fc61 7c3d
000001f0: 752a 27bd 638c a23d 4899 92bd d9f4 5abd
00000200: b73b 843d 001d 9a3c 90f8 603c 5ccc f2bc
00000210: a232 a73d 3ac5 ffbd 78d7 fabc 89f6 753d
00000220: 715e 1e3c 1947 1dbe 27e6 ec3c 6236 84bd
00000230: 3f28 e9bc 7f76 d13d 7225 003d 97c4 f13d
00000240: e5a2 5e3d c275 573d f2d1 debb 8c25 1f3d
00000250: 138d 13bc 56ed c7bd 01c7 66bc 7fc1 b83b
00000260: f97d 87bd d6fc 893d 0457 b13d 3dc6 ffbc
00000270: c9a5 4abd 5115 0fbd 24f9 d63d 52d2 39bd
00000280: dc26 883d 0257 debd 97c9 73bd 977c 943d
00000290: fb64 333d 3ec9 d8bd 8810 413d b680 2fbe
000002a0: 5daa f43d e1bc 09be 74c3 e63d f95d 87bc
000002b0: d216 db3d 91b1 11be 058d 863c 47a0 203d
000002c0: 6970 5ebd cfc9 a9bd 6d41 183e 7f53 88bd
000002d0: 5dbf 0c3e 1617 92bb 391c 9c3b b509 1fbd
000002e0: 0c2e 72bd d141 ed3d a2bc 993b 3feb 3dbd
000002f0: 65ed 52bd 570d cfbd 2811 bcbc 1123 b03c
00000300: 7dda fcbc b246 d1bd 410a 793d c6cf 95bd
00000310: f9d7 17bd 5be7 d8bc 11e1 4ebd 9419 62bd
00000320: fc8f 083e f682 a4bc 06d6 d03d a67a ca3c
00000330: f514 7dbd 603c cdbd 2baf 253e b9af bcbd
00000340: c4c5 f73d 8126 33bd 2ad8 80bd 10aa 5dbb
00000350: cb08 ea3d 22ab 8a3d 9c36 f73d a9bd fabd
00000360: 54e3 f03c 1572 ac3d d20b 0c3e dce2 ebbd
00000370: 5bd2 46bd 556f 3a3d 9bc3 a4bc 1116 bd3d
00000380: b63a c03c 8c53 6b3d 8440 98bd aeb9 c03d
00000390: fafb fe3d d034 e63d 4263 263e 047a 98bd
000003a0: f0d0 803b 5249 4fbd 7a7c 14bd 37b3 8bbb
000003b0: c1d7 5d3d 1d69 14bb ff3a 393e 3033 04be
000003c0: 71c6 a9bd 05c3 b3bc 76b2 913d 4752 ab3c
000003d0: db74 0ebe 13cc 123d e37b 10bd 8192 61bb
000003e0: bfb7 2fbe 9d8e 2b3d 1c71 6f3d 0d5b 68bd
000003f0: f199 2fbe a68e 82bd 5c5c 4ebd b75f b0bc
-0.0022547604 0.027060036 0.10646363 0.00921653 0.084730536 -0.16217723 -0.005738044 -0.029241947
0.028482331 0.06791823 -0.027687768 0.075510874 -0.084820114 -0.068068475 -0.049955525 -0.09570645
-0.093998805 0.017568164 -0.06889062 -0.09213473 0.039808143 0.06635796 0.094474755 -0.0213378
0.14722303 -0.13589635 -0.040836815 0.03767231 -0.058332816 0.07300128 0.09429999 0.1463163
0.004433783 -0.12777896 -0.031046346 0.011357254 0.031040281 -0.00025729433 0.07608245 -0.09740802
0.050508026 0.07934157 0.06709083 0.0019422077 -0.025803661 -0.042990673 0.08549373 -0.08756612
-0.09395728 0.081454575 0.04981845 0.06999398 -0.12194612 -0.012213349 0.014960119 -0.020188365
-0.1416398 -0.025093744 0.09912446 -0.015433311 -0.009498168 -0.016837705 0.09023175 0.15775979
0.053543266 -0.00096393295 0.015777731 -0.12714483 1.2719007e-05 -0.010928145 -0.09186238 0.0053153695
-0.066501185 -0.10324548 0.04333115 -0.098292544 0.11916466 -0.06598142 -0.15179288 -0.055112187
0.113684766 -0.027485332 0.057422873 -0.12355826 -0.08790451 0.051839717 -0.033958886 -0.036175374
-0.064635165 -0.084038794 -0.047049727 -0.06245771 0.043842014 -0.012867792 -0.05093535 0.029914452
-0.014560274 0.057103667 -0.09280604 -0.12049275 -0.10398342 -0.053374406 -0.12944797 -0.13834378
-0.08054143 -0.14789844 -0.032898646 -0.16368176 -0.12234917 -0.15447909 -0.01655178 -0.025987558
-0.14809038 -0.008944275 0.16595669 -0.10373966 0.13824932 0.012847677 0.09340766 0.12373382
0.055581186 -0.059578985 -0.050983913 0.061616883 -0.040811975 0.07936933 -0.07158142 -0.05345616
0.06456702 0.018812656 0.013731137 -0.029638462 0.08163954 -0.1248879 -0.030620322 0.060049567
0.009666071 -0.15359153 0.028918339 -0.06455685 -0.028461574 0.102276795 0.03128571 0.11805075
0.054354567 0.052602537 -0.00679993 0.038854167 -0.009005803 -0.09762065 -0.014085532 0.005638301
-0.06615824 0.06737678 0.08659175 -0.031222457 -0.04947451 -0.03493244 0.104967386 -0.045366593
0.06648037 -0.10856439 -0.059518423 0.07250326 0.043797474 -0.10585259 0.047134906 -0.17138943
0.11946557 -0.13450958 0.112677485 -0.016524302 0.10697712 -0.14227892 0.016424665 0.039215352
-0.05430642 -0.08290445 0.14868708 -0.066565506 0.13744874 -0.0044583185 0.0047641066 -0.038827617
-0.059125945 0.11584819 0.0046916762 -0.046366926 -0.05149593 -0.10109966 -0.0229574 0.021501096
-0.030865902 -0.10218562 0.060800795 -0.0731502 -0.037071202 -0.026477506 -0.05050761 -0.055200174
0.13336176 -0.020081978 0.10197072 0.024716686 -0.061787564 -0.10021281 0.16180103 -0.09213204
0.12098268 -0.043737892 -0.0629123 -0.003382329 0.114274584 0.06770922 0.12070963 -0.12243206
0.029405273 0.08420197 0.13676384 -0.11517879 -0.048540454 0.04551633 -0.020112803 0.092327245
0.023465496 0.057452723 -0.074341804 0.094104156 0.124504045 0.11240542 0.16248801 -0.07445148
0.0039311573 -0.050607033 -0.036251523 -0.0042633074 0.054160837 -0.002264566 0.18088911 -0.12910151
-0.08289803 -0.021943578 0.07114117 0.020913256 -0.13911764 0.03583915 -0.035274398 -0.0034419599
-0.17159937 0.041884053 0.05845748 -0.056727458 -0.17148568 -0.06374864 -0.05038105 -0.021530015

lstm.bias_ih_l1 f4 [256]
00000000: a600 883c 79c3 8fbd 8914 b1bd 842e 1fbd
00000010: 3072 4f3c f068 a2bd 607a 7dbd 1d54 373d
00000020: af00 c13c 25db 11be f8dc ddbd b85c 9abd
00000030: 64ad 513d f14d f8bd ec5c c6bd a94e d4bc
00000040: 108e 6b3d 0675 863d 200b 6c3d 9c6c 75bd
00000050: 9463 853d 37a5 e3bd c03a babc c3ab bcbc
00000060: 565b bc3d 6c84 203d 83c5 593d 918d 1cbc
00000070: ba46 8b3d 71d8 6dbc 15e8 053e 8045 f33d
00000080: 73f3 eebd e3df 13be 8a64 babd 2e77 a0bd
00000090: 89f1 c8bd ef3a bebd 2ffa edbd 362b cd3d
000000a0: c570 e8bc ddd9 a4bc c011 c83d 8924 c33d
000000b0: 1c02 c3bd b574 abbd 4166 86bd 2dc0 383c
000000c0: 8551 da3d 5847 b4bd d4e5 e63c 3877 bd3a
000000d0: e6dc 03bd 6d39 323d b2f9 c8bc f5f8 383c
000000e0: 79e7 90bd c9c9 93bd 7859 26bd 3634 9e3d
000000f0: 637b 003e bb7f 08bd 08b1 5d3d d3a6 d23d
00000100: 60ec e0bd e6be 5dbd a57d ddbd e38f d9bd
00000110: 41a2 16bb 8e10 15be 1440 febd a43e 8d3d
00000120: f377 023e 4e9b a83d c6c7 763a 2071 d83b
00000130: 8914 dabc faf9 07bd 0cba 9bbd 172b 023e
00000140: befb ee3c 01a6 7fbc 83f9 df3d 2c44 a63d
00000150: 6667 c9bd 629d 89bc 9b72 83bd 9eae e53c
00000160: 24d9 e2bc 3a07 8fbd d09d 46bc 8e8e 82bd
00000170: b9b1 363d 54da 9fbd 2bf7 c43d ad18 d0bd
00000180: b518 953d 5a4c 15be bb42 663c 1561 06be
00000190: 07ba 08be e93b 063e 12a7 1fbd 3f83 9d3d
000001a0: e1d7 b0bd 99e8 eb3b e758 c4bd eaad b9bb
000001b0: 96a1 933d 4c53 0dbe dc85 da3d f6a2 69bd
000001c0: 68f8 fc3d dd62 a83d 5a15 913d ae47 dd3d
000001d0: d119 8fbc c017 7dbc bdde c33c 3695 ffbd
000001e0: 846a cfbd f998 413c d5f5 13bd 52e1 4abc
000001f0: 9012 6f3c b1c2 803d 1c4c 73bd d300 ca3d
00000200: d3be 86bc b6f4 b8bd ac87 70bd 94ed ecbc
00000210: ff56 dfbb b84c ad3d dd9a d63d 9c2b 1cbb
00000220: b6ae a83d a682 90bd 000d ae3d 25d2 a03d
00000230: ba2f 9ebd c219 cfbd 3042 6bbd 549a cb3d
00000240: ad8d 2bbd 3c66 91bd 8164 c03d e500 4e3d
00000250: 82a8 3ebc 74ef 5bbd c7fc 67bd e21a 793d
00000260: 31aa 583d 284d d23c 8cfb 8d3d fa2e 553b
00000270: 63db c9bd d52c 03bd 7565 09be 178d f2bd
00000280: b050 c43d 8e0b c13b 9032 b63d f194 113d
00000290: 2df2 f23d b3af e8bd cc91 92bb 9c38 f73c
000002a0: fdc2 7bbd 7cfa 863d c4aa f1bd dc03 d03c
000002b0: 0094 47bd 093b 803d 5ead 2f3d 8f00 ae3d
000002c0: ad7e 453c a2f4 a63d fd00 acbd 9e0c e53c
000002d0: 34a0 a5bd d34e 03be 0a1c c3bc 967d babd
000002e0: 8a80 69bd 4c34 afbd df25 a33d 1923 2bbd
000002f0: a792 c73d efa0 dabd 1e4c 8abd 82d6 e53c
00000300: 4089 35bd 2af5 09be ed12 27bd f84f 08be
00000310: 2f25 0bbd f055 00bc bdce 993d 0b42 a33d
00000320: 5687 2abd 3a7e d13d 442f d03c ba62 6fbc
00000330: 90c5 f63c 2bf3 0cbc 672e 293d df71 3f3d
00000340: 0920 1c3d d3b0 ca3d de03 05bc da22 82bd
00000350: aef0 403d b927 7fbd 9a4b 003b 3c85 8bbc
00000360: dac8 74bc 4a5c 0dbd f456 bc3d 0da2 2bbd
00000370: a639 07be 802b 07bd a862 82bd 2c7f b2bd
00000380: f7ab ae3d 4712 9bba 16a2 c03d 2a51 e2bc
00000390: 65f5 65bd 2f6f 593d d518 ae3d 2982 093d
000003a0: cb94 493d e0a3 eebd e1ab 80bd b3c1 033d
000003b0: 1870 15bd 0974 d3bd 22e7 f93d 84f1 f8bc
000003c0: 6a62 0b3e f563 493c 170c 69bd 8186 88bd
000003d0: 7cfd a73d 5da4 94bd 866b f2bd 0a7c 453d
000003e0: d377 8d3d 061f 80bd 51c6 063e 250b ba3d
000003f0: 7880 0b3d 504a 58bc 4427 10be a66e 553c
0.016601872 -0.07019705 -0.08646495 -0.03886272 0.012661502 -0.079301715 -0.061884284 0.04475795
0.023559896 -0.14243753 -0.10833162 -0.07537216 0.05119075 -0.12124241 -0.09685692 -0.025916414
0.05750853 0.06565289 0.057627797 -0.05991803 0.06513134 -0.111154966 -0.022733092 -0.023031121
0.091971084 0.039188787 0.053166877 -0.009555236 0.068005994 -0.014516936 0.13076814 0.118784904
-0.11667528 -0.14440875 -0.091012076 -0.07835232 -0.09811694 -0.092885844 -0.11619984 0.100180075
-0.028374085 -0.020123417 0.097690105 0.09528453 -0.09521887 -0.083718695 -0.06562472 0.011276287
0.1066008 -0.0880267 0.028185762 0.0014455086 -0.032193087 0.043511797 -0.024533127 0.011289825
-0.070754 -0.07216222 -0.040612668 0.07724802 0.12547068 -0.03332494 0.05412391 0.102857254
-0.10982585 -0.054137133 -0.108149804 -0.10623147 -0.0022984894 -0.14557096 -0.12414566 0.068967134
0.1274107 0.08232747 0.0009413924 0.0066052824 -0.02662112 -0.03319738 -0.07603845 0.1271175
0.029172774 -0.015603543 0.109362625 0.081184715 -0.09834175 -0.016798679 -0.06418344 0.028037366
-0.027691431 -0.069838 -0.012122586 -0.063748464 0.044603083 -0.07805315 0.09617456 -0.101609565
0.07280103 -0.14579907 0.014053996 -0.13122971 -0.13352214 0.13108791 -0.03897769 0.07691049
-0.08634926 0.0071993587 -0.09587269 -0.005666484 0.072085544 -0.13801306 0.10670063 -0.057040177
0.12352067 0.08221982 0.070841506 0.108046874 -0.017468365 -0.015447557 0.02390992 -0.124796316
-0.10127738 0.011816257 -0.036123116 -0.012382822 0.014591828 0.062871344 -0.059398755 0.098634385
-0.016448414 -0.0903105 -0.058723137 -0.02892188 -0.0068157907 0.084618986 0.104787566 -0.0023829704
0.082364485 -0.07056169 0.08498573 0.07852582 -0.07723947 -0.10112335 -0.05743617 0.09941545
-0.04188316 -0.07099578 0.093941696 0.05029382 -0.011636855 -0.053695157 -0.05663755 0.060816653
0.052896682 0.025671557 0.069327444 0.003252922 -0.09856298 -0.032025177 -0.13417609 -0.11843317
0.095857024 0.00589127 0.08896363 0.035542432 0.118625976 -0.11361637 -0.0044729467 0.03017836
-0.061465252 0.06590745 -0.11800149 0.025392465 -0.04872513 0.0626126 0.042889945 0.084962
0.012054128 0.08152129 -0.08398626 0.027960118 -0.08087197 -0.12823038 -0.023817081 -0.09105985
-0.05700735 -0.08554897 0.07966208 -0.04178152 0.097447686 -0.10675227 -0.067527995 0.028056387
-0.044320345 -0.13472429 -0.040789533 -0.13311756 -0.033971008 -0.007832989 0.07510135 0.07971581
-0.041632973 0.10229154 0.025413163 -0.014610941 0.030123502 -0.008602898 0.04130402 0.046739455
0.03811649 0.09897008 -0.008118598 -0.06354304 0.04710453 -0.06229374 0.0019576312 -0.017031305
-0.014940465 -0.03451184 0.091962725 -0.04190259 -0.13205585 -0.03300047 -0.063664734 -0.08715662
0.085288934 -0.0011831009 0.094059154 -0.027626593 -0.05614223 0.05308455 0.0850083 0.033571396
0.049214166 -0.116523504 -0.06282783 0.032167148 -0.036483854 -0.10324866 0.12202288 -0.030388601
0.1361176 0.012291898 -0.056896295 -0.066662796 0.08202645 -0.07257912 -0.11836915 0.048213996
0.0690762 -0.06255917 0.13161589 0.09084157 0.034058064 -0.013201311 -0.14077479 0.013026869
