src/util/AI/checkpoints/003.ckpt (torch, 353508 bytes, 14 tensors)

lstm.weight_ih_l0 f4 [256, 12]
00000000: 948e 1bbc ec1c 163d 1dea 0ebe ee20 0d3d
00000010: 70bd 373d 4fcc 0b3d d789 453d 9f24 84bb
00000020: 2503 d3bd d1cb 923d 7151 81bd 0508 64bd
00000030: bbe2 58be 5883 793c f503 90bd b03f 8bbd
00000040: 5dd5 82bd 0101 643c 4e90 1c3d 7ae3 433d
00000050: 62bc 44bc d22f 1c3d cfe3 c9bd 2e3a 743c
00000060: 9ffa b63d 9fdd c13d b3d8 6d3d 929a 1d3e
00000070: fb9a 8f3d c981 d33d 72b0 f03b 7406 9fbd
00000080: 3306 a6bb 9530 86bd 1687 c43d 8c67 03be
00000090: def2 3f3d 76b2 b63d ff49 9c3d 91c0 2fbe
000000a0: 0bcc 2cbe c726 b93c 1ded de3d 5354 113c
000000b0: 5791 1abe 0fcc 53bd 10e7 1b3e 4208 2ebc
000000c0: 5953 293d 24dd cabd 32b8 c0bc c42b 8ebd
000000d0: 4b73 fa3d cad1 92bc b7a0 9a3c 214b d43d
000000e0: 3090 cd3d 1f2c 1b3d 5291 8abd 7249 85bc
000000f0: 5d84 0f3d edec 1b3d 0279 133d 61cf 153e
00000100: 21ef f93d 866c c2bd 9710 313e f0ea 313e
00000110: 22e5 1f3c e5e9 9e3c 4a4e 033c 6eca 8cbc
00000120: adf3 143e 9d3f de3b 452f 0dbe b3c2 0abe
00000130: 8506 a23d c383 5dbd f3b7 84bd 1d66 743d
00000140: f520 f4bc 97bc 1c3c 8297 10bd c08c 9f3b
00000150: 8161 a4bd 59f0 cf3d 092f 82bd 6eae 863d
00000160: 8d03 903d 2d0e 073d 3e8b c43c 1fc9 db3d
00000170: da1d 33bc fcb4 233c 3cc9 763b f0ee 05bc
00000180: 8ad3 79bd 799a 5bbc eeb4 17be e68d ab3d
00000190: a593 453d cd54 2b3d dcdb 153e 3a26 103e
000001a0: 746a b2bc 185e e2bc 5fe4 78bd e8e4 553d
000001b0: 0da6 063e 62b1 293b 9a8f 533d 4155 c13d
000001c0: f53d 243c bea0 8e3c 549e 4d3c d0f2 1ebd
000001d0: 9e6b 09be 124d 863d 1098 283c 3909 eebb
000001e0: 5a75 f73c 7d3a 06bd 88f2 1ebe b8de eabc
000001f0: 462b 393e 48b4 413c 30a0 e63d 7aef 203d
00000200: 0174 f53d 8fc7 393d 1bfd c23d 1403 86bd
00000210: e93e 9e3d 6b33 aabc 8d1e b53c d3d1 f5bd
00000220: 0235 c33d 93bb 83bb 360d e8bd a8de 1fbe
00000230: 5d20 3bbe d1f4 ab3d 34fb b83d a1b0 b93d
00000240: 17f8 673d 0994 fe3a f7e0 edbd 0032 1fbd
00000250: c7bd 613d 8d64 cf3d a04d 43bd fad4 47be
00000260: 2d35 d2bd d3e5 2ebc 0513 aabd 72c3 59bd
00000270: eeb6 693c 4cf5 513d 92e0 083d 7242 d6bd
00000280: 2b66 f5bd e9c6 a0bd e2ca 013e 3f6e b4bd
00000290: 0936 06be 36fe 63bd 8ff7 78bd 6742 843c
000002a0: d438 9fbd 9fe2 833c 0e45 eabd 8d57 623d
000002b0: d6a2 78bd 5387 aabd 5e27 b33d 7332 983c
000002c0: 371d 8bbd 0cc0 853c 350b 333c 0f25 943d
000002d0: 95c7 a4bc 0bc6 6dbd 054f fa3d e7c4 a83c
000002e0: fd6d db3d 31b2 20bc 0196 26be 4897 8ebb
000002f0: d229 3bbd d42b edbd f4d1 00be 118c 923c
00000300: 7daa 3bbd 0ec5 283d cfdf 333d 1b1b ec3d
00000310: add8 3c3d 85aa 053e 2b21 203d 4c98 f3bd
00000320: e6e2 45bd ede2 b4bc ca02 b3bd d506 2cbd
00000330: 568b 9ebd 208d 46bc 71a0 a0bd 11b1 40be
00000340: 4eb9 38bd fff9 1f3e 0dc4 d43d ba12 b4bd
00000350: bf84 adbc 7f66 b7bc 3462 863d 3eff 05be
00000360: 7697 10be 84e3 36bd 66a3 f63b b52e b13d
00000370: 62d1 503d df36 04be 9687 35be 1f6d 7e3d
00000380: 7906 cabc 8dad a23d 87bd 0dbe 29bd 9ebd
00000390: 9e10 3dbe d5fd 2cbd 2d34 c9bd ed77 00bd
000003a0: 64d8 743d 254a 9b3c 4656 8fbd 047f 00bd
000003b0: 463b a3bc 088d c73c 8d6b 41bd ce1e 563d
000003c0: d2d6 9fbd 77e6 363e a95f dc3c db31 12bd
000003d0: 5276 7a3d 991c 673c 2ae0 1fbd 6e0c fa3d
000003e0: 9c25 99bd fee3 ccbd ea9f b73c ad6e 423c
000003f0: 0184 82bc 23ba 353d 4ba9 c1bd 2459 3c3d
-0.0094944425 0.036648676 -0.13956495 0.034455232 0.044858396 0.03413039 0.048227157 -0.004032686
-0.10303334 0.07167781 -0.06314362 -0.05567171 -0.21180241 0.015229069 -0.07032005 -0.06799257
-0.06388352 0.013916255 0.038223557 0.04782436 -0.012007805 0.038131543 -0.09857904 0.014906449
0.08934521 0.09466099 0.05806799 0.15390995 0.07011982 0.10327489 0.0073452527 -0.07764903
-0.005066657 -0.06552235 0.09596078 -0.12832469 0.046862476 0.089207575 0.07631301 -0.17163302
-0.16874711 0.022601498 0.108850695 0.008870202 -0.15094505 -0.051708277 0.15224862 -0.010622086
0.041339252 -0.099054605 -0.023525331 -0.069419414 0.12229022 -0.0179223 0.018875463 0.10365892
0.10037267 0.037883874 -0.06765999 -0.016270373 0.03503834 0.038067747 0.036004074 0.1462989
0.12203813 -0.094933555 0.17291485 0.17374778 0.009759219 0.019398639 0.008014271 -0.01718637
0.1454608 0.0067824856 -0.13787563 -0.13550834 0.079114 -0.054080736 -0.06480398 0.059667695
-0.029800871 0.009566448 -0.03530074 0.0048690736 -0.0802641 0.101532646 -0.063566275 0.065762386
0.07031927 0.032972503 0.023992177 0.1073172 -0.01093241 0.0099918805 0.0037656566 -0.008174643
-0.060992755 -0.013403528 -0.14815113 0.08376674 0.048236508 0.04182892 0.14634651 0.14077082
-0.021779276 -0.027632758 -0.060764667 0.052220255 0.13149281 0.0025893082 0.05165062 0.09440089
0.010024537 0.017410632 0.012549955 -0.038805783 -0.13419959 0.06557669 0.010290161 -0.007264283
0.030207325 -0.032770623 -0.15522206 -0.028670654 0.18082914 0.011822768 0.11261022 0.039290883
0.119850166 0.04535633 0.09520932 -0.06543556 0.07726843 -0.020776471 0.022109294 -0.120029114
0.09531595 -0.0040201633 -0.11330645 -0.1561228 -0.18274064 0.083963044 0.09032288 0.090668924
0.05663308 0.001942278 -0.11615174 -0.038866043 0.055112626 0.101266004 -0.04768145 -0.19514838
-0.10264049 -0.010674912 -0.08304409 -0.053164907 0.014264805 0.051259324 0.033417292 -0.10461892
-0.119823776 -0.07850439 0.1267505 -0.0881009 -0.1310655 -0.055662356 -0.060782965 0.016144944
-0.07774511 0.016099272 -0.114389524 0.055259276 -0.060702167 -0.08326592 0.08747743 0.018578744
-0.06792682 0.016326927 0.010927965 0.07233631 -0.0201147 -0.058050197 0.12222103 0.020601703
0.10714338 -0.009808109 -0.1626816 -0.00435153 -0.04569418 -0.11580625 -0.12580091 0.017889054
-0.045816887 0.04120355 0.043914612 0.115286075 0.046105076 0.1305333 0.03909413 -0.11894283
-0.04831209 -0.022080863 -0.08740766 -0.041998703 -0.0774142 -0.012118608 -0.07843102 -0.18817545
-0.045098595 0.1562271 0.10388956 -0.08792634 -0.021181462 -0.022387741 0.065616995 -0.13085648
-0.14120278 -0.04465057 0.007526803 0.08651487 0.050980933 -0.12911557 -0.17727503 0.062115785
-0.02466129 0.079432584 -0.1384183 -0.07750923 -0.1846337 -0.04223426 -0.09824405 -0.03136437
0.05977668 0.018956253 -0.06998877 -0.03137113 -0.019925725 0.024359241 -0.04722171 0.05227547
-0.078046456 0.17861353 0.026901083 -0.035692077 0.061147995 0.014105939 -0.03903214 0.12209402
-0.074778765 -0.100044236 0.02241512 0.0118672075 -0.015932085 0.044366967 -0.09456118 0.04598345

lstm.weight_hh_l0 f4 [256, 64]
00000000: 9b2c 363d 2ea9 15bd e3ad 0a3e 3b02 813c
00000010: 4381 083d 0ef9 283e 3047 a3bd 423e d73c
00000020: eece a73d b3fb 313e 6e7a 853d 0924 8d3d
00000030: 564e d43d 70b2 ccbd 588c 083e 35ce 09bc
00000040: d37f 81bd 08bc b43d e3c0 443c 394a 063d
00000050: 7c86 063d f022 81bd 014c 9c3d 364d bebc
00000060: a0e5 1a3e 03ba 08bd f887 dbbd c5a6 823d
00000070: f615 213d a89a 953d 2229 15be 034a 62bd
00000080: 5e19 fbbc ce17 a33c 0db7 4d3c ead8 f2bd
00000090: e3a8 2b3d 1e64 ab3c 800d 9fbd 3e25 153d
000000a0: 3ded 9cbd 522c 1ebd d075 333d afc0 e0bd
000000b0: df3b 92bd 3f8f 05be 4b35 bfbd b845 dcbd
000000c0: a5e8 8c3d f294 813d c843 da3d 6ee6 f03d
000000d0: b8a8 0bbe 7dbd b4bb c788 3f3e a738 acbd
000000e0: 2b9a 9c3d f97b ff3d a20e 70bd f421 80bd
000000f0: d765 6ebd b5b6 b93d c750 053d de73 6b3d
00000100: e2eb 893d 46b3 66bc 3f8d 533e 5791 9e3d
00000110: ccc4 603d cded 97bd 357b 54bc 0ff5 10bc
00000120: 8760 96bd 34ba cabd 9d56 d63d 640d 003d
00000130: c85d 5d3c 4ad4 a7bd 2337 07be 5025 b53d
00000140: 583e a13d 1e20 22be 730c e93d b4bb 203d
00000150: d571 863c 2f4a febd 819c 06be 7cee 82bb
00000160: b9d4 723d 18e7 0bbe 2d83 803d 11a5 073e
00000170: 78c5 22bd 0dd0 37be e41d 3abd 2d30 3b3e
00000180: 1274 d1bd 16cd a0bd 2333 3a3d 209f b3bb
00000190: b998 b93d e3d8 3cbd 7c16 cbbd b9be dc3d
000001a0: 1907 053c 2701 3abe ecd3 58bc 44af b0bd
000001b0: 6ab7 f1bd 55d0 0cbe e3d4 b0bd f3e2 34bd
000001c0: 1528 c6bc 18c1 063d 110f 9b3d 98bd d5bc
000001d0: 5a65 0bbe 6833 453d 7da4 d6bc 76f5 253e
000001e0: 358a 23bd 3ca0 ca3d ead8 f2bd bbad 603d
000001f0: 6a1b 4d3c caa3 2abd 28a9 383d 06a9 90bd
00000200: 9a40 3f3d 195a 25be a8a2 2cbd 9cce 963d
00000210: 8015 2bbc 59a0 273e 4001 0abd 75c2 043e
00000220: c645 23bd 5208 423c 58ca 94bc e59d bc3c
00000230: c86e 263e 918c debc e8ca 30bd a912 753d
00000240: 88e0 dfbd 1973 9f3c 3778 ab3d bb91 cbbc
00000250: 2c3f 9cbb 608d e33d 521d 2bbd 8457 ef3c
00000260: 723d b8bc 43b8 1cbe e42a acbd 9f0a 0abe
00000270: 7547 24bd 75e9 8a3d 1d7f 36be c717 d6bd
00000280: 6191 9bbd f125 48bd 441d 8d3c 03c3 703d
00000290: 93af da3d 9d36 063e 987f 3cbc 8341 d63d
000002a0: f133 2a3e eaa1 da3d 77a0 693c 3a67 e3bc
000002b0: b472 793d dfab 0c3d 7204 82bd ce8f b83d
000002c0: 3b6d b3bd 51c3 913d 4675 853c b1a2 f5bd
000002d0: c845 863d dbc6 f0bd e617 83bd fe95 00be
000002e0: 073f c1bd 35be debc 31a5 823d 0e64 b33c
000002f0: 9f77 a9bd 31f5 ecbc c2e1 adbd e6c6 263e
00000300: efc9 1e3e a3fb 64be 2467 d73d 37e1 10be
00000310: 4514 c2b9 9ece 1dbe fc76 93bd b1a0 83bc
00000320: d99d cd3d 5df9 f1bd c8d0 67bd 0898 4abd
00000330: 218a 1a3d 5524 113d 3f10 5abc cd8b c83d
00000340: 93b4 953d e978 3ebd a0db b8bd 3b80 083e
00000350: def0 08bd 7f1d 27bd 4018 8fbd bcc2 303d
00000360: 68ec 8f3c 8ad1 bfbd 1444 cfbd 4711 1d3e
00000370: 591c 593d 5061 4d3b 185b b83d 4728 e7bc
00000380: e984 463e 1320 4b3d a6bb dcbc 0b5b 363d
00000390: f55a 6ebd cae6 0b3d 9aca 7ebd e185 f73c
000003a0: c942 b43d 5457 ff3d e008 063c 27c6 31be
000003b0: af3f 69bb da58 ad3d c0d9 553d 901d 1b3e
000003c0: 9050 ab3c 7f67 1cbe 20f4 bebd c83b 0bbd
000003d0: e232 aeb9 a82b a43d f57d b3bd de80 443d
000003e0: 0229 a53d 08c5 c53d 0bf0 f3bd ba8d 18be
000003f0: dcf1 673c 8656 43be 5a75 293e 6ae7 853d
0.044476133 -0.036538295 0.13542895 0.015748134 0.0333264 0.16501257 -0.07972562 0.026274804
0.081937656 0.17381172 0.06517492 0.06891639 0.10366504 -0.09994972 0.13334787 -0.00841098
-0.06323209 0.088249266 0.012008878 0.032785628 0.032843098 -0.06305492 0.07631684 -0.023230176
0.15126657 -0.03338052 -0.10719293 0.06379465 0.039327584 0.07304889 -0.14566472 -0.055246364
-0.030651744 0.019908812 0.01255585 -0.11857779 0.04190911 0.020921763 -0.07766247 0.03641247
-0.07662437 -0.038616486 0.043813527 -0.109742515 -0.07140326 -0.13042925 -0.09336337 -0.10755485
0.06880311 0.06327237 0.106574595 0.11762701 -0.1363858 -0.005515753 0.1870452 -0.08409243
0.07646593 0.12474818 -0.058607705 -0.06256476 -0.05820259 0.09068052 0.03254774 0.057483546
0.06734444 -0.014080828 0.2065935 0.07742565 0.05487518 -0.07418404 -0.012968828 -0.008847489
-0.0734263 -0.09898797 0.10465739 0.03126277 0.013511129 -0.08194788 -0.13204627 0.088450074
0.07873219 -0.15832564 0.113793276 0.039241508 0.016411701 -0.12416493 -0.13145639 -0.0039957147
0.0592849 -0.13662374 0.0627502 0.13246562 -0.039739102 -0.17950459 -0.045438662 0.18280096
-0.10227217 -0.07851617 0.045458924 -0.0054816157 0.09062333 -0.046105277 -0.09916398 0.10778565
0.008119368 -0.18164502 -0.01323412 -0.08627179 -0.118025616 -0.13751347 -0.08634355 -0.04416175
-0.024189034 0.032898992 0.07571233 -0.026091382 -0.13612881 0.048144728 -0.026201481 0.16206917
-0.039926726 0.098938435 -0.11857779 0.054853182 0.012518743 -0.041660108 0.045083195 -0.07063489
0.04669247 -0.16147651 -0.04214731 0.07363626 -0.010442138 0.16369762 -0.0336926 0.12964804
-0.039861463 0.011842804 -0.018162891 0.023024509 0.16253197 -0.027166637 -0.043162256 0.05983225
-0.10931498 0.019464063 0.083725385 -0.024849763 -0.004768273 0.111109495 -0.04177601 0.029216535
-0.022490237 -0.15304665 -0.08406618 -0.13480614 -0.04010721 0.0678281 -0.17821927 -0.10453754
-0.07596088 -0.04886431 0.017225869 0.058779728 0.106780194 0.13106771 -0.01150503 0.10461714
0.16621377 0.10675414 0.014259449 -0.027759183 0.060900405 0.034343597 -0.06348504 0.090118036
-0.087610684 0.07117332 0.016291272 -0.119939215 0.065562785 -0.11756679 -0.06401043 -0.12557217
-0.0943585 -0.027190307 0.06379164 0.021898296 -0.08274769 -0.02892551 -0.084903255 0.16286811
0.15506719 -0.22361617 0.105177194 -0.14148413 -0.00037017665 -0.1541085 -0.07200429 -0.016067835
0.10039873 -0.118151404 -0.056595594 -0.049461395 0.037729386 0.03543504 -0.013309537 0.0979229
0.073098324 -0.046502028 -0.09026265 0.13330166 -0.033432834 -0.040799614 -0.06987047 0.043154463
0.017568782 -0.09366138 -0.10120407 0.15338622 0.05300555 0.003133852 0.0900175 -0.028217448
0.19386639 0.049591135 -0.026944946 0.04452042 -0.058192212 0.034155644 -0.062204935 0.030215206
0.08801801 0.124678284 0.008180827 -0.17360745 -0.0035590937 0.08464213 0.052209616 0.15147996
0.020912439 -0.15273856 -0.09323907 -0.03399256 -0.00033225777 0.08016139 -0.08764259 0.04797446
0.08064462 0.09656721 -0.11911019 -0.14897814 0.014156785 -0.19075975 0.16548672 0.06538279

lstm.bias_ih_l0 f4 [256]
00000000: 8810 6abb fb25 abbd 0c8d 91bd dab3 d5bc
00000010: 6374 94bd cab5 3c3d 921e f43c 4d21 c63d
00000020: 23d9 cd3d 1409 45bd 1f70 bf3c 8bf7 4bbd
00000030: 60a1 1abd 229a 68bd f00a 763d 4caf 8dbd
00000040: 0947 fdbd 071f 193d 2dbb a1bc a8d1 1fbd
00000050: f4cc b53c 9685 c73d 8c8a a9bd 842b 7bbd
00000060: 3563 673d 6c0a 0c3d 314d 36be 2adc c73c
00000070: bb44 c03d d9f6 12bd ae74 c13b 9ce6 5a3d
00000080: ced0 d63d e484 60bd f137 30bd 2db4 e03d
00000090: 67cc a03d 3d28 67bd d455 b8bd ffd2 d6bd
000000a0: 44da 7cbd b6a9 86bd 4336 a63d f5d8 143e
000000b0: c715 213d b9c5 e5bd 22ac 173d b0bb 0e3e
000000c0: bbd7 3bbd f936 a5bd 83ed b6bb baba 4dbc
000000d0: 3b4d 8fbc cb24 86bd e839 a53d 2b16 c5bd
000000e0: 0bc7 38be 38f9 24be 3c16 1bbc 4d6c 95bd
000000f0: 2910 b73c 4a55 3e3a baad 0e3e 445d a33c
00000100: 074d 44bd 4bc8 0cbd 242a da3c ad74 ecbd
00000110: ad56 ca3d 4d92 f5bc 7e63 ff3c e484 55bd
00000120: d23c 91bc 0771 053d d986 203d aa2e 623c
00000130: e7cf 08be cb52 ccbd e435 fcb9 fb80 fb3c
00000140: 876f 87bd 1da8 9dbd 06da 85bd fea3 b9bb
00000150: 63ca 873d 9ceb f43c da14 ba3d 2c39 af3d
00000160: 5161 f13c b95e 5f3d 7ba0 acbc 41e7 443d
00000170: 79a8 623d e9f5 3f3e 9af5 01bd e24e a03d
00000180: e0b0 103e b692 8c3c a565 473c 39d3 c53d
00000190: 6666 7c3d a729 dbbd 4418 9cbd 6124 18be
000001a0: 0d64 8d3d fefc ba3d a57a 503b b7cb 7c3d
000001b0: 900e 6b3d 90dc 10bd 05c0 9e3d 99ae 543c
000001c0: 8e59 6bbd d1b9 bd3d d41e d73d b062 a1bd
000001d0: 949d 583d 5a05 7d3d 3126 cabc 0bde 233e
000001e0: 9784 a8bc 9b18 bd3c faf0 8ebd 1d14 fbbd
000001f0: 8703 d9bd 5870 93bd 37e6 633d c0c3 e7b9
00000200: 8248 b4bc 940c c0bd 39cb e93d bdd2 8b3d
00000210: 103a 84bb 9729 993d 681a 993d 9303 7dbd
00000220: cd62 0bbe 071c 49bd dfd0 e4bd 6894 acbd
00000230: 4cbb b73d 4d3c 83bc 5a7a 9bbd da6f 973d
00000240: 2d33 db3d bf10 573d 1790 3a3b 7413 fb3d
00000250: f44b 2abd de17 073d 313d 473d ec2d b63d
00000260: 9a55 8e3d b193 963d d751 103e 5a32 853d
00000270: d980 913a 1dc3 67bd 5ffb 31bc 7d26 25bd
00000280: 8b74 cc3d 1f37 92bd 12f3 7fbd f0a8 29bd
00000290: ad47 c23d 012b cebd 4d7f fd3c c078 febc
000002a0: 51aa f23d 2c76 d03c 3348 dfbd 570b 8dbc
000002b0: 8d0e 543d 63ca e3bd 7ebc 263d 3548 debd
000002c0: da70 a0bd 4270 dc3d 8061 843d c497 e03d
000002d0: ff0c 96bd e2e5 a33d 6d9c 84bd 8913 c3bd
000002e0: 5fb8 f3bc bbf3 d63d f7b3 bf3d 596b 863d
000002f0: 2537 a5ba a975 a63d db4d 2f3d d1f8 9f3c
00000300: 7012 aa3d 7b29 9839 20da 5cbd da42 973d
00000310: 9dd3 12bd be6f 82bd 7675 1abe 0c63 a73d
00000320: 42d9 c2bd 2491 c7bd 8d82 32bd 0125 a13c
00000330: 6c6c c03c 51fd 05bd 9dc9 11be e901 9d3d
00000340: 0cd7 9cbd db88 8abd b0a7 19be cd21 633d
00000350: ae72 eabd 1bb9 86bd c99c 093d 76b1 503c
00000360: d8fc c6bd 370c ca3d 4e0f c93d a986 873d
00000370: ad15 993d 7e72 fc3b 0697 433d 04fb fcbd
00000380: bb26 3fbc 878c 67bc 51ed d4bd 8a0a e4bd
00000390: 7cf6 5f3d 37c7 bcbd 26d0 0bbc 3c69 5cbc
000003a0: 1088 7d3c 18b2 e73d 7b2c f43c 2fbf ef3d
000003b0: 57e4 dc3d 38fb 83bd c62a 8dbd b6a7 f0bc
000003c0: 48cc b8bd 7842 11be 33b4 ebbd cef6 d43d
000003d0: afe7 ae3d d939 cc3c 2b31 30bd dcfe edbd
000003e0: a30c cdbd 75b8 ed3c 75f9 0cbe f6da c23d
000003f0: 43eb 943d e785 4fbd 27cd 103d aa7c d2bd
-0.003571542 -0.083568536 -0.07106981 -0.026086736 -0.072487615 0.046071805 0.029799733 0.0967432
0.10051181 -0.04810436 0.023368893 -0.049796622 -0.037751555 -0.056787618 0.060069025 -0.06918201
-0.123670645 0.037383106 -0.019742573 -0.039018303 0.022192456 0.09742276 -0.08278379 -0.061320797
0.056491096 0.034189627 -0.17802884 0.024396975 0.09388109 -0.035879944 0.005903802 0.053442582
0.10489045 -0.054814234 -0.0430221 0.10971866 0.07851487 -0.05643486 -0.090007454 -0.10489463
-0.06173159 -0.065753385 0.08115818 0.14535888 0.03932741 -0.11219353 0.037029393 0.13938785
-0.045860033 -0.08067126 -0.005582513 -0.012556726 -0.017492881 -0.065499865 0.08067685 -0.09623369
-0.18044679 -0.16110694 -0.00946575 -0.07296047 0.022346573 0.0007260634 0.13933459 0.019941933
-0.04792502 -0.0343707 0.026631422 -0.11545692 0.09879813 -0.029976988 0.031175371 -0.052128688
-0.017729197 0.032578494 0.0391911 0.013805071 -0.13360558 -0.09976729 -0.00048105337 0.030701151
-0.06613069 -0.07698081 -0.06535725 -0.0056653013 0.06630399 0.029897504 0.09086008 0.085558265
0.02946535 0.054533694 -0.021072617 0.048072103 0.05533645 0.18746151 -0.031728365 0.07827546
0.14129972 0.017159801 0.01217023 0.09659428 0.061621092 -0.10701304 -0.07621816 -0.14857627
0.06903849 0.09130286 0.0031811383 0.061717715 0.057386935 -0.035366595 0.077514686 0.01298108
-0.057458453 0.09263957 0.10503927 -0.07880151 0.052884653 0.06177268 -0.024676414 0.16002671
-0.020571036 0.023083022 -0.069795564 -0.12259696 -0.10596376 -0.07199162 0.05563947 -0.00044205599
-0.02200723 -0.09377399 0.11415715 0.068273045 -0.004035242 0.07478636 0.0747574 -0.061770987
-0.13611908 -0.049098995 -0.111726515 -0.08426744 0.08971271 -0.016019965 -0.07591696 0.07394381
0.107031204 0.052506205 0.0028467232 0.1225957 -0.04157634 0.032981746 0.04864234 0.08895478
0.06949921 0.07352389 0.1409372 0.065037444 0.0011101022 -0.05658256 -0.010863154 -0.04031991
0.09983166 -0.0713942 -0.06248767 -0.041420877 0.09486327 -0.10066796 0.03094449 -0.031063437
0.118488915 0.025446974 -0.10902443 -0.017217321 0.05177169 -0.111225866 0.040707104 -0.10853616
-0.07834025 0.10763599 0.06463909 0.10966447 -0.073266976 0.08002831 -0.06475148 -0.095252104
-0.029751 0.10495707 0.093604974 0.06563444 -0.0012604935 0.08127911 0.042798858 0.019527825
0.08304298 0.00029022605 -0.053918958 0.07385798 -0.03584634 -0.063689694 -0.1508387 0.081731886
-0.09514095 -0.0974448 -0.043581534 0.019670965 0.0234892 -0.032712284 -0.14237066 0.0766638
-0.076582044 -0.06764384 -0.15005374 0.055452157 -0.11447655 -0.06578275 0.033596788 0.0127376225
-0.09716195 0.09865611 0.09817372 0.06617481 0.074748375 0.007704078 0.04775145 -0.12352565
-0.011666949 -0.014132625 -0.10396827 -0.11134823 0.054678425 -0.09217685 -0.008533513 -0.013452824
0.015474334 0.113132656 0.029806366 0.11706387 0.1078574 -0.064444005 -0.06892924 -0.029376846
-0.090233386 -0.14185512 -0.1150898 0.10398637 0.08540284 0.024929928 -0.04301564 -0.11620876
-0.10012176 0.02901862 -0.13767035 0.0951442 0.07271435 -0.05066481 0.0353519 -0.10277684

lstm.bias_hh_l0 f4 [256]
00000000: 2cdb d5bd e162 0dbd b573 25bd a98f 24be
00000010: cdbb f1bd bba7 aebd 3eaf abbc dfc7 063e
00000020: af60 b73d 7595 013e d1ab 0d3e 6b4f 67bd
00000030: 65ea be3d f7a9 a7bb bc80 9f3d 0f7e f83c
00000040: c3df 1f3d fb52 b8bd 4eb1 f4bd c043 623d
00000050: 5c5f 8b3d fd96 143e a5c6 5f3c 7a09 a1bd
00000060: 2465 dcbd b7d7 59bc de62 1abc ab60 d5bd
00000070: 7ba3 3cbd e86e 4a3c 9b67 05bd 1ecc 93bd
00000080: e610 e0bd 957a 99bd d27a e0bd 0317 3d3d
00000090: de2c c9bc dcd0 883b 8b5a 893c cf76 8b3d
000000a0: d986 2cbe 2153 6b3d df70 a33d f197 89bd
000000b0: 6f46 ce3d 53ae e6bd 806b 97bc 3500 d93c
000000c0: 9741 b13d 65a9 49bc 3841 22be 8ef4 99bd
000000d0: a7ae 163c 692c a23d d888 883d ce6d 63bd
000000e0: dcc5 ed3a 80b8 14be 05e3 dc3c 7932 893d
000000f0: b7d8 7b3d de64 3f3e a13e 65bd 0057 133b
00000100: 125b 933c cff2 8e3d 51f7 b0bd d288 fb3c
00000110: a123 a3bc dd53 9fbd e8b1 9dbc 92cf 56bd
00000120: 03d4 c4bd 3a91 ec3d 50aa a8bc f173 e7bd
00000130: b745 bc3c 9387 6a3c cf9d 14bd 0ff8 793c
00000140: fed4 8cbc 05b2 903d 28c0 0bbd 6672 abbd
00000150: 8a2f abbd 118e afbd 08a2 d23d 53bc 61bd
00000160: 9bcf a23d 3657 0a3e 415c d7bd 9ea4 acbc
00000170: 1b7d b33d 3a25 203e b3e4 b63d 54a5 e5bb
00000180: 43f7 94bd a6d8 61bc f32d f63d 0773 82bd
00000190: 08b8 ed3d 9c4b 82bc 4c2e 69bd 5a3c b0bc
000001a0: 7ebd 9d3d e2a8 e7bd 6981 dabd aece ea3d
000001b0: bc98 b03d 753e b93d 3287 51bc fc29 0e3e
000001c0: 8038 eabb 712a 2f3e c0bb de3d 82d6 803c
000001d0: 85c2 a73c 30f5 4d3d 7c3c 733d deea e43d
000001e0: 429c 33bd 9123 d23c 7cca f1bc 0ed9 08bb
000001f0: 7ff7 3c3d 1e40 d43c bb8d a0bc 9c71 34bd
00000200: 93e2 943d 2851 b53d ef40 04be 5d96 893b
00000210: a3f3 373e c7c3 b3bd 2ab6 a53d c00e a43d
00000220: 520d 13be a122 80bd 9a6f 8f3d 9115 663d
00000230: d2a5 d6bd 891e 34bd 5d04 c2bd 6943 49bd
00000240: a7f1 2f3d 1b72 0e3e d1d9 b33d 0c03 90bd
00000250: 0525 113d dab8 adbd 89aa 053e 6ec8 3e3d
00000260: ee75 013e 22fd 0a3e 6a8c b2bc 04ce 97bd
00000270: fec1 56bd 73b9 bb3c b18d 4bbc b098 b03d
00000280: 0313 d33c 9968 3b3d 3076 00be ca1f 0d3d
00000290: 08bf fd3c 3352 6bbc 0e77 51bd cb15 aa3d
000002a0: f2d0 17bd e91f 853c d341 cd3c cfe8 283e
000002b0: 6b21 1dbd f0c9 f43d 1f00 033d 1ee3 94bd
000002c0: 50fd c1bc 308f 86bc e6c9 b43d 4666 a13b
000002d0: 95e9 a13d d333 18bd d6ff 99bd 7d85 0bbe
000002e0: 9421 b4bd f354 293e 4ee5 d5bd b5aa 283d
000002f0: 7d0d 97bd 88f4 4d3c 6166 a03d 0831 37bc
00000300: 412a 213e ddde e53d 4f96 d6bd 8f39 8abd
00000310: b18e e33d aa65 afbd 4394 ac3c 6ea4 b1bd
00000320: 9f22 08be bfef e43c fa8f 113e 5f2a 29bc
00000330: 9af4 c53c 7872 2d3d 6749 7bbc 7095 9e3d
00000340: 64d0 c93d f250 c83c e801 823c e735 2bbe
00000350: 98a5 ba3d 7f2b 4bbd d5b3 113e 8200 823c
00000360: 60e1 a23d 4cd7 683d 1c86 bd3d b125 9bbd
00000370: 3daa 063e c042 f93d e992 02be 3e89 e73d
00000380: 5964 393d f014 9e3d 0733 0fbd 28e6 63bd
00000390: 7027 26bc 3fcd c03d 74ed 1cbd 1cc9 b53b
000003a0: 0aab 46bd 3111 ac3d c096 8f3d 3adb 793c
000003b0: 7d9c 623d 77f9 b6bb 782b d4bc 62ce e73d
000003c0: ea1e 47bb fbc0 22bd 719e e13d cebf 00bd
000003d0: aeeb 42bd 7996 653d 0fe9 2fbd 47f2 0b3d
000003e0: e281 70bd de90 43bd 6399 c93c 12c9 653c
000003f0: 4029 fc3d 36f5 793c 95eb f73c 0153 d33d
-0.10442194 -0.034518126 -0.04039355 -0.16070427 -0.11803398 -0.08528086 -0.020957585 0.13162182
0.08953988 0.1265467 0.13835074 -0.056472223 0.09322051 -0.005116697 0.07788226 0.030333547
0.039031755 -0.09000202 -0.11947881 0.055240393 0.06805298 0.14510722 0.0136582 -0.07863136
-0.107614785 -0.013296059 -0.009422986 -0.104188286 -0.046054345 0.012355544 -0.03256951 -0.07216667
-0.10940723 -0.07494084 -0.10960926 0.046164524 -0.024557527 0.0041752886 0.016766807 0.0680977
-0.16848315 0.057452325 0.07980513 -0.06718434 0.10072028 -0.112637185 -0.018483877 0.026489357
0.086550884 -0.012308453 -0.15845191 -0.07517348 0.009196914 0.07918627 0.06666726 -0.05552464
0.0018140632 -0.14523506 0.02696372 0.0669908 0.061485972 0.18690822 -0.05596793 0.0022482276
0.017987762 0.06979906 -0.08640922 0.03070489 -0.01991445 -0.077796675 -0.019249871 -0.05244405
-0.096107505 0.11551137 -0.020589024 -0.11301411 0.022982461 0.01431455 -0.03628331 0.015256896
-0.017191406 0.070652045 -0.0341188 -0.08371429 -0.08358677 -0.08572019 0.10284811 -0.05511124
0.07949754 0.13509831 -0.10515643 -0.02107459 0.08764096 0.15639201 0.0893034 -0.007008234
-0.07273724 -0.013784563 0.12020483 -0.06369596 0.11607367 -0.015905194 -0.056928918 -0.021513153
0.077021584 -0.11311509 -0.10669214 0.11465202 0.08622882 0.09045116 -0.012788581 0.13883203
-0.0071478486 0.17106034 0.10875654 0.015727285 0.020478496 0.050282657 0.059383854 0.1117761
-0.04385019 0.025651725 -0.029515497 -0.0020881328 0.04613447 0.02590948 -0.019598832 -0.04405366
0.07269778 0.0885337 -0.12915395 0.004198833 0.17964034 -0.08777576 0.08091386 0.08010626
-0.1436055 -0.06256605 0.07003708 0.05617291 -0.104808465 -0.043974433 -0.094734885 -0.049136553
0.042955067 0.13910715 0.087817796 -0.07031831 0.035435695 -0.08482523 0.13053335 0.046577863
0.12642643 0.13573125 -0.02179547 -0.07412341 -0.0524311 0.022915578 -0.012423919 0.08622873
0.025765901 0.04575405 -0.12545085 0.034454145 0.03097488 -0.01436286 -0.05113893 0.08304938
-0.0370645 0.016250568 0.025055801 0.1649506 -0.038361948 0.11952579 0.031982537 -0.07269882
-0.02368036 -0.016425699 0.088275716 0.004925522 0.0790588 -0.0371588 -0.075195 -0.1362514
-0.08795467 0.16536312 -0.10444127 0.041178424 -0.073756196 0.012570508 0.07832027 -0.011181124
0.15738775 0.112241484 -0.10477888 -0.0674926 0.111112006 -0.08564313 0.02106679 -0.086739406
-0.13294457 0.027946351 0.14215079 -0.010325043 0.024164487 0.042345494 -0.015337325 0.07743347
0.098542005 0.02445266 0.01587005 -0.16719781 0.09113616 -0.049602028 0.14228757 0.015869383
0.07953143 0.056845948 0.09254095 -0.075755484 0.13150878 0.12170935 -0.12751354 0.11305474
0.045261715 0.07718837 -0.034960773 -0.055639416 -0.010141239 0.094141476 -0.03831239 0.0055476557
-0.04850296 0.084017165 0.07011175 0.015250022 0.05532502 -0.0055839377 -0.025899634 0.11318661
-0.0030383416 -0.03973482 0.110165484 -0.03143292 -0.047588043 0.056051705 -0.04294687 0.0341666
-0.058717616 -0.047745578 0.024609273 0.01402499 0.12312555 0.015256217 0.030263701 0.10318566

lstm.weight_ih_l1 f4 [256, 64]
00000000: bb9c 14be 7444 51be 337f 993c 0a4d 0abe
00000010: 41a8 56bd dca3 7f3d f40d 423d f34b 753c
00000020: dad2 213d 97b8 b8bd 975f 673c 01a2 7cbd
00000030: 2023 023e af48 76bd 124c 63bd 71f2 e5bd
00000040: 0e2e ecbc dda3 bd3c d9b7 153d 675d 68bd
00000050: 839a 68bd 25a9 b73d 9828 20bd 3577 2bbe
00000060: 76e0 53bd fdd2 a1bd 919c 86be 4f30 023c
00000070: 07f5 ee3c 47c4 0cbd bded 1fbe 4524 0cbe
00000080: 876c b7bd 26e9 9abd e5a4 fdbc b175 a2bd
00000090: 5687 bebd 28e6 23bd e036 5cbc 3f5c 163e
000000a0: e349 813c dcc9 f2bc fe41 01bd 73c6 843c
000000b0: 52cd 3abd 3fc0 46bd 29ab 37bd 5def 2abe
000000c0: 5720 89bb ea09 563d 149a adbd 5f2c 90bd
000000d0: 8e18 95bd 9af2 89bd d93b 423d 244a 743d
000000e0: 49f3 39bd 9f36 553d 1ffe 2abd 0221 303d
000000f0: df43 a5bd 8060 be3d ea6a 973c ac31 053e
00000100: 2c2b 5ebd 38ac a63d 2b61 be3d c11d dd3c
00000110: 4782 dd3d ccea 603d 5267 163e 2cf2 0abd
00000120: ce92 193d 995c f23d 4f34 913d 8a98 75bc
00000130: 8062 69bd 4175 adbd 9290 433c ed19 363c
00000140: 3691 763d dd0f be3d ab60 babc 64ee 7e3d
00000150: bde0 cabd b8e1 a23d 0546 3c3d a111 90bc
00000160: a976 253c c92f f63c 5b9c 9c3c f1e9 993d
00000170: 4169 143e d7a4 2b3e 9400 a03d d101 a43c
00000180: e5c2 12be 48a7 b2bd 8856 f1bc 2a02 af3c
00000190: 6945 a0bb 410e ff3d f8b6 c3bc 5464 acbd
000001a0: f521 03be 04b3 00be eadd 8f3c 96c5 d23c
000001b0: 2f1b dd3d 19b9 273c 92e7 e3bd ed36 1abe
000001c0: ee2d f1bc 0ed9 323e 404f 16be 0d71 383d
000001d0: 9498 ddbd 7fdb 1d3d e7ff e13d 9801 e2bc
000001e0: 64c6 dc3d 25ed fd3c 4e5b 03be 6211 ecbd
000001f0: 855e 003e 3235 33bd 4722 00bd 41b9 c03d
00000200: cd49 5ebd 8a91 463d 9e54 88bc d08b 0dbd
00000210: 189d 133d f38f 95bd c72a b5bb ad59 00be
00000220: c97f 75bd 4c5c 71bd d02d 75bc 0754 5fbd
00000230: 3448 363d bf51 b93c 4381 62bd 49ab 293d
00000240: 1280 383c df42 a0bc 530d 52bd 70ce b8bd
00000250: b6e5 4ebc 16b8 bfbd 7577 093e 45aa 193c
00000260: 3542 23bc ba87 c1bb 3915 99bc cdc5 c33d
00000270: 438e d4bd 2c40 0d3c d554 6bbd 4811 6d3d
00000280: 176f c03c 3af1 063d 4bb8 85bd ba0f 523d
00000290: b4cb b4bd a0c6 32bd 5745 f0bb 8c42 b53d
000002a0: 75cc 35bd 6985 59bd fdca 42bd b3d5 87bd
000002b0: 6849 27bb 507e bcbd 1c21 debd 12fc ab3d
000002c0: dc91 75bd 1ed2 293d 6038 d0bc 88ee 13bd
000002d0: 3d17 253c d529 11be 7ab0 1dbb 749f 833d
000002e0: 6031 923d 8aa6 be3d e30c d7bd c539 b1bd
000002f0: e65c 453c 644a 413d e573 32bd 0ce6 d7bb
00000300: 975c 23bc ec63 d6bd 67cb 6d3c 4b29 d8bd
00000310: 1b83 383e 1407 4b3d 6912 0e3e 5e10 debd
00000320: 8e6f 45bb d5a3 9cbd ac79 f03c 632d 8f3d
00000330: 538e 523e 8a2c ccbd 368b e63d 9c19 64bd
00000340: 9e16 2abe 68f6 2cbd feb9 bf3d 969a 133c
00000350: cd66 ff3b e933 8bbd 4d0c f13c a7c2 4a3d
00000360: d49b d83d d726 58bd f046 23bc 7be6 24be
00000370: 6c43 023e 9c5c fb3c bfec 2dbe 55c9 b93c
00000380: c18c cb3c e253 1bbe 99ce ffbd 3890 043e
00000390: 1cb4 433c 00e0 323d cbfa e93d 4f3a d53d
000003a0: 6856 603c e550 b33d 1cea 35bd d5ed 5ebd
000003b0: 4f22 18bc 5650 9d3d 9bd3 3fbd 9d61 a4bd
000003c0: 7c15 803d 68a0 d4bd 9845 bb3d 5440 9a3d
000003d0: 1487 a83d 0c73 37bd f7c6 223d d989 b33d
000003e0: c7e4 eb3c c3ec ecbd fc6f dabd 5bc3 973b
000003f0: 56d1 3abc c7f5 523d 13a6 f03d 535e e03d
-0.14512913 -0.20436269 0.018737411 -0.1350595 -0.052406553 0.062412128 0.047376588 0.014971721
0.039507724 -0.09019583 0.0141219115 -0.061677936 0.12708712 -0.06012791 -0.05549247 -0.11227883
-0.028830554 0.023149425 0.036552284 -0.0567297 -0.05678798 0.08967809 -0.039101213 -0.16744693
-0.051727735 -0.07901571 -0.26291326 0.007946088 0.029169573 -0.034366872 -0.15618034 -0.1368571
-0.08956247 -0.07564001 -0.030962417 -0.07932604 -0.09303157 -0.040014416 -0.013440818 0.14683627
0.015782302 -0.02963727 -0.031557076 0.01620791 -0.045605965 -0.048523184 -0.044840965 -0.16692872
-0.0041847634 0.05225555 -0.08476654 -0.07039713 -0.07280074 -0.06735726 0.047420356 0.05964102
-0.04539803 0.052054044 -0.041746255 0.04300023 -0.08069586 0.0929575 0.018483598 0.1300723
-0.05424039 0.08138317 0.09295877 0.026991727 0.10815864 0.05491142 0.14687851 -0.03392236
0.03749352 0.11834068 0.07090055 -0.014989981 -0.056978703 -0.0846963 0.011936324 0.01111458
0.060197078 0.092803694 -0.022751173 0.062239066 -0.09906147 0.07953209 0.045965213 -0.017586531
0.010099092 0.030052083 0.019117525 0.07515324 0.14493276 0.167621 0.0781261 0.020020397
-0.14332159 -0.087233126 -0.029460207 0.021363337 -0.004891087 0.124538906 -0.023890957 -0.084175736
-0.12805922 -0.12568289 0.017561872 0.025728982 0.107962005 0.010237002 -0.11128153 -0.15060015
-0.029440846 0.17465612 -0.14678669 0.04502969 -0.108201176 0.038539406 0.110351376 -0.02758865
0.107800275 0.030996868 -0.12827799 -0.11526753 0.12536056 -0.043751903 -0.03128269 0.094103344
-0.0542696 0.04847864 -0.016641911 -0.034557164 0.03603849 -0.07302847 -0.005528781 -0.12534209
-0.05993632 -0.05892591 -0.014964536 -0.054523494 0.044502452 0.022621987 -0.055299055 0.041423116
0.011261003 -0.019563137 -0.05128224 -0.0902375 -0.01262801 -0.093612835 0.13424475 0.009378974
-0.009964515 -0.0059060724 -0.018686878 0.09559212 -0.10378697 0.008621257 -0.05745395 0.05787781
0.023490472 0.032944895 -0.06529292 0.05128453 -0.08827916 -0.043646455 -0.0073324847 0.088505834
-0.04438444 -0.053105745 -0.047556866 -0.06632557 -0.0025525931 -0.0920378 -0.10846159 0.08397688
-0.059953555 0.04146015 -0.025417507 -0.036116153 0.010076341 -0.14176114 -0.0024061487 0.06426898
0.07138324 0.093091086 -0.10500505 -0.08653597 0.0120460745 0.047190085 -0.043567557 -0.006588703
-0.009970806 -0.10468277 0.014513827 -0.10554751 0.18018763 0.049567297 0.1387421 -0.108429655
-0.0030126306 -0.07648436 0.029354893 0.06991079 0.20562105 -0.09969433 0.11257021 -0.055688486
-0.1661019 -0.04222718 0.09361647 0.009009024 0.007794237 -0.067970105 0.02942481 0.04950204
0.10576597 -0.052771416 -0.009965643 -0.16103546 0.12721032 0.030683808 -0.16984843 0.02267901
0.02484739 -0.15168718 -0.12490577 0.1294564 0.011944797 0.043670654 0.11424788 0.10411512
0.013692476 0.08755664 -0.044412717 -0.054426033 -0.009285524 0.076813385 -0.046832662 -0.08026431
0.06254098 -0.103821576 0.09144133 0.07531801 0.08228889 -0.04478745 0.03974053 0.08766527
0.028795613 -0.11568596 -0.106658906 0.0046314425 -0.011402449 0.051503923 0.11750426 0.10955491

lstm.weight_hh_l1 f4 [256, 64]
00000000: 4be1 00bc 3a65 c2bb 4fd9 ac3d 6294 08bc
00000010: 24c0 973d 2889 26be c2c7 b83c f86e 60bd
00000020: 6687 833d 030c bf3d f078 1a3b d7c8 cb3d
00000030: 065a 8ebd e76c fcbd 0ed6 2ebd 69d1 fdbd
00000040: e8ed d3bd abfe d3bb f1bc 6dbd ad46 5abd
00000050: 1ca3 aa3d 9258 8b3d caf5 dd3d da5f 81bc
00000060: 0674 213e 42b4 21be 271d 89bc f885 b23d
00000070: 7b53 80bd c88f 573d 376e af3d 8fbf 303e
00000080: ca03 7bbc 9e3f c9bd 5a6e 4ebc ee2d c53c
00000090: 5848 963c 4887 b93c af05 b53d 050d 8bbd
000000a0: 389d 233d 5992 b83d 972e f13c e3fe c93c
000000b0: 7dbf 33bc 9b59 dabc c220 d13d b634 e0bd
000000c0: cc39 9cbd cf4c e23d a6bf 323d 27fe a53d
000000d0: cbb2 13be e38b 8e3c ac7c 153d dd55 88bc
000000e0: 8142 2dbe 66b1 76bd e80f 9d3d a0b8 cebc
000000f0: 3b12 22bd 0a50 58bd c08d 973d edc6 473e
00000100: a393 893d e605 9abb 8a2d 5a3c f303 16be
00000110: 4298 c13c 8178 c3bc c9ce b9bd e79c e13c
00000120: 0d9f 93bd e1ec d8bd d21c 083d 400f bcbd
00000130: fa3f 0f3e df3c bebc 8c6a 16be 7533 40bd
00000140: 409c c73d 64cf b7bc 65fc 513d 1af1 0cbe
00000150: 7423 c7bd 4055 ae3d 5f76 34bd 2d54 3dbd
00000160: b6ab 94bd 8153 8fbd fc8e 47bd 6839 97bd
00000170: 6369 7c3d 1ae5 f33c 4c12 6fbd a341 d33c
00000180: 8692 87bc 8bda f53c aa76 cfbd 3875 09be
00000190: d00c 03be 388b 7abd fdfd 0abe ddab 0fbe
000001a0: 33d2 97bd e1ad 0dbe b07e 9dbc 1910 40be
000001b0: 955c fabd d38d 2cbe 3f7e b6bc b9bd f0bc
000001c0: 4d41 24be 9eab b8bc 50de 243e ab7e dbbd
000001d0: 690b 243e 297f 523b 853d f03d 5cee 133e
000001e0: 14a8 933d 76b2 51bd 13e3 7dbd e9b3 5b3d
000001f0: c935 40bd 98e0 be3d ce05 c0bd 2e89 96bd
00000200: 4c36 b13d b864 ee3c 8593 643c 7bd6 08bd
00000210: 4878 ac3d 8e64 14be 0d01 25bd aa98 693d
00000220: fc78 8bbb 24d4 17be a95e 963c 0c10 91bd
00000230: e466 96bc 02a5 f23d 4e3f ea3c 8de9 f53d
00000240: a4c3 483d ea7a 623d 7b87 e9bb 38a5 e33c
00000250: ffd6 f83b 0e88 bdbd 31d9 6ebc de63 c039
00000260: 8c60 81bd 57ce 833d f679 973d 859a 27bd
00000270: d31a 30bd a60e e0bc 5007 d33d dd05 63bd
00000280: e4dd 863d d881 e7bd 30cf 92bd 5cfe 853d
00000290: c538 6d3d 7763 ebbd 8bf2 503d ce97 36be
000002a0: c434 df3d baac 16be 767e fd3d 1790 c0bc
000002b0: c4ca c93d 075d 10be c106 433c 3ef8 2c3d
000002c0: ef56 7cbd 09aa b1bd 1b33 0a3e c495 9abd
000002d0: fd84 173e ff81 03bc 82c4 fdbb e9ba 26bd
000002e0: aaa7 4ebd 5604 033e 3d05 22bb 1c0b 36bd
000002f0: 9b67 6abd 7151 e7bd 6924 01bd 165a aa3c
00000300: 2f00 1abd 88a8 0cbe d040 ba3c f2df 94bd
00000310: 0ded 5fbd e6af 153d fc1c 2abd 431b 9fbd
00000320: 9450 1b3e 668d 63bc 11d3 f53d b469 d63c
00000330: 0248 87bd d1ee 06be a41c 363e 4556 c8bd
00000340: 40d1 f43d d4d2 68bd 6485 5ebd 44dc 873c
00000350: ad06 033e e21f 633d efa2 143e 8717 ddbd
00000360: d318 3c3d 5e0d b83d 700c 153e bf4d e7bd
00000370: f857 87bd 4f75 d83c 0f0d 13bd 1035 d53d
00000380: f3fa 4a3c 3796 473d b5a1 9cbd c664 ce3d
00000390: 183b 013e af0a 083e 9527 2f3e e79d 86bd
000003a0: a542 49ba cf70 87bd a644 50bd a6f5 213c
000003b0: efac 8a3d 1810 183c fd5f 463e b8b5 19be
000003c0: 2162 96bd 55fa fabb 6825 7a3d 65e2 cb3c
000003d0: 64a9 26be 85d4 6c3d a8d7 1fbd 9e27 c6bb
000003e0: 584d 46be ca93 023d d0e9 de3c c2b4 72bd
000003f0: 5b73 3ebe dfe5 3dbd 72fd 94bb 6ef8 7d3a
-0.007866214 -0.0059324773 0.08439886 -0.0083361585 0.07409695 -0.16263258 0.02255619 -0.054793328
0.064223096 0.09328463 0.002357062 0.099504165 -0.06950764 -0.12325459 -0.042684607 -0.123934574
-0.103481114 -0.006469568 -0.058041517 -0.053290058 0.08331892 0.06804003 0.10837896 -0.015792776
0.15766916 -0.15791419 -0.016737534 0.08716959 -0.06265923 0.052627355 0.08565944 0.17260574
-0.015320728 -0.09826587 -0.012599552 0.024069753 0.018345043 0.022647515 0.08838975 -0.06789593
0.039944857 0.090122886 0.029441161 0.024657672 -0.010970947 -0.026654055 0.10211326 -0.10947554
-0.076282114 0.11049806 0.0436398 0.08105116 -0.14423673 0.017400688 0.03649585 -0.016642505
-0.169199 -0.060227774 0.076690495 -0.02523452 -0.039568167 -0.052810706 0.074000835 0.19509478
0.067176126 -0.00470041 0.013316521 -0.14649944 0.023632172 -0.023861172 -0.09072644 0.027540637
-0.07208071 -0.10592056 0.03323061 -0.09182596 0.13989249 -0.023222385 -0.14689082 -0.046924073
0.09746599 -0.022437759 0.051266093 -0.13763848 -0.09723559 0.08512354 -0.0440582 -0.046222854
-0.07259314 -0.06998349 -0.048720345 -0.07383996 0.061623942 0.02977233 -0.05836706 0.025788134
-0.01654936 0.030011436 -0.10130055 -0.13423622 -0.12797856 -0.061167926 -0.13573451 -0.14030404
-0.07413139 -0.13835861 -0.019225448 -0.18756141 -0.1222469 -0.16850977 -0.022276996 -0.029387342
-0.16040535 -0.022542771 0.1610043 -0.107175194 0.16019978 0.003211925 0.11730484 0.14446396
0.07209793 -0.051195584 -0.061984133 0.053638373 -0.046926294 0.093201816 -0.09376107 -0.07350384
0.086529344 0.02910076 0.013951187 -0.03340767 0.08421379 -0.14491484 -0.040284205 0.057030357
-0.004256366 -0.14827019 0.018355684 -0.07083139 -0.018359609 0.11847879 0.02859464 0.12007437
0.049014702 0.055293 -0.0071267462 0.027788743 0.007593989 -0.09254466 -0.01457815 0.000366955
-0.06317243 0.064358406 0.07396309 -0.040918846 -0.04299433 -0.027350735 0.10304129 -0.055425514
0.06585291 -0.113040626 -0.07168424 0.06542656 0.057915468 -0.11493581 0.051012557 -0.17831346
0.10898736 -0.14714327 0.12377636 -0.023506207 0.098531276 -0.14097987 0.011903466 0.04222893
-0.061606344 -0.0867501 0.13496058 -0.07548097 0.14796825 -0.008026599 -0.007744373 -0.040705595
-0.050452866 0.12794623 -0.002472236 -0.04444419 -0.057227712 -0.112948306 -0.031528864 0.02079491
-0.03759783 -0.13736165 0.022735983 -0.07269277 -0.05466943 0.036544703 -0.041531548 -0.07768872
0.15167457 -0.0138886925 0.12003148 0.02617345 -0.06605531 -0.13177039 0.17784363 -0.097820796
0.11953974 -0.056841686 -0.05432643 0.016584523 0.12795515 0.055450328 0.14515279 -0.10795503
0.04592211 0.089869246 0.14555526 -0.11294126 -0.066085756 0.026423125 -0.035901126 0.104105115
0.0123889325 0.04872724 -0.07648031 0.10077815 0.12620199 0.13285325 0.17104943 -0.06573086
-0.00076774723 -0.066133134 -0.05084672 0.009885227 0.06771266 0.009281181 0.19372554 -0.15010726
-0.07342935 -0.0076592364 0.06107083 0.024888227 -0.16275555 0.057819862 -0.039024025 -0.006047203
-0.19365442 0.031879224 0.0272111 -0.059254415 -0.18598692 -0.0463618 -0.0045468146 0.0009688203

lstm.bias_ih_l1 f4 [256]
00000000: 1f1b 123d a946 b8bd 2f77 b2bd 643d 17bd
00000010: 4655 e83b 27f8 62bd f565 89bd 2017 aa3c
00000020: b499 71bc 77a2 31be 7ce2 f9bd 898e a1bd
00000030: 1747 1a3d 952d eebd 0dd4 d5bd aba3 4dbd
00000040: e81c 533d 8a71 6c3d b701 573d c64c 77bd
00000050: 4855 883d b3a2 ebbd 12a9 5fbd 30f1 18bd
00000060: f010 a43d a915 ff3c c35d 0d3d 0515 d7bb
00000070: a726 603d 0df8 9cbc f9b3 033e 2fab df3d
00000080: 950e 02be 32e7 1dbe 5a66 cbbd 899d acbd
00000090: f208 f1bd f95e b2bd ffc2 02be a2ac c83d
000000a0: 8807 1fbd 47d6 28bd 8325 f03d 2b06 b53d
000000b0: 1181 fabd 333d c4bd abbd b3bd 0f1c 42bc
000000c0: da09 133e bd52 babd c9bf 903c f3b0 58bc
000000d0: 09a0 1abd a5fc 723d 14d1 3dbd 6cf7 dcbb
000000e0: 73dd 9dbd 1121 84bd b16c 31bd 3d6b 7b3d
000000f0: d684 d33d f05e d1bc d1f3 0b3d 08fe 953d
00000100: 3e27 a0bd 06b6 8cbd 79d7 e2bd b990 d1bd
00000110: bdc5 15bc 1ab6 e2bd 06be f8bd 39ed 8b3d
00000120: a1f9 e33d 5f74 793d b4f9 83bb 80c7 093c
00000130: fbb6 c5bc cbd6 b8bc 9ebe 8fbd 5175 e03d
00000140: a3aa 623c 74f4 72bc 3ab8 dd3d 57ec ab3d
00000150: 5272 a6bd 2ddb 23bc 0480 aebd 7e15 8b3c
00000160: 5941 09bd eb65 9cbd a51a c9bc 0059 83bd
00000170: 01d6 123d 838c 96bd 3cdc c53d 3276 d3bd
00000180: 31ff 863d 7b78 1bbe bb0c 813c f03a 09be
00000190: 0a44 20be 4f88 183e 3584 3cbd e3b9 a33d
000001a0: 3387 bcbd b781 5c3c e4b8 89bd 65aa 80bc
000001b0: 7acd 533d 325c 1bbe 2054 be3d 4e56 8abd
000001c0: 996e 2b3e 74dc b13d d3f1 763d e9b4 d63d
000001d0: f41b d5bc 7b71 353d 3f19 1d3c 8332 19be
000001e0: ee07 debd 12e2 003d 4f6a c1bc 9478 b3bc
000001f0: 2119 a33b f189 993d b4e3 8ebd 800a 9e3d
00000200: 3056 37bd 9446 cdbd b44a 93bd c32a 05bd
00000210: b11a acbb 9b9d 973d fc23 fa3d b453 133c
00000220: 5d61 b63d 7460 81bd 2f86 9e3d 3040 a03d
00000230: f03e b1bd 3b01 d6bd 8a9a 4ebd f83c c13d
00000240: e812 23bd 122c afbd 3754 d43d 9f1b 883d
00000250: fe0d d7bc 9207 53bd 43ea 82bd ef3e 843d
00000260: 8a54 873d 456f d63c bf5f 813d cbd5 8c3a
00000270: 9b65 debd cecd 08bd e2a4 15be e2bb ebbd
00000280: 2e2c af3d 86c7 cf3c 6f5e e13d df37 f13c
00000290: 91a1 f33d ac82 d0bd 94aa 07bb 7ab4 3a3d
000002a0: 8d3e 83bd a803 9b3d 6343 07be c06e 023d
000002b0: 09b4 40bd c39c 623d dea2 623d 8126 a33d
000002c0: 6593 153d dda4 c23d 24ea b5bd 2555 033d
000002d0: e7d8 c1bd 23c3 f9bd a0c0 9bbc 349f 93bd
000002e0: fcf4 82bd 6b3f c0bd f18c a03d d968 25bd
000002f0: 6238 bd3d 299e cfbd cc9b 6fbd 23f5 f83c
00000300: a835 7bbc f445 1bbe cc0f 3abd 49cb 03be
00000310: 9658 1dbd 6a4b 093c fb64 9c3d 4970 553d
00000320: 14f5 73bd 494c 943d d3ef 483c a62f 98bc
00000330: 5958 9e3c 3cbc 103c bfc4 023d bb6b c73c
00000340: 9d98 263d d447 ca3d 3832 76bc b1ef 83bd
00000350: c2ca 5e3d a96c 8bbd 8134 ccbc 14c2 f9bc
00000360: cd4f 13bd cc59 27bd 4689 9f3d e499 2abd
00000370: 2edb 14be d976 f5bc 1923 90bd 0cd2 c0bd
00000380: 21f5 943d 6753 eabb ddfd c13d 92ed 00bd
00000390: 9bbf 99bd 5432 a13d fd21 963d eff2 0e3d
000003a0: 884e 3b3d 36e0 f5bd 0c32 39bd 11cf bd3c
000003b0: e4f1 4dbd e678 edbd 599c e03d 2f93 38bd
000003c0: 0de9 2e3e c0ce e33b b9fe 8ebd fc5a 97bd
000003d0: 9118 a13d e270 38bd 747f 0abe 04c7 043d
000003e0: 0a42 753d b8e4 34bd ce2f 113e e8c0 9a3d
000003f0: 1299 993c f0e3 35bc 4e83 27be 14f7 c7bc
0.035670396 -0.08997852 -0.08714139 -0.03692378 0.0070902435 -0.055412438 -0.067089 0.02076298
-0.014746118 -0.17347132 -0.122014016 -0.078885145 0.037665453 -0.11629788 -0.10440836 -0.050204914
0.05154124 0.057725467 0.05249187 -0.06037595 0.06656891 -0.11505642 -0.054604597 -0.03733939
0.08011043 0.031138258 0.034513246 -0.006563785 0.05472436 -0.019161249 0.12861623 0.109213226
-0.12700875 -0.15420225 -0.099316314 -0.08428485 -0.11769284 -0.08709521 -0.12769698 0.09798552
-0.03882554 -0.041219976 0.11725905 0.08839067 -0.12231649 -0.09581985 -0.08776411 -0.01184751
0.14359227 -0.09097812 0.017669575 -0.013225782 -0.037750278 0.05932297 -0.04634197 -0.006743362
-0.07708254 -0.064516194 -0.043316547 0.061381567 0.10328071 -0.025557965 0.03416807 0.07323843
-0.07819985 -0.06870656 -0.110762544 -0.10232682 -0.009141383 -0.11069889 -0.12145619 0.06832356
0.11131597 0.060901996 -0.0040275697 0.008409381 -0.024135103 -0.022563359 -0.07018779 0.10959876
0.013834628 -0.01482879 0.10826154 0.083946876 -0.081272736 -0.010000986 -0.08520511 0.016978022
-0.033509586 -0.07636627 -0.024548838 -0.0641346 0.03584862 -0.07351019 0.09661147 -0.10325278
0.06591643 -0.15182678 0.01575314 -0.13401389 -0.15650955 0.14895748 -0.04602452 0.079944395
-0.09205475 0.013458661 -0.06724718 -0.01570625 0.05170963 -0.15171888 0.09293389 -0.067547426
0.16741408 0.08684626 0.060289215 0.104837246 -0.026014306 0.044297677 0.009588539 -0.14960675
-0.10841356 0.031465597 -0.023610262 -0.021908082 0.004977361 0.07497013 -0.06977025 0.077168465
-0.04475993 -0.10023227 -0.07191983 -0.032511484 -0.0052522053 0.07403108 0.12213895 0.008992124
0.08905289 -0.06317225 0.07740437 0.07824743 -0.086545825 -0.104494534 -0.05044035 0.09435457
-0.039812952 -0.085533276 0.10367625 0.06645893 -0.02625179 -0.05152089 -0.06392338 0.06457316
0.066079214 0.026176104 0.0631709 0.0010744868 -0.108592235 -0.033399396 -0.14613679 -0.11510445
0.085533485 0.025363695 0.1100434 0.029445587 0.11896051 -0.10181174 -0.0020701038 0.045582272
-0.06408415 0.07569057 -0.132093 0.0318439 -0.047046695 0.05532528 0.055331104 0.079663284
0.03651752 0.095041014 -0.088825494 0.032063622 -0.09465199 -0.121954225 -0.01901275 -0.072081
-0.06394383 -0.09387096 0.078393824 -0.040383194 0.0923927 -0.101375885 -0.05849819 0.030390328
-0.015332617 -0.15163404 -0.04542522 -0.12870516 -0.03841456 0.0083797965 0.07636448 0.052109037
-0.059559897 0.07241113 0.01226421 -0.018577408 0.019329237 0.008833941 0.031925913 0.024343362
0.040672887 0.098769814 -0.0150266215 -0.06442202 0.054392584 -0.06807835 -0.02492738 -0.030488051
-0.035964776 -0.04085712 0.07789855 -0.041650668 -0.14536735 -0.029963898 -0.07037944 -0.09415063
0.07273317 -0.0071510556 0.09472249 -0.031476565 -0.07507249 0.078709275 0.073307015 0.03489965
0.04572919 -0.120056555 -0.045213744 0.023170026 -0.050279513 -0.11595325 0.10967321 -0.04506224
0.1708109 0.0069521368 -0.06982178 -0.07390401 0.07866014 -0.04502953 -0.13525182 0.03241636
0.059877433 -0.044163436 0.14178392 0.07556325 0.018749747 -0.011101708 -0.16358683 -0.024409808
