src/util/AI/checkpoints/004.ckpt (torch, 353508 bytes, 14 tensors)

lstm.weight_ih_l0 f4 [256, 12]
-0.02129423 0.040561136 -0.12756029 0.06012832 0.07507106 0.07012811 0.06604669 0.0027354406
-0.09763956 0.06440758 -0.0671494 -0.04588724 -0.14290877 0.028296104 -0.11568876 -0.11105684
-0.07872896 0.02623858 0.08537301 0.069651015 0.033928003 0.038394045 -0.14682631 -0.019880544
0.08444538 0.11156606 0.047113255 0.08722381 0.07395872 0.13551588 0.08577379 -0.11188846
-0.029016139 -0.06595363 0.059111588 -0.14224787 0.06355338 0.0538018 0.040699176 -0.20312935
-0.18624236 -0.02003081 0.12982008 -0.026140245 -0.18892759 -0.080450565 0.1594626 -0.00012258087
0.04263679 -0.098102905 -0.026916355 -0.068745166 0.11204105 -0.029745292 0.016144836 0.112078205
0.10974943 0.03815538 -0.080621414 -0.016350415 0.022159614 0.035932917 0.0011275717 0.12827021
0.09550343 -0.04686282 0.21038511 0.25655198 0.044837162 0.021953106 -0.03452118 -0.016580956
0.14577076 -0.0016526711 -0.13143139 -0.14128618 0.0928518 -0.04821072 -0.054511122 0.06314875
-0.024034163 0.005910128 -0.01893493 0.012278932 -0.06678265 0.10967604 -0.021955468 0.06873601
0.068990014 0.05245808 0.049119756 0.11810289 -0.0072431928 0.015134993 -0.016119279 -0.030136798
-0.06542606 -0.050115988 -0.13028088 0.07058755 0.04323168 0.010569749 0.1591566 0.20160614
0.012707564 -0.028679607 -0.06318444 0.023527741 0.11996918 -0.03955009 0.10622074 0.063154146
-0.016706115 -0.015504925 0.027519178 -0.06984468 -0.17564262 0.024444237 -0.014410946 0.028695077
0.02289937 -0.05020967 -0.1471573 -0.03218099 0.16976863 0.012202349 0.12619597 0.07382451
0.120379224 0.06450786 0.119833864 -0.049148805 0.037388343 -0.011016659 0.06584466 -0.09892826
0.11041509 -0.0070241564 -0.11181957 -0.19071557 -0.25964078 0.028976545 0.13309899 0.07197097
0.061264943 -0.00734453 -0.111201935 -0.038797013 0.06522684 0.1151062 -0.053649757 -0.20300062
-0.08161406 -0.003126759 -0.11108303 -0.03445681 0.0034289164 0.0617951 0.020989008 -0.09596272
-0.12404813 -0.07013826 0.13182485 -0.11094102 -0.14564498 -0.048031285 -0.037650455 -0.0076773
-0.06417337 0.02820658 -0.124860965 0.086655766 -0.048704088 -0.108687334 0.094719425 0.048471905
-0.08309426 0.0011580533 -0.0034785885 0.0544984 -0.058150943 -0.027887762 0.126136 0.026258865
0.1388957 0.010357938 -0.16675054 -0.018779531 -0.05492918 -0.11764476 -0.076569274 0.016272841
-0.047253996 0.045843482 0.045293927 0.098971196 0.04637564 0.11414132 0.019156964 -0.124290034
-0.05664442 -0.027296007 -0.093601234 -0.05908196 -0.074129015 -0.027922465 -0.07928732 -0.19927329
-0.03356502 0.16917878 0.07382084 -0.12396386 -0.017044628 -0.0072146584 0.09322858 -0.1260577
-0.12706539 0.013159589 -0.05863074 0.08518973 0.046898868 -0.085674286 -0.20429127 0.083298974
0.032373272 0.10468099 -0.18244909 -0.1133094 -0.2212593 -0.016686413 -0.12162967 -0.028420908
0.057093773 0.034456175 -0.06333062 -0.02838472 0.020954061 0.046441305 -0.053822715 0.012062152
-0.09080235 0.16256987 -0.008130562 -0.028675808 0.05738466 0.018919714 -0.045375258 0.09593544
-0.11599894 -0.14082627 0.025196476 0.029437754 -0.011121944 0.06590298 -0.110735 0.037264068
00000000: 3d71 aebc 6f23 263d 2a9f 02be 1d49 763d
00000010: dbbe 993d 549f 8f3d 7d43 873d 1445 333b
00000020: 40f7 c7bd 1fe8 833d a085 89bd 42f4 3bbd
00000030: ad56 12be 3bcd e73c 3bee ecbd c571 e3bd
00000040: a63c a1bd 4af2 d63c 0bd8 ae3d 31a5 8e3d
00000050: 17f8 0a3d 1343 1d3d a359 16be 86dc a2bc
00000060: b3f1 ac3d bf7c e43d d4f9 403d 66a2 b23d
00000070: ab77 973d adc4 0a3e 2baa af3d c725 e5bd
00000080: 41b3 edbc b212 87bd fe1e 723d 6da9 11be
00000090: 4628 823d 475f 5c3d 2eb4 263d 2401 50be
000000a0: 51b6 3ebe a717 a4bc 8eef 043e 1124 d6bc
000000b0: 3c76 41be 44c3 a4bd 2a4a 233e 0d89 00b9
000000c0: eaa3 2e3d 2dea c8bd b07f dcbc 44ca 8cbd
000000d0: c775 e53d 66ac f3bc 2d42 843c 4289 e53d
000000e0: 4fc4 e03d d148 1c3d d71c a5bd 4ef1 85bc
000000f0: 1488 b53c 652e 133d 07cb 933a 4459 033e
00000100: 4d97 c33d 3af3 3fbd 326f 573e c85a 833e
00000110: 2ca7 373d 00d7 b33c 1566 0dbd c9d4 87bc
00000120: ee44 153e 719e d8ba f395 06be 53ad 10be
00000130: 1629 be3d 9b78 45bd 0e47 5fbd 2254 813d
00000140: 4be3 c4bc bfa9 c13b 6d1d 9bbc 932d 493c
00000150: 58c5 88bd d59d e03d f4db b3bc 77c5 8c3d
00000160: a34a 8d3d 49de 563d cc31 493d eedf f13d
00000170: 4e58 edbb c3f8 773c 940c 84bc 72e1 f6bc
00000180: 19fe 85bd 6c46 4dbd 5a68 05be 3590 903d
00000190: b413 313d be2c 2d3c f3f9 223e d771 4e3e
000001a0: 6333 503c 7ff1 eabc d866 81bd 40bd c03c
000001b0: 67b2 f53d 46ff 21bd 428a d93d f656 813d
000001c0: 43db 88bc 5e08 7ebc e66f e13c ba0a 8fbd
000001d0: a9db 33be 483f c83c e31b 6cbc f011 eb3c
000001e0: 7697 bb3c a8a8 4dbd 67b0 16be 37d0 03bd
000001f0: d4d7 2d3e 5cec 473c 8439 013e 4e31 973d
00000200: 6289 f63d b21c 843d 756b f53d 4250 49bd
00000210: 8524 193d 387f 34bc 91d9 863d e69a cabd
00000220: 4f21 e23d e52a e6bb a901 e5bd f14a 43be
00000230: a3ef 84be 3860 ed3c 1a4b 083e 8465 933d
00000240: f3f0 7a3d 62aa f0bb d7bd e3bd 9ee9 1ebd
00000250: a695 853d cdbc eb3d d9bf 5bbd 65df 4fbe
00000260: 4625 a7bd 50ea 4cbb 807f e3bd 9622 0dbd
00000270: acb7 603b dc1c 7d3d 24f1 ab3c 1a88 c4bd
00000280: f20c febd a6a4 8fbd 18fd 063e 0c35 e3bd
00000290: f523 15be 74bc 44bd 5d37 1abd dc91 fbbb
000002a0: 546d 83bd 7c11 e73c 1bb7 ffbd 9478 b13d
000002b0: f07d 47bd 7797 debd 42fc c13d 7a8a 463d
000002c0: 532d aabd d2c9 973a 08f9 63bb b739 5f3d
000002d0: af2f 6ebd e074 e4bc cc29 013e d51c d73c
000002e0: ad3a 0e3e 57b4 293c a7c0 2abe 88d7 99bc
000002f0: 6bfd 60bd bcef f0bd 5ad0 9cbd 9f4e 853c
00000300: 688d 41bd 60c6 3b3d 2086 393d 69b1 ca3d
00000310: 62f4 3d3d edc2 e93d 11ef 9c3c c68b febd
00000320: fb03 68bd e09b dfbc 01b2 bfbd edff 71bd
00000330: f4d0 97bd a7bd e4bc 6461 a2bd 4c0e 4cbe
00000340: 797b 09bd 343d 2d3e 612f 973d c4e0 fdbd
00000350: 2da1 8bbc f168 ecbb a0ee be3d 4515 01be
00000360: 6e1d 02be 519b 573c c926 70bd f477 ae3d
00000370: 0719 403d 0076 afbd bb31 51be a798 aa3d
00000380: d699 043d fd62 d63d efd3 3abe c20e e8bd
00000390: cc91 62be f2b1 88bc fa18 f9bd f7d2 e8bc
000003a0: 29db 693d eb21 0d3d 7cb3 81bd 1387 e8bc
000003b0: daa7 ab3c 3d39 3e3d 3575 5cbd 55a0 453c
000003c0: 95f6 b9bd b778 263e 0c36 05bc 87e9 eabc
000003d0: 2d0c 6b3d 84fd 9a3c 68db 39bd cd79 c43d
000003e0: da90 edbd c334 10be d768 ce3c 7227 f13c
000003f0: d038 36bc 24f8 863d 08c9 e2bd 35a2 183d

lstm.weight_hh_l0 f4 [256, 64]
0.04032303 -0.050282724 0.1531317 0.012290719 0.058843035 0.1949148 -0.09645244 0.020652806
0.08673084 0.16007106 0.07901233 0.069742665 0.11576618 -0.10368252 0.123802 -0.014471781
-0.06169103 0.09228217 0.01799111 0.04225192 0.02416961 -0.05326735 0.064626396 -0.013035063
0.1647794 -0.007457775 -0.11693844 0.076774806 0.030847456 0.07943623 -0.13164239 -0.06945089
-0.022552842 0.009738331 0.008264512 -0.12847129 0.04027277 0.03224504 -0.08888128 0.0434733
-0.076665156 -0.014627337 0.024178447 -0.11645369 -0.053528246 -0.1290874 -0.09592053 -0.08064675
0.08373107 0.07284723 0.071505405 0.115850285 -0.13075249 -0.025007622 0.21181716 -0.10741261
0.05727447 0.12035613 -0.070488065 -0.053342987 -0.056522515 0.07728394 0.0577 0.07401
0.05295277 -0.048997324 0.26049694 0.07635035 0.022647934 -0.085596375 -0.014353961 -0.04354013
-0.09241326 -0.12423934 0.10514883 0.031953312 0.051809583 -0.08809419 -0.16021743 0.06951608
0.10183167 -0.18602234 0.1310304 0.034236316 0.08766485 -0.11692165 -0.18607205 -0.010359927
0.037132673 -0.17284049 0.0649405 0.11831964 -0.025681328 -0.17850044 -0.08816523 0.13150881
-0.10079342 -0.06847429 0.03134031 0.047245145 0.038818426 -0.01798998 -0.13241173 0.0993494
0.027370198 -0.200386 -0.042043928 -0.09818201 -0.12016378 -0.1554993 -0.082237646 -0.059365686
-0.027450131 0.002294504 0.05534765 0.007155776 -0.17972761 0.044506703 -0.0693226 0.18373632
-0.09217669 0.12061149 -0.11390662 0.057169948 0.0009191427 -0.0036268122 0.052429423 -0.058513846
0.055951536 -0.24718559 -0.05724087 0.050576463 -0.008524377 0.118064 -0.019761665 0.12488823
-0.008563334 -0.016438153 -0.034368455 0.031603154 0.17393903 -0.043955382 -0.08733726 0.08722485
-0.12197139 0.011511725 0.14665495 -0.028739912 -0.037365906 0.09064676 -0.055921633 0.02262561
-0.041500576 -0.14852482 -0.07904222 -0.116720535 -0.10829298 0.10667485 -0.19028617 -0.13192749
-0.08757225 -0.04959168 0.0648565 0.0072323214 0.097764894 0.1236683 -0.02519076 0.07850078
0.13811155 0.059153557 0.052832924 -0.013834383 0.006879194 0.0970875 -0.118662044 0.10639441
-0.08319232 0.04740865 -0.001501641 -0.088556424 0.07997413 -0.14827281 -0.07029008 -0.12151317
-0.09483431 -0.032507833 0.08883583 0.023164386 -0.089972 -0.0041949907 -0.14294519 0.13935255
0.18189485 -0.2440172 0.1151079 -0.18998711 -0.0016062049 -0.19182311 -0.075015046 -0.0717514
0.10110545 -0.15468906 -0.012660245 -0.07039268 0.01714453 -0.020012043 -0.012857688 0.14698495
0.03793338 -0.06735934 -0.1997426 0.15585364 -0.06297561 -0.07735128 -0.13228953 0.0966355
0.030658472 -0.09511985 -0.11953495 0.18761899 0.111439705 -0.023482833 0.123231806 0.0054587433
0.19441503 0.033355076 -0.014579513 0.04772028 -0.09766813 -0.027232548 -0.026713597 0.045656435
0.08555164 0.14668223 0.0304964 -0.22901355 0.023748724 0.13981646 0.028986888 0.2643071
0.048953142 -0.19435555 -0.12102186 0.072369985 0.014717205 0.0841247 -0.008873469 0.060197342
0.07146642 0.06753614 -0.17315702 -0.18805487 0.066538684 -0.2187723 0.17369148 0.027878977
00000000: c329 253d 42f5 4dbd 8ece 1c3e 035f 493c
00000010: 6505 713d bf97 473e db88 c5bd 1330 a93c
00000020: f09f b13d abe9 233e 37d1 a13d 3ed5 8e3d
00000030: d216 ed3d 8057 d4bd e78b fd3d 0d1b 6dbc
00000040: bcaf 7cbd 6ffe bc3d 1862 933c 5910 2d3d
00000050: 59ff c53c dd2e 5abd d85a 843d 0491 55bc
00000060: eebb 283e 5a60 f4bb 6c7d efbd 1c3c 9d3d
00000070: ceb3 fc3c 76af a23d 43cd 06be 453c 8ebd
00000080: bdc0 b8bc 858d 1f3c e067 073c fa8d 03be
00000090: 0ff5 243d 6013 043d 6307 b6bd 0f11 323d
000000a0: 9f02 9dbd 80a7 6fbc e111 c63c 467f eebd
000000b0: 6f40 5bbd 7d2f 04be fc71 c4bd 202a a5bd
000000c0: 327b ab3d ee30 953d 6d71 923d ea42 ed3d
000000d0: fbe3 05be c9dc ccbc 99e6 583e 24fb dbbd
000000e0: a298 6a3d 467d f63d 0c5c 90bd 2d7e 5abd
000000f0: 2784 67bd 0b47 9e3d d656 6c3d 8e92 973d
00000100: 01e5 583d 6bb1 48bd db5f 853e 935d 9c3d
00000110: 2988 b93c 274d afbd e02c 6bbc 2357 32bd
00000120: 2a43 bdbd 3271 febd 4558 d73d 7ae1 023d
00000130: 4936 543d ba6a b4bd 0a10 24be 725e 8e3d
00000140: 1f8d d03d a47c 3ebe d52c 063e 613b 0c3d
00000150: a189 b33d 9e74 efbd ac89 3ebe afbc 29bc
00000160: 6e18 183d 19fd 30be 86ff 843d 9151 f23d
00000170: a661 d2bc d2c8 36be f98f b4bd 3faa 063e
00000180: c86c cebd 403c 8cbd b25e 003d 2084 413d
00000190: 1200 1f3d b95f 93bc f196 07be b377 cb3d
000001a0: 7737 e03c fd31 4dbe 4136 2cbd a613 c9bd
000001b0: 6e18 f6bd 353b 1fbe 366c a8bd 6f29 73bd
000001c0: 19df e0bc 645f 163b 38b4 623d 007b ea3b
000001d0: 840a 38be a94c 363d 02f9 8dbd 6025 3c3e
000001e0: 22c7 bcbd 2803 f73d e047 e9bd 092b 6a3d
000001f0: 9ff2 703a d0af 6dbb 3cc0 563d 37ac 6fbd
00000200: 702d 653d 381e 7dbe 6775 6abd 4429 4f3d
00000210: d4a9 0bbc 8acb f13d 37e3 a1bc 66c5 ff3d
00000220: 3a4d 0cbc 4ea9 86bc f0c5 0cbd 4f72 013d
00000230: 131d 323e 8f0a 34bd e1dd b2bd f1a2 b23d
00000240: 23cc f9bd ad9b 3c3c b72c 163e f76f ebbc
00000250: fe0c 19bd 02a5 b93d 150e 65bd 5859 b93c
00000260: 82fc 29bd e416 18be e3e0 a1bd 2d0b efbd
00000270: b6c8 ddbd 5878 da3d 61da 42be 0018 07be
00000280: 1459 b3bd a520 4bbd 7cd3 843d 1cfd ec3b
00000290: f638 c83d ce45 fd3d da5c cebc 04c5 a03d
000002a0: 1d6d 0d3e 004b 723d 5667 583d 9ca9 62bc
000002b0: dd6a e13b d0d5 c63d 1605 f3bd 50e5 d93d
000002c0: bc60 aabd 932f 423d b6d2 c4ba 125d b5bd
000002d0: 7ac9 a33d d4d4 17be 3ff4 8fbd e6db f8bd
000002e0: 7e38 c2bd ef26 05bd 8fef b53d 3dc3 bd3c
000002f0: 3d43 b8bd 2276 89bb 3960 12be 6fb2 0e3e
00000300: a542 3a3e a5df 79be b1bd eb3d fb8b 42be
00000310: 4b87 d2ba 476d 44be 7da1 99bd 66f2 92bd
00000320: 6010 cf3d cf66 1ebe eb6c 4fbc 0a2a 90bd
00000330: af72 8c3c 4cf0 a3bc 0da9 52bc 3983 163e
00000340: 0860 1b3d b2f3 89bd 5389 4cbe 1998 1f3e
00000350: 5bf9 80bd 596a 9ebd e876 07be d5e8 c53d
00000360: 7a27 fb3c 32ce c2bd bdce f4bd 311f 403e
00000370: 803a e43d 125f c0bc f560 fc3d 42df b23b
00000380: bc14 473e 559f 083d e9de 6ebc 5776 433d
00000390: 3b06 c8bd cb16 dfbc 79d6 dabc 3e02 3b3d
000003a0: b335 af3d de33 163e 96d3 f93c 8782 6abe
000003b0: af8c c23c 0c2c 0f3e e975 ed3c 4353 873e
000003c0: 1783 483d 2405 47be 4fda f7bd b736 943d
000003d0: 6f20 713c 9249 ac3d 0762 11bc 7d91 763d
000003e0: fd5c 923d 6350 8a3d 1350 31be 7591 40be
000003f0: 6f45 883d d905 60be 2edc 313e 7462 e43c

lstm.bias_ih_l0 f4 [256]
0.005397618 -0.07380647 -0.06739034 -0.08003192 -0.07892861 0.050403908 0.024829756 0.11132799
0.07627939 -0.08354352 0.014811197 -0.0464409 -0.044213653 -0.056450754 0.060967907 -0.031364862
-0.12746917 0.028150633 0.00945899 -0.025308097 -0.0017768159 0.115074486 -0.09615013 -0.060531612
0.058008295 0.035779696 -0.17851405 0.03613834 0.0889395 -0.040399246 0.024866 0.05338687
0.09753517 -0.0698924 -0.030250894 0.10889708 0.05265666 -0.07455405 -0.102862366 -0.1313146
-0.050801262 -0.04791105 0.07910757 0.12086963 0.023289423 -0.056608282 0.03713384 0.19978857
-0.008762829 -0.04851294 -0.003605855 -0.029527232 -0.021736545 -0.041360863 0.08683573 -0.12217933
-0.21150465 -0.14742479 -0.017475726 -0.0426213 0.010548293 0.008110604 0.14896101 0.034345616
-0.033751875 -0.06623101 0.008767092 -0.15227535 0.11494969 -0.027201759 0.021319231 -0.040665466
-0.030361092 0.030371811 0.03833286 0.04532744 -0.13063294 -0.11549788 0.015143145 0.044972815
-0.084463805 -0.077869 -0.041283578 -0.012354542 0.055879083 0.044417925 0.10085093 0.085036084
0.015005799 0.06550275 -0.026971834 0.07406491 0.057292517 0.18177563 -0.023206182 0.09362746
0.14831929 0.0062064556 0.01653697 0.10101119 0.06571337 -0.13015692 -0.06869508 -0.15217867
0.046812944 0.08794637 0.020789092 0.07364441 0.055513833 -0.004917764 0.07071428 0.04480767
-0.07780275 0.093648925 0.09626716 -0.074403115 0.06974599 0.045573357 -0.02280538 0.15007508
-0.008956247 -0.0019702448 -0.08357025 -0.12219653 -0.10626681 -0.051979665 0.08180869 -0.0053465534
-0.017953094 -0.07716751 0.12513986 0.07107543 -0.015283507 0.072716706 0.05446783 -0.0476613
-0.10913339 -0.045634747 -0.10992849 -0.083520934 0.06395165 -0.0018347636 -0.017877886 0.065547094
0.08727083 0.06154137 -0.013318441 0.113994904 -0.06466043 0.029374247 0.08960945 0.087609276
0.04030372 0.06350741 0.14497492 0.062297966 0.027223062 -0.066227175 -0.014460659 -0.056617185
0.14621946 -0.05856507 -0.05336867 -0.054991413 0.07152597 -0.09203239 0.0063549103 -0.029527854
0.11895475 0.01017545 -0.14935555 -0.049973544 0.06256914 -0.09723955 0.0515352 -0.106716715
-0.052420795 0.12514146 0.062289808 0.11142279 -0.06942837 0.10003423 -0.025156116 -0.080825634
-0.03379953 0.119083665 0.11975625 0.033782315 -0.033883628 0.100574225 0.03961677 -0.026906535
0.07546878 -0.025227658 0.0059943516 0.085815445 -0.01825798 -0.055893786 -0.17273837 0.10134885
-0.07631307 -0.090243705 -0.034262035 0.02826516 0.009162829 -0.012224771 -0.15678985 0.065939926
-0.108438924 -0.03815872 -0.09189543 0.06010239 -0.12801875 -0.07205814 0.0064064767 -0.0019000926
-0.116850816 0.08464432 0.12130308 0.056361724 0.052756663 0.0013046362 0.048954647 -0.13488781
-0.0034085202 -0.024934156 -0.10406666 -0.11583658 0.06389129 -0.08867698 0.003738156 -0.034787305
0.0051270244 0.12841626 -0.007472821 0.10763785 0.10870548 -0.06515649 -0.082273856 -0.014325836
-0.118338816 -0.14948468 -0.13413303 0.12762153 0.073896766 0.0011380669 -0.05064752 -0.1085481
-0.08009677 0.021963984 -0.13457957 0.122655496 0.0927202 -0.06399396 0.042499807 -0.12072409
00000000: 80de b03b d927 97bd f203 8abd c6e7 a3bd
00000010: 53a5 a1bd 5474 4e3d c667 cb3c eeff e33d
00000020: 5e38 9c3d dd18 abbd aaaa 723c d038 3ebd
00000030: 6019 35bd e838 67bd 7cb9 793d 7178 00bd
00000040: 4787 02be 289c e63c e1f9 1a3c ed52 cfbc
00000050: 0ce4 e8ba 2cac eb3d 5cea c4bd ffef 77bd
00000060: 1b9a 6d3d bb8d 123d 63cc 36be cc05 143d
00000070: ea25 b63d ae79 25bd c8b3 cb3c 31ac 5a3d
00000080: 85c0 c73d bf23 8fbd b9d0 f7bc 6f05 df3d
00000090: 83ae 573d cbaf 98bd 81a9 d2bd 5677 06be
000000a0: fc14 50bd 613e 44bd 2603 a23d 7f8a f73d
000000b0: 76c9 be3c 16de 67bd a719 183d 6095 4c3e
000000c0: f891 0fbc 81b5 46bd 3550 6cbb 18e3 f1bc
000000d0: d710 b2bc 026a 29bd eed6 b13d 2839 fabd
000000e0: ad94 58be 86f6 16be 4129 8fbc ac93 2ebd
000000f0: bfd2 2c3c 57e2 043c 3c89 183e fdad 0c3d
00000100: 683f 0abd 20a4 87bd d9a3 0f3c 12ee 1bbe
00000110: be6a eb3d 39d6 debc aba5 ae3c d590 26bd
00000120: d3b7 f8bc 4ece f83c eb02 1d3d 44a9 393d
00000130: a4c4 05be 278a ecbd f41a 783c 6a35 383d
00000140: 5cfb acbd c879 9fbd f818 29bd b46a 4abc
00000150: 77e1 643d 92ef 353d ef8a ce3d 6627 ae3d
00000160: e2da 753c 4e26 863d 09f4 dcbc 58af 973d
00000170: 8fab 6a3d 6423 3a3e e41a bebc c1bf bf3d
00000180: 03e1 173e 865f cb3b 8a78 873c f4de ce3d
00000190: bb94 863d db47 05be 02b0 8cbd bad4 1bbe
000001a0: eebe 3f3d 3a1d b43d e34d aa3c e1d2 963d
000001b0: 7962 633d 3225 a1bb a6d2 903d 3f88 373d
000001c0: 0c57 9fbd 02cb bf3d b727 c53d a960 98bd
000001d0: fcd6 8e3d 21ab 3a3d 59d2 babc 48ad 193e
000001e0: 39bd 12bc 391f 01bb e126 abbd 2d42 fabd
000001f0: 6aa2 d9bd a1e8 54bd 518b a73d 2432 afbb
00000200: 5e12 93bc 000a 9ebd aa24 003e ff8f 913d
00000210: ad67 7abc 7fec 943d a919 5f3d 7f38 43bd
00000220: 5481 dfbd 80eb 3abd 3022 e1bd 060d abbd
00000230: 15f9 823d 737c f0ba a574 92bc 8e3d 863d
00000240: 0dbb b23d ce12 7c3d 9735 5abc 2976 e93d
00000250: b06c 84bd 43a2 f03c 2985 b73d 7e6c b33d
00000260: 8315 253d 2c10 823d 4e74 143e 272c 7f3d
00000270: e602 df3c 1da2 87bd 66ec 6cbc 6ce7 67bd
00000280: 8eba 153e ede1 6fbd 1b99 5abd ad3e 61bd
00000290: 357c 923d 7a7b bcbd da3c d03b 66e4 f1bc
000002a0: 8c9e f33d eeb6 263c a9f0 18be 0fb1 4cbd
000002b0: 4024 803d 8725 c7bd 9316 533d 4b8e dabd
000002c0: 30b7 56bd 1525 003e 9923 7f3d a231 e43d
000002d0: 7630 8ebd bfde cc3d 3314 cebc e987 a5bd
000002e0: 6071 0abd 23e2 f33d c442 f53d 535f 0a3d
000002f0: 8fc9 0abd dcf9 cd3d 3245 223d 186b dcbc
00000300: 608f 9a3d 3caa cebc 446c c43b 02c0 af3d
00000310: c291 95bc e2f0 64bd 54e2 30be fc8f cf3d
00000320: 074a 9cbd b1d1 b8bd 5956 0cbd 568c e73c
00000330: b11f 163c 684a 48bc 858d 20be 830b 873d
00000340: 3a15 debd 514c 1cbd ac33 bcbd ec2d 763d
00000350: 5917 03be 3893 93bd 6ced d13b 870c f9ba
00000360: 7b4f efbd 005a ad3d c06d f83d 8ddb 663d
00000370: 5f17 583d 5400 ab3a ab84 483d 0820 0abe
00000380: 7b61 5fbb b742 ccbc e720 d5bd bb3b edbd
00000390: 70d9 823d 479c b5bd dafb 743b 227d 0ebd
000003a0: 9900 a83b 8d7f 033e 91de f4bb 3c71 dc3d
000003b0: fba0 de3d c470 85bd 327f a8bd e9b6 6abc
000003c0: 9f5b f2bd 8312 19be 2b5a 09be 38af 023e
000003d0: 3057 973d 302b 953a c673 4fbd 774e debd
000003e0: c609 a4bd d0ed b33c 3acf 09be ce32 fb3d
000003f0: 17e4 bd3d 440f 83bd 4714 2e3d 313e f7bd

lstm.bias_hh_l0 f4 [256]
-0.09545274 -0.024756059 -0.036714092 -0.21464963 -0.12447498 -0.08094877 -0.025927553 0.14620659
0.06530745 0.09110754 0.12979299 -0.053116485 0.08675837 -0.004779828 0.078781135 0.06815068
0.03523312 -0.09923447 -0.09027722 0.06895057 0.044083703 0.16275895 0.00029185467 -0.07784216
-0.106097564 -0.011705989 -0.00990821 -0.09244692 -0.0509959 0.007836238 -0.013607304 -0.07222236
-0.11676251 -0.09001901 -0.09683809 0.04534295 -0.050415732 -0.01394389 0.0039119287 0.041677773
-0.1575527 0.07529467 0.07775451 -0.0916736 0.084682226 -0.057051934 -0.01837942 0.08689009
0.1236481 0.019849896 -0.15647529 -0.092144 0.0049532307 0.10332528 0.07282614 -0.081470266
-0.02924375 -0.1315529 0.018953731 0.09733 0.049687687 0.19429281 -0.046341527 0.016651943
0.03216089 0.03793874 -0.1042736 -0.0061135385 -0.0037629472 -0.07502142 -0.029105986 -0.040980827
-0.10873942 0.11330474 -0.021447225 -0.0814917 0.02595507 -0.0014160352 -0.0206591 0.029528571
-0.035524517 0.06976389 -0.01004515 -0.0904036 -0.094011664 -0.0711997 0.11283896 -0.055633403
0.06503797 0.14606735 -0.111055635 0.0049181567 0.08959699 0.15070613 0.097825535 0.00834382
-0.06571757 -0.024737906 0.124571554 -0.059279095 0.12016595 -0.03904906 -0.049405795 -0.025115624
0.05479604 -0.11647157 -0.08908419 0.12657875 0.0843557 0.12089997 -0.019588985 0.17065865
-0.027492158 0.17206961 0.09998443 0.020125642 0.037339862 0.034083337 0.061254892 0.10182449
-0.0322354 0.0005984609 -0.04329017 -0.001687686 0.045831423 0.04592142 0.0065703834 -0.04895816
0.07675192 0.10514018 -0.11817119 0.007001169 0.168392 -0.08984541 0.060624298 0.09421599
-0.116619796 -0.05910184 0.07183515 0.056919385 -0.1305695 -0.029789228 -0.036695782 -0.057533316
0.023194699 0.14814231 0.07165265 -0.078919075 0.012351627 -0.08843276 0.17150036 0.045232356
0.097230874 0.12571451 -0.017757835 -0.076862834 -0.02631813 0.013270967 -0.016021414 0.069931425
0.07215369 0.058583204 -0.116331935 0.02088359 0.007637604 -0.0057273027 -0.07572851 0.08458495
-0.03659864 0.0009790424 -0.015275333 0.1321944 -0.02756446 0.13351218 0.042810638 -0.0708793
0.0022390217 0.0010797206 0.085926495 0.006683848 0.08289741 -0.017152796 -0.03559964 -0.12182493
-0.09200319 0.17948964 -0.078289986 0.009326311 -0.106379375 0.0318656 0.075138204 -0.05761545
0.14981338 0.08672361 -0.044865575 -0.055535167 0.1287003 -0.07784711 -0.0008329123 -0.067122445
-0.1141166 0.035147462 0.15147029 -0.0017308609 0.009838116 0.062833 -0.029756567 0.06670961
0.066685125 0.053937767 0.07402837 -0.16254754 0.077593945 -0.05587738 0.11509728 0.0012316691
0.059842553 0.042834174 0.11567032 -0.08556849 0.10951711 0.115309894 -0.12631017 0.101692684
0.053520147 0.06638684 -0.035059128 -0.060127743 -0.00092836795 0.09764134 -0.026040705 -0.015786832
-0.05885026 0.09930078 0.03283256 0.005823992 0.056173008 -0.006296422 -0.039244253 0.12823766
-0.03114378 -0.047364417 0.09112233 -0.007797773 -0.059094157 0.032259874 -0.05057875 0.041827187
-0.038692594 -0.054800212 0.027699998 0.041536275 0.14313135 0.001927065 0.03741162 0.085238375
00000000: ba7c c3bd 38cd cabc 8461 16bd 1dcd 5bbe
00000010: bdec febd 78c8 a5bd 0566 d4bc 2eb7 153e
00000020: eabf 853d 9796 ba3d 74e8 043e ac90 59bd
00000030: 5fae b13d 1aa0 9cbb 0158 a13d 9592 8b3d
00000040: 9b50 103d 713b cbbd 43e3 b8bd f535 8d3d
00000050: 1d91 343d 48aa 263e 1204 9939 b66b 9fbd
00000060: ae49 d9bd 7aca 3fbc 0b56 22bc d054 bdbd
00000070: 14e1 50bd 9063 003c 2bf1 5ebc 51e9 93bd
00000080: 2f21 efbd e35b b8bd 0c53 c6bd 87b9 393d
00000090: ba80 4ebd ea74 64bc a32f 803b 50b6 2a3d
000000a0: 7f55 21be 1834 9a3d c23d 9f3d 5ebf bbbd
000000b0: e06d ad3d 4aaf 69bd 7090 96bc 6ef3 b13d
000000c0: 373b fd3d 409c a23c 0f3b 20be feb5 bcbd
000000d0: b64e a23b 349c d33d df25 953d e2d9 a6bd
000000e0: 9790 efbc ceb5 06be db44 9b3c f354 c73d
000000f0: 5185 4b3d b2f4 463e 9dd0 3dbd a869 883c
00000100: 23bb 033d a765 1b3d 668d d5bd 1454 c8bb
00000110: c79b 76bb d5a4 99bd ad6f eebc 83db 27bd
00000120: c6b2 debd 510c e83d 17b2 afbc 1fe5 a6bd
00000130: ba9f d43c 429a b9ba 463d a9bc e7e5 f13c
00000140: 2882 11bd 5fe0 8e3d 6a94 24bc 8625 b9bd
00000150: 3089 c0bd 26d1 91bd 1d18 e73d dadf 63bd
00000160: a132 853d ae92 153e 2371 e3bd 7d28 a13b
00000170: a07e b73d b552 1a3e c158 c83d 85b4 083c
00000180: ef96 86bd 26a7 cabc 5f1f ff3d a3ce 72bd
00000190: 9119 f63d e8f1 1fbd bb5d 4abd 48bf cdbc
000001a0: d071 603d a688 eebd c671 b6bd dc9d 013e
000001b0: aec2 ac3d 679a f73d 1479 a0bc 24c1 2e3e
000001c0: 3c37 e1bc 0433 303e a3c4 cc3d 88de a43c
000001d0: aff1 183d f89a 0b3d 69e6 7a3d 5c89 d03d
000001e0: 4409 04bd 08e2 1c3a 0951 31bd 5835 ddba
000001f0: bbb9 3b3d 1918 3c3d 5f4c d73b 5a88 48bd
00000200: 1c30 9d3d bc53 d73d bd03 f2bd 106a e53b
00000210: f46e 2c3e df00 b8bd 2f51 783d 50f4 c03d
00000220: 5cd6 eebd c514 72bd 4f1e 933d 4d24 693d
00000230: 03b4 05be 8a08 f4bc 514e 16bd 0ea8 6bbd
00000240: cf02 be3c 9eb2 173e a0be 923d 53a0 a1bd
00000250: 7b5e 4a3c 3c1c b5bd ca9d 2f3e 9045 393d
00000260: fb20 c73d 4ebb 003e e178 91bc 436a 9dbd
00000270: 1e99 d7bc 786e 593c 573f 83bc 3538 8f3d
00000280: 50c5 933d f1f4 6f3d 703f eebd 1014 ab3c
00000290: de44 fa3b 19ac bbbb 8d17 9bbd e03a ad3d
000002a0: 75e8 15bd 3653 803a 6445 7abc f85d 073e
000002b0: ddce e1bc 6bb7 083e 355a 2f3d 2b29 91bd
000002c0: 8dbc 123b 6985 8d3a 3bfa af3d 2e04 db3b
000002d0: 1ec6 a93d 0584 8cbc eed0 11bd 597f f9bd
000002e0: 2b6c bcbd 22cc 373e 8056 a0bd 62cd 183c
000002f0: 6edd d9bd 8185 023d 0fe2 993d 2efe 6bbd
00000300: ae68 193e 269c b13d f7c4 37bd d878 63bd
00000310: 03ca 033e 4e6e 9fbd cc57 5aba 7e77 89bd
00000320: f7b5 e9bd c9f6 0f3d 071b 1b3e 0ede e2ba
00000330: 0d30 213c 97ae 803d 0bc4 f3bc 0c9f 883d
00000340: 3692 883d d9ed 5c3d 309c 973d dd72 26be
00000350: 93e9 9e3d aedf 64bd 1fb8 eb3d f56f a13a
00000360: 771d 753d e372 2f3d 90e4 ec3d 883e afbd
00000370: 824a e03d 9827 ec3d 7457 01be 4144 d03d
00000380: f137 5b3d d3f5 873d 299a 0fbd 8248 76bd
00000390: b85d 73ba 2ff8 c73d 5153 d5bc 6353 81bc
000003a0: f80c 71bd 355e cb3d 6f7b 063d 30d7 be3b
000003b0: ab15 663d 3752 cebb 95be 20bd bc50 033e
000003c0: 3e21 ffbc 3101 42bd 589e ba3d 7684 ffbb
000003d0: b70c 72bd ee22 043d aa2b 4fbd fc52 2b3d
000003e0: 207c 1ebd 3076 60bd 1beb e23c f121 2a3d
000003f0: 0691 123e 9295 fc3a ed3c 193d 7591 ae3d

lstm.weight_ih_l1 f4 [256, 64]
-0.14222379 -0.24635017 -0.014853481 -0.13568674 -0.07372939 0.090793006 0.02072927 0.034757875
0.0030377922 -0.088034675 0.037486214 -0.07230276 0.120099925 -0.04843691 -0.06845261 -0.12754682
-0.040320102 -0.021106303 0.057949748 -0.04068407 -0.041661777 0.08891446 -0.01597818 -0.15851033
-0.04159593 -0.05187011 -0.28392643 0.04712873 0.026306536 -0.032032058 -0.14610404 -0.17074688
-0.07272206 -0.07567142 -0.0050090253 -0.08479794 -0.08866717 -0.05006919 -0.05680452 0.16007058
0.0013727928 0.015948325 -0.06644544 0.021879008 -0.052492116 -0.06402482 -0.04249564 -0.1889126
-0.019578703 0.074231155 -0.05952174 -0.08061588 -0.054076977 0.001055513 0.0331398 0.056652464
0.00976714 0.024990898 -0.037929285 0.032873213 -0.10457817 0.08308171 0.07286964 0.13697585
-0.06853808 0.06624655 0.07156387 0.03514225 0.09696385 0.08367199 0.122713946 -0.021515353
0.006881362 0.1413113 0.07657257 0.010429893 -0.06070923 -0.07937088 -0.003599556 -0.004010687
0.080281526 0.074498974 0.11550502 0.06433149 -0.107787564 0.117708355 0.06637549 -0.0068346686
0.005229423 0.013952911 0.018128619 0.06661056 0.16053809 0.20955901 0.068159215 0.013399728
-0.14839077 -0.07528939 -0.016578143 0.029743688 0.009657591 0.14884003 -0.042997804 -0.09371261
-0.15830885 -0.15433004 0.0072591472 0.08142901 0.098108135 -0.04060459 -0.10593813 -0.18655086
-0.07938411 0.22863677 -0.12941186 0.05411685 -0.09342451 0.026346907 0.10517942 -0.043974187
0.101896726 0.014441345 -0.085749246 -0.11406554 0.09256261 -0.030015038 -0.040036794 0.061352994
-0.072882205 0.080671206 0.06579891 -0.022590918 0.032576643 -0.09400585 0.008214259 -0.14004812
-0.08324645 -0.07200307 -0.027425516 -0.090696156 0.043506987 0.025518544 -0.029889937 0.049615804
0.02341197 0.011207283 -0.021447428 -0.095993005 -0.011332189 -0.10044651 0.11848419 0.012286986
-0.008393648 -0.04319626 -0.07153916 0.0643274 -0.109523624 -0.0033122995 -0.10353715 0.069604054
0.023893062 0.025019554 -0.07823233 0.07252561 -0.08746714 -0.0038705922 0.0034046276 0.07996934
-0.054144066 -0.029149637 -0.035918567 -0.04472498 -0.015239768 -0.11557973 -0.105379075 0.079901
-0.055068552 0.027060846 -0.026844347 -0.021321362 0.01901137 -0.16710398 -0.03333346 0.07265599
0.024872698 0.11461071 -0.099263854 -0.07749725 0.009792461 0.086009145 -0.046050973 -0.007472323
-0.019616824 -0.09028419 0.031594355 -0.116506055 0.14333318 0.08530076 0.09787349 -0.11522694
-0.04242029 -0.072409265 0.034258418 0.020098867 0.18831985 -0.12377599 0.120406084 -0.048489314
-0.19561763 -0.08858574 0.30298 0.041453224 0.010166123 -0.062433477 0.062409382 0.052767247
0.090016425 -0.04032457 -0.050492544 -0.15969539 0.11737508 0.036377333 -0.16058333 0.0009055438
0.013096805 -0.16058183 -0.07393864 0.10633643 0.045463763 0.038358513 0.084339716 0.08477712
-0.036273815 0.08886273 -0.057552297 -0.032246474 -0.02232996 0.06442555 -0.025927724 -0.11520161
0.079618886 -0.0843485 0.10247849 0.056888994 0.099710196 -0.046796456 0.012857884 0.076626316
0.010485809 -0.11924656 -0.012418067 -0.0006399106 -0.024185127 0.062108126 0.13498709 0.103229925
00000000: 1da3 11be 3843 7cbe 045c 73bc 77f1 0abe
00000010: 6fff 96bd aff1 b93d 6ed0 a93c 465e 0e3d
00000020: b215 473b 864b b4bd 258b 193d 7813 94bd
00000030: f3f6 f53d c865 46bd e230 8cbd a29b 02be
00000040: b126 25bd 20e7 acbc b75c 6d3d 57a4 26bd
00000050: 8aa5 2abd c918 b63d ace4 82bc 8850 22be
00000060: 7e60 2abd c175 54bd ce5e 91be 0e0a 413d
00000070: ce80 d73c 0c34 03bd 4c9c 15be 45d8 2ebe
00000080: 4eef 94bd 9ef9 9abd c022 a4bb 8baa adbd
00000090: 2297 b5bd 5a15 4dbd dbab 68bd 8be9 233e
000000a0: 48ef b33a 10a6 823c 8c14 88bd 9b3b b33c
000000b0: f901 57bd 721f 83bd e90f 2ebd 4e72 41be
000000c0: 8463 a0bc 8106 983d 11cd 73bd f019 a5bd
000000d0: d27f 5dbd 2459 8a3a 99bd 073d 6a0c 683d
000000e0: 5b06 203c b6b9 cc3c bd5b 1bbd 10a6 063d
000000f0: 142d d6bd be26 aa3d ae3c 953d 6643 0c3e
00000100: b15d 8cbd 45ac 873d 1490 923d 52f1 0f3d
00000110: fc94 c63d 385c ab3d 7351 fb3d f740 b0bc
00000120: 0c7d e13b e9b3 103e 14d2 9c3d 24e2 2a3c
00000130: 3eaa 78bd 338d a2bd 87e6 6bbb 156c 83bb
00000140: a46a a43d eb92 983d e58d ec3d 3ac0 833d
00000150: babf dcbd 1411 f13d dfef 873d 5bf5 dfbb
00000160: 945b ab3b c09a 643c 7882 943c 1e6b 883d
00000170: 1964 243e a396 563e 0f97 8b3d 888a 5b3c
00000180: c0f3 17be 5331 9abd e3ce 87bc 09a9 f33c
00000190: df3a 1e3c 8569 183e 771e 30bd 66ec bfbd
000001a0: b71b 22be b208 1ebe 24de ed3b 41c4 a63d
000001b0: ebec c83d 0051 26bd 17f6 d8bd 3007 3fbe
000001c0: 2394 a2bd c21f 6a3e 8b84 04be a1a9 5d3d
000001d0: 5955 bfbd 78d5 d73c 4f68 d73d 471e 34bd
000001e0: 3baf d03d 649b 6c3c 4d9d afbd 329b e9bd
000001f0: 7791 bd3d 19e2 f5bc 9ffd 23bd 474d 7b3d
00000200: 4443 95bd f236 a53d 94c1 863d 9710 b9bc
00000210: 166f 053d 2486 c0bd 1995 063c c668 0fbe
00000220: 1d7d aabd 5876 93bd 7aab e0bc e8be b9bd
00000230: 6234 323d 440c d13c bedb f4bc f139 4b3d
00000240: 76ca bf3c c09e 373c 84b2 afbc fb97 c4bd
00000250: a5aa 39bc e6b6 cdbd d7a7 f23d 5b4f 493c
00000260: 8385 09bc 90ee 30bd 2083 92bd 15be 833d
00000270: ec4d e0bd 2a13 59bb 490b d4bd 928c 8e3d
00000280: 62bb c33c cff5 cc3c 4638 a0bd 4f88 943d
00000290: f921 b3bd c3a9 7dbb 2c20 5f3b f7c6 a33d
000002a0: 2bc6 5dbd 38cb eebc 591f 13bd 8a31 37bd
000002b0: 38b0 79bc 11b5 ecbd fcd0 d7bd 23a3 a33d
000002c0: 908f 61bd b5ae dd3c ade8 dbbc 23aa aebc
000002d0: bcbd 9b3c 4e1d 2bbe ab88 08bd aacc 943d
000002e0: d4c1 cb3c 05b9 ea3d d94a cbbd e1b6 9ebd
000002f0: 8f70 203c 9025 b03d f29f 3cbd 63da f4bb
00000300: 76b3 a0bc ebe6 b8bd 1569 013d ba9a eebd
00000310: efc5 123e 2ab2 ae3d e571 c83d 1afc ebbd
00000320: e6c0 2dbd 4f4b 94bd 8e52 0c3d 61a6 a43c
00000330: ebd6 403e 447e fdbd 7797 f63d bb9c 46bd
00000340: fd4f 48be 716c b5bd 3220 9b3e dbca 293d
00000350: cf8f 263c 3fba 7fbd fba0 7f3d 7822 583d
00000360: 885a b83d 602b 25bd 45d1 4ebd 3087 23be
00000370: 5962 f03d 6600 153d f56f 24be 0462 6d3a
00000380: fb93 563c 906f 24be 246d 97bd eac6 d93d
00000390: 3638 3a3d d11d 1d3d 4dba ac3d a09f ad3d
000003a0: da93 14bd aafd b53d f5bb 6bbd e114 04bd
000003b0: 52ed b6bc 8bf1 833d 6166 d4bc d2ee ebbd
000003c0: 3a0f a33d e8be acbd 3ee0 d13d 6f04 693d
000003d0: dc34 cc3d a4ad 3fbd e0a9 523c 42ee 9c3d
000003e0: accc 2b3c 8a37 f4bd 2675 4bbc acbf 27ba
000003f0: e31f c6bc 1765 7e3d 0e3a 0a3e 366a d33d

lstm.weight_hh_l1 f4 [256, 64]
-0.019348595 -0.046945624 0.09101244 -0.0315057 0.079918176 -0.22952822 0.0615543 -0.04024289
0.0799248 0.100744754 -0.0032874902 0.093267895 -0.07222085 -0.14512351 -0.05015178 -0.13826658
-0.09649145 -0.0119629875 -0.039059997 -0.08182841 0.07701674 0.06021702 0.07282923 -0.000253996
0.17181003 -0.11407243 -0.04945649 0.08994851 -0.09062476 0.045978464 0.104985766 0.14756554
-0.0059070913 -0.058856897 0.015713653 0.009175115 0.046764426 0.01906665 0.08980068 -0.028897427
0.016902491 0.1587745 -0.014615706 0.058058895 -0.005262733 -0.004125228 0.118715994 -0.11151652
-0.09493014 0.15582788 0.07387796 0.08777466 -0.13980578 -0.0018074806 -0.0006654237 -0.053017177
-0.17091681 -0.06141888 0.049206737 -0.022800481 -0.038503908 -0.0917164 0.077022664 0.19308653
0.08483125 0.011210165 0.07776312 -0.13975337 0.015735466 -0.032946553 -0.1281292 -0.015953626
-0.076350756 -0.14278254 0.053011924 -0.1289865 0.1195996 -0.046575177 -0.21342 -0.062619045
0.080473565 0.002847897 0.047478676 -0.124111146 -0.100992374 0.022343589 -0.048805084 -0.023693126
-0.08578977 -0.05891033 -0.0147738075 -0.0899955 0.066456646 0.010923466 -0.053037368 0.036271174
0.006398429 0.029551521 -0.13459317 -0.117149524 -0.11247563 -0.054357518 -0.1241894 -0.18798083
-0.09124166 -0.18860437 0.024904095 -0.20792179 -0.119937174 -0.15320535 -0.059159886 0.03591507
-0.20742713 -0.07585219 0.13994606 -0.10222574 0.16425528 -0.0048457747 0.09199296 0.108837835
0.067956366 -0.024149537 -0.031174049 0.05527563 -0.04832391 0.061181232 -0.0711444 -0.12997593
0.12281584 -0.0102633275 0.00610367 -0.0111473575 0.051584847 -0.12943141 -0.057218336 0.017562808
0.010271487 -0.14367962 0.03204207 -0.057356846 -0.0041228007 0.08151806 0.023987705 0.1264067
0.039500546 0.048412945 -0.016258407 0.07217812 0.04344479 -0.10363482 0.008777681 -0.009081959
-0.049531356 0.050434925 0.1059266 -0.0262055 -0.026658386 -0.059459776 0.12368869 -0.038653057
0.071263716 -0.1263527 -0.06966614 0.08688586 0.074081615 -0.094234444 0.05172978 -0.20724308
0.14539646 -0.19419394 0.14051591 -0.023473343 0.113960624 -0.15604304 0.009312133 0.065581955
-0.061113775 -0.102853134 0.08225308 -0.08957179 0.14066704 0.025190052 0.012764101 -0.047025226
-0.0776683 0.1344744 0.0343383 -0.05732227 -0.06110921 -0.111718655 -0.04130906 0.025240488
-0.018325146 -0.14845419 0.052091308 -0.06416439 -0.098051056 0.024532828 -0.07225591 -0.096289955
0.1679332 -0.019971717 0.12842868 0.045363985 -0.049357608 -0.17584991 0.14760044 -0.1376376
0.09511322 -0.069100656 -0.049260784 0.048496746 0.14319436 0.08170434 0.16717434 -0.11062817
0.056197055 0.09090177 0.17866014 -0.069639325 -0.065239325 -0.016258877 -0.009025095 0.14309971
0.025653908 0.046373032 -0.08398498 0.11128574 0.122808985 0.21661961 0.18419749 -0.10093989
0.018386813 -0.12662144 -0.0225064 0.018974382 0.08776899 0.013360466 0.18093507 -0.1222734
-0.084912755 -0.038042285 0.045694403 0.021906555 -0.16063546 0.08248238 -0.01742277 0.003332555
-0.20157637 0.0398943 0.04991741 -0.075609855 -0.18359001 -0.060815614 0.0016727548 0.00591604
00000000: f280 9ebc 0e4a 40bd bb64 ba3d 1f0c 01bd
00000010: 24ac a33d 7209 6bbe 5d20 7c3d bbd5 24bd
00000020: 9daf a33d 4453 ce3d ef72 57bb 3d03 bf3d
00000030: 86e8 93bd 429b 14be f46b 4dbd c195 0dbe
00000040: 4f9d c5bd 6800 44bc 60fd 1fbd a795 a7bd
00000050: f4ba 9d3d 1fa6 763d 7e27 953d c42a 85b9
00000060: f8ee 2f3e ce9e e9bd e392 4abd ed36 b83d
00000070: 7999 b9bd ea53 3c3d c702 d73d 6c1b 173e
00000080: 4690 c1bb ee13 71bd ebb9 803c 3953 163c
00000090: 0e8c 3f3d aa31 9c3c 6be9 b73d 4cba ecbc
000000a0: 1877 8a3c c895 223e b776 6fbc 2acf 6d3d
000000b0: 0173 acbb ec2c 87bb 5f21 f33d c662 e4bd
000000c0: bc6a c2bd 5891 1f3e 544d 973d 33c3 b33d
000000d0: 3f29 0fbe fce8 ecba d46f 2eba 8a28 59bd
000000e0: d104 2fbe 5d92 7bbd 018d 493d 13c8 babc
000000f0: 46b6 1dbd cfd5 bbbd 0fbe 9d3d 7ab8 453e
00000100: 02bc ad3d d7aa 373c 4542 9f3d 821b 0fbe
00000110: aae7 803c f7f2 06bd 4d34 03be 2eb1 82bc
00000120: c95d 9cbd 9635 12be 0823 593d 0915 04be
00000130: a3f0 f43d 9dc5 3ebd c68a 5abe 6a3e 80bd
00000140: 53cf a43d c8a3 3a3b 0079 423d fc2d febd
00000150: 17d5 cebd e709 b73c d7e7 47bd 1618 c2bc
00000160: 8cb2 afbd f54b 71bd d70d 72bc 904f b8bd
00000170: 6c1a 883d 56f8 323c b63d 59bd 1591 143d
00000180: eaa9 d13b 0816 f23c cbd2 09be 17ec efbd
00000190: a059 e6bd fda5 5ebd 0357 febd 0c7e 40be
000001a0: e8dc babd 8121 41be ac03 cc3c 73e9 54be
000001b0: 9fa1 f5bd dde1 1cbe a351 72bd ae1b 133d
000001c0: c767 54be 6558 9bbd 054e 0f3e bb5b d1bd
000001d0: 8932 283e 4ec9 9ebb ce66 bc3d 5fe6 de3d
000001e0: b52c 8b3d 40d5 c5bc b860 ffbc b368 623d
000001f0: 4bef 45bd 2c99 7a3d 28b4 91bd 6918 05be
00000200: df86 fb3d 8427 28bc 4c01 c83b 68a3 36bc
00000210: a24a 533d ab89 04be c65d 6abd e1df 8f3c
00000220: bd49 283c c020 13be 8c3e 033d 03ef 6abd
00000230: 8f18 87bb f1f2 a63d dd81 c43c c270 013e
00000240: 53cb 213d a74c 463d 5a30 85bc 1fd2 933d
00000250: 2af3 313d 7e3e d4bd 43d0 0f3c 7fcc 14bc
00000260: 64e1 4abd da94 4e3d 0cf0 d83d ebac d6bc
00000270: b062 dabc 188c 73bd 7f50 fd3d ab52 1ebd
00000280: b6f2 913d 9a62 01be 1fad 8ebd 37f1 b13d
00000290: 1ab8 973d fdfd c0bd 9be2 533d 8837 54be
000002a0: cfe2 143e c7da 46be 67e3 0f3e 2b4b c0bc
000002b0: 3064 e93d bfc9 1fbe eb91 183c d54f 863d
000002c0: 7052 7abd aaa4 d2bd 4e74 a83d 6a71 b7bd
000002d0: 050b 103e 5e5b ce3c 8520 513c 869d 40bd
000002e0: 8f10 9fbd a8b3 093e 51a6 0c3d c2ca 6abd
000002f0: a74d 7abd c0cc e4bd b033 29bd 24c5 ce3c
00000300: 9e1e 96bc 6004 18be b25d 553d 9f68 83bd
00000310: fece c8bd 12f9 c83c e8fa 93bd ab33 c5bd
00000320: aef6 2b3e ba9b a3bc cf82 033e 96cf 393d
00000330: 342b 4abd 0012 34be 9224 173e dff0 0cbe
00000340: b8ca c23d a584 8dbd adc5 49bd 86a4 463d
00000350: 8ba1 123e 9b54 a73d c02f 2b3e 0691 e2bd
00000360: e22e 663d b52a ba3d aff2 363e 109f 8ebd
00000370: 329c 85bd 5631 85bc fedd 13bc bb88 123e
00000380: 2528 d23c a6f1 3d3d 5100 acbd c7e9 e33d
00000390: 4783 fb3d 88d1 5d3e 449e 3c3e 93b9 cebd
000003a0: f19f 963c 0da9 01be 575f b8bc 2a70 9b3c
000003b0: 3ac0 b33d dbe5 5a3c 0b47 393e 7a6a fabd
000003c0: bde6 adbd 3ad2 1bbd 0e2a 3b3d 6075 b33c
000003d0: 9f7d 24be 86ec a83d 32ba 8ebc ff66 5a3b
000003e0: 096a 4ebe 3568 233d 3376 4c3d 57d9 9abd
000003f0: 05ff 3bbe cb19 79bd 5640 db3a 57db c13b

lstm.bias_ih_l1 f4 [256]
0.05719728 -0.06954211 -0.09512826 -0.039893005 -0.0011857611 -0.031259943 -0.04947874 0.079469554
-0.020224625 -0.18238942 -0.10756223 -0.09331159 0.060488075 -0.09897219 -0.114069834 -0.039518207
0.074888356 0.042184714 0.06877489 -0.09748391 0.08365082 -0.12731005 -0.018729487 -0.06386619
0.09838866 0.08421956 0.019114194 0.03909218 0.085173294 -0.035950076 0.10474103 0.10871485
-0.15368167 -0.19685769 -0.11474721 -0.054238595 -0.08248115 -0.08736368 -0.11941048 0.11366434
-0.02958913 -0.037586905 0.08512655 0.07792444 -0.10423377 -0.08758968 -0.09508295 0.0044998694
0.11228524 -0.10089045 -0.0046216724 -0.00578444 -0.065352045 0.031359453 -0.037031617 -0.013605884
-0.08605848 -0.097312115 -0.034280557 0.03292638 0.107373334 -0.06628882 0.030399838 0.07768859
-0.037649926 -0.04114201 -0.11659287 -0.123699695 -0.015638806 -0.09104525 -0.103495784 0.09932807
0.112357736 0.053193495 0.012359667 -0.00028896637 -0.0118332645 -0.0025371918 -0.06953843 0.1285493
0.02815648 -0.02404541 0.119560964 0.06740941 -0.06282488 -0.03436464 -0.04861522 -0.010503941
-0.0012264716 -0.011964367 -0.037576176 -0.02758026 0.06659793 -0.091010116 0.08253905 -0.11081534
0.053231128 -0.18888684 0.010558995 -0.119736865 -0.14484808 0.16266583 -0.04215918 0.1075908
-0.0777463 0.047599655 -0.072873354 -0.025521979 0.05870061 -0.15057541 0.086136974 -0.045078248
0.15877259 0.089873746 0.038722172 0.107827514 -0.037771918 0.024319446 0.0062069795 -0.15556377
-0.113173485 0.014414009 -0.038921542 -0.04443642 0.027612433 0.053309374 -0.07356679 0.0858277
-0.0647759 -0.069665484 -0.08038282 -0.012932504 -0.010823676 0.092699 0.13884442 0.02971752
0.10068886 -0.053404905 0.061886534 0.08507726 -0.10554416 -0.086469196 -0.033312898 0.10359933
-0.014966535 -0.097344376 0.11533369 0.061554696 -0.046316616 -0.04481312 -0.07196574 0.03485126
0.05675394 0.034309868 0.075720936 -0.022891633 -0.111860566 -0.021780746 -0.15990111 -0.11130399
0.077381514 0.008651438 0.12045879 0.05353926 0.12328946 -0.10919799 0.011303352 0.06305743
-0.06773743 0.09325245 -0.14972277 0.041419473 -0.031892065 0.068227425 0.07071282 0.07921663
0.05150588 0.099903695 -0.08995107 0.04662111 -0.10891881 -0.1345955 -0.0243242 -0.09896335
-0.076080486 -0.10873334 0.10772359 -0.059207324 0.092125066 -0.08467568 -0.068549454 0.028011326
0.00757701 -0.114905305 -0.04393396 -0.13435581 -0.042864934 0.03431354 0.07848855 0.12501855
-0.067418166 0.06428325 0.025798902 -0.03437861 0.04150427 0.04559349 0.028580125 0.02627242
0.068375915 0.08586533 0.0043013263 -0.0807453 0.080785 -0.088286094 0.0029091183 -0.054050516
-0.019987224 0.019182155 0.06643472 0.006535425 -0.11495979 -0.055265956 -0.09626159 -0.09987895
0.051530384 -0.051626865 0.09066977 -0.002094313 -0.036056392 0.081128865 0.077463776 0.056654878
0.060285766 -0.09394132 -0.06251185 0.015427987 -0.03744705 -0.11298089 0.1061999 -0.041457057
0.1679077 -0.005285715 -0.08689439 -0.0672271 0.05977976 -0.055905443 -0.13002446 0.027424943
0.053095642 -0.059561886 0.15767173 0.0494645 0.025947414 -0.03638567 -0.17207666 -0.022884568
00000000: b247 6a3d 186c 8ebd 9bd2 c2bd d966 23bd
00000010: 8a6b 9bba 6d0a 00bd 38aa 4abd efc0 a23d
00000020: 1dae a5bc 4bc4 3abe 9649 dcbd 261a bfbd
00000030: 58c2 773d eeb1 cabd 729d e9bd d8dd 21bd
00000040: 115f 993d e1c9 2c3d d9d9 8c3d a5a5 c7bd
00000050: 1f51 ab3d 915d 02be 956e 99bc 47cc 82bd
00000060: fe7f c93d 4e7b ac3d 5f95 9c3c 1f1f 203d
00000070: 566f ae3d 6340 13bd 7782 d63d e4a5 de3d
00000080: ba5e 1dbe 1095 49be 9600 ebbd 4a29 5ebd
00000090: e1eb a8bd bbeb b2bd 7b8d f4bd d9c8 e83d
000000a0: e764 f2bc baf4 19bd d456 ae3d d996 9f3d
000000b0: 8478 d5bd 3862 b3bd daba c2bd a473 933b
000000c0: cef5 e53d a79f cebd 6671 97bb 668b bdbb
000000d0: 4bd7 85bd c572 003d 77ae 17bd 37eb 5ebc
000000e0: 6e3f b0bd 934b c7bd c569 0cbd d0dd 063d
000000f0: 8de6 db3d 6fc2 87bd 1509 f93c 321b 9f3d
00000100: cf36 1abd 8684 28bd 3ec8 eebd 4456 fdbd
00000110: f41c 80bc ef75 babd 99f5 d3bd 846c cb3d
00000120: d01b e63d 6ce1 593d 3380 4a3c 6980 97b9
00000130: 4fe0 41bc 0447 26bb 2a6a 8ebd 6da2 033e
00000140: 6ba8 e63c e1fa c4bc 61dc f43d f20d 8a3d
00000150: 55aa 80bd f0c1 0cbd c120 47bd b918 2cbc
00000160: 8fc1 a0ba 3106 44bc 7ae9 19bd ffef e1bc
00000170: 7f64 883d 8363 babd 3c0a a93d 27f3 e2bd
00000180: e208 5a3d 8d6b 41be a3ff 2c3c 9a38 f5bd
00000190: 0e53 14be df91 263e 1baf 2cbd 9158 dc3d
000001a0: 7439 9fbd dbf7 423d a03e 95bd 7813 d1bc
000001b0: 0d70 703d 7130 1abe 9568 b03d f8a3 38bd
000001c0: 4895 223e ba0f b83d 249b 1e3d acd4 dc3d
000001d0: bab6 1abd 9339 c73c eb63 cb3b 1c4c 1fbe
000001e0: 80c7 e7bd bc28 6c3c 326c 1fbd f702 36bd
000001f0: 7833 e23c ee5a 5a3d 2faa 96bd 6fc6 af3d
00000200: 3aa9 84bd c7ac 8ebd bf9f a4bd dae2 53bc
00000210: ca55 31bc f9d8 bd3d 3b2d 0e3e 2872 f33c
00000220: f635 ce3d 1abf 5abd bc7c 7d3d fd3c ae3d
00000230: 8927 d8bd c316 b1bd 1b73 08bd e32b d43d
00000240: 3336 75bc 7d5c c7bd 1234 ec3d c720 7c3d
00000250: 7eb6 3dbd f68d 37bd c662 93bd 32c0 0e3d
00000260: d276 683d 8188 0c3d 9413 9b3d 3c87 bbbc
00000270: 2717 e5bd 896d b2bc 1ebd 23be 59f3 e3bd
00000280: 337a 9e3d c3be 0d3c 19b3 f63d fc4b 5b3d
00000290: 2f7f fc3d 32a3 dfbd b231 393c 4124 813d
000002a0: ecb9 8abd 24fb be3d ed50 19be 77a7 293d
000002b0: 41a1 02bd d2ba 8b3d e2d1 903d 543c a23d
000002c0: d4f7 523d 4f9a cc3d 4438 b8bd c7f5 3e3d
000002d0: d310 dfbd 67d3 09be 8b43 c7bc 4cad cabd
000002e0: 16d0 9bbd 96af debd 309e dc3d 6183 72bd
000002f0: 11ac bc3d 716a adbd a863 8cbd 0278 e53c
00000300: 9148 f83b 7953 ebbd 19f4 33bd 9294 09be
00000310: 2493 2fbd 5b8c 0c3d 9bbe a03d dd04 003e
00000320: 8912 8abd f0a6 833d 3858 d33c 96d0 0cbd
00000330: 6200 2a3d 3dc0 3a3d de20 ea3c 4239 d73c
00000340: ac08 8c3d 2ada af3d 24f2 8c3b cb5d a5bd
00000350: 9b72 a53d 57cf b4bd e8a6 3e3b 1364 5dbd
00000360: 3fbc a3bc e523 9d3c ed0e 883d 1e27 d63b
00000370: 0a70 ebbd 8e5e 62bd cc24 c5bd 568d ccbd
00000380: 8611 533d b176 53bd 13b1 b93d be40 09bb
00000390: deaf 13bd e426 a63d 54a5 9e3d f20e 683d
000003a0: 35ee 763d 4f64 c0bd 3606 80bd abc5 7c3c
000003b0: 1462 19bd 8662 e7bd 557f d93d e0ce 29bd
000003c0: ffef 2b3e cb33 adbb b0f5 b1bd 5dae 89bd
000003d0: 9fdb 743d 1bfd 64bd 2225 05be 46aa e03c
000003e0: d17a 593d 2af7 73bd b374 213e 4a9b 4a3d
000003f0: ac8f d43c 2409 15bd dd34 30be 6b78 bbbc
