src/util/AI/checkpoints/005.ckpt (torch, 353508 bytes, 14 tensors)

lstm.weight_ih_l0 f4 [256, 12]
-0.02782229 0.060835823 -0.15705326 0.035520095 0.06625474 0.07501735 0.07744917 0.010577261
-0.08929921 0.058984946 -0.061471134 -0.013762513 -0.15203331 0.022619877 -0.09121935 -0.11546877
-0.08137504 0.0129553415 0.10051757 0.11849693 0.08531433 0.04328541 -0.12698963 -0.016220175
0.084671564 0.1132468 0.048548937 0.13503191 0.09233694 0.17077534 0.13792431 -0.12119758
0.01319902 -0.048636798 0.060902037 -0.10730167 0.034005225 0.06714824 0.07439547 -0.19918235
-0.22393449 -0.013699972 0.16499734 0.01949422 -0.13065661 -0.043277536 0.2106655 -0.0062737404
0.045366593 -0.095012054 -0.0378882 -0.09084121 0.090811476 -0.032374922 0.025981368 0.121556684
0.12626486 0.058100577 -0.075716265 -0.027009603 0.041744933 0.05976154 0.008994766 0.11191735
0.021072675 -0.057811555 0.24252658 0.23759358 -0.00638288 0.038582586 -0.03904473 -0.011196853
0.12889524 0.0005154774 -0.15398662 -0.15064831 0.09470257 -0.027564544 -0.040188037 0.07446893
-0.027940566 0.0025345937 -0.010356816 0.0017159155 -0.085567825 0.09407715 0.0348614 0.046645608
0.08209339 0.07867727 0.05576187 0.16424023 -0.0056960266 0.01048078 0.017040087 -0.045647047
-0.061833855 -0.01291119 -0.14591756 0.060272656 0.0112884855 0.00910265 0.1574584 0.21972667
0.0312266 -0.036925476 -0.080181465 0.007827583 0.112107046 -0.01691202 0.08092543 0.053388532
-0.057419907 0.016289352 0.055957783 -0.120998025 -0.22745277 0.00060677214 -0.025117038 0.04702684
0.02578052 -0.073344335 -0.122361094 -0.04485514 0.17547151 0.017977286 0.107678965 0.08140292
0.12781389 0.03533489 0.11214655 -0.054734275 0.084898606 0.022096433 0.05680198 -0.08158848
0.09060651 -0.00522935 -0.06936826 -0.18567981 -0.23637097 0.060704112 0.17137425 0.05423189
0.05279205 0.004512551 -0.14270724 -0.060321037 0.04481516 0.12060065 -0.07688312 -0.22142783
-0.079271145 0.0060539707 -0.10395813 -0.05292127 0.026893148 0.064767376 0.04227058 -0.09670107
-0.12467229 -0.06460409 0.12550269 -0.101540804 -0.14451961 -0.054258335 -0.012330528 0.00031835338
-0.029161517 0.05996704 -0.11958797 0.0810986 -0.07779398 -0.07413874 0.09538331 0.02446255
-0.09482545 0.030181954 -0.016662257 0.026701326 -0.059796978 -0.029690271 0.11865138 0.021472655
0.13949357 0.000825972 -0.16790311 -0.01928779 -0.056603193 -0.11317769 -0.076563984 0.032562748
-0.053284824 0.06368838 0.031033548 0.10621021 0.031244738 0.07428522 -0.02500154 -0.1528449
-0.07040496 -0.041182023 -0.12367501 -0.068895236 -0.033299807 -0.016846167 -0.07313999 -0.22908339
-0.010346791 0.20998904 0.034710024 -0.17173028 0.01223202 0.00085593056 0.07552622 -0.14728788
-0.13487776 0.0020234867 -0.057007503 0.08045849 0.04700353 -0.12546323 -0.21548192 0.06880409
0.017326504 0.0643477 -0.20093864 -0.096552566 -0.24040274 -0.021618837 -0.10540285 -0.011908423
0.08020094 0.036088657 -0.042593688 -0.007938844 0.036372066 0.06366946 -0.039366458 0.033499967
-0.104546525 0.16516699 -0.03354168 -0.015328043 0.042246316 -0.0049733827 -0.06330461 0.095620714
-0.10545462 -0.12946737 0.02983745 0.023543661 -0.002677699 0.06981155 -0.107239835 0.0375202
00000000: 92eb e3bc fc2e 793d 92d2 20be 857d 113d
00000010: 91b0 873d b2a2 993d ac9d 9e3d 404c 2d3c
00000020: 81e2 b6bd 339a 713d 28c9 7bbd 2a7c 61bc
00000030: 9fae 1bbe 524d b93c 36d1 babd e47a ecbd
00000040: f5a7 a6bd a442 543c 28dc cd3d 85ae f23d
00000050: 48b9 ae3d 0b4c 313d 9209 02be 2ce0 84bc
00000060: 4968 ad3d f0ed e73d 40db 463d ce45 0a3e
00000070: 261b bd3d bbdf 2e3e 083c 0d3e 7036 f8bd
00000080: b440 583c 6137 47bd 6a74 793d fac0 dbbd
00000090: 1049 0b3d 0485 893d a75c 983d 75f6 4bbe
000000a0: 154f 65be d975 60bc 10f5 283e 58b2 9f3c
000000b0: d9ca 05be c943 31bd b2b8 573e f393 cdbb
000000c0: 52d2 393d ae95 c2bd a830 1bbd f50a babd
000000d0: 5efb b93d 919b 04bd e1d6 d43c b6f2 f83d
000000e0: 934b 013e dffa 6d3d 2111 9bbd 3e43 ddbc
000000f0: bcfc 2a3d 84c8 743d c85e 133c ec34 e53d
00000100: 9aa0 ac3c cfcb 6cbd e358 783e bb4b 733e
00000110: 7a27 d1bb c608 1e3d 5eed 1fbd 0173 37bc
00000120: 1dfd 033e 1a21 073a abae 1dbe 8d43 1abe
00000130: 6cf3 c13d 0acf e1bc 369c 24bd 2b83 983d
00000140: 9de3 e4bc 6d1b 263b a3af 29bc 92e8 e03a
00000150: 2f3e afbd 85ab c03d d4ca 0e3d 770f 3f3d
00000160: 9420 a83d 8c21 a13d 8f66 643d 972e 283e
00000170: bca5 babb 94b7 2b3c a797 8b3c 66f8 3abd
00000180: 7f45 7dbd 7589 53bc 6a6b 15be 76e0 763d
00000190: 57f3 383c 4823 153c c63c 213e 0700 613e
000001a0: edce ff3c 2b3f 17bd 2e36 a4bd 433f 003c
000001b0: 6198 e53d 148b 8abc 3bbc a53d efad 5a3d
000001c0: 2331 6bbd 3f71 853c fd33 653d d0cd f7bd
000001d0: 61e9 68be ca0f 1f3a 3fc2 cdbc 379f 403d
000001e0: ab31 d33c 8e35 96bd 7498 fabd 06ba 37bd
000001f0: ceae 333e 1a45 933c ca86 dc3d 93b6 a63d
00000200: a5e1 023e 51bb 103d 17ad e53d 0c31 60bd
00000210: 52df ad3d 9403 b53c 31a9 683d dc17 a7bd
00000220: e88f b93d f85a abbb f210 8ebd d922 3ebe
00000230: 3b0b 72be e0a4 783d bb7c 2f3e 4222 5e3d
00000240: 7a3c 583d 05de 933b d921 12be 3113 77bd
00000250: 1a90 373d 79fd f63d e674 9dbd fabd 62be
00000260: e958 a2bd 6360 c63b 00e8 d4bd f9c3 58bd
00000270: 054f dc3c c2a4 843d ea23 2d3d 360b c6bd
00000280: 3054 ffbd 264f 84bd c783 003e a0f4 cfbd
00000290: f3fc 13be fd3d 5ebd fc05 4abc abe8 a639
000002a0: 22e4 eebc 00a0 753d 8aea f4bd 0617 a63d
000002b0: 7352 9fbd 0dd6 97bd 5358 c33d b065 c83c
000002c0: d833 c2bd 2540 f73c 497f 88bc bdbc da3c
000002d0: aded 74bd 0339 f3bc 7fff f23d 6ce7 af3c
000002e0: 67d7 0e3e 0b86 583a cbee 2bbe 6d01 9ebc
000002f0: c0d8 67bd b4c9 e7bd 94cd 9cbd 8460 053d
00000300: 3041 5abd 0e6f 823d 113a fe3c bd84 d93d
00000310: f7f4 ff3c d922 983d 08d0 ccbc 6083 1cbe
00000320: 7a30 90bd 7bae 28bd 5349 fdbd f218 8dbd
00000330: 6165 08bd f900 8abc 6bca 95bd d694 6abe
00000340: 9685 29bc 5e07 573e 192c 0e3d 10da 2fbe
00000350: cf68 483c 8760 603a 7ead 9a3d a2d2 16be
00000360: 651d 0abe 799c 043b b380 69bd 6cc7 a43d
00000370: c686 403d 6f79 00be 4ba7 5cbe 29e9 8c3d
00000380: 50f0 8d3c bac8 833d dcc2 4dbe 5abd c5bd
00000390: 232c 76be fd19 b1bc 73dd d7bd 8c1b 43bc
000003a0: 6440 a43d b3d1 133d b876 2ebd ed11 02bc
000003b0: e0fa 143d 2265 823d b93e 21bd 4337 093d
000003c0: 7d1c d6bd 8921 293e 0063 09bd 7922 7bbc
000003d0: 790a 2d3d c2f7 a2bb d9a5 81bd cbd4 c33d
000003e0: 98f8 d7bd 1893 04be ab6d f43c a3de c03c
000003f0: 567c 2fbb 5cf9 8e3d 8fa0 dbbd c8ae 193d

lstm.weight_hh_l0 f4 [256, 64]
0.06799527 -0.05276869 0.17419204 -0.0026214272 0.096086346 0.2200272 -0.08820129 0.009664235
0.09760402 0.13627592 0.09327382 0.051292013 0.16550292 -0.09665594 0.1265302 0.005523632
-0.03265153 0.07989845 -0.012094176 0.043296963 0.0034423932 -0.09043941 0.022118038 0.019666303
0.15528777 -0.01772489 -0.14625603 0.02211174 0.06129265 0.07963883 -0.09235795 -0.074805275
-0.011491139 0.013233153 0.04301425 -0.08844354 0.0054320623 0.047055993 -0.08317218 0.049217
-0.059336293 -0.012206472 0.028041247 -0.09885081 -0.03326757 -0.16006568 -0.08659747 -0.11312444
0.10262213 0.06671786 0.07368004 0.115281604 -0.16827299 0.004933954 0.21339259 -0.10262275
0.028273 0.10194655 -0.11205104 -0.057122145 -0.051073354 0.10263821 0.05261056 0.11586669
0.024839208 -0.04845247 0.27214807 0.08516679 0.001336564 -0.10411732 -0.0023636967 -0.05467259
-0.11135443 -0.14803089 0.088670634 -0.00040878388 0.039026488 -0.07198913 -0.15519617 0.06330753
0.12356491 -0.18494442 0.13706712 0.06369478 0.17039214 -0.10977831 -0.16717246 0.0033745763
0.076124065 -0.1510557 0.062350318 0.13261887 -0.077906735 -0.17986561 -0.080020756 0.1459415
-0.10931832 -0.06947474 0.021185536 0.07024474 0.05455788 -0.03414331 -0.13124815 0.084542625
0.05326637 -0.19473594 -0.040246215 -0.1313926 -0.11731873 -0.18923548 -0.11448986 -0.07366598
-0.015894458 -0.0012198838 0.07576369 0.0042207064 -0.17209753 0.047058385 -0.074593656 0.20362896
-0.077343725 0.12505627 -0.15999511 0.061868075 0.0067457994 -0.02661295 0.062387794 -0.0772082
0.12650965 -0.24950905 -0.058588684 0.07678942 0.0020964048 0.068991445 -0.033269327 0.12934828
0.034403007 -0.036946245 0.028271591 0.052694365 0.15372519 -0.02918911 -0.07375282 0.077273555
-0.14185232 -0.033468798 0.15535727 -0.0061068833 -0.05993569 0.06157858 -0.012251528 0.05262369
-0.033098865 -0.14910132 -0.074962445 -0.10152353 -0.044495877 0.07631748 -0.18191193 -0.12808996
0.019878099 -0.034950912 0.091038145 0.008084632 0.06596202 0.119496025 -0.03295976 0.112676114
0.17138174 0.05067165 0.03542947 -0.02050872 0.01804979 0.12936369 -0.10288918 0.15125251
-0.07686777 0.007968531 0.01059859 -0.124550775 0.036894936 -0.13300979 -0.027516482 -0.13343503
-0.097192675 0.008494121 0.094707824 0.04171451 -0.08960689 -0.0030155827 -0.11842723 0.18569209
0.19670188 -0.2612623 0.12390564 -0.21651363 0.00982917 -0.1987182 -0.09589877 -0.0664646
0.09069599 -0.15280995 -0.0004486086 -0.049275033 -0.034112036 -0.002869597 -0.016676739 0.13615942
0.03656655 -0.06062757 -0.19553892 0.17265591 -0.06796573 -0.098030105 -0.11613582 0.11765977
0.051939204 -0.08963533 -0.14710863 0.19548035 0.100154504 -0.056707963 0.16250294 0.022315726
0.1649324 0.0019727615 0.008699319 0.086658835 -0.09135095 -0.0813161 -0.00035807095 0.06791686
0.11563483 0.12530984 0.026533868 -0.23916757 -0.026811205 0.15602334 0.019384785 0.24762157
0.049203694 -0.1689407 -0.105336964 0.102369055 -0.010432938 0.1054565 0.04297952 0.041891295
0.09330606 0.06998278 -0.21770628 -0.1609553 0.058319986 -0.23605572 0.12192623 0.03036295
00000000: 1b41 8b3d fb23 58bd 665f 323e 40cc 2bbb
00000010: ebc8 c43d cf4e 613e e1a2 b4bd bd56 1e3c
00000020: 9ee4 c73d ea8b 0b3e 5806 bf3d 9317 523d
00000030: 9979 293e 8df3 c5bd 2291 013e 95ff b43b
00000040: 9cbd 05bd cca1 a33d a726 46bc 2858 313d
00000050: c699 613b 4c38 b9bd e330 b53c 3a1b a13c
00000060: c203 1f3e ca33 91bc 24c4 15be ae23 b53c
00000070: 000e 7b3d af19 a33d 2a26 bdbd 8233 99bd
00000080: 5545 3cbc decf 583c b62f 303d e321 b5bd
00000090: 71ff b13b c9bd 403d 2d56 aabd c497 493d
000000a0: 9d0a 73bd a8fd 47bc c2b6 e53c 4b72 cabd
000000b0: 9343 08bd 42e8 23be 045a b1bd c9ad e7bd
000000c0: 8d2b d23d 60a3 883d 90e5 963d c318 ec3d
000000d0: c14f 2cbe 02ad a13b 9683 5a3e e02b d2bd
000000e0: c79c e73c 5ac9 d03d 047b e5bd e9f8 69bd
000000f0: 4b32 51bd fb33 d23d 2c7e 573d 844b ed3d
00000100: 987b cb3c 1976 46bd fe56 8b3e ed6b ae3d
00000110: a52f af3a 763b d5bd 40e8 1abb 5ef0 5fbd
00000120: cb0d e4bd 6995 17be f398 b53d 0b52 d6b9
00000130: 3dda 1f3d 096f 93bd bfeb 1ebe 61a7 813d
00000140: 990f fd3d 1262 3dbe 535b 0c3e 6972 823d
00000150: 477b 2e3e 73d3 e0bd 422f 2bbe ff27 5d3b
00000160: efe6 9b3d 58ae 1abe 0c63 7f3d 3ecd 073e
00000170: 918d 9fbd b12e 38be ece1 a3bd b071 153e
00000180: 49e2 dfbd c648 8ebd 4a8d ad3c 79dc 8f3d
00000190: 1578 5f3d dbd9 0bbd ea65 06be af24 ad3d
000001a0: d62d 5a3d dc68 47be 37d9 24bd c88b 06be
000001b0: cd44 f0bd f2c6 41be a979 eabd 30de 96bd
000001c0: 1835 82bc 82e4 9fba fe29 9b3d da4d 8a3b
000001d0: 563a 30be 4bc0 403d 8fc4 98bd 1c84 503e
000001e0: 6366 9ebd c00e 003e c2d5 23be 6169 7d3d
000001f0: de0b dd3b 6703 dabc 588a 7f3d 551f 9ebd
00000200: bf8b 013e 4d7f 7fbe b0fa 6fbd c543 9d3d
00000210: d663 093b 634b 8d3d 6b45 08bd e073 043e
00000220: 2bea 0c3d f254 17bd d399 e73c 0cd6 573d
00000230: 236a 1d3e 001e efbc b80b 97bd 9941 9e3d
00000240: bc41 11be 9416 09bd fa15 1f3e 401c c8bb
00000250: 207f 75bd d239 7c3d a2ba 48bc f08b 573d
00000260: ad92 07bd 04ae 18be e985 99bd 92eb cfbd
00000270: 4f41 36bd 574c 9c3d 1f47 3abe 042a 03be
00000280: 65d7 a23c b028 0fbd 3572 ba3d 6875 043c
00000290: 1817 873d 55ba f43d d000 07bd bcc2 e63d
000002a0: b27e 2f3e 138d 4f3d 7e1e 113d e701 a8bc
000002b0: 27dd 933c ea77 043e 90b7 d2bd f0e1 1a3e
000002c0: d96c 9dbd 718e 023c b5a5 2d3c 7a14 ffbd
000002d0: 251f 173d b833 08be 3f6a e1bc 31a3 08be
000002e0: f40c c7bd ed2a 0b3c 2df6 c13d d6dc 2a3d
000002f0: d183 b7bd 15a1 45bb fa89 f2bd 1126 3e3e
00000300: 386c 493e 2cc4 85be 3dc2 fd3d c0b5 5dbe
00000310: 870a 213c c97c 4bbe 9366 c4bd 981e 88bd
00000320: d2be b93d 367a 1cbe 3a33 ebb9 9ed4 49bd
00000330: 10b9 0bbd d90f 3cbb a89d 88bc 606d 0b3e
00000340: cfc6 153d 9d54 78bd 5b3b 48be b6cc 303e
00000350: 9e31 8bbd 02c4 c8bd 9ed8 edbd 9bf7 f03d
00000360: 34be 543d ba92 b7bd a5a3 16be 002c 483e
00000370: ce1d cd3d 9c46 68bd 2c67 263e 78cf b63c
00000380: 0ae4 283e 7249 013b 9787 0e3c 307a b13d
00000390: 3516 bbbd 0e89 a6bd 78bb bbb9 ff17 8b3d
000003a0: f4d1 ec3d 3951 003e 8e5d d93c 58e8 74be
000003b0: 2ca3 dbbc 95c4 1f3e d7cc 9e3c 8290 7d3e
000003c0: d089 493d cafe 2cbe e8ba d7bd dea6 d13d
000003d0: eaee 2abc 94f9 d73d 4b0b 303d 3596 2b3d
000003e0: 3f17 bf3d 2253 8f3d 65ee 5ebe 77d1 24be
000003f0: f0e0 6e3d 97b8 71be 76b4 f93d b9bb f83c

lstm.bias_ih_l0 f4 [256]
-0.013524143 -0.06649305 -0.07242218 -0.08974986 -0.09865636 0.0680968 0.037776463 0.08924498
0.113239594 -0.06962798 -0.009607001 -0.012727686 -0.052833773 -0.054695915 0.08211696 -0.032594655
-0.12242361 0.033134677 -0.020932354 -0.024329651 -0.016570186 0.113326006 -0.07016926 -0.053766243
0.053666037 0.03861197 -0.19354692 0.054564916 0.0886326 -0.039774254 0.055044275 0.08876078
0.09646594 -0.06093796 -0.021257179 0.114312 0.071908474 -0.06426079 -0.098648004 -0.13416165
-0.017829927 -0.04514784 0.08809192 0.112116545 0.032223642 -0.033067062 0.053617813 0.19578674
0.034119435 -0.051514782 -0.014757415 -0.06940529 -0.037108824 -0.05516451 0.055911805 -0.113538876
-0.23275681 -0.15321977 0.012072773 -0.07421708 0.0038934543 -0.009298675 0.14718339 0.059286073
-0.06263947 -0.04744008 -0.017056903 -0.15573348 0.10805295 -0.056583438 0.025162129 -0.06507378
-0.052308563 0.015337747 0.009214473 0.0717411 -0.12975508 -0.11208495 -0.005260595 0.045859735
-0.06695876 -0.0737712 0.009393781 0.0026850514 0.044492368 0.050889727 0.10671729 0.089559175
0.012867725 0.040367406 -0.026209526 0.07410829 0.049726103 0.18485112 -0.030120539 0.13407901
0.17496337 0.023726158 -0.015658097 0.098907724 0.103743486 -0.14105226 -0.027013244 -0.14961082
0.015072376 0.08331688 0.04659929 0.07936845 0.043156262 -0.025192257 0.05430343 0.020001018
-0.069959566 0.12425966 0.10565253 -0.06265619 0.06713553 0.055476487 -0.07156019 0.16376154
-0.003686359 -0.003822256 -0.056580495 -0.12954395 -0.08292758 -0.07457546 0.08637198 -0.0037598577
-0.008139414 -0.085484885 0.081877604 0.07247458 -0.022732165 0.070231624 0.022937367 -0.044452958
-0.17428482 -0.03716618 -0.10520009 -0.07715454 -0.0008442766 0.013031722 -0.015362795 0.06668885
0.06784349 0.082624346 -0.041776042 0.13345277 -0.057402562 0.045132544 0.107540034 0.13738632
0.026901172 0.055335697 0.17218281 0.058318153 0.025275072 -0.08164431 0.008791054 -0.08527529
0.14095293 -0.030782638 -0.06582552 -0.019257013 0.0995208 -0.071655154 -0.021222936 -0.024158282
0.119945385 0.010454728 -0.18818428 -0.046462707 0.045888774 -0.09121861 0.05416116 -0.07811317
-0.04278483 0.14215124 0.0664211 0.12215722 -0.013995696 0.118879996 -0.0010209507 -0.08306466
-0.052928086 0.12639429 0.11395193 0.040252242 -0.04369902 0.1139346 0.055053193 -0.08597126
0.06541588 -0.014074139 -0.020595923 0.07847049 -0.03699119 -0.05235794 -0.17095973 0.087158166
-0.07864939 -0.05951299 -0.04191295 0.017689366 0.00966199 -0.014353195 -0.18295585 0.018351123
-0.120670825 -0.020046 -0.11435186 0.06395483 -0.12242664 -0.079227835 0.00037697822 -0.030758109
-0.14389846 0.09975999 0.11173113 0.033839736 0.054895826 0.013062381 0.031226272 -0.10837406
0.009740383 -0.01022473 -0.06776517 -0.12622228 0.057008103 -0.10000126 0.020891394 -0.06000491
0.011918013 0.13809969 0.032113153 0.114408515 0.107730806 -0.05673572 -0.09733122 0.0022139018
-0.11333792 -0.09962846 -0.12882933 0.124185316 0.07776256 0.015282823 -0.07033646 -0.09575983
-0.074207455 0.04745755 -0.14673647 0.1362237 0.07582401 -0.08373407 0.031434532 -0.13020907
00000000: 5e94 5dbc 822d 88bd 1452 94bd c6ce b7bd
00000010: 580c cabd 5676 8b3d 7ebb 1a3d 12c6 b63d
00000020: 29ea e73d 1d99 8ebd af66 1dbc c987 50bc
00000030: 3a68 58bd d308 60bd f02c a83d f981 05bd
00000040: 3bb9 fabd 3ab8 073d 547a abbc fa4e c7bc
00000050: 33be 87bc 7717 e83d e7b4 8fbd fe39 5cbd
00000060: ebd0 5b3d 9627 1e3d 2a31 46be 767f 5f3d
00000070: 0285 b53d 54ea 22bd 1b76 613d 36c8 b53d
00000080: ef8f c53d 159a 79bd 8923 aebc 691c ea3d
00000090: c044 933d 299b 83bd f707 cabd ac61 09be
000000a0: 1110 92bc f1ec 38bd 8969 b43d 5c9d e53d
000000b0: f0fc 033d 5471 07bd 5a9e 5b3d 527c 483e
000000c0: d2c0 0b3d 2a01 53bd 16c9 71bc 5c24 8ebd
000000d0: 6cff 17bd 2ef4 61bd c703 653d 1287 e8bd
000000e0: cd57 6ebe a5e5 1cbe e1cc 453c 20ff 97bd
000000f0: 5329 7f3b 7859 18bc 3eb7 163e f4d5 723d
00000100: 1f49 80bd 8850 42bd ebba 8bbc 9978 1fbe
00000110: dd4a dd3d 09c4 67bd cf20 ce3c 6745 85bd
00000120: 8141 56bd 2c4b 7b3c 4df8 163c ffec 923d
00000130: 84de 04be cb8c e5bd 1261 acbb 6bd7 3b3d
00000140: ad21 89bd 5b15 97bd 60e8 193c b0f7 2f3b
00000150: a13d 363d bf71 503d 988e da3d cd6a b73d
00000160: 27d3 523c 4b58 253d 5cb5 d6bc 16c6 973d
00000170: 99ad 4b3d 9d49 3d3e 59bf f6bc 024c 093e
00000180: 9929 333e 5c5d c23c 6945 80bc 2290 ca3d
00000190: 7777 d43d 0170 10be e14a ddbc 9433 19be
000001a0: 20f2 763c 0aa2 aa3d e6de 3e3d ed8b a23d
000001b0: 9fc4 303d fe5f cebc 466d 5e3d 2dd9 a33c
000001c0: f646 8fbd d97b fe3d 5b60 d83d e351 80bd
000001d0: 5a7e 893d 503b 633d 268e 92bd 1bb1 273e
000001e0: d796 71bb d17e 7abb f3c0 67bd 2ba7 04be
000001f0: efd5 a9bd 05bb 98bd cbe3 b03d f267 76bb
00000200: 2d5b 05bc b312 afbd 72af a73d 8d6d 943d
00000210: ce38 babc 99d5 8f3d 25e7 bb3c 4e14 36bd
00000220: b877 32be 903b 18bd 2573 d7bd 3303 9ebd
00000230: 7252 5dba 0183 553c 3cb4 7bbc 2a94 883d
00000240: 87f1 8a3d f436 a93d 5b1d 2bbd d8a7 083e
00000250: f31e 6bbd e7dc 383d f33d dc3d 00af 0c3e
00000260: d95f dc3c afa7 623d b150 303e 04df 6e3d
00000270: ab0d cf3c 2235 a7bd 5a08 103c d0a4 aebd
00000280: f755 103e df2b fcbc 88cf 86bd e2c0 9dbc
00000290: 90d1 cb3d f0bf 92bd b9db adbc 97e7 c5bc
000002a0: eda5 f53d 4f4a 2b3c 61b3 40be ae4f 3ebd
000002b0: def5 3b3d d3d0 babd 18d8 5d3d ccf9 9fbd
000002c0: 253f 2fbd 1890 113e c907 883d 912d fa3d
000002d0: 344e 65bc 5b77 f33d 6cd1 85ba ce1d aabd
000002e0: 1fcb 58bd 816d 013e a15f e93d 89df 243d
000002f0: befd 32bd 8b56 e93d 757f 613d b311 b0bd
00000300: c3f8 853d 3897 66bc c8b8 a8bc 23b5 a03d
00000310: 1384 17bd 4775 56bd 1110 2fbe fb7f b23d
00000320: ee12 a1bd e5c3 73bd eaac 2bbd 4ae9 903c
00000330: 534d 1e3c aa29 6bbc c758 3bbe 1855 963c
00000340: 4422 f7bd 8237 a4bc 4f31 eabd c0fa 823d
00000350: d1ba fabd 3442 a2bd 29a5 c539 6ef8 fbbc
00000360: 1e5a 13be f74e cc3d 4ad3 e43d 899b 0a3d
00000370: 72da 603d 9903 563c 3dce ff3c 38f3 ddbd
00000380: 2196 1f3c a085 27bc 77c8 8abd 6a40 01be
00000390: 5481 693d 76cd ccbd 6e24 ab3c b5c7 75bd
000003a0: c543 433c 016a 0d3e 1589 033d 034f ea3d
000003b0: f8a1 dc3d b763 68bd 9755 c7bd 1c17 113b
000003c0: b61d e8bd 020a ccbd d6eb 03be df54 fe3d
000003d0: fa41 9f3d ce64 7a3c 900c 90bd bb1d c4bd
000003e0: 14fa 97bd d962 423d 1642 16be 3a7e 0b3e
000003f0: 9e49 9b3d c57c abbd 7fc1 003d 8755 05be

lstm.bias_hh_l0 f4 [256]
-0.11437446 -0.017442647 -0.04174593 -0.2243674 -0.1442026 -0.06325592 -0.012980847 0.12412362
0.10226766 0.10502308 0.105374806 -0.019403277 0.07813823 -0.003024986 0.0999302 0.06692087
0.04027873 -0.09425036 -0.12066852 0.06992905 0.029290322 0.16101043 0.026272696 -0.07107677
-0.11043976 -0.008873719 -0.024941295 -0.07402037 -0.051302806 0.008461179 0.016571002 -0.036848567
-0.11783177 -0.081064574 -0.0878444 0.050757863 -0.031163855 -0.003650616 0.008126293 0.03883078
-0.12458126 0.07805787 0.08673886 -0.10042669 0.09361642 -0.033510715 -0.0018954456 0.082888216
0.16653037 0.016848076 -0.16762683 -0.13202195 -0.0104190195 0.089521684 0.041902237 -0.07282978
-0.050495926 -0.13734789 0.04850222 0.065734215 0.04303284 0.17688347 -0.048119187 0.041592382
0.0032732964 0.056729667 -0.13009746 -0.009571715 -0.010659684 -0.10440306 -0.025263112 -0.06538914
-0.13068688 0.09827069 -0.05056565 -0.05507804 0.02683288 0.0019969398 -0.041062854 0.030415492
-0.018019427 0.073861696 0.04063222 -0.07536402 -0.10539846 -0.06472788 0.11870532 -0.051110294
0.06289986 0.120932035 -0.11029335 0.0049615395 0.0820306 0.15378162 0.09091118 0.048795342
-0.039073527 -0.007218203 0.092376456 -0.06138258 0.15819609 -0.049944308 -0.0077240397 -0.022547662
0.023055471 -0.12110107 -0.063273974 0.1323029 0.07199815 0.10062551 -0.035999827 0.145852
-0.019648982 0.20268033 0.10936981 0.031872574 0.034729376 0.043986462 0.012500052 0.11551084
-0.026965503 -0.0012535522 -0.016300406 -0.009035088 0.069170654 0.023325585 0.011133665 -0.04737144
0.08656558 0.096822806 -0.16143344 0.00840045 0.16094321 -0.0923305 0.029093893 0.09742435
-0.18177125 -0.050633274 0.07656355 0.063285805 -0.19536546 -0.014922731 -0.034180697 -0.056391552
0.003767373 0.16922542 0.043195043 -0.059461184 0.019609535 -0.07267439 0.18943104 0.09500939
0.08382832 0.11754283 0.009450039 -0.08084266 -0.028266117 -0.002146193 0.0072303 0.041273326
0.06688701 0.08636571 -0.12878884 0.056617975 0.035632353 0.01464993 -0.10330634 0.089954495
-0.035607986 0.0012583231 -0.05410413 0.13570516 -0.044244796 0.13953309 0.0454366 -0.04227576
0.011874973 0.01808951 0.09005778 0.01741821 0.13833006 0.0016930061 -0.011464478 -0.124063954
-0.111131765 0.1868002 -0.08409425 0.015796203 -0.11619485 0.045225997 0.09057461 -0.11668017
0.1397604 0.0978771 -0.07145591 -0.0628801 0.10996711 -0.07431119 0.0009456499 -0.081313126
-0.11645292 0.06587818 0.1438192 -0.012306652 0.010337275 0.06070459 -0.055922586 0.019120798
0.05445321 0.072050475 0.051571917 -0.15869492 0.083186075 -0.06304706 0.109067775 -0.027626352
0.032794856 0.057949834 0.10609837 -0.108090535 0.11165636 0.12706767 -0.14403854 0.12820634
0.066669084 0.08109627 0.0012423368 -0.07051336 -0.0078115687 0.08631706 -0.008887454 -0.04100442
-0.05205927 0.108984336 0.07241853 0.0125946235 0.05519835 0.0021243605 -0.05430157 0.14477748
-0.026142886 0.0024917193 0.09642603 -0.011234048 -0.055228397 0.046404622 -0.07026769 0.05461547
-0.032803275 -0.029306637 0.015543094 0.05510454 0.12623517 -0.017813025 0.026346352 0.07575322
00000000: 283d eabd e2e3 8ebc c8fd 2abd 91c0 65be
00000010: d9a9 13be 528c 81bd 9ead 54bc 8634 fe3d
00000020: b571 d13d 5716 d73d bfce d73d 9ff3 9ebc
00000030: f006 a03d d83e 46bb 34a8 cc3d cf0d 893d
00000040: 4ffb 243d 5506 c1bd 0f21 f7bd f636 8f3d
00000050: 42f2 ef3c ebdf 243e d639 d73c b390 91bd
00000060: 3e2e e2bd 1363 11bc b051 ccbc fe97 97bd
00000070: e422 52bd c2a0 0a3c e9bf 873c 86ee 16bd
00000080: c851 f1bd 2f05 a6bd c4e7 b3bd 7ae7 4f3d
00000090: 574b ffbc 2c3f 6fbb 2524 053c 060d 1f3d
000000a0: 7624 ffbd cedc 9f3d 25a4 b13d 82ac cdbd
000000b0: f7b9 bf3d 8842 09bd 9a70 f8ba 4cc1 a93d
000000c0: f086 2a3e fa04 8a3c 5ea6 2bbe c330 07be
000000d0: 89b4 2abc 2557 b73d aea1 2b3d c827 95bd
000000e0: d1d4 4ebd eda4 0cbe 44aa 463d a99f 863d
000000f0: 3443 303d f120 353e a018 45bd c65c 2a3d
00000100: cd84 563b 5e5d 683d 4538 05be afd2 1cbc
00000110: f5a5 2ebc 46d1 d5bd 96f4 cebc beea 85bd
00000120: c8d2 05be 2542 c93d ed1d 4fbd 8399 61bd
00000130: a1d0 db3c 17df 023b 8631 28bd e929 f93c
00000140: 7a9d 93bc cd44 973d f96d 263d 7458 9abd
00000150: 26db d7bd 0d90 84bd c61b f33d 0759 51bd
00000160: a4d1 803d 37ab f73d 7be1 e1bd 6994 a23b
00000170: a9ff a73d ee78 1d3e a42f ba3d a0dd 473d
00000180: 900b 20bd ad86 ecbb de2f bd3d 4d6c 7bbd
00000190: 28fe 213e 6792 4cbd f119 fdbb e0b5 b8bc
000001a0: d4de bc3c d603 f8bd c995 81bd 697a 073e
000001b0: c473 933d bf14 ce3d 8e74 13bd 3a5a 153e
000001c0: e7f6 a0bc 6f8b 4f3e 47fd df3d d18c 023d
000001d0: 6440 0e3d 262b 343d 05cd 4c3c f390 ec3d
000001e0: c2e6 dcbc 3b4e a4ba 6e88 85bc e807 14bc
000001f0: 58a9 8d3d 4c15 bf3c fa69 363c 8e08 42bd
00000200: 4b49 b13d 094b c63d cf4e 25be 0ba2 093c
00000210: 4cce 243e c617 bdbd 5156 ee3c 6b86 c73d
00000220: 3e22 3abe d664 4fbd 5acd 9c3d fd9b 813d
00000230: e20d 48be 787e 74bc 0f01 0cbd d4fa 66bd
00000240: 08e6 763b 6e49 2d3e 49ed 303d 928d 73bd
00000250: 2da4 a03c 50d6 94bd 36fa 413e 4894 c23d
00000260: 2fae ab3d 4cba f03d 56d4 1a3c d690 a5bd
00000270: 588e e7bc 25a7 0cbb 27ec ec3b 380e 293d
00000280: 0ffc 883d 81e0 b03d 39e1 03be 40e8 673d
00000290: 3bf3 113d 4306 703c 4692 d3bd 103a b83d
000002a0: aed9 11bd 51ee a43a 4b9c 5dbd 4bf6 0a3e
000002b0: 083a 35bd c3e1 0e3e ba1b 3a3d 5929 2dbd
000002c0: 3f8f 423c 7430 943c 3770 b83d a2b0 8e3c
000002d0: 65a6 0d3e dce7 dd3a 82d5 3bbc 3e15 febd
000002e0: 0d99 e3bd 8d48 3f3e 9b39 acbd 0a67 813c
000002f0: 91f7 edbd e53e 393d 2e7f b93d 03f6 eebd
00000300: 5a1d 0f3e ca73 c83d 7a57 92bd 48c7 80bd
00000310: 7036 e13d 7730 98bd 7ee5 773a 7f87 a6bd
00000320: de7e eebd 24eb 863d 5745 133e d7a1 49bc
00000330: ad5d 293c 60a5 783d 150f 65bd 38a3 9c3c
00000340: 540a 5f3d 338f 933d 133d 533d ec80 22be
00000350: 765d aa3d d11e 81bd ed5e df3d a950 e2bc
00000360: e653 063d ce5c 6d3d 1a4a d93d 925e ddbd
00000370: 17ac e43d 071e 023e d77e 13be 8648 033e
00000380: cd89 883d cd15 a63d e8d5 a23a 4f69 90bd
00000390: 30f8 ffbb 00c7 b03d af9c 11bc 40f4 27bd
000003a0: 1a3c 55bd 2e33 df3d 2b50 943d ae59 4e3c
000003b0: aa17 623d db38 0b3b 536b 5ebd 8c40 143e
000003c0: 9b29 d6bc 1d4c 233b 037b c53d 030f 38bc
000003d0: 2c37 62bd c612 3e3d 82e8 8fbd 79b4 5f3d
000003e0: ba5c 06bd 7914 f0bc 76a8 7e3c 4cb5 613d
000003f0: cb43 013e 9fec 91bc 4ed4 d73c 8124 9b3d

lstm.weight_ih_l1 f4 [256, 64]
-0.116051145 -0.25394621 -0.02027944 -0.15466203 -0.10879122 0.07259684 0.009564276 0.028754491
0.039150644 -0.09584839 0.0598114 -0.07765795 0.09841735 -0.04073268 -0.08602104 -0.119234435
-0.04739228 -0.012382214 0.080734454 -0.02054609 -0.05493479 0.10277362 -0.007951241 -0.13971947
-0.05762277 -0.026135772 -0.2641377 0.060816277 0.031215865 -0.0503357 -0.13136622 -0.16297546
-0.06650531 -0.0810135 0.023585519 -0.07208858 -0.078197345 -0.061087415 -0.051774003 0.14980675
0.020451004 0.051587004 -0.057299007 -0.0054553975 -0.09440681 -0.030680489 -0.04282776 -0.16468164
-0.006788721 0.065723926 -0.057442065 -0.07137815 -0.015962955 0.046466395 0.057492837 0.057864245
0.030819068 0.005170532 -0.042721506 0.022893112 -0.08429982 0.07153705 0.06728306 0.14689581
-0.05341065 0.043951266 0.05200369 0.012453163 0.1003175 0.1092336 0.10582609 -0.023746828
0.033646904 0.1297777 0.10043249 -0.0063391617 -0.07823886 -0.09141767 -0.040231757 0.009151319
0.049156085 0.0912988 0.16148879 0.09015361 -0.1099198 0.15220004 0.06765155 0.012344286
-0.0020438205 0.027686607 0.049788497 0.09235734 0.16138035 0.18839912 0.084310584 0.0058733365
-0.12956765 -0.07640549 0.0029543901 0.013377931 0.029069744 0.13170786 -0.044601742 -0.10864809
-0.12929884 -0.14471038 0.0064687985 0.054034855 0.10557202 -0.020388382 -0.11144274 -0.16350053
-0.05420834 0.2137104 -0.15264198 0.044600364 -0.072440535 0.034621105 0.1294986 -0.023254992
0.12527338 0.008009651 -0.09278732 -0.117444485 0.11704798 -0.050821528 -0.037414342 0.0693236
-0.05600501 0.06907827 0.084715895 -0.024531709 0.040006064 -0.102319635 0.025892824 -0.12406217
-0.08044638 -0.08319549 -0.022900833 -0.08558888 0.07276578 0.045425292 -0.011279656 0.033772837
0.02707608 0.0012218518 -0.09029942 -0.10295166 -0.0132146925 -0.1143035 0.10722165 -0.005544749
-0.013252989 -0.06456133 -0.096917264 0.04138497 -0.08275653 0.0045181634 -0.14057326 0.046753794
0.09029537 0.02425747 -0.06844798 0.057950027 -0.1308474 0.025349485 -0.01827129 0.10334992
-0.077337734 -0.051976737 -0.060851246 -0.04240064 -0.010430817 -0.12994957 -0.069712676 0.0744376
-0.07192991 0.03205805 -0.0064872485 -0.0033712918 -0.009482153 -0.20819598 -0.04950395 0.05917902
-0.03996269 0.10844523 -0.11193691 -0.062366143 -0.015823273 0.14426698 -0.0061965827 -0.009663471
-0.007866075 -0.11242065 0.023223815 -0.1417777 0.14900838 0.081776164 0.08043646 -0.13239327
-0.017656948 -0.08164073 0.053216066 0.020832503 0.16840878 -0.10756582 0.10203319 -0.043303963
-0.19639026 -0.07429374 0.33544394 0.062103458 0.02804288 -0.038440365 0.06428764 0.07269464
0.087586604 -0.018246368 -0.03856663 -0.14219065 0.11620796 0.021491803 -0.14845788 -0.001435738
0.014589939 -0.15147914 -0.048046283 0.15243335 0.06567868 0.022996185 0.08293336 0.07400145
-0.024101486 0.114390776 -0.061770417 -0.058002107 -0.054201644 0.07901518 0.0016514678 -0.09889581
0.09429352 -0.09158146 0.13003697 0.020516466 0.13463096 -0.14507212 0.03591608 0.08885298
-0.029400993 -0.12778154 -0.0156100495 -0.0028450415 -0.0025891764 0.04618055 0.14298227 0.093480915
00000000: 39ac edbd 3d05 82be 1121 a6bc b95f 1ebe
00000010: eecd debd a7ad 943d 7bb3 1c3c 8a8e eb3c
00000020: 6d5c 203d 294c c4bd ccfc 743d 220b 9fbd
00000030: 098f c93d 50d7 26bd cd2b b0bd 2f31 f4bd
00000040: 681e 42bd c5de 4abc 1b58 a53d 4650 a8bc
00000050: 4d03 61bd fa7a d23d ec45 02bc 9f12 0fbe
00000060: db05 6cbd b01a d6bc 0e3d 87be 7d1a 793d
00000070: 6ab8 ff3c cf2c 4ebd de84 06be 0ae3 26be
00000080: f033 88bd 68ea a5bd 6b36 c13c 2da3 93bd
00000090: ee25 a0bd cc36 7abd fa10 54bd f166 193e
000000a0: dd88 a73c e54c 533d 5db2 6abd 31c3 b2bb
000000b0: 5c58 c1bd a655 fbbc 296c 2fbd 4ea2 28be
000000c0: eb73 debb 449a 863d 5f48 6bbd b52e 92bd
000000d0: bec4 82bc 8c53 3e3d 9c7d 6b3d 0f03 6d3d
000000e0: 4578 fc3c 916d a93b bffc 2ebd 568a bb3c
000000f0: 62a5 acbd 0482 923d b3cb 893d db6b 163e
00000100: 20c5 5abd 3e06 343d d201 553d 5a08 4c3c
00000110: 4373 cd3d deb5 df3d 59bb d83d b588 c2bc
00000120: 56d1 093d 72e4 043e 8daf cd3d beb8 cfbb
00000130: b23b a0bd 3039 bbbd 0eca 24bd 6aef 153c
00000140: e457 493d defa ba3d 515d 253e 75a2 b83d
00000150: a21d e1bd 54da 1b3e e58c 8a3d b03f 4a3c
00000160: 9ef1 05bb 06cf e23c 06ef 4b3d d825 bd3d
00000170: e440 253e b3eb 403e 07ab ac3d 1e75 c03b
00000180: 62ad 04be 7b7a 9cbd 719e 413b 1c2f 5b3c
00000190: ac23 ee3c 6dde 063e 51b0 36bd e482 debd
000001a0: ea66 04be f52e 14be 37f8 d33b a753 5d3d
000001b0: 2536 d83d 8905 a7bc 173c e4bd af6c 27be
000001c0: 9009 5ebd e6d6 5a3e 2e4e 1cbe dfae 363d
000001d0: b45b 94bd dcce 0d3d 489b 043e 4181 bebc
000001e0: aa47 003e e93a 033c 4707 bebd bc86 f0bd
000001f0: dab6 ef3d 3c2a 50bd c83f 19bd 88f9 8d3d
00000200: 8265 65bd e878 8d3d 877f ad3d b9f6 c8bc
00000210: 66dd 233d f58c d1bd 301d d43c 4f14 febd
00000220: 12c1 a4bd 6662 aabd 879a bbbc 3949 afbd
00000230: 3a06 953d df0f 3a3d 4ece 38bc 6355 0a3d
00000240: a8ce dd3c 8b26 a03a e7ee b8bd 52d8 d2bd
00000250: 7082 58bc f417 eabd 0697 db3d bab0 b5bb
00000260: 1123 59bc bb38 84bd 8f7c c6bd 4983 293d
00000270: 417c a9bd 1a0d 943b 70f2 0fbe e880 3f3d
00000280: c7ec b83d 9ab7 c63c 742e 8cbd 025d 6d3d
00000290: dcfc 05be b9a9 cf3c acad 95bc 1fa9 d33d
000002a0: 3f63 9ebd 8fe5 54bd 283f 79bd 4bac 2dbd
000002b0: 04e6 2abc 8011 05be 85c5 8ebd be72 983d
000002c0: fd4f 93bd 4d4f 033d fc92 d4bb e4f0 5cbb
000002d0: 085b 1bbc 5431 55be a7c4 4abd b365 723d
000002e0: ebaf 23bd 8818 de3d 2e3f e5bd a473 7fbd
000002f0: cf9f 81bc b9ba 133e b40c cbbb 8953 1ebc
00000300: b6e0 00bc cc3c e6bd df3f be3c 2c2e 11be
00000310: a795 183e 437a a73d dfbb a43d 1a92 07be
00000320: 4ea5 90bc 4133 a7bd 17f9 593d eda8 aa3c
00000330: 5a73 2c3e 784b dcbd c7f6 d03d 7f5f 31bd
00000340: 871a 49be 5127 98bd 4fbf ab3e 3260 7e3d
00000350: 2fba e53c a573 1dbd 3da9 833d ede0 943d
00000360: 9b60 b33d 6879 95bc 0bf8 1dbd 6d9a 11be
00000370: 70fe ed3d 940f b03c 5805 18be 602f bcba
00000380: a40a 6f3c 591d 1bbe 2ecc 44bd 7d17 1c3e
00000390: 8b82 863d 7f62 bc3c f7d8 a93d 128e 973d
000003a0: 7b70 c5bc b645 ea3d fa02 7dbd 9e93 6dbd
000003b0: 8b02 5ebd b6d2 a13d 1076 d83a e389 cabd
000003c0: f61c c13d 0f8f bbbd 6928 053e 2612 a83c
000003d0: b3dc 093e c98d 14be bd1c 133d 8df8 b53d
000003e0: 5ada f0bc 2ad9 02be 4bc1 7fbc e073 3abb
000003f0: 2caf 29bb d127 3d3d f269 123e ec72 bf3d

lstm.weight_hh_l1 f4 [256, 64]
-0.03640061 -0.031799555 0.07472091 -0.022776928 0.0859338 -0.24724028 0.08465873 -0.015674802
0.09509951 0.089423954 0.016167987 0.09772122 -0.065428965 -0.15937905 -0.031412903 -0.1681943
-0.082274266 -0.026259761 -0.008667291 -0.09720918 0.063309595 0.07672418 0.08056338 0.01710514
0.18582503 -0.09865259 -0.057674423 0.1152233 -0.111681014 0.05199392 0.08481573 0.13020034
-0.016510477 -0.056798205 0.03749782 0.026794214 0.05390992 0.049070694 0.089183085 -0.014646235
0.009819182 0.18134625 -0.035774294 0.057892974 0.017184518 0.008716484 0.14673294 -0.14412144
-0.08296895 0.17819868 0.09981587 0.11815062 -0.15871105 -0.0119512975 0.027086006 -0.051462762
-0.15602335 -0.083243616 0.0025188182 -0.046498198 -0.051634703 -0.07377935 0.08427764 0.21965888
0.06375571 0.029042788 0.07737588 -0.12521249 0.023123272 -0.072432876 -0.11123003 0.005091168
-0.061869014 -0.13087586 0.063966595 -0.1214125 0.111566424 -0.03786586 -0.19703259 -0.089132816
0.099564604 -0.009996977 0.07146652 -0.13818237 -0.11863582 0.04350134 -0.060048588 -0.012140684
-0.058899548 -0.026038228 0.00029068507 -0.079233795 0.0467053 0.024961917 -0.072810255 0.021255683
-0.0099753365 0.039952647 -0.1221415 -0.099094406 -0.09218759 -0.034977105 -0.11996486 -0.17021865
-0.118507385 -0.17480585 0.00864182 -0.22962205 -0.09614506 -0.13603957 -0.038094193 0.0076275426
-0.19314936 -0.059900276 0.15258077 -0.08325139 0.15268701 0.004174409 0.10079622 0.10687226
0.07802407 -0.031966697 -0.053957734 0.040121496 -0.0755917 0.08090327 -0.064670384 -0.12144394
0.1142585 -0.033035666 -2.074585e-05 -0.0056279753 0.05252703 -0.14027943 -0.045399997 0.012413366
0.03775515 -0.124968395 0.025772559 -0.04502405 -0.004362819 0.04401211 0.026943455 0.11539933
0.07847868 0.029600386 0.016563974 0.09639813 0.07580811 -0.10932735 0.020644516 -0.010177877
-0.03561884 0.04338471 0.11655069 -0.025203532 -0.039028168 -0.058976192 0.103042915 -0.037178684
0.05018137 -0.13095589 -0.0755021 0.1215676 0.078881405 -0.064185105 0.0721885 -0.18225949
0.13133514 -0.1845936 0.11505736 -0.021781167 0.1354489 -0.13116932 0.013293743 0.057686638
-0.030822296 -0.09493185 0.096225664 -0.08641232 0.1191238 0.008314718 0.0073175933 -0.058317594
-0.11025101 0.10132814 0.030516995 -0.05203155 -0.090927154 -0.12991641 -0.054778423 0.03693158
-0.037217595 -0.13796759 0.059403032 -0.048640117 -0.08961792 -0.0043311715 -0.05762993 -0.07782004
0.18879604 -0.021322869 0.1303085 0.057247315 -0.058110595 -0.19047216 0.16264208 -0.15789118
0.11613524 -0.088166945 -0.017869947 0.03717641 0.15015326 0.0905829 0.17211567 -0.11848566
0.07519352 0.11881981 0.18896154 -0.055091612 -0.08523706 0.0016591845 -0.02356305 0.12679523
0.016074693 0.051981207 -0.06743894 0.1271918 0.13781816 0.23747084 0.19321936 -0.086654
0.01437182 -0.11024725 -0.03566457 -0.0028465427 0.11250437 0.037096106 0.20577726 -0.14994703
-0.067821726 -0.02087584 0.0695177 0.04761024 -0.17391974 0.05262971 -0.0053165667 -0.0041792
-0.19140933 0.023345463 0.038424566 -0.089552924 -0.206255 -0.055378713 0.0025227345 0.045803864
00000000: ce18 15bd 4040 02bd 4707 993d ae96 babc
00000010: 0ffe af3d 8e2c 7dbe 8e61 ad3d 7168 80bc
00000020: 88c3 c23d e823 b73d ba72 843c 1022 c83d
00000030: 9fff 85bd 4334 23be d1aa 00bd 203b 2cbe
00000040: 697f a8bd b61e d7bc 4101 0ebc 9b15 c7bd
00000050: 76a8 813d 9121 9d3d 6afe a43d 1420 8c3c
00000060: eb48 3e3e 5e0a cabd 043c 6cbd 32fa eb3d
00000070: 04b9 e4bd 94f7 543d dfb3 ad3d 3d53 053e
00000080: fb40 87bc 3ca5 68bd 5097 193d 8a7f db3c
00000090: a6d0 5c3d 5afe 483d 9fa5 b63d c3f6 6fbc
000000a0: a2e0 203c d5b2 393e 1188 12bd 2f21 6d3d
000000b0: 8cc6 8c3c 95cf 0e3c 2941 163e 9294 13be
000000c0: a0eb a9bd b779 363e 436c cc3d f4f8 f13d
000000d0: 2685 22be 60cf 43bc 79e3 dd3c 9eca 52bd
000000e0: 96c4 1fbe a17b aabd c212 253b e574 3ebd
000000f0: e97e 53bd a119 97bd c199 ac3d 42ee 603e
00000100: 5b92 823d 24eb ed3c 3f77 9e3d b437 00be
00000110: 046d bd3c b057 94bd 92cc e3bd d0d3 a63b
00000120: 5d6a 7dbd 5204 06be eb00 833d 1ea7 f8bd
00000130: f07c e43d 3b19 1bbd e9c2 49be 448b b6bd
00000140: 87e8 cb3d 5cca 23bc 0a5d 923d ae7f 0dbe
00000150: 56f7 f2bd 762e 323d 82f5 75bd b8e9 46bc
00000160: a740 71bd 1f4e d5bc 1767 9839 5445 a2bd
00000170: 0f4e 3f3d ef7c cc3c 8b1d 95bd 6620 ae3c
00000180: 986f 23bc 63a5 233d 5325 fabd 02f2 cabd
00000190: d9cc bcbd 2744 0fbd 23b0 f5bd cc4d 2ebe
000001a0: 00b4 f2bd 4e00 33be 6c96 0d3c 0b22 6bbe
000001b0: b4e7 c4bd f54d 0bbe a808 1cbd 77f0 f93b
000001c0: f2c8 45be fe59 75bd 223e 1c3e b47f aabd
000001d0: fc59 1c3e 7bc9 883b 406e ce3d d8df da3d
000001e0: 15cb 9f3d 83ef 02bd c902 5dbd 7056 243d
000001f0: d2cf 9abd 9db0 a53d e871 84bd 9ab7 f8bd
00000200: 5c00 ea3d 6850 07bd 6007 aeb7 e16a b8bb
00000210: 9526 573d 69a5 0fbe 59f5 39bd 6e61 4b3c
00000220: 25a5 1a3d 6eef ffbd f920 d33c 236b 38bd
00000230: faf5 8ebb 0b46 343d 85b8 dc3c 7c56 ec3d
00000240: 6eb9 a03d 827c f23c 2cb1 873c 626c c53d
00000250: 4841 9b3d 05e7 dfbd b01e a93c 1cc1 26bc
00000260: 10e5 11bd 2ab4 313d 21b2 ee3d a377 cebc
00000270: 00dc 1fbd 0591 71bd 2a08 d33d ad48 18bd
00000280: fb8a 4d3d 4d19 06be d8a0 9abd 6ff8 f83d
00000290: 938c a13d 7b73 83bd 90d7 933d 3ba2 3abe
000002a0: b87c 063e 1b06 3dbe 31a3 eb3d 6b6e b2bc
000002b0: 1eb3 0a3e 4051 06be 00ce 593c d348 6c3d
000002c0: 0a7f fcbc a16b c2bd f611 c53d f1f8 b0bd
000002d0: 2ef7 f33d 743a 083c 6cc8 ef3b 6ede 6ebd
000002e0: 48cb e1bd 2185 cf3d c7fe f93c 091f 55bd
000002f0: 0438 babd cf08 05be 575f 60bd 9245 173d
00000300: 7a71 18bd 6047 0dbe 9850 733d dc3a 47bd
00000310: 9a89 b7bd 80ec 8dbb 5d0d 6cbd 1d60 9fbd
00000320: c053 413e 4cad aebc 976f 053e 297c 6a3d
00000330: 6005 6ebd 220b 43be a58b 263e 3aae 21be
00000340: 50d8 ed3d df90 b4bd ff63 92bc 4b46 183d
00000350: c7c1 193e 8783 b93d 173f 303e 9ca8 f2bd
00000360: 0fff 993d cd57 f33d 227f 413e bea7 61bd
00000370: c590 aebd fe78 d93a 4c07 c1bc 9cd6 013e
00000380: 13af 833c 3fea 543d 6d1d 8abd 913e 023e
00000390: 3420 0d3e 8e2b 733e 4cdb 453e a777 b1bd
000003a0: c877 6b3c 4fc9 e1bd 0315 12bd 108d 3abb
000003b0: b168 e63d 16f2 173d 46b7 523e b78b 19be
000003c0: 1ee6 8abd cf03 abbc 4c5f 8e3d f402 433d
000003d0: 0418 32be 4092 573d 9836 aebb acf1 88bb
000003e0: cf00 44be fc3e bf3c 1463 1d3d 8667 b7bd
000003f0: 8334 53be cad4 62bd 7654 253b d59c 3b3d

lstm.bias_ih_l1 f4 [256]
0.04063971 -0.09477949 -0.07960602 -0.05673169 -0.006591315 -0.026874732 -0.042866506 0.09245927
-0.028832229 -0.19289757 -0.11883757 -0.10668961 0.04435765 -0.076717734 -0.10459103 -0.0526641
0.029143773 0.030838437 0.055201538 -0.09535663 0.07809984 -0.10301867 0.0044492427 -0.0649486
0.101852454 0.06408167 0.0013922572 0.044327382 0.08295212 -0.025539357 0.10869599 0.1219779
-0.16484256 -0.19793932 -0.10536266 -0.06707298 -0.08479525 -0.063321136 -0.12682177 0.09395821
-0.01785174 -0.050709754 0.08293515 0.067055866 -0.1324889 -0.113033384 -0.09313192 0.003178601
0.11104367 -0.109374315 -0.007523108 0.00651991 -0.087579876 0.0287786 -0.051009458 -0.027155258
-0.10103145 -0.10547141 -0.035865705 0.04246402 0.110606454 -0.075512245 0.052380376 0.09502247
-0.0628669 -0.07103878 -0.11136561 -0.13714997 -0.0276277 -0.089924924 -0.10980289 0.070263885
0.11532604 0.04596991 -0.0008882591 -0.008641828 -0.031353325 0.009998078 -0.05783244 0.12533145
-0.04814371 -0.03071131 0.1117298 0.07567255 -0.069223225 -0.0035699336 -0.038350258 -0.020702163
0.016995488 -0.023483135 -0.049639158 -0.04909543 0.04224581 -0.08566888 0.07826024 -0.1061945
0.050600618 -0.18838936 0.02707191 -0.13322978 -0.1724856 0.18566895 -0.04724161 0.100778125
-0.06591133 0.040363632 -0.07001239 -0.036825318 0.02789223 -0.16839789 0.08807575 -0.031114222
0.15120761 0.07987844 0.03901931 0.09943543 -0.05547465 0.01174257 0.000268487 -0.17441612
-0.12899382 0.021178754 -0.024504965 -0.03149161 0.037877176 0.04198858 -0.055462092 0.10546702
-0.06965832 -0.058531024 -0.06428465 -0.0021549358 -0.009163513 0.08818202 0.13797651 0.025640396
0.09203157 -0.05876749 0.0494947 0.08609598 -0.1257259 -0.096804485 -0.039982926 0.09386328
0.0055798204 -0.09682687 0.116626866 0.065731585 -0.058843844 -0.04365401 -0.052397225 0.020150155
0.052000858 0.034389935 0.077125974 -0.02396228 -0.11754811 -0.03247473 -0.15876609 -0.11975288
0.07967455 0.016258776 0.123595804 0.06274419 0.12520903 -0.07788036 0.022631114 0.060439073
-0.06407642 0.09240737 -0.14853528 0.04571433 -0.032017075 0.065771624 0.07364077 0.0806371
0.049213763 0.09646023 -0.098967105 0.051749736 -0.112944886 -0.13096373 -0.034202687 -0.09497854
-0.06268771 -0.111967385 0.117823094 -0.05686561 0.1099349 -0.083947636 -0.07338347 0.019911714
-0.010596025 -0.13886002 -0.02664473 -0.15048467 -0.043033 0.04760047 0.080261044 0.13344131
-0.07285564 0.054886732 0.0107779 -0.0474991 0.017006196 0.0704773 0.04111315 0.016397899
0.033047512 0.0830689 0.004702515 -0.071286835 0.07921111 -0.060117427 0.0155459475 -0.05480053
-0.011956367 0.014827191 0.05011824 0.018292798 -0.12744561 -0.048966885 -0.105854064 -0.08841092
0.039001323 -0.05178538 0.11083491 -0.011879666 -0.03319672 0.12623437 0.059824184 0.047470227
0.073387966 -0.093581356 -0.055936277 0.013054169 -0.056297153 -0.13316083 0.114444315 -0.029535362
0.17339215 -0.014950765 -0.0890267 -0.063781925 0.040434748 -0.046057113 -0.14681512 0.018546253
0.03670102 -0.059127636 0.1665389 0.065669596 0.02173289 -0.052374642 -0.15968107 -0.009205715
00000000: d375 263d c01b c2bd 7b08 a3bd 7d5f 68bd
00000010: f5fb d7bb 6628 dcbc ca94 2fbd 495b bd3d
00000020: 9131 ecbc f186 45be 1d61 f3bd 1580 dabd
00000030: 5eb0 353d 301e 9dbd d233 d6bd 50b6 57bd
00000040: ecbe ee3c e4a0 fc3c 021b 623d 564a c3bd
00000050: cff2 9f3d 74fb d2bd f4ca 913b c603 85bd
00000060: 0598 d03d 403d 833d 667c b63a a190 353d
00000070: cde2 a93d ea37 d1bc 019c de3d 8dcf f93d
00000080: 7dcc 28be 9bb0 4abe 61c8 d7bd 8f5d 89bd
00000090: 22a9 adbd 83ae 81bd 91dd 01be 296d c03d
000000a0: d03d 92bc 08b5 4fbd e7d9 a93d 9654 893d
000000b0: 2cab 07be 0c7e e7bd f3bb bebd 1350 503b
000000c0: dd6a e33d a4ff dfbd 6784 f6bb f8a4 d53b
000000d0: 145d b3bd 19c1 eb3c 4bef 50bd b474 debc
000000e0: 94e9 cebd 6501 d8bd ebe7 12bd c1ee 2d3d
000000f0: a385 e23d 2aa6 9abd ce8c 563d 249b c23d
00000100: 5cc0 80bd c87c 91bd a713 e4bd 0b71 0cbe
00000110: 7c53 e2bc 8f2a b8bd 56e0 e0bd 83e6 8f3d
00000120: 0f30 ec3d f24a 3c3d 0fda 68ba 7496 0dbc
00000130: 586c 00bd fbce 233c b5e1 6cbd e356 003e
00000140: 5732 45bd 4996 fbbc 98d2 e43d 36fa 9a3d
00000150: e8c4 8dbd 8cf5 69bb 2915 1dbd 9597 a9bc
00000160: 1f3a 8b3c b45f c0bc 6e52 4bbd 4a18 49bd
00000170: f109 2d3d 2a73 afbd e846 a03d 817c d9bd
00000180: 9842 4f3d 24e9 40be e9c5 dd3c 636d 08be
00000190: 11a0 30be 0020 3e3e 6b80 41bd c364 ce3d
000001a0: 85fc 86bd 5654 253d a862 8fbd 25d6 16bd
000001b0: 3f7e e43c 7f70 2cbe 0f61 b43d 41e3 febc
000001c0: 2bd6 1a3e 4f97 a33d b6d2 1f3d cda4 cb3d
000001d0: 6339 63bd e963 403c b7c3 8c39 249a 32be
000001e0: f516 04be 117f ad3c a3be c8bc 59fd 00bd
000001f0: 1925 1b3d 38fc 2b3d 382c 63bd 18ff d73d
00000200: 05a9 8ebd 3abe 6fbd aca7 83bd d339 0dbb
00000210: 8f22 16bc c698 b43d b749 0d3e cf0b d23c
00000220: 0c7b bc3d 2eb6 70bd f4ba 4a3d 1753 b03d
00000230: 4abe 00be 6e41 c6bd 23c5 23bd 643b c03d
00000240: edd6 b63b 2b4d c6bd 11da ee3d 489e 863d
00000250: 3e06 71bd 8cce 32bd 799e 56bd f011 a53c
00000260: dafe 543d 76dc 0c3d 39f4 9d3d 8b4c c4bc
00000270: 10bd f0bd 3904 05bd 9493 22be ff40 f5bd
00000280: 692c a33d 2031 853c cc1f fd3d 0780 803d
00000290: cc36 003e bd7f 9fbd e364 b93c f68e 773d
000002a0: 803a 83bd 1340 bd3d a219 18be f33e 3b3d
000002b0: 5624 03bd 46b3 863d f9d0 963d 1025 a53d
000002c0: 5f94 493d f18c c53d 44af cabd 88f7 533d
000002d0: a64f e7bd 5b1b 06be 1e18 0cbd 1c84 c2bd
000002e0: 6a62 80bd 284f e5bd 3c4d f13d eaeb 68bd
000002f0: 8d25 e13d bdec abbd 134a 96bd e41d a33c
00000300: f39a 2dbc 5231 0ebe 0c46 dabc a718 1abe
00000310: 5f43 30bd b6f8 423d e75f a43d d7a4 083e
00000320: 5635 95bd e9d0 603d ca95 303c 6b8e 42bd
00000330: 9450 8b3c 6756 903d 4366 283d e354 863c
00000340: d45c 073d 0720 aa3d 8e17 9a3b d5fe 91bd
00000350: 6f39 a23d b13d 76bd 6eb4 7e3c 8576 60bd
00000360: a3e4 43bc bfed 723c c948 4d3d c7da 953c
00000370: 1a81 02be 8091 48bd 04ca d8bd c910 b5bd
00000380: dabf 1f3d e81c 54bd 6afd e23d eea2 42bc
00000390: 49f9 07bd 9543 013e 340a 753d 2470 423d
000003a0: 6e4c 963d 95a7 bfbd 701d 65bd 27e1 553c
000003b0: d897 66bd 505b 08be c861 ea3d 25f4 f1bc
000003c0: b68d 313e 0ef4 74bc a153 b6bd 19a0 82bd
000003d0: e89e 253d 62a6 3cbd b456 16be 50ee 973c
000003e0: cf53 163d d22f 72bd 2c89 2a3e c87d 863d
000003f0: 2c09 b23c cb86 56bd 6f83 23be 91d3 16bc
