src/util/AI/checkpoints/006.ckpt (torch, 353508 bytes, 14 tensors)

lstm.weight_ih_l0 f4 [256, 12]
-0.03283582 0.059461564 -0.15240115 0.043944504 0.078706354 0.076448254 0.07785433 0.01184951
-0.08879961 0.053615995 -0.070892364 -0.0065956274 -0.15499045 0.013737181 -0.09424922 -0.12427534
-0.089888245 -0.003238631 0.10722068 0.109745234 0.084619865 0.051250335 -0.10907046 -0.006645594
0.083159514 0.11500475 0.04791763 0.13387972 0.093178146 0.17407459 0.13902502 -0.117327176
0.014852865 -0.041405026 0.05097296 -0.11149313 0.003144465 0.064605474 0.0842469 -0.19484316
-0.22355993 -0.0030471762 0.1635312 0.016283525 -0.14138994 -0.05674433 0.2153056 -0.011448558
0.054670934 -0.076041795 -0.026898758 -0.09163632 0.0821342 -0.027269134 0.034861453 0.12863588
0.116706826 0.03811638 -0.10120917 -0.05552034 0.049956836 0.05735406 0.02486809 0.10654576
0.023070546 -0.053183768 0.2340804 0.24087292 -0.0062071155 0.012590862 -0.04005517 -0.010710932
0.11075227 0.00876727 -0.16553089 -0.1596274 0.08456076 -0.02922379 -0.05289694 0.08924427
-0.032856744 -0.02051133 -0.007444919 -0.015062865 -0.07522257 0.10441388 0.04320631 0.05549739
0.08282785 0.082082674 0.04758394 0.16438207 -0.007691652 -0.004524745 -0.0045668907 -0.054560468
-0.035753343 0.007810671 -0.15421398 0.055170067 0.00037637688 0.02005149 0.16267955 0.21657479
0.03960657 -0.030297764 -0.09534963 -0.014247272 0.09445611 -0.020108888 0.08158745 0.05917881
-0.046512183 0.02498788 0.07157636 -0.13380441 -0.23155786 0.0032940346 -0.017484909 0.072488256
0.0234205 -0.07211674 -0.11986053 -0.04647231 0.17743231 0.029154679 0.11159637 0.092653856
0.13039564 0.03004411 0.10403657 -0.061091717 0.078269094 0.029934736 0.045571793 -0.09659512
0.079401374 0.000206586 -0.056606453 -0.18565203 -0.24462382 0.06753257 0.18322004 0.043838248
0.05637258 0.006686055 -0.1505507 -0.05539703 0.043556213 0.11745206 -0.08680497 -0.21234427
-0.08823531 -0.0047747046 -0.08992101 -0.075050674 0.024551004 0.058918748 0.03314729 -0.10450096
-0.13728021 -0.075490676 0.11792911 -0.112124614 -0.15636796 -0.06058686 -0.01799416 0.0010265992
-0.038199738 0.060305268 -0.10389629 0.085797176 -0.07113909 -0.06100564 0.1033288 0.03467591
-0.08997495 0.02686604 -0.015571106 0.02733389 -0.059258945 -0.03369992 0.13029549 0.023591917
0.13753721 -0.005088647 -0.16306797 -0.0151807275 -0.055519484 -0.11496349 -0.067588635 0.045061767
-0.065988466 0.057960834 0.034396067 0.11006902 0.035172086 0.07599352 -0.002856269 -0.13978592
-0.06973987 -0.036629666 -0.11188234 -0.058700547 -0.042560622 -0.018482124 -0.084014736 -0.2304057
0.004017424 0.2103873 0.025434252 -0.16568477 0.03441634 0.015233788 0.09951443 -0.12595636
-0.14367875 0.0006854449 -0.068542056 0.07140009 0.04013565 -0.13139236 -0.2177262 0.06589738
0.014586332 0.06574918 -0.18773383 -0.09461771 -0.22704594 -0.028639302 -0.10374681 -0.008800117
0.08945371 0.034167327 -0.046392154 -0.00905913 0.04351061 0.06612814 -0.046645787 0.04221561
-0.094369434 0.17753795 -0.027086904 -0.002105695 0.03311668 -0.00997351 -0.056226935 0.0952865
-0.10800942 -0.14145984 0.012759765 0.01701433 -0.0019209139 0.068756424 -0.108858615 0.036871817
00000000: da7e 06bd f88d 733d 0c0f 1cbe 27ff 333d
00000010: cc30 a13d e790 9c3d 1772 9f3d 7224 423c
00000020: 92dc b5bd 729c 5b3d 0430 91bd 2220 d8bb
00000030: d1b5 1ebe ea11 613c bc05 c1bd 1284 febd
00000040: 5417 b8bd 363f 54bb 8496 db3d 1cc2 e03d
00000050: 2e4d ad3d dfeb 513d 5560 dfbd 48c3 d9bb
00000060: 894f aa3d 9c87 eb3d 4745 443d c417 093e
00000070: 2fd4 be3d 9c40 323e 935c 0e3e 3b49 f0bd
00000080: 6e59 733c 5198 29bd 06c9 503d 8356 e4bd
00000090: 5e13 4e3b e04f 843d a489 ac3d f784 47be
000000a0: e5ec 64be 22b3 47bb b974 273e 0765 853c
000000b0: 86c8 10be be6c 68bd 1279 5c3e bc92 3bbc
000000c0: a1ee 5f3d cdbb 9bbd c95a dcbc d3ab bbbd
000000d0: fa35 a83d 8563 dfbc e2ca 0e3d 20b9 033e
000000e0: fd03 ef3d ec1f 1c3d c146 cfbd 4c69 63bd
000000f0: 8a9f 4c3d 17ec 6a3d 2ab8 cb3c aa34 da3d
00000100: 71fe bc3c 39d7 59bd c6b2 6f3e 64a7 763e
00000110: 0f65 cbbb e749 4e3c e410 24bd e87c 2fbc
00000120: 16d2 e23d 98a4 0f3c ee80 29be 5d75 23be
00000130: 312e ad3d bb66 efbc 76aa 58bd b3c5 b63d
00000140: cb94 06bd 6007 a8bc 82f4 f3bb 3cca 76bc
00000150: 4a0e 9abd f2d6 d53d 1af9 303d 3b51 633d
00000160: a6a1 a93d f61a a83d 61e7 423d c653 283e
00000170: 410a fcbb 5044 94bb dba5 95bb cc7a 5fbd
00000180: 1972 12bd a8f0 ff3b 45ea 1dbe 02fa 613d
00000190: 7354 c539 0643 a43c 7895 263e c8c5 5d3e
000001a0: 803a 223d 0433 f8bc ab46 c3bd 646d 69bc
000001b0: 3472 c13d 65bb a4bc 5217 a73d 7b65 723d
000001c0: 8f83 3ebd 62b3 cc3c a096 923d 0604 09be
000001d0: 811d 6dbe bbe0 573b 833c 8fbc b974 943d
000001e0: 59dc bf3c f1b1 93bd 7079 f5bd c059 3ebd
000001f0: d1b0 353e cbd5 ee3c a38c e43d 4ec1 bd3d
00000200: 6f86 053e 111f f63c 2011 d53d 4f3b 7abd
00000210: 8c4b a03d b139 f53c 7da9 3a3d aad3 c5bd
00000220: 309d a23d 029f 5839 2bdc 67bd 911b 3ebe
00000230: ab7e 7abe 844e 8a3d 099e 3b3e bc8f 333d
00000240: efe6 663d b216 db3b f629 1abe ffe7 62bd
00000250: 0068 323d b58a f03d cec6 b1bd c770 59be
00000260: b7b4 b4bd 2075 9cbb 8228 b8bd 2bb4 99bd
00000270: 301f c93c c954 713d 74c5 073d 9904 d6bd
00000280: 2f93 0cbe db9a 9abd d184 f13d 97a1 e5bd
00000290: ec1e 20be ed29 78bd 7d68 93bc f48e 863a
000002a0: 5477 1cbd a802 773d 94c7 d4bd 6eb6 af3d
000002b0: 5fb1 91bd 0de1 79bd 0d9e d33d 5408 0e3d
000002c0: c944 b8bd 2b16 dc3c f41d 7fbc 52eb df3c
000002d0: 82b9 72bd ed08 0abd 2e6c 053e d643 c13c
000002e0: 8ed6 0c3e aabe a6bb 4afb 26be 96b8 78bc
000002f0: 6668 63bd fa71 ebbd e96b 8abd b092 383d
00000300: f624 87bd 5768 6d3d e4e2 0c3d de6b e13d
00000310: 9b10 103d 7ea2 9b3d 3e30 3bbb 0a24 0fbe
00000320: c7d3 8ebd fd08 16bd 9122 e5bd fc6f 70bd
00000330: 0c54 2ebd d367 97bc eb0f acbd 79ef 6bbe
00000340: 98a4 833b c56f 573e 7e5b d03c 45a9 29be
00000350: 26f8 0c3d 2397 793c 39ce cb3d b4fa 00be
00000360: 8620 13be 6eaf 333a c75f 8cbd 363a 923d
00000370: 4865 243d b88b 06be 9ef3 5ebe 35f5 863d
00000380: 83fb 6e3c 82a7 863d 4c3d 40be eec6 c1bd
00000390: bb7e 68be f89c eabc 3579 d4bd 5e2e 10bc
000003a0: 8233 b73d 0af3 0b3d b305 3ebd bf6c 14bc
000003b0: 2e38 323d 316e 873d a70f 3fbd 47ea 2c3d
000003c0: c344 c1bd 82cc 353e 5be5 ddbc b3ff 09bb
000003d0: 5ba5 073d ef67 23bc 374e 66bd 9225 c33d
000003e0: 0b34 ddbd d9da 10be 550e 513c a361 8b3c
000003f0: 2dc7 fbba 2bd0 8c3d 44f1 debd e706 173d

lstm.weight_hh_l0 f4 [256, 64]
0.06932381 -0.05743099 0.18035126 -0.007270756 0.10306122 0.23652309 -0.09493626 0.00734035
0.113091074 0.13849565 0.09085396 0.044493552 0.16756138 -0.09560984 0.13196403 0.017374016
-0.02219798 0.08488126 -0.010223205 0.048029944 -0.016201576 -0.08997283 0.013714378 0.025266165
0.15654305 -0.01684546 -0.15175766 0.035802104 0.06382773 0.07682095 -0.0893834 -0.07040653
-0.01608327 0.010918325 0.04493093 -0.09796487 0.008827866 0.0409059 -0.07916354 0.052000023
-0.0626223 -0.009063649 0.03036059 -0.1043978 -0.039914332 -0.15914771 -0.092435025 -0.10266322
0.11418926 0.06550526 0.08047024 0.099344574 -0.16732547 0.007562336 0.2200209 -0.11727162
0.007342177 0.09933482 -0.11713176 -0.054432698 -0.04894391 0.10426491 0.042694077 0.11979753
0.03449135 -0.05116507 0.2807944 0.09332121 -0.015941495 -0.11990721 -0.0104425615 -0.06433125
-0.09765291 -0.15417059 0.09249602 -0.01221797 0.03587943 -0.08620167 -0.15864128 0.07127279
0.11739361 -0.19722861 0.14121093 0.077938356 0.17609552 -0.118414395 -0.17928231 0.0039558015
0.07410229 -0.14905544 0.067004815 0.14231522 -0.07177545 -0.19363125 -0.070523605 0.15364349
-0.13112204 -0.08757138 0.020482384 0.06895328 0.040278975 -0.042290717 -0.13104387 0.08736084
0.035876997 -0.18462987 -0.02059061 -0.137439 -0.09105634 -0.17464937 -0.12821598 -0.059804413
-0.016760468 -0.015454202 0.07917503 0.027259143 -0.18028896 0.07376072 -0.07129117 0.22007602
-0.06931278 0.121140055 -0.17460082 0.058043793 0.017190265 -0.045642607 0.07427298 -0.076790415
0.13522686 -0.2578204 -0.059381943 0.07552491 0.0030539185 0.069164515 -0.033925116 0.13270718
0.040843077 -0.044136208 0.031048132 0.059419952 0.15974979 -0.021724792 -0.07054228 0.077026695
-0.13693024 -0.020205721 0.17332079 -0.0057656784 -0.05980709 0.06657165 0.0066194483 0.053957954
-0.02170526 -0.15204157 -0.074884854 -0.09521314 -0.05372163 0.07832867 -0.18670239 -0.12948465
0.023283675 -0.021649202 0.08785271 0.007895332 0.057451777 0.12053505 -0.03257438 0.106979534
0.17904338 0.04912447 0.033615142 -0.027016364 0.017924575 0.12442559 -0.102858394 0.15767306
-0.073147446 0.004836856 0.015157611 -0.12468524 0.04789393 -0.13708007 -0.02573329 -0.13372877
-0.09868039 0.003756138 0.10218094 0.04240098 -0.091042265 0.0030536666 -0.1193919 0.17921409
0.21698228 -0.28128573 0.12205303 -0.23407632 0.014019445 -0.2260062 -0.10028497 -0.061454058
0.101009265 -0.17023437 0.015567499 -0.050458718 -0.029402278 -0.010593421 -0.0039573098 0.13771692
0.029044501 -0.025408871 -0.18544595 0.1648266 -0.06212672 -0.11735553 -0.14790623 0.12609328
0.03492587 -0.0958053 -0.14200467 0.20688114 0.117442764 -0.073008046 0.16726562 -0.033413608
0.19987343 0.026317718 0.016270917 0.071916424 -0.09212319 -0.08850269 -0.039867733 0.07922589
0.1403417 0.13107096 0.0058371443 -0.24581823 -0.015942812 0.15765096 0.063560076 0.2685259
0.06808492 -0.17467979 -0.08613193 0.097068645 -0.013651695 0.0889445 0.06984342 0.05274123
0.11309097 0.05368127 -0.24788044 -0.17521146 0.067658015 -0.25465196 0.1959464 0.014867068
00000000: a4f9 8d3d c23c 6bbd 00ae 383e 863f eebb
00000010: c311 d33d 1c33 723e f16d c2bd 5287 f03b
00000020: 4b9c e73d ced1 0d3e a411 ba3d df3e 363d
00000030: 3695 2b3e 17cf c3bd 9421 073e f453 8e3c
00000040: 8ad8 b5bc 3ad6 ad3d 3b7f 27bc 0cbb 443d
00000050: 2bb9 84bc ad43 b8bd 45b2 603c fdfa ce3c
00000060: d24c 203e 7dff 89bc 5c66 1bbe 3aa5 123d
00000070: 1db8 823d 4d54 9d3d a50e b7bd 4c31 90bd
00000080: 10c1 83bc c6e2 323c 7f09 383d cea1 c8bd
00000090: c1a2 103c f28c 273d 7e20 a2bd fafd 543d
000000a0: 1f40 80bd b37f 14bc c6b6 f83c 84ce d5bd
000000b0: 367d 23bd 9ef7 22be 934e bdbd 1841 d2bd
000000c0: 0fdc e93d 9f27 863d 95cd a43d 2b75 cb3d
000000d0: 5e57 2bbe 79cd f73b 294d 613e 1a2c f0bd
000000e0: a596 f03b 0e70 cb3d c7e2 efbd d2f4 5ebd
000000f0: 6979 48bd d788 d53d fcdf 2e3d 6858 f53d
00000100: cd46 0d3d 7792 51bd 49c4 8f3e 311f bf3d
00000110: bd97 82bc e991 f5bd 4717 2bbc 1ac0 83bd
00000120: 40fe c7bd e5de 1dbe 8e6e bd3d e12d 48bc
00000130: 4ff6 123d 808a b0bd dc72 22be 78f7 913d
00000140: 106c f03d 4cf6 49be 9999 103e 259e 9f3d
00000150: 6252 343e 3f83 f2bd c895 37be ab9f 813b
00000160: f1c2 973d fda1 18be d239 893d 15bb 113e
00000170: 02ff 92bd 4547 46be ae6e 90bd b854 1d3e
00000180: db44 06be a058 b3bd acca a73c 6137 8d3d
00000190: 91fb 243d 0839 2dbd 5d30 06be 3dea b23d
000001a0: c2f3 123d 9d0f 3dbe a4ad a8bc cfbc 0cbe
000001b0: bf7b babd 49d7 32be 0d4b 03be 79f5 74bd
000001c0: 404d 89bc 9f33 7dbc 8526 a23d 914e df3c
000001d0: ab9d 38be dc0f 973d 1b01 92bd 9c5b 613e
000001e0: dcf3 8dbd 4718 f83d 8fca 32be 54bf 6d3d
000001f0: 99d2 8c3c bef3 3abd 6f1c 983d 4b44 9dbd
00000200: e978 0a3e 0901 84be 7b3a 73bd ceac 9a3d
00000210: 4024 483b 20a6 8d3d 10f5 0abd 64e4 073e
00000220: 124b 273d 2bc8 34bd a758 fe3c 5662 733d
00000230: 7395 233e 31f8 b1bc 7978 90bd 2cc0 9d3d
00000240: 7137 0cbe 7886 a5bc 017b 313e 04ee bcbb
00000250: 47f8 74bd b856 883d f5e7 d83b 0403 5d3d
00000260: 3bcf b1bc c9b0 1bbe 3b5d 99bd 1bff c2bd
00000270: 360b 5cbd c86a a03d e92e 3fbe a097 04be
00000280: 68bd be3c ab59 b1bc 1fec b33d 6c5b 013c
00000290: 8e52 6b3d 15db f63d b76c 05bd 1618 db3d
000002a0: 2657 373e be36 493d 08b0 093d 6c51 ddbc
000002b0: 8fd6 923c d8d2 fe3d 6ca7 d2bd 0c75 213e
000002c0: 54ce 95bd 7d7e 9e3b a157 783c fa5a ffbd
000002d0: 6d2c 443d b85e 0cbe 9fce d2bc 32f0 08be
000002e0: f218 cabd 8a29 763b 3e44 d13d a6ac 2d3d
000002f0: 5e74 babd 0620 483b be83 f4bd e683 373e
00000300: 9a30 5e3e af04 90be f0f6 f93d b4b1 6fbe
00000310: d0b1 653c 2b6e 67be 3562 cdbd 40b7 7bbd
00000320: f2dd ce3d eb51 2ebe d30e 7f3c cdad 4ebd
00000330: 0cdd f0bc 0790 2dbc 52ac 81bb aa05 0d3e
00000340: bcee ed3c 4426 d0bc 8be5 3dbe 4ec8 283e
00000350: 9678 7ebd 1958 f0bd bb74 17be 991e 013e
00000360: 6e0e 0f3d 9235 c4bd ac69 11be a6d8 533e
00000370: d585 f03d 3e85 95bd ae47 2b3e b5dc 08bd
00000380: 9fab 4c3e 4198 d73c 964a 853c eb48 933d
00000390: 15ab bcbd e640 b5bd 594c 23bd 2f41 a23d
000003a0: bcb5 0f3e 7737 063e 8445 bf3b c6b7 7bbe
000003b0: 809a 82bc 416f 213e c92b 823d 3a7c 893e
000003c0: 1b70 8b3d 42df 32be f065 b0bd edcb c63d
000003d0: 5cab 5fbc 8928 b63d 110a 8f3d 3007 583d
000003e0: 3d9c e73d e4e0 5b3d 5fd4 7dbe a26a 33be
000003f0: 4990 8a3d be61 82be 2ca6 483e 0195 733c

lstm.bias_ih_l0 f4 [256]
-0.016540557 -0.0791539 -0.07013051 -0.0865705 -0.084832214 0.06608474 0.04581472 0.09292757
0.1392681 -0.06862479 -0.011924338 -0.0055178395 -0.05028124 -0.0629199 0.08745169 -0.03396183
-0.13087954 0.020682935 -0.02941858 -0.027044956 -0.010601538 0.107871935 -0.061008606 -0.053277563
0.058563292 0.0322444 -0.19606254 0.0577796 0.093096785 -0.044575486 0.06413221 0.08615744
0.092887774 -0.06123762 -0.010544709 0.108995646 0.066075735 -0.072686575 -0.08614252 -0.12781267
-0.024670882 -0.043051764 0.08972074 0.10285801 0.038269423 -0.03762482 0.044883244 0.19910863
0.034883786 -0.06426505 -0.020915642 -0.07062571 -0.022673003 -0.045726128 0.054206673 -0.106415994
-0.23940746 -0.17204125 0.030392949 -0.07409393 -0.009915871 -0.0080599375 0.14869559 0.075702325
-0.062897526 -0.049386073 -0.016222943 -0.13875644 0.120092936 -0.06088582 0.031933527 -0.06871169
-0.056173623 0.025049008 0.0075747683 0.06898257 -0.12967287 -0.11890453 -0.013329663 0.041270733
-0.06465994 -0.08121933 0.010536367 0.012823373 0.035553828 0.05658505 0.118312776 0.08868764
0.020382358 0.042072684 -0.03476078 0.0833244 0.0573599 0.18709527 -0.038794287 0.13617128
0.16191901 0.022486623 -0.00060273736 0.10527789 0.12019075 -0.14241333 -0.01679874 -0.14948933
0.021870784 0.08350081 0.039980344 0.07836741 0.04863195 -0.028497316 0.051287517 0.019943412
-0.054786384 0.12730043 0.101446755 -0.06212821 0.080093816 0.05145808 -0.07662732 0.16254285
-0.01453523 -0.009138623 -0.054579563 -0.13240854 -0.0944598 -0.06760415 0.07887253 -0.0009813556
-0.007147051 -0.085979626 0.07128604 0.065359056 -0.035554625 0.066192344 0.003323815 -0.047708493
-0.18697223 -0.043663852 -0.10593696 -0.08570835 0.003021109 0.0010474853 -0.0104071 0.06501927
0.059560474 0.07808083 -0.048961177 0.14509179 -0.061969858 0.044897567 0.13214241 0.14040926
0.031947847 0.06200647 0.16936857 0.06262883 0.025530757 -0.09453685 0.00797185 -0.08826338
0.14883982 -0.03780096 -0.048712704 -0.015258363 0.08644201 -0.07218396 -0.020085337 -0.021497497
0.12034634 0.016931918 -0.20562243 -0.05642638 0.025927907 -0.08315486 0.06205148 -0.06867226
-0.019770302 0.15487412 0.056603942 0.13176054 -0.023778686 0.12703474 0.006559453 -0.09158137
-0.060604382 0.1298711 0.10262752 0.04366836 -0.023270711 0.110496104 0.053263437 -0.07838007
0.069627754 -0.017428504 -0.014271067 0.09729078 -0.026716342 -0.045619577 -0.17587991 0.09471784
-0.09323099 -0.051581953 -0.03979934 0.022033708 0.00045992588 -0.014498109 -0.17231008 0.027141795
-0.11713066 -0.023651628 -0.12080826 0.06604758 -0.113652624 -0.09046461 0.0019667575 -0.036171135
-0.1423676 0.11381943 0.1061373 0.039391823 0.059257004 0.0137415035 0.03137579 -0.11383611
0.01614751 -0.017019495 -0.066382736 -0.12471762 0.05396552 -0.10879414 0.02315155 -0.037542444
-1.01053665e-05 0.13891785 0.038650267 0.11899841 0.0969424 -0.06073398 -0.101640694 -0.0061651673
-0.10222746 -0.10964495 -0.123785846 0.12733653 0.08166546 0.03175941 -0.07861947 -0.089570895
-0.080614254 0.048240203 -0.14160936 0.116122544 0.07981561 -0.08733789 0.023705134 -0.12818775
00000000: 1080 87bc 711b a2bd 96a0 8fbd e04b b1bd
00000010: 83bc adbd 7057 873d 37a8 3b3d cf50 be3d
00000020: 4c9c 0e3e 278b 8cbd 4c5e 43bc fece b4bb
00000030: b4f3 4dbd 26dc 80bd df19 b33d 8f1b 0bbd
00000040: 4905 06be 426f a93c 3cff f0bc 628d ddbc
00000050: 13b2 2dbc f6eb dc3d 29e4 79bd 9339 5abd
00000060: 10e0 6f3d b412 043d 9ec4 48be 4daa 6c3d
00000070: 87a9 be3d c994 36bd c057 833d 5073 b03d
00000080: f23b be3d 4cd4 7abd b7c3 2cbc 1c39 df3d
00000090: b752 873d b3dc 94bd 7d6b b0bd 53e1 02be
000000a0: 971a cabc 0c57 30bd 82bf b73d 38a7 d23d
000000b0: 66c0 1c3d 7c1c 1abd 7ed7 373d 22e3 4b3e
000000c0: 4de2 0e3d 659d 83bd 4857 abbc 36a4 90bd
000000d0: bcbc b9bc 524b 3bbd d107 5e3d a1f0 d9bd
000000e0: 3b27 75be 952b 30be a2fa f83c 8fbe 97bd
000000f0: 2d76 22bc d40d 04bc a843 183e d209 9b3d
00000100: 6bd0 80bd 0d49 4abd fae5 84bc 2b16 0ebe
00000110: 49f3 f53d 6963 79bd bbcc 023d b7b8 8cbd
00000120: 5016 66bd 9433 cd3c c335 f83b bc46 8d3d
00000130: f7c8 04be 3884 f3bd a964 5abc 800b 293d
00000140: 6e6c 84bd 5256 a6bd baa0 2c3c 2019 523c
00000150: e4a0 113d bac5 673d f84d f23d dea1 b53d
00000160: e7f8 a63c 6854 2c3d 5261 0ebd fca5 aa3d
00000170: 37f2 6a3d e795 3f3e c2e6 1ebd 7c70 0b3e
00000180: 19ce 253e de35 b83c 0501 1eba ef9b d73d
00000190: 9126 f63d cdd4 11be 839d 89bc bb13 19be
000001a0: 5c2a b33c 7902 ab3d 6ec2 233d 187f a03d
000001b0: 4c32 473d 3473 e9bc dc12 523d 5e60 a33c
000001c0: b067 60bd 0b5b 023e 51c3 cf3d 267a 7ebd
000001d0: 3a08 a43d b5c5 523d c9ee 9cbd a271 263e
000001e0: 2c25 6ebc 2aba 15bc d28e 5fbd 1b96 07be
000001f0: 2474 c1bd 0b74 8abd ec87 a13d d4a0 80ba
00000200: cf31 eabb 1616 b0bd 6afe 913d f8da 853d
00000210: baa1 11bd da8f 873d 5dd4 593b fb69 43bd
00000220: a675 3fbe ded8 32bd 7af5 d8bd dc87 afbd
00000230: ccfd 453b c64b 893a 8b82 2abc d328 853d
00000240: aff5 733d d8e8 9f3d 848b 48bd f192 143e
00000250: 1bd4 7dbd 83e6 373d 5750 073e 72c7 0f3e
00000260: bfdb 023d 7ffa 7d3d f46e 2d3e 8b43 803d
00000270: e125 d13c 899c c1bd 5d9c 023c 6ec3 b4bd
00000280: 7769 183e 2ed5 1abd f986 47bd 37fe 79bc
00000290: 8208 b13d 2fd5 93bd 018a a4bc 851b b0bc
000002a0: 2478 f63d ceb4 8a3c b08e 52be 591f 67bd
000002b0: c366 d43c 184d aabd b129 7e3d 0ba4 8cbd
000002c0: 54f5 a1bc 5297 1e3e 89d9 673d 3cec 063e
000002d0: 85cb c2bc 6515 023e aef0 d63b 038f bbbd
000002e0: 4d3c 78bd eefc 043e 612e d23d 98dd 323d
000002f0: 38a2 bebc c84b e23d c32a 5a3d bb85 a0bd
00000300: ff98 8e3d 39c6 8ebc 32d1 69bc 6340 c73d
00000310: 3bdc dabc 98db 3abd dd19 34be 6dfb c13d
00000320: e4ef bebd 9947 53bd a204 23bd 0980 b43c
00000330: 3522 f139 7a89 6dbc 0e72 30be 7858 de3c
00000340: 33e2 efbd 0fc1 c1bc 526a f7bd f443 873d
00000350: b5c2 e8bd 8245 b9bd b7e4 003b 2f28 14bd
00000360: d0c8 11be 291a e93d 835e d93d 5259 213d
00000370: 79b7 723d 0b24 613c e683 003d e822 e9bd
00000380: c847 843c 786c 8bbc acf3 87bd f46b ffbd
00000390: f30a 5d3d 76cf debd 52a8 bd3c 1bc6 19bd
000003a0: 388a 29b7 7b40 0e3e be4f 1e3d 70b5 f33d
000003b0: bd89 c63d 32c4 78bd ff28 d0bd 2c05 cabb
000003c0: a15c d1bd 888d e0bd 6f83 fdbd 8264 023e
000003d0: 3840 a73d 2816 023d 3f03 a1bd f270 b7bd
000003e0: 1619 a5bd 8597 453d 0b02 11be a8d1 ed3d
000003f0: 5e76 a33d 35de b2bd 4531 c23c a643 03be

lstm.bias_hh_l0 f4 [256]
-0.117390886 -0.03010352 -0.03945418 -0.22118793 -0.13037856 -0.06526797 -0.004942587 0.12780619
0.12829626 0.10602627 0.10305745 -0.012193431 0.08069075 -0.01124894 0.105264924 0.06555366
0.031822775 -0.106702074 -0.12915488 0.06721377 0.035258956 0.15555632 0.035433378 -0.07058811
-0.10554243 -0.015241288 -0.02745693 -0.07080571 -0.046838652 0.0036599813 0.025658952 -0.039451964
-0.12140993 -0.08136426 -0.077131964 0.045441516 -0.03699659 -0.012076376 0.020631727 0.045179777
-0.13142215 0.08015388 0.088367686 -0.10968523 0.09966219 -0.038068473 -0.010630024 0.08621013
0.1672948 0.0040978254 -0.173785 -0.13324246 0.004016789 0.09896008 0.040197115 -0.065706894
-0.057146695 -0.15616937 0.066822335 0.06585736 0.029223528 0.17812231 -0.04660707 0.058008593
0.0030152122 0.054783665 -0.12926343 0.007405291 0.001380295 -0.108705424 -0.018491719 -0.06902705
-0.13455175 0.10798194 -0.05220536 -0.057836622 0.026915163 -0.004822693 -0.049131926 0.025826477
-0.015720544 0.06641357 0.041774828 -0.06522576 -0.11433699 -0.059032537 0.1303009 -0.051981777
0.070414506 0.12263731 -0.11884464 0.014177654 0.08966444 0.15602577 0.08223743 0.050887536
-0.05211795 -0.008457743 0.10743184 -0.055012494 0.17464343 -0.051305324 0.0024904835 -0.02242623
0.029853877 -0.120917134 -0.06989294 0.13130201 0.077473864 0.09732045 -0.03901574 0.1457944
-0.004475765 0.20572111 0.10516403 0.03240053 0.047687598 0.039968055 0.0074328743 0.11429231
-0.037814375 -0.0065699285 -0.014299457 -0.011899598 0.05763843 0.030296925 0.0036342102 -0.044592958
0.08755797 0.096328065 -0.17202501 0.0012849483 0.14812078 -0.09636977 0.0094803525 0.094168834
-0.19445866 -0.057130948 0.07582668 0.054732025 -0.19150004 -0.02690696 -0.029225012 -0.058061134
-0.0045156367 0.16468193 0.036009908 -0.047822148 0.0150422705 -0.0729093 0.21403344 0.098032475
0.08887501 0.12421365 0.006635759 -0.07653202 -0.028010434 -0.015038718 0.0064110965 0.038285244
0.07477394 0.0793474 -0.11167608 0.06061663 0.022553561 0.014121011 -0.10216873 0.0926153
-0.035207007 0.0077355076 -0.07154215 0.12574153 -0.06420571 0.14759678 0.053326935 -0.032834884
0.034889437 0.030812358 0.08024061 0.02702152 0.12854712 0.009847752 -0.0038840775 -0.13258064
-0.118808076 0.19027705 -0.095418654 0.019212311 -0.095766544 0.041787528 0.08878487 -0.10908898
0.14397225 0.094522774 -0.065131076 -0.044059828 0.12024203 -0.06757284 -0.0039744494 -0.073753454
-0.13103448 0.07380922 0.14593288 -0.007962314 0.0011352114 0.06055968 -0.04527678 0.027911471
0.057993446 0.068444744 0.045115523 -0.15660222 0.09196008 -0.07428383 0.11065755 -0.033039387
0.034325622 0.07200924 0.10050454 -0.10253846 0.11601753 0.12774673 -0.1438891 0.1227443
0.07307621 0.07430155 0.002624772 -0.06900874 -0.010854107 0.077524185 -0.0066273054 -0.01854192
-0.063987345 0.10980258 0.07895564 0.017184502 0.044409964 -0.0018738945 -0.05861106 0.13639848
-0.015032343 -0.0075247497 0.10146956 -0.008082715 -0.051325463 0.06288121 -0.078550704 0.06080442
-0.039210122 -0.028523963 0.020670326 0.035003375 0.13022678 -0.021416787 0.018616943 0.077774525
00000000: a26a f0bd a89b f6bc b59a 21bd 177f 62be
00000010: f581 05be 37ab 85bd 6df5 a1bb a0df 023e
00000020: 1860 033e 4d24 d93d c90f d33d f5c6 47bc
00000030: 3141 a53d 794d 38bc 2395 d73d ff40 863d
00000040: 9958 023d 9e86 dabd 2d41 04be 5fa7 893d
00000050: b26b 103d 284a 1f3e 9722 113d 8090 90bd
00000060: a126 d8bd 98b6 79bc 5bed e0bc 9602 91bd
00000070: e3d9 3fbd 4cdc 6f3b b932 d23c 6298 21bd
00000080: c5a5 f8bd 4ea2 a6bd 5df7 9dbd e220 3a3d
00000090: bd89 17bd fedb 45bc de03 a93c 6e0e 393d
000000a0: 8793 06be b827 a43d 1efa b43d a6a2 e0bd
000000b0: b11b cc3d b0ed 1bbd 8d29 2ebc f08e b03d
000000c0: 544f 2b3e 0d47 863b b2f4 31be b670 08be
000000d0: 459f 833b 95ab ca3d bba5 243d 5691 86bd
000000e0: a712 6abd ddea 1fbe 26da 883d 39e0 863d
000000f0: 2e66 ef3c b265 363e 0ee7 3ebd 6b9a 6d3d
00000100: de9a 453b d664 603d a25d 04be 15a8 f23b
00000110: 04eb b43a f3a0 debd f27b 97bc 0e5e 8dbd
00000120: efc7 09be a325 dd3d 4ad5 55bd 18e6 6cbd
00000130: 307d dc3c ae07 9ebb 8f3e 49bd 0c92 d33c
00000140: 5fc8 80bc d603 883d 151c 2b3d 1595 85bd
00000150: 8329 eabd 1acc 71bd 996d 053e d8ea 54bd
00000160: 7b35 903d 4529 fb3d d264 f3bd 6449 683c
00000170: fda1 b73d 38c5 1f3e 196c a83d 736f 503d
00000180: a279 55bd 5892 0abc 3905 dc3d c854 61bd
00000190: bad5 323e 8825 52bd 6137 233b 37b7 b7bc
000001a0: 1e90 f43c 67a3 f7bd 0824 8fbd 0974 063e
000001b0: 9eaa 9e3d f24f c73d f8ce 1fbd 214b 153e
000001c0: 70a9 92bb 8ea8 523e 3d60 d73d 6bb6 043d
000001d0: 1254 433d 8bb5 233d 788f f33b 1612 ea3d
000001e0: 3fe3 1abd 8e48 d7bb 4548 6abc 88f6 42bc
000001f0: 4616 6c3d 4231 f83c ee2b 6e3b 1ba7 36bd
00000200: 9851 b33d a647 c53d 5327 30be b66b a83a
00000210: f9ac 173e 845d c5bd 7b53 1b3c 97db c03d
00000220: 2c20 47be 2402 6abd 054b 9b3d b02e 603d
00000230: 9618 44be fc6b dcbc 4b69 efbc 83d1 6dbd
00000240: e8f7 93bb 61a2 283e 207f 133d 28e1 43bd
00000250: db73 763c 7951 95bd 952b 5b3e 40c5 c83d
00000260: 1a04 b63d ba63 fe3d c870 d93b d2bc 9cbd
00000270: 2376 e5bc f464 76bc 2d14 d23b fdd0 1c3d
00000280: 1423 993d e480 a23d 6eb6 e4bd 2549 783d
00000290: 3fc2 b83c d05b 673c d73d d1bd 17ad bd3d
000002a0: 3935 10bd 247a fd3b b184 92bd 63c2 003e
000002b0: 497e 83bd 9c23 173e 586d 5a3d df7d 06bd
000002c0: 3ae8 0e3d 336a fc3c 3055 a43d 3c5c dd3c
000002d0: dba1 033e 7758 213c 028c 7ebb 38c3 07be
000002e0: a651 f3bd fdd7 423e db6a c3bd 2363 9d3c
000002f0: 4021 c4bd 6629 2b3d d8d4 b53d 0b6a dfbd
00000300: 766d 133e 2895 c13d 7163 85bd 1478 34bd
00000310: 7441 f63d a163 8abd 193c 82bb 0d0c 97bd
00000320: e72d 06be 4a29 973d 6e6f 153e 5e74 02bc
00000330: 60cb 943a 6d0d 783d 2574 39bd 99a6 e43c
00000340: 898a 6d3d c22c 8c3d 0ecb 383d 555c 20be
00000350: 9155 bc3d 1f22 98bd 6da0 e23d 4f54 07bd
00000360: 0699 0c3d 9579 933d 53d5 cd3d afff d1bd
00000370: 999a ed3d 0ad0 023e aa57 13be 5d61 fb3d
00000380: fba8 953d 692b 983d 5e04 2c3b 7454 8dbd
00000390: 6dd5 31bc 00c5 9e3d de29 d9bb 3ae5 97bc
000003a0: cc0b 83bd 2de0 e03d 7fb3 a13d 83c6 8c3c
000003b0: 39e7 353d 779d f5ba 2712 70bd 0bac 0b3e
000003c0: 374a 76bc 2d92 f6bb 46cf cf3d 5d6d 04bc
000003d0: a63a 52bd ddc7 803d 31df a0bd 0e0e 793d
000003e0: cb9a 20bd 16ab e9bc d154 a93c b35f 0f3d
000003f0: 2b5a 053e 4272 afbc 8f82 983c 4048 9f3d

lstm.weight_ih_l1 f4 [256, 64]
-0.12478684 -0.2524542 -0.024170965 -0.17423585 -0.11000549 0.07874358 0.010897665 0.024677021
0.029692011 -0.08904587 0.0565987 -0.08334773 0.096500464 -0.04804573 -0.093253836 -0.11776975
-0.05745977 -0.02202695 0.07151256 -0.023907727 -0.046029706 0.11464843 -0.0075558485 -0.14149037
-0.050073106 -0.020865127 -0.26431644 0.056369677 0.009781592 -0.05016815 -0.12924235 -0.15861158
-0.062410284 -0.07385171 0.017315188 -0.059344806 -0.08758076 -0.05914999 -0.05231446 0.13477811
0.008106567 0.061572466 -0.059143454 0.0003634488 -0.0984881 -0.028320745 -0.0510645 -0.16937003
-0.0037820877 0.064425394 -0.066879936 -0.065985374 0.014999382 0.043644305 0.055679332 0.06449223
0.029625729 0.014601538 -0.027887277 0.021204036 -0.08446618 0.06933284 0.07007241 0.14427197
-0.052323837 0.037239324 0.0483884 0.016505385 0.08601339 0.1120718 0.101830564 -0.022622185
0.029359708 0.13812192 0.10162045 0.0095739765 -0.08343071 -0.09636634 -0.04206101 0.008368102
0.05016699 0.08704311 0.14981298 0.09288979 -0.103795335 0.15409094 0.06008662 0.012687966
-0.009313034 0.033609103 0.051698945 0.096076325 0.1538122 0.1800662 0.09162901 -0.0005072508
-0.1308177 -0.06120058 0.0045152763 0.011070478 0.030373873 0.12930842 -0.049044654 -0.115356244
-0.12970339 -0.14188214 0.0036132343 0.05127254 0.087816656 -0.011983179 -0.11350133 -0.16380563
-0.04626098 0.21804538 -0.14231963 0.049795765 -0.06827477 0.053676657 0.1316143 -0.038254693
0.12529694 -0.012668609 -0.09302119 -0.1166663 0.12058904 -0.05414795 -0.034289476 0.06946903
-0.06683952 0.06913831 0.09057791 -0.047491793 0.042176146 -0.07953012 0.025198145 -0.12019267
-0.090075396 -0.07251231 -0.028367797 -0.08377686 0.06784392 0.046609554 -0.010938311 0.030687332
0.029806351 0.002076753 -0.10760999 -0.102975525 -0.013619936 -0.108898014 0.10947334 -0.009146067
-0.022511233 -0.061459754 -0.0979598 0.031913478 -0.085727 0.0052629397 -0.13535185 0.041640952
0.088019386 0.034291167 -0.062312357 0.044605926 -0.12368897 0.0326117 -0.024369363 0.10619705
-0.10746425 -0.051705822 -0.06566956 -0.030222086 -0.0038517981 -0.1289172 -0.06026119 0.054984443
-0.06437529 0.037608992 0.005405272 -0.01821037 -0.01361773 -0.2630136 -0.0443203 0.04657845
-0.06404689 0.10053681 -0.111779824 -0.06418756 -0.020235231 0.14834759 -0.006770178 -0.005987962
-0.009731192 -0.118670896 0.019415911 -0.14845307 0.15358694 0.0824609 0.08229474 -0.12852216
-0.018915731 -0.0726536 0.050974283 0.008572619 0.16817833 -0.104235776 0.10489138 -0.047791544
-0.20358261 -0.07874321 0.33796418 0.06093314 0.037055884 -0.034370713 0.05548885 0.07205999
0.08270549 -0.019549705 -0.034136813 -0.14071883 0.11363048 0.021990899 -0.14754562 -0.006437174
0.017681455 -0.14285292 -0.052405722 0.1509737 0.061628565 0.023429817 0.076626375 0.06575026
-0.034216408 0.11176578 -0.0676004 -0.059076216 -0.052723978 0.08392596 0.0059512802 -0.09856886
0.09667697 -0.08186263 0.1377011 0.024395866 0.13908811 -0.13043761 0.036556814 0.094294265
-0.024603236 -0.1401241 -0.010730801 -0.0067922026 -0.001700872 0.045075834 0.15572321 0.08722111
00000000: 3e90 ffbd ad41 81be 3002 c6bc e26a 32be
00000010: 8f4a e1bd 5044 a13d 1f8c 323c 7727 ca3c
00000020: a93c f33c ae5d b6bd 0ad4 673d 37b2 aabd
00000030: 09a2 c53d 99cb 44bd defb bebd 4431 f1bd
00000040: f05a 6bbd dd71 b4bc 2d75 923d 23da c3bc
00000050: a589 3cbd cccc ea3d 0d97 f7bb dae2 10be
00000060: 7519 4dbd 58ed aabc 7c54 87be e4e3 663d
00000070: f842 203c 1e7d 4dbd 1b58 04be 136b 22be
00000080: eda1 7fbd 913f 97bd 95d8 8d3c 8a13 73bd
00000090: 8b5d b3bd 4347 72bd b047 56bd 4603 0a3e
000000a0: 68d1 043c 6933 7c3d 6840 72bd 468d be39
000000b0: 21b4 c9bd e800 e8bc 0229 51bd 566f 2dbe
000000c0: e7dc 77bb 76f1 833d 59f8 88bd 5723 87bd
000000d0: f8bf 753c 5fc4 323d 0310 643d 8114 843d
000000e0: a8b1 f23c 4a3b 6f3c dc73 e4bc 16b4 ad3c
000000f0: 9bfc acbd 60fe 8d3d 2082 8f3d 08bc 133e
00000100: 8551 56bd 4388 183d ea32 463d 4d36 873c
00000110: ca27 b03d e685 e53d 8b8c d03d 2952 b9bc
00000120: c583 f03c d56f 0d3e 621e d03d 2bdc 1c3c
00000130: b8dd aabd b75b c5bd 2a48 2cbd 5d1a 093c
00000140: e77b 4d3d a843 b23d 9368 193e 013d be3d
00000150: a692 d4bd 04ca 1d3e 631d 763d 30e1 4f3c
00000160: b295 18bc b3a9 093d 46c2 533d aac3 c43d
00000170: f280 1d3e 4663 383e fea7 bb3d 06f9 04ba
00000180: 13f5 05be 76ad 7abd e2f4 933b f360 353c
00000190: a1d2 f83c 6d69 043e 0ce3 48bd e53f ecbd
000001a0: f7d0 04be 8d49 11be 03cc 6c3b 2803 523d
000001b0: 38d9 b33d 1855 44bc 6373 e8bd aabc 27be
000001c0: 277c 3dbd 4a47 5f3e 3dbc 11be a5f6 4b3d
000001d0: a5d3 8bbd 0edc 5b3d e6c5 063e f4b0 1cbd
000001e0: d74d 003e ff8f 4fbc e581 bebd beee eebd
000001f0: 63f7 f63d 3eca 5dbd 1f73 0cbd c745 8e3d
00000200: 29e3 88bd 6398 8d3d e980 b93d c186 42bd
00000210: e5c0 2c3d b0e0 a2bd 576c ce3c 9327 f6bd
00000220: 7379 b8bd 5681 94bd 9563 e8bc 3493 abbd
00000230: c1f1 8a3d a9e9 3e3d 9a36 33bc 0064 fb3c
00000240: 732c f43c 221a 083b a062 dcbd d5e4 d2bd
00000250: 2726 5fbc ec05 dfbd 8f33 e03d 63d9 15bc
00000260: 7a69 b8bc 39bd 7bbd 269f c8bd b5b7 023d
00000270: a391 afbd bd74 ac3b ad99 0abe b48f 2a3d
00000280: 8243 b43d e574 0c3d 3e3b 7fbd b4b4 363d
00000290: a550 fdbd d993 053d 42a2 c7bc d77d d93d
000002a0: 3716 dcbd 7cc9 53bd c37d 86bd 4f94 f7bc
000002b0: 736e 7cbb df02 04be 70d4 76bd 5e37 613d
000002c0: 31d7 83bd e30b 1a3d b51e b13b ea2d 95bc
000002d0: e61c 5fbc b8a9 86be 3489 35bd 0bc9 3e3d
000002e0: 042b 83bd 3ee6 cd3d d2ec e4bd c474 83bd
000002f0: 5bc4 a5bc 6ee8 173e 5fd8 ddbb aa36 c4bb
00000300: 946f 1fbc ba09 f3bd 1e0e 9f3c 1504 18be
00000310: e545 1d3e 43e1 a83d 258a a83d 509b 03be
00000320: 2af5 9abc 69cb 94bd 69ca 503d 2c74 0c3c
00000330: f136 2c3e 9179 d5bd 4bd1 d63d 11c1 43bd
00000340: f677 50be 1f44 a1bd a409 ad3e 0795 793d
00000350: e9c7 173d 4ec8 0cbd 4748 633d 3094 933d
00000360: 7f61 a93d b426 a0bc 0bd3 0bbd 9918 10be
00000370: 19b7 e83d 4226 b43c 3316 17be eeee d2bb
00000380: b3d8 903c 0948 12be 62a7 56bd da98 1a3e
00000390: 3c6e 7c3d e3ef bf3c 4aee 9c3d 13a8 863d
000003a0: 8126 0cbd 75e5 e43d 1472 8abd e7f9 71bd
000003b0: 19f5 57bd 60e1 ab3d f502 c33b 78de c9bd
000003c0: 93fe c53d 98a7 a7bd 8401 0d3e d7d9 c73c
000003d0: 1d6d 0e3e 7091 05be 99bc 153d 5a1d c13d
000003e0: ba8c c9bc b17c 0fbe 3ed0 2fbc 2091 debb
000003f0: cbef deba 70a1 383d e875 1f3e fba0 b23d

lstm.weight_hh_l1 f4 [256, 64]
-0.034189805 -0.032261875 0.07692207 -0.018627593 0.07574479 -0.2562303 0.086868994 -0.00891293
0.11132365 0.08650236 0.042791788 0.094642475 -0.06313545 -0.18844637 -0.038973976 -0.17715165
-0.06709421 -0.022873294 -0.0035468698 -0.08930904 0.07374251 0.07009952 0.1073368 0.020975765
0.19882318 -0.094470166 -0.050472457 0.105646305 -0.11994376 0.036499072 0.090518 0.12699653
-0.0020773595 -0.047600646 0.029547596 0.039555196 0.06951037 0.052521046 0.10084982 -0.023629323
0.010291337 0.17788734 -0.03078241 0.053869363 0.036079235 0.010266729 0.15387146 -0.14071688
-0.09019659 0.17415728 0.11306707 0.13371013 -0.1637621 -0.0148738185 0.036706135 -0.07364847
-0.1603041 -0.08164891 -0.007361258 -0.039865736 -0.06358817 -0.07946077 0.095602214 0.22475456
0.059479196 0.028029958 0.07844504 -0.12032314 0.01815391 -0.074536726 -0.11201756 0.0045905355
-0.048643623 -0.1333333 0.077634566 -0.11463707 0.11621717 -0.033430062 -0.19425859 -0.093152046
0.098819494 -0.018390376 0.07522473 -0.13931586 -0.12656078 0.049424123 -0.06805415 -0.011430733
-0.052838646 -0.023469107 0.0006579442 -0.07704442 0.048814848 0.026364308 -0.074423194 0.022953076
-0.0161792 0.035672095 -0.12072385 -0.10214773 -0.093575545 -0.044431478 -0.122601025 -0.16523486
-0.1342576 -0.17794673 0.00847991 -0.22354844 -0.09270691 -0.13589486 -0.036225125 0.00283366
-0.18992789 -0.056484874 0.14190793 -0.08757685 0.15108696 0.0017929403 0.094852276 0.1115929
0.073033035 -0.030578027 -0.057741776 0.039020702 -0.0835336 0.08427616 -0.074902445 -0.12087918
0.115586385 -0.033345625 -0.0010417157 -0.005592093 0.042827558 -0.15353946 -0.040846393 0.012563112
0.045892432 -0.1149351 0.02836838 -0.04509086 -0.0045948727 0.038768884 0.023115488 0.10500926
0.07565543 0.030966133 0.022111654 0.100668535 0.069245994 -0.09644459 0.03374328 -0.009652751
-0.03214042 0.05514979 0.11852943 -0.030277388 -0.044626754 -0.08015896 0.10915485 -0.034886334
0.057463873 -0.12449428 -0.07738706 0.13557126 0.085680395 -0.064929895 0.078501076 -0.18471228
0.13313995 -0.1928888 0.11574812 -0.017390283 0.1320708 -0.12256032 0.019881489 0.059600268
-0.030114172 -0.09565668 0.08870673 -0.07069209 0.11809664 0.010575466 0.005058065 -0.06522909
-0.10624968 0.10210386 0.031090733 -0.05497987 -0.08913522 -0.13779616 -0.05694917 0.0310573
-0.04267019 -0.14120555 0.060593113 -0.053661566 -0.093780585 -0.018612163 -0.05655766 -0.075711004
0.20904574 -0.01693222 0.15065773 0.06559438 -0.058568567 -0.1858081 0.16129199 -0.15775943
0.12606977 -0.095839515 -0.008311194 0.042729303 0.15052123 0.08874595 0.16868582 -0.10836246
0.086044826 0.12942654 0.18941061 -0.06873673 -0.08909733 -0.0060612615 -0.02439335 0.12377718
0.013950922 0.0566836 -0.07265658 0.13521746 0.14081733 0.23066457 0.20243596 -0.08395765
0.0017555116 -0.10999416 -0.03564519 -0.001727385 0.124389865 0.038465 0.21117848 -0.15625055
-0.06705143 -0.01769623 0.07808539 0.050102517 -0.17822929 0.047407065 -0.012226902 -0.014597139
-0.19522686 0.019223806 0.030884374 -0.093241505 -0.22543557 -0.059127398 0.0014017179 0.048266485
00000000: 9c0a 0cbd 0725 04bd 5189 9d3d e598 98bc
00000010: 1620 9b3d 9e30 83be 5fe8 b13d 8a07 12bc
00000020: a7fd e33d 2628 b13d 7146 2f3d ead3 c13d
00000030: 294d 81bd 16f8 40be 2da3 1fbd 3e67 35be
00000040: b068 89bd c660 bbbc 9a72 68bb a8e7 b6bd
00000050: 5006 973d 5690 8f3d 65d3 db3d 5ed5 ab3c
00000060: 4e98 4b3e 9379 c1bd 35bc 4ebd 175d d83d
00000070: 13a5 f5bd 0d80 153d 8061 b93d 610b 023e
00000080: 4f24 08bb e5f8 42bd cd0d f23c a104 223d
00000090: 745b 8e3d 4f20 573d 5a8a ce3d 4892 c1bc
000000a0: ff9c 283c 1928 363e 652b fcbc 1fa6 5c3d
000000b0: d2c7 133d c835 283c 7b90 1d3e 1618 10be
000000c0: fdb8 b8bd 4956 323e b58f e73d 4feb 083e
000000d0: 40b1 27be 51b1 73bc 2c59 163d 02d5 96bd
000000e0: c226 24be 8b37 a7bd b536 f1bb 414a 23bd
000000f0: 843a 82bd 54bc a2bd 18cb c33d 0f26 663e
00000100: 75a0 733d 159f e53c cba7 a03d fa6b f6bd
00000110: 82b7 943c b6a6 98bd 7669 e5bd 346c 963b
00000120: 893e 47bd 8688 08be dffe 9e3d d7c6 eabd
00000130: 4503 ee3d f6ed 08bd b9eb 46be 80c6 bebd
00000140: e061 ca3d 6aa7 96bc 6c0f 9a3d d1a8 0ebe
00000150: 2699 01be f370 4a3d f95f 8bbd f847 3bbc
00000160: 566d 58bd 4942 c0bc e379 2c3a 77c9 9dbd
00000170: 14f2 473d f6f9 d73c 306b 98bd 1708 bc3c
00000180: 3e8a 84bc e71c 123d 113e f7bd d432 d1bd
00000190: 89a4 bfbd c8fd 35bd 3f16 fbbd 5433 29be
000001a0: d37a 09be ab37 36be 52ef 0a3c e2e9 64be
000001b0: 1fdd bdbd 0628 0bbe cc60 14bd edb4 393b
000001c0: 757c 42be af5c 67bd 5050 113e 7e5b b3bd
000001d0: 8ab6 1a3e 1801 eb3a e941 c23d d18a e43d
000001e0: 5892 953d c57e fabc a482 6cbd 2cd4 1f3d
000001f0: aa13 abbd fb98 ac3d 7466 99bd 818f f7bd
00000200: 8eb8 ec3d 6c95 08bd 2e8a 88ba e03d b7bb
00000210: f36b 2f3d 7339 1dbe 8c4e 27bd 83d5 4d3c
00000220: b4f9 3b3d 1863 ebbd ce64 e83c 32b1 38bd
00000230: 9690 96bb 1fcc 1e3d b15c bd3c 180f d73d
00000240: 3cf1 9a3d b0ac fd3c 8023 b53c 4e2b ce3d
00000250: d8d0 8d3d be84 c5bd 6536 0a3d 9226 1ebc
00000260: aca5 03bd bfe4 613d 8fbf f23d 4908 f8bc
00000270: 8bca 36bd 612a a4bd 948c df3d f9e4 0ebd
00000280: 3d5f 6b3d dbf6 febd 1b7d 9ebd 31d3 0a3e
00000290: 3479 af3d f7f9 84bd 2cc5 a03d 3725 3dbe
000002a0: d755 083e a484 45be 5a0d ed3d 1176 8ebc
000002b0: 913d 073e e800 fbbd 81de a23c 691f 743d
000002c0: ffb1 f6bc a6e7 c3bd e0ab b53d 04c7 90bd
000002d0: a7dc f13d b844 2d3c 20be a53b d496 85bd
000002e0: 6f99 d9bd d41b d13d feb1 fe3c 9232 61bd
000002f0: 878c b6bd 701a 0dbe 8843 69bd e16b fe3c
00000300: f0c6 2ebd 3098 10be 7c30 783d 3bcc 5bbd
00000310: 0910 c0bd 8978 98bc 01a9 67bd 5f0e 9bbd
00000320: 1610 563e 70b5 8abc 0546 1a3e 5956 863d
00000330: 98e5 6fbd 7b44 3ebe ba29 253e b08b 21be
00000340: 6f18 013e 8247 c4bd ad2b 08bc ec04 2f3d
00000350: 3d22 1a3e 70c0 b53d fabb 2c3e 23ed ddbd
00000360: 4538 b03d 6488 043e dbf4 413e d8c5 8cbd
00000370: a978 b6bd 8c9d c6bb 90d4 c7bc e47e fd3d
00000380: 6892 643c 102d 683d f9cc 94bd 7276 0a3e
00000390: 6b32 103e 5533 6c3e 5f4b 4f3e fdf1 abbd
000003a0: 3219 e63a 9e44 e1bd b100 12bd 6c69 e2ba
000003b0: 1dc0 fe3d 7a8d 1d3d 2c3f 583e 2500 20be
000003c0: 4352 89bd aff7 90bc 3ceb 9f3d 4c38 4d3d
000003d0: bd81 36be e92d 423d 5853 48bc d728 6fbc
000003e0: 8de9 47be 3e7b 9d3c 3a01 fd3c 67f5 bebd
000003f0: 95d8 66be 922f 72bd d9b9 b73a 14b3 453d

lstm.bias_ih_l1 f4 [256]
0.040766608 -0.09626865 -0.076887354 -0.05540587 -0.00078698 -0.032332327 -0.036403444 0.1086305
-0.036409274 -0.18811662 -0.10181148 -0.105807684 0.038654864 -0.0867001 -0.105774626 -0.061886456
0.024996614 0.033880807 0.058668077 -0.09881107 0.07867411 -0.102692336 0.001748147 -0.06395184
0.09623827 0.04679043 -0.0038498922 0.03660941 0.093682304 -0.01907215 0.10833748 0.119658105
-0.16569076 -0.19246043 -0.10734946 -0.068170294 -0.078474775 -0.060920846 -0.11863116 0.09532203
-0.026428938 -0.04714586 0.08481286 0.070886455 -0.13298145 -0.10571783 -0.10354836 0.0006647076
0.11278669 -0.11742233 0.007169938 -0.0020879246 -0.08388403 0.023920758 -0.05129857 -0.029778404
-0.08949286 -0.10329688 -0.036022004 0.050355013 0.11916637 -0.072617106 0.03613909 0.09026269
-0.053654697 -0.076647304 -0.10919127 -0.123787 -0.012353199 -0.08499079 -0.10154845 0.082022905
0.11164729 0.051068176 0.020317113 -0.009533686 -0.03793955 0.005852745 -0.05650264 0.12510945
-0.04816672 -0.025802506 0.11225172 0.075827226 -0.06496069 0.017237669 -0.04120982 -0.029508196
0.004619256 -0.036009893 -0.050731428 -0.05140729 0.053358648 -0.07722299 0.08001645 -0.1070902
0.053622883 -0.18379176 0.035380352 -0.12539656 -0.15896443 0.18818234 -0.038062446 0.106009334
-0.07175431 0.043175746 -0.069364734 -0.03038096 0.0302699 -0.16165888 0.08163257 -0.03366931
0.15423061 0.07847369 0.048592754 0.095286824 -0.052131236 0.020257037 0.00034787 -0.17919546
-0.117418386 0.032582697 -0.024383822 -0.018053949 0.042595416 0.048605997 -0.06728136 0.09942375
-0.06626644 -0.05965445 -0.06378006 -0.0024211577 -0.014061589 0.08839355 0.14322087 0.030608159
0.090283036 -0.057938453 0.053565055 0.0867538 -0.121202335 -0.10446133 -0.03435391 0.08638756
0.0034966338 -0.098425314 0.116911694 0.061196815 -0.06157546 -0.038897507 -0.051986802 0.026348362
0.054889783 0.040799145 0.07758474 -0.020623634 -0.12307648 -0.042648103 -0.15916218 -0.118048675
0.078648515 0.024862714 0.12784687 0.062686756 0.13132757 -0.08070701 0.020816462 0.06310094
-0.06613425 0.09903163 -0.15126537 0.050972167 -0.028269492 0.06407357 0.0754006 0.07481398
0.050803255 0.1011492 -0.09684577 0.054410208 -0.11465038 -0.13280423 -0.043344077 -0.092113465
-0.063966595 -0.11521265 0.113977425 -0.0666378 0.10663017 -0.08212188 -0.06476285 0.036858547
-0.006928475 -0.14123876 -0.022846915 -0.14683041 -0.03180144 0.04763091 0.08391391 0.14524256
-0.072860576 0.058679204 0.029403672 -0.04637539 0.010872737 0.06253027 0.041272305 0.0032833603
0.028661799 0.08378645 0.010466069 -0.06899263 0.081703305 -0.056482483 0.011039751 -0.054973867
-0.011737486 0.0015341536 0.04719464 0.011147945 -0.11410882 -0.042967513 -0.10698022 -0.0901886
0.03640117 -0.04542431 0.1159704 -0.0056560044 -0.025349483 0.13554284 0.06383684 0.052474186
0.06603364 -0.087810785 -0.055103924 0.016758459 -0.05933359 -0.12642734 0.107093655 -0.03013315
0.17423452 -0.022963308 -0.07663487 -0.07237585 0.045124505 -0.04307002 -0.14618786 0.016941097
0.048391644 -0.050205804 0.1654687 0.07495313 0.032625042 -0.05091829 -0.17559206 -0.014566591
00000000: e3fa 263d 7f28 c5bd 1e77 9dbd 44f1 62bd
00000010: 554d 4eba e76e 04bd c71b 15bd ab79 de3d
00000020: e421 15bd a5a1 40be 8a82 d0bd b3b1 d8bd
00000030: 9054 1e3d d28f b1bd 5ea0 d8bd a77c 7dbd
00000040: b3c5 cc3c 9ac6 0a3d f04d 703d 755d cabd
00000050: e41f a13d 5c50 d2bd 1422 e53a 2ff9 82bd
00000060: 9218 c53d 52a7 3f3d 794e 7cbb c0f3 153d
00000070: 82dc bf3d 333d 9cbc 0ae0 dd3d 4f0f f53d
00000080: d7aa 29be 5914 45be 09da dbbd de9c 8bbd
00000090: 62b7 a0bd 2388 79bd e5f4 f2bd 3238 c33d
000000a0: 8081 d8bc 041c 41bd 5db2 ad3d eb2c 913d
000000b0: 4a2c 08be 9782 d8bd 2a11 d4bd c63f 2e3a
000000c0: b5fc e63d 1e7b f0bd cdf1 ea3b 90d5 08bb
000000d0: 64cb abbd 77f5 c33c 731e 52bd d7f1 f3bc
000000e0: 0848 b7bd 518d d3bd cf8b 13bd 0f41 4e3d
000000f0: 7f0d f43d 47b8 94bd 9506 143d a5db b83d
00000100: 07c5 5bbd 43f9 9cbd ac9f dfbd 0a84 fdbd
00000110: 1265 4abc a70f aebd a2f8 cfbd a0fb a73d
00000120: 56a7 e43d dd2c 513d 1370 a63c 2d33 1cbc
00000130: 8066 1bbd 62c8 bf3b 506f 67bd b11c 003e
00000140: 774a 45bd c75f d3bc 3be4 e53d 4e4b 9b3d
00000150: 1c0a 85bd 0336 8d3c a1cb 28bd 2cbb f1bc
00000160: 215d 973b 1c7f 13bd c2cb 4fbd 7390 52bd
00000170: 998e 5a3d 1627 9ebd aadf a33d 1b52 dbbd
00000180: aba3 5b3d e833 3cbe fdea 103d f567 00be
00000190: 92c7 22be dfb2 403e 5ee7 1bbd 6c1b d93d
000001a0: ecf3 92bd 0dd9 303d 190f 8ebd 7ee1 f8bc
000001b0: 95f8 f73c e889 25be fa2e a73d d5e8 09bd
000001c0: a1ee 1d3e d0b6 a03d 3209 473d bd25 c33d
000001d0: 9087 55bd 16f2 a53c 5262 b639 047f 37be
000001e0: 0d79 f0bd 6f75 053d 95c0 c7bc e0e5 93bc
000001f0: 8878 2e3d 1517 473d cfca 89bd ae9e cb3d
00000200: b3b6 87bd 3958 74bd 1f9f 82bd 49ac 1ebb
00000210: 9462 66bc ad07 b53d 7ea8 123e f6bd fa3c
00000220: 50e6 b83d df50 6dbd 0867 5b3d faab b13d
00000230: ee38 f8bd d2ef d5bd afb6 0cbd f6eb b03d
00000240: c827 653b 3693 c9bd 666f ef3d 83a9 7a3d
00000250: 8d36 7cbd fe52 1fbd 1df0 54bd 85d8 d73c
00000260: 1cd4 603d 011d 273d c0e4 9e3d e5f2 a8bc
00000270: 860f fcbd c7af 2ebd 69fb 22be 81c3 f1bd
00000280: 7912 a13d e4ac cb3c 4aea 023e ea61 803d
00000290: bc7a 063e b849 a5bd 4987 aa3c 113b 813d
000002a0: 6571 87bd 18d1 ca3d 4fe5 1abe 31c8 503d
000002b0: 6c95 e7bc 0139 833d a16b 9a3d 1238 993d
000002c0: 1317 503d 5027 cf3d 1357 c6bd 3ddd 5e3d
000002d0: d2cd eabd d5fd 07be 8f89 31bd fca5 bcbd
000002e0: eb00 83bd 9cf4 ebbd ff6c e93d 6679 88bd
000002f0: eb60 da3d 842f a8bd 63a2 84bd fdf8 163d
00000300: 4308 e3bb e5a0 10be 7429 bbbc b65a 16be
00000310: 3a42 02bd a118 433d 0edb ab3d 77ba 143e
00000320: ed37 95bd 9b59 703d f8df f03c 1ff4 3dbd
00000330: 9023 323c df0f 803d 260d 293d a52d 573b
00000340: 26cc ea3c 3b98 ab3d e079 2b3c 024c 8dbd
00000350: 1054 a73d 2d5a 67bd 12e0 343c 472c 61bd
00000360: 964e 40bc a715 c93a 2b4f 413d dfa5 363c
00000370: e3b1 e9bd b4fe 2fbd 7218 dbbd cdb4 b8bd
00000380: 6519 153d d70e 3abd e481 ed3d 0156 b9bb
00000390: b8a9 cfbc becb 0a3e e4bc 823d 2cef 563d
000003a0: a53c 873d 24d6 b3bd a7b4 61bd 0949 893c
000003b0: c707 73bd 2b76 01be eb53 db3d ccd9 f6bc
000003c0: 896a 323e 8c1d bcbc bef2 9cbd ca39 94bd
000003d0: 79d4 383d 306a 30bd 45b2 15be 0ec8 8a3c
000003e0: 5136 463d 9aa4 4dbd a070 293e 0781 993d
000003f0: d6a1 053d b28f 50bd 68ce 33be b6a8 6ebc
