src/util/AI/checkpoints/007.ckpt (torch, 353508 bytes, 14 tensors)

lstm.weight_ih_l0 f4 [256, 12]
00000000: 5708 bdbc fcc1 9d3d 740e 17be bdf5 3f3d
00000010: 813c be3d 1ba1 a93d 205e 983d 65e8 0b3c
00000020: e124 c4bd 4df0 123d 5ffe dbbd c4d3 49bd
00000030: 3c01 21be e7d1 843c 022e bcbd a486 ecbd
00000040: a726 b2bd 2d54 16bc fb86 e73d 4138 f33d
00000050: 01d7 b33d 56c5 373d 3792 ddbd 5cbb dcba
00000060: 5da0 aa3d 8a42 e83d fee0 673d 2910 fe3d
00000070: b2fa bb3d 7bde 393e 262e 123e 6ef6 f8bd
00000080: 4e96 c73b 5b16 40bd 016d 683d 48ac e0bd
00000090: 3213 4a3c 7348 733d 729d ad3d a442 49be
000000a0: 914b 67be 5f19 2dbc 570c 293e ad35 6c3c
000000b0: 1957 18be 4260 6abd 93b5 5e3e ca4e b4ba
000000c0: d1f5 5d3d bcb3 aebd 4d69 0ebd 5420 c5bd
000000d0: ddd5 8d3d f254 21bd a85d fe3c 3baa fd3d
000000e0: 5d15 cc3d 9204 be3c 5422 bebd 03ff 47bd
000000f0: 0bae 413d 202a 5e3d 62fb ec3c f534 c73d
00000100: 9d5d ea3c dab7 2dbd ae45 6f3e 31e0 843e
00000110: 2729 a2bb cce4 643b 93d5 26bd 7f2c 68bc
00000120: fccd e63d e61e 123c f2da 22be c3db 31be
00000130: 028e bd3d 5a93 f1bc 91a2 41bd 8072 cd3d
00000140: f8ee 50bd 3aee 39bd a1b6 f73b fd4f 48bc
00000150: 5d38 8bbd 48f8 e13d 49af 3e3d 6dfd 653d
00000160: ac89 ad3d 79fc ca3d 929f 473d 989f 243e
00000170: f81e a5bc 9fd7 acbc 0645 5cbc d3ef 3cbd
00000180: bfc3 1bbd 46cb 533c 738d 12be 0be9 533d
00000190: 32eb 0bbb 4545 9d3c 0043 293e cfc0 6b3e
000001a0: 8e22 d93c 14c9 2cbd 6c6a c0bd 54b4 29bc
000001b0: 3081 b63d 47c2 94bc be0d 933d 9222 7b3d
000001c0: f755 69bd ea11 b63c e836 ad3d a2a8 18be
000001d0: 0f66 67be 94b1 2f3c 4620 a7bc 83e5 b53d
000001e0: ae93 7c3c ae9b 89bd 7fd7 f0bd fd99 46bd
000001f0: f4d3 3c3e 933a 253d c686 ff3d b149 d23d
00000200: 2101 063e 2e3b eb3c 9e32 d43d 9c00 6ebd
00000210: 1eb9 903d e00d 163d 522c 2d3d c3f3 c2bd
00000220: 4711 a33d 8830 af3a 5838 4cbd ebd8 40be
00000230: 8353 82be ff22 833d bef6 3d3e 38cb 233d
00000240: dace 2b3d bc93 803c e022 29be 3197 63bd
00000250: 495d 6b3d e1dc fe3d 394e 97bd d98b 5abe
00000260: 26bc 97bd 67aa bf3b 8273 bebd 5751 afbd
00000270: 0076 ef3c a42f 643d 7888 bf3c 632f d2bd
00000280: cbb0 15be 7fef acbd 3c7d db3d e78a f8bd
00000290: 153f 23be 96a5 8cbd ae41 01bd c18f 00bc
000002a0: aee3 22bd 8907 743d 2ca3 d0bd 170c b13d
000002b0: 729b 93bd 6797 81bd e5b7 d23d 2457 103d
000002c0: 1da7 b7bd 7120 eb3c 0677 7bbc 7834 ec3c
000002d0: 0f67 6dbd f586 1abd 4251 0a3e d8ce e83c
000002e0: 7246 0f3e 3db8 6cbb 6b0a 28be 38c5 72bc
000002f0: a8eb 6ebd 9159 dcbd a481 85bd 4667 2a3d
00000300: c32b 84bd bf17 463d 850f 133d ea72 fa3d
00000310: ff0b 3e3d 50c2 8b3d e632 89bc b430 17be
00000320: 6df0 94bd 196d 0abd f551 e6bd e10f 82bd
00000330: dadf 52bd a946 9abc cc36 92bd 9de8 5fbe
00000340: b0c3 733c 7b23 563e 91fc 263c 42fb 2fbe
00000350: 081f 573d 81d8 c43c 9f73 d63d 2b2a 05be
00000360: 5766 12be de75 533b 5332 83bd 95d4 a03d
00000370: 76ba 373d d579 04be e067 5abe bdf5 983d
00000380: c67a f03c efb7 8c3d 8b36 42be 5f97 bebd
00000390: 4446 61be a8c1 cfbc 51da e2bd 0418 2d3b
000003a0: 17f0 c23d 1573 003d 30cd 3ebd fede 2abc
000003b0: 532a 113d 2005 a83d 4357 4cbd 1aff 253d
000003c0: ebb5 cabd ecf1 323e fce4 1ebd 382b d9ba
000003d0: 9d5a 903c a915 efbc 1817 6fbd fc53 c63d
000003e0: 3dbc debd 1549 11be 3bdc 8d3c 1e9e 9d3c
000003f0: 7cc1 1e3b 9470 943d afa6 d3bd be98 1d3d
-0.023075266 0.07703015 -0.14751607 0.046865214 0.09288884 0.082826816 0.07439828 0.008539294
-0.095773466 0.0358737 -0.10741877 -0.04927422 -0.15723127 0.01621337 -0.09188463 -0.11549118
-0.086987786 -0.0091753425 0.11305042 0.11875964 0.08781243 0.04486593 -0.10818904 -0.0016840505
0.08331368 0.11340816 0.056611054 0.12405426 0.09178676 0.18151276 0.14275417 -0.12156378
0.0060909158 -0.04689632 0.05674458 -0.1097036 0.012333678 0.059395265 0.08477296 -0.19654328
-0.2258742 -0.010565131 0.16508614 0.014417094 -0.14876975 -0.057220705 0.21748953 -0.0013756391
0.054189507 -0.08530375 -0.03476839 -0.09625307 0.06925557 -0.03938765 0.031050518 0.123859845
0.09965012 0.023195539 -0.09283891 -0.048827183 0.04728512 0.054239392 0.028928462 0.097268976
0.028609091 -0.042411663 0.23366424 0.25952294 -0.0049487534 0.0034926413 -0.040731024 -0.014170765
0.11269757 0.0089185 -0.15903834 -0.17368989 0.092556015 -0.029489208 -0.047274176 0.10031605
-0.05100915 -0.045393206 0.007559613 -0.012226102 -0.0679786 0.11033684 0.046553884 0.05614989
0.084735245 0.099114366 0.048736162 0.16076505 -0.020156369 -0.02109891 -0.013444191 -0.04612715
-0.038028475 0.012926882 -0.14311771 0.05173592 -0.0021349904 0.01919807 0.16529465 0.2302277
0.026505735 -0.04218395 -0.09395298 -0.010357935 0.08911359 -0.018159045 0.071803555 0.061312266
-0.056966748 0.022225339 0.08457738 -0.14908078 -0.22597526 0.01072349 -0.020401131 0.088816665
0.015416069 -0.06719147 -0.117598526 -0.0484867 0.18440229 0.040339064 0.12476878 0.10267962
0.13086368 0.028714743 0.10361217 -0.05810605 0.07066558 0.036634326 0.042278595 -0.0951915
0.0796228 0.0013365904 -0.04985842 -0.18832748 -0.2545434 0.06403159 0.18551156 0.039988726
0.041945316 0.015695445 -0.1651721 -0.05556411 0.05746201 0.12444473 -0.07387967 -0.2134241
-0.07408933 0.005849171 -0.09299375 -0.08560436 0.029231071 0.055709496 0.023380503 -0.102629445
-0.14618222 -0.08444118 0.10717246 -0.121358685 -0.15942033 -0.068675205 -0.031556778 -0.007846774
-0.039767914 0.0595775 -0.101873726 0.08644884 -0.07207383 -0.06327706 0.10288981 0.035239354
-0.08967421 0.028701993 -0.015348202 0.028833613 -0.057959612 -0.03772636 0.1350756 0.028418943
0.13991717 -0.0036120557 -0.16410224 -0.014817528 -0.058330208 -0.10759271 -0.065188676 0.041602395
-0.064536594 0.04836249 0.035903472 0.12228949 0.04639816 0.068241715 -0.016747903 -0.14764673
-0.0727242 -0.03379545 -0.11246101 -0.06350685 -0.051483013 -0.018832522 -0.07139358 -0.21866079
0.0148781985 0.20911972 0.010192052 -0.17185691 0.052519828 0.024029018 0.10471272 -0.13004367
-0.14296852 0.00322663 -0.06406083 0.07853047 0.044855557 -0.129371 -0.21328688 0.07468746
0.029355418 0.0687102 -0.18966119 -0.093062155 -0.2199946 -0.025360897 -0.11076797 0.002641202
0.0951845 0.03135975 -0.0465824 -0.010429142 0.035440754 0.082041025 -0.049887907 0.040526487
-0.09897979 0.17475098 -0.038792595 -0.0016568666 0.017621333 -0.029185133 -0.058371633 0.096839875
-0.10875747 -0.14188035 0.017316928 0.019240435 0.0024224212 0.07248035 -0.10334527 0.038475744

lstm.weight_hh_l0 f4 [256, 64]
00000000: 996c 843d 9af8 67bd a598 2c3e 6c36 52bc
00000010: 64e1 943d d1be 653e 401a acbd dc5a 223b
00000020: dbcb cf3d bff5 1d3e 408c 973d 7eb5 4e3d
00000030: 8a17 383e 3c92 b8bd 31ca 033e 55da 1b3d
00000040: db28 06bd a2f0 8e3d c3a8 48bc ae24 383d
00000050: 1f46 a4bc 4aa4 99bd 87f4 cc3c d433 de3b
00000060: 9ee9 233e d581 a8bc bc62 19be 7c07 023c
00000070: 1b53 633d ac5d bc3d 8916 f9bd d869 84bd
00000080: 3a6b 37bd a3a6 f83b 3eb3 103d 5237 b6bd
00000090: 2bb9 ad3c 813c 3f3d d768 93bd 16f1 703d
000000a0: de89 69bd cd8f 79bc a96b 103d 63d3 c6bd
000000b0: 29d2 69bd e1d9 24be 614b ccbd 5a00 fdbd
000000c0: dd3d bb3d 094a 883d 5fb4 c13d 8f94 c83d
000000d0: 4db7 31be d52a 323c 0ff9 593e 8564 bbbd
000000e0: 2083 6c3c f215 fd3d b28f dfbd cb46 70bd
000000f0: 7df0 83bd dc3e 0c3e 9403 113d 98fc d03d
00000100: 8e91 253d 2b48 40bd 6c36 8d3e d138 c53d
00000110: 6e0b f6bb 4b33 f5bd 604d 73bc a5e3 8abd
00000120: 7055 cbbd 82d2 16be 4609 d43d 433a 63bc
00000130: 8465 143d 2976 9dbd 7740 27be 0899 893d
00000140: 2a30 fc3d 0fca 4abe 9d98 1c3e 6237 973d
00000150: e815 393e 6143 f8bd b87d 31be b493 0e3c
00000160: d6e5 933d ba3c 17be 7f36 983d 87af 113e
00000170: b9f8 98bd 9472 4abe 5771 8abd 58e7 103e
00000180: 3544 0cbe 2a75 a5bd bf50 c53c 0323 9c3d
00000190: 4388 183d eae5 44bd deaf 09be caca b43d
000001a0: 262f f13c f774 3cbe 176f e1bc 56f1 13be
000001b0: 570b b9bd 9776 2ebe b007 f9bd 889d 7fbd
000001c0: 4803 79bc d09c 31bc bee2 b53d 99af 3c3c
000001d0: 6fa0 39be 8b56 9b3d 9d37 94bd c5f5 6a3e
000001e0: f249 9ebd 70b5 fd3d f8d8 38be bb30 7f3d
000001f0: 6b4a 073c 7b0e 38bd 1d91 8e3d d7e3 a9bd
00000200: 5350 173e 3f72 80be 8875 72bd 37bb 963d
00000210: 1593 abbc 8750 533d ef70 bdbc 6714 fc3d
00000220: 5484 583d 1076 85bd c88e 003d a8ca 7d3d
00000230: e95f 253e 0490 debc 6b8f 97bd 4248 9d3d
00000240: 7758 06be 8be8 aebc 6112 3f3e ec83 e73a
00000250: 167c 53bd ee5d 763d 0e2c e4bb a34e 603d
00000260: bb2f afbc 5a17 14be 98e9 a0bd 14a0 a5bd
00000270: ea2c 71bd 71c9 8f3d 80e9 32be d671 0cbe
00000280: a55c de3b c07c c2bc 003d b93d f838 3a3c
00000290: 8947 553d bb44 e63d 229e f2bc ef77 d43d
000002a0: 12cd 3d3e 4151 533d 10e9 1c3d 1b7d 0bbd
000002b0: 5852 6c3c cf94 023e 3737 d5bd f3e6 273e
000002c0: b7ed 6dbd ad11 45bb 7b50 a33c bd77 02be
000002d0: 39cc 4c3d f91d 17be ed47 f3bc c8ca ffbd
000002e0: 29ad dabd 9459 b3ba f983 ea3d d45d 103d
000002f0: 0469 bbbd 331f 24bb ed8d f3bd 3791 393e
00000300: 1b7d 613e 3331 90be cf78 ef3d 9a84 64be
00000310: 7f84 f53c d65c 68be 5169 e6bd 0309 91bd
00000320: 0f21 d43d 6dfa 25be c708 b33c fc18 6dbd
00000330: 292f f2bc 1485 4bbc 206d 36bc 83b2 133e
00000340: 1e25 133d bd67 f4bc b8b8 38be 7eb6 333e
00000350: f0b2 6dbd 7ae4 f9bd 2821 16be 05c3 fa3d
00000360: f2bc 663d d8a4 b6bd 0369 13be 57d5 613e
00000370: 452d ea3d 7742 a5bd a7dd 313e 7290 96bc
00000380: 5772 3c3e a62d f83b a38e 6e3c 0153 923d
00000390: 0207 b8bd 57d8 c6bd 5d8f 08bd 6cf2 923d
000003a0: 6e69 0a3e 2d14 093e 6bfb 5e3c ef99 81be
000003b0: 792b ccbb ca8c 213e 007a 4e3d 179a 8b3e
000003c0: 4893 903d cfa4 37be 6218 b7bd d204 c83d
000003d0: 65c4 39bc 7efa e43d f060 8f3d 4941 393d
000003e0: 4e3c e63d afa3 683d db83 85be 9ab1 37be
000003f0: 9e00 923d 6b14 8cbe 6bfe 3e3e 4940 7d3c
0.06466026 -0.05663357 0.16855104 -0.012830358 0.07269552 0.22436072 -0.08403444 0.0024773395
0.10146304 0.15425776 0.073997974 0.050466053 0.1797773 -0.09012267 0.12870099 0.038050015
-0.032753807 0.06979491 -0.012247267 0.044956855 -0.020052968 -0.07502039 0.025018943 0.0067810807
0.16007087 -0.020569721 -0.1497907 0.007936355 0.055499177 0.09197554 -0.12162501 -0.064655006
-0.044779994 0.007588224 0.03532719 -0.0889727 0.021206459 0.04668856 -0.07197731 0.058823667
-0.057016246 -0.015232039 0.035258923 -0.097082876 -0.05708519 -0.16098739 -0.09975315 -0.12353583
0.09142659 0.06654746 0.09458231 0.0979396 -0.1735508 0.01087447 0.21286415 -0.09150032
0.0144355595 0.12357701 -0.109160796 -0.058661263 -0.06442354 0.13695854 0.035403803 0.102044284
0.040422015 -0.046943825 0.27580583 0.096299775 -0.0075086867 -0.11972674 -0.014849991 -0.06781701
-0.09928405 -0.1472874 0.10353331 -0.013868871 0.036229625 -0.07688553 -0.16333185 0.067186415
0.12313874 -0.19803642 0.15292592 0.0738361 0.18074763 -0.121222265 -0.17333114 0.008702207
0.07221572 -0.14769259 0.07432269 0.14227115 -0.07469315 -0.1977027 -0.06759899 0.1415075
-0.13697894 -0.08078988 0.024086354 0.076238655 0.037239324 -0.048070826 -0.13445994 0.088277414
0.029441427 -0.18403994 -0.027518792 -0.14447531 -0.09035366 -0.17037426 -0.121596694 -0.062406093
-0.015198536 -0.01084061 0.08881138 0.011516475 -0.18127607 0.07584866 -0.0723717 0.22945316
-0.07728948 0.12388122 -0.18051517 0.062302332 0.008257489 -0.044935685 0.06961272 -0.0829541
0.14776735 -0.25087163 -0.059194118 0.07359927 -0.020944158 0.05159047 -0.02312514 0.12308579
0.052860573 -0.06516659 0.031386167 0.061960846 0.16149868 -0.027168281 -0.07400402 0.07679798
-0.13119684 -0.02135112 0.18659355 0.0017663217 -0.05163201 0.060148172 -0.0069632595 0.054762494
-0.021385064 -0.14462033 -0.078570545 -0.08087173 -0.058880724 0.07020844 -0.17471886 -0.137153
0.0067859464 -0.023741126 0.09044838 0.0113661215 0.052070174 0.11243578 -0.02961642 0.10374438
0.1853526 0.05159116 0.038308203 -0.034054857 0.014423929 0.12752078 -0.10410922 0.16396694
-0.05808803 -0.003007035 0.019935837 -0.12740989 0.04999945 -0.14757527 -0.029697383 -0.12489849
-0.10677559 -0.0013683313 0.11450953 0.03524573 -0.091508895 -0.002504301 -0.118923046 0.18121801
0.2202038 -0.28162536 0.11692964 -0.22316208 0.029970406 -0.22691664 -0.11250556 -0.07081797
0.10357868 -0.16208811 0.021854771 -0.057885155 -0.029563503 -0.012421865 -0.011134416 0.14423566
0.03592407 -0.029834623 -0.18039215 0.17550084 -0.058031976 -0.122017816 -0.14661086 0.12244228
0.056332536 -0.0891816 -0.14395528 0.22054039 0.11434416 -0.08069318 0.1736971 -0.018379424
0.18402992 0.007573801 0.014560374 0.07144738 -0.08985712 -0.09709232 -0.033339847 0.071751446
0.1351678 0.13386603 0.013609747 -0.25312755 -0.0062307683 0.15776363 0.050409317 0.27266
0.07059342 -0.17933963 -0.089401975 0.097665444 -0.011338328 0.1118059 0.07000911 0.045228276
0.11241971 0.056796726 -0.2607716 -0.17938843 0.07129024 -0.27359328 0.1865174 0.015457221

lstm.bias_ih_l0 f4 [256]
00000000: 0c69 32bc 8768 9cbd 94de 98bd 402a c1bd
00000010: 7c8e c1bd 93ad 733d 8d25 1e3d 43a2 c83d
00000020: 2a7e 153e 43ef 8abd 7d4e 02bc a64b 36bb
00000030: c25f 32bd f045 8dbd 5918 b33d 5657 fcbc
00000040: 8e5c ffbd e92a ea3c e738 dcbc 63c1 c1bc
00000050: 77e2 a1bc 195b ef3d dfec 4fbd 10ad 69bd
00000060: 4995 8b3d aa5c 033d 94d3 44be 61fa 803d
00000070: e199 c33d 1c91 23bd 0c7d 973d fd94 b83d
00000080: 60f3 b43d 1485 64bd f2ae e2bb 1b00 e33d
00000090: 7e44 633d 6343 9abd dc1c aabd 9646 0abe
000000a0: 7ffe 27bd 6eb2 22bd 90af bf3d f1bb bf3d
000000b0: 80b8 a83c 3621 38bd 7f08 483d 2ed8 4f3e
000000c0: 9ecf 183d bff7 96bd d898 17bd 12e8 abbd
000000d0: 6920 f0bc 984e 34bd 6822 6e3d 6533 c3bd
000000e0: 1c40 79be 74e3 3cbe 1387 0a3d c725 93bd
000000f0: 9e90 8bbb 4837 b3bb 23f9 183e b500 903d
00000100: 872d 48bd 53d9 50bd 935b 66bc f8ad 0ebe
00000110: d4a1 e83d 461f 81bd a39c 143d 181b 92bd
00000120: ad75 81bd 4d1f 853c 0146 113b 6bed 863d
00000130: e71a 02be 3df3 02be 64b5 80bc 3d59 543d
00000140: 4e1e 69bd b512 aabd d2fd df3c b978 cd3c
00000150: 27a7 0a3d 6cdb 853d adb1 fa3d e32f ba3d
00000160: 7a7d cb3c 000e 393d d30d ddbc 1e92 a83d
00000170: 2541 883d 2a25 3e3e 837b 10bd cf16 183e
00000180: 8899 1c3e e7b7 de3c b721 3a3c 50d9 d63d
00000190: b7ea dd3d ff1f 14be 1f5c e23a 7097 1fbe
000001a0: 59f4 0f3d c0ec b23d 5e59 3e3d 2466 953d
000001b0: d8c6 243d 0d7c febc 5ae4 553d 7b98 b43c
000001c0: d7d3 02bd 578c 083e 96b7 c93d 48cd 84bd
000001d0: 1609 a23d 2ba4 4f3d 9509 9cbd 339f 193e
000001e0: b8f4 c6bc 78fe 8bbc 3e43 2dbd 0f24 0dbe
000001f0: adc8 c8bd c30f 9cbd 7bd3 b63d 11e6 90bc
00000200: 4874 82bb 134f bbbd 785d 973d 058e 7a3d
00000210: 2d91 c9bc 7dd5 933d 4493 e43b 366b 1dbd
00000220: 5d05 3ebe b180 17bd 726f d5bd fbda 98bd
00000230: 57c5 d0bb b395 dbba 2b59 31bc a276 783d
00000240: 6225 743d 6059 a63d 08ba 53bd b31c 233e
00000250: b02d 8cbd 0ab9 3b3d efd4 093e 10ca 223e
00000260: f823 e13c 0689 953d f546 343e 4c73 873d
00000270: c9bd 623c ea30 c3bd 326a 03bb 4276 d0bd
00000280: ffd0 1f3e aa89 fcbc 6d57 3cbd fde0 3cbc
00000290: d698 af3d 3b4a 96bd a259 15bd d5ca babc
000002a0: 67c7 f33d fe22 d83c 0c75 61be 1ecc 66bd
000002b0: a3a1 d83c 510a aebd 817d 843d eaae 8ebd
000002c0: 7e74 15bc 8e2d 233e c394 663d a4ea 113e
000002d0: 03e3 74bc 1c52 f43d 90a9 2d3d 99b2 c8bd
000002e0: df8c 60bd 887d 053e b812 dc3d 8bf1 413d
000002f0: f134 c7bc 73ea e43d c571 763d cc2e b7bd
00000300: c3b6 883d cad6 6cbc 14cb f5ba 8e7f c03d
00000310: 543a dbbc 6e93 47bd 9c8d 2cbe 5a00 ca3d
00000320: da31 acbd 68f9 6ebd b266 2bbd 1874 a83c
00000330: 6492 2c3c 8c8e 80bc 7e7f 23be 5694 ee3c
00000340: 9011 d8bd e496 8cbc 1c30 00be 777d 643d
00000350: 58da e8bd 3f54 b6bd 7592 0a3b 5f88 b2bc
00000360: 74f6 08be df80 e53d c062 ef3d 54ae 233d
00000370: 797f 903d 9411 453c b146 f83c 67a4 dfbd
00000380: 8e64 1b3c 8506 71bc 1103 44bd 2593 00be
00000390: c777 3b3d f479 d4bd e19b c13c 812e 4ebd
000003a0: 31c7 523b 3aa4 143e 1b2e 4b3d 371f f63d
000003b0: 41d5 b53d 2f0c 8ebd 9688 cebd 39c3 74bc
000003c0: 29d2 b6bd f2e4 d5bd 07e3 00be 77e7 f63d
000003d0: 580b a73d 633d ca3c d736 a0bd 1eac 9abd
000003e0: a459 95bd 0740 443d 1065 1fbe e4ed eb3d
000003f0: c41d ae3d bf43 aabd 9c66 b53c 52cc eebd
-0.010889303 -0.076371245 -0.074643284 -0.09431887 -0.09451005 0.059491705 0.03861003 0.09796574
0.14598909 -0.06783917 -0.007953283 -0.0027816086 -0.043548353 -0.06898105 0.08744878 -0.030803364
-0.12468825 0.028584914 -0.026882602 -0.023651784 -0.019761307 0.116872974 -0.050763007 -0.05704981
0.06815583 0.032070793 -0.19221336 0.06297756 0.095508344 -0.03993331 0.07396898 0.09012792
0.088354826 -0.055790976 -0.0069178278 0.110840045 0.05548524 -0.07532384 -0.08306286 -0.13503489
-0.04101419 -0.039720945 0.09359658 0.09362019 0.020595789 -0.044953547 0.048836228 0.2029731
0.037307374 -0.073714726 -0.037010998 -0.08393873 -0.02931233 -0.044020265 0.05813828 -0.09531287
-0.24340862 -0.18446141 0.033820223 -0.0718494 -0.004259183 -0.0054692365 0.14938788 0.07031385
-0.048871543 -0.050988507 -0.014059919 -0.13933551 0.11358991 -0.06304793 0.036282193 -0.07134074
-0.06321273 0.016250277 0.002216697 0.06588253 -0.12705575 -0.127881 -0.015711494 0.051842917
-0.056913666 -0.08304349 0.02734271 0.02508198 0.033850815 0.06535992 0.1224092 0.09091165
0.024840105 0.045179367 -0.026984131 0.08230995 0.0665305 0.18568864 -0.03527404 0.14852451
0.15292943 0.0271873 0.011360577 0.10490668 0.10835784 -0.1446533 0.0017269886 -0.15585113
0.035145137 0.08736563 0.046471946 0.072948724 0.040228695 -0.031065011 0.052219726 0.022045365
-0.031940307 0.13334785 0.09849469 -0.06484467 0.07911889 0.050693672 -0.07619015 0.15002136
-0.024286613 -0.017089114 -0.042300455 -0.13783287 -0.09803901 -0.07620194 0.089270554 -0.01768783
-0.003981147 -0.091459416 0.073908746 0.061170597 -0.024605358 0.07218454 0.0069755632 -0.038432322
-0.18556733 -0.036987964 -0.10421647 -0.07463642 -0.006371181 -0.0016752988 -0.010824482 0.060660012
0.059605964 0.08122516 -0.051691085 0.15928917 -0.06844652 0.045830764 0.13460134 0.15897393
0.027482972 0.07301526 0.17605193 0.06613788 0.013839194 -0.09530814 -0.002005231 -0.10178806
0.1560707 -0.030827362 -0.045981813 -0.011528251 0.08574073 -0.07338377 -0.036462434 -0.022801796
0.11903267 0.026383873 -0.22017306 -0.056347005 0.026444262 -0.084980614 0.064692505 -0.06966956
-0.009122012 0.15935346 0.056294214 0.14249665 -0.014946702 0.119297236 0.042398036 -0.0979969
-0.054821845 0.13036168 0.10745758 0.047349494 -0.024317237 0.1117753 0.060167093 -0.08944473
0.06675484 -0.014455507 -0.0018752539 0.09399329 -0.026761211 -0.048724584 -0.16850895 0.09863348
-0.08407946 -0.05834332 -0.041845985 0.02056317 0.010532949 -0.015692972 -0.15966603 0.029123466
-0.10550225 -0.017161794 -0.12518352 0.055783715 -0.11369771 -0.089027874 0.0021144424 -0.021793542
-0.13375264 0.11206221 0.11688757 0.039961174 0.070555635 0.012028117 0.030307146 -0.10920029
0.009484423 -0.014711027 -0.047854487 -0.12556131 0.045768525 -0.10374823 0.0236339 -0.05033732
0.0032162184 0.14515772 0.049604516 0.120176725 0.088785656 -0.069359176 -0.100846455 -0.014939123
-0.089268036 -0.104440585 -0.12586604 0.12055867 0.081564605 0.024687475 -0.0782296 -0.0755236
-0.07292488 0.047912624 -0.15565896 0.115199834 0.08501771 -0.08313703 0.022143655 -0.11660065

lstm.bias_hh_l0 f4 [256]
00000000: bbd7 e4bd f3cf dfbc a616 34bd 4f6e 6abe
00000010: e76a 0fbe e32b 93bd 4805 47bc 4e08 083e
00000020: f641 0a3e 32c0 da3d bc31 db3d 67f2 1abc
00000030: 270b b33d d2cd 8dbc 9d93 d73d f6b8 8c3d
00000040: 9cb4 1b3d b857 cabd 64a8 01be 5e9a 903d
00000050: fbcd d53c b581 283e e119 3b3d 404a 98bd
00000060: 6481 c4bd bc8e 7cbc e764 c1bc 5c5d 86bd
00000070: 44f9 35bd ae05 083c f963 113d 0055 11bd
00000080: 2cf7 00be b47a 9bbd ce89 96bd ecae 413d
00000090: b4ea 42bd 9811 71bc 5f3e c23c 6c79 1b3d
000000a0: da4f 17be 09fa aa3d 2cea bc3d ed8d f3bd
000000b0: 9fe9 a73d 6af2 39bd 09cb dabb 0a79 b83d
000000c0: 9dca 2d3e 555e afbb f46f 42be ab12 16be
000000d0: f6de 2bbb f129 ce3d 52c0 343d 35a8 5fbd
000000e0: 0f76 7abd bca2 2cbe 08df 8f3d 0179 8b3d
000000f0: 91de 0e3d c10c 393e 1411 3cbd 3488 573d
00000100: fe99 8b3c 90d4 593d 9626 02be 1fae df3b
00000110: 3edc a7bb 830e e3bd 20b8 67bc 6fc0 92bd
00000120: 38fd 10be 8920 cb3d 9ec7 6bbd b698 79bd
00000130: aaed f13c f015 62bc 0e00 53bd c416 153d
00000140: 5fa6 02bc 7347 843d d0f2 6f3d 12f4 58bd
00000150: 5ca6 edbd fdda 4dbd 769f 093e c8ce 4bbd
00000160: 9956 993d 0ec3 003e 9e77 e3bd 44aa 573c
00000170: ff69 ca3d 7b54 1e3e bfa1 af3d 6d84 813d
00000180: ff4b 7abd ee38 76bb 6f85 f43d 27da 62bd
00000190: cfb7 263e 5a52 5bbd 322a ac3c cbd4 ebbc
000001a0: 43a7 303d 20b9 efbd 9cd8 81bd 97e7 003e
000001b0: e374 8d3d b80d c23d 7afd 1bbd 2172 173e
000001c0: 517d 963c dad9 583e 8254 d13d fc2b f33c
000001d0: b755 3f3d 0194 203d 60f1 003c 426d d03d
000001e0: 4fd4 42bd 0ae7 6dbc ce67 04bb e6ea 8dbc
000001f0: 256d 5d3d 65c2 b13c 53e7 653c 1615 7bbd
00000200: 71cd b93d a90e ba3d d477 2dbe 8649 3ebb
00000210: 3de3 223e e117 b9bd 0628 573c fada d33d
00000220: e3af 45be f7a9 4ebd 0dd1 9e3d 35c4 863d
00000230: b7b6 4dbe 0dba f2bc a6d4 f2bc 81ac 7fbd
00000240: 787a 92bb a3da 2b3e 9c50 083d 26ba 09bd
00000250: ca56 0c3c 3c68 93bd 2db0 5d3e 62ca ee3d
00000260: 41df ac3d c177 0a3e 0938 5a3c 128d 95bd
00000270: 949e 22bd 0584 81bc 52b3 69bb 99d6 ca3c
00000280: 1df2 a73d 04c9 b03d ac1e dfbd 3ec8 833d
00000290: 8c03 b33c 6fb3 533c 1ec8 f2bd 4801 bb3d
000002a0: d196 15bd b7cc 8c3c 6551 b0bd 2cd7 003e
000002b0: 8c6f 82bd fd44 153e b23e 653d 9f93 0abd
000002c0: c885 3a3d 1f8e 103d ceb2 a33d e4a7 1a3d
000002d0: 24ad 0c3e ce4a 0a3b b8e2 023d f954 0ebe
000002e0: e779 e7bd 9758 433e 8486 b9bd fe8a bb3c
000002f0: f045 c6bd c766 303d 60f8 c33d 1c13 f6bd
00000300: 557c 103e dcab c73d f900 58bd b6f9 41bd
00000310: ed29 f63d 8ebf 90bd 7a99 5e3b 2007 8fbd
00000320: be9d f9bd 6550 893d e956 133e 338c 1abc
00000330: bfa2 373c 8728 733d d7a9 05bd 77e2 f43c
00000340: e695 8e3d 4677 993d 51df 263d fede 2abe
00000350: ee3d bc3d dc30 95bd d6ed e23d 9de0 98bc
00000360: 87e2 2f3d 4be0 8f3d 90d9 e33d 2bd5 d0bd
00000370: 2a5f 023e e10e 013e cc6f 14be ef6f 023e
00000380: 9803 883d bae5 9c3d 3049 ad3c d50e 8fbd
00000390: 0211 9cbc 821a a93d 995b c9bb 015b 00bd
000003a0: 94e0 78bd b1a7 ed3d a922 b83d a56d 963c
000003b0: 497e 143d 1004 2cbc 4ad1 6cbd fdaf 023e
000003c0: aada 07bb 6d12 18bb ac8c cb3d f879 73bc
000003d0: 61a4 52bd 4198 643d c912 a0bd db4b 993d
000003e0: e01b 01bd 0b5a ecbc 75f2 d83b 2a98 0b3d
000003f0: e3ad 0a3e 5908 8dbc eab7 8b3c 3503 b73d
-0.1117396 -0.027320838 -0.04396691 -0.22893642 -0.14005624 -0.07186105 -0.012147255 0.13284418
0.13501725 0.106811896 0.107028455 -0.009457207 0.087423615 -0.017310057 0.10526202 0.06871216
0.03801404 -0.09880012 -0.12661892 0.07060693 0.026099196 0.1645573 0.045678977 -0.07436037
-0.09594992 -0.01541489 -0.023607684 -0.06560776 -0.04442717 0.008302135 0.035495732 -0.035481453
-0.12594289 -0.07591763 -0.07350503 0.04728596 -0.04758711 -0.014713667 0.023711381 0.037957594
-0.14776555 0.08348472 0.09224352 -0.118923046 0.081988566 -0.0453972 -0.0066770357 0.09007461
0.16971822 -0.0053518214 -0.18988019 -0.14655559 -0.0026225424 0.100665934 0.044128723 -0.054603774
-0.061147746 -0.16858953 0.07024962 0.06810189 0.034880225 0.18071271 -0.045914724 0.052620128
0.017041203 0.05318123 -0.12710032 0.006826177 -0.0051226905 -0.11086752 -0.01414302 -0.0716561
-0.14159095 0.09918315 -0.057563417 -0.060936652 0.029532272 -0.013799176 -0.051513724 0.036398664
-0.007974236 0.0645894 0.058581173 -0.05296714 -0.11603996 -0.05025767 0.13439736 -0.04975775
0.0748722 0.12574407 -0.111067995 0.013163153 0.098834984 0.15461914 0.085757725 0.06324086
-0.06110763 -0.0037570554 0.11939513 -0.055383828 0.16281055 -0.053545333 0.021016214 -0.028787991
0.043128263 -0.11705232 -0.06340143 0.12588345 0.0690706 0.09475273 -0.03808353 0.1478963
0.018370302 0.21176854 0.10221197 0.02968406 0.046712603 0.039203648 0.007870048 0.10177089
-0.047565755 -0.014520416 -0.0020203474 -0.017323922 0.054059166 0.02169914 0.014032203 -0.061299406
0.09072388 0.090848275 -0.16940242 -0.0029035523 0.15906997 -0.09037758 0.013132101 0.10344501
-0.19305377 -0.05045506 0.07754717 0.06580392 -0.20089231 -0.029629732 -0.029642414 -0.062420372
-0.004470166 0.16782622 0.03328 -0.03362479 0.008565614 -0.071976155 0.21649237 0.11659695
0.0844102 0.13522245 0.013319024 -0.07302298 -0.039702013 -0.015810022 -0.0035659862 0.024760531
0.08200476 0.08632091 -0.10894522 0.064346775 0.021852277 0.012921198 -0.118545756 0.09131104
-0.036520783 0.01718746 -0.08609275 0.12582082 -0.06368932 0.14577098 0.055967994 -0.03383219
0.04553774 0.035291787 0.07993089 0.03775777 0.13737923 0.0021101716 0.031954497 -0.13899602
-0.11302548 0.19076763 -0.0905886 0.022893425 -0.09681308 0.043066766 0.09568858 -0.120153636
0.14109929 0.097495764 -0.052735303 -0.047357284 0.120197155 -0.07067786 0.003396599 -0.06983781
-0.1218829 0.06704787 0.14388622 -0.00943284 0.011208235 0.05936482 -0.032632675 0.029893143
0.069621846 0.07493453 0.040740315 -0.16686627 0.091915 -0.0728471 0.1108052 -0.018661791
0.042940643 0.07025202 0.11125481 -0.101969086 0.12731615 0.12603332 -0.14495772 0.12738012
0.066413105 0.07661004 0.021153063 -0.06985251 -0.019051079 0.08257009 -0.0061449525 -0.031336788
-0.06076105 0.1160425 0.08990986 0.01836283 0.036253247 -0.010499015 -0.05781678 0.12762447
-0.00207297 -0.0023204342 0.099389404 -0.014860623 -0.051426295 0.055809263 -0.07816083 0.074851714
-0.031520724 -0.02885153 0.0066207 0.03408066 0.13542895 -0.017215895 0.01705547 0.089361586

lstm.weight_ih_l1 f4 [256, 64]
00000000: 71c9 02be 7a87 76be fb9c 74bc 9d1f 2cbe
00000010: cff9 d8bd 5a08 ab3d 33f1 ad3c fc25 f83c
00000020: 243c 153d 8f0d a6bd 6218 4a3d 5bb5 dabd
00000030: c01a d03d 46db 37bd 0448 b9bd d03f f8bd
00000040: d456 5cbd 10c1 d5bc 6128 723d 3e3f 08bd
00000050: 6fbf 4abd 973e f43d c21c 2039 a363 14be
00000060: b254 18bd 36a1 eabc cb5a 85be b19f 543d
00000070: bd6d 053c 5306 31bd 4040 0dbe 82bb 1ebe
00000080: 3418 73bd 7859 ccbd 171b 773c 8070 62bd
00000090: f7b7 bebd d6f5 42bd fda3 47bd 50fb f43d
000000a0: eab0 263c 7989 4d3d 5ec2 76bd f90f 083c
000000b0: e9a2 e6bd 8222 ddbc 1d4c 57bd 3a73 33be
000000c0: 95b6 88bc 7d22 753d ab54 8abd 8ffc 90bd
000000d0: e50d 113d 145b b73d 71bd 653d 47cb 863d
000000e0: 67c2 1f3d 1523 243c aa46 cfbc 093b ff3c
000000f0: 4803 c1bd 93e4 8f3d daef 803d d3ce 203e
00000100: 5562 6abd cf90 e73c 8261 433d a4bf c13c
00000110: 86af a63d b270 f73d 1d1c d63d 0040 83bc
00000120: a004 f33c 1feb 133e 8064 c93d 8608 ff3a
00000130: 2daf acbd fa89 c6bd 040d f7bc 8a7f 663a
00000140: d63e 5d3d 9c4f ab3d 2fb9 113e e1d0 bc3d
00000150: 27b6 01be 35cc 223e 470a 883d f1f5 3a3c
00000160: 5c30 6cbb 2f57 fa3c 0397 2c3d 6a59 c43d
00000170: 7e7d 1c3e ece8 393e cd68 bc3d 299d 45bc
00000180: 49a6 f9bd 6e59 33bd eef4 ae3b 69c1 e73c
00000190: f358 da3c 763d 063e 0cd3 70bd 565f 03be
000001a0: 5912 04be fba4 15be cb15 0dba 5858 4b3d
000001b0: cef8 9b3d 466a 46bc 635a f3bd 6001 28be
000001c0: 213e 32bd 87a1 643e 0809 0fbe 3006 693d
000001d0: 0ae7 63bd 7dd9 433d 315e 083e 06ef 12bd
000001e0: 45c6 ea3d 4a59 09bd 41c2 aebd eaea eebd
000001f0: bf19 ea3d 5662 5bbd 64d7 f8bc b71c 8f3d
00000200: 6dc1 9ebd 936e a43d 7af6 d83d 1646 4abd
00000210: 1339 5e3d 67e3 64bd 5a9c 183d 8297 eebd
00000220: baf3 a3bd 3946 97bd e1bf f3bc 3dae a6bd
00000230: f4da 8a3d ae60 513d 5b27 fdbb 799f de3c
00000240: 0482 fa3c 9b5f 8a3c 49fe 05be 4259 febd
00000250: 92ca 73bc c90c e7bd fa6d f53d efb1 39bc
00000260: 0fea 88bc 3a7a aabd ca81 cabd 1d17 073c
00000270: 21ee 9dbd b8c5 d53b 06af 0fbe ac7a 2f3d
00000280: cdd5 bb3d 9576 ee3c 3473 4fbd 4a1b 193d
00000290: a6cc e6bd 7ab3 333d 66da cebc 946f fc3d
000002a0: 8b16 f0bd 955b 68bd 4e08 91bd 9d80 f8bc
000002b0: 1e17 e23c 71d2 07be 7b91 8dbd ae13 073d
000002c0: 8b7f a8bd f166 193d 8706 193c 4037 01bd
000002d0: 4f36 20bd aea7 88be d74d afbc 5f9a 373d
000002e0: fee0 59bd 7411 c23d 7b01 e5bd d395 5cbd
000002f0: 96d8 ecbc 72ee 1a3e ef2e 52bc 93b0 bf3b
00000300: 1150 78bc 34d6 e1bd ace0 da3c e552 0fbe
00000310: 8e18 053e a022 ad3d 93a2 c23d d45e f3bd
00000320: ae0f 5abc eb25 96bd 7339 533d 7b23 8abb
00000330: 1ab6 2e3e 1d8e c6bd 2d2d e83d 219f 6abd
00000340: 834d 4bbe 12f2 b0bd e03c ab3e cd1e 5d3d
00000350: b885 013d 2963 efbc f9c9 853d 780e 903d
00000360: a92d 8c3d 2ca8 aebc 0f36 19bd 13c8 0fbe
00000370: fafc e13d 441c c23c 6d4f 1cbe aa68 9cbc
00000380: eeb0 083d 09e0 17be b6c3 4abd c389 1e3e
00000390: e8bb 5d3d 8160 f53c 437e 8e3d ad92 6b3d
000003a0: 0f1d 02bd ae90 d53d 9edd 8fbd 6827 6abd
000003b0: 2ffe 59bd 9f9d aa3d fb10 803c 70d8 cabd
000003c0: 6084 b83d 44fc 96bd 1a2a 133e 1627 293d
000003d0: f54b 123e 1d49 03be ce0b 143d fa50 cd3d
000003e0: 73bd d6bc b5be 19be 9e4f 4bbb 233f 2cbb
000003f0: e37d 06bc 380b 413d 4417 233e b10d c23d
-0.12772156 -0.24075118 -0.014930005 -0.16808935 -0.10594522 0.08351202 0.021233177 0.03029155
0.036434308 -0.08108055 0.04933966 -0.10679122 0.10161352 -0.04488685 -0.09046939 -0.12121546
-0.053793743 -0.026093036 0.05912054 -0.033263437 -0.04949897 0.119260006 0.00015269502 -0.14491133
-0.037190147 -0.028641324 -0.26045832 0.051910106 0.008143839 -0.043218922 -0.1379404 -0.15501216
-0.059349254 -0.09978002 0.015082142 -0.05528307 -0.09312432 -0.04759773 -0.048740376 0.119619966
0.010174016 0.050179932 -0.060243957 0.008304589 -0.112615414 -0.026993994 -0.05256282 -0.17524424
-0.016688624 0.059847344 -0.067544304 -0.07079422 0.03541364 0.08952919 0.05608887 0.06581741
0.039003756 0.01001813 -0.02530225 0.03115608 -0.09424454 0.07026019 0.06295748 0.15703897
-0.057222683 0.028267292 0.047700413 0.023650952 0.08138947 0.12082042 0.10454581 -0.016021729
0.029665291 0.1444516 0.09833622 0.0019457496 -0.0843185 -0.09694286 -0.030157574 0.00087928085
0.054015003 0.08364794 0.14230798 0.09219528 -0.12667142 0.15898211 0.06642585 0.011411176
-0.0036039567 0.03055915 0.042136203 0.09587367 0.15282246 0.18155259 0.09199677 -0.012061396
-0.121899195 -0.04378646 0.0053392565 0.028290467 0.026653742 0.13109383 -0.05879502 -0.12829337
-0.12897624 -0.14613716 -0.00053819705 0.049644798 0.07615815 -0.0121102985 -0.11882474 -0.16406775
-0.043516282 0.22327243 -0.13968289 0.056890666 -0.055640258 0.047814835 0.13317181 -0.03587248
0.11463598 -0.03353242 -0.08533145 -0.116659 0.11430692 -0.053560577 -0.030376144 0.06987899
-0.07751737 0.08028903 0.10593887 -0.049383245 0.05425365 -0.05588093 0.037258483 -0.116499916
-0.080054715 -0.07386441 -0.02975458 -0.08138702 0.06780043 0.05111759 -0.007725639 0.027175652
0.030579574 0.016891291 -0.13085283 -0.12419368 -0.0148798395 -0.112817355 0.11983867 -0.011333927
-0.01671317 -0.08324094 -0.098880365 0.008245257 -0.07711435 0.006523814 -0.1403161 0.0428416
0.09171639 0.029109279 -0.050646976 0.03737954 -0.11269502 0.043872334 -0.025250625 0.12325969
-0.1172305 -0.056727964 -0.07081662 -0.030334765 0.027598914 -0.13263871 -0.06912514 0.032977752
-0.08227452 0.03745169 0.009339935 -0.03154683 -0.039114293 -0.2669043 -0.021399422 0.044824954
-0.053193085 0.09475985 -0.11181923 -0.05385382 -0.02891187 0.15130022 -0.012828573 0.0058499067
-0.015155808 -0.11027184 0.02671846 -0.13996466 0.12997648 0.0845387 0.09503665 -0.118833214
-0.013309402 -0.07331451 0.05156846 -0.0042156554 0.17061654 -0.09695075 0.113367416 -0.057280663
-0.19853787 -0.08639921 0.3344488 0.053984452 0.031621665 -0.029222088 0.06532664 0.0703401
0.068446465 -0.021320425 -0.03740507 -0.14041166 0.110345796 0.023695119 -0.15264674 -0.019092876
0.03337186 -0.14831556 -0.04950305 0.1548224 0.05413428 0.029953243 0.06957676 0.057512928
-0.031765994 0.10427986 -0.07024692 -0.057166487 -0.053220924 0.08330845 0.015633097 -0.099045634
0.090096235 -0.073723346 0.14371529 0.04129704 0.14286788 -0.12820859 0.03614407 0.10025211
-0.026213383 -0.15014155 -0.0031022797 -0.002628275 -0.008208725 0.04712984 0.15926844 0.09475268

lstm.weight_hh_l1 f4 [256, 64]
00000000: e0b6 00bd 78f0 14bd d90b 933d 15a4 aabc
00000010: 606e a13d 0d12 83be 786d ac3d 9d00 46bc
00000020: e164 e53d 3055 bf3d 4241 273d bca8 cb3d
00000030: 4fa4 74bd 51b6 43be 41ab 22bd ca70 37be
00000040: cc6f 8ebd 2142 d4bc 8ee1 12bb ac38 b8bd
00000050: 5748 8e3d f5d3 9a3d a62d d83d 0a4a be3c
00000060: b49c 4f3e c0d1 c2bd 2506 45bd d4fd d23d
00000070: 1a14 febd 80cf 1d3d 39bb b03d 1316 fc3d
00000080: 34d7 ffba d08f 37bd bca2 b73c be3d 1f3d
00000090: c05e 7c3d f11f 733d 4e7c d43d 0019 b4bc
000000a0: 53d5 9d3b 74ab 363e f1f0 03bd 30f3 733d
000000b0: 6ed7 f93c dc69 313c f3d8 163e 8571 14be
000000c0: d8e5 b0bd 5f28 353e 39d5 e03d 0a00 0c3e
000000d0: bd1d 28be cd08 90bc 964f 1e3d 7b1f a0bd
000000e0: 0ac1 30be 3a7f bcbd 0e94 63bb 6c83 55bd
000000f0: 37e0 8bbd 2aa5 8bbd f61b be3d ff2d 6a3e
00000100: 9a61 733d 3187 0a3d b0dc be3d cef6 fdbd
00000110: f3e3 9b3c 5e1f a9bd 3ce1 e8bd d370 bb3b
00000120: 62fb 41bd 126a 0ebe e2f5 a83d ae17 f6bd
00000130: 71ba de3d 73ff 04bd 85e0 4cbe 19d7 b8bd
00000140: 8bf0 cd3d 0718 67bc 9768 9d3d 31a1 0fbe
00000150: f5f1 00be a92d 303d 37a3 92bd 55af 17bc
00000160: 1db8 5ebd c05d 84bc aff1 4c3c c18c c1bd
00000170: 643f 2f3d 291b 9f3c 60c9 9abd 8503 a93c
00000180: 0714 43bc cd8e 033d 0c8c 07be a42c bcbd
00000190: 7bb6 a5bd 49f1 41bd 9c80 f1bd b91e 2ebe
000001a0: 79ed 0dbe 0207 41be b89f 803c c856 60be
000001b0: b4e9 b7bd 1c43 0abe 3d7b 26bd de9e 223c
000001c0: 8d23 44be ef63 7ebd 1d1b 023e aec7 bebd
000001d0: b6ef 183e e4ce 0fbc a05a b03d 4bb8 d23d
000001e0: 521e a03d 771e 3ebc 0bbf 57bd 119b ac3d
000001f0: b3c2 acbd a8af a13d e656 8ebd be22 01be
00000200: 47fc e53d 90d3 a8bc d4c8 473c b8ca 91bc
00000210: af86 763d 4507 25be 0e14 36bd e493 2d3b
00000220: 044a 1f3d 03a4 dabd c2ea b83c 401a 50bd
00000230: b53b 49bc a59b 553d 265e 033c 66f1 ec3d
00000240: 7fdc aa3d 648b 3f3d 14e8 163c 49ee b83d
00000250: 885b 6a3d 8b34 e9bd d480 ff3c 24b8 62bb
00000260: 8005 41bd e86a 853d eb58 003e cf94 6dbd
00000270: 6a2b 4ebd f723 a4bd fbcb f93d 290c 23bd
00000280: 0ed2 a13d acbf fbbd dac8 acbd 72ed 1a3e
00000290: ca9b be3d a9e1 98bd aff6 a33d 70f8 51be
000002a0: 860b 0c3e e066 57be 650f 063e 5929 abbc
000002b0: 5053 053e 2922 0abe c162 f43b 6c05 9a3d
000002c0: 6970 45bd 81d4 d6bd 8815 b53d eb1a 93bd
000002d0: 5d61 fc3d 39fe 17ba 172b 183b 473c 8ebd
000002e0: 2f14 bdbd a158 dc3d f0ba 4f3d 3190 6abd
000002f0: 3adb 9bbd caca 0bbe 26f6 36bd bd3a 203c
00000300: cc67 37bd c33d 12be d731 483d 3781 4abd
00000310: 5b65 c7bd b150 9fbc be01 61bd 453c 97bd
00000320: de2f 5b3e 1220 95bb ef4e 1f3e 9a6a 953d
00000330: 9eab 75bd 8190 49be f12a 2a3e 0cd4 34be
00000340: 02ef f73d a7a0 e4bd afb1 4b3b 0b10 543d
00000350: 34d1 1e3e ce48 a53d c286 373e 30e0 dbbd
00000360: c1b0 bd3d 36dc 053e d1f2 4e3e bbcb 8dbd
00000370: 7248 c4bd 2b0e 48bc 941b fcbc ad83 ee3d
00000380: 32e2 4c3a b024 773d 0d25 a7bd b38b 133e
00000390: e3b1 0f3e c1d4 7a3e 3259 593e f3c4 9cbd
000003a0: 2c9f a5bb ad3b d4bd 4f65 37bd c1bb 933a
000003b0: 900e ff3d 04f4 4a3d ecdb 5b3e d3cc 25be
000003c0: 9a90 63bd cb81 21bc c09e 923d 26a7 573d
000003d0: 3e99 41be 8faa 433d 4ac7 39bc 6555 99bc
000003e0: 68be 50be 3295 88b9 1d1a 063d 9b4e e2bd
000003f0: 9b07 6fbe ab04 67bd bc90 4fb9 441a 883d
-0.031424403 -0.03636214 0.07179994 -0.020830194 0.078823805 -0.2559971 0.08419317 -0.012085107
0.11200882 0.0934242 0.04083372 0.09944293 -0.05972701 -0.19112517 -0.0397141 -0.1791412
-0.06954917 -0.025910439 -0.0022412273 -0.08995184 0.069473915 0.07559959 0.10555582 0.023228664
0.20274621 -0.09512663 -0.048101563 0.1030232 -0.12406178 0.038527966 0.0862946 0.12308898
-0.0019519092 -0.044814885 0.022416465 0.03887724 0.0616138 0.059356634 0.10375272 -0.021984577
0.00481669 0.17838842 -0.0322122 0.059558094 0.030498233 0.0108284615 0.14731197 -0.1449643
-0.08637589 0.17691182 0.10978169 0.1367189 -0.16417594 -0.017582322 0.038650118 -0.078185044
-0.17261139 -0.09203954 -0.0034725699 -0.052127287 -0.06829875 -0.06818612 0.09282677 0.22869109
0.059419252 0.033820335 0.093194366 -0.1240059 0.019029593 -0.08257936 -0.11371085 0.005720237
-0.047358878 -0.1390765 0.082500234 -0.12016235 0.108754046 -0.032470178 -0.20007522 -0.090254016
0.100556456 -0.01410485 0.076859646 -0.14026333 -0.125923 0.043012295 -0.07160037 -0.009258111
-0.054374803 -0.016157985 0.012508794 -0.09450675 0.042785063 0.01942213 -0.075579405 0.020631561
-0.01190663 0.032118607 -0.13237017 -0.09188202 -0.08091446 -0.047349248 -0.117921084 -0.17003907
-0.1386012 -0.1885033 0.01570116 -0.21908104 -0.08980122 -0.13502163 -0.040644873 0.009925572
-0.19154187 -0.062107023 0.12705655 -0.0931543 0.14935192 -0.008777354 0.08611035 0.10289057
0.07818283 -0.011603943 -0.052672427 0.08428014 -0.084355734 0.07894832 -0.06950168 -0.1261091
0.11229759 -0.020608693 0.012193877 -0.01779686 0.060187038 -0.16116054 -0.04445272 0.0026485855
0.038888946 -0.10675814 0.022572879 -0.050806284 -0.012282302 0.052150387 0.008018052 0.115694806
0.083428375 0.046763793 0.009210605 0.09029824 0.057216197 -0.11386975 0.03118936 -0.003459462
-0.047124386 0.065145314 0.1253392 -0.058003243 -0.05033437 -0.08014672 0.12197109 -0.03980652
0.07901393 -0.12292418 -0.08436747 0.1512964 0.09307058 -0.07464916 0.080060355 -0.20504928
0.13676271 -0.21035337 0.1309181 -0.02089374 0.13020062 -0.13489594 0.0074580614 0.075205654
-0.048202906 -0.10489751 0.088419974 -0.071828686 0.12323258 -0.0005798075 0.0023219043 -0.06945091
-0.09232365 0.10759092 0.050715387 -0.057266418 -0.076101735 -0.13651577 -0.04466834 0.009779629
-0.044776723 -0.14281373 0.048875656 -0.049439635 -0.09736129 -0.019447656 -0.054933302 -0.073845424
0.21404979 -0.004550942 0.15557455 0.07295723 -0.05997812 -0.1968403 0.16617943 -0.17659014
0.12106134 -0.111634545 0.003108125 0.051773112 0.15509492 0.08070527 0.179225 -0.1073612
0.09262229 0.13072285 0.20209815 -0.06923624 -0.0958413 -0.012210409 -0.030774869 0.11646209
0.0007815688 0.060337722 -0.08161364 0.1440876 0.14032702 0.24495222 0.21225432 -0.076547526
-0.005054375 -0.10362945 -0.04477435 0.0011271165 0.124539495 0.049549118 0.21470612 -0.16191415
-0.055557825 -0.009857605 0.071591854 0.05264964 -0.18906114 0.04777008 -0.011339018 -0.018717477
-0.20385134 -0.000260511 0.032739747 -0.11050149 -0.23342745 -0.056400936 -0.00019794976 0.06645635

lstm.bias_ih_l1 f4 [256]
00000000: 774f 3d3d 8c56 b6bd 31c8 9bbd fcfd 42bd
00000010: 3a4e 11bc 8807 1bbd 9859 15bd 90dd ea3d
00000020: 9ebc febc 9e04 4dbe d5c1 d3bd 4f06 ddbd
00000030: 0756 293d 7c1d ccbd 6b4e d1bd 8f1a 80bd
00000040: c75d 213d 3d4c 053d f6f0 833d 0988 dcbd
00000050: 8e35 983d 553a cebd 1121 a7ba 2a86 88bd
00000060: 8b1b ca3d 0782 3c3d d139 233c ba21 4f3d
00000070: 9d61 d33d 8b10 bdbc a4c2 eb3d fbc6 023e
00000080: ff64 28be fed0 40be 0059 d4bd a3a0 32bd
00000090: d60b 8ebd 7396 76bd d15c debd f3e8 b23d
000000a0: 77d4 f9bc 7b98 5abd 04fe b03d 6dd6 803d
000000b0: 5725 f0bd 33ac c0bd eadc cfbd 8e54 b339
000000c0: 3481 ed3d 4101 ebbd f570 05bc e610 a2b9
000000d0: 6cb9 adbd c947 813c 405a 42bd 24ef c4bc
000000e0: 944c b4bd 0f76 d9bd a2f8 08bd 32be 443d
000000f0: 9995 ee3d c1b9 97bd ab25 143d 4f74 c03d
00000100: ffde 5abd 7ccd 92bd c8b1 d3bd 1dee f3bd
00000110: e005 86bc 69aa b8bd 1b78 ccbd 64cb a03d
00000120: 993f f53d 7a7f 1c3d 68d9 a63c 4b58 37bc
00000130: 956f 15bd b552 293b b996 3ebd f98c 083e
00000140: c936 13bd 557a dabc e66e ed3d aaaa 993d
00000150: e339 87bd ca9e f93c c4d1 17bd b5f7 f5bc
00000160: f8a4 163c 20e4 e5bc 4be3 08bd c021 fabc
00000170: b765 833d 3224 91bd 0008 b23d 1d23 c6bd
00000180: 6690 643d 971b 3abe 1297 4d3d 6e23 b7bd
00000190: 4e78 20be 8c57 423e 165d c1bc 540b d83d
000001a0: c473 96bd 7251 5e3d ea01 88bd e32d 0abd
000001b0: aadd 2f3d a1e8 14be 5ea6 b03d fbc6 f3bc
000001c0: 8929 1f3e 4b02 aa3d 9819 243d 0afb cd3d
000001d0: 01c3 57bd c546 863c c300 453a 800d 32be
000001e0: b341 efbd 2d2c e93c 3aea b4bc 3234 ab3a
000001f0: 067f 333d 8ed2 553d dae3 6ebd b1ff d73d
00000200: e0f0 8abd d646 71bd 88f0 78bd 1409 95ba
00000210: b7a5 90bc b797 bd3d e465 0d3e 76f7 f93c
00000220: 90b1 b93d 1be8 75bd 453c 5d3d d52e a03d
00000230: 25e5 fdbd 073a d3bd d3ee 28bd 48b8 b23d
00000240: ec95 b93b a276 c3bd f48e e73d 0805 843d
00000250: 6e0f 65bd 02d6 e4bc 1930 43bd b673 c73c
00000260: ccc8 513d 6839 133d 303e ab3d a315 6dbc
00000270: 388b f6bd e106 16bd 4574 1fbe fc0e f6bd
00000280: f91a a53d bdaf cd3c ba30 033e b40c 923d
00000290: a769 083e c1fb adbd f208 e43c ab12 6d3d
000002a0: f2e8 81bd 50fa c73d b0bb 17be 5dbd 3b3d
000002b0: 1254 dfbc 3f5f 9c3d b282 963d 5df7 a43d
000002c0: 167f 413d 4b26 ca3d c661 c6bd 98b4 553d
000002d0: 25c1 e7bd eb6f 04be 7b85 22bd e92f c4bd
000002e0: f5f8 86bd a610 ebbd 6542 ef3d 5940 82bd
000002f0: 6df1 d43d 5551 b0bd ac51 7cbd 2552 ed3c
00000300: f273 35ba bd67 09be ec94 81bc 6050 0fbe
00000310: 634d 14bd 8543 393d 4c18 ae3d 5642 183e
00000320: cdf6 91bd 267a 393d e980 c33c 3464 40bd
00000330: b03b 563c 119e 753d 62aa 463d 977b 593c
00000340: 8207 333d 4b8a a63d 9884 603c 2e13 92bd
00000350: 16b9 ab3d ea76 80bd 18a3 873c 54eb 6dbd
00000360: 0e7a fbbb fac9 c43b 916e 883d b57c ac3c
00000370: 390c ccbd 8e2f 28bd bd10 cfbd b0e1 97bd
00000380: d72f 0f3d 114d 2ebd 80b7 fe3d ab8f da3c
00000390: e973 80bc 2ee8 113e fc4b 8e3d 71da 5b3d
000003a0: eb52 803d 3b3c 9dbd 593f 5abd 4780 3e3c
000003b0: 2d07 2dbd d807 e6bd 9815 dd3d 8c51 e2bc
000003c0: b032 373e 5d90 adbc 9de6 aebd a164 91bd
000003d0: 1e30 3e3d ada9 28bd 5469 10be 3d7b d03c
000003e0: 5749 4a3d 3d7d 4fbd 7f57 2e3e e6dc ac3d
000003f0: 569a e83c d846 4ebd 1e0b 30be d889 29bc
0.04621836 -0.08903226 -0.07606543 -0.0476055 -0.008868748 -0.03784898 -0.036462396 0.11468041
-0.031095799 -0.20021293 -0.10339705 -0.10792219 0.041341808 -0.09966561 -0.10220035 -0.06255066
0.039396074 0.03254341 0.06442444 -0.10768134 0.0743209 -0.1006972 -0.0012750943 -0.06666215
0.09868535 0.04602244 0.009962515 0.050569274 0.10321353 -0.023079177 0.11511734 0.12771218
-0.16444777 -0.18829724 -0.10368538 -0.043610226 -0.06935851 -0.060202073 -0.10857547 0.08735838
-0.030496819 -0.053368073 0.086422 0.062908985 -0.11725872 -0.094078444 -0.10149558 0.0003420454
0.11596909 -0.114748485 -0.008144607 -0.00030911638 -0.08482632 0.0157813 -0.04744935 -0.024039812
-0.088036686 -0.10618221 -0.03344024 0.048032947 0.11649627 -0.074084766 0.036168735 0.09397184
-0.053435322 -0.07168099 -0.103366435 -0.11910651 -0.016360223 -0.09016878 -0.09983846 0.07851294
0.11975021 0.03820751 0.02036734 -0.011190484 -0.036483366 0.002583665 -0.04653046 0.13335027
-0.03594092 -0.02666966 0.11593418 0.07503255 -0.06602838 0.030471224 -0.037065282 -0.030025342
0.009194605 -0.02806288 -0.03341989 -0.030533671 0.06415885 -0.07086982 0.08692932 -0.09674666
0.05580177 -0.18174587 0.0501929 -0.089423046 -0.15670893 0.18978709 -0.023603957 0.10549036
-0.07346299 0.05427689 -0.0664099 -0.033735167 0.042936005 -0.14541866 0.08625482 -0.029757967
0.15543188 0.083012186 0.04006347 0.100576475 -0.052676205 0.016391167 0.0007515067 -0.17387962
-0.11682453 0.028463447 -0.022084344 0.001306182 0.04382231 0.052202754 -0.058322765 0.10546816
-0.067842245 -0.058905445 -0.060776263 -0.0011370503 -0.017657144 0.09257453 0.138084 0.030513506
0.090670705 -0.060035806 0.054012556 0.078214325 -0.123972215 -0.10313802 -0.041243386 0.08726555
0.005663624 -0.09544112 0.11306563 0.06446272 -0.055922918 -0.027934078 -0.04765329 0.024347167
0.051216885 0.03594342 0.08361471 -0.014470491 -0.120382726 -0.036627654 -0.15571697 -0.12014577
0.08061785 0.025108213 0.12811556 0.07131329 0.13321553 -0.08495284 0.027836297 0.05787913
-0.06343259 0.0976454 -0.14817691 0.045834888 -0.027261768 0.07635354 0.07349147 0.08054993
0.04724034 0.09870585 -0.096866176 0.05217418 -0.11316136 -0.12933318 -0.03967808 -0.09579451
-0.065904535 -0.11477785 0.116825856 -0.063599296 0.10397611 -0.08609263 -0.061601326 0.028969834
-0.0006921879 -0.1341848 -0.015818082 -0.13995504 -0.036206614 0.045230407 0.08500728 0.14869055
-0.07127152 0.045282505 0.02386518 -0.04697056 0.013075754 0.059965197 0.048502333 0.013274095
0.043708332 0.08131846 0.013703488 -0.071325645 0.08384912 -0.06272681 0.016557261 -0.058085755
-0.007674462 0.006005523 0.06661714 0.021055559 -0.09963269 -0.041060977 -0.101106144 -0.07416093
0.034957733 -0.042553965 0.124373436 0.026679834 -0.01568027 0.14248726 0.069480866 0.05367512
0.06265815 -0.07677504 -0.05328307 0.011627263 -0.04224317 -0.11231965 0.10795134 -0.027626775
0.1789043 -0.021187002 -0.0854008 -0.070992716 0.046432607 -0.04117744 -0.1410268 0.02544939
0.04938635 -0.050656546 0.17025565 0.084405705 0.028393906 -0.05036053 -0.17191741 -0.010347806
