src/util/AI/checkpoints/008.ckpt (torch, 353508 bytes, 14 tensors)

lstm.weight_ih_l0 f4 [256, 12]
000000 ec c4 e1 bc a3 16 a2 3d 2d ee 11 be 8e 62 3a 3d
       -0.02755972 0.07914474 -0.14251013 0.045504145
000010 de 65 c2 3d 16 80 b6 3d 9c ed a0 3d d2 7d ad 3b
       0.09492086 0.08911149 0.078578204 0.00529454
000020 1c 92 c3 bd cf 6e 0f 3d 05 c2 f5 bd 72 5a 79 bd
       -0.095493525 0.035017785 -0.11999897 -0.06087727
000030 a0 77 27 be b3 98 9c 3c 18 40 b9 bd 3a d7 dc bd
       -0.16354227 0.019115781 -0.09045428 -0.10783239
000040 eb ee 9e bd b7 39 36 bc 87 e7 de 3d 13 80 dd 3d
       -0.07760414 -0.011122159 0.10884004 0.10815444
000050 53 67 b8 3d 64 ee 4b 3d 6d ad df bd 41 d1 0d 3b
       0.090040825 0.049787894 -0.1092175 0.0021639618
000060 f3 11 a5 3d e2 50 e6 3d fa 6c 75 3d d6 d7 da 3d
       0.08060064 0.11245896 0.05991838 0.10685699
000070 0c 13 b0 3d 91 38 4a 3e fa 10 20 3e 7c a8 02 be
       0.08597383 0.19748141 0.15631476 -0.12759584
000080 c8 ea 76 bb fb 83 4d bd 8e af 7d 3d 31 c3 e0 bd
       -0.0037676562 -0.050174695 0.061935 -0.1097473
000090 cb f9 80 3c e3 65 83 3d 8d 9c 95 3d 9e ba 47 be
       0.01574411 0.06415918 0.0730525 -0.19504783
0000a0 c1 b0 64 be f9 12 ec ba 0b 2f 2b 3e d2 8e 4d 3c
       -0.22333051 -0.0018011025 0.16717164 0.012546258
0000b0 ea 78 15 be 53 4c 2b bd d3 26 55 3e 3f 86 95 bb
       -0.14596906 -0.041820835 0.20815592 -0.0045631225
0000c0 5f 49 5b 3d c9 bd aa bd 83 f4 15 bd 55 71 bd bd
       0.05353677 -0.0833698 -0.036610138 -0.09250132
0000d0 66 65 ad 3d c3 c1 af bc 86 d1 ef 3c f8 72 11 3e
       0.08466606 -0.021454697 0.029274713 0.14204013
0000e0 e5 41 af 3d 3b 8f 55 bc 47 dc d4 bd 4c 76 6b bd
       0.0855749 -0.013034637 -0.10393577 -0.057485864
0000f0 7a 08 ff 3c b3 91 1b 3d 83 0c 2d 3d 8c e2 c6 3d
       0.031131972 0.037980746 0.04224826 0.09711179
000100 1d a3 04 3d 6c e3 58 bd 9c 86 79 3e bb fa 92 3e
       0.03238212 -0.05295126 0.24367756 0.28706917
000110 fe 39 98 bc 1a 16 e8 bc 21 00 11 bd 40 ef b5 3b
       -0.01858234 -0.028330851 -0.035400514 0.0055522025
000120 63 d5 08 3e b8 b4 95 bb 22 2d 13 be 4e 6a 28 be
       0.1336265 -0.0045686625 -0.14372686 -0.16446802
000130 49 ba e1 3d 61 5a c7 bc f3 03 55 bd 09 01 05 3e
       0.11021859 -0.024335088 -0.05200572 0.12988676
000140 0c 85 3f bd a0 7d 8f bd 78 b0 3d 3c 08 24 d0 3b
       -0.046757743 -0.07006383 0.011577718 0.0063519515
000150 1f 31 81 bd bc 75 ed 3d 24 bd 4e 3d 85 a7 71 3d
       -0.06308197 0.11594722 0.050473347 0.05899765
000160 3e 15 be 3d 3d 46 ca 3d fa dc 04 3d f9 99 19 3e
       0.092813954 0.09876678 0.032437302 0.15000142
000170 e9 7f d6 bc fb 0a a2 3a 2a 59 11 bd 17 71 84 bd
       -0.02618404 0.0012362892 -0.035485424 -0.06466883
000180 8d 05 03 bd 87 30 c0 39 66 91 00 be cd 6a 36 3d
       -0.031987716 0.0003665725 -0.12555465 0.044535447
000190 cc 7f 13 bc 8f 9b f3 3c 45 e9 39 3e cf 2e 83 3e
       -0.009002637 0.029737262 0.18155392 0.2562165
0001a0 91 65 dc 3c e9 ff 21 bd b5 ab a2 bd 19 c3 71 39
       0.0269039 -0.039550696 -0.07942907 0.0002305623
0001b0 e3 25 a2 3d 13 e8 ae bc 08 35 a6 3d 25 47 84 3d
       0.079173826 -0.021350896 0.08115584 0.06458882
0001c0 f9 f1 62 bd b1 87 76 3a 04 89 ac 3d 05 df 14 be
       -0.055406544 0.0009404375 0.08424571 -0.145382
0001d0 60 94 73 be 0f ee 1d bb 68 64 89 bc 27 31 bc 3d
       -0.2378707 -0.0024098193 -0.01677151 0.091890626
0001e0 6c 79 9c 3c f3 e0 96 bd 96 67 e7 bd 05 48 51 bd
       0.019100867 -0.073671244 -0.11299054 -0.051094074
0001f0 a0 af 3d 3e cc 4a 23 3d 22 4e f5 3d c5 eb d6 3d
       0.18524027 0.039866254 0.11977793 0.10494188
000200 94 fa f2 3d b1 6e ae 3c 85 cc d2 3d b1 8b 68 bd
       0.118642 0.021293016 0.10292915 -0.056773845
000210 07 6e 9b 3d 90 13 21 3d 68 79 54 3d 60 e0 bf bd
       0.075893454 0.039325297 0.051873595 -0.09368968
000220 fd 2f a0 3d 13 3c 8b 3b cc f7 7f bd a0 70 33 be
       0.07821653 0.0042491048 -0.062492177 -0.17523432
000230 74 cd 82 be c3 7b 5f 3d 2f 02 34 3e 30 7b 1a 3d
       -0.25547373 0.054561388 0.17578958 0.037715137
000240 57 b4 46 3d 96 58 f1 3b 1b 4c 28 be 26 83 85 bd
       0.04851183 0.0073652966 -0.16435282 -0.06519155
000250 f3 d0 50 3d ec e4 fe 3d 7d 7f 96 bd 53 4b 61 be
       0.05098052 0.12446007 -0.07348535 -0.2200139
000260 11 88 9c bd f5 b6 44 3c 0e a3 ab bd db 17 b0 bd
       -0.0764314 0.012006511 -0.083807096 -0.085983
000270 5f 46 d7 3c 0b 94 6b 3d 76 bd e3 3c 8d 4d cd bd
       0.026278673 0.05751423 0.027800303 -0.10024557
000280 41 40 13 be c0 fe b1 bd ba 29 f7 3d 13 f7 ff bd
       -0.1437998 -0.08691168 0.120685056 -0.124982975
000290 37 d4 1b be c4 cb 7c bd 2b d9 bc bc 5f a9 12 bb
       -0.15217672 -0.061717764 -0.023052773 -0.0022378785
0002a0 9c 16 30 bd d9 2e 74 3d a6 9f cf bd e2 21 b1 3d
       -0.042990312 0.05961499 -0.101378724 0.08649041
0002b0 3e 7f 94 bd 17 9a 7a bd 22 14 cc 3d 77 af 0f 3d
       -0.07250832 -0.061182108 0.099647775 0.035079446
0002c0 37 e6 b5 bd b9 74 fe 3c ea f6 73 bc b6 9a dd 3c
       -0.088818006 0.031061517 -0.014890412 0.027051311
0002d0 60 c7 67 bd 9a 46 1f bd 8e 4c 0e 3e 18 2b ab 3c
       -0.056586623 -0.03888569 0.13896391 0.020894572
0002e0 6d 88 14 3e 85 bd 1b bc 41 0f 20 be 9f d6 98 bc
       0.14505167 -0.009505634 -0.15630819 -0.018657027
0002f0 b5 7d 3c bd 7c fe e7 bd 13 7a 89 bd 8d ec 64 3d
       -0.04601832 -0.11327836 -0.06712737 0.055889655
000300 5b 4e 95 bd be fd 16 3d 67 21 55 3d 5b 09 02 3e
       -0.07290336 0.03686308 0.052033808 0.12698881
000310 4a ff 78 3d dc cb 92 3d 15 44 a2 bc 54 a3 14 be
       0.060790338 0.07167789 -0.019807855 -0.1451543
000320 da 2c 88 bd 58 3d 1d bd d7 b7 e6 bd 1a 98 48 bd
       -0.0664918 -0.03838858 -0.112655334 -0.04897318
000330 a3 39 66 bd f4 6a 8d bc 3e b7 84 bd bc f7 5e be
       -0.05620731 -0.017262913 -0.06480263 -0.2177419
000340 4a 7c 8b 3c 48 0d 53 3e 11 5b ea 3b 6c 48 2c be
       0.01702704 0.20610535 0.0071519692 -0.16824502
000350 e4 84 4a 3d 0a 3c ee 3b db f2 e2 3d 7f f5 04 be
       0.04944314 0.007270341 0.11081477 -0.12984274
000360 ef 84 18 be b3 12 5f bc 1a e4 4b bd 8f cb b8 3d
       -0.1489446 -0.013615298 -0.04977808 0.09023201
000370 34 f3 69 3d f3 49 10 be d2 76 61 be 8c a9 b9 3d
       0.057116702 -0.1409071 -0.22017983 0.090655416
000380 85 2c 42 3d fb 73 91 3d ff fe 43 be d1 dc a8 bd
       0.04740574 0.071022 -0.19140242 -0.082452424
000390 76 28 6a be 02 44 09 bc cc 1e 01 be ae 2e c6 3a
       -0.22866997 -0.008378031 -0.12609404 0.0015120113
0003a0 3d 7f aa 3d 28 88 9e 3c 6b 19 4e bd 66 55 e5 bc
       0.0832505 0.019352034 -0.05031721 -0.027994823
0003b0 73 2b b5 3c 12 b7 9f 3d 1f 87 38 bd c6 2c 11 3d
       0.022115445 0.0779859 -0.045050737 0.03544309
0003c0 cd 0c de bd 7c 3c 28 3e b1 93 8a bd 68 fc 33 bc
       -0.10842285 0.16429323 -0.06766451 -0.010985471
0003d0 2e e2 b9 bb ff 0a 39 bd eb ef 0d bd 40 e2 f8 3d
       -0.0056727147 -0.045176502 -0.03465263 0.12152529
0003e0 a6 4f a7 bd 39 40 d9 bd 11 17 2f 3d 1b a9 f3 3c
       -0.081694886 -0.106079526 0.042746607 0.029743722
0003f0 1b 78 80 3a 57 cc 99 3d fe ef d2 bd ee bd 21 3d
       0.0009801419 0.07509678 -0.10299681 0.03948777

lstm.weight_hh_l0 f4 [256, 64]
000000 89 99 5d 3d f8 95 5c bd b7 51 2a 3e 3c e2 b7 bc
       0.0541015 -0.05385396 0.16632734 -0.022446744
000010 cb 2f 6d 3d 09 10 64 3e 42 8a b1 bd d2 9e 65 3c
       0.057906907 0.22271742 -0.08668949 0.0140149165
000020 da 75 dd 3d d2 c5 1d 3e 98 91 9d 3d 90 3b 6f 3d
       0.10813494 0.15407494 0.076937854 0.058406413
000030 39 b1 3b 3e ba 20 b2 bd 7e a2 01 3e f1 3a 2a 3d
       0.18329324 -0.08697648 0.12659642 0.041560117
000040 86 14 30 bd 06 85 8c 3d ff 90 81 bc 98 a9 24 3d
       -0.042988323 0.0686131 -0.01581621 0.0402008
000050 e4 e8 b3 bc 95 22 9d bd 01 ac bf 3c 79 35 61 bb
       -0.021961637 -0.076726116 0.023397448 -0.0034364148
000060 86 d0 24 3e eb aa d5 bc 9e 7c 17 be a5 cd 84 3b
       0.1609517 -0.026082477 -0.14793631 0.004052835
000070 bb 4b 80 3d 62 1d bd 3d 88 9e 01 be da 92 85 bd
       0.062644444 0.0923412 -0.12658131 -0.0652215
000080 53 2f 1c bd c7 64 1a 3c d2 3c 39 3d 4d 58 c1 bd
       -0.03813107 0.009423441 0.04522402 -0.0944067
000090 61 f2 d6 3b 64 8b 2d 3d af be 8c bd 29 a7 92 3d
       0.0065596555 0.04236926 -0.068723075 0.071607895
0000a0 53 09 29 bd e3 1e 9c bc 16 fb 09 3d b8 c4 d0 bd
       -0.041268658 -0.019057697 0.03368672 -0.10193771
0000b0 a4 35 63 bd 12 3e 28 be 5c ee c8 bd ad fe 0e be
       -0.055471078 -0.16429928 -0.098110884 -0.13964339
0000c0 5f c9 b4 3d ac 48 89 3d ee 1d b0 3d aa 68 be 3d
       0.08827471 0.06703314 0.08599459 0.09297307
0000d0 34 43 3d be 39 29 41 3b 5b 37 5d 3e ce 05 b6 bd
       -0.18482667 0.0029474034 0.21603148 -0.08887826
0000e0 1f 09 7f 3c 60 01 04 3e 2f 58 f3 bd 33 0a 4e bd
       0.0155661395 0.1289115 -0.11882054 -0.050302695
0000f0 fe 1f 86 bd 12 40 0a 3e 2e 08 04 3d 01 24 de 3d
       -0.06549071 0.13501003 0.032234363 0.10846711
000100 1e 4e 1f 3d 0b cd 3b bd 31 e8 88 3e b9 55 c3 3d
       0.038892858 -0.04584984 0.26739648 0.09537835
000110 58 69 93 bb 9e 74 eb bd cb 7b 9e bc 01 93 55 bd
       -0.004498642 -0.11496852 -0.019346138 -0.052142147
000120 16 43 bb bd a4 a1 17 be 1d e8 cb 3d 6a ab f5 bb
       -0.09143655 -0.14807755 0.099563815 -0.007497241
000130 6a 14 1d 3d 1c 38 8f bd 1d 78 2c be 4b 75 80 3d
       0.038349546 -0.06993124 -0.16842695 0.06272372
000140 fc 65 00 3e bb c8 48 be d3 d2 39 3e 9b 8c 7b 3d
       0.12538904 -0.19607823 0.1814683 0.06141339
000150 35 2e 40 3e a1 03 ef bd a4 10 2d be 08 0a 14 3c
       0.18767627 -0.11670614 -0.16900879 0.009035595
000160 01 59 9f 3d 32 51 19 be a0 63 a6 3d 26 32 0c 3e
       0.07780648 -0.1497238 0.08124471 0.13691005
000170 80 71 a5 bd d8 74 4b be b6 a0 92 bd 14 39 0a 3e
       -0.08078289 -0.19868791 -0.071595594 0.13498336
000180 3a 54 08 be d9 fd a3 bd 2d 06 06 3d d9 6e ab 3d
       -0.1331338 -0.08007402 0.032720733 0.08370752
000190 ec a3 ed 3c af 11 42 bd 2a 7e 09 be 84 0d c7 3d
       0.029008828 -0.047380146 -0.13427034 0.09719375
0001a0 80 54 b2 3b 4f e4 44 be 07 5e 1b bd 8f 5d 20 be
       0.005442202 -0.19227718 -0.03793147 -0.1566069
0001b0 6a db b2 bd 66 fa 2e be 94 b5 df bd 5e fc 8d bd
       -0.08733256 -0.17087707 -0.10923305 -0.06932901
0001c0 65 44 84 bc 5a bf 8b bb f5 0e b2 3d 0c fe f9 ba
       -0.016145894 -0.0042647542 0.08694259 -0.0019072904
0001d0 82 e2 37 be 10 17 88 3d cd 07 6b bd 1f 0c 61 3e
       -0.179575 0.06645024 -0.057380486 0.2197728
0001e0 c4 2f 9f bd eb f7 f9 3d f9 c7 3c be ed a9 99 3d
       -0.077727824 0.1220549 -0.18435659 0.07503114
0001f0 9e c4 f1 3b c8 44 2f bd 94 43 89 3d 6e bd ad bd
       0.007378175 -0.042790204 0.06702343 -0.084833965
000200 33 e0 30 3e df 8b 7f be 08 5e 8e bd 75 eb 80 3d
       0.17273025 -0.249557 -0.06951529 0.0629491
000210 6b 4a c5 bc cc 48 d9 3c 14 e2 75 bc 2b 5f ee 3d
       -0.024083337 0.02652397 -0.0150075145 0.116392456
000220 ab a4 75 3d d8 89 98 bd 78 bc 39 3d c3 38 55 3d
       0.059971493 -0.074481666 0.045345753 0.052056085
000230 c8 e4 22 3e ad 51 ed bc 7e c5 90 bd 19 10 aa 3d
       0.15907586 -0.02896961 -0.07068919 0.08303852
000240 0d b5 f0 bd d7 9a 2f bd 49 0f 47 3e 27 2f 8d 3b
       -0.11753283 -0.042872276 0.19439425 0.0043085995
000250 c1 e6 99 bd 4f a6 20 3d b6 ff 00 bc 3d 8f 73 3d
       -0.07514716 0.039221104 -0.007873466 0.059462775
000260 5e 7b 2b bd 65 6c 0f be 49 63 a3 bd f5 3c 84 bd
       -0.0418657 -0.14006193 -0.079779215 -0.06456939
000270 ab d4 2f bd 25 ad 66 3d 5e 2c 2e be 4b 6e 12 be
       -0.042927425 0.056317467 -0.17009112 -0.14299886
000280 2c 66 0b 3b 9a 5b 5f bc 26 c0 c6 3d 58 95 41 bc
       0.0021270616 -0.013632679 0.09704618 -0.0118153915
000290 28 d1 38 3d 8b 9f d4 3d a4 b1 cb bc 31 29 fa 3d
       0.045121342 0.10381993 -0.02486498 0.12214888
0002a0 d7 07 4d 3e 0b 64 29 3d 5d ed 4f 3d 22 7c 4d bd
       0.20022522 0.041355174 0.050763477 -0.05016721
0002b0 4c 26 a6 3c b7 20 09 3e 86 9d da bd 82 fa 32 3e
       0.020281933 0.13391386 -0.106745765 0.17478374
0002c0 08 8f 3a bd 11 b6 1a bc 9c d0 01 3d c1 64 06 be
       -0.04554656 -0.009442822 0.031693086 -0.13124372
0002d0 42 c3 fa 3c 68 da 27 be ea cd 0f bd 2a c5 ee bd
       0.030610684 -0.16391909 -0.035108484 -0.116587
0002e0 b9 7f f1 bd 69 18 61 bc 44 0b e5 3d 93 0f 09 3d
       -0.11791939 -0.01373873 0.11183789 0.03346212
0002f0 c2 42 ae bd 55 4e c4 bb 97 46 f4 bd 9a 1b 4b 3e
       -0.08508827 -0.005990783 -0.119275264 0.19834748
000300 84 05 6b 3e a5 b1 8f be 0d 2c ed 3d d0 ba 65 be
       0.22951323 -0.2806522 0.11580668 -0.22434545
000310 d5 72 c3 3c ca f6 63 be 82 53 ca bd 35 3d 83 bd
       0.023858467 -0.22262111 -0.09879209 -0.06408159
000320 ce 79 e5 3d 6e 95 15 be ec ae 01 3d e9 58 64 bd
       0.11204873 -0.14607784 0.03166096 -0.055748854
000330 5f 7a b4 bb 65 a5 8d bb e8 ed c8 bb 6c 3f 10 3e
       -0.005507752 -0.004322695 -0.0061318763 0.14086694
000340 31 17 23 3d 2a 6c dd bb b4 d5 47 be 86 13 1e 3e
       0.03981704 -0.006757279 -0.19515115 0.15437135
000350 77 2b 86 bd 78 14 01 be dc 34 0c be 5d 2d e0 3d
       -0.06551259 -0.12605464 -0.13692039 0.10946152
000360 e7 ca 83 3d 08 52 cf bd 18 0a 10 be 59 5f 49 3e
       0.06435185 -0.10123068 -0.1406635 0.19665278
000370 3e 7c f6 3d c9 d3 97 bd f9 49 1e 3e ed 67 8d bc
       0.12035416 -0.07413442 0.15457906 -0.01726147
000380 1a 42 3b 3e 38 1c 93 3c ee 00 d6 3b a9 dc 81 3d
       0.18286934 0.017957792 0.0065308725 0.06340916
000390 b6 ca c5 bd 1d 4b b4 bd 7b 92 0e bd 9f 1d b7 3d
       -0.09657805 -0.08803389 -0.034807663 0.08941197
0003a0 63 c4 12 3e 4b c5 05 3e 73 fc 4b 3c 28 21 86 be
       0.14332728 0.13063543 0.012450325 -0.2619717
0003b0 aa 01 a6 b8 14 b4 0e 3e 15 a8 46 3d fe 48 87 3e
       -7.915807e-05 0.13935882 0.04850014 0.26422876
0003c0 62 b0 81 3d 9d 8a 2a be cf 84 b6 bd e8 29 c4 3d
       0.063324705 -0.1665444 -0.0891205 0.095783055
0003d0 0d 28 f4 bc a0 29 dd 3d f6 64 77 3d 0f eb 17 3d
       -0.029804254 0.10798955 0.06039902 0.037089404
0003e0 36 33 da 3d 7d 6b 6b 3d 3d 5b 8c be a4 24 32 be
       0.10654299 0.057475556 -0.2741336 -0.1739679
0003f0 ad 03 93 3d 23 ae 84 be dc 9d 3f 3e 34 25 a0 3c
       0.071784355 -0.25914106 0.18712562 0.01954899

lstm.bias_ih_l0 f4 [256]
000000 79 93 9b bc b8 0e 94 bd 6a b6 a3 bd f4 67 bc bd
       -0.018991219 -0.0722937 -0.07993777 -0.09199515
000010 84 9c cc bd 52 dc 37 3d 8a 4e 9b 3c 70 e3 cd 3d
       -0.099907905 0.04488785 0.018958349 0.10053146
000020 35 b1 0e 3e 9a 4e 94 bd cb 25 8c bc 68 78 18 bb
       0.13934787 -0.072415546 -0.017107865 -0.0023265127
000030 30 1d 44 bd c3 af 88 bd 42 49 bd 3d 9f ee cf bc
       -0.047879398 -0.06674149 0.092424884 -0.025382338
000040 43 27 fa bd 2e ad f5 3c c1 b7 30 bd 6f 45 21 bc
       -0.1221452 0.029989805 -0.04314399 -0.009843214
000050 fe 14 db bc 48 5c ed 3d 49 b6 2d bd cb 21 73 bd
       -0.026743408 0.11589867 -0.04241017 -0.0593584
000060 b3 ee 5a 3d 68 f3 1a 3d 65 12 46 be f0 d2 6b 3d
       0.053450298 0.037829787 -0.19342954 0.057574213
000070 42 95 c2 3d f3 45 21 bd 50 38 97 3d bd 96 aa 3d
       0.09501125 -0.03937335 0.07383788 0.08329532
000080 59 dd a4 3d 4d e5 67 bd 34 cb db bc c1 b8 00 3e
       0.08050031 -0.056615163 -0.026830293 0.12570478
000090 bc 92 54 3d ae 51 a1 bd 31 38 9d bd 64 8f 11 be
       0.05189775 -0.07876907 -0.07676733 -0.14214855
0000a0 f6 4b 91 bc 40 f4 30 bd 88 b5 c3 3d fe 94 c2 3d
       -0.017736416 -0.043201685 0.09556109 0.09501074
0000b0 6b 7f c2 3c 20 7f 3b bd 26 54 68 3d 3e 3d 54 3e
       0.023742398 -0.045775533 0.056720875 0.20726487
0000c0 5b 04 f0 3c 54 37 aa bd 42 5a 1c bd 9b 00 b9 bd
       0.029298952 -0.08311334 -0.038172014 -0.090333186
0000d0 46 1d cc bc e1 b7 4e bd 53 02 7d 3d fa 15 c5 bd
       -0.024916302 -0.05046833 0.061769795 -0.09623332
0000e0 36 fe 7a be 8f 50 3c be e6 1d c1 3c 1a f9 8d bd
       -0.24511036 -0.18390106 0.023573827 -0.06932278
0000f0 6b da ae bc 78 a4 3c bc 8d 26 13 3e be c0 a7 3d
       -0.021344384 -0.011513822 0.14370175 0.081910595
000100 9f e0 57 bd 72 e3 5a bd c3 47 5d bc 8f 1e 28 be
       -0.05270445 -0.053439565 -0.013505879 -0.16417907
000110 16 9b de 3d 66 7e 77 bd 67 58 bd b8 0c c9 6b bd
       0.10869424 -0.060423277 -9.0286885e-05 -0.05756478
000120 44 0c 8f bd 4d cc de 3b 88 92 0f bc 72 2e 56 3d
       -0.06984761 0.006799257 -0.008762963 0.052290387
000130 a7 66 03 be 9f a4 02 be dd 24 c1 bc a3 d8 78 3d
       -0.12832128 -0.1275811 -0.023577148 0.060753476
000140 09 8b 2d bd 7a cf a6 bd bc 8a 99 3c c1 bc 37 3d
       -0.042368922 -0.08145042 0.018742912 0.044857744
000150 ab fb e5 3c b9 59 6a 3d ac 4e fc 3d eb 2f a9 3d
       0.028074106 0.057214472 0.12319693 0.08261093
000160 67 74 12 3d bd a7 3e 3d 11 ad ec bc cc 99 99 3d
       0.03575554 0.046546686 -0.028891118 0.075000376
000170 d7 ff 87 3d 04 f9 3c 3e 33 ec 27 bd 90 fb 18 3e
       0.066405945 0.18454367 -0.04099674 0.14939713
000180 b7 f5 13 3e 79 93 e0 3c 68 8a 69 3c f7 09 ec 3d
       0.14449202 0.02741407 0.01425419 0.11525338
000190 1a fc f8 3d 14 a4 2d be 15 cf 1b 3d ee c3 23 be
       0.121574596 -0.16957122 0.038039286 -0.1599271
0001a0 f8 a3 29 3d 0e 11 b6 3d ad 07 77 3d d5 14 8e 3d
       0.04141614 0.08889972 0.060310055 0.06937567
0001b0 bb 06 15 3d e8 b8 ce bc 66 88 5d 3d 09 cd df 3c
       0.03638337 -0.025234655 0.054085158 0.027319448
0001c0 a0 1d 04 bd 30 dc 0c 3e 77 d0 c7 3d 8c 66 8b bd
       -0.032254815 0.1375587 0.097565584 -0.06806669
0001d0 95 4b c3 3d 64 ff 60 3d b7 b2 b7 bd a2 50 20 3e
       0.095359005 0.05493106 -0.08969634 0.15655759
0001e0 1f 35 b0 bc fd 78 8a bc dc 98 1f bd 96 83 15 be
       -0.021509705 -0.016903395 -0.038964137 -0.14600977
0001f0 f9 72 d1 bd 5d 0b a8 bd d9 2b bd 3d 95 bc 97 bc
       -0.102270074 -0.082052924 0.09236879 -0.01852254
000200 b2 d3 a9 bb ff 3f c2 bd 24 a6 93 3d 23 9e 7a 3d
       -0.0051827068 -0.094848625 0.07209423 0.061185967
000210 60 bd 95 bc 23 06 9d 3d 3c 50 90 bb fa 5d c9 bc
       -0.018278778 0.07667186 -0.004404096 -0.024580944
000220 45 96 3b be 29 d3 1f bd 7d c2 df bd 75 24 a1 bd
       -0.18319042 -0.039019737 -0.109257676 -0.07868282
000230 63 4b 98 bb f1 a5 07 bc 86 48 c2 bb 42 db 7b 3d
       -0.0046476587 -0.00827931 -0.0059290556 0.061488397
000240 45 47 4a 3d c8 0c b4 3d a4 f8 3f bd 47 21 32 3e
       0.049384374 0.087915 -0.04686798 0.17395507
000250 f4 d5 a8 bd c6 9c 45 3d 36 fc 09 3e ad ba 19 3e
       -0.08243933 0.048245214 0.13475117 0.15012617
000260 a3 9f d3 3c ba 7d 90 3d 57 74 36 3e a3 93 71 3d
       0.025832957 0.070552304 0.17817818 0.058978688
000270 80 f4 1e 3b c1 d9 bf bd 82 5c 50 bc 52 5e e3 bd
       0.002425462 -0.09367705 -0.012717368 -0.111019745
000280 a6 79 20 3e c1 05 c0 bc cd 00 6e bd 9c 64 39 bc
       0.15671405 -0.023440244 -0.058106232 -0.011315491
000290 34 aa a8 3d 64 1a a1 bd 1f 62 53 bd 87 d4 eb bc
       0.08235589 -0.07866362 -0.051607247 -0.028787864
0002a0 21 38 ea 3d d8 91 1f 3d bd 08 6e be 75 e8 4c bd
       0.11436487 0.038957447 -0.23245521 -0.050026376
0002b0 b2 e1 d7 3c 75 05 9e bd 88 4d 8f 3d 2f 74 8e bd
       0.026352737 -0.077158846 0.0699721 -0.06955754
0002c0 d1 db 62 3c 26 4f 26 3e 44 cb 65 3d db 71 0d 3e
       0.013846354 0.1624113 0.056102052 0.13812964
0002d0 8d 74 51 bc 4e ba d8 3d b2 72 be 3c 3d 3a c8 bd
       -0.0127841355 0.1058241 0.02324805 -0.09776733
0002e0 1c f9 3a bd 9b b5 0a 3e 20 57 f1 3d 09 ab 49 3d
       -0.045647725 0.1354584 0.11784196 0.049235377
0002f0 7f 6d ba bc 4f 08 e9 3d d9 d9 80 3d c5 56 b9 bd
       -0.02275729 0.11378538 0.06291551 -0.09049753
000300 33 c9 85 3d 5c 19 4b bc 00 5d 8d bb 3f df bc 3d
       0.06532516 -0.012396183 -0.004314065 0.09222268
000310 b8 ec ad bc a0 45 50 bd c3 57 3b be 1c d8 ac 3d
       -0.02123104 -0.05084765 -0.18295197 0.08439657
000320 21 49 bc bd 69 2b 21 bd c7 c3 31 bd 7a e0 d0 3c
       -0.09193636 -0.03934804 -0.0433996 0.025497664
000330 a3 ae 0b 3c af 55 5e bc d3 85 26 be ef 52 c4 3c
       0.008525523 -0.013570233 -0.16261987 0.023965327
000340 9d f2 d0 bd 94 53 69 bc 5c 22 00 be 95 7d 85 3d
       -0.10202525 -0.014241118 -0.12513107 0.065180935
000350 bd ed f3 bd ae 92 a4 bd 5a ba f4 39 c1 97 88 bc
       -0.11910579 -0.080357894 0.0004667815 -0.016673924
000360 dc cc 0a be 02 b5 d1 3d 39 9d fa 3d 0e 09 02 3d
       -0.1355471 0.102396026 0.12237019 0.031746916
000370 bd 8c 9a 3d 47 04 b1 3b f6 44 bb 3c ad 60 d7 bd
       0.07546375 0.005402121 0.022860032 -0.10516486
000380 03 1e 1b bb 23 a5 aa bc c4 0f 76 bd 99 42 02 be
       -0.0023669011 -0.020830696 -0.06007363 -0.12720717
000390 4c 5b 40 3d 06 82 cf bd 79 07 09 3c 0c 0e 24 bd
       0.046962067 -0.10132222 0.008363598 -0.04005246
0003a0 1f a6 e9 b9 bb 48 1c 3e 03 a7 32 3d 2a 09 f6 3d
       -0.00044564993 0.1526212 0.043616306 0.12013467
0003b0 69 d0 a9 3d 8e 53 7d bd 6b bb d2 bd c3 b9 6f bc
       0.08291704 -0.061847262 -0.102896534 -0.014631691
0003c0 24 d1 97 bd 08 e4 b8 bd 46 95 f5 bd f3 49 f8 3d
       -0.07412937 -0.090278685 -0.11991362 0.1212348
0003d0 f0 6c bc 3d f1 6b 93 3c 5f 65 96 bd 27 b0 84 bd
       0.09200466 0.017995806 -0.07343554 -0.06478911
0003e0 e6 25 8c bd 4f d4 37 3d b8 4e 18 be 21 e7 e1 3d
       -0.06843166 0.044880208 -0.14873779 0.110304125
0003f0 28 14 b2 3d 84 58 af bd a8 38 bb 3c 35 1f ea bd
       0.08695251 -0.08561805 0.022854164 -0.114317335

lstm.bias_hh_l0 f4 [256]
000000 78 6f f5 bd d0 68 be bc 48 c6 49 bd 2c 0d 68 be
       -0.119841516 -0.023243338 -0.04926136 -0.22661275
000010 e6 f1 14 be 86 14 b1 bd 98 3f 02 bd e2 a8 0a 3e
       -0.14545402 -0.08646493 -0.03179893 0.13540986
000020 01 75 03 3e db 60 d1 3d 24 72 c8 3d 99 7d 13 bc
       0.12837602 0.10223552 0.097873956 -0.009002113
000030 6f 2c aa 3d 0e ea 76 bc 86 c4 e1 3d 1e d3 97 3d
       0.08309256 -0.015070451 0.11023812 0.07413314
000040 3e 1f 26 3d 26 77 c7 bd 33 4f 12 be 01 e2 ac 3d
       0.04055714 -0.09739523 -0.14288025 0.08441544
000050 74 9b 9c 3c 4c 82 27 3e 77 50 5d 3d a0 04 9d bd
       0.019117095 0.16358298 0.054031815 -0.07666898
000060 51 9f e2 bd d3 33 1e bc 69 5b cb bc 40 6e 91 bd
       -0.110655434 -0.009655911 -0.024823861 -0.07101107
000070 75 02 38 bd 46 32 11 3c 82 da 10 3d 80 51 2d bd
       -0.04492422 0.008862084 0.035364635 -0.042314053
000080 2e 02 09 be d2 2a 9d bd a8 51 bf bd a7 91 7e 3d
       -0.13379738 -0.07674183 -0.093417466 0.062150624
000090 76 9c 51 bd e7 c1 94 bc 16 d1 f5 3c 44 ac fc 3c
       -0.051174603 -0.018158866 0.030006927 0.030843861
0000a0 7b f3 fe bd 21 d9 a3 3d 24 f0 c0 3d e0 b4 f0 bd
       -0.12448784 0.080003984 0.09420803 -0.11753249
0000b0 5e 5b ae 3d 54 50 3d bd 37 49 9e 3a 24 43 c1 3d
       0.08513521 -0.046219185 0.0012076263 0.09436634
0000c0 41 97 25 3e c7 ab 71 bc 51 a0 43 be e8 9e 1c be
       0.1617098 -0.014750428 -0.19104125 -0.15294993
0000d0 48 74 e8 3a 53 f5 c0 3d 3d a0 43 3d 63 6d 63 bd
       0.001773485 0.09421792 0.047760237 -0.05552424
0000e0 3a b7 80 bd d7 0f 2c be f3 c5 75 3d ae a5 90 3d
       -0.06284948 -0.16802917 0.060003232 0.07062851
0000f0 e5 c6 91 3c 33 dc 32 3e 93 5b 53 bd 1d 84 83 3d
       0.017795036 0.17466812 -0.051601004 0.06421683
000100 a0 67 58 3c 71 ca 4f 3d 51 95 01 be da 98 93 bc
       0.0132083 0.050730173 -0.12654616 -0.018017221
000110 ec 23 24 bc 6d ae dd bd 58 e9 4e bd bc 13 6d bd
       -0.01001833 -0.10824285 -0.050515503 -0.05788015
000120 82 c8 17 be 7a c5 b7 3d 50 60 8c bd 95 a2 98 bd
       -0.14822581 0.089732125 -0.06854308 -0.07452885
000130 a4 8f e7 3c f3 2b 5d bc cc 37 73 bd 2b 96 39 3d
       0.028266735 -0.013499248 -0.059379384 0.045309227
000140 5a 4d d7 3b b1 8a 87 3d 42 b9 4c 3d ad f3 07 bd
       0.0065705003 0.0661825 0.049981363 -0.03319137
000150 06 7b f9 bd 22 38 6f bd f5 6d 0a 3e bb ce 6d bd
       -0.12181668 -0.05840314 0.13518508 -0.05805848
000160 6a b1 af 3d 7a 29 02 3e 6e 5f e7 bd 28 cf bf 3b
       0.08578761 0.12711135 -0.11297499 0.0058535524
000170 b1 28 ca 3d 55 28 1d 3e 68 e9 a3 3d e8 4d 83 3d
       0.098710425 0.15347417 0.08003503 0.06411344
000180 a9 6d 8e bd 12 5c 67 bb 8d 72 fa 3d de 78 38 bd
       -0.0695451 -0.003530268 0.1222888 -0.045037143
000190 7e 40 34 3e 64 b1 a0 bd 4d d1 6a 3d 52 9c 06 bd
       0.17602727 -0.078463346 0.05732851 -0.032863922
0001a0 e2 56 4a 3d d2 94 ec bd ed 02 4b bd e7 7d fa 3d
       0.049399264 -0.11551823 -0.049563337 0.12231045
0001b0 ce 94 85 3d 80 fe cd 3d 6e 59 14 bd b5 d8 1c 3e
       0.06522523 0.10058308 -0.0362181 0.15317042
0001c0 b9 e9 93 3c b3 29 5d 3e 63 6d cf 3d 09 c7 d8 3c
       0.018055784 0.21597938 0.10128286 0.026462095
0001d0 5d ed 80 3d 3a ef 31 3d d1 ae b8 bb 06 d0 dd 3d
       0.062952735 0.043441035 -0.005636074 0.10830693
0001e0 89 74 37 bd 15 dc 6a bc 25 7c ac 3a 03 e7 d0 bc
       -0.04478887 -0.014334698 0.0013159557 -0.02550078
0001f0 91 18 4c 3d cc d3 81 3c 11 55 8c 3c 5c 80 7e bd
       0.049828116 0.015848063 0.017130407 -0.06213413
000200 79 57 b7 3d bd 1d b3 3d 77 53 2f be 6f 47 3d bb
       0.08952231 0.087459065 -0.17121683 -0.002888169
000210 bb 5d 29 3e 3b e7 af bd 24 b2 e5 3a 1e 39 f0 3d
       0.16539662 -0.085890256 0.0017524404 0.11729644
000220 cb 40 43 be 71 fc 56 bd 02 7e 94 3d 78 f5 7c 3d
       -0.19067685 -0.05248684 0.072505966 0.061757535
000230 e5 f2 4b be d8 69 14 bd 3a ba ca bc e5 47 7c bd
       -0.19916876 -0.036233753 -0.024747003 -0.061592
000240 b8 b5 70 bc 66 b4 32 3e 00 12 1c 3d 68 4f 9b bc
       -0.014691763 0.17451629 0.038103104 -0.018958762
000250 91 d6 b1 bb 52 76 8e bd 74 d7 5d 3e 93 ab dc 3d
       -0.0054271896 -0.069561616 0.2166422 0.10774913
000260 35 7e a9 3d 15 f2 07 3e ea 0d 7d 3c 8f 36 a4 bd
       0.08276025 0.1327594 0.015445212 -0.08018219
000270 ba 5e 51 bd 82 4e 68 bc d2 ee 69 bc b2 6c 7e 3c
       -0.05111573 -0.014178874 -0.014278131 0.015528845
000280 4c 43 a9 3d fb e9 bf 3d 59 f3 f7 bd d8 37 84 3d
       0.08264789 0.093708 -0.12106962 0.06455964
000290 17 49 97 3c be 64 fa 3b 31 e6 08 be d5 be ae 3d
       0.01846747 0.007641404 -0.13369061 0.08532492
0002a0 4f b5 28 bd 61 cd f3 3c d5 78 c9 bd 12 50 07 3e
       -0.041188534 0.029761018 -0.098375 0.13214138
0002b0 8d 9f 82 bd 6a 47 1d 3e c8 de 7a 3d 35 1e 0a bd
       -0.06378088 0.15359274 0.061247617 -0.033720214
0002c0 ed 4c 8c 3d 6b 14 1d 3d 0e 4e a3 3d cd c4 08 3d
       0.0685061 0.03834955 0.07973872 0.03339081
0002d0 14 e4 0e 3e a5 2b 3a bc 11 ca 51 3c ca 18 0e be
       0.13954192 -0.011362945 0.012804524 -0.13876644
0002e0 02 b0 d4 bd ab 90 48 3e 1c 42 a4 bd f2 fd ca 3c
       -0.10385133 0.19586436 -0.08020422 0.024779294
0002f0 0b 14 c3 bd 7c a2 38 3d 5a 99 c9 3d 13 3b f8 bd
       -0.09525307 0.045076832 0.098437026 -0.121206425
000300 89 05 0f 3e 8c e3 cb 3d 47 fe 61 bd 5f 3a 49 bd
       0.13966955 0.099555105 -0.05517414 -0.049127933
000310 ad be 00 3e 9d 18 95 bd f7 fb 34 bc 5e 2f ac bd
       0.12572737 -0.07280085 -0.011046401 -0.08407472
000320 86 da 04 be 62 37 b0 3d a6 bf 11 3e e7 66 93 bb
       -0.12973985 0.086043134 0.14233264 -0.004498351
000330 ff be 16 3c 66 da 7b 3d 23 c3 11 bd 11 a1 ca 3c
       0.00920081 0.061487578 -0.035586488 0.024735006
000340 d9 b4 95 3d 97 72 9f 3d 61 16 27 3d 92 3f 21 be
       0.073098846 0.07785528 0.040792827 -0.15746906
000350 89 2a b1 3d 4c 6f 83 bd fc 8d df 3d ff df 5d bc
       0.08650691 -0.064177126 0.10915753 -0.013542174
000360 cf 88 28 3d e0 28 78 3d 06 14 ef 3d c5 a7 e1 bd
       0.041146096 0.060585856 0.11673741 -0.110183276
000370 cc 65 07 3e d8 8b f4 3d 05 10 1c be cd 91 06 3e
       0.13222426 0.119407356 -0.15240486 0.13141556
000380 2b 7c 5f 3d 3b 5d 90 3d 8f 5f 12 3c bc 6d 92 bd
       0.054561775 0.07049032 0.008933916 -0.071498364
000390 f0 49 92 bc 70 12 ae 3d 08 6f af bc 25 75 ac bc
       -0.017857522 0.084996104 -0.021415249 -0.021051953
0003a0 2c f0 83 bd be f0 fc 3d 21 df ab 3d 73 15 96 3c
       -0.064422935 0.123506054 0.08392168 0.018320775
0003b0 33 e9 f8 3c 76 c3 43 bb e1 36 75 bd 92 00 03 3e
       0.030384636 -0.0029871142 -0.05986679 0.12793186
0003c0 76 11 56 3c 84 02 42 3c 7c bd d7 3d 3f 66 68 bc
       0.013065686 0.01184142 0.10534188 -0.014184534
0003d0 32 e1 27 bd 87 2f 49 3d 51 41 96 bd d3 47 af 3d
       -0.040986247 0.04911759 -0.07336677 0.08558621
0003e0 ba 68 dd bc bf 98 02 bd 01 df 5d 3c 73 15 ef 3c
       -0.027027477 -0.03188395 0.013541938 0.029185032
0003f0 10 a9 0c 3e 5b 5b a1 bc fb 89 91 3c 52 b0 bb 3d
       0.13736367 -0.019696882 0.01776599 0.0916449

lstm.weight_ih_l1 f4 [256, 64]
000000 fe 09 03 be ba e1 6d be a5 ff 99 bc 05 e7 28 be
       -0.1279678 -0.23230639 -0.018798659 -0.16494377
000010 16 14 c1 bd 9c 9e be 3d d2 25 bc 3c 4a 99 0f 3d
       -0.09427659 0.09307596 0.022967253 0.035058297
000020 42 9c 30 3d fe 58 82 bd 00 09 42 3d 5b 3c ec bd
       0.04311777 -0.0636463 0.047371864 -0.115349494
000030 df ce cc 3d 90 0d 10 bd e6 d2 b7 bd 3d 15 04 be
       0.10000395 -0.035169184 -0.089757726 -0.12898727
000040 08 35 51 bd 58 12 39 bd 21 6f be 3d 86 70 27 bd
       -0.051075965 -0.04518351 0.0929854 -0.040878795
000050 3a 9e 48 bd 3b cc f6 3d 51 95 dc 3b 16 ac 22 be
       -0.04897902 0.120506726 0.006731667 -0.15885958
000060 57 48 17 bd 85 4c 05 bd 0e 56 75 be 4d b4 5a 3d
       -0.036934223 -0.032543678 -0.23958609 0.053394604
000070 f2 dc 39 3c 26 e7 2d bd 7e e1 0e be b5 ec 17 be
       0.011344181 -0.04245677 -0.13953206 -0.1483639
000080 ac be 69 bd 1c b5 f5 bd bb 5d b0 3c 02 30 6e bd
       -0.057066604 -0.119974345 0.02152907 -0.058151253
000090 c8 fd bc bd 84 bd 30 bd 6d 8e 33 bd f1 1b dc 3d
       -0.092280924 -0.043149486 -0.043837 0.10747517
0000a0 25 39 88 ba 63 8f 19 3d 8d 58 80 bd 65 87 65 3c
       -0.0010393007 0.03749026 -0.0626689 0.014009331
0000b0 1e df dd bd 85 38 9d bc e7 64 63 bd 17 27 38 be
       -0.10833572 -0.01919199 -0.05551615 -0.17983662
0000c0 e6 d5 db bc 63 17 8e 3d 73 2a 88 bd f1 08 a0 bd
       -0.026835393 0.069380544 -0.066487215 -0.078142054
0000d0 57 b8 3c 3d e2 3b e0 3d de c7 68 3d 44 a5 88 3d
       0.046074238 0.10948922 0.056831233 0.06672147
0000e0 d4 3f 6f 3d 99 ab af 3b 69 a1 a5 bc 3f 1d 11 3d
       0.05841048 0.005361032 -0.020218568 0.035428282
0000f0 2e 8d c7 bd d3 89 8b 3d 5e a9 65 3d 2d 37 1e 3e
       -0.09743725 0.06813397 0.056069724 0.15450735
000100 2d 83 84 bd 38 95 ab 3c f5 32 51 3d 89 ee dd 3c
       -0.06470332 0.020945176 0.051073987 0.027091281
000110 b2 d1 67 3d ef 8a f4 3d c0 26 d4 3d e7 f4 98 bc
       0.056596465 0.11940562 0.103589535 -0.018671466
000120 59 c9 13 3d fc df 11 3e 70 29 be 3d 00 2a 15 3c
       0.036080692 0.142456 0.09285247 0.009104252
000130 45 a0 b1 bd 6f 01 d9 bd 80 56 09 bd 82 ba 90 3b
       -0.08673147 -0.105959766 -0.03352976 0.0044167647
000140 2b d1 5c 3d b9 15 a6 3d cc d7 1f 3e 7f d9 d0 3d
       0.053910416 0.08109612 0.15609664 0.10197734
000150 19 87 0d be 97 1f 28 3e 46 b3 51 3d d9 75 60 3c
       -0.13821067 0.164183 0.05119636 0.013699972
000160 a4 9a 69 3b ea 06 04 3d c2 7f e7 3c 11 f2 cb 3d
       0.0035645152 0.032233156 0.028259162 0.0995828
000170 cb 79 14 3e 4d cc 3b 3e ad 13 c1 3d aa f5 7f bc
       0.14499585 0.18339653 0.09427581 -0.015622536
000180 82 d1 05 be ca 27 65 bd ce a4 1f 3b 79 3e 22 3d
       -0.13068202 -0.05594615 0.0024359706 0.03961036
000190 ec 0e 06 3d 4d 5c 05 3e fc 6f 74 bd 02 63 11 be
       0.032729074 0.13023491 -0.05967711 -0.14197925
0001a0 96 7f 04 be 47 6b 15 be 67 9c b1 ba 47 cf 64 3d
       -0.12939295 -0.14591704 -0.001355064 0.055861738
0001b0 4a b8 78 3d 97 6d 6d bc 86 aa f6 bd ba a7 25 be
       0.060722627 -0.01449146 -0.120442435 -0.16177264
0001c0 41 06 fb bc bf 1d 62 3e e9 ed 0d be e0 2d 5a 3d
       -0.03064263 0.2208166 -0.13860287 0.053266406
0001d0 9a 19 27 bd fb 4a d7 3c 28 73 07 3e 05 25 03 bd
       -0.0407959 0.02628087 0.13227522 -0.032017726
0001e0 04 1e db 3d 5e 35 d5 bc 9a 36 8a bd ce 64 00 be
       0.106990844 -0.026026424 -0.06748696 -0.12538454
0001f0 3c 79 db 3d 39 d9 55 bd 78 80 cf bc 19 ad 63 3d
       0.10716483 -0.052209113 -0.025329813 0.055585
000200 d9 5b b2 bd f6 f0 ab 3d fc fb f4 3d ce 38 09 bd
       -0.08708925 0.08395569 0.11962125 -0.03350144
000210 2e ef 4e 3d c1 70 23 bd 1c 57 36 3d 50 3d dd bd
       0.05052107 -0.039902452 0.044516668 -0.1080271
000220 81 ee a4 bd 0c 9b 6d bd 8f 9c c9 bc 85 2d ca bd
       -0.080533035 -0.058009192 -0.024610786 -0.098719634
000230 13 37 96 3d a0 fc 82 3d 3c fa 02 b9 3f be f1 3b
       0.07334723 0.06395841 -0.00012490986 0.0073774154
000240 f5 84 1b 3d 75 cc a6 3c 3a 07 08 be 16 3d 21 be
       0.037968595 0.020361165 -0.13284007 -0.15745959
000250 50 e9 8b bb 3a 35 ec bd 19 29 0a 3e ea 75 34 bd
       -0.0042697564 -0.1153359 0.1349224 -0.044057764
000260 79 28 bc bc 02 70 dc bd 73 ed ba bd ae 15 ce bc
       -0.022968518 -0.10763551 -0.09127321 -0.025156822
000270 1f 27 a0 bd 54 be e1 3b f8 34 20 be 99 f2 0e 3d
       -0.07819962 0.006889144 -0.15645206 0.034899328
000280 56 13 cc 3d 93 e0 3d 3d cb ba 68 bc 5c b9 3c 3d
       0.099646255 0.04635675 -0.014204691 0.04607521
000290 1f ba e1 bd c5 b6 94 3d 83 d7 02 bd ac 9e 00 3e
       -0.11021828 0.07261423 -0.03194381 0.12560529
0002a0 6c ec 14 be 2d 09 80 bd 52 aa b0 bd e5 c0 a7 bc
       -0.14543313 -0.0625175 -0.08626236 -0.020477721
0002b0 44 db 2f 3d ba 5f 18 be 73 91 59 bd 27 cf 9c 3a
       0.042933717 -0.14880267 -0.053117227 0.0011963592
0002c0 0a d1 d9 bd 33 6a 81 3d 18 cd 43 3c f9 d6 14 bd
       -0.10635574 0.06319084 0.011950754 -0.036337826
0002d0 14 e6 41 bd f7 30 8f be 8a f0 a8 bb 1e f6 2a 3d
       -0.04733856 -0.27967045 -0.0051556276 0.041738622
0002e0 07 67 6a bd 64 54 97 3d a8 ca fa bd 67 4d 02 bd
       -0.05722716 0.07389143 -0.12245685 -0.031812098
0002f0 0c 8c 3f bd 8b 04 2c 3e 4a dd 63 bc c2 9b 20 3d
       -0.04676442 0.16798608 -0.01390774 0.039211042
000300 fb b2 06 bc ae e5 ea bd 48 88 e7 3c cc f1 10 be
       -0.008221383 -0.11469589 0.028263226 -0.14154738
000310 5c 96 f7 3d 76 a9 a9 3d b6 63 c3 3d fe c5 fc bd
       0.12089226 0.08284275 0.09540503 -0.123424515
000320 46 5b 0b bc 73 ec c0 bd 87 a8 67 3d 8d ea 4f 3a
       -0.008505648 -0.09420099 0.056557205 0.0007931374
000330 23 a7 2d 3e 46 cf cd bd 14 ec ef 3d 76 bc 4f bd
       0.16958289 -0.100493 0.1171495 -0.05071684
000340 28 66 46 be bf d1 a1 bd 2a 13 ac 3e 16 f5 69 3d
       -0.19374907 -0.07901334 0.3360837 0.057118498
000350 ef d6 59 3c 4f 53 16 bd 26 96 59 3d c8 2c 99 3d
       0.013295873 -0.036700543 0.05312171 0.074792445
000360 a9 6c 40 3d f9 9f a9 bc 0f a6 22 bd da 06 05 be
       0.046978626 -0.020706164 -0.039709147 -0.12990895
000370 06 97 01 3e 91 af af 3c b2 0e 19 be 6a 75 c6 bc
       0.12655267 0.021446021 -0.14947012 -0.02422591
000380 87 5d 0d 3d f7 18 21 be 14 9d 56 bd 9e 0d 11 3e
       0.034513023 -0.1573218 -0.052395895 0.14165351
000390 47 15 8a 3d bf 4d d6 3c 31 fd 88 3d 77 a3 81 3d
       0.067423396 0.02616012 0.066889174 0.063300066
0003a0 53 50 e6 bc 3c ff da 3d 78 83 83 bd e6 17 58 bd
       -0.028114473 0.10693213 -0.0642156 -0.052757166
0003b0 50 e8 65 bd 69 ba b4 3d 65 52 c1 3c db a0 b8 bd
       -0.056129754 0.088246174 0.02359886 -0.09015056
0003c0 e6 eb bf 3d 00 ee ac bd 1b bb 0e 3e 63 72 33 3d
       0.09371166 -0.084438324 0.13938563 0.04381026
0003d0 16 10 09 3e 4b 37 f5 bd 81 95 2a 3d 0a 4e d3 3d
       0.13385043 -0.11973437 0.041646484 0.10317619
0003e0 a4 0c ba bc b2 de 1c be 92 79 0b bb 83 8b ac bb
       -0.022711106 -0.15319327 -0.0021282178 -0.0052656545
0003f0 e7 22 b7 bb d1 15 45 3d 21 1f 2a 3e 7b 6f ad 3d
       -0.0055888775 0.04811651 0.16613437 0.08468529

lstm.weight_hh_l1 f4 [256, 64]
000000 75 e2 09 bd a9 d5 28 bd 26 cc 95 3d 2e 09 05 bd
       -0.033663232 -0.041219387 0.07314329 -0.032479458
000010 11 69 bf 3d 62 73 8a be 4e b6 aa 3d 3b 8e 8c bc
       0.09346212 -0.27041155 0.08335553 -0.017157665
000020 39 cb fa 3d f3 ad d4 3d 1e 8a 22 3d 34 b7 d2 3d
       0.12245793 0.10384741 0.0396825 0.102888495
000030 eb cf 66 bd f5 ec 3a be ca 50 39 bd e9 8c 30 be
       -0.05635063 -0.18254454 -0.045243062 -0.17241253
000040 e7 ba 8c bd 68 87 e5 bc 91 65 b2 3b ee e3 c3 bd
       -0.06871586 -0.028018668 0.0054442366 -0.095649585
000050 1d d1 80 3d 8e 35 95 3d 80 fa b5 3d f1 61 da 3c
       0.06289885 0.07285605 0.0888567 0.02665803
000060 7c 91 52 3e 89 50 ac bd ca f2 4c bd 3d 97 bf 3d
       0.2056331 -0.08413798 -0.05003623 0.09355018
000070 48 f4 06 be 7a d1 4d 3d 26 1c b5 3d 08 19 fc 3d
       -0.13179123 0.0502486 0.088432595 0.12309462
000080 77 ba 1d 3b 33 0a 26 bd 38 1f 99 3c ee 04 12 3d
       0.002406744 -0.04053707 0.018691644 0.035649233
000090 bf 98 62 3d ae 8a 51 3d 95 8f d3 3d b4 54 a4 bc
       0.05532145 0.051157646 0.103301205 -0.02005992
0000a0 29 ca 4a bc 07 2b 32 3e 6d 0e f9 bc aa 9b 54 3d
       -0.0123773 0.17399226 -0.030402387 0.051906265
0000b0 86 8d 24 3d 05 ad 53 3c 64 ab 17 3e 90 ee 18 be
       0.04017403 0.012919669 0.14811474 -0.14934754
0000c0 fc 27 b3 bd b2 90 35 3e 9d 61 01 3e 16 76 12 3e
       -0.08747861 0.17730978 0.12634893 0.14302859
0000d0 e0 6e 1f be 44 d6 eb bc ba 47 83 3d 31 4d 9d bd
       -0.15569639 -0.028788693 0.06410165 -0.07680739
0000e0 4f 23 36 be 6d 84 cf bd 72 e6 ef bb e6 2f b3 bd
       -0.17786907 -0.1013268 -0.0073211724 -0.0874937
0000f0 c9 7a 98 bd e8 b7 4b bd 7e 1b c5 3d e2 ca 67 3e
       -0.074452944 -0.049735934 0.09624384 0.22635987
000100 d4 d4 8c 3d 7c d0 24 3d 2c 7c d4 3d 5b 88 f5 bd
       0.06876531 0.04023789 0.103752464 -0.11988898
000110 d6 1f 2b 3b 1e 6c a7 bd 9f 8a f3 bd d7 fb 95 3b
       0.0026111505 -0.081749186 -0.11891674 0.004577141
000120 99 e2 81 bd a9 9b 24 be b6 e4 9b 3d 6e f5 07 be
       -0.06342048 -0.16075005 0.076119825 -0.13277218
000130 38 16 d7 3d e3 fc ec bc 19 44 53 be a2 68 b4 bd
       0.10502285 -0.02892918 -0.20631446 -0.088090196
000140 c0 f1 c9 3d b8 21 88 bb 8e 89 8a 3d 4e a6 12 be
       0.09860563 -0.00415441 0.06764518 -0.14321253
000150 d5 a9 03 be 05 8b 3f 3d a4 8f 76 bd 1a 8e ce bb
       -0.12857755 0.04676344 -0.06019558 -0.006303561
000160 ca 17 78 bd 55 4e 8d bc 67 b9 c9 3c ee 06 c4 bd
       -0.060569562 -0.017249266 0.02462454 -0.09571634
000170 e5 e2 3d 3d 30 f1 ab 3c 33 fe 95 bd a3 b5 d8 3c
       0.04635896 0.02098903 -0.07323875 0.026453799
000180 7f bd 0c bb 55 f3 09 3d fe cd 04 be 4e c7 b8 bd
       -0.0021475253 0.033679325 -0.12969205 -0.09022389
000190 03 af 94 bd 1b ae 47 bd 6d 36 f9 bd 73 10 36 be
       -0.07259943 -0.048750024 -0.12168584 -0.17779712
0001a0 c1 18 ee bd 9f 1a 50 be 12 0f 00 3d 42 05 5b be
       -0.11625815 -0.20322655 0.031264372 -0.21388724
0001b0 f9 31 b1 bd ad bf 17 be 3c 20 57 bd be 31 8b 3c
       -0.0865211 -0.14819212 -0.052520975 0.016991492
0001c0 c6 02 50 be 57 7d 92 bd 85 43 dc 3d 14 56 ce bd
       -0.20313558 -0.07152813 0.10755066 -0.10075012
0001d0 88 1d 1e 3e 49 0a 87 3b 24 bc 9b 3d ff 9a cb 3d
       0.15440953 0.004121099 0.07604244 0.099416725
0001e0 90 27 b6 3d 14 72 6b 3c b6 55 2b bd d0 34 ec 3d
       0.08894265 0.01437046 -0.041829787 0.11533511
0001f0 31 67 95 bd 5f 59 99 3d 38 3e 83 bd 08 6d 0c be
       -0.07295073 0.07487749 -0.06408352 -0.13713467
000200 44 99 c4 3d 76 80 d8 bb d8 e9 e7 3c 17 b6 ab bc
       0.095995456 -0.0066071106 0.028309748 -0.02096085
000210 d6 d5 8f 3d d2 ab 34 be 66 8e 13 bd 10 c0 33 3c
       0.07023208 -0.17643669 -0.036024474 0.010971084
000220 b3 f5 51 3d eb ca b0 bd 5a 35 0f 3d 06 29 74 bd
       0.051259708 -0.086324535 0.03496299 -0.059609435
000230 9d a6 af bc ec b2 3a 3d 02 f2 11 bc 42 46 d4 3d
       -0.021441752 0.04558079 -0.008907797 0.10364963
000240 41 00 b4 3d d9 90 39 3d 8a 44 ec 3c e2 96 ca 3d
       0.08789111 0.045304153 0.028841276 0.0989206
000250 56 a7 49 3d ae c1 c0 bd cb 2e 2c 3d 9e e0 06 3c
       0.04923185 -0.094119415 0.042036813 0.008232264
000260 91 2f 34 bd b5 a4 c9 3d a0 26 1e 3e 5d 9b 98 bd
       -0.043990675 0.098458685 0.15444422 -0.07451508
000270 3e a1 94 bd 2b 3e b6 bd 35 d7 f0 3d ea bb 3b bd
       -0.07257317 -0.08898576 0.117597975 -0.045833506
000280 2a 12 ad 3d ca bd 00 be c5 90 bc bd 90 ea 3f 3e
       0.0845073 -0.12572399 -0.092073 0.18741822
000290 9d 10 c2 3d de 06 95 bd 16 bc c5 3d c0 39 46 be
       0.09475825 -0.072767004 0.09655015 -0.19357967
0002a0 5b ff e9 3d 50 34 4f be 32 68 f7 3d 94 63 a2 bc
       0.11425658 -0.202348 0.120804206 -0.019822873
0002b0 47 3b 27 3e 1e 81 db bd be 56 a9 3c 62 59 b6 3d
       0.16331206 -0.107179865 0.020671245 0.08903767
0002c0 7c ff 08 bd 9e 31 d8 bd a3 a0 a8 3d cb fc 6e bd
       -0.033446774 -0.10556339 0.08233764 -0.05834655
0002d0 00 02 dc 3d 13 54 04 bc 74 ad a3 ba 61 19 8e bd
       0.10742569 -0.0080766855 -0.0012487606 -0.069384344
0002e0 99 81 d0 bd 8f 8b b1 3d 2f 99 54 3d 44 f9 9e bd
       -0.10180969 0.08669197 0.0519039 -0.077623874
0002f0 b1 c9 ae bd ed e1 fb bd 35 a8 96 bc 89 4e 14 3c
       -0.08534563 -0.12298951 -0.018390754 0.009051927
000300 a0 c8 59 bd 90 c3 1a be 30 5e 22 3d 12 f2 31 bd
       -0.053169847 -0.15113664 0.039640605 -0.043443747
000310 70 91 c8 bd f8 2b 6d bc 60 5e 4a bd 2c 6c 9d bd
       -0.09793365 -0.014475815 -0.04940641 -0.07686648
000320 c3 db 4d 3e 0f 33 1c bc 19 0b 11 3e cb ed 9e 3d
       0.20103364 -0.009533658 0.1416439 0.07760199
000330 61 f6 67 bd 30 25 45 be d8 a8 38 3e 23 1f 33 be
       -0.05663145 -0.19252467 0.18033159 -0.17492346
000340 58 48 e7 3d de 64 d7 bd a7 d2 eb bb ec ff 4d 3d
       0.11293095 -0.10517286 -0.0071967426 0.050292894
000350 49 7c 0d 3e 18 ef 98 3d 38 6e 33 3e 29 0f e1 bd
       0.13816942 0.074674785 0.17522514 -0.1098922
000360 a5 01 a1 3d f6 a7 fe 3d 95 54 45 3e 90 a3 43 bd
       0.07861642 0.1243438 0.19270547 -0.047763407
000370 9e a4 b8 bd 89 b5 97 bc 9d fd 0b bd 67 88 fd 3d
       -0.09015773 -0.01851918 -0.03417741 0.12379532
000380 85 8c 22 bc b6 3d 69 3d 8f 96 81 bd 64 f3 13 3e
       -0.009921198 0.056943618 -0.06327545 0.14448315
000390 dc 69 10 3e 3e 21 7b 3e 26 50 4e 3e 9d e6 9c bd
       0.14102882 0.245244 0.20147762 -0.076611735
0003a0 1e fb f8 3b 4a b1 bb bd 1a fa 45 bd 2a f3 54 3a
       0.007598295 -0.091646746 -0.04833422 0.00081233925
0003b0 8b fd e5 3d 44 99 27 3d 98 9e 57 3e db ea 29 be
       0.1123 0.04091765 0.21056592 -0.16593497
0003c0 91 9e 69 bd 54 2e 1a bc 7c 80 96 3d 39 0d 36 3d
       -0.057035986 -0.00941046 0.07348725 0.044446204
0003d0 57 44 41 be 25 8f 50 3d a5 6b ed bb 54 53 88 bc
       -0.18873726 0.050917763 -0.0072454982 -0.016641296
0003e0 c1 6d 49 be 63 90 9c bb 75 18 1a 3d a2 39 06 be
       -0.19670774 -0.0047779544 0.03762098 -0.13107923
0003f0 24 2d 62 be e5 a3 4e bd 9a 61 f0 3a 68 70 84 3d
       -0.22087532 -0.05044927 0.0018339634 0.06466752

lstm.bias_ih_l1 f4 [256]
000000 85 3e 4e 3d 9c fe be bd fd 5b 76 bd 58 2c 63 bd
       0.050352592 -0.09325907 -0.06014632 -0.05546221
000010 61 36 f8 bb 80 87 c1 bc db 48 13 bd 5c 86 fe 3d
       -0.007574842 -0.023624182 -0.035958152 0.12427971
000020 d2 ef f3 bc 4b 67 4d be 5d 34 c3 bd 92 52 cc bd
       -0.029777441 -0.20058934 -0.09531472 -0.099766865
000030 e1 c9 41 3d e8 1d c3 bd 81 30 c4 bd 0d 45 69 bd
       0.047311667 -0.095271885 -0.09579564 -0.056950618
000040 dd ad 41 3d a6 b5 06 3d 14 43 86 3d 5d 3b cd bd
       0.04728495 0.032888077 0.06555763 -0.10021088
000050 ec ef 93 3d 87 59 c8 bd c3 ce 9e 3b 0c e9 7e bd
       0.07223496 -0.09782701 0.0048464253 -0.06223397
000060 b8 5a c3 3d 5c d0 5d 3d e6 a0 24 3c 00 2d 66 3d
       0.095387876 0.054153785 0.010048127 0.05619526
000070 79 16 e6 3d e0 c2 ca bc f0 c2 f1 3d 7a ca 0b 3e
       0.11234755 -0.024751127 0.118047595 0.13651457
000080 cc 1c 26 be b9 49 40 be ce 48 df bd a8 cb 22 bd
       -0.16221923 -0.18778123 -0.10902558 -0.039745003
000090 0a c7 8f bd 2c 22 64 bd d7 32 cc bd 6f 3a b1 3d
       -0.070203856 -0.05569665 -0.099706344 0.086537234
0000a0 58 98 ed bc 28 6e 82 bd 18 3e aa 3d 2c a5 82 3d
       -0.029003307 -0.06368667 0.08312625 0.0637916
0000b0 af 90 d3 bd a8 6e c1 bd 88 93 c5 bd 71 86 d2 ba
       -0.103303306 -0.09444934 -0.0964728 -0.0016061795
0000c0 57 28 d4 3d 62 5b dd bd 71 0d f5 bb 59 76 25 3c
       0.10359257 -0.108084455 -0.007478409 0.010099017
0000d0 ec 25 a1 bd 4f 2f 67 3c d4 cf 21 bd 99 e3 e8 bc
       -0.07868561 0.0141104 -0.03950484 -0.02842884
0000e0 06 e3 a7 bd e9 72 da bd 37 57 26 bd 97 bc 38 3d
       -0.08197598 -0.106664486 -0.04061052 0.04510173
0000f0 b6 29 f9 3d 95 be 90 bd 69 d4 2d 3d de 90 af 3d
       0.12166159 -0.07067601 0.0424389 0.08572553
000100 74 0e 51 bd 29 08 98 bd 3e 60 bd bd d4 0a 02 be
       -0.051039174 -0.074234314 -0.09246872 -0.12699443
000110 c9 cb 74 bc 17 ad a4 bd 91 d6 d2 bd 2e 19 93 3d
       -0.014941164 -0.08040827 -0.102948315 0.07182537
000120 8f 6f 02 3e 2a 8d 28 3d a8 da e8 3c 22 23 7a 3b
       0.12737869 0.04115025 0.028424576 0.0038167913
000130 eb 29 f9 bc dc 9c 23 3c 99 af 29 bd 2b 53 16 3e
       -0.030415496 0.009986129 -0.04142723 0.14680164
000140 48 3f f1 bc 9a f5 bf bc c5 7b ec 3d ec 68 9c 3d
       -0.02944912 -0.023432542 0.11547045 0.076372
000150 39 a8 8c bd c2 b1 05 3d 08 af f0 bc 08 84 c1 bc
       -0.068680234 0.032640226 -0.029380336 -0.023622528
000160 c5 39 2c 3c c2 c7 8b bc 64 0c df bc a6 0e f6 bc
       0.01051182 -0.017063025 -0.027227588 -0.030036282
000170 81 e5 95 3d c8 72 8f bd 53 2b b3 3d da 23 b1 bd
       0.07319165 -0.07004315 0.08748498 -0.08649416
000180 15 6e 74 3d f7 a5 3a be 2a d7 63 3d a4 60 a4 bd
       0.059675295 -0.18227373 0.05562512 -0.08026245
000190 5e ec 1f be 62 63 4e 3e 0a 25 7d bc 29 e8 e2 3d
       -0.1561751 0.20155099 -0.015450725 0.11079437
0001a0 fc f6 8f bd 5b b6 5e 3d e3 1a 8a bd a8 5f fb bc
       -0.070295304 0.054373126 -0.067434095 -0.03068526
0001b0 05 17 66 3d b6 b6 16 be d8 2e c1 3d ff f4 df bc
       0.056174297 -0.14718136 0.09432763 -0.027338503
0001c0 ad 00 12 3e a0 b2 b3 3d 1c ab df 3c e7 7d cf 3d
       0.1425807 0.087743044 0.027303271 0.10131436
0001d0 70 e7 43 bd c2 09 37 3c 78 26 5b 3c 04 35 31 be
       -0.047828138 0.01117176 0.013375871 -0.1730538
0001e0 63 59 e3 bd 3e d9 16 3d 01 3a e0 bc 47 bc ad 3a
       -0.111010335 0.036828272 -0.027371408 0.0013254964
0001f0 96 f3 5a 3d e5 83 65 3d bd 2c 3e bd 1e 13 c3 3d
       0.053454958 0.056033988 -0.046429384 0.09525131
000200 67 d6 ac bd 92 28 84 bd 99 07 72 bd af 6b 93 bb
       -0.084393315 -0.06453051 -0.059089277 -0.004498921
000210 69 53 b3 bc 90 c0 b8 3d 2c e7 0b 3e f9 0d fe 3c
       -0.021890359 0.090211034 0.13662404 0.031012522
000220 36 b3 bb 3d 7c d3 6f bd 2d 7c 52 3d 1e ca 9c 3d
       0.09165041 -0.058551297 0.051387955 0.07655738
000230 12 3c fd bd 62 10 d2 bd ac c3 51 bd 79 d9 ac 3d
       -0.12364973 -0.10257031 -0.051211998 0.08439917
000240 e1 5f 36 3c 14 ea c6 bd 04 69 f2 3d 55 0f 73 3d
       0.011131258 -0.097126156 0.118364364 0.059340794
000250 74 1c 69 bd 51 d9 16 bd dc fc 48 bd 2b b6 e8 3c
       -0.0569119 -0.036828343 -0.04906927 0.028407177
000260 cd d2 62 3d bb 24 18 3d fe cd ae 3d bb 8f 89 bc
       0.055376817 0.037144404 0.08535384 -0.016792169
000270 1a 6a f8 bd 26 46 21 bd d2 6f 19 be 31 a0 f3 bd
       -0.12129612 -0.03937354 -0.14984062 -0.118957885
000280 63 3f ac 3d c5 21 ed 3c 0b 0f fe 3d 1b ed 80 3d
       0.084105276 0.028946767 0.12405213 0.06295224
000290 73 38 09 3e 87 85 a9 bd 08 70 f4 3c c2 d8 77 3d
       0.1340044 -0.082774214 0.029838577 0.06050945
0002a0 f6 38 87 bd 44 72 ca 3d c7 69 16 be da 8e 3c 3d
       -0.06602661 0.09885076 -0.14688788 0.04603467
0002b0 c9 40 a5 bc 66 cb 97 3d b4 bd 9b 3d ae d0 9f 3d
       -0.020172494 0.07411842 0.076045424 0.07803474
0002c0 c7 b7 3b 3d 20 6d cf 3d a4 39 c5 bd 25 c9 6d 3d
       0.04582956 0.10128236 -0.09630135 0.058053154
0002d0 af 49 e8 bd 33 68 05 be 31 fb 2f bd cf 09 c6 bd
       -0.11342179 -0.1302803 -0.042964164 -0.096698396
0002e0 86 ff 89 bd fa de ee bd 7f 8c e7 3d 36 5f 84 bd
       -0.0673819 -0.11663623 0.113060944 -0.064634725
0002f0 61 be de 3d 7f 9b aa bd 9c f1 52 bd b5 a1 d1 3c
       0.10876156 -0.0833044 -0.051499948 0.025589803
000300 e0 72 82 3b 47 9d 11 be bb c7 b5 3a 5e f6 19 be
       0.0039809793 -0.14220153 0.0013868728 -0.15035388
000310 98 75 13 bd a6 dd 83 3d 83 4a ae 3d a6 a3 20 3e
       -0.036000818 0.064387605 0.08510306 0.15687427
000320 47 bb 85 bd 59 3f 34 3d d7 57 eb 3c bf 1a 15 bd
       -0.06529861 0.044005726 0.028728409 -0.03640246
000330 07 c5 a3 3c 31 5c 89 3d ff 7b 4d 3d 5a 7d 6c 3c
       0.01999141 0.06707037 0.05016708 0.014434183
000340 90 94 5e 3d ba d5 aa 3d 67 e7 78 3c 52 38 89 bd
       0.0543409 0.08341546 0.015191889 -0.06700195
000350 a9 d7 b6 3d 2b 83 69 bd 76 3c b2 3c 45 99 5f bd
       0.08927853 -0.057009857 0.021757346 -0.05458953
000360 6d 52 1b bc 29 4a d1 3c 70 69 95 3d 65 3f 0f 3d
       -0.009480101 0.025548058 0.07295501 0.034972567
000370 23 44 b0 bd 3f 94 1f bd 1a 28 c9 bd 64 f6 80 bd
       -0.08606746 -0.038959738 -0.09822102 -0.06296995
000380 ad 90 17 3d 5a aa 33 bd 17 e2 01 3e 7b 86 50 3d
       0.037003208 -0.04386363 0.12683903 0.0509095
000390 47 32 93 bb 98 76 18 3e 36 d2 91 3d 73 f2 62 3d
       -0.0044920775 0.1488899 0.07120173 0.055407
0003a0 52 dc 97 3d 29 fc a1 bd 83 77 72 bd f0 49 50 3c
       0.0741507 -0.07909424 -0.059196007 0.012712941
0003b0 d2 4b b3 bc 1b 81 e3 bd 7e 34 ed 3d a7 b4 d8 bc
       -0.02188674 -0.11108609 0.11582278 -0.02645333
0003c0 3c 7d 2e 3e d7 c4 b1 bc ea 38 b2 bd 43 14 89 bd
       0.1703996 -0.021700306 -0.08702262 -0.06693318
0003d0 89 14 56 3d 56 85 3b bd 0e 93 06 be ab 19 e3 3c
       0.052265678 -0.045781456 -0.13142034 0.0277222
0003e0 0c 15 4b 3d 08 ec 29 bd bb e0 25 3e 09 36 d3 3d
       0.04958062 -0.041484863 0.16199009 0.10313041
0003f0 27 d3 0d 3d ea d8 3c bd 6d 50 27 be 0b 0d 84 bc
       0.0346252 -0.046105303 -0.16339274 -0.0161195
