src/util/AI/checkpoints/009.ckpt (torch, 353508 bytes, 14 tensors)

lstm.weight_ih_l0 f4 [256, 12]
000000 7e 37 4e bd 07 58 9d 3d 27 d8 1f be b8 17 1e 3d
       -0.05034589 0.076828055 -0.156098 0.03859684
000010 0b a7 a6 3d 1b a8 88 3d 7b 4a 96 3d ce de 0d 3b
       0.0813733 0.066726886 0.07338425 0.0021647695
000020 44 5c c2 bd 72 6c 37 3d 35 5a d8 bd 71 7f 5b bd
       -0.094902545 0.044781156 -0.105640806 -0.053588334
000030 df 33 2b be d8 d2 26 3c 03 f3 af bd 80 d7 e8 bd
       -0.16719006 0.010182105 -0.08591273 -0.11369228
000040 5d 11 a0 bd 8e f3 fe bc a9 0f d8 3d d8 ef d3 3d
       -0.07815812 -0.031121995 0.10549862 0.10348481
000050 c3 fd a9 3d aa 88 19 3d 94 a1 da bd 53 b8 89 3c
       0.08300354 0.03748385 -0.1067535 0.016811525
000060 2d 20 a2 3d 18 2b ec 3d 0b 63 5a 3d 36 cf db 3d
       0.07916293 0.11531657 0.05331711 0.10732882
000070 ec a9 9d 3d c0 83 48 3e 20 5c 2b 3e 33 ea f5 bd
       0.07698426 0.19581509 0.16734362 -0.120075606
000080 36 59 a6 bb 28 6c 70 bd 07 b0 8c 3d eb c1 d8 bd
       -0.0050765527 -0.058696896 0.06869512 -0.10583862
000090 5e f1 9a 3c 58 e9 6b 3d cc 5c 85 3d cc 06 4d be
       0.018913921 0.05759558 0.0651184 -0.20022124
0000a0 31 46 64 be 08 c7 0a bc 72 b0 2a 3e 60 32 37 3c
       -0.22292401 -0.008470304 0.16668871 0.011181444
0000b0 1d af 16 be 8c 45 4a bd 8a 04 52 3e af ef 3a 3b
       -0.14715238 -0.04938273 0.20509544 0.002852421
0000c0 ed 90 62 3d fc 06 a9 bd 68 95 3a bd be 2b bd bd
       0.055313993 -0.08253285 -0.04555264 -0.09236859
0000d0 cc be 8c 3d fd 40 dc bc 0c 8f 54 3d 0b 7c 1b 3e
       0.06872329 -0.026886458 0.051894233 0.15184037
0000e0 0a 00 7e 3d 49 85 cc bc e5 07 d5 bd 89 8b 97 bd
       0.062011756 -0.024965899 -0.104018964 -0.07399661
0000f0 fe 91 1d 3d 86 53 12 3d ba bc 43 3d 2c cf bd 3d
       0.038469307 0.035724185 0.047787406 0.092680305
000100 96 08 ff 3c 9f f7 8d bd 71 f0 7a 3e 5c 35 92 3e
       0.031132024 -0.069319956 0.24505784 0.28556335
000110 29 ae c4 bc aa f9 34 bd 04 1f af bc cd 6b 8f 3c
       -0.024008827 -0.04418341 -0.021377094 0.017507458
000120 92 d9 05 3e 66 2e 19 bb 33 38 15 be d2 cb 25 be
       0.13071278 -0.0023373603 -0.1457222 -0.16191033
000130 0a 49 e0 3d 56 89 c5 bc 9d 30 53 bd 21 1a 08 3e
       0.10951431 -0.024113338 -0.051560033 0.13291217
000140 9d 4c 31 bd dc 01 91 bd d5 2a ef 3b 9a 4a 92 3b
       -0.043285955 -0.07080433 0.007298807 0.0044644596
000150 d1 5c 45 bd 17 bf fe 3d 70 ce 5d 3d f8 84 76 3d
       -0.04818422 0.12438791 0.054151952 0.060185403
000160 81 db bf 3d 31 10 df 3d c9 d2 e7 3c 0f 54 10 3e
       0.09368039 0.1089176 0.028298752 0.14094566
000170 0d 58 26 bd ad fc 57 bc f6 41 f3 bc 3d be 58 bd
       -0.040611316 -0.013182801 -0.029694539 -0.0529158
000180 30 88 b3 bc e9 64 ef 3b 35 3a 01 be ea 3e ee 3c
       -0.021915525 0.0073057306 -0.1261986 0.029082734
000190 9c e7 f2 bb fb 32 03 3d 88 ec 3e 3e ea bc 85 3e
       -0.007412864 0.03203104 0.18644917 0.26120692
0001a0 28 fd 8a 3c f1 dc 37 bd 45 cd a7 bd fa 41 93 39
       0.016966417 -0.04488844 -0.08193449 0.0002808718
0001b0 d5 d1 86 3d 02 b0 bf bc 73 f4 bb 3d 25 88 90 3d
       0.06582991 -0.023399357 0.09177484 0.070572175
0001c0 46 76 71 bd fb b9 e3 3b a1 fd bb 3d 38 99 12 be
       -0.058950685 0.006949661 0.09179235 -0.14316261
0001d0 3e 0d 69 be 7a b7 18 bb b9 9f 8e bc 9a 49 df 3d
       -0.22758958 -0.002330272 -0.017410146 0.1090271
0001e0 2a 13 3e 3c 4a de 81 bd eb 0c 05 be 67 a9 61 bd
       0.011601249 -0.063412264 -0.12993209 -0.055093195
0001f0 61 17 36 3e 04 dc 46 3d ab 24 f3 3d 63 b0 d6 3d
       0.17782356 0.048549667 0.11872228 0.10482862
000200 b3 72 07 3e c3 9c c7 3c 12 21 c3 3d 7d 53 9c bd
       0.13227348 0.024366742 0.09527792 -0.076331116
000210 87 c5 90 3d 2f 40 21 3d 36 23 4f 3d d2 27 bc bd
       0.07068925 0.03936785 0.05057069 -0.091872826
000220 6e e7 a1 3d 65 b2 12 3b a0 aa 90 bd d4 6f 39 be
       0.0790547 0.0022384163 -0.07063794 -0.18109065
000230 f9 1a 7e be bf 90 82 3d 88 ac 3e 3e 66 f2 21 3d
       -0.24814977 0.063752644 0.18620503 0.03953781
000240 c2 95 33 3d 69 30 83 3c 26 f3 24 be 25 0d 8b bd
       0.043843992 0.016014295 -0.16108379 -0.067896165
000250 39 ac 68 3d 53 8a 09 3e 0b 42 97 bd 70 b1 6a be
       0.05680487 0.13431673 -0.073856436 -0.2291925
000260 e1 3f 98 bd 68 d3 9a 3c 11 e0 94 bd 58 e5 a9 bd
       -0.07434059 0.018899634 -0.072693 -0.08295697
000270 31 d4 8a 3c ae 52 6d 3d 5a fd 0d 3d fa 80 c7 bd
       0.016946884 0.057940178 0.034665443 -0.09741397
000280 72 fe 16 be 37 5c b0 bd af fb 07 3e 1d 79 f1 bd
       -0.147455 -0.086113386 0.13279603 -0.11790679
000290 92 1d 27 be 0d 35 87 bd 73 59 91 bc 5a 77 d7 3b
       -0.16319874 -0.066019155 -0.017742848 0.006575507
0002a0 50 e3 22 bd 59 96 6e 3d 76 b4 e0 bd 35 85 af 3d
       -0.039767563 0.05824885 -0.1097192 0.08570329
0002b0 f7 db 9e bd b0 67 8c bd c5 30 c4 3d dd 4a e2 3c
       -0.07756799 -0.06855714 0.095796145 0.027623588
0002c0 cd 8d b3 bd d6 10 f4 3c 26 fc 84 bc 9e b2 d5 3c
       -0.08767281 0.029793184 -0.016233515 0.026086148
0002d0 42 cd 43 bd ba 0b 60 bd 02 5d 19 3e 7d 31 1b 3c
       -0.04780317 -0.054698683 0.14976886 0.009472248
0002e0 fd 67 13 3e 74 13 69 bc b1 e7 13 be 81 47 e3 bc
       0.14395137 -0.014225829 -0.14443852 -0.027744057
0002f0 ac fb 12 bd 70 56 d0 bd 9e b4 6f bd 7e ef ac 3d
       -0.035884544 -0.10172737 -0.05852186 0.08444117
000300 4a 42 85 bd c5 f4 20 3d 48 08 84 3d 27 1b 1f 3e
       -0.06506784 0.03929593 0.06446892 0.15537702
000310 2b 7b a3 3d 95 b3 89 3d f6 35 ac bc 1f 97 12 be
       0.07982477 0.06723706 -0.021021824 -0.1431546
000320 4e 02 48 bd 4b b6 44 bc 94 0f bb bd d3 8e 1f bd
       -0.048830323 -0.012006353 -0.09133831 -0.038954567
000330 04 5d 8b bd ae 05 06 bd 03 64 54 bd 87 58 5d be
       -0.06804851 -0.03272026 -0.05185319 -0.21615802
000340 38 bb 58 3c 4d bc 47 3e 16 0d 44 3c 18 7d 1f be
       0.01322823 0.19505425 0.011966011 -0.15575063
000350 b9 d3 6e 3d 8f 13 71 3c b3 38 f5 3d 28 db 02 be
       0.058307383 0.014714136 0.11973705 -0.12778914
000360 b8 ba 0e be 5e 32 6c bc c0 2a 57 bd 7d 92 c0 3d
       -0.13938415 -0.014416305 -0.052531004 0.094029404
000370 27 1f 6c 3d c4 cf 16 be 97 b8 64 be 5c f4 c7 3d
       0.057646897 -0.14727694 -0.2233604 0.09763405
000380 a6 65 4a 3d a8 75 91 3d 52 19 42 be fe 9e b8 bd
       0.049413346 0.07102519 -0.18954971 -0.090147
000390 25 b2 6e be ed 84 70 bc 20 2d ee bd 9b 7a c9 3c
       -0.23310144 -0.0146801295 -0.11629701 0.024594596
0003a0 bd a1 ce 3d a4 48 e5 3c ae 7e 71 bd 03 51 11 bd
       0.10089443 0.02798874 -0.0589587 -0.03547765
0003b0 39 76 d5 3c 45 99 84 3d c7 f9 3b bd 2d 45 43 3d
       0.02605735 0.06474546 -0.045892503 0.047673393
0003c0 81 b7 d4 bd e8 1f 2c 3e 18 22 90 bd 95 f4 9e 3b
       -0.10386563 0.16809046 -0.07037753 0.004850934
0003d0 75 f8 b5 bb 67 9b 5e bd 94 bf 08 bd b4 8a fa 3d
       -0.0055533 -0.054347422 -0.03338583 0.12233487
0003e0 85 88 af bd b1 aa dd bd 3f b3 26 3d 1a a7 c1 3c
       -0.08570961 -0.108235724 0.040698286 0.02363925
0003f0 ab fa 9f 3b a1 9e 96 3d e1 f7 d5 bd 7f 30 14 3d
       0.004882177 0.07354475 -0.1044767 0.036179062

lstm.weight_hh_l0 f4 [256, 64]
000000 0d e9 83 3d 5c cb 52 bd 3b bf 29 3e d2 31 08 bd
       0.06440935 -0.05146347 0.16576855 -0.033250637
000010 c1 09 55 3d 97 c6 52 3e 14 98 aa bd 8f 45 92 bc
       0.052011255 0.20583569 -0.08329788 -0.017855434
000020 8e 7f 01 3e f0 78 28 3e e9 31 c7 3d ed 09 42 3d
       0.12646315 0.16452384 0.097263165 0.047372747
000030 1e f7 43 3e db c5 ba bd 7a 0f fd 3d 73 87 18 3d
       0.19137236 -0.09119769 0.123564675 0.03723855
000040 2f 48 14 bd db 65 9c 3d 7d 16 41 bc f6 84 3e 3d
       -0.036201652 0.07636615 -0.011785147 0.04651352
000050 ba 07 ee bc 67 41 cc bd 28 95 b0 3b bd 89 d1 bc
       -0.029056419 -0.09973412 0.0053888746 -0.025578374
000060 31 91 2b 3e f6 3b 4e bd 23 1a 20 be c7 68 81 3a
       0.16754605 -0.050350152 -0.1563497 0.0009873145
000070 c6 d0 b4 3d c4 b2 86 3d 39 05 04 be de e7 75 bd
       0.08828883 0.065770656 -0.12892617 -0.06003558
000080 d9 82 3d bd f5 db 2f 3c 9a e7 94 3d b1 4b ed bd
       -0.046267364 0.010733594 0.07270737 -0.115867026
000090 a9 c0 03 bc 12 f1 ef 3c 57 a0 85 bd cb 31 b1 3d
       -0.008041539 0.029289756 -0.06524723 0.086520754
0000a0 75 af 13 bd d3 03 ce bc 35 bd 21 3d f4 3c ea bd
       -0.036056 -0.025148308 0.039487083 -0.11437407
0000b0 cd 08 49 bd 1f 59 33 be 50 88 cd bd 63 d9 1d be
       -0.04908066 -0.17514466 -0.10035765 -0.15414958
0000c0 d0 e9 b2 3d b1 7b 89 3d 62 56 9f 3d 41 18 af 3d
       0.087360024 0.067130454 0.07780148 0.08549548
0000d0 8c 05 52 be 3d d5 14 3b ed f5 68 3e 95 e7 d1 bd
       -0.20509928 0.0022710108 0.22750063 -0.10249249
0000e0 bf 75 86 3c 35 67 ee 3d d9 b8 0c be ee 01 5e bd
       0.016413568 0.11640779 -0.13742389 -0.05420106
0000f0 5c ee 7e bd 6e 24 15 3e 87 2e cf 3c 68 e9 f5 3d
       -0.062239036 0.14564678 0.02529074 0.12007409
000100 ea bc 41 3d 92 e7 73 bd ff d3 87 3e d3 cb b1 3d
       0.047299303 -0.059547015 0.26528928 0.086814545
000110 50 77 6b 3c 6e 00 ef bd 10 b6 9c bc fd d1 70 bd
       0.014371708 -0.11670004 -0.019129783 -0.05879401
000120 b7 18 9a bd bf b0 1d be 14 bb e4 3d 04 3e 71 3b
       -0.07524245 -0.15399455 0.11168495 0.0036810646
000130 a3 0c a7 3c ca b7 90 bd dd f6 2b be de 3f 97 3d
       0.020391768 -0.07066305 -0.1679339 0.073852286
000140 a1 b9 f0 3d 4d b5 45 be d4 a6 42 3e ad 19 9c 3d
       0.11754156 -0.19307442 0.19008952 0.07622085
000150 c0 21 3e 3e ba 87 f2 bd ba c7 3a be 50 3f 7c 3c
       0.18567562 -0.11842294 -0.18240252 0.015395954
000160 05 58 a6 3d 5e e7 16 be e9 63 a4 3d 72 d3 1c 3e
       0.08122257 -0.14736697 0.08026869 0.15315035
000170 a4 78 93 bd f8 98 5d be eb d1 5f bd ea b8 1a 3e
       -0.07200745 -0.21640384 -0.054643553 0.15109602
000180 54 83 13 be 53 42 b6 bd 62 27 90 3c 56 a2 aa 3d
       -0.14405566 -0.08899369 0.017596904 0.083317444
000190 40 f9 f6 3c 47 0d 6b bd 1c eb 03 be 73 a4 bc 3d
       0.030148149 -0.05738571 -0.12882656 0.09211054
0001a0 5f 67 28 3c bf 46 36 be 37 b4 ef bc 90 61 2e be
       0.010278552 -0.17800425 -0.029260738 -0.17029405
0001b0 15 25 bd bd 9d bd 1a be 1d 28 fc bd 05 31 64 bd
       -0.092355885 -0.15111394 -0.123123385 -0.05571081
0001c0 92 98 71 bc 30 ce 68 bc 75 12 9b 3d cd c8 90 3b
       -0.014745848 -0.014209315 0.0757188 0.0044184686
0001d0 86 10 34 be a3 d5 91 3d 11 24 36 bd 59 69 6d 3e
       -0.17584428 0.07120826 -0.04446799 0.23184718
0001e0 dd 59 93 bd 55 ef fc 3d 2d 49 37 be cd aa 98 3d
       -0.071948744 0.123503365 -0.17899008 0.07454453
0001f0 be 28 b5 3c 80 85 5d bd b5 0c 94 3d ff 48 cc bd
       0.022114154 -0.054082394 0.07228986 -0.099748604
000200 e4 e1 20 3e 18 54 7d be 62 8d 89 bd ac d1 89 3d
       0.1571117 -0.2473911 -0.0671642 0.06729445
000210 e5 54 72 bd a6 36 0e 3d 21 1b 7c bc 85 63 f0 3d
       -0.059162993 0.034720086 -0.015387327 0.11737732
000220 19 c4 8d 3d 35 ee 9f bd 90 f1 42 3d d5 f8 67 3d
       0.06922168 -0.07809106 0.047593653 0.05663379
000230 fb cc 2c 3e fe 28 cb bc 7a f9 8f bd bd b8 ab 3d
       0.16875069 -0.02479982 -0.07030006 0.083848454
000240 3f 82 df bd b5 1b 13 bd 75 9c 4d 3e 7d 9c 42 3b
       -0.10913514 -0.035915095 0.20079215 0.0029695325
000250 a7 ac a1 bd f5 5a 13 3d ad 3e 0c bb 36 9b 5b 3d
       -0.07894259 0.035975415 -0.0021399662 0.053614818
000260 2c 82 2c bd ec 88 0b be a7 05 9d bd c5 4d 8c bd
       -0.04211633 -0.1362645 -0.07667094 -0.06850771
000270 41 fa 03 bd 9d 14 64 3d 56 89 30 be bd 6b 0e be
       -0.032221083 0.05568372 -0.1723989 -0.13908286
000280 68 d5 e5 3a 96 e2 ac bb 93 d0 ce 3d 26 f6 8a bc
       0.0017534913 -0.0052760346 0.10098376 -0.016963076
000290 ae 26 23 3d 28 fa d3 3d fd 17 f1 bc 07 b0 08 3e
       0.03983181 0.10350448 -0.029430384 0.13348399
0002a0 0e 83 3f 3e 46 3e 28 3d 21 8e 4b 3d b8 bf ec bc
       0.18702337 0.041075014 0.04969609 -0.028900012
0002b0 78 2a 16 3d d8 0d f9 3d aa 1f fd bd 46 bb 2a 3e
       0.036661595 0.121608436 -0.12359555 0.16673002
0002c0 60 f5 45 bd 19 47 37 3c a6 23 e0 3c 0a de 07 be
       -0.04832971 0.011186385 0.027360748 -0.13268295
0002d0 91 1e 6f 3c 91 d4 37 be f5 f1 f5 bc 35 10 0a be
       0.01459469 -0.17952181 -0.0300226 -0.13482745
0002e0 e5 a1 02 be 93 49 1d 3c ff c5 e0 3d 1a 4e d3 3c
       -0.1275707 0.009600061 0.10975265 0.025794078
0002f0 ec 0c b2 bd 1b 1d 04 ba 02 02 f2 bd 05 3f 5d 3e
       -0.08693871 -0.00050397374 -0.11816789 0.21606071
000300 cc be 6c 3e 50 73 91 be a7 9e 06 3e c8 89 6c be
       0.23119658 -0.2840829 0.13146459 -0.23099434
000310 ca 29 00 3d 65 83 66 be 8f 97 c0 bd 44 a1 91 bd
       0.031289853 -0.2251106 -0.094039075 -0.07110837
000320 de aa 06 3e 47 3e 1f be fc c9 32 3d a5 aa 63 bd
       0.13151118 -0.155511 0.04364966 -0.05558266
000330 ea 35 06 ba c3 23 57 bc 46 f5 d5 bb 1e 4a 1a 3e
       -0.0005119728 -0.013131085 -0.006529483 0.15067336
000340 de 1e 37 3d 84 2f e0 bb f8 9c 43 be 12 ee 23 3e
       0.04470717 -0.006841602 -0.19102848 0.16008785
000350 43 a2 a6 bd bf 41 07 be e9 ce 12 be d9 bf d2 3d
       -0.08136418 -0.13208674 -0.14336742 0.10290498
000360 99 af 81 3d 1f a1 df bd ab cf 13 be 4d 1b 44 3e
       0.06332321 -0.10919403 -0.14434688 0.1915104
000370 79 43 04 3e 39 18 aa bd 2e 1a 1a 3e b7 b9 46 bc
       0.12916364 -0.08305401 0.1504905 -0.012129239
000380 35 17 39 3e e9 ad d6 3b 06 b8 81 3c 3c a3 7b 3d
       0.18075259 0.0065514934 0.01583482 0.06143497
000390 d7 46 c9 bd bf f6 af bd a5 59 01 bd 84 cf a1 3d
       -0.09827965 -0.08591985 -0.031579632 0.079009086
0003a0 50 77 1e 3e 73 20 0a 3e c3 00 89 3c 2c f8 92 be
       0.15475202 0.13488941 0.016723996 -0.28704965
0003b0 f3 d3 5d 3c 5b e8 0a 3e 90 8c 29 3d 56 40 8c 3e
       0.013539302 0.13565199 0.041393816 0.27392834
0003c0 23 da 7d 3d d3 da 3b be 63 70 bc bd 26 40 c4 3d
       0.06197561 -0.18345194 -0.092011236 0.09582548
0003d0 94 77 25 bd 59 80 e6 3d 47 0b 6c 3d d1 0d 34 3d
       -0.04039724 0.11254949 0.057627942 0.04395849
0003e0 0f f0 c5 3d f7 06 31 3d e8 77 91 be 89 20 36 be
       0.09664928 0.043219533 -0.28411794 -0.17785849
0003f0 5b 88 a3 3d d8 62 80 be 35 79 3e 3e 71 7d 66 3c
       0.07984992 -0.25075412 0.18600924 0.0140679935

lstm.bias_ih_l0 f4 [256]
000000 c4 06 3c bd 93 ee ae bd 3b bb 9d bd 37 63 cf bd
       -0.04590489 -0.08541598 -0.07701727 -0.101263456
000010 46 aa d1 bd e0 24 18 3d 4c 01 9b 3c c8 8d e7 3d
       -0.10237555 0.03714454 0.018921517 0.113063395
000020 85 b7 18 3e a4 b4 96 bd db 5a 07 bc c3 df 8b bb
       0.14913757 -0.07358673 -0.008261408 -0.004268618
000030 db 6e 35 bd 43 e3 88 bd 85 db cc 3d cc f0 15 bd
       -0.044295173 -0.06683972 0.100028075 -0.036606595
000040 df ac e3 bd bc 67 93 3c 7d 31 38 bd a3 01 8c bc
       -0.11116957 0.0179938 -0.04496907 -0.017090624
000050 5c cf c2 bc cf 1b e2 3d b6 fe 40 bd ac b7 38 bd
       -0.023780517 0.1104046 -0.04711791 -0.04509704
000060 ce d9 3a 3d 62 31 0e 3d d5 23 4d be 0b b0 51 3d
       0.04561787 0.034715064 -0.200332 0.05119328
000070 05 8d c2 3d 0d f9 25 bd 37 d1 64 3d 21 5f a9 3d
       0.094995536 -0.040520716 0.055863585 0.082700975
000080 fb 49 95 3d 22 52 83 bd ad 9a e1 bc a0 3f fc 3d
       0.07289501 -0.0641215 -0.027539575 0.12316823
000090 7b a2 30 3d 0b 52 a9 bd 71 b5 9e bd f9 a0 3d be
       0.043123703 -0.082676016 -0.07749451 -0.18518437
0000a0 8f 8c 52 bc 66 2e 1a bd 19 88 d2 3d 90 df c6 3d
       -0.012850895 -0.037641905 0.10279865 0.0971061
0000b0 59 e8 6f 3c ee cd 92 bd 8e 24 85 3d 9e a8 61 3e
       0.014642798 -0.07168184 0.06501113 0.22036979
0000c0 ed 35 06 3d 2d db b7 bd 33 d2 29 bd b4 87 c5 bd
       0.03276627 -0.08977351 -0.041460227 -0.09645024
0000d0 f1 30 f8 bc 14 13 6c bd 60 83 85 3d ee ff c7 bd
       -0.030296775 -0.05763538 0.065191984 -0.097656116
0000e0 35 b9 82 be db 56 34 be 7d 7f e6 3b 53 91 9c bd
       -0.25531927 -0.17611258 0.0070342408 -0.07644906
0000f0 c4 95 7d bc 44 4a 13 bc b6 69 1a 3e a5 f4 bd 3d
       -0.015477601 -0.008989874 0.15079388 0.09275178
000100 e9 20 8e bd 59 28 48 bd b0 fd 81 bc 33 20 32 be
       -0.06939871 -0.048866604 -0.015868038 -0.17395096
000110 91 cb cf 3d 8c c1 8b bd 0e 85 f2 bb d6 81 84 bd
       0.10146249 -0.068240255 -0.0074011153 -0.06470077
000120 30 ad 96 bd b5 b4 f2 3b 75 bd c2 ba 1b c4 41 3d
       -0.07357252 0.007406796 -0.0014857488 0.04730616
000130 18 6f f2 bd ce fa 07 be 42 de e1 bc 12 85 81 3d
       -0.11837596 -0.13279268 -0.027571801 0.06324209
000140 53 37 25 bd dc 23 9b bd 25 19 29 3b 3d 9b a4 3d
       -0.040335964 -0.07575199 0.002580234 0.08037422
000150 ba 62 e3 3c 0f e1 72 3d 16 3a ea 3d 79 6b a9 3d
       0.027757037 0.059296664 0.1143686 0.08272452
000160 89 99 3a 3d 6a ce 41 3d 68 f8 04 bd b0 5c 97 3d
       0.04555658 0.047315992 -0.03246346 0.073907256
000170 1a 82 86 3d 20 8e 39 3e 9d 10 46 bd e5 cf 21 3e
       0.06567784 0.18120623 -0.048355687 0.15801962
000180 2b 57 0d 3e 83 26 fc 3c b0 1e e8 3b bc 20 f2 3d
       0.13802783 0.030780083 0.0070837364 0.1182265
000190 b6 d3 e9 3d ad 32 3c be 0c bd 0b 3d ca 1b 54 be
       0.11417334 -0.18378706 0.034115836 -0.20713726
0001a0 2d 21 00 3d 93 35 f8 3d f6 ff a1 3d aa 41 91 3d
       0.03128164 0.121195935 0.07910149 0.070926026
0001b0 12 b0 00 3d c5 3b 5e bd c4 55 65 3d 0a 28 79 3c
       0.031417914 -0.05425622 0.055989996 0.0152073
0001c0 3f 80 15 bd 19 dd 0c 3e 0f b1 c0 3d b2 75 94 bd
       -0.036499258 0.13756217 0.09408771 -0.07249011
0001d0 9d 79 e8 3d 90 99 c6 3c c3 38 a3 bd a5 c3 1d 3e
       0.11351321 0.024243146 -0.07969811 0.15406664
0001e0 11 d1 b0 bc 55 c7 7a bc af 9f 08 bd 8a a6 14 be
       -0.021584066 -0.0153063135 -0.03335541 -0.14516655
0001f0 0e 02 f6 bd f6 20 9d bd 91 ea e3 3d 72 41 55 bc
       -0.12012111 -0.076723024 0.11128724 -0.013016092
000200 20 5f 26 bc 40 b8 c9 bd 4f eb 9b 3d 62 2d 81 3d
       -0.0101545155 -0.09849596 0.07613241 0.06307484
000210 5b 3f 08 bd 96 72 8e 3d d0 a6 08 3c 57 5b 56 bc
       -0.033263545 0.06955449 0.008340552 -0.013083301
000220 6f d8 39 be f2 16 16 bd 15 4f eb bd 03 16 84 bd
       -0.18148969 -0.036642976 -0.11489693 -0.06449511
000230 50 aa 98 bb dc 15 22 bb 04 10 12 ba 3d d8 66 3d
       -0.0046589747 -0.0024732267 -0.00055718445 0.056358565
000240 f6 7f 41 3d 7b ea bc 3d 12 35 6c bd 94 56 3d 3e
       0.047241174 0.09224411 -0.0576678 0.18490058
000250 d8 e4 ad bd 1e 4c 2b 3d fa 78 0b 3e e5 fa 11 3e
       -0.08490914 0.041820638 0.13620368 0.14255865
000260 3c ed b1 3c 2e 8f 97 3d 86 77 34 3e f7 30 7d 3d
       0.021719567 0.07400356 0.1762372 0.061814275
000270 07 66 dc 3b 56 11 c4 bd ed 71 d0 bb c4 c1 ee bd
       0.00672603 -0.09573619 -0.0063612373 -0.116580516
000280 63 7c 16 3e 0e 4f 82 bc 59 a6 2d bd 1a aa 00 bd
       0.14695887 -0.015906837 -0.04239497 -0.03141222
000290 97 cf aa 3d 21 17 aa bd 96 c8 6c bd 34 a9 f7 bc
       0.08340376 -0.08305193 -0.05780848 -0.03023205
0002a0 00 33 e5 3d 78 d7 55 3d 49 10 7a be 32 f8 43 bd
       0.11191368 0.05220744 -0.24420275 -0.04784412
0002b0 22 81 c5 3c 39 83 bf bd 68 f6 85 3d 6e 5a 9d bd
       0.024109427 -0.093512006 0.06541139 -0.07683264
0002c0 c6 c1 e1 3a b0 13 2a 3e 02 39 72 3d ed b8 13 3e
       0.0017223887 0.16609073 0.059136398 0.14426012
0002d0 06 65 c3 3a cd 83 c7 3d ef 7d e1 3c 01 ba c4 bd
       0.0014907427 0.09741936 0.02752587 -0.0960579
0002e0 dc 20 5c bd 92 36 07 3e 6d 2f 09 3e 51 d2 27 3d
       -0.053742275 0.1320441 0.13396998 0.040972058
0002f0 d7 c9 ea bc e1 1f e4 3d 1b fb 83 3d b0 27 be bd
       -0.028660698 0.11138893 0.06444379 -0.092849135
000300 ef 83 8a 3d 81 b7 1a bc d3 5c bf 3b aa 4a b9 3d
       0.067634456 -0.009443165 0.005839923 0.09047444
000310 25 57 90 bc b8 65 4c bd c7 8f 43 be ac 56 bf 3d
       -0.017619679 -0.049901694 -0.19097815 0.09342703
000320 5b 20 be bd 5b 11 f4 bc cd b2 3b bd 24 b6 42 3c
       -0.09283515 -0.029793432 -0.045824815 0.011884246
000330 a0 86 4c 3c f8 df ba bb 78 58 2c be b6 c6 07 3d
       0.012483269 -0.0057029687 -0.16830623 0.03314849
000340 c6 90 dc bd 14 46 a1 bb 6e aa 0b be 47 f1 94 3d
       -0.10769801 -0.004921684 -0.13639233 0.072725825
000350 1a b9 02 be 69 b8 a0 bd b8 75 0f 3c a8 c0 0a bb
       -0.12765923 -0.078476734 0.008756094 -0.002117196
000360 65 be 0a be e2 2b d0 3d 90 b1 00 3e 6f 26 ec 3c
       -0.13549192 0.1016462 0.12567735 0.02882692
000370 47 e1 aa 3d c3 81 c2 b9 f5 f0 96 3c 9a 1d cf bd
       0.083437495 -0.00037099243 0.018425444 -0.10113068
000380 ee 6c 89 bc c1 0a 80 bc 58 5f 7e bd b7 33 d9 bd
       -0.016775575 -0.015630128 -0.062102646 -0.10605567
000390 63 9d 16 3d c3 ae bf bd e8 9b ce 3c c6 78 73 bd
       0.03677119 -0.09359505 0.025220826 -0.05944135
0003a0 5d 2b 83 3a 59 4e 29 3e 66 1a 79 3d fa 48 f8 3d
       0.001000743 0.16533794 0.06081619 0.12123294
0003b0 32 de 8f 3d 5a 62 8a bd 1b cc d6 bd b5 42 78 bc
       0.07024802 -0.0675704 -0.10488149 -0.015152623
0003c0 c3 b0 99 bd c4 86 c8 bd c9 e7 f3 bd 26 7f ef 3d
       -0.07504418 -0.097913295 -0.11909444 0.116941735
0003d0 ed 9d b2 3d d2 6d 6b 3c 19 ab 6a bd a7 29 73 bd
       0.08721528 0.014369445 -0.057292078 -0.059365895
0003e0 80 58 9e bd 10 d3 56 3d 4c b0 28 be 1b a0 e6 3d
       -0.07731724 0.05244738 -0.16473502 0.112610064
0003f0 af 1d af 3d 3c d3 a6 bd 8d b7 b2 3c 83 e4 f0 bd
       0.085505836 -0.081457585 0.02181604 -0.11762335

lstm.bias_hh_l0 f4 [256]
000000 00 47 16 be 31 f4 14 bd e5 cf 3d bd cb 8a 71 be
       -0.14675522 -0.03636569 -0.04634084 -0.23588102
000010 c6 78 17 be 46 f0 c0 bd 37 66 02 bd 0b 7e 17 3e
       -0.14792165 -0.094208285 -0.03183576 0.14794175
000020 51 7b 0d 3e d1 fa ce 3d 3a 90 da 3d 61 4f 33 bc
       0.13816573 0.10106433 0.1067204 -0.010944218
000030 a3 83 b1 3d f8 85 78 bc c9 56 f1 3d 52 d6 80 3d
       0.08667686 -0.015168659 0.11784131 0.06290878
000040 01 14 53 3d 81 08 e0 bd a4 2d 14 be 41 0a 9e 3d
       0.05153275 -0.10939122 -0.14470536 0.077167995
000050 16 e1 b4 3c 10 e2 21 3e 0a 08 4a 3d 2f 9f 7f bd
       0.022079986 0.15808892 0.049324073 -0.06240767
000060 cf a9 f2 bd b8 3b 51 bc 5b f3 01 bd b9 7f 9e bd
       -0.11848795 -0.012770586 -0.031726222 -0.07739205
000070 04 13 38 bd be cb fc 3b 14 76 8e 3c b5 c0 2f bd
       -0.04494001 0.0077147176 0.017390288 -0.04290839
000080 e1 cb 10 be 4b 8a ac bd 82 c5 c0 bd e5 2d 74 3d
       -0.14140274 -0.08424815 -0.094126716 0.05961408
000090 b7 8c 75 bd 5c c3 b4 bc 21 dc ef 3c 3c c0 47 bc
       -0.05994865 -0.02206581 0.02927977 -0.012191828
0000a0 09 f2 f4 bd 0e 3c af 3d b5 c2 cf 3d 4e 6a ec bd
       -0.11960227 0.085563764 0.10144559 -0.115437135
0000b0 91 b8 9b 3d 88 b6 93 bd ca 9c 1b 3c f6 19 dc 3d
       0.076035626 -0.072125494 0.009497831 0.10747139
0000c0 3a 24 29 3e 47 65 af bc 49 fe 46 be 77 e2 22 be
       0.16517726 -0.021410597 -0.1943294 -0.15906702
0000d0 64 63 6c bb ba 47 b2 3d a6 a4 51 3d 46 41 69 bd
       -0.0036069984 0.08705087 0.05118241 -0.056947015
0000e0 aa 9f 95 bd 23 16 24 be f3 06 32 3d 75 0d 82 3d
       -0.07305844 -0.1602407 0.04346366 0.06350223
0000f0 6e d6 c1 3c db 71 35 3e e0 4e 36 bd 04 b8 99 3d
       0.023661818 0.17719214 -0.044508815 0.07505801
000100 ad 74 64 bb 8a 85 62 3d 89 00 04 be f8 a5 e3 bc
       -0.0034859583 0.055303134 -0.12890829 -0.027789101
000110 db 4f 8d bc ca b0 ed bd 45 db 6c bd 2e 27 85 bd
       -0.017249992 -0.116059855 -0.0578263 -0.065016136
000120 f9 98 1b be fe 03 b9 3d da f1 7a bd c1 d7 a2 bd
       -0.15195073 0.090339646 -0.061265804 -0.07951308
000130 35 84 1c 3d 5c 47 99 bc 39 ca 81 bd a8 c7 43 3d
       0.03821202 -0.018710785 -0.06337399 0.04779783
000140 91 f5 0c 3c 4f 36 93 3d 79 85 0a 3d 7c 60 18 3b
       0.0086034695 0.07188093 0.033818696 0.0023250869
000150 45 21 fa bd cc b0 66 bd ae 63 01 3e a9 57 6d bd
       -0.12213377 -0.05632095 0.12635681 -0.057944927
000160 fd c3 c3 3d 23 f3 02 3e 5f b0 ee bd 36 fd 9b 3b
       0.09558866 0.12788062 -0.11654734 0.0047604097
000170 f3 aa c8 3d 71 bd 19 3e 40 d7 94 3d 94 f6 94 3d
       0.09798231 0.15013672 0.07267618 0.072735935
000180 c7 aa 9b bd e8 3f 2c b9 33 c3 eb 3d 4e 4b 2c bd
       -0.076009326 -0.00016427005 0.11511841 -0.042064004
000190 54 ac 2c 3e 90 ce bd bd 41 bf 5a 3d c1 fd a3 bd
       0.16862613 -0.09267914 0.05340505 -0.08007384
0001a0 17 d4 20 3d 4d 70 aa bd 4f 15 fc bc c5 aa fd 3d
       0.039264765 -0.08322201 -0.03077188 0.12386087
0001b0 f2 d2 76 3d cd 8e 92 3d 10 8c 0c bd 96 71 10 3e
       0.060259767 0.07156143 -0.03431326 0.1410583
0001c0 e8 48 62 3c 9c 2a 5d 3e fb 4d c8 3d 76 8a b4 3c
       0.0138113275 0.21598285 0.097804986 0.02203868
0001d0 65 1b a6 3d 7e f2 50 3c 6e f0 8e 3b 0d b6 d8 3d
       0.08110694 0.012753127 0.0043621575 0.105815984
0001e0 83 c2 37 bd 6c b1 50 bc 67 e8 e2 3b 8f fe c9 bc
       -0.044863235 -0.012737613 0.006924677 -0.024657516
0001f0 69 fa 02 3d 84 7d ad 3c fd a7 13 3d 77 f2 67 bd
       0.03197709 0.021178015 0.036048878 -0.056627717
000200 d3 28 ad 3d 7c a5 ab 3d df 30 2b be b9 fb 82 ba
       0.08455052 0.08381173 -0.16717862 -0.0009993232
000210 91 05 1a 3e c8 7a be bd 2b 85 6d 3c 9a e2 03 3e
       0.15041186 -0.093007624 0.014497082 0.1287941
000220 f5 82 41 be 3a 40 4d bd 6a f1 88 3d 2f 89 9b 3d
       -0.18897612 -0.05011008 0.06686671 0.07594525
000230 db f5 4b be 71 43 f9 bc 9a b8 9e bc 7c a5 88 bd
       -0.19918005 -0.030427666 -0.019375134 -0.06672189
000240 8a e9 89 bc 3e 23 37 3e 1d ab df 3c 11 4a 03 bc
       -0.016834993 0.17884538 0.027303273 -0.008013264
000250 7b 62 01 bc a3 9e 9b bd 38 54 5f 3e 04 2c cd 3d
       -0.007897015 -0.07598617 0.2180947 0.10018161
000260 9f 11 a1 3d d3 7a 0b 3e 43 40 5d 3c de 67 9e bd
       0.07864689 0.13621072 0.013504091 -0.07734655
000270 3d c1 3f bd 85 05 85 bc 44 cb 01 bc 15 51 23 3c
       -0.046815146 -0.016237983 -0.007921997 0.009968062
000280 cb 48 95 3d ab 57 cf 3d 1c c6 d7 bd c2 1e 36 3d
       0.07289275 0.10124143 -0.10535833 0.044462927
000290 95 de 9f 3c a8 32 55 3b d1 3f 0f be a9 c9 ab 3d
       0.019515315 0.0032531414 -0.13989188 0.08388073
0002a0 a3 bf 32 bd 4f 2c 30 3d ed 87 e1 bd 27 8c 09 3e
       -0.04363979 0.043011006 -0.11012254 0.1343237
0002b0 bb 37 87 bd 82 88 0c 3e 8e 30 68 3d a7 ea 27 bd
       -0.066024266 0.13723949 0.05668693 -0.040995266
0002c0 fb f0 66 3d 9e 26 2c 3d ea 84 a9 3d 1c e1 21 3d
       0.05638216 0.042029016 0.082773045 0.03952132
0002d0 26 82 1d 3e f8 ef a1 bc 49 f0 8b 3c aa 58 0c be
       0.15381679 -0.019767746 0.01708235 -0.13705698
0002e0 e8 43 e5 bd 9f 11 45 3e 6b 3a 83 bd 87 4c 87 3c
       -0.11194593 0.19245003 -0.06407627 0.016515983
0002f0 1d 2b cf bd a4 d1 2e 3d 9c ba cc 3d fe 0b fd bd
       -0.10115645 0.042680398 0.099965304 -0.12355803
000300 e8 62 11 3e c3 ef d1 3d 13 67 38 bd 83 63 50 bd
       0.14197886 0.10250809 -0.045020174 -0.05087615
000310 5f 71 04 3e ab 28 93 bd 22 3e 9c bc ce b0 99 bd
       0.12933873 -0.07185491 -0.019072596 -0.07504426
000320 25 c6 05 be c5 c8 c3 3d e1 43 0f 3e 26 5f 94 bc
       -0.13063867 0.09559778 0.13990737 -0.018111777
000330 fc 96 57 3c ea 09 8e 3d d2 0d 29 bd c7 ed 0a 3d
       0.013158556 0.06935485 -0.041272946 0.03391817
000340 b0 16 8a 3d a9 88 b2 3d 5d ec f1 3c b7 85 19 be
       0.067426085 0.08717472 0.029531652 -0.14992414
000350 1b a6 9f 3d 0e 2a 7f bd f8 87 f0 3d c2 fa 84 3a
       0.07795354 -0.062295966 0.11744684 0.0010145532
000360 af c2 28 3d 8d 16 75 3d ed d9 f5 3d bc a2 e7 bd
       0.04120129 0.05983596 0.12004457 -0.11310336
000370 16 90 0f 3e 13 b9 e8 3d 7f 9a 20 be 4f b3 0a 3e
       0.14019808 0.11363425 -0.15683936 0.13544963
000380 8e 77 24 3d cb 03 9b 3d a2 42 e2 3b 87 38 4e bd
       0.04015308 0.07569083 0.006904916 -0.050346877
000390 c7 c5 e5 bc b3 e5 bd 3d 61 5b 95 bb 4f a5 25 bd
       -0.02804841 0.09272327 -0.0045580124 -0.040440854
0003a0 d3 f9 80 bd fd 7d 0b 3e cb 18 cf 3d cd 14 9f 3c
       -0.0629765 0.1362228 0.10112151 0.019419098
0003b0 57 20 91 3c 4b b5 0e bc 46 58 7d bd fe 77 02 3e
       0.017715616 -0.008710216 -0.061851762 0.12741086
0003c0 93 14 47 3c 5d d9 89 3b ef 6a d9 3d 55 5e 97 bc
       0.012150901 0.00420682 0.10616099 -0.018477598
0003d0 3e 7f 3b bd 0a 55 3a 3d fd 62 6a bd 26 63 ba 3d
       -0.045775644 0.045491256 -0.05722331 0.09100942
0003e0 9b 19 13 bd f5 33 c7 bc e1 e9 20 bb b9 fc 00 3d
       -0.03591309 -0.024316767 -0.0024553465 0.031491015
0003f0 d9 2d 0b 3e 7b 8c 7e bc df 08 89 3c 05 eb b4 3d
       0.13591708 -0.015536423 0.016727863 0.08833889

lstm.weight_ih_l1 f4 [256, 64]
000000 b6 77 f5 bd 8f 83 66 be 12 e1 d4 bc 62 44 34 be
       -0.11985724 -0.22511123 -0.025986228 -0.17604211
000010 93 e5 c4 bd e0 42 c5 3d 82 bf ae 3c ed 4b 2b 3d
       -0.096141 0.09631896 0.021331552 0.041820455
000020 f9 3d 3b 3d e6 87 7d bd d1 56 44 3d b6 b8 e6 bd
       0.0457134 -0.06189718 0.047934357 -0.112656996
000030 1a 28 c3 3d 02 22 08 bd 7d 36 b5 bd 23 90 04 be
       0.09529133 -0.033235557 -0.088482834 -0.12945609
000040 32 50 48 bd 24 ce 53 bd 26 29 c3 3d 0e be 07 bd
       -0.048904605 -0.051710263 0.09529333 -0.033140235
000050 d2 28 01 bd e7 55 fc 3d d9 6f c8 3b 86 86 1f be
       -0.03153307 0.12321072 0.006116849 -0.1557866
000060 ee 25 2b bd e5 50 b0 bc 33 9a 74 be c5 29 7e 3d
       -0.04178422 -0.021522949 -0.23886947 0.062051553
000070 19 bb b1 3b 22 17 20 bd b6 54 0c be 2c 19 1f be
       0.005423915 -0.03908456 -0.1370419 -0.15536946
000080 a3 e1 40 bd c3 31 da bd d4 bb e5 3c 3e ee 82 bd
       -0.047090184 -0.106540225 0.028043665 -0.06393097
000090 5c bf bb bd ee ba 46 bd 8e 7d 45 bd 10 10 e2 3d
       -0.09167358 -0.048518114 -0.04821544 0.1103822
0000a0 f9 fb c2 ba 8a 67 33 3d d6 e6 91 bd 04 72 b9 3c
       -0.0014876119 0.043799914 -0.071241066 0.022637375
0000b0 5b d7 f5 bd 52 8a 8e bc db 16 48 bd 49 98 2d be
       -0.120039664 -0.01739994 -0.04884992 -0.16952623
0000c0 88 06 b2 bc 56 81 8e 3d b9 ca 96 bd 00 e4 94 bd
       -0.02173163 0.069582626 -0.07362885 -0.0727005
0000d0 73 65 4d 3d 2a 95 f2 3d 36 af 81 3d 42 26 7f 3d
       0.050145578 0.11844857 0.06332247 0.062292345
0000e0 d7 bf 51 3d 36 ff c3 ba b7 07 f6 bc 49 ad 3a 3d
       0.051208343 -0.0014953378 -0.030032976 0.045575414
0000f0 16 1c bb bd 57 81 81 3d f8 2e 76 3d 0c 9c 23 3e
       -0.09136216 0.06323498 0.060103387 0.15977496
000100 13 29 8b bd 94 61 8e 3c 91 ef 65 3d 61 ba bc 3c
       -0.06794944 0.017380513 0.05613667 0.023038091
000110 56 99 2e 3d 01 39 f7 3d 99 bb d2 3d 4e 1e 70 bc
       0.0426267 0.120714195 0.10289688 -0.014655663
000120 f4 8b fa 3c ce 58 19 3e 7f b9 bf 3d d0 8c a8 3b
       0.030584313 0.14975283 0.093615524 0.0051437393
000130 ad e2 b4 bd f3 d6 d0 bd 25 02 f7 bc 10 5f b6 ba
       -0.088322975 -0.10197248 -0.03015239 -0.0013913829
000140 f3 aa 74 3d 77 f5 93 3d 3e 9c 2c 3e 9d 69 cc 3d
       0.059733342 0.07224553 0.16856477 0.09981082
000150 a4 00 1c be c1 e8 28 3e 77 2b 5e 3d 19 41 7c 3c
       -0.1523462 0.16495039 0.05424067 0.01539638
000160 8a a2 0e 3c c4 62 fc 3c ca 0b 34 3c 5a 7a cf 3d
       0.0087057445 0.030808814 0.010989139 0.101307586
000170 53 46 16 3e d5 a1 3d 3e 30 43 bf 3d 54 83 bd bc
       0.14675264 0.18518765 0.09338987 -0.023133911
000180 d8 6e 09 be ea 75 35 bd 1c b7 3a 3b 51 3d 18 3d
       -0.1342119 -0.044301905 0.002849049 0.03716785
000190 11 40 11 3d bf cd 0b 3e ba bb 88 bd 31 db 0f be
       0.03546149 0.13652705 -0.06676431 -0.14048459
0001a0 60 47 02 be 25 1d 15 be 8c 55 82 bb 6d 1b 7a 3d
       -0.1272254 -0.14561899 -0.003977483 0.06106131
0001b0 a6 6b 64 3d 2e 2c bc bc e8 02 ea bd ea 8a 25 be
       0.055766724 -0.022970285 -0.114263356 -0.16166273
0001c0 f2 a8 e9 bc 45 e8 6b 3e f0 85 0a be 8d 0f 1e 3d
       -0.028522942 0.23037823 -0.13527656 0.03858905
0001d0 1f 59 0c bd 58 f5 4e 3c 03 72 08 3e 1c d8 18 bd
       -0.03426468 0.012631737 0.13324742 -0.037315473
0001e0 26 60 f4 3d 84 62 e2 bc 36 3e 5b bd e2 f1 00 be
       0.11932401 -0.027634867 -0.053526126 -0.12592271
0001f0 e9 38 d2 3d c5 1b 48 bd 14 79 a8 bc e2 8d 6b 3d
       0.10264761 -0.048854608 -0.020565547 0.057508357
000200 99 28 c1 bd e2 bc a7 3d 35 c3 0d 3e df a6 ff bc
       -0.094315715 0.081903234 0.13843997 -0.0312075
000210 21 36 67 3d c3 ca e9 bc d0 84 3b 3d f8 2c de bd
       0.056448106 -0.028539067 0.045780957 -0.10848421
000220 b1 8c a2 bd 2b 80 60 bd 7b f3 84 bc 02 eb ba bd
       -0.07936991 -0.05480973 -0.016229382 -0.091268554
000230 52 bd 8c 3d 1b 7b 83 3d c7 a7 d2 3a d4 c1 a4 3b
       0.068720475 0.06419965 0.001607173 0.005027989
000240 34 ba 31 3d 9f 4e 02 3c 67 8f f7 bd 03 06 17 be
       0.043390468 0.007953315 -0.12087899 -0.14748387
000250 17 fe a4 bc ba c1 e0 bd f4 de fe 3d 48 3b f6 bc
       -0.02014069 -0.109744504 0.12444869 -0.030057564
000260 04 7b fd bc d9 0a d4 bd 5f 7b cf bd 81 0b d0 bc
       -0.030942447 -0.103536315 -0.10130953 -0.02539611
000270 98 66 a6 bd 74 1c e6 39 d0 67 1a be aa 94 c3 3c
       -0.08125037 0.00043890218 -0.15078664 0.0238746
000280 70 f1 c5 3d 14 ef 2a 3d d3 29 11 bc ce dc 08 3d
       0.09665191 0.04173191 -0.008860069 0.0334137
000290 82 0e cc bd f9 90 9a 3d ee 99 3d bd 2d 41 f8 3d
       -0.09963705 0.075471826 -0.046289377 0.12121806
0002a0 d8 c3 16 be 82 37 30 bd 43 21 d6 bd b0 35 92 bc
       -0.14723146 -0.043021686 -0.10455563 -0.017847866
0002b0 41 10 04 3d 87 7b 18 be 00 5b ff bc 61 09 70 3c
       0.032242063 -0.14890872 -0.031171322 0.014650674
0002c0 5b 17 de bd ac c6 5b 3d ea e1 6e 3c c0 40 7e bd
       -0.108442985 0.053656265 0.014580229 -0.06207347
0002d0 cf 70 0e bd 7d fa 92 be e4 c2 32 ba ba 3c 05 3d
       -0.03477555 -0.28706732 -0.0006819202 0.032528616
0002e0 f5 ad 7a bd 8d 9c 8d 3d 01 9a c2 bd 1b a2 35 bd
       -0.061201055 0.06914625 -0.0950203 -0.04434405
0002f0 31 b1 06 bd 3b ac 29 3e 2d b1 1f ba 9d 30 14 3d
       -0.032883827 0.16569607 -0.000609177 0.036179174
000300 8c 6e 53 bc c3 5e db bd a4 72 21 3d 47 1c 0d be
       -0.012904774 -0.10711434 0.03941597 -0.13780318
000310 0f 88 da 3d d6 2a b6 3d 5f 8a c1 3d a6 b0 02 be
       0.10670482 0.08894889 0.0945022 -0.12762699
000320 45 19 67 bc d9 ad c2 bd bc 37 49 3d f2 31 2a 3a
       -0.014105146 -0.09505815 0.049125418 0.0006492428
000330 4d 97 30 3e 93 48 d1 bd 8f cd f2 3d 2c 7c 53 bd
       0.17245217 -0.102189206 0.118556134 -0.05163209
000340 3b 37 3b be 06 e3 b0 bd 6b 8f aa 3e 85 a3 61 3d
       -0.18282788 -0.08637051 0.33312544 0.055087585
000350 1e 75 cd 3c 74 b8 d2 bc 14 51 64 3d ab eb 9b 3d
       0.02508026 -0.02572272 0.055741385 0.076133095
000360 b8 98 17 3d 17 13 9a bc af d1 3d bd b1 17 08 be
       0.03701088 -0.01880793 -0.046342548 -0.13290288
000370 8c a2 ee 3d 2f 6a ed 3c ce 55 1c be 12 2a f7 bc
       0.11652097 0.028981296 -0.15267107 -0.030171428
000380 7e f0 24 3d 67 4c 27 be 94 41 7a bd 05 d8 13 3e
       0.040268414 -0.16337739 -0.061097696 0.14437874
000390 5e b4 91 3d 4e 24 fb 3c 49 8d 7f 3d ea c5 50 3d
       0.071144804 0.03065696 0.0623906 0.050969996
0003a0 58 cd b9 bc 2e 3a e1 3d ff 85 81 bd 54 61 42 bd
       -0.022680923 0.10997425 -0.06324386 -0.0474561
0003b0 c6 fd 66 bd 3c 89 8b 3d 7e a1 07 3d 6c 31 ba bd
       -0.05639436 0.06813285 0.033112995 -0.09091458
0003c0 24 7a c3 3d 43 e9 a8 bd 82 c4 0f 3e 7b 5e 40 3d
       0.09544781 -0.08247616 0.14039806 0.046965104
0003d0 bc 80 13 3e 62 e8 e1 bd 23 7f 1f 3d 45 0e bc 3d
       0.14404577 -0.11030652 0.038939606 0.09182409
0003e0 e9 07 0b bd a4 2b 1f be 9c f3 6e 3a 18 f5 e7 ba
       -0.03394309 -0.15543991 0.000911528 -0.0017696945
0003f0 60 13 31 bc ee 33 62 3d 0e a2 2d 3e 56 03 b4 3d
       -0.010807842 0.055225305 0.1695635 0.08789699

lstm.weight_hh_l1 f4 [256, 64]
000000 a5 fb 1d bd 3d 62 fe bc b1 52 a6 3d 5f fd d0 bc
       -0.038570065 -0.031052703 0.08121241 -0.025511442
000010 dc 21 c3 3d d3 9b 8a be 81 6b ac 3d c6 37 93 ba
       0.095279425 -0.2707201 0.08418942 -0.0011231832
000020 30 47 df 3d 8d 5b c8 3d 46 45 e3 3c 5e 22 c3 3d
       0.1090225 0.09783087 0.027742993 0.095280394
000030 6f fb 89 bd 11 72 33 be 62 1e 50 bd 16 4c 26 be
       -0.0673741 -0.17523982 -0.050810225 -0.16239962
000040 89 da 7b bd da b3 b3 bc 3a 8a ea b9 8a d5 d3 bd
       -0.06148771 -0.021936346 -0.00044734945 -0.10343464
000050 d3 e6 51 3d cf 00 8c 3d b8 87 b8 3d 56 12 e9 3c
       0.05124552 0.06836092 0.09010261 0.028451126
000060 f3 de 49 3e fd d7 b4 bd 43 52 42 bd 80 71 ba 3d
       0.19713955 -0.08830259 -0.047441732 0.0910368
000070 f0 af 12 be b0 71 50 3d d5 ec ac 3d dd cf d3 3d
       -0.14324927 0.05088967 0.084436096 0.10342381
000080 7c 60 84 3b d7 2b 22 bd 3f 75 95 3c 2e de 62 3d
       0.004039822 -0.03959259 0.018244384 0.05538767
000090 48 aa 8d 3d af be 54 3d 11 cd b4 3d 24 65 d6 bc
       0.06917244 0.051939663 0.08828176 -0.026171274
0000a0 10 a9 cc bb 66 49 32 3e aa 90 e0 bc 36 b2 1b 3d
       -0.0062457398 0.17410812 -0.027412731 0.038011752
0000b0 2f 7b 35 3d 5b a3 2a 3c 6d 16 17 3e 83 0b 0f be
       0.04430693 0.010414924 0.14754649 -0.13969235
0000c0 ff 69 b2 bd a1 29 2e 3e d2 79 0b 3e 0b 1c 02 3e
       -0.087116234 0.17008068 0.1362069 0.1270601
0000d0 40 9c 28 be 9c 7e 01 bd a1 1e 88 3d 36 57 a9 bd
       -0.16465855 -0.031614885 0.06646467 -0.08268587
0000e0 98 81 2c be 9b 4f c4 bd 75 b5 94 3b f6 86 a7 bd
       -0.16846311 -0.09585496 0.004538233 -0.08180039
0000f0 9a 21 7a bd 4d 9a 23 bd 56 df d8 3d 6b 08 5f 3e
       -0.0610672 -0.039942075 0.10589473 0.21780555
000100 a0 33 80 3d da c0 35 3d 5a 20 f0 3d af 3f e7 bd
       0.06259847 0.04437337 0.117249206 -0.112914436
000110 0d 8e 07 3c c2 88 b8 bd 51 ef f9 bd be db 10 3c
       0.008273614 -0.090104595 -0.12203849 0.008841453
000120 6f 0a 70 bd 1f 00 2a be 95 91 ab 3d 3f e4 15 be
       -0.0586037 -0.16601609 0.08377377 -0.1463785
000130 ac d4 c6 3d f4 ad 94 bc 06 5f 5e be 39 72 90 bd
       0.09708533 -0.018149354 -0.21715936 -0.07053036
000140 51 13 d7 3d 3a bb 79 3b d0 54 88 3d 52 a3 17 be
       0.10501731 0.003810598 0.06656802 -0.14808396
000150 32 d3 00 be 59 5a 1a 3d 5c a2 6d bd 00 5d 54 bc
       -0.12580565 0.03768382 -0.058016166 -0.012961626
000160 e9 a2 91 bd c0 b0 71 ba b1 7c 15 3d 34 04 e5 bd
       -0.07111151 -0.0009219758 0.036495868 -0.11182442
000170 37 7e 11 3d c1 34 b6 3c 01 80 89 bd 60 45 9b 3c
       0.03552076 0.022241952 -0.06713868 0.018953979
000180 c2 78 35 3c 77 50 2c 3d 8b 75 14 be 8a 89 a6 bd
       0.011076154 0.042068925 -0.14497964 -0.08131702
000190 95 2e 7b bd 34 f1 88 bd f7 fe e8 bd 44 b2 40 be
       -0.06132372 -0.06686631 -0.11376756 -0.18818003
0001a0 13 97 f1 bd 06 13 57 be ff 74 21 3d e6 48 56 be
       -0.11796393 -0.2100335 0.039418217 -0.20926246
0001b0 d8 36 9f bd 6e 5b 0f be 9c d6 70 bd c2 8a d2 3c
       -0.077741325 -0.13999721 -0.058798417 0.02570093
0001c0 24 29 5f be 13 57 a6 bd 2d f9 d5 3d 81 b2 c4 bd
       -0.21793038 -0.08122077 0.10447917 -0.096043594
0001d0 81 dc 25 3e 8f e4 88 bb 89 3a a9 3d 83 92 bb 3d
       0.16197397 -0.004177637 0.08263118 0.09158804
0001e0 52 a7 bd 3d bd 7e 46 3c 51 c5 15 bd 9c 71 e8 3d
       0.092604294 0.012115178 -0.03656513 0.11349794
0001f0 97 1b 91 bd 0c aa 8a 3d 8a 58 45 bd b6 2c 1a be
       -0.070853405 0.06770715 -0.04818014 -0.15056118
000200 63 bb af 3d d2 f5 5e bc 9d 66 fb 3c ce e6 9f bc
       0.08580663 -0.013608413 0.030688578 -0.019519236
000210 b0 a7 88 3d 3f fb 36 be 64 6c bc bc 13 b4 a9 3c
       0.06672609 -0.1786928 -0.023000903 0.020715749
000220 97 d2 34 3d d7 33 ae bd 26 cd d1 3c 44 e4 66 bd
       0.044146147 -0.085059814 0.025610518 -0.056370035
000230 12 c6 b4 bc 8c 58 39 3d a4 62 c5 bb 14 7d e8 3d
       -0.022067104 0.04525046 -0.006023722 0.11351982
000240 e4 ae b4 3d e2 74 51 3d 95 0a 09 3d d0 a3 c6 3d
       0.0882242 0.05113686 0.033457357 0.096992135
000250 4d 96 27 3d 27 06 96 bd 59 35 19 3d aa 42 97 3c
       0.040914822 -0.07325392 0.037404392 0.018464405
000260 33 d0 45 bd ea cd d9 3d 55 b3 26 3e 15 b4 7a bd
       -0.048294257 0.10634978 0.16279347 -0.061206896
000270 f8 15 ac bd f6 b3 a8 bd 46 6b cb 3d 7f 5a 6f bd
       -0.08402628 -0.0823745 0.0993257 -0.058435913
000280 bf 30 a7 3d 10 6d 05 be ab 9e ab bd e6 8d 4c 3e
       0.081635945 -0.13029885 -0.08379873 0.19976005
000290 7d e2 cc 3d 21 44 93 bd 14 fd c4 3d 2a 46 42 be
       0.10004137 -0.07190729 0.09618583 -0.18972078
0002a0 fd 76 f0 3d b3 85 44 be 8c 89 e4 3d fc 61 b3 bc
       0.11741445 -0.19191627 0.111590475 -0.021897309
0002b0 93 10 29 3e 94 03 ce bd 8c 0f a7 3c 9e f1 ae 3d
       0.16510229 -0.10059276 0.020393156 0.085421786
0002c0 19 d7 e1 bc ca 59 cb bd 76 93 a4 3d 4b 57 3d bd
       -0.027568387 -0.09929235 0.080359384 -0.046225827
0002d0 11 b3 d5 3d 48 01 37 bc 75 47 51 3b c6 e2 82 bd
       0.10434545 -0.011169739 0.003193346 -0.0639091
0002e0 a9 68 c4 bd aa 35 9a 3d 73 77 33 3d bf 89 b3 bd
       -0.09590275 0.07529767 0.043815088 -0.08766507
0002f0 94 c3 ac bd 2c 92 dd bd ba d4 46 bc 5b 66 4c 3b
       -0.08435741 -0.10818896 -0.012135679 0.0031188938
000300 c8 97 7e bd 59 81 22 be 2a eb 3a 3d 5a bd 13 bd
       -0.06215647 -0.15869655 0.045634426 -0.03606925
000310 2e 1e d9 bd 5e b0 56 bc dd f6 51 bd 95 68 9f bd
       -0.106014594 -0.013103573 -0.051260818 -0.07783619
000320 16 d9 4f 3e da 52 71 bc e1 4f 0c 3e 2f 85 95 3d
       0.20297655 -0.014729226 0.13702346 0.073007934
000330 6d c3 85 bd 8f 55 47 be d6 07 2e 3e 7f db 39 be
       -0.06531415 -0.19466232 0.16995177 -0.18150137
000340 69 19 e2 3d 66 e5 ce bd b0 0c 00 bc 1a 2f 82 3d
       0.11040003 -0.10102348 -0.007815525 0.0635664
000350 83 84 0a 3e 63 e4 91 3d 91 5e 3c 3e 3f 2f d1 bd
       0.13527112 0.071236394 0.18395449 -0.102140896
000360 01 7d 97 3d c0 2b 0a 3e 3d 08 50 3e 14 fb 38 bd
       0.073968895 0.13493252 0.20315643 -0.04516132
000370 f0 18 c4 bd 1b 08 0a bd d9 29 bc bc 9a a8 fc 3d
       -0.09575069 -0.033699136 -0.022969173 0.12336846
000380 9e 72 b1 bb ba 59 a1 3d 1f 52 83 bd 3c 4e 13 3e
       -0.0054152748 0.07878442 -0.06412148 0.14385313
000390 09 d7 0e 3e 3a c5 78 3e 22 bf 59 3e 76 77 b4 bd
       0.13949217 0.24293986 0.21264318 -0.08811848
0003a0 d3 a3 39 3c 60 c4 b3 bd 82 bf 40 bd 44 cd 38 3c
       0.011330563 -0.0877769 -0.047057636 0.011279408
0003b0 38 79 f5 3d 4a 8b 3d 3d 3a e9 5a 3e c2 87 1f be
       0.11986011 0.046275415 0.21378031 -0.15579131
0003c0 8b 70 79 bd fb 31 4a bc ac 08 77 3d 85 8c 3f 3d
       -0.060898345 -0.012341018 0.060311005 0.04676487
0003d0 47 10 47 be 18 18 63 3d 6e 1c 43 bc cb 88 86 bc
       -0.19439803 0.0554429 -0.011908634 -0.01642265
0003e0 4b b7 4e be 56 18 cf bb 6a 32 2c 3d 56 a0 11 be
       -0.20187108 -0.0063200397 0.042040266 -0.1422132
0003f0 f1 17 5a be b7 3b 35 bd 14 e6 85 3c 7e 02 89 3d
       -0.21298195 -0.0442464 0.016345061 0.066899285

lstm.bias_ih_l1 f4 [256]
000000 d3 34 51 3d 5e 72 b7 bd 51 46 65 bd 38 fa 53 bd
       0.051075768 -0.08957361 -0.055975262 -0.0517523
000010 b1 6e 16 bc 76 19 8d bc 1c 26 29 bd a0 ae 04 3e
       -0.009181664 -0.017224055 -0.04129611 0.12957239
000020 45 b5 25 bd 0a 01 53 be 7e ab d7 bd ec 20 da bd
       -0.040456075 -0.20605865 -0.105307564 -0.106508106
000030 5b 01 3e 3d 3d 6a aa bd ba 95 cd bd 3a e7 49 bd
       0.04638801 -0.083210446 -0.10038324 -0.04929278
000040 8c 57 2f 3d bd d8 ec 3c cb c8 99 3d f1 04 d1 bd
       0.0428081 0.028911943 0.07509001 -0.102060206
000050 a5 23 96 3d e2 0a bf bd 26 f5 24 3c 45 02 4f bd
       0.073310174 -0.093282476 0.010068214 -0.050539274
000060 d6 09 d2 3d bd 3d 4a 3d 1b 45 cb 3b d1 ab 70 3d
       0.10255782 0.049375284 0.0062033064 0.058757607
000070 5a 5c e5 3d 34 43 9b bc 88 56 e3 3d b8 5b 07 3e
       0.11199255 -0.018952943 0.11100489 0.13218582
000080 46 ed 28 be 10 9e 30 be 07 e3 fb bd 03 f1 30 bd
       -0.16496763 -0.17247796 -0.122991614 -0.043198597
000090 d2 3f 96 bd d4 87 7f bd 29 a7 d2 bd c3 17 b6 3d
       -0.073363915 -0.062385395 -0.102857895 0.08891251
0000a0 14 54 78 bc e3 0b 82 bd 09 aa a3 3d 86 ca 6b 3d
       -0.015156765 -0.063499235 0.07991416 0.05756619
0000b0 c7 7b cf bd 2b 6c ae bd 4f c0 c4 bd f5 be b7 bb
       -0.101310305 -0.08516725 -0.096069925 -0.0056074806
0000c0 7b 51 dd 3d 80 9b dd bd 21 9b 5b ba c2 f2 86 3c
       0.10806557 -0.10820675 -0.0008377303 0.016473178
0000d0 66 f6 a3 bd 46 7c 92 3c 62 7d 13 bd 5f a7 e0 bc
       -0.08005981 0.017881524 -0.036008246 -0.027423559
0000e0 c6 3d ac bd 92 81 d8 bd 15 d2 2c bd 77 ff 12 3d
       -0.0841022 -0.105715886 -0.042192537 0.03588816
0000f0 13 db fc 3d f7 61 88 bd 77 13 11 3d 66 eb af 3d
       0.123464726 -0.0665931 0.035418954 0.085898206
000100 8a 6e 43 bd 74 35 8d bd ad 6a cb bd f8 4a 07 be
       -0.04771284 -0.06894961 -0.09932456 -0.13212192
000110 cb 86 88 bc d0 85 88 bd d0 b9 e2 bd 73 e8 a1 3d
       -0.016665837 -0.06666148 -0.11070597 0.07905664
000120 ca 59 f9 3d a7 d7 0d 3d f3 62 b7 3c 6e 0b e5 ba
       0.12175329 0.03462949 0.02238605 -0.001747472
000130 a0 3a f5 bc 6d 00 be 3c 04 dd 31 bd af 4b 23 3e
       -0.029935181 0.023193562 -0.043423668 0.1594684
000140 8f 2f ef bc 94 ab c7 bc 06 fa f9 3d 7a e5 a1 3d
       -0.029197482 -0.024373807 0.12205891 0.07905097
000150 08 15 83 bd be 27 24 3d db a6 9b bc 67 6e 5f bc
       -0.06400496 0.040076964 -0.019000461 -0.013637162
000160 25 bd 6a 3c 37 89 16 bc 1a f0 af bc b0 7c 07 bd
       0.014327322 -0.009187988 -0.021476794 -0.033077896
000170 df f1 89 3d 20 48 89 bd 92 ec a9 3d 57 68 aa bd
       0.067355864 -0.0670321 0.08297075 -0.083206825
000180 43 5c 71 3d dd df 24 be 72 72 59 3d 0f 47 96 bd
       0.05892588 -0.16101022 0.05308766 -0.07337772
000190 36 94 1d be bc 94 4b 3e 07 55 ee bb 3e a7 f0 3d
       -0.15388569 0.19880956 -0.0072733196 0.11750649
0001a0 24 62 72 bd 6b 5e 80 3d 1d 2d 95 bd 08 df db bc
       -0.059175625 0.06268009 -0.07283995 -0.026839748
0001b0 89 17 73 3d e1 bf 08 be 93 95 b9 3d 43 58 01 bd
       0.059348617 -0.13354446 0.09061732 -0.031578314
0001c0 06 b5 14 3e 9c 72 ae 3d e9 f2 cf 3c ba 3d e1 3d
       0.1452218 0.08517954 0.025384383 0.109981015
0001d0 0d a5 56 bd 9e 4e 06 3c 92 ab 96 3c 1e b5 27 be
       -0.0524035 0.008197455 0.018392358 -0.16377684
0001e0 3a a3 e6 bd 59 cc 0e 3d 6f 25 fc bc 7c 44 2b 3a
       -0.11261602 0.03486285 -0.030779568 0.00065333373
0001f0 48 c0 56 3d 8f 7d 48 3d ea b2 31 bd f7 0d c6 3d
       0.052429467 0.048947867 -0.043383516 0.09670632
000200 53 58 be bd b7 e6 82 bd 20 e3 4b bd 16 18 1c bb
       -0.0929419 -0.063916616 -0.04977715 -0.0023818067
000210 11 30 74 bc c9 0f b5 3d 26 97 0c 3e 8c 94 f8 3c
       -0.014904038 0.088409014 0.13729534 0.03034427
000220 12 5c c3 3d 15 db 75 bd 88 78 85 3d 8e f3 87 3d
       0.095390454 -0.060023386 0.0651713 0.06638251
000230 28 59 04 be c0 9f d1 bd 95 9e 61 bd 93 e5 95 3d
       -0.12924635 -0.10235548 -0.055082876 0.073191784
000240 1d 43 0e 3c de 8c c9 bd bb 9c fb 3d 39 2b 82 3d
       0.008682993 -0.098413214 0.12285753 0.063559
000250 2f 6a 60 bd 60 eb fc bc 73 01 23 bd 24 bd e1 3c
       -0.054788765 -0.030873954 -0.039796304 0.02755601
000260 67 47 7d 3d bd cb 22 3d ce df bd 3d 81 27 78 bc
       0.061835673 0.03974508 0.09271203 -0.015146137
000270 bb a6 ef bd 26 88 02 bd b0 29 17 be e2 50 ed bd
       -0.11701723 -0.031868123 -0.14761996 -0.11587693
000280 05 ce b4 3d 6b 1e f3 3c 82 16 04 3e 33 1d 86 3d
       0.088283576 0.02967759 0.12899211 0.06548538
000290 45 36 01 3e c3 65 ae bd 69 d1 27 3d ca 7d 77 3d
       0.12618358 -0.08515503 0.040971193 0.060422696
0002a0 03 42 9c bd 7b dc cf 3d 88 96 16 be 43 11 24 3d
       -0.07629778 0.10149475 -0.1470586 0.040055525
0002b0 6f 65 bc bc 1f 90 b0 3d e4 71 9f 3d 45 32 9e 3d
       -0.022997586 0.08621239 0.07785395 0.07724432
0002c0 bb c5 3d 3d 9c 53 d5 3d da c9 c3 bd 1c 3b 6c 3d
       0.04633115 0.10416338 -0.095599845 0.05767356
0002d0 c3 d5 e0 bd 06 8b 08 be a5 df fc bc 26 01 c5 bd
       -0.10978272 -0.13334283 -0.03086836 -0.0961936
0002e0 5c 09 7c bd e5 87 ec bd f8 34 e0 3d 5c fa 8b bd
       -0.061532363 -0.11549357 0.10947603 -0.06834862
0002f0 50 cb c2 3d 51 80 ac bd 87 4c 26 bd be a8 a9 3c
       0.09511435 -0.08422912 -0.040600326 0.020710345
000300 c0 3c 66 3b 6d 21 0e be 7c b8 92 ba 6d 5a 14 be
       0.0035131425 -0.13879938 -0.0011193897 -0.1448762
000310 69 49 21 bd 4d de 8c 3d 2b 14 a8 3d d0 ab 26 3e
       -0.03937665 0.06878338 0.08206972 0.16276479
000320 04 4e 8e bd f2 d9 22 3d ed 5d c9 3c c5 04 22 bd
       -0.06948474 0.03975863 0.02458092 -0.03955533
000330 11 97 a3 3c e2 c8 9b 3d 3a ad 3c 3d 33 44 d0 3c
       0.019969495 0.07606675 0.04606364 0.025423145
000340 aa 04 72 3d 80 d9 a9 3d f0 0d b4 3c 64 99 8d bd
       0.05908648 0.08293438 0.021979302 -0.069140226
000350 73 28 bb 3d 34 95 2e bd 4a 6d db 3c 4c 2e 2f bd
       0.091385745 -0.04262276 0.026785512 -0.04276876
000360 c5 3a dc bb 2a d3 05 3d f7 df 9f 3d 87 c9 1e 3d
       -0.006720873 0.032672085 0.0780639 0.03876641
000370 20 bc b8 bd 23 62 ba bc 45 6f d0 bd f1 b3 8b bd
       -0.09020257 -0.022751873 -0.10177473 -0.068214305
000380 8f 41 0a 3d 94 19 b5 bc 1e b8 f9 3d b7 ee 7c 3d
       0.033753928 -0.022106923 0.12193321 0.061751094
000390 74 7b f2 39 c8 6b 22 3e 5f de 98 3d 90 d5 72 3d
       0.00046249817 0.15861428 0.07464289 0.0592857
0003a0 20 2e ac 3d 86 6b 94 bd d3 a1 75 bd 40 cc 30 3c
       0.08407235 -0.07247071 -0.05996878 0.0107908845
0003b0 2b 87 89 bc 3e 8a ce bd 51 e1 e7 3d 91 e0 c1 bc
       -0.016788086 -0.10084961 0.113222726 -0.023666652
0003c0 83 af 34 3e e2 5e b3 bc 52 7c b0 bd 00 08 7a bd
       0.17645077 -0.02189583 -0.08617462 -0.061042786
0003d0 db 54 5a 3d 50 29 1a bd 87 ed 01 be 82 aa 0c 3d
       0.05330358 -0.037637055 -0.12688266 0.034342296
0003e0 4a e9 4b 3d bc 07 1c bd 39 29 26 3e 0b 0b da 3d
       0.04978303 -0.038093314 0.16226663 0.106466375
0003f0 54 6f fa 3c 7b 2e 3f bd 84 1f 28 be f6 30 55 bc
       0.030570664 -0.046675187 -0.16418272 -0.0130121615
