src/util/AI/checkpoints/010.ckpt (torch, 353508 bytes, 14 tensors)

lstm.weight_ih_l0 f4 [256, 12]
0	0xbd377ff9	-0.04479978
1	0x3dae9375	0.08524219
2	0xbe217f79	-0.15771283
3	0x3d06dd28	0.032925755
4	0x3dad3bb6	0.084586546
5	0x3d8dfa53	0.06932511
6	0x3d84776a	0.06468089
7	0xbbfe50b1	-0.007761084
8	0xbdd10192	-0.10205378
9	0x3d301397	0.042987432
10	0xbddab031	-0.10678137
11	0xbd6c2169	-0.05764905
12	0xbe3356c3	-0.17513566
13	0xba4680df	-0.0007572304
14	0xbd8d6d4d	-0.06905613
15	0xbdd95835	-0.10612527
16	0xbd92410d	-0.07141314
17	0xbd0810e1	-0.033219222
18	0x3df5734c	0.11984882
19	0x3de4f1ee	0.11178957
20	0x3dbfd9d5	0.0936772
21	0x3d2de206	0.04245188
22	0xbdd6a511	-0.10480703
23	0x3ce83d10	0.02834943
24	0x3dbaa122	0.09112765
25	0x3dc358dd	0.09538434
26	0x3d859709	0.06522948
27	0x3de44161	0.111452825
28	0x3d9f9317	0.07791727
29	0x3e57820f	0.21045707
30	0x3e4d8cd1	0.20073248
31	0xbde5a70e	-0.11213504
32	0x3c8c1a5b	0.017102411
33	0xbd3939f9	-0.045221303
34	0x3d981b76	0.07427113
35	0xbdac5b77	-0.08415883
36	0x3ca014b8	0.01954113
37	0x3d504f45	0.050856847
38	0x3d8824eb	0.066476665
39	0xbe4ffd6a	-0.20311514
40	0xbe565e9e	-0.20934531
41	0xbbe6f83f	-0.007048636
42	0x3e2f6d6b	0.17131583
43	0x3c19db23	0.009390625
44	0xbe18ce56	-0.14922461
45	0xbd657e21	-0.05602849
46	0x3e5972fd	0.21235271
47	0x3c917457	0.01775567
48	0x3d25516b	0.04036085
49	0xbd9c6aa0	-0.076375246
50	0xbd784f70	-0.060622633
51	0xbdb7d78e	-0.08976661
52	0x3d5b8cd9	0.05360112
53	0xbccda01e	-0.025100764
54	0x3da297dd	0.07939122
55	0x3e3ded19	0.18547477
56	0x3d6fb28a	0.058519877
57	0xbcbebba1	-0.023282828
58	0xbdb93360	-0.09043002
59	0xbdb86216	-0.090030834
60	0x3d202de2	0.039106257
61	0x3d1106be	0.03540682
62	0x3d1ef38e	0.03880649
63	0x3db1c4d2	0.086801186
64	0x3c8c31fe	0.017113682
65	0xbdaea1bc	-0.08526942
66	0x3e81b227	0.25331232
67	0x3e9135a2	0.2836123
68	0xbcbf9241	-0.023385169
69	0xbd29dc5d	-0.04146992
70	0xbc899fae	-0.016799774
71	0x3cd8c5ba	0.02646147
72	0x3e02156b	0.12703483
73	0x3b3ee7ca	0.0029129856
74	0xbe188957	-0.14896141
75	0xbe24d8c1	-0.1609831
76	0x3ddef8f2	0.10887326
77	0xbc9cf69d	-0.019160563
78	0xbd6ba926	-0.05753436
79	0x3e072d03	0.13200764
80	0xbd357d72	-0.044309087
81	0xbd923a5b	-0.07140037
82	0x3b2e8f69	0.0026635772
83	0x3b1f68cd	0.002432394
84	0xbd6e7fb3	-0.058227252
85	0x3e012d43	0.12614922
86	0x3d572e25	0.05253424
87	0x3d52ba3a	0.05144713
88	0x3daafa6f	0.08348548
89	0x3dc232a1	0.09482313
90	0x3c0aecda	0.008479321
91	0x3df6d737	0.12052768
92	0xbd5f1b21	-0.05446923
93	0xbcea068d	-0.028567577
94	0xbd343aa7	-0.044001248
95	0xbd45d55e	-0.048299186
96	0xbd2535d3	-0.040334534
97	0x3b195785	0.0023398113
98	0xbdeed802	-0.11662294
99	0x3c8d759a	0.01726799
100	0xbbe5f14f	-0.0070172916
101	0x3cf7e2fa	0.030259598
102	0x3e3bd11f	0.18341492
103	0x3e894d84	0.26816952
104	0x3c8ad897	0.016948981
105	0xbd7d9c2c	-0.061916515
106	0xbdaae6c0	-0.08344793
107	0xba141888	-0.00056494074
108	0x3daa692d	0.08320842
109	0xbd04fea4	-0.032469407
110	0x3dc85703	0.09782221
111	0x3da6c445	0.08142904
112	0xbd39e752	-0.04538662
113	0x3a88fad5	0.001045073
114	0x3d8b54e8	0.06803304
115	0xbe15b63b	-0.14620297
116	0xbe552b47	-0.2081729
117	0x3b8d4c98	0.004312109
118	0xbd0583de	-0.03259646
119	0x3dcf5cdf	0.10125136
120	0x3ca14c27	0.019689633
121	0xbd9af114	-0.07565513
122	0xbdf1a1bd	-0.11798427
123	0xbd719b0d	-0.05898576
124	0x3e38d653	0.18050508
125	0x3d256cd3	0.040386986
126	0x3dea22a2	0.11432387
127	0x3dddf111	0.108369954
128	0x3dfe3b07	0.12413602
129	0x3c99c095	0.018768588
130	0x3db567f1	0.08857716
131	0xbd8979ad	-0.06712661
132	0x3d9f3339	0.07773442
133	0x3d5a48b1	0.05329198
134	0x3d43d552	0.04781086
135	0xbdade742	-0.084913746
136	0x3d94a5aa	0.072581604
137	0x3c1219df	0.008917301
138	0xbdbfc5ae	-0.09363876
139	0xbe31a6f7	-0.17348848
140	0xbe73f334	-0.23823243
141	0x3d7fc816	0.062446676
142	0x3e24f01d	0.16107221
143	0x3cce5bb0	0.025190204
144	0x3d1edbc5	0.038783807
145	0x3be55258	0.0069983415
146	0xbe0c67cd	-0.13711472
147	0xbdcdfb41	-0.100576885
148	0x3d60f833	0.0549242
149	0x3e110bcc	0.14164656
150	0xbd8f70c4	-0.0700393
151	0xbe864fd7	-0.26232788
152	0xbdb1c37c	-0.08679864
153	0x3d082097	0.033234205
154	0xbd8da771	-0.069167025
155	0xbdba9ed3	-0.091123246
156	0x3c9d5cc8	0.01920928
157	0x3d77812f	0.060425933
158	0x3d19d910	0.037560523
159	0xbdb172c0	-0.08664465
160	0xbe1622e2	-0.14661744
161	0xbdac54cc	-0.08414611
162	0x3e15e06d	0.14636393
163	0xbddfb916	-0.10923974
164	0xbe2524b9	-0.1612729
165	0xbd8b231a	-0.067938045
166	0xbbef9462	-0.00731139
167	0x3bd34cf8	0.0064483844
168	0xbd320f3c	-0.04347156
169	0x3d6d3a3c	0.057916865
170	0xbdd884c6	-0.105721995
171	0x3db7a2d3	0.08966603
172	0xbd964e8e	-0.07339202
173	0xbd847219	-0.06467075
174	0x3dc2079f	0.0947411
175	0x3ceea474	0.029131152
176	0xbda77943	-0.08177426
177	0x3d031ddf	0.03201091
178	0xbc5deea5	-0.013545667
179	0x3cdb5af8	0.026776776
180	0xbd39ff4d	-0.04540949
181	0xbd7a3f94	-0.06109579
182	0x3e19d711	0.15023448
183	0x3bbfe364	0.0058559645
184	0x3e0ccf5d	0.13750978
185	0xbc5fab3f	-0.013651668
186	0xbe09e660	-0.13466787
187	0xbd038f8f	-0.03211933
188	0xbd145484	-0.036213413
189	0xbdc8811b	-0.0979025
190	0xbd788407	-0.060672786
191	0x3dc6b057	0.09701603
192	0xbd89053e	-0.06690453
193	0x3cfc387d	0.030788654
194	0x3d891a0a	0.0669442
195	0x3e1b19cd	0.15146561
196	0x3da7cbbe	0.081931576
197	0x3d914637	0.070934705
198	0xbd285922	-0.04110063
199	0xbe2e9a88	-0.17051136
200	0xbd3f681e	-0.046730153
201	0xba751078	-0.00093484623
202	0xbdaafba6	-0.083487794
203	0xbd0e9590	-0.034810603
204	0xbd908c3c	-0.070579976
205	0xbd05bed7	-0.032652702
206	0xbd1b499e	-0.037912004
207	0xbe539e1a	-0.2066578
208	0x3cb90fc2	0.022590522
209	0x3e49a1e0	0.19690657
210	0x3cbb3d10	0.022856265
211	0xbe09ed00	-0.13469315
212	0x3d88bfcf	0.066772096
213	0x3c8dccf6	0.017309647
214	0x3e08a968	0.13345873
215	0xbe041524	-0.1289869
216	0xbe0e5eb0	-0.13903308
217	0xbc368452	-0.011139946
218	0xbd6877c2	-0.056754835
219	0x3dbc38a3	0.0919049
220	0x3d5aa1cd	0.05337696
221	0xbe10f954	-0.14157611
222	0xbe681ef1	-0.22668053
223	0x3dc7daa2	0.09758498
224	0x3d3ed5e9	0.04659072
225	0x3d7c0c57	0.061535206
226	0xbe46998e	-0.19394514
227	0xbdc36280	-0.09540272
228	0xbe6d3537	-0.23164831
229	0xbc317e35	-0.010833313
230	0xbdd4b14d	-0.1038538
231	0x3d73102a	0.059341587
232	0x3de4f2fb	0.11179157
233	0x3cde234d	0.027116442
234	0xbd5b3981	-0.053521637
235	0xbcd9489a	-0.026523877
236	0x3d123877	0.03569838
237	0x3d8b9ce8	0.06817037
238	0xbd4bfa46	-0.049799226
239	0x3d60d63c	0.05489181
240	0xbde50674	-0.111828715
241	0x3e23e0e5	0.16003759
242	0xbdb4273d	-0.087965466
243	0x3c7b7772	0.015348302
244	0xbb828166	-0.0039827107
245	0xbd92e200	-0.07172012
246	0xbd2a85df	-0.041631576
247	0x3e0855b8	0.13313949
248	0xbd8f769b	-0.07005044
249	0xbdcc4baa	-0.09975369
250	0x3d3a32d8	0.045458645
251	0x3cdf0543	0.027224189
252	0x3b799d08	0.0038087983
253	0x3d9efe03	0.07763293
254	0xbdcdddd9	-0.1005208
255	0x3d330bbb	0.04371236

lstm.weight_hh_l0 f4 [256, 64]
0	0x3d615072	0.05500836
1	0xbd37f0d1	-0.044907395
2	0x3e24670c	0.16054934
3	0xbc928b55	-0.017888704
4	0x3d3b93b3	0.045795154
5	0x3e47504f	0.19464229
6	0xbdbe7390	-0.092993855
7	0xbcb660f2	-0.022263024
8	0x3dfffe09	0.12499625
9	0x3e429d8b	0.1900541
10	0x3db4c511	0.0882665
11	0x3d061e2e	0.032743625
12	0x3e50cbf2	0.20390299
13	0xbdc899f9	-0.09794993
14	0x3e0172e2	0.1264148
15	0x3d5a5d1c	0.053311452
16	0xbd27be5a	-0.040953018
17	0x3d8af35e	0.067847
18	0xbb80eef2	-0.0039347345
19	0x3cea63c2	0.028612021
20	0xbcede4aa	-0.0290397
21	0xbdc7d0c1	-0.097566135
22	0x3c41c3ad	0.011826438
23	0xbce10d34	-0.027472116
24	0x3e29ca65	0.16581114
25	0xbd4ea034	-0.05044575
26	0xbe156d66	-0.14592513
27	0xbc4f4b4d	-0.01265223
28	0x3dab8c80	0.083764076
29	0x3d8d12ff	0.06888389
30	0xbe0dc427	-0.13844357
31	0xbd79e37f	-0.061007973
32	0xbd403a66	-0.046930693
33	0x3c660f2e	0.014041705
34	0x3d8c2115	0.068422474
35	0xbdebbb77	-0.115103655
36	0xbbd4e015	-0.006496439
37	0x3d0bad09	0.034100566
38	0xbd808d5c	-0.06276962
39	0x3daea736	0.08527987
40	0xbd529332	-0.051409908
41	0xbccdc622	-0.025118891
42	0x3d1f6521	0.038914803
43	0xbde85797	-0.113448314
44	0xbd5ea44e	-0.054355912
45	0xbe379b22	-0.17930272
46	0xbdd61ca7	-0.10454684
47	0xbe2c376b	-0.16818015
48	0x3da87933	0.08226242
49	0x3d932c19	0.07186145
50	0x3daf515c	0.0856044
51	0x3da81a7b	0.08208176
52	0xbe570d9c	-0.21001285
53	0x3b17656a	0.002310122
54	0x3e5f2a13	0.21793394
55	0xbdaf6c95	-0.08565632
56	0x3d0feb59	0.035136554
57	0x3df859b0	0.121264815
58	0xbe09faf0	-0.13474631
59	0xbd8039d9	-0.062610336
60	0xbd8e7c76	-0.06957333
61	0x3e2a5c2e	0.16636726
62	0x3cb93561	0.02260846
63	0x3df496b9	0.119428106
64	0x3d3b74be	0.04576563
65	0xbd91ce2f	-0.071194045
66	0x3e840d71	0.25791505
67	0x3dbca986	0.092120215
68	0x3c9b699a	0.018971253
69	0xbde2fc21	-0.11083246
70	0xbd11a593	-0.035558295
71	0xbd89b4b5	-0.0672392
72	0xbd9a58c1	-0.0753646
73	0xbe18e05f	-0.14929341
74	0x3ddbb37a	0.10727592
75	0x3c842944	0.016132958
76	0x3c46a74b	0.012124847
77	0xbda66b70	-0.08125961
78	0xbe375e0c	-0.1790697
79	0x3d9889a2	0.074481264
80	0x3dfe5263	0.12418058
81	0xbe40dcc3	-0.18834214
82	0x3e3e9a1f	0.1861348
83	0x3db7582b	0.089523636
84	0x3e463b0c	0.19358462
85	0xbdf3450b	-0.11878403
86	0xbe452c56	-0.19255194
87	0x3cef4ba6	0.029210877
88	0x3dafe02b	0.085876785
89	0xbe16ed47	-0.14738952
90	0x3d67e5e1	0.056615714
91	0x3e21db37	0.1580628
92	0xbd94fa70	-0.0727433
93	0xbe64e9af	-0.22354768
94	0xbd33faf9	-0.043940518
95	0x3e1d1638	0.15340507
96	0xbe15d3e6	-0.14631614
97	0xbdc01caf	-0.09380471
98	0x3ce226f8	0.027606472
99	0x3da6979c	0.08134386
100	0x3d6b793f	0.057488676
101	0xbd87bacd	-0.06627426
102	0xbe01de87	-0.12682544
103	0x3dbe907a	0.093049005
104	0x3c3a7f41	0.011382879
105	0xbe2ee2fc	-0.17078775
106	0xbd3e1fd7	-0.046417084
107	0xbe28b853	-0.16476564
108	0xbdbe8088	-0.09301859
109	0xbe18badc	-0.14915031
110	0xbe03a4b8	-0.12855804
111	0xbd4c4454	-0.04986985
112	0xbbf1c9f3	-0.0073788106
113	0xbc4e6baf	-0.012598916
114	0x3d85791f	0.06517243
115	0xbbb5124d	-0.0055258633
116	0xbe34e427	-0.17665158
117	0x3da30e86	0.079617545
118	0xbd178cc2	-0.03699947
119	0x3e6b87f4	0.23001081
120	0xbd9f08a7	-0.07765322
121	0x3deb2ef2	0.114835635
122	0xbe2ee4e7	-0.17079507
123	0x3db1a369	0.08673746
124	0x3ce8db59	0.028424906
125	0xbd83cecb	-0.06435927
126	0x3d9f10a7	0.07766848
127	0xbde5a5ab	-0.11213239
128	0x3e18ed97	0.14934383
129	0xbe6d6794	-0.23184043
130	0xbd90f807	-0.070785575
131	0x3d371eee	0.04470723
132	0xbd54c417	-0.05194482
133	0x3d263505	0.040577907
134	0xbc3f0a38	-0.011660151
135	0x3dd8a03a	0.10577436
136	0x3da0209e	0.07818721
137	0xbdc1da27	-0.094654374
138	0x3d3f6b79	0.046733353
139	0x3d8e1500	0.06937599
140	0x3e20d685	0.15706833
141	0xbd362b75	-0.044475038
142	0xbda96d46	-0.082727954
143	0x3db5d245	0.08877996
144	0xbe09d0ff	-0.13458632
145	0xbcfec08f	-0.031097678
146	0x3e562d3e	0.20915696
147	0x3cb57ae0	0.022153318
148	0xbd98e662	-0.07465817
149	0x3d0fe38a	0.035129108
150	0xbcddce2b	-0.027075848
151	0x3d63d2dc	0.055621013
152	0xbd4d9a04	-0.05019571
153	0xbe0f6815	-0.14004548
154	0xbdc34170	-0.095339656
155	0xbd9074ed	-0.07053552
156	0xbc563649	-0.013074466
157	0x3d37562e	0.04475992
158	0xbe289a04	-0.16465002
159	0xbe0b39e4	-0.13596302
160	0x3b2c3345	0.0026275676
161	0x3c0dad50	0.008647278
162	0x3dd51998	0.10405272
163	0xbd24dc77	-0.040249314
164	0x3d5d06d4	0.05396159
165	0x3dc1c7b6	0.0946192
166	0xbd008ae6	-0.031382464
167	0x3e172698	0.14760816
168	0x3e36e58d	0.17861004
169	0x3d838a35	0.06422845
170	0x3d568aa6	0.05237832
171	0xbce42a73	-0.027852273
172	0x3d489c2d	0.048977066
173	0x3e033578	0.12813365
174	0xbe08bb97	-0.1335281
175	0x3e3bc2ea	0.18336073
176	0xbd3becb3	-0.04588003
177	0xbbb90f61	-0.0056475853
178	0x3afd7590	0.0019337405
179	0xbe09c699	-0.13454665
180	0xbb2eff79	-0.0026702567
181	0xbe3fea44	-0.18741709
182	0xbca16049	-0.019699233
183	0xbe185c92	-0.14879063
184	0xbe028a0e	-0.12747976
185	0x3c77f3c7	0.015133805
186	0x3dcd13b4	0.10013524
187	0x3c8dae19	0.01729493
188	0xbd9354e7	-0.07193928
189	0xbb0ad97b	-0.0021186757
190	0xbdc7be34	-0.09753075
191	0x3e5350e9	0.20636334
192	0x3e79416e	0.24341366
193	0xbe926192	-0.28590065
194	0x3e10e1aa	0.14148584
195	0xbe75cfe7	-0.2400509
196	0x3cfd0e98	0.030890748
197	0xbe66dec0	-0.2254591
198	0xbdcb46f1	-0.099256404
199	0xbd961e23	-0.07329967
200	0x3e19a550	0.15004468
201	0xbe2e7f4c	-0.17040747
202	0x3d6be049	0.057586942
203	0xbd1a266b	-0.037634294
204	0xbb0a14d1	-0.0021069536
205	0xbcc94ff3	-0.024574256
206	0xbc0fa34a	-0.0087669585
207	0x3e1e2423	0.15443473
208	0x3d597fc1	0.05310035
209	0x3ab715df	0.001396831
210	0xbe41c8a5	-0.18924196
211	0x3e31ccd6	0.17363295
212	0xbdb0c930	-0.086321235
213	0xbe13c798	-0.14431608
214	0xbe2580aa	-0.16162363
215	0x3dd642e1	0.10461975
216	0x3d834007	0.064086966
217	0xbde24fda	-0.11050387
218	0xbe24843f	-0.16066073
219	0x3e4d96c3	0.20077042
220	0x3e109d95	0.14122613
221	0xbdb60735	-0.088880934
222	0x3e23e736	0.16006169
223	0xbc4b8a0e	-0.0124230515
224	0x3e381bff	0.1797943
225	0x3b62db63	0.0034615628
226	0x3c21effc	0.009883877
227	0x3d84e337	0.0648865
228	0xbdbe08e2	-0.09279038
229	0xbdbf5bf5	-0.09343711
230	0xbcfb7994	-0.030697621
231	0x3dab3195	0.083590664
232	0x3e382c7c	0.1798572
233	0x3e0ba48f	0.13636993
234	0x3c8f5393	0.017495906
235	0xbe978b15	-0.295983
236	0x3c9921c4	0.018692859
237	0x3e0fa937	0.14029394
238	0x3d290ac1	0.04127002
239	0x3e91e122	0.28492075
240	0x3d947f6d	0.07250867
241	0xbe41f888	-0.18942463
242	0xbdce53f6	-0.10074608
243	0x3dc47819	0.09593219
244	0xbd3b6cf9	-0.04575822
245	0x3ddfbadd	0.10924313
246	0x3d808b32	0.062765494
247	0x3d1b926a	0.03798143
248	0x3db5891d	0.08864043
249	0x3cd832b6	0.026391368
250	0xbe9886bc	-0.29790294
251	0xbe3158c0	-0.17319012
252	0x3db2aa12	0.087238446
253	0xbe8666de	-0.26250356
254	0x3e42cd3a	0.190236
255	0x3c54f9c7	0.012999005

lstm.bias_ih_l0 f4 [256]
0	0xbd1cdef2	-0.038298555
1	0xbdbfd984	-0.0936766
2	0xbdc671f7	-0.09689706
3	0xbde29535	-0.11063615
4	0xbdb37961	-0.087633856
5	0x3d1111f1	0.0354175
6	0x3cbcd7a3	0.023052042
7	0x3dca0955	0.09865061
8	0x3e14fe34	0.14550096
9	0xbdab0c9f	-0.08352017
10	0xbc8d62cf	-0.01725903
11	0x3ba07c6b	0.0048976443
12	0xbd7c0c9e	-0.06153547
13	0xbd7e7d2f	-0.062131103
14	0x3dca269b	0.09870645
15	0xbd1e4c1d	-0.038646806
16	0xbdff1661	-0.1245544
17	0x3cbbb8d6	0.022915285
18	0xbd2d9730	-0.04238051
19	0xbb693add	-0.0035588064
20	0xbd07c46d	-0.03314631
21	0x3ddeb56e	0.10874449
22	0xbd19f9c8	-0.037591726
23	0xbd51ca92	-0.051218577
24	0x3d474b85	0.048656005
25	0x3d1dc418	0.038517088
26	0xbe5830d3	-0.21112375
27	0x3d627662	0.05528868
28	0x3da5ecd2	0.081018105
29	0xbd0f7903	-0.035027515
30	0x3d83e67a	0.06440444
31	0x3d9e1ff7	0.077209406
32	0x3d928b58	0.07155484
33	0xbd7df6c5	-0.062002916
34	0xbcfd5300	-0.030923367
35	0x3dee6433	0.11640205
36	0x3d35b768	0.044364363
37	0xbdc17675	-0.09446422
38	0xbd8db973	-0.06920137
39	0xbe3926ee	-0.18081257
40	0xbb8d85f0	-0.004318945
41	0xbd138730	-0.036017597
42	0x3dd666f8	0.104688585
43	0x3da8d118	0.082430065
44	0x3cc79965	0.024365136
45	0xbda0408f	-0.078248136
46	0x3d8af677	0.06785291
47	0x3e4f8a37	0.20267569
48	0x3d2d8afb	0.04236887
49	0xbdc48a10	-0.09596646
50	0xbd548e3d	-0.05189346
51	0xbda74ee1	-0.08169342
52	0xbcc7c811	-0.024387391
53	0xbd861f0c	-0.065488905
54	0x3d8437ce	0.064559564
55	0xbdc1d878	-0.09465116
56	0xbe82ee4b	-0.25572428
57	0xbe3d6ed4	-0.18499309
58	0x3ba79f4f	0.0051154266
59	0xbdac504c	-0.08413753
60	0xbcd62a4b	-0.026143214
61	0xbc32e2f5	-0.010918369
62	0x3e15b6ce	0.14620516
63	0x3dbbd34f	0.09171163
64	0xbd8d69d0	-0.06904948
65	0xbd3a67e1	-0.045509223
66	0xbd0739d9	-0.033014152
67	0xbe329895	-0.17441018
68	0x3dd7802f	0.10522496
69	0xbd85a13b	-0.06524893
70	0xbc015cbd	-0.007895646
71	0xbd96990a	-0.07353409
72	0xbdb2e043	-0.08734181
73	0x3bdb6490	0.0066953376
74	0xbb28dd02	-0.0025766497
75	0x3d377ba8	0.044795662
76	0xbe07c8ca	-0.13260189
77	0xbe10ce7f	-0.14141272
78	0xbce3650e	-0.027758148
79	0x3d7d5cb4	0.061855987
80	0xbd5387e5	-0.05164327
81	0xbd98f11a	-0.074678615
82	0x3c1f6bae	0.009730263
83	0x3df2dbd7	0.118583374
84	0x3cf56609	0.02995588
85	0x3d906b30	0.070516944
86	0x3df86b94	0.12129894
87	0x3da9430b	0.082647406
88	0x3d321eac	0.043486282
89	0x3d744cc2	0.059643514
90	0xbd2f1992	-0.042748995
91	0x3d9c9aa0	0.0764668
92	0x3d5d9841	0.05410028
93	0x3e39b9f0	0.18137336
94	0xbd47d2c1	-0.048784975
95	0x3e2c9957	0.1685537
96	0x3e0b78ac	0.13620251
97	0x3d0c71f5	0.034288365
98	0x3bcf0572	0.006317788
99	0x3defdf67	0.117125325
100	0x3de37b48	0.111074984
101	0xbe52ba8a	-0.20578972
102	0x3d604080	0.054749012
103	0xbe524472	-0.20533922
104	0x3c6ea942	0.014566721
105	0x3e09aafd	0.13444133
106	0x3db3420b	0.08752831
107	0x3d86f0f7	0.06588929
108	0x3cf3c357	0.029756231
109	0xbd6115b4	-0.05495234
110	0x3d89e925	0.06733922
111	0xbb5cd205	-0.0033694517
112	0xbcd7ab0f	-0.026326684
113	0x3e0a126f	0.13483594
114	0x3dba90fa	0.09109683
115	0xbd91dfc1	-0.07122756
116	0x3ded02ea	0.115728214
117	0x3c8022da	0.015641619
118	0xbdbf3c03	-0.09337618
119	0x3e1c257a	0.15248671
120	0xbca7cb5b	-0.02048271
121	0xbce01090	-0.027351648
122	0xbcc99c2f	-0.024610607
123	0xbe1bff93	-0.15234213
124	0xbe08cac7	-0.13358603
125	0xbd95c72b	-0.07313379
126	0x3dddf1d5	0.108371414
127	0xbcc4b7e7	-0.024013473
128	0xbc01cff6	-0.007923117
129	0xbdc42325	-0.09577016
130	0x3d8e2014	0.06939712
131	0x3d52d7c4	0.0514753
132	0xbce09833	-0.027416324
133	0x3db4bcdd	0.08825085
134	0x3bd74659	0.0065696654
135	0xbb22e608	-0.0024856348
136	0xbe3395e3	-0.17537646
137	0xbd1cfc1a	-0.03832636
138	0xbddea7de	-0.10871862
139	0xbd947370	-0.072485805
140	0xbc2ccbed	-0.010546667
141	0xbb9fdf54	-0.0048789177
142	0x3bdf4f47	0.0068148705
143	0x3d60daea	0.054896273
144	0x3d46b29c	0.04851018
145	0x3dc854a2	0.097817674
146	0xbd51ec2d	-0.051250625
147	0x3e452612	0.19252804
148	0xbdac9812	-0.084274426
149	0x3d54f41c	0.051990613
150	0x3e046ea4	0.12932831
151	0x3e1a91c4	0.15094668
152	0x3cc43178	0.02394937
153	0x3d87035e	0.06592439
154	0x3e3789b3	0.17923622
155	0x3d6a500d	0.05720525
156	0x3b6ee89e	0.0036454569
157	0xbdca0e19	-0.0986597
158	0xbb9090ea	-0.0044118064
159	0xbdf88609	-0.1213494
160	0x3e20ee09	0.15715803
161	0xbc1d798e	-0.0096115
162	0xbd3e1d52	-0.04641468
163	0xbd0159d4	-0.031579807
164	0x3dbf25cb	0.0933338
165	0xbdbba173	-0.09161653
166	0xbd709c28	-0.058742672
167	0xbd00aa7e	-0.031412594
168	0x3de941b1	0.11389483
169	0x3d3e8416	0.046512686
170	0xbe82ad76	-0.25522965
171	0xbd2a7cdb	-0.041622978
172	0x3ccd1328	0.025033548
173	0xbdb909d1	-0.090350755
174	0x3d9dee8a	0.07711513
175	0xbd92c402	-0.07166292
176	0x3c8403e4	0.016115136
177	0x3e26b59a	0.16280213
178	0x3d600d71	0.05470032
179	0x3e22c5aa	0.15895715
180	0x3c305b4e	0.010763956
181	0x3dd1e28b	0.10248288
182	0x3c9df534	0.019281961
183	0xbdc39045	-0.095490016
184	0xbd4322f5	-0.04764076
185	0x3e0694b8	0.13142669
186	0x3e1d826f	0.15381788
187	0x3d619cc0	0.05508113
188	0xbd1f2ba5	-0.038859982
189	0x3defbba9	0.11705715
190	0x3d8ac9d9	0.06776781
191	0xbda1c638	-0.07899135
192	0x3d8bb6fd	0.068220116
193	0xbb77afb0	-0.0037793927
194	0xba1a43a7	-0.0005884715
195	0x3dba0ad9	0.090841
196	0xbc2da10b	-0.010597478
197	0xbd67427e	-0.056459896
198	0xbe336c2c	-0.17521733
199	0x3dc9a5c6	0.09846072
200	0xbdcbc64d	-0.09949932
201	0xbd11c0f2	-0.035584398
202	0xbd3b5135	-0.045731742
203	0x3c36c03e	0.011154233
204	0x3ac67eec	0.0015144027
205	0xba2a0488	-0.00064856606
206	0xbe24410a	-0.16040435
207	0x3cb31f81	0.021865608
208	0xbdcd3ce4	-0.100213796
209	0x378b54e4	1.6609622e-05
210	0xbe16684c	-0.14688224
211	0x3d958c44	0.07302144
212	0xbe037acc	-0.12839812
213	0xbd9c55b6	-0.076335356
214	0x3c0f4fef	0.008747085
215	0xbc736428	-0.014855422
216	0xbe0f8800	-0.14016724
217	0x3db2614d	0.08709965
218	0x3dfdaa9c	0.12386057
219	0x3cd1d11f	0.025612412
220	0x3daafe20	0.08349252
221	0xbbcd74dd	-0.0062700347
222	0x3c3205d8	0.010865651
223	0xbdc8d2a9	-0.09805805
224	0xbb863e68	-0.004096795
225	0xbc8f7134	-0.017510034
226	0xbd4866ca	-0.048926152
227	0xbde68600	-0.11256027
228	0x3d019d83	0.031644356
229	0xbdd8dfb1	-0.10589541
230	0x3cea0e61	0.02857131
231	0xbd6e1832	-0.058128543
232	0x3ac8512b	0.0015282979
233	0x3e2b5ae8	0.16733897
234	0x3dad5dd3	0.08465161
235	0x3dfa6e21	0.12228037
236	0x3d9153a7	0.070960335
237	0xbd802015	-0.06256119
238	0xbdbbede1	-0.09176231
239	0xbc8e12e4	-0.017342992
240	0xbd98f3c8	-0.074683726
241	0xbdc471b9	-0.095920034
242	0xbe069a1d	-0.13144727
243	0x3dfaf2e8	0.12253362
244	0x3dba825f	0.091068976
245	0x3c95aafb	0.018270006
246	0xbd81d499	-0.06339378
247	0xbd971a06	-0.073780105
248	0xbdb23d85	-0.0870314
249	0x3d182554	0.037144974
250	0xbe29857b	-0.16554825
251	0x3de028ac	0.109452575
252	0x3dadb2bc	0.084813565
253	0xbdac7563	-0.08420827
254	0x3c9c60b3	0.019089079
255	0xbdedd4be	-0.11612843

lstm.bias_hh_l0 f4 [256]
0	0xbe0e7d12	-0.13914898
1	0xbd36ca1d	-0.044626344
2	0xbd879eb0	-0.06622064
3	0xbe7b23c5	-0.24525364
4	0xbe086056	-0.13317999
5	0xbdc479bb	-0.09593531
6	0xbce2f617	-0.027705235
7	0x3e08bbd3	0.13352899
8	0x3e09c200	0.13452911
9	0x3dbaa2d6	0.0911309
10	0x3dc822e0	0.09772277
11	0xbae90a11	-0.0017779489
12	0x3d8e34bf	0.06943654
13	0xbc2b6095	-0.010460039
14	0x3deea1df	0.11651968
15	0x3d79514d	0.06086855
16	0x3d1c40e3	0.03814782
17	0xbdd5f43a	-0.10446973
18	0xbe118711	-0.1421168
19	0x3db9c0d6	0.09069984
20	0x3c504f48	0.012714215
21	0x3e202ed6	0.15642866
22	0x3d710cf8	0.05885026
23	0xbd8c590a	-0.0685292
24	0xbdec70f1	-0.11544979
25	0xbc12f0de	-0.00896856
26	0xbd2e2747	-0.042517927
27	0xbd961c95	-0.0732967
28	0xbd71536c	-0.058917448
29	0x3c58660b	0.013207923
30	0x3cd46da2	0.025931183
31	0xbd463f15	-0.048400003
32	0xbe122b2e	-0.14274284
33	0xbda8338c	-0.08212957
34	0xbdc7b39d	-0.097510554
35	0x3d587712	0.05284793
36	0xbd7077ca	-0.05870799
37	0xbd0aaa75	-0.033853967
38	0x3d19e614	0.037572935
39	0xbc001fa7	-0.0078200465
40	0xbde378de	-0.11107038
41	0x3db28f9e	0.08718799
42	0x3dd3a194	0.10333553
43	0xbe053c61	-0.13011314
44	0x3dafa1dd	0.08575795
45	0xbda12929	-0.07869179
46	0x3c4a2c06	0.012339598
47	0x3db7dd32	0.089777365
48	0x3e32f97d	0.17477985
49	0xbce2210c	-0.027603649
50	0xbe51ad4c	-0.20476264
51	0xbe13c601	-0.14431001
52	0x3b16e3ea	0.002302403
53	0x3da23239	0.079197355
54	0x3d4f0d7a	0.05054996
55	0xbd5cf25f	-0.05394208
56	0xbd9673df	-0.073463194
57	0xbe2d2e1c	-0.1691212
58	0x3d2a2af1	0.04154486
59	0x3d649cf3	0.05581374
60	0x3c54ee06	0.012996202
61	0x3e33784f	0.17526363
62	0xbd491a75	-0.049097497
63	0x3d9796ae	0.07401787
64	0xbb4d918b	-0.0031367268
65	0x3d704602	0.058660515
66	0xbe158f48	-0.14605439
67	0xbce76942	-0.028248433
68	0xbc5cfaca	-0.013487527
69	0xbde7907a	-0.113068536
70	0xbd6ee1de	-0.058320872
71	0xbd973e62	-0.073849455
72	0xbe29b281	-0.16572
73	0x3db78efa	0.089628175
74	0xbd7f69bb	-0.06235669
75	0xbda7fc04	-0.08202365
76	0x3cc47e85	0.02398611
77	0xbcdfe4f8	-0.02733086
78	0xbd822bef	-0.06356036
79	0x3d3e1a39	0.046411727
80	0xbb3132d4	-0.0027038353
81	0x3d956911	0.072954305
82	0x3d27ced1	0.04096872
83	0x3d260735	0.040534217
84	0xbdf5a06c	-0.11993489
85	0xbd38bb82	-0.045100696
86	0x3e087c67	0.13328706
87	0xbd6da877	-0.05802199
88	0x3dbf8692	0.09351839
89	0x3e0f92c0	0.14020824
90	0xbe01e07c	-0.1268329
91	0x3befdcb3	0.0073200106
92	0x3db0f4ff	0.08640479
93	0x3e19e941	0.15030386
94	0x3d93f628	0.07224685
95	0x3daa896c	0.083269924
96	0xbd9f67c3	-0.07783463
97	0x3b5b26f2	0.0033439961
98	0x3dea319b	0.11435243
99	0xbd30cde9	-0.04316512
100	0x3e29800e	0.16552755
101	0xbdeade3a	-0.114681676
102	0x3d97a152	0.07403816
103	0xbda04f19	-0.07827587
104	0x3cb8ba79	0.022549855
105	0xbd8f4fd7	-0.0699765
106	0xbcb70cfa	-0.022345055
107	0x3df35a13	0.11882415
108	0x3d70048d	0.05859809
109	0x3d9121d3	0.070865296
110	0xbcbc1f2e	-0.022964086
111	0x3dfad797	0.12248152
112	0x3cc479d9	0.023983883
113	0x3e5a5ff2	0.21325663
114	0x3dc22de6	0.09481411
115	0x3cbee23e	0.02330124
116	0x3daaa4b2	0.083321944
117	0x3b880a22	0.0041515986
118	0xbc18a1f9	-0.009315961
119	0x3dd579bf	0.10423612
120	0xbd333fb2	-0.043761916
121	0xbccb059d	-0.02478295
122	0x3c805d48	0.01566948
123	0xbd026365	-0.03183307
124	0x3c97a6b9	0.018512117
125	0x3ccae4cd	0.024767304
126	0x3d07b68f	0.033133086
127	0xbd8a7f06	-0.06762509
128	0x3db1babd	0.086781956
129	0x3db13a97	0.08653753
130	0xbe32167a	-0.17391387
131	0xbc4e6b78	-0.012598865
132	0x3e200267	0.15625916
133	0xbd983081	-0.074311264
134	0x3c508184	0.012726191
135	0x3e0ebcaf	0.13939165
136	0xbe3b4069	-0.1828629
137	0xbd54255f	-0.051793452
138	0x3d9598a1	0.07304502
139	0x3d8b2bc2	0.067954555
140	0xbe51fd47	-0.20506774
141	0xbd067c3f	-0.032833334
142	0xbc44a888	-0.012003072
143	0xbd8ba424	-0.06818417
144	0xbc7f0869	-0.01556597
145	0x3e3cd84f	0.1844189
146	0x3d0a1e74	0.03372045
147	0xb9ca48b8	-0.00038582622
148	0xbbedf8fc	-0.0072623473
149	0xbd86caa8	-0.06581622
150	0x3e5849e2	0.21121934
151	0x3dde59bb	0.108569585
152	0x3da5a2a7	0.08087664
153	0x3e0334ec	0.12813157
154	0x3c8731ac	0.016503178
155	0xbda7d85d	-0.08195565
156	0xbd4c5f6b	-0.049895685
157	0xbc9cf89e	-0.019161519
158	0xbbc3b580	-0.005972564
159	0x3baa5d39	0.0051991013
160	0x3daa2c0c	0.083091825
161	0x3ddc3c37	0.107536726
162	0xbde0019d	-0.10937808
163	0x3d356f05	0.04429533
164	0x3cf1377a	0.029445399
165	0xbbae0ba6	-0.005311447
166	0xbe1034bd	-0.14082618
167	0x3da95eb4	0.08270016
168	0xbd2aa248	-0.04165867
169	0x3d18d8ee	0.037316255
170	0xbdf81d14	-0.12114921
171	0x3e0feb01	0.1405449
172	0xbd85533b	-0.065100156
173	0x3e0fc53b	0.14040081
174	0x3d8c1069	0.068390675
175	0xbd12bdc9	-0.035825524
176	0x3d90f26e	0.0707749
177	0x3d1eae54	0.03874047
178	0x3da06f1c	0.078336924
179	0x3d5e13ff	0.05421829
180	0x3e270117	0.1630901
181	0xbc70e9f0	-0.014704213
182	0x3c10cf17	0.008838437
183	0xbe0bc3c3	-0.13648896
184	0xbdd8c4fb	-0.10584446
185	0x3e446fc5	0.19183262
186	0xbd3528d8	-0.044228405
187	0x3cfae15b	0.030625036
188	0xbde40e74	-0.11135569
189	0x3d460935	0.048348624
190	0x3dd3895a	0.10328932
191	0xbde0aa90	-0.10970032
192	0x3e11fc6f	0.14256452
193	0x3ddd8935	0.10817186
194	0xbd52bbb7	-0.05144855
195	0xbd4ee329	-0.050509606
196	0x3e0ba22d	0.13636084
197	0xbda0970b	-0.07841309
198	0xbb5908e1	-0.0033116865
199	0xbd8f61b4	-0.07001057
200	0xbe0c991e	-0.13730285
201	0x3db7eca8	0.089806855
202	0x3e0f5c3f	0.14000033
203	0xbc9a5a1c	-0.018841796
204	0x3b0f80ea	0.0021896907
205	0x3d9863df	0.07440924
206	0xbd08b00c	-0.033371016
207	0x3cb96da4	0.022635289
208	0x3d996a92	0.0749103
209	0x3dbca5c3	0.09211304
210	0x3c9bfd49	0.019041674
211	0xbe193833	-0.14962845
212	0x3d9e22c0	0.07721472
213	0xbd7664af	-0.060154613
214	0x3df08336	0.117437765
215	0xbc4014a4	-0.011723671
216	0x3d159c4a	0.036526002
217	0x3d39815b	0.04528938
218	0x3df22170	0.11822784
219	0xbdee3811	-0.116317876
220	0x3e0f9e82	0.1402531
221	0x3ddca446	0.1077352
222	0xbe285846	-0.16439924
223	0x3e0dd8d2	0.13852242
224	0x3d58663e	0.05283188
225	0x3d972a26	0.07381086
226	0x3ca481c6	0.020081412
227	0xbd68dd0f	-0.056851443
228	0xbd07e2c5	-0.03317525
229	0x3da4b4c5	0.080422916
230	0xba9e45d5	-0.0012075255
231	0xbd2044bb	-0.039128046
232	0xbd7fca7f	-0.062448975
233	0x3e0d8a8c	0.13822383
234	0x3dffe96a	0.12495692
235	0x3ca7a95c	0.020466499
236	0x3c96f64a	0.018427987
237	0xbb728d97	-0.0037010664
238	0xbd479bc6	-0.04873254
239	0x3e0039ca	0.12522045
240	0x3c4cfc8a	0.012511382
241	0x3bcb2a4d	0.006200111
242	0x3dc01e83	0.0938082
243	0xbc531eb2	-0.012885736
244	0xbd2bb658	-0.041921943
245	0x3d4a4f14	0.04939182
246	0xbd81b08b	-0.06332501
247	0x3d9cddf4	0.07659522
248	0xbd3ae39d	-0.045627225
249	0xbd2247b6	-0.03961917
250	0xbb563908	-0.0032687802
251	0x3ce81ba9	0.028333502
252	0x3e0a7862	0.13522485
253	0xbc95ced5	-0.018287102
254	0x3c656406	0.014000898
255	0x3db7faca	0.08983381

lstm.weight_ih_l1 f4 [256, 64]
0	0xbdf3420a	-0.1187783
1	0xbe5c0360	-0.21485662
2	0xbcb228ad	-0.021747911
3	0xbe363aad	-0.1779582
4	0xbdb894cf	-0.09012758
5	0x3dde333e	0.108496174
6	0x3cc464cf	0.02397385
7	0x3d4eac32	0.050457187
8	0x3d425807	0.04744723
9	0xbd81b678	-0.06333631
10	0x3d2a0eae	0.041517906
11	0xbdea081f	-0.1142733
12	0x3dc67223	0.096897386
13	0xbd10e3ce	-0.0353735
14	0xbdb353b6	-0.08756201
15	0xbe049350	-0.1294682
16	0xbd302ecf	-0.04301339
17	0xbd743a0e	-0.059625678
18	0x3dce48e7	0.10072499
19	0xbcd9d059	-0.026588606
20	0xbd0cd375	-0.03438135
21	0x3dfe8388	0.12427431
22	0x3c2735bd	0.010205683
23	0xbe292249	-0.16516985
24	0xbd6e5501	-0.058186535
25	0xbc9c2f3c	-0.019065492
26	0xbe76e73d	-0.24111648
27	0x3d87ab28	0.06624442
28	0xbc121f77	-0.008918635
29	0xbd247428	-0.040149838
30	0xbe0e34f4	-0.13887388
31	0xbe1fe3dd	-0.15614267
32	0xbd353f46	-0.044249795
33	0xbddad7d0	-0.10685694
34	0x3ccc979c	0.024974637
35	0xbd554fca	-0.052078046
36	0xbdd11acc	-0.10210189
37	0xbd31f8a5	-0.043450017
38	0xbd5a9037	-0.05336019
39	0x3dcf2171	0.101138
40	0xba718aab	-0.00092140835
41	0x3d2c4020	0.042053342
42	0xbd9e1624	-0.07719067
43	0x3d06623d	0.03280853
44	0xbdfabdad	-0.12243209
45	0xbcafcc83	-0.021459823
46	0xbd4384aa	-0.04773394
47	0xbe271d2c	-0.16319722
48	0xbcd1eb78	-0.025624976
49	0x3d904225	0.07043866
50	0xbda1b2fa	-0.07895465
51	0xbd8e7f86	-0.06957917
52	0x3d982a2c	0.07429919
53	0x3e00e298	0.12586439
54	0x3d455313	0.04817493
55	0x3d79e34c	0.061007783
56	0x3d4e1930	0.05031699
57	0x3b1db58b	0.0024064507
58	0xbd089081	-0.033340935
59	0x3d431e38	0.04763624
60	0xbdbc1f05	-0.09185604
61	0x3d8885ee	0.0666617
62	0x3d7face1	0.06242073
63	0x3e2f8302	0.1713982
64	0xbd9bf704	-0.07615474
65	0x3c08d13f	0.008350669
66	0x3d7e7307	0.062121417
67	0x3cb033e6	0.021509122
68	0x3c296bae	0.010340614
69	0x3df68717	0.12037485
70	0x3dcbe896	0.099564716
71	0x3a87b7f1	0.0010354501
72	0x3cff1405	0.031137476
73	0x3e12f7f9	0.14352407
74	0x3db36728	0.0875991
75	0x3c24a5c6	0.010049289
76	0xbda90aa2	-0.08253981
77	0xbdb2c687	-0.08729272
78	0xbc87f777	-0.016597493
79	0xbc82259a	-0.01588707
80	0x3d955259	0.07291097
81	0x3da2f3c9	0.079566546
82	0x3e2e1f04	0.17004019
83	0x3dca9bcf	0.098929994
84	0xbe2720f2	-0.16321161
85	0x3e287d45	0.16454037
86	0x3d56be0a	0.05242733
87	0x3ca937c8	0.020656481
88	0x3c295722	0.0103357155
89	0x3cbbe681	0.022937061
90	0xbc121d3c	-0.008918103
91	0x3dbd7b99	0.0925209
92	0x3e1a5fa1	0.15075542
93	0x3e407c01	0.18797304
94	0x3dacc4b7	0.08435958
95	0xbd221191	-0.039567534
96	0xbe016b23	-0.12638526
97	0xbce5c3a5	-0.028047392
98	0x3bbf7423	0.005842702
99	0x3cc2ea9c	0.023793511
100	0x3d12019c	0.035646066
101	0x3e131b82	0.14365962
102	0xbda3cb0b	-0.07997712
103	0xbe0ec12e	-0.1394088
104	0xbdf3c029	-0.11901886
105	0xbe17caff	-0.1482353
106	0xbcb2f3bd	-0.02184474
107	0x3d870525	0.06592778
108	0x3d463128	0.048386723
109	0xbd2b3170	-0.041795194
110	0xbdcb2989	-0.099200316
111	0xbe2f868f	-0.17141174
112	0xbcb934e4	-0.022608228
113	0x3e801c18	0.25021434
114	0xbe0ef76d	-0.13961573
115	0x3ce7d4f4	0.028299786
116	0xbd1f2e1c	-0.038862333
117	0xbba8543e	-0.0051369956
118	0x3e0df384	0.13862425
119	0xbd499815	-0.049217302
120	0x3dca6f09	0.098844595
121	0xbcdf185d	-0.027233297
122	0xbd5a8642	-0.053350694
123	0xbdfdc7c6	-0.123916194
124	0x3dbe949a	0.09305687
125	0xbd0dda7b	-0.034632187
126	0xbc3b0b21	-0.011416228
127	0x3d856c3a	0.06514783
128	0xbde19306	-0.110143706
129	0x3db139db	0.08653613
130	0x3e2531fb	0.16132347
131	0xbcef369a	-0.02920084
132	0x3d310106	0.043213867
133	0xbd02397b	-0.0317931
134	0x3d62a4be	0.05533289
135	0xbdf2f787	-0.11863618
136	0xbd8a49de	-0.0675237
137	0xbd4b27a2	-0.049598344
138	0xbd31b467	-0.043384936
139	0xbdb4b079	-0.08822722
140	0x3d8e3a6b	0.06944736
141	0x3d884f1d	0.06655715
142	0xbba2cedd	-0.0049685077
143	0x3be88e33	0.0070970296
144	0x3d438def	0.04774278
145	0xbb9afbd7	-0.0047297287
146	0xbe0ee90d	-0.1395609
147	0xbe220343	-0.15821557
148	0xbcb8298b	-0.022480747
149	0xbdedc59a	-0.11609955
150	0x3dfcbb5c	0.123404235
151	0xbcccf4e2	-0.025019113
152	0xbcdc7886	-0.026912939
153	0xbde91cd0	-0.11382449
154	0xbdd20c34	-0.10256234
155	0xbd147c1e	-0.03625118
156	0xbdbbe006	-0.091735885
157	0xbb0d87ff	-0.0021595953
158	0xbe1c5660	-0.15267324
159	0x3cda4677	0.026644928
160	0x3dc46f67	0.09591561
161	0x3d1397ee	0.036033563
162	0x3bcbed7c	0.0062233787
163	0x3cb68e28	0.022284582
164	0xbdad7ed2	-0.08471455
165	0x3da7ed38	0.08199543
166	0xbd1ca3f7	-0.038242307
167	0x3dfa2b3b	0.12215277
168	0xbe2fac9f	-0.17155693
169	0xbd529b1f	-0.051417466
170	0xbdcc3f20	-0.09972978
171	0xbbe75675	-0.007059867
172	0x3d50650d	0.05087762
173	0xbe126437	-0.14296041
174	0xbcffe657	-0.031237764
175	0x3c1ac73a	0.009446913
176	0xbdd35cb2	-0.103204146
177	0x3d448b78	0.04798457
178	0x3c866334	0.016404726
179	0xbd88911e	-0.06668304
180	0xbd3b8e70	-0.045790136
181	0xbe9193cd	-0.28433076
182	0x3c354c19	0.011065506
183	0x3caf2d6d	0.021383965
184	0xbd8f7dad	-0.07006393
185	0x3d7570d8	0.05992207
186	0xbdacbd79	-0.084345765
187	0xbd3ce618	-0.046117872
188	0xbcaf2d3b	-0.021383872
189	0x3e21385e	0.15744159
190	0x3a5bddf8	0.0008387263
191	0x3d0c582d	0.03426378
192	0xbc576d8e	-0.0131486785
193	0xbdc1fff1	-0.09472645
194	0x3d5ad86b	0.05342905
195	0xbe155e65	-0.1458679
196	0x3dd6714e	0.1047083
197	0x3dc73570	0.09726989
198	0x3dc77e34	0.09740868
199	0xbe061435	-0.13093646
200	0xbc09eb99	-0.008417987
201	0xbdcf3f5f	-0.10119509
202	0x3d4a867f	0.04944467
203	0xbb3f885f	-0.002922557
204	0x3e33fe7c	0.17577547
205	0xbdd28e54	-0.10281053
206	0x3de50854	0.11183229
207	0xbd4514c2	-0.0481155
208	0xbe3b8e72	-0.18316057
209	0xbdbff8f3	-0.09373655
210	0x3eaceba6	0.33773535
211	0x3d51db17	0.05123433
212	0x3cdece21	0.0271979
213	0xbccd1339	-0.02503358
214	0x3d529d4b	0.051419538
215	0x3d960e23	0.07326915
216	0x3d3346a5	0.043768544
217	0xbcbdb6d1	-0.023158463
218	0xbd3f793a	-0.04674647
219	0xbe0c7933	-0.13718109
220	0x3e0a5926	0.1351057
221	0x3cf5e4fd	0.030016417
222	0xbe1dcfbe	-0.15411279
223	0xbcd973be	-0.026544448
224	0x3d22ace2	0.039715655
225	0xbe33bae4	-0.17551762
226	0xbd6bf040	-0.057602167
227	0x3e09ffd6	0.134765
228	0x3d943ec2	0.072385326
229	0x3d0b6c48	0.034038812
230	0x3d8598df	0.065232985
231	0x3d6c239e	0.057651155
232	0xbc61f3d2	-0.013791041
233	0x3deb2bec	0.11482987
234	0xbd796ffa	-0.060897805
235	0xbd4c17f8	-0.049827546
236	0xbd4a3e37	-0.04937574
237	0x3d7e1a33	0.062036704
238	0x3cff8349	0.031190531
239	0xbdb17eb6	-0.08666746
240	0x3dc9a9d4	0.09846845
241	0xbdb603f1	-0.088874705
242	0x3e119b73	0.14219455
243	0x3d31e0f1	0.04342741
244	0x3e0b03f8	0.13575733
245	0xbdc2ebc9	-0.09517629
246	0x3d21a729	0.039466057
247	0x3dad5808	0.08464056
248	0xbcc3cedd	-0.023902351
249	0xbe1eda21	-0.15512897
250	0xbba3d50a	-0.0049997615
251	0xbb094c01	-0.0020949843
252	0xbc05e0db	-0.0081712855
253	0x3d7a3c52	0.061092682
254	0x3e36fbae	0.17869446
255	0x3dd654c2	0.10465385

lstm.weight_hh_l1 f4 [256, 64]
0	0xbd3737ec	-0.044731066
1	0xbd3c4e68	-0.04597321
2	0x3daa5520	0.083170176
3	0xbcee2714	-0.029071368
4	0x3dc9d3f5	0.09854881
5	0xbe8ea710	-0.27861834
6	0x3da0c6b2	0.07850398
7	0xbbf25014	-0.0073948
8	0x3ddc7a6c	0.107655376
9	0x3dcb012d	0.09912334
10	0x3cc03f06	0.023467552
11	0x3dcbf807	0.09959417
12	0xbd9bada8	-0.07601482
13	0xbe31942b	-0.17341678
14	0xbd6ae3c2	-0.057346113
15	0xbe1c308e	-0.15252897
16	0xbd81b8fc	-0.06334111
17	0xbc890e1b	-0.016730359
18	0xbc54603a	-0.012962395
19	0xbdddd36d	-0.10831342
20	0x3d4118ff	0.04714298
21	0x3d643811	0.05571753
22	0x3db5ce13	0.08877196
23	0x3c853fbc	0.016265742
24	0x3e4044d7	0.1877626
25	0xbdb59cdb	-0.088678084
26	0xbd2d0b63	-0.042247187
27	0x3db70e2c	0.0893825
28	0xbe185afa	-0.14878455
29	0x3d48e86e	0.049049787
30	0x3da68292	0.08130373
31	0x3dbf0442	0.09326984
32	0x3c3f5e5d	0.011680213
33	0x3b4d0ff6	0.003129003
34	0x3c4be1d2	0.0124439765
35	0x3d85f9be	0.06541775
36	0x3d86f363	0.06589391
37	0x3d487052	0.048935242
38	0x3db7f427	0.08982115
39	0xbcfa2e73	-0.030539727
40	0xbbd61c4b	-0.0065341345
41	0x3e309260	0.17243338
42	0xbcec9938	-0.028881654
43	0x3ce65c0b	0.028120061
44	0x3d168c9c	0.03675519
45	0x3c3b0bf1	0.011416421
46	0x3e0c3f77	0.13696085
47	0xbe07e4b0	-0.13270831
48	0xbdb7e356	-0.08978908
49	0x3e2aaf0a	0.16668335
50	0x3e159c2c	0.14610356
51	0x3dead7a8	0.114669144
52	0xbe285dea	-0.16442075
53	0xbd1758ac	-0.0369498
54	0x3d823154	0.06357065
55	0xbdb50b11	-0.088400014
56	0xbe28fdde	-0.16503093
57	0xbdc9b61f	-0.0984919
58	0x3c0ba664	0.008523557
59	0xbdd734eb	-0.1050814
60	0xbd6af869	-0.05736581
61	0xbd5fe6c5	-0.05466344
62	0x3dd8d542	0.10587551
63	0x3e5d3b1e	0.21604583
64	0x3d5623e0	0.052280307
65	0x3d3034f3	0.043019246
66	0x3e07734c	0.13227576
67	0xbdc828c5	-0.09773401
68	0x3b69d603	0.003568054
69	0xbdac8c69	-0.084252186
70	0xbdfdc3f0	-0.12390888
71	0x3c90e679	0.017688023
72	0xbd5c056b	-0.053716104
73	0xbe34317d	-0.17597003
74	0x3db49f01	0.0881939
75	0xbe254f1c	-0.16143459
76	0x3daba94c	0.083819
77	0xbcb9fbd6	-0.022703093
78	0xbe6f5c62	-0.23375085
79	0xbd961f0d	-0.07330141
80	0x3df55dd4	0.11980787
81	0x3ca505a3	0.02014429
82	0x3d763bf6	0.060115777
83	0xbe0a1809	-0.13485731
84	0xbdfe3cc6	-0.12413935
85	0x3d0d4e1e	0.034498326
86	0xbd172ce9	-0.036908064
87	0xbcaddc6a	-0.021223266
88	0xbdb912e6	-0.09036808
89	0x3c279170	0.010227546
90	0x3d6201bf	0.055177446
91	0xbdf45383	-0.11929991
92	0x3cb06e7d	0.02153706
93	0xbb57ed78	-0.003294794
94	0xbd8e98ca	-0.06962736
95	0x3bb23b9a	0.005439234
96	0x3ce33690	0.027735978
97	0x3d8c2526	0.06843023
98	0xbe20afb0	-0.1569202
99	0xbd8833c5	-0.06650499
100	0xbd49fc00	-0.04931259
101	0xbd9edb40	-0.07756662
102	0xbdb99f19	-0.090635486
103	0xbe50dc8c	-0.20396632
104	0xbdd2ef23	-0.10299518
105	0xbe564424	-0.20924431
106	0x3d3341a1	0.04376376
107	0xbe584e27	-0.21123563
108	0xbd86a1c7	-0.06573825
109	0xbdfd4ce5	-0.12368182
110	0xbd790bc2	-0.06080223
111	0x3d2b3b44	0.041804567
112	0xbe6b6bf6	-0.22990403
113	0xbdb66f37	-0.08907931
114	0x3dd99988	0.10624987
115	0xbdc84f12	-0.097807065
116	0x3e2326a8	0.15932715
117	0x3b24ae09	0.0025128147
118	0x3dbc2aca	0.09187849
119	0x3db8e022	0.09027125
120	0x3ddd73e9	0.10813124
121	0x3c10a70f	0.008828892
122	0xbcb0dc88	-0.021589532
123	0x3dce8fa2	0.100859895
124	0xbd6fb467	-0.058521654
125	0x3d7162f9	0.05893228
126	0xbce623f3	-0.028093314
127	0xbe2c7aba	-0.16843691
128	0x3dbe38e5	0.092881955
129	0x3c4f46b9	0.012651139
130	0x3cf28353	0.029603636
131	0xbbed58ec	-0.0072432663
132	0x3d86e2a6	0.065861985
133	0xbe3aa2e9	-0.18226208
134	0xbc6ebe95	-0.0145718055
135	0x3ccf3931	0.025295826
136	0x3d0bb635	0.034109313
137	0xbdb9952b	-0.09061655
138	0x3cb60437	0.022218807
139	0xbd80e942	-0.062944904
140	0xbc8ad900	-0.016949177
141	0x3d47f3a5	0.048816342
142	0xbba0fef4	-0.0049132053
143	0x3ddd3b77	0.10802358
144	0x3dbbdbd7	0.091727905
145	0x3d6616f9	0.056174252
146	0x3d2cc19d	0.04217683
147	0x3dbb3fc7	0.09143024
148	0x3cea1afb	0.028577318
149	0xbd8be8c0	-0.06831503
150	0x3d3dfa4f	0.04638129
151	0x3d04d7e3	0.032432448
152	0xbd5f855b	-0.054570537
153	0x3dce8e90	0.100857854
154	0x3e344a1c	0.17606395
155	0xbd67781e	-0.056511037
156	0xbdae4e62	-0.08511044
157	0xbdb2affd	-0.08724973
158	0x3dadd87a	0.08488555
159	0xbd7c85fe	-0.061651222
160	0x3dac98e0	0.08427596
161	0xbe1254d4	-0.14290172
162	0xbdaa1049	-0.083038874
163	0x3e5c5b28	0.21519148
164	0x3dc08e5c	0.09402153
165	0xbd8062fd	-0.062688805
166	0x3dc1c14d	0.09460697
167	0xbe45ffd3	-0.1933587
168	0x3deee025	0.11663846
169	0xbe3fd83b	-0.18734829
170	0x3de43106	0.11142163
171	0xbcec5a8d	-0.028851772
172	0x3e2ebe54	0.17064792
173	0xbdcafc30	-0.09911382
174	0x3cd2d241	0.025735023
175	0x3dafea96	0.085896656
176	0xbcf66174	-0.030075766
177	0xbdbaf6dd	-0.09129117
178	0x3dae0349	0.0849672
179	0xbd3bf91e	-0.045891874
180	0x3dbdcbd4	0.09267393
181	0xbc37bf75	-0.0112150805
182	0x3c1ad268	0.009449579
183	0xbd6046bb	-0.054754954
184	0xbda769a2	-0.08174445
185	0x3d8a6b74	0.06758776
186	0x3d650f00	0.05592251
187	0xbdbbaa36	-0.091633245
188	0xbdae2f66	-0.08505134
189	0xbdce2a32	-0.10066642
190	0xbca7d333	-0.02048645
191	0xba9e34c3	-0.0012070168
192	0xbd795e96	-0.06088122
193	0xbe2827d1	-0.16421439
194	0x3d433e14	0.047666624
195	0xbd2d64c4	-0.042332426
196	0xbdd0bb19	-0.10191936
197	0xbc99e514	-0.01878599
198	0xbd5c26a9	-0.053747807
199	0xbda345ab	-0.079722725
200	0x3e42c723	0.19021277
201	0xbc422526	-0.011849677
202	0x3e09789b	0.13424914
203	0x3d8d7747	0.06907516
204	0xbd812b0a	-0.06307037
205	0xbe405788	-0.1878339
206	0x3e2e34bf	0.17012309
207	0xbe2fb6cf	-0.1715958
208	0x3dd24360	0.10266757
209	0xbdc0e375	-0.09418384
210	0xbc959c0e	-0.01826289
211	0x3d75f81a	0.06005106
212	0x3e037701	0.12838365
213	0x3d93d529	0.072183914
214	0x3e352f3a	0.17693797
215	0xbddc9c34	-0.10771981
216	0x3d84c5f8	0.06483072
217	0x3e0b95d7	0.13631378
218	0x3e48c2ee	0.1960561
219	0xbd3f452b	-0.046696823
220	0xbdc0441f	-0.09387993
221	0xbd103bfd	-0.03521346
222	0xbcc4c054	-0.02401749
223	0x3dee4b1a	0.11635418
224	0xbb9cfad6	-0.004790644
225	0x3d9c15c7	0.07621341
226	0xbd813c8f	-0.06310379
227	0x3e14aefc	0.14519876
228	0x3e079c20	0.1324315
229	0x3e76ca89	0.24100699
230	0x3e5051c0	0.20343685
231	0xbdbb7d0b	-0.091547094
232	0x3c97bb94	0.018522061
233	0xbdad20f1	-0.08453549
234	0xbd457b9b	-0.048213582
235	0xbad70f49	-0.0016407754
236	0x3df70a0a	0.12062462
237	0x3d14649a	0.036228754
238	0x3e550d71	0.20805909
239	0xbe1ead16	-0.15495715
240	0xbd819eba	-0.06329103
241	0xbc686ca0	-0.0141860545
242	0x3d8e412e	0.06946026
243	0x3d0b40d8	0.033997387
244	0xbe4102fb	-0.18848793
245	0x3d54a993	0.05191953
246	0xbbe5a839	-0.007008579
247	0xbb3e159f	-0.0029004586
248	0xbe4d5b86	-0.20054445
249	0xbbe9f5eb	-0.0071399114
250	0x3d31b214	0.04338272
251	0xbe1c0a2e	-0.15238258
252	0xbe519963	-0.20468669
253	0xbd13afc5	-0.0360563
254	0x3cbd4056	0.023101967
255	0x3d7b5c1a	0.06136713

lstm.bias_ih_l1 f4 [256]
0	0x3d6d0445	0.0578654
1	0xbda082c4	-0.078374416
2	0xbd6e66ca	-0.058203496
3	0xbd6d1eae	-0.057890587
4	0xbcc19ff4	-0.023635842
5	0xbd1b139e	-0.037860505
6	0xbd08393a	-0.0332577
7	0x3e0b57d3	0.13607721
8	0xbd2d589a	-0.042320825
9	0xbe52320a	-0.20526901
10	0xbdd7d904	-0.10539439
11	0xbdea6fac	-0.11447081
12	0x3d4cc298	0.049990267
13	0xbdb2e8c0	-0.087358
14	0xbdda4493	-0.10657611
15	0xbd6e27b9	-0.05814335
16	0x3d4f8893	0.050667357
17	0x3ce83b08	0.02834846
18	0x3d7d039c	0.06177102
19	0xbde1ace9	-0.11019308
20	0x3d9e944f	0.07743131
21	0xbdd3fb21	-0.103506334
22	0x3bcea787	0.006306592
23	0xbd636e82	-0.05552531
24	0x3dc23799	0.09483261
25	0x3d14773a	0.036246516
26	0x3b4ca2c9	0.0031224957
27	0x3d22fc0b	0.03979115
28	0x3df0aa23	0.11751201
29	0xbcee5046	-0.029091012
30	0x3ddc9c51	0.107720025
31	0x3e0d348b	0.13789575
32	0xbe25789e	-0.16159293
33	0xbe293f45	-0.16528042
34	0xbdf4f63f	-0.1196103
35	0xbd521927	-0.05129352
36	0xbd92549b	-0.071450435
37	0xbd999d5e	-0.075007185
38	0xbdc724cc	-0.09723815
39	0x3db52152	0.08844246
40	0xbccda9eb	-0.025105437
41	0xbd9041a6	-0.070437714
42	0x3da4d18a	0.08047779
43	0x3d7fa74b	0.062415402
44	0xbde81cac	-0.11333594
45	0xbdb9a0bb	-0.0906386
46	0xbdc48884	-0.09596351
47	0xbc749cc0	-0.01492995
48	0x3dd908ce	0.105973825
49	0xbde2f6bf	-0.11082219
50	0xbb8ccd46	-0.0042969314
51	0x3c818542	0.015810613
52	0xbdb4e8e7	-0.08833485
53	0x3c162b45	0.00916559
54	0xbcb62d23	-0.02223832
55	0xbd14f763	-0.03636874
56	0xbda9ebe0	-0.08296943
57	0xbdead00d	-0.11465464
58	0xbd388260	-0.04504621
59	0x3d3bb3db	0.04582582
60	0x3deba0eb	0.11505302
61	0xbd860396	-0.06543653
62	0x3d346344	0.04403998
63	0x3db33458	0.08750218
64	0xbd309209	-0.04310802
65	0xbd712436	-0.058872424
66	0xbdc3b8f5	-0.09556762
67	0xbe0c3fd8	-0.1369623
68	0xbcfb275b	-0.030658415
69	0xbd9e1ebf	-0.07720708
70	0xbdd45155	-0.10367075
71	0x3dac2c1b	0.0840685
72	0x3e0002d3	0.12501077
73	0x3d254ea6	0.040358208
74	0x3ce33c83	0.027738815
75	0xbbe49ceb	-0.006976714
76	0xbcc31068	-0.023811534
77	0x3ca99f4f	0.020705847
78	0xbd2d20d1	-0.042267624
79	0x3e224a32	0.15848616
80	0xbc934647	-0.017977847
81	0xbcc14f09	-0.023597257
82	0x3dec5607	0.11539846
83	0x3d94d6ba	0.07267518
84	0xbd76786d	-0.06017344
85	0x3d4e6abd	0.050394762
86	0xbc9653fd	-0.018350596
87	0xbc19de72	-0.009391414
88	0x3c8006f3	0.015628314
89	0xbc4f9517	-0.012669823
90	0xbcb587d9	-0.022159504
91	0xbd01d44c	-0.031696603
92	0x3d925194	0.07144466
93	0xbd98d9f7	-0.074634485
94	0x3da8822b	0.082279526
95	0xbda394cb	-0.079873644
96	0x3d8a7bd5	0.067619
97	0xbdfe793b	-0.124254666
98	0x3d44dfaf	0.048064884
99	0xbd846e49	-0.06466348
100	0xbe11d0ea	-0.1423985
101	0x3e4a219b	0.19739382
102	0x3beab59a	0.007162762
103	0x3e008673	0.12551288
104	0xbd86dfec	-0.065856785
105	0x3d873974	0.06602755
106	0xbd93deac	-0.07220206
107	0xbc998fa5	-0.018745253
108	0x3d5d1070	0.053970754
109	0xbe0cee74	-0.13762838
110	0x3dc10ce9	0.094262905
111	0xbd0d2240	-0.03445649
112	0x3e13dce1	0.14439727
113	0x3dafb3fd	0.08579252
114	0x3cdcd80d	0.02695849
115	0x3de3ba3b	0.11119505
116	0xbd665813	-0.056236338
117	0xba6ae074	-0.0008959838
118	0x3cbc1a9b	0.022961905
119	0xbe2db83a	-0.16964808
120	0xbde5321b	-0.111911975
121	0x3d0cee0f	0.034406718
122	0xbd1abc9f	-0.03777754
123	0x3c1e848c	0.009675156
124	0x3d565536	0.052327357
125	0x3d599b89	0.053126846
126	0xbcfc3621	-0.03078753
127	0x3dcce50c	0.10004625
128	0xbdbf0f75	-0.0932912
129	0xbd88f08b	-0.06686505
130	0xbd4e11d3	-0.050309967
131	0xb9ead868	-0.00044793193
132	0xbc2d271e	-0.010568408
133	0x3db8e3d0	0.09027827
134	0x3e107e23	0.14110617
135	0x3d1ad8dd	0.037804473
136	0x3dc01b99	0.09380264
137	0xbd85e3da	-0.065376
138	0x3d7711c6	0.060319684
139	0x3d96f363	0.07370641
140	0xbe07db51	-0.13267256
141	0xbdc944e1	-0.09827591
142	0xbd541aa9	-0.051783238
143	0x3d9e5cc9	0.07732541
144	0x3c274ef8	0.010211699
145	0xbdc62711	-0.0967542
146	0x3df30dc1	0.11867858
147	0x3d756d89	0.059918914
148	0xbd5d4b53	-0.054026913
149	0xbce21176	-0.027596217
150	0xbd459b27	-0.048243668
151	0x3d1d5f4e	0.038420968
152	0x3d549510	0.05189997
153	0x3d17239c	0.036899194
154	0x3daa9d1c	0.083307475
155	0xbc61f3c9	-0.013791033
156	0xbdfebec6	-0.12438731
157	0xbd0f33d2	-0.03496153
158	0xbe140052	-0.14453247
159	0xbdf599d8	-0.11992234
160	0x3dba40e6	0.0909441
161	0x3d14b4ea	0.036305346
162	0x3e0349c8	0.12821114
163	0x3d8ee6e9	0.06977636
164	0x3e09e3dd	0.13465829
165	0xbdac6b27	-0.08418875
166	0x3d09e601	0.033666614
167	0x3d750b99	0.059825514
168	0xbd9184e5	-0.07105426
169	0x3ddaaf72	0.10677995
170	0xbe1b6ed8	-0.15179002
171	0x3d0a6d40	0.033795595
172	0xbc9dc21b	-0.019257596
173	0x3da66f1c	0.08126661
174	0x3d9f1115	0.0776693
175	0x3da48251	0.080326684
176	0x3d3dc8ce	0.04633408
177	0x3dd761a0	0.10516667
178	0xbdbd4a56	-0.09242694
179	0x3d5bd6ac	0.053671524
180	0xbde0ba51	-0.10973037
181	0xbe0c6ccf	-0.13713382
182	0xbce819e7	-0.028332664
183	0xbdc93b8b	-0.0982581
184	0xbd4f2df2	-0.050580926
185	0xbdef7b7e	-0.11693476
186	0x3de43362	0.11142613
187	0xbda11973	-0.07866182
188	0x3dc8faef	0.09813487
189	0xbdaf3bd2	-0.08556332
190	0xbd59361c	-0.05303012
191	0x3cd61039	0.026130782
192	0x3c1b5c73	0.009482491
193	0xbe065091	-0.13116671
194	0x3b44906c	0.0029993309
195	0xbe1527dd	-0.14565988
196	0xbd59fbbd	-0.053218592
197	0x3d75ec41	0.060039762
198	0x3dbdeddd	0.092738844
199	0x3e375b47	0.17905913
200	0xbd8fca58	-0.07021016
201	0x3d27b822	0.040947087
202	0x3ccbfe45	0.024901519
203	0xbd2a34c4	-0.041554227
204	0x3cd8f663	0.026484674
205	0x3d950421	0.07276178
206	0x3d3a2a41	0.045450453
207	0x3ca72551	0.020403536
208	0x3d939066	0.07205276
209	0x3da9f978	0.082995355
210	0x3c8d4853	0.017246401
211	0xbd924bf7	-0.071433954
212	0x3dc82fb6	0.09774725
213	0xbd59e9e5	-0.053201575
214	0x3cff9ff7	0.031204207
215	0xbd44069f	-0.047857877
216	0xbbf553aa	-0.00748678
217	0x3d0aea63	0.033914935
218	0x3da38a87	0.07985406
219	0x3ce4178a	0.027843256
220	0xbdb5dbab	-0.08879789
221	0xbd00cebf	-0.03144717
222	0xbddbe4a4	-0.10736969
223	0xbd60aab5	-0.0548503
224	0x3d22c65d	0.039739955
225	0xb8935aa0	-7.0263864e-05
226	0x3e00c4f4	0.12575132
227	0x3d904b7b	0.07045647
228	0x3bbd54d0	0.0057779327
229	0x3e1c6a51	0.15274931
230	0x3da39c25	0.079887666
231	0x3d81797e	0.06322001
232	0x3d9f8159	0.07788343
233	0xbd94689b	-0.072465144
234	0xbd7aab33	-0.061198425
235	0x3c8e510c	0.01737263
236	0xbc981b58	-0.018567726
237	0xbddd31ec	-0.108005375
238	0x3de7050b	0.11280259
239	0xbcce51a9	-0.025185423
240	0x3e2faa31	0.17154767
241	0xbc984da8	-0.018591717
242	0xbdbe1cd3	-0.092828415
243	0xbd6a6392	-0.057223864
244	0x3d435b84	0.047694698
245	0xbd1fe590	-0.039037287
246	0xbde624ab	-0.112374626
247	0x3cd812b7	0.026376111
248	0x3d4c873b	0.049933653
249	0xbd27983b	-0.040916663
250	0x3e262e36	0.16228566
251	0x3e05370b	0.13009278
252	0x3ce61470	0.028085917
253	0xbd4045af	-0.046941455
254	0xbe183f67	-0.14867936
255	0xbc065d61	-0.008200974
