src/util/AI/checkpoints/011.ckpt (torch, 353508 bytes, 14 tensors)

lstm.weight_ih_l0 f4 [256, 12]
00000000: 53e3 55bd dfb8 9e3d 2f69 23be 67e8 063d
00000010: 33f8 ae3d e9ce 883d d289 643d f1f9 44bc
00000020: 28c6 d2bd 6dff 173d edfa dfbd 85b6 50bd
00000030: 74e5 36be da81 2abb 1220 87bd d5fb cfbd
00000040: 467f 85bd 4571 02bd 6724 f93d f239 ed3d
00000050: 1239 c23d 6a02 183d 6276 c8bd 7ffc 0c3d
00000060: a55f b23d be52 ca3d 5f44 7d3d a96b f03d
00000070: 0b50 8a3d 6624 583e 8ab0 4a3e 1cfe e7bd
00000080: ef87 993c 68c8 42bd f65d 953d 1e54 b8bd
00000090: 1608 ac3c 10ff 4b3d 81fe 903d 6cdd 50be
000000a0: efea 4fbe a645 12bb ea30 323e 4aab 033c
000000b0: f925 11be c033 68bd 2a09 573e cd76 a53c
000000c0: 7286 293d 7025 a7bd 0966 79bd f1b5 9ebd
000000d0: f653 6f3d 0e7f 08bd 8155 ad3d 88bd 3f3e
000000e0: 00cc 4b3d 2dd3 1ebd 28a4 bdbd 88fb b0bd
000000f0: fd95 143d 92de 123d 422b 283d 2657 b13d
00000100: a951 453c 4d84 a7bd eaac 7e3e 65fe 933e
00000110: 57fa 95bc 7c52 25bd 2a04 7fbc b6e5 db3c
00000120: 9154 033e fd9f 123b 3450 18be c30f 27be
00000130: 52c2 da3d 0581 96bc ce6e 71bd 4cd5 063e
00000140: e71c 2bbd f5fa 95bd 3a27 753b 418d 473b
00000150: 2cd0 4fbd ffae 063e 8a7f 4a3d 2a00 403d
00000160: ae5d ac3d 6c20 c53d ed22 943b c682 f43d
00000170: 96ce 55bd 6b7f babc 18b3 3cbd 1e38 5fbd
00000180: 25a6 1abd 22cd 293b b8fe f3bd ba79 763c
00000190: 47e2 5ebc 7b38 143d c6f2 3c3e 06ee 883e
000001a0: 931a 7e3c ed9e 69bd 0b19 a3bd e340 9abb
000001b0: 9a84 a03d 9c2b 18bd 474b c73d 7598 9a3d
000001c0: 389f 3abd 4283 0c3a bc25 903d cf3d 1abe
000001d0: 4a95 59be 924d f239 5536 1cbd fae8 d03d
000001e0: e930 b43c 5f9c a5bd 0886 ecbd cd61 60bd
000001f0: 94b0 343e 63f3 243d 03d0 db3d 449f e83d
00000200: d212 043e 383d 0f3c 06f5 ac3d 6533 84bd
00000210: b0a2 aa3d 47a5 4b3d 2b5e 443d 3286 b3bd
00000220: 1609 883d e25d 433c de68 b9bd 9318 30be
00000230: a315 71be d8b8 6a3d 938b 293e d074 da3c
00000240: 6d26 243d eca4 193c 92e6 0dbe db5b cdbd
00000250: bb06 463d cc5f 0d3e a495 98bd 2710 89be
00000260: 5516 a7bd 2803 0c3d e5e0 81bd f830 bebd
00000270: 6d86 ac3c 4378 6c3d 05b9 203d 9df3 acbd
00000280: 1430 14be b785 b8bd af97 1a3e e107 d8bd
00000290: dd7c 29be e62a 9bbd d403 f4bb 9e57 493c
000002a0: 4b13 57bd 938b 483d 4036 debd f7df b53d
000002b0: d600 96bd b205 92bd c76c d13d 012d 1c3d
000002c0: 9f3c babd d1e1 a23c d5a0 acbc 77c1 103d
000002d0: 97b3 59bd d2ca 66bd 01de 143e 167b fa3b
000002e0: e8ae 0e3e 9409 b3bb 3335 02be 2b8f 18bd
000002f0: 8098 30bd b0be bebd 2d75 51bd 50eb c53d
00000300: d5f6 85bd 56b5 cd3c 660b 913d c2b9 263e
00000310: eaa3 b43d 0837 8f3d aaa5 32bd 1caf 28be
00000320: d50c 1fbd 7ca8 12bc 0ee9 b1bd c703 0cbd
00000330: b398 95bd b137 18bd 28eb 19bd a785 54be
00000340: d0e4 be3c e02c 453e ff2b dc3c fb11 f9bd
00000350: 403d 883d e3e4 1b3c 664b 0d3e 4224 fdbd
00000360: 245c 0cbe e634 33bc 3ff3 68bd 9a35 bd3d
00000370: a7c9 613d 5cef 12be b4db 67be ca5f c93d
00000380: fbc7 443d 40ba 753d e7a8 47be 541f c3bd
00000390: 52ae 6cbe b872 f3bb cde9 d7bd 5401 7c3d
000003a0: f7c3 e23d deb8 cc3c d7e7 84bd d8e2 fabc
000003b0: cdfb fd3c f461 883d 46f3 63bd fa75 333d
000003c0: fbe0 e9bd 6903 213e 6e82 c0bd 81e2 893c
000003d0: f7f7 01bc f693 95bd fd83 28bd 6113 0b3e
000003e0: 12a4 8bbd 8711 cdbd c2f7 413d fdc5 da3c
000003f0: c657 d2b9 4ad8 963d e677 d3bd 9dba 3e3d
-0.052218746 0.07750105 -0.15958093 0.03293648 0.08543434 0.0668009 0.0557955 -0.012022481
-0.102917016 0.037108827 -0.10936532 -0.050955314 -0.17860967 -0.002601734 -0.06597914 -0.10155455
-0.06518416 -0.031846303 0.12165146 0.11583318 0.094835415 0.037111677 -0.09788205 0.034420487
0.08709649 0.09879063 0.061832782 0.117392845 0.06753548 0.21107635 0.19793907 -0.113277644
0.018741576 -0.047554404 0.07293312 -0.09000419 0.02099995 0.049803793 0.07079793 -0.20396966
-0.20304464 -0.0022319346 0.17401472 0.008036444 -0.14174642 -0.056689978 0.2099959 0.02019825
0.041387983 -0.081614375 -0.060888324 -0.07749546 0.05842968 -0.033324294 0.08463574 0.18724644
0.049755096 -0.03877561 -0.09259826 -0.08641726 0.036275852 0.03585679 0.04105688 0.086592
0.012043395 -0.08179531 0.24870649 0.28905025 -0.018307848 -0.040361866 -0.015564958 0.026842933
0.12825228 0.0022373192 -0.14874345 -0.16314606 0.10681595 -0.018372068 -0.058943562 0.13167304
-0.04177561 -0.07323257 0.0037407414 0.0030449184 -0.050735638 0.13152693 0.049438037 0.046875156
0.084163055 0.096253246 0.004520765 0.119390056 -0.05219897 -0.022765836 -0.046069235 -0.054496877
-0.037756104 0.0025909622 -0.11913818 0.01504367 -0.013603753 0.036186676 0.18451986 0.26744097
0.0155092655 -0.05703633 -0.07963761 -0.004707442 0.07837792 -0.037150964 0.09731155 0.0754861
-0.045562 0.0005360135 0.07038447 -0.1506264 -0.21248356 0.0004621563 -0.038137753 0.10200687
0.021995978 -0.08086466 -0.11549002 -0.05478077 0.17645484 0.040271174 0.107330345 0.113585025
0.12897804 0.008742623 0.08445172 -0.06455115 0.083318114 0.049718168 0.047941368 -0.0876583
0.06642358 0.011924239 -0.09053205 -0.17196874 -0.2354341 0.057305187 0.1655715 0.026667029
0.04007571 0.009377699 -0.13857487 -0.10027286 0.048346262 0.13806075 -0.07450417 -0.26770136
-0.08158556 0.034182698 -0.06341723 -0.09286684 0.021060193 0.057731878 0.03923895 -0.08444903
-0.14471465 -0.09009879 0.15096925 -0.10548378 -0.16551538 -0.075765416 -0.0074467454 0.012288956
-0.052508634 0.048961233 -0.10850191 0.088806085 -0.07324378 -0.071299925 0.10225826 0.038128857
-0.09093594 0.019883068 -0.021072784 0.035340752 -0.053149786 -0.05634577 0.14537813 0.0076440675
0.13933909 -0.0054637883 -0.12715606 -0.03724591 -0.043114185 -0.093137145 -0.05113714 0.09664023
-0.0654122 0.025110882 0.07082252 0.16281798 0.088203266 0.06992918 -0.04361502 -0.16473049
-0.038830597 -0.008951303 -0.0868703 -0.03418329 -0.07304516 -0.037162486 -0.037577778 -0.2075411
0.023302466 0.192554 0.026876448 -0.121616326 0.066523075 0.00951502 0.13798293 -0.12360431
-0.13707024 -0.010937905 -0.056872603 0.09238739 0.05512395 -0.14349121 -0.22642404 0.098327234
0.04804228 0.059992075 -0.19498025 -0.0952746 -0.23113373 -0.007429447 -0.10542641 0.061524704
0.110725336 0.024990495 -0.064895324 -0.030625746 0.031003857 0.06659308 -0.055651926 0.043813683
-0.11419865 0.15723957 -0.093998775 0.016831638 -0.007932655 -0.07303612 -0.0411415 0.13581611
-0.06818403 -0.10013109 0.04735542 0.026705736 -0.00040119718 0.073654726 -0.10325603 0.046564687

lstm.weight_hh_l0 f4 [256, 64]
00000000: d9ce 713d 29c1 38bd d96a 253e 2b16 bfbc
00000010: 2d5c 543d f549 453e f1bc bcbd f7f6 d5bc
00000020: 6770 063e 11ac 443e 099a b63d e336 f33c
00000030: ff57 483e 2ba5 c1bd cee8 013e 3ef1 493d
00000040: d06f 10bd 795b 8c3d 9c89 44bb 158b e43c
00000050: 6c7e efbc 00d5 cabd 3b0a b53b 4940 b5bc
00000060: 4d7f 293e ff99 67bd b028 1abe d192 5bbb
00000070: 1b8d b73d da6d 853d 1551 07be fe26 80bd
00000080: 211b 40bd 05d2 693c 62c6 983d ae7a f9bd
00000090: c454 0bbc 7085 033d 7219 84bd a0e6 ad3d
000000a0: 72eb 54bd afdd dbbc 5c9e 193d 46e2 f3bd
000000b0: dac2 5bbd 6809 35be d6b0 d6bd ff42 2cbe
000000c0: 24fa ac3d 0bab 903d 0192 a93d db23 a83d
000000d0: ab67 58be 3041 413b 3c48 673e 8aeb bcbd
000000e0: 9013 093d 1f58 ec3d 78b5 0ebe ba78 7cbd
000000f0: ec43 81bd ecd0 243e 6fd7 c53c d93a f33d
00000100: f3d5 433d a90c 92bd b0a4 803e afd4 bc3d
00000110: 02d5 fa3c 8998 e2bd 5675 0bbd 4dd7 86bd
00000120: eb1e a1bd 6a76 1abe 8029 e23d efff 963c
00000130: cd56 133c 4038 adbd 7edc 3cbe cab2 9d3d
00000140: 981d f13d cc67 3cbe 1b55 443e 5bf3 bb3d
00000150: 7754 493e 77e6 f3bd 4ca9 48be d76e 073d
00000160: 863a b53d 76e5 14be 9e9c 6e3d fca3 233e
00000170: d910 93bd dd28 6abe f581 1ebd ea4e 223e
00000180: d963 17be 222e bcbd 59d6 e43c 7534 a13d
00000190: 9fb2 793d 9199 8ebd 7db3 00be 5c13 bd3d
000001a0: ae68 3a3c fa84 2ebe f011 49bd 4010 2fbe
000001b0: 0483 bfbd b41e 15be b358 07be 3317 40bd
000001c0: f2e9 edbb 0cc7 51bc 38e7 863d 2292 d9ba
000001d0: 0c31 34be 5a94 ad3d b4d0 0bbd 093d 6b3e
000001e0: cbf8 9ebd 331a f23d bd7f 2ebe 60b3 b13d
000001f0: b451 f73c 7814 87bd 336e 9b3d 6513 e9bd
00000200: 8456 1c3e f1f3 6bbe 18ef 94bd 8563 373d
00000210: 429c 76bd 43e2 313d 0dd4 3ebc fbed dd3d
00000220: cfeb a43d b18a d5bd 3675 453d 80c7 933d
00000230: 3ce9 1c3e a609 29bd 03dc 98bd 0d5f b03d
00000240: 2581 0cbe 126a e7bc 0c09 563e e14b a53c
00000250: d1f1 a8bd 197e 233d ba84 cabc c8a5 533d
00000260: 8644 49bd fa36 0cbe 33c1 b8bd 6f9f 94bd
00000270: 1443 49bc aa98 313d 574c 26be 0f27 0dbe
00000280: 2a0b 453c 8bac a43c 26eb e63d 44fb 1abd
00000290: a1f3 5f3d 6873 c03d 6ed6 0dbd 0063 173e
000002a0: 2fe0 403e 0e69 7f3d c974 453d 57bf e4bc
000002b0: 8ecf 363d dbe1 053e 8e5b 09be 194d 3c3e
000002c0: 03b1 45bd 6708 88bb df87 913a 3a34 0bbe
000002d0: 4640 8eb9 2f91 40be 214d 2abc ca55 1dbe
000002e0: 0326 0bbe a61e 913c 8629 cc3d 27ed a73c
000002f0: 95ac 98bd 6339 88bb 2b18 c8bd fcd8 5c3e
00000300: b1da 7a3e e4ac 91be d052 0d3e 8b66 77be
00000310: b8cb dc3c 38fc 67be 1087 d0bd db39 92bd
00000320: 3a68 193e eaee 2abe 3fd6 713d f2c2 09bd
00000330: 3d17 c8bb fbd0 d1bc 5481 1fbc 0302 1e3e
00000340: 30bc 523d d7be 4a3b e144 3fbe f93b 393e
00000350: 5337 b6bd 0013 15be 2116 27be ef1c d23d
00000360: c51a 853d 714b e0bd 0202 25be 1f06 523e
00000370: 2c47 103e 65dd b5bd 732a 263e fcaa 53bc
00000380: 2b5f 373e b4d8 cc3b bac8 213c d1d4 883d
00000390: 7dcd bbbd b0e7 c5bd d186 f2bc 10f8 ac3d
000003a0: b1e1 373e 6445 0b3e cc50 953c 0d54 98be
000003b0: 8b22 993c 5a53 0f3e c066 2f3d 5b01 923e
000003c0: 657f 993d 310f 3fbe 5108 cdbd 8ed3 c43d
000003d0: 83dc 3bbd 082e d33d c002 843d db82 1d3d
000003e0: 8a55 ba3d 873c c33c acdb 98be a442 32be
000003f0: d95f b33d 3eeb 86be 1090 413e f0b4 4b3c
0.059035156 -0.045106087 0.1615404 -0.023326 0.05184572 0.19266494 -0.09215725 -0.026118739
0.13128816 0.19206263 0.089160986 0.029689258 0.19564818 -0.094553314 0.12686464 0.049302332
-0.035262883 0.068533845 -0.0029989248 0.02789835 -0.029235087 -0.09903908 0.005524901 -0.02212538
0.16552468 -0.056543346 -0.15054584 -0.0033504257 0.089624606 0.06515093 -0.13214524 -0.06257437
-0.046900872 0.014271264 0.074597135 -0.121816024 -0.008504096 0.032109678 -0.06450166 0.08491254
-0.05198235 -0.026839105 0.03750454 -0.119083926 -0.05365262 -0.1767937 -0.104829475 -0.16822432
0.08446148 0.07063874 0.08279801 0.08209964 -0.21133296 0.0029488318 0.22586149 -0.09224613
0.033465922 0.11540245 -0.13936412 -0.06163857 -0.06311783 0.16095322 0.024150578 0.11876459
0.04781146 -0.07131321 0.25125647 0.09220254 0.030619148 -0.1106425 -0.034047447 -0.06584034
-0.07867225 -0.15084234 0.11043072 0.018432586 0.008992863 -0.084579945 -0.18443486 0.07700117
0.11773223 -0.1839897 0.1917309 0.09177276 0.19661127 -0.11909192 -0.19595832 0.03306469
0.08849053 -0.14540657 0.05825483 0.15980524 -0.07180948 -0.2286715 -0.038698155 0.15850416
-0.14784183 -0.09188487 0.02793424 0.078713335 0.060961362 -0.06962884 -0.1256847 0.09232208
0.011377497 -0.17042914 -0.049089372 -0.17096043 -0.09351161 -0.14562494 -0.1321743 -0.046897124
-0.0072605545 -0.012803804 0.0658707 -0.0016599337 -0.17596835 0.084755614 -0.03413458 0.22972502
-0.07762297 0.11821403 -0.17040916 0.08676791 0.030190326 -0.06595701 0.07589378 -0.11380652
0.15267378 -0.23042275 -0.07272166 0.044772644 -0.060207613 0.04342867 -0.0116472365 0.10836407
0.080527894 -0.10426844 0.048207484 0.07215786 0.15323347 -0.041268967 -0.07463839 0.086118795
-0.1372114 -0.02824882 0.20901889 0.020177783 -0.08249248 0.039915178 -0.024721492 0.051671773
-0.049137615 -0.13692847 -0.09021225 -0.07256972 -0.012284059 0.043358482 -0.16240059 -0.13784431
0.0120265875 0.020101806 0.1127532 -0.03783728 0.054675702 0.09397012 -0.034628324 0.14783859
0.18835519 0.062356047 0.048207078 -0.02792327 0.044631533 0.13074438 -0.13413832 0.18388785
-0.048264515 -0.0041513923 0.0011103115 -0.13594142 -0.00027132238 -0.18805383 -0.0103943655 -0.15364757
-0.13588719 0.01771481 0.099688575 0.020498825 -0.074547924 -0.0041572317 -0.09770235 0.21567148
0.24497487 -0.28452218 0.13801122 -0.24160211 0.02695261 -0.22654808 -0.10182011 -0.07139941
0.14981166 -0.16692701 0.05904221 -0.03363318 -0.006106286 -0.025612345 -0.009735424 0.15430455
0.051449 0.0030936503 -0.18678619 0.18089284 -0.08897271 -0.14558029 -0.16317035 0.10259425
0.064992465 -0.10951889 -0.16114047 0.20510148 0.1408965 -0.08880118 0.1622713 -0.012919184
0.17907397 0.006251419 0.009874517 0.066812165 -0.09170053 -0.096633315 -0.029605301 0.08445752
0.17957188 0.13600689 0.018227004 -0.29751626 0.01869323 0.1399664 0.0428226 0.2851666
0.07495002 -0.18658139 -0.10011352 0.09610663 -0.045864593 0.10311514 0.06445837 0.03845487
0.090983465 0.023832573 -0.29855096 -0.17408234 0.08758516 -0.2635135 0.18902612 0.012433276

lstm.bias_ih_l0 f4 [256]
00000000: 15bf 35bd 5156 c4bd b64e bfbd 3f6a e4bd
00000010: 20d2 c4bd af52 163d a913 b53c d06a d73d
00000020: e790 183e a404 b4bd 1bb4 abbc f41a 803a
00000030: ebba 6ebd fcfc 7cbd e215 be3d 3a9b 13bd
00000040: 0a30 03be 5f3e 8e3c bc11 2dbd f537 80bb
00000050: 53f9 15bd 63f0 d73d 841a 03bd ec49 50bd
00000060: 1aea 483d 4358 1e3d 09b7 52be 1fd2 543d
00000070: 6baa 9e3d ccc3 15bd d46a 7c3d 95e5 973d
00000080: 8927 8f3d cc08 90bd 3ca5 edbc 3a9d ea3d
00000090: 9c86 293d e783 c9bd 8246 8abd 3d5a 31be
000000a0: 3730 a2bb a7a0 14bd f911 d13d f8ca ad3d
000000b0: e3f3 d83c c046 a9bd 8149 893d d8bc 513e
000000c0: d3d1 413d dac9 ccbd 38bb 3ebd 232b a3bd
000000d0: 5785 8cbc 3585 83bd 70ab 823d 65fd b4bd
000000e0: 948f 82be f2f1 3fbe 218c b73a a600 a0bd
000000f0: f8cf cbbc db62 90bc ce7b 1a3e 0955 c63d
00000100: e704 92bd d16a 4dbd f735 0bbd 83b0 31be
00000110: aa57 d93d fbf1 84bd 1b46 10bc 8ced 8ebd
00000120: 257a b6bd 9b58 a63b 3e96 8fba 8f69 373d
00000130: be26 03be 15e3 0ebe 6971 f4bc 5cbf 623d
00000140: 0053 55bd f838 94bd 7b56 3c3c 0fad e13d
00000150: 234c 013d 3062 923d b20d ee3d 5229 a03d
00000160: 571f 2e3d fa5b 823d 12a5 18bd 7e22 963d
00000170: 6b51 443d 6ef0 383e be8d 3cbd 39cf 303e
00000180: 3f53 0a3e fb8a f73c 5ccb 433b 8efa fa3d
00000190: 7e6c df3d 0f0b 5abe b578 3f3d 9941 4ebe
000001a0: 59cb 8f3c f674 093e f198 b93d 0471 8a3d
000001b0: d87e 023d 2c35 69bd d893 843d 0529 d93b
000001c0: 38aa 4fbc 29aa 093e acef bb3d 5396 9cbd
000001d0: 9181 fa3d 8f75 9b3c 7453 cabd bcba 1e3e
000001e0: 9639 88bc 8b73 d4bc ddc3 dcbc 3320 1bbe
000001f0: cb96 09be cf11 99bd 9f3b db3d 3036 a0bc
00000200: 5a03 1bbc f53b bdbd 66ff 8e3d 2482 523d
00000210: 0b2e 05bd 9b47 b73d 8445 103b 8474 f3ba
00000220: b900 38be 9289 28bd f7af e0bd 3620 94bd
00000230: fe88 66bc 7a7b 11bc 803d 9f3b 5072 5f3d
00000240: 8720 4a3d aa79 c13d da78 51bd f7a3 503e
00000250: b393 abbd 6bb4 643d 1e5e 053e e9e7 1f3e
00000260: 4c4a bb3c ce19 863d 924b 3c3e b67b 743d
00000270: d697 80ba 994d c5bd 9181 53bb ab72 01be
00000280: ba72 1f3e e367 cfbb de35 45bd 8ef3 03bd
00000290: eff5 c43d a9b3 c9bd de2c 66bd fcbc 0dbd
000002a0: 7c7b e93d c524 293d ab37 83be 0748 2fbd
000002b0: a62d c63c 65a9 b5bd 0333 9e3d 9c70 83bd
000002c0: a6c0 ba3c c4ca 253e 5b6e 5b3d 6393 1f3e
000002d0: e4db 293c c9e5 c63d 57b4 af3c 95d2 cbbd
000002e0: 0838 47bd fab1 053e 42e6 203e b5f1 683d
000002f0: 41c4 1bbd 4ab2 f33d 3ec6 8f3d ea28 acbd
00000300: 893e 813d dcc4 d9bb e1f9 71ba e8ab b73d
00000310: fb66 b9bb da76 79bd c037 36be 3076 cd3d
00000320: cf3c c2bd ee98 16bd 94f2 51bd 5236 063c
00000330: dedc 733b d350 b9ba 4d2a 22be 5b26 8f3c
00000340: e416 d6bd ff5a 883b 912f 19be 954b 913d
00000350: 002b fdbd ec1b a0bd a246 293c c5a4 39bc
00000360: 3d49 10be 4991 aa3d 57ba f23d a8b2 9e3c
00000370: 52ce ad3d fb82 2bbc b6d2 323c 7417 d0bd
00000380: f7f0 15bc 6715 97bc 6146 56bd a0c0 d3bd
00000390: 2645 003d 2ec6 d8bd e773 1c3d e150 59bd
000003a0: c96b 3cba 50aa 313e d4ac ad3d cf72 eb3d
000003b0: f9ff 913d d747 7dbd 356e ccbd 4fe4 63bc
000003c0: 97c2 93bd 87c8 cdbd 11be 03be 8b99 fc3d
000003d0: 49fb c23d ea01 383c 9007 86bd 2c9d 90bd
000003e0: a9b9 acbd 891e 0c3d c19b 28be dc44 eb3d
000003f0: f7fd ae3d 7db9 a9bd 9bbf c33c a907 f0bd
-0.044371683 -0.09586776 -0.09341185 -0.11153077 -0.09610391 0.036699947 0.022104101 0.1051842
0.14899026 -0.08789948 -0.020959904 0.0009773658 -0.058283728 -0.061764702 0.092815176 -0.036036707
-0.12811294 0.017363725 -0.04225324 -0.0039129206 -0.036614727 0.10543897 -0.03200771 -0.050851747
0.04905138 0.03865839 -0.20577635 0.0519582 0.077473484 -0.03656368 0.061625317 0.07416836
0.069899626 -0.07032928 -0.029009454 0.1145577 0.04138814 -0.098396115 -0.067517295 -0.1731958
-0.0049495953 -0.036286023 0.10208506 0.08485979 0.026483482 -0.082654476 0.06703473 0.20482194
0.047319245 -0.09999438 -0.046565264 -0.07967212 -0.017153425 -0.064218916 0.06380355 -0.08837394
-0.25500166 -0.18744639 0.0014003554 -0.07812624 -0.02487944 -0.017625263 0.1508629 0.09684188
-0.07129841 -0.050150696 -0.03398701 -0.1735249 0.10612424 -0.064914666 -0.008805777 -0.06978902
-0.08910016 0.0050764806 -0.001095481 0.044778403 -0.12807748 -0.13953812 -0.029839234 0.055358276
-0.052081108 -0.072374284 0.011495228 0.110193364 0.03156675 0.07147634 0.11623706 0.07820381
0.042510357 0.063651994 -0.0372668 0.073307976 0.04792921 0.18060467 -0.046033613 0.17266549
0.13508318 0.030217638 0.002987585 0.12254821 0.10909365 -0.21293281 0.046745975 -0.20142211
0.017553018 0.13423523 0.090623744 0.06759837 0.03185925 -0.056935474 0.064735115 0.0066272044
-0.012674861 0.13443817 0.09176573 -0.076458596 0.12231744 0.018976955 -0.09879199 0.15500921
-0.016629022 -0.025934001 -0.026948864 -0.15149002 -0.13436429 -0.074741 0.10704731 -0.019557089
-0.009461248 -0.092399515 0.06982307 0.051393643 -0.032514613 0.089492045 0.002201409 -0.0018574153
-0.17969026 -0.041146822 -0.10971063 -0.07232706 -0.014070747 -0.008879537 0.0048596263 0.054552376
0.049347427 0.09447034 -0.051140644 0.20375048 -0.08377781 0.055836122 0.13024184 0.1561581
0.022862576 0.065478906 0.18388203 0.059688292 -0.0009810876 -0.09633941 -0.0032273273 -0.12641399
0.15571108 -0.006329523 -0.048147075 -0.032214694 0.096172206 -0.098487206 -0.056195132 -0.034604058
0.11400506 0.04129483 -0.2562841 -0.0427933 0.024191689 -0.088702 0.077245735 -0.06417963
0.02279694 0.1619063 0.05357204 0.15583567 0.010367367 0.09711797 0.021448297 -0.09952275
-0.04863742 0.13056174 0.15712836 0.056871135 -0.03802896 0.1189924 0.070202336 -0.08406241
0.06310756 -0.006645782 -0.0009230655 0.089683354 -0.005658028 -0.06090436 -0.17794704 0.10032308
-0.094842546 -0.03676694 -0.05125673 0.008191662 0.0037210505 -0.0014138467 -0.15836449 0.017474344
-0.10453585 0.004161238 -0.14959551 0.07094494 -0.12361717 -0.07817826 0.010331782 -0.011330788
-0.14090438 0.08328492 0.11851948 0.0193723 0.08486618 -0.01046824 0.010914495 -0.10160723
-0.009151689 -0.018442823 -0.052313212 -0.10339475 0.031315945 -0.10584675 0.03819647 -0.053055648
-0.0007187692 0.17350125 0.0848023 0.114965074 0.07128901 -0.06183609 -0.09981958 -0.0139094135
-0.072148494 -0.10048013 -0.12865473 0.123339735 0.09520585 0.011230925 -0.06544411 -0.07061228
-0.08433849 0.034208808 -0.16465665 0.11487743 0.08544534 -0.08287332 0.023895076 -0.11720211

lstm.bias_hh_l0 f4 [256]
00000000: 21b5 14be b7c3 3fbd 6f7b 80bd 4a0e 7cbe
00000010: b60c 11be 60d9 c1bd 11ba eabc 9c6c 0f3e
00000020: b354 0d3e d1aa b13d 8c8e c03d 3cb8 babb
00000030: 9ddd 943d 0460 25bc 2691 e23d 1901 823d
00000040: 86ad 0d3d d752 e1bd b165 11be 2f07 b93d
00000050: a47b 173c 52cc 1c3e 1bf6 833d bb98 8bbd
00000060: a4a1 ebbd 23a0 10bc 2140 18bd bbee 9cbd
00000070: 45d8 7fbd d03a 3f3c 70a9 bd3c dab3 52bd
00000080: 1ddd 13be f440 b9bd 28c8 c3bd 2ee9 503d
00000090: 9aa8 7cbd 54c5 1abd eccb 203d 6835 55b9
000000a0: 88c3 e4bd e002 b23d 954c ce3d 6cbf 02be
000000b0: 7df8 b33d 5a2f aabd 4cc4 3c3c 7142 bc3d
000000c0: 360b 383e 1f90 01bd 8b38 4cbe 27b4 11be
000000d0: 703e 1c3c 0ecc a43d bdf4 4b3d 323c 43bd
000000e0: def8 94bd 3ab1 2fbe 64f3 1a3d 423c 7d3d
000000f0: afa2 693c 1d9a 2c3e 8c06 36bd 6818 a23d
00000100: 147a b0bb 1143 5d3d 528e 16be 8428 e0bc
00000110: de3e 4ebc 3ae1 e6bd 3a9c 72bd e492 8fbd
00000120: 7a7f 2bbe 3c3e b43d a558 79bd 1205 a8bd
00000130: ab8e e93c d689 d0bc 136f 86bd e17c 233d
00000140: 48e4 4dbb 3321 9a3d 8709 2f3d a4a9 033d
00000150: e253 f2bd 7acd 34bd 704d 033e efdb 7fbd
00000160: f086 bd3d 92ad 133e b486 f8bd 475a 883b
00000170: 9151 a43d bf1f 193e a898 993d 4ff5 b23d
00000180: 8db2 a1bd 2583 3eba 9c5f e33d a197 1abd
00000190: ab78 273e 3b7f f9bd 6e3d 873d 6949 98bd
000001a0: 2d31 d13c e8bb 8fbd 6bb1 9dbc 20da f63d
000001b0: bda1 783d 1a12 8d3d 6c74 d1bc 58a8 073e
000001c0: e527 1a3d acf7 593e 988c c33d ed07 943c
000001d0: 5923 b83d 0055 f53b 5f5d 71bc 3ca4 da3d
000001e0: cd76 23bd 9868 bfbc 306b 5a3c d3cb fdbc
000001f0: 9046 913c 25ba bd3c 284a 023d 8b5e 81bd
00000200: 5994 ae3d c721 b83d d2a6 31be f2c1 4fbc
00000210: e9c9 1a3e c3a5 95bd bcef 083c 6361 0f3e
00000220: 3fab 3fbe d8b2 5fbd 8890 933d fc7e 8b3d
00000230: 1e99 55be 2fdf 16bd 67b1 64bc 6d58 8cbd
00000240: 9150 71bc d56a 393e c791 0a3d a98b 313c
00000250: ffb2 ddbb f6d4 7dbd 5c39 593e f605 e93d
00000260: d568 a33d 20c0 023e 7740 ad3c 82c2 a2bd
00000270: b152 5fbd 88f6 89bc 65e5 9cbb 4f0a 0d39
00000280: 8035 a73d e9f4 e23d e98d e3bd 4ed5 323d
00000290: 0a3c 043d b597 47bc eb98 0dbe 6fd5 a23d
000002a0: a22e 2abd 9c79 033d e445 fabd 3db8 0e3e
000002b0: 9d0c 87bd 7975 113e e254 8c3d f52d e8bc
000002c0: 96a1 9e3d f302 1b3d 8c1f 9e3d 034b 513d
000002d0: 1b99 263e fb67 a4bc 634d 343c e9e4 0fbe
000002e0: 86cf dabd 078d 433e ad99 27bd 9fc5 043d
000002f0: c95a e2bd 93f6 4d3d bf85 d83d 420d ebbd
00000300: 39c0 0c3e 68aa d73d 8e1a 54bd 10a1 53bd
00000310: 03b1 103e 38b1 a9bd 04f7 c5bb 4a91 8bbd
00000320: 5ed4 07be aa80 b53d e8b3 093e 0c9f b2bc
00000330: 2c0f 903b a8d2 963d 0c55 00bd 7e74 953c
00000340: 9290 903d c322 c53d 0ec3 853c 8a58 1bbe
00000350: 4eed a73d 0ef1 7dbd 07c2 f33d 3e55 06bc
00000360: 7997 123d 3fe1 293d 2b31 e73d aaff fabd
00000370: 9206 113e 3a0b d43d 714b 28be 6c36 0a3e
00000380: cab1 433d 1541 953d 99c2 883c 4c52 43bd
00000390: 2b3b 09bd 48ce a43d 35ea 093c 6a7d 0bbd
000003a0: 597f 84bd f4d9 133e 351c 003e 3e78 573c
000003b0: 72a7 993c 0708 43bb 649c 68bd dfbd 033e
000003c0: 1286 763c 67f6 d63a a9d6 c53d b4e9 45bc
000003d0: 9bc4 1abd 0f7a 2d3d 82e3 85bd ce5a a33d
000003e0: f0db 2fbd 814e 2ebd e7ca 1bbb 3146 0a3d
000003f0: fc1d 0b3e 34df 8abc ec10 9a3c dfc7 b53d
-0.1452222 -0.046817508 -0.06273543 -0.24614826 -0.14165005 -0.09465289 -0.028653177 0.14006275
0.13801841 0.08675159 0.09402189 -0.005698232 0.07268832 -0.010093693 0.11062841 0.063478656
0.034589313 -0.110021286 -0.14198948 0.09034573 0.009245787 0.15312317 0.06443425 -0.068162404
-0.1150544 -0.008827242 -0.037170533 -0.07662722 -0.06246211 0.011671737 0.023152083 -0.05144105
-0.14439817 -0.09045592 -0.09559661 0.051003627 -0.06168423 -0.037785843 0.039256975 -0.00020333158
-0.11170107 0.086919546 0.100732006 -0.12768334 0.0878763 -0.08309813 0.01152141 0.0919236
0.17973027 -0.031631585 -0.19943444 -0.14228879 0.009536371 0.08046733 0.049793947 -0.04766483
-0.0727403 -0.1715745 0.03782977 0.061825044 0.014259978 0.16855665 -0.044439837 0.079148114
-0.0053856466 0.054019038 -0.14702728 -0.02736307 -0.012588231 -0.11273427 -0.05923102 -0.07010439
-0.16747847 0.08800933 -0.060875554 -0.08204092 0.028510412 -0.02545635 -0.065641545 0.039914016
-0.0031416584 0.075258635 0.042733695 0.032144204 -0.118324056 -0.04414127 0.12822509 -0.062465604
0.09254253 0.1442168 -0.121350676 0.0041611525 0.0802337 0.14953516 0.0749982 0.08738195
-0.07895384 -0.0007267467 0.111022204 -0.03774226 0.16354625 -0.121824704 0.06603514 -0.07435877
0.025536144 -0.07018262 -0.019249639 0.12053323 0.06070112 0.06888218 -0.02556821 0.13247812
0.037635703 0.21285886 0.095483005 0.018070186 0.08991117 0.0074869394 -0.014731734 0.106758565
-0.03990822 -0.023365304 0.01333122 -0.03098098 0.017733842 0.02316005 0.031809002 -0.06316861
0.08524389 0.089908175 -0.17348793 -0.0126805175 0.15116085 -0.07307007 0.008357938 0.14001994
-0.18717669 -0.054613918 0.072053015 0.0681133 -0.20859191 -0.03683394 -0.013958312 -0.068528034
-0.014728681 0.1810716 0.03383043 0.01083652 -0.0067657228 -0.061970674 0.21213287 0.1137809
0.079789795 0.12768602 0.021148903 -0.07947256 -0.05452222 -0.016841188 -0.004788088 0.00013450648
0.08164501 0.11081869 -0.111110516 0.043660454 0.03228382 -0.012182166 -0.13827865 0.079508655
-0.04154838 0.032098398 -0.12220362 0.13937469 -0.06594203 0.14204969 0.068521276 -0.028342227
0.07745664 0.03784461 0.07720861 0.051096927 0.16269343 -0.020069113 0.011004779 -0.14052166
-0.10684113 0.19096766 -0.04091804 0.03241503 -0.11052472 0.05028398 0.10572385 -0.11477138
0.13745202 0.10530549 -0.051783137 -0.051667273 0.14130025 -0.08285755 -0.0060414094 -0.06814821
-0.13264605 0.08862431 0.13447535 -0.021804355 0.00439634 0.07364398 -0.031331107 0.018244024
0.070588246 0.09625771 0.01632836 -0.15170494 0.08199559 -0.061997466 0.11902242 -0.008199034
0.035788987 0.041474577 0.11288675 -0.12255795 0.14162663 0.10353704 -0.16435029 0.13497323
0.047776975 0.07287804 0.016694354 -0.047685906 -0.033503693 0.080471575 0.008417656 -0.03405515
-0.06469602 0.14438611 0.1251076 0.013151227 0.018756602 -0.0029759423 -0.05678977 0.12865399
0.015046613 0.0016400338 0.09660084 -0.012079645 -0.037785154 0.042352732 -0.06537534 0.07976304
-0.042934358 -0.042555336 -0.0023772062 0.033758346 0.13585657 -0.016952135 0.018806897 0.08876013

lstm.weight_ih_l1 f4 [256, 64]
00000000: 562c ecbd 6162 56be 2fe5 b5bc 429f 34be
00000010: e5c5 babd 0283 e43d c5d1 c33c 2231 463d
00000020: 48eb 343d b8d5 71bd 3a8c 2c3d 5ee8 ecbd
00000030: 22ec cc3d 491b 15bd adeb b0bd 4772 04be
00000040: f5b2 4abd 2590 80bd d512 d23d e67d dcbc
00000050: 90a9 29bd 8d6b 033e fea4 353c 785a 2bbe
00000060: 56e6 68bd c99d a4bc 6460 70be 6ea8 7b3d
00000070: 515a 07bc c27b 1dbd 99b5 0ebe c709 1dbe
00000080: a4dc 3cbd bc76 d6bd 577f b33c b65c 63bd
00000090: ed12 dabd ab8b 2fbd 0529 5dbd 38b4 ca3d
000000a0: 226e 56bb 4130 323d 2968 a3bd c1eb 183d
000000b0: 34cd fabd bcc5 c0bc b114 45bd 6e82 27be
000000c0: f256 f4bc fc44 933d d0b5 a8bd 2d3f 97bd
000000d0: 4eee 993d 0fc3 013e 6efa 303d e19b 973d
000000e0: 3eeb 713d ec8c d23b fd51 00bd 50dc 343d
000000f0: 8101 c7bd 9acd 8c3d 6b1c 7a3d 43e1 293e
00000100: b246 9fbd fd92 133c bca3 7f3d 8023 be3c
00000110: 3597 c33a ea71 f03d a9df c33d beae 893b
00000120: d750 f83c fb12 1c3e 251c b33d f884 2d3c
00000130: fc60 b5bd a198 9abd 4af0 39bc 8254 a6bc
00000140: 3887 983d 8455 a43d 5aa0 243e 7e02 d73d
00000150: 2432 2abe 443c 2b3e da89 503d 3fb2 e13c
00000160: 33af 333c ed84 de3c 2512 46bc be84 c63d
00000170: 2ec6 153e 5f81 3c3e 37c4 b63d 3bb1 3bbd
00000180: 8745 01be abd6 d9bc ade7 bf3b 62e3 e03c
00000190: d110 3a3d cc8a 0f3e 71c7 b2bd 0386 17be
000001a0: 86dc f2bd 90e4 1cbe 5516 f6bc fb68 8b3d
000001b0: bd53 0d3d f7ac 26bd 2a39 b6bd 9bda 2ebe
000001c0: 96aa c2bc d054 843e 2425 08be 1e8c e13c
000001d0: 00ca 0bbd f84e 2fbc 7c5a 113e 5ddc 51bd
000001e0: 1586 ca3d 3c68 c1bc f4e6 2bbd 5433 04be
000001f0: 7985 be3d eb54 17bd db25 20bc 64db 813d
00000200: 4be0 e0bd 9477 b73d ed6a 313e 7d21 cbbc
00000210: cc16 493d 28ca 16bd 19f7 743d a302 02be
00000220: 1e62 7ebd 057d 5cbd 2ba4 2cbd 644f afbd
00000230: bea6 883d b02c 8c3d 9493 02bc 2066 1c3c
00000240: 9f3c 673d c295 ffbb e03f 0dbe 8d72 22be
00000250: b116 b5bc 1105 f4bd 6e90 f03d 2bc9 d7bc
00000260: e241 cfbc 0e11 edbd f4f4 edbd fbea 0fbd
00000270: e237 b8bd 2556 00bb e3d4 19be d16f de3c
00000280: ce22 be3d 0386 1b3d a34e 003c 3b97 bb3c
00000290: 583b 9dbd 5949 a43d adfd 12bd 3ad6 fb3d
000002a0: 6056 2dbe 8b82 43bd 25b4 c8bd effd 45bc
000002b0: 1bc8 5c3d 968b 16be 2b56 01bd bd1d 173c
000002c0: 1fc0 cebd 4c31 303d df60 b53c eb93 8bbd
000002d0: 9b5d 55bd 33cb 8ebe e4af 183c 9b8c df3c
000002e0: fec0 a4bd 3c45 6b3d c601 adbd f4d4 3fbd
000002f0: c1f1 a9bc 24ff 1f3e 28f1 b63b 8ae2 113d
00000300: c70e 49bc 77ff babd fc93 5c3d 4807 17be
00000310: f750 e93d f12f cb3d 419c c53d 5dc7 05be
00000320: 5963 9bbb 2cce d8bd 1ed6 513d 2eb8 3b3b
00000330: 1fe8 313e f907 d1bd 2726 ea3d 3753 46bd
00000340: 36bd 39be fa32 c2bd f648 af3e b946 483d
00000350: 01f4 b93c 6403 bdbc 528b 4d3d 3e87 9b3d
00000360: 5127 2b3d a8d0 c7bc 6697 33bd c582 0ebe
00000370: 4d05 113e 4aac fb3c 521b 1cbe 651d ddbc
00000380: 571d 293d db7d 32be 680f 53bd c22d 033e
00000390: 997f 973d 1cbf 043d 652e 7f3d 7729 703d
000003a0: 4266 67bc 8521 f43d d8ab 7abd 501d 49bd
000003b0: 37de 37bd 8603 833d 0eb1 033d 23c4 adbd
000003c0: 1f21 cf3d 2b1a b4bd 8295 0c3e 230e 2c3d
000003d0: 19d0 093e 3195 a5bd e95f 303d cea9 a13d
000003e0: 6fed 93bc daaf 20be a1b2 09bc 000d 05bb
000003f0: 5a7f 0ebc 44d6 763d 61ec 393e 36f7 c93d
-0.11531894 -0.20935966 -0.02220401 -0.17638877 -0.09119777 0.111578 0.023903737 0.0483867
0.044169694 -0.05904171 0.042125918 -0.11567758 0.10005976 -0.036402974 -0.086387016 -0.12934218
-0.049487073 -0.062774934 0.10257498 -0.026915502 -0.041421473 0.12833996 0.0110867005 -0.1673373
-0.05686029 -0.02009477 -0.2347427 0.061439924 -0.008261279 -0.038448103 -0.13936462 -0.15335761
-0.046108857 -0.104718655 0.021911306 -0.055508338 -0.10648141 -0.042857807 -0.053994197 0.09897655
-0.0032719453 0.04350305 -0.07978851 0.037334207 -0.12246171 -0.023531787 -0.048115436 -0.16358349
-0.029826615 0.07190892 -0.08237803 -0.07385097 0.07516156 0.12672065 0.04320758 0.074027784
0.059062235 0.0064254906 -0.03132819 0.04415542 -0.09717084 0.06875153 0.061062258 0.16589837
-0.07777156 0.009007213 0.06241201 0.023210287 0.0014922383 0.117404774 0.09564144 0.004201739
0.030311985 0.15241615 0.087456025 0.010590784 -0.08856389 -0.07548643 -0.011348793 -0.020303968
0.07447666 0.08024123 0.16076794 0.10498522 -0.1662069 0.16722208 0.050912715 0.027550815
0.010967064 0.027162993 -0.012089287 0.09693287 0.14626381 0.18408726 0.08924144 -0.045823317
-0.12624179 -0.02659162 0.0058564753 0.027452175 0.045426194 0.1401779 -0.08729447 -0.14797215
-0.11858468 -0.15321565 -0.030039946 0.06807133 0.034503687 -0.040692296 -0.08897622 -0.17075579
-0.023762982 0.25845957 -0.13295418 0.027532633 -0.03412819 -0.01069998 0.14194673 -0.051235545
0.09888855 -0.023609273 -0.0419683 -0.12910205 0.09302802 -0.03694622 -0.00977465 0.063406736
-0.109802805 0.089583546 0.17325945 -0.024796242 0.049094006 -0.036813885 0.059805963 -0.12696318
-0.06210529 -0.053830165 -0.04214875 -0.085600644 0.066724285 0.06844461 -0.007969756 0.009545833
0.056454297 -0.007799835 -0.13793898 -0.1586401 -0.022105547 -0.11915029 0.11746298 -0.026341042
-0.02529997 -0.115755185 -0.11618987 -0.035136204 -0.08995034 -0.0019582596 -0.15022616 0.027152928
0.09283982 0.0379696 0.007831248 0.02289926 -0.076773345 0.080218025 -0.035886455 0.1229672
-0.1692748 -0.047731917 -0.09799985 -0.012084468 0.053901773 -0.14701685 -0.031576317 0.009223399
-0.10095238 0.043015763 0.022140918 -0.068153225 -0.052091222 -0.27889404 0.009319279 0.027288726
-0.08044623 0.057439074 -0.08447604 -0.046833947 -0.02074516 0.15624672 0.0055829473 0.035616435
-0.01227159 -0.09130757 0.053852066 -0.14748871 0.11392396 0.099212535 0.09648944 -0.13064332
-0.004742068 -0.10586199 0.05122959 0.0028643715 0.17373703 -0.10206599 0.11433058 -0.048419204
-0.18138584 -0.09482379 0.34235352 0.04889557 0.022699358 -0.023072906 0.050181694 0.07594155
0.041785542 -0.024391487 -0.043845557 -0.13917072 0.14162178 0.030721802 -0.15244797 -0.026991555
0.041287746 -0.17430823 -0.051528364 0.12810424 0.07397384 0.03240882 0.062300105 0.058633294
-0.014123501 0.11920456 -0.06119904 -0.04910022 -0.044889655 0.063971564 0.032151274 -0.08484676
0.10113739 -0.08794054 0.13728908 0.04200567 0.13458289 -0.08085097 0.043060217 0.07893716
-0.018057553 -0.15692082 -0.008404405 -0.0020301938 -0.008697355 0.060262933 0.18156578 0.09861605

lstm.weight_hh_l1 f4 [256, 64]
00000000: 9db3 37bd 219f 3dbd 20d7 b13d 4c97 fbbc
00000010: d708 c33d af0c 8ebe 68f5 9d3d 5994 43bc
00000020: bffe e33d 27a3 ca3d 03ca e43c 7394 ce3d
00000030: 7f5c 9cbd 849d 35be b2d1 7bbd 606f 21be
00000040: 63e8 86bd 4b63 7bbc e3c0 65bc 1fdf d0bd
00000050: 84e6 423d 0dee 603d 4910 c13d 22c8 be3c
00000060: eb1a 413e 67b0 b5bd 6ace 1ebd 901b bc3d
00000070: 7749 15be 5bb8 3f3d 873a ac3d ab70 ca3d
00000080: 6c0c 5f3c 80db 203c 4ffe 263c d507 843d
00000090: 9e1a 783d 61ac 453d 00d7 bb3d 3192 0ebd
000000a0: 0fb9 e5bb 42b5 2c3e 4c20 ddbc 7c76 003d
000000b0: f2b4 163d 393b 1d3c 9d11 0a3e 11b1 07be
000000c0: b76b bcbd d0f2 263e e9da 123e e30b e63d
000000d0: 840b 29be c0b1 f6bc 7012 5a3d 132e b0bd
000000e0: 08c8 2fbe 7d15 c5bd b77c 183c 192e d9bd
000000f0: d244 80bd 6938 69bd 3a49 e03d b867 5d3e
00000100: 02a2 223d cfd6 173d 8ddc 0c3e d26a b3bd
00000110: 39f8 063c 6aa9 b2bd 6379 eabd 33b9 ba3c
00000120: 70e1 3abd 8f9c 34be 71ec c83d ec25 2bbe
00000130: 47f4 9b3d 37ee c6bc d394 72be 1076 9bbd
00000140: c484 073e 6590 ac3c ec71 893d f807 08be
00000150: 34af 06be a9a2 173d 382a f9bc e3d6 3bbc
00000160: 3a98 c2bd f8b7 b03c b32f 853d 1960 fcbd
00000170: 9d9d 283c 8c07 7ebc 5ae5 92bd 3d4a fcbb
00000180: f1b0 073d 62e8 a63d 2f2a 20be e9f1 69bd
00000190: 0553 24bd f53f a1bd 7bee 9bbd 51a4 51be
000001a0: 0ae6 d1bd f969 51be 7ce5 1b3d fcff 55be
000001b0: 5f4c 6dbd 7efa e8bd b60c 62bd dc9e 2d3d
000001c0: c8a6 68be 2c8d acbd 98c3 e43d f1f2 afbd
000001d0: 74d6 193e 0ae9 27b9 a0b8 d53d e04e a53d
000001e0: 0ca3 ee3d 76d0 233b a98b 97bc 29e8 b03d
000001f0: 1b82 70bd 4fbc 833d 3996 b7bc fec6 30be
00000200: 50ad bf3d d442 5c3c 8ad6 e83c 3658 f5ba
00000210: 23aa 733d 023a 3cbe 4fae 51bc a82d ae3c
00000220: 7563 163d 7208 b7bd be98 e53c 747e 88bd
00000230: aea8 5cbc 84da 353d ef71 8dbb f3b5 d03d
00000240: 02b7 bd3d 3831 603d 015c 403d 31eb c33d
00000250: 4c17 b33c 87f2 78bd c1d5 4e3d e016 0e3d
00000260: 3beb 52bd 66e2 d53d 3d0f 393e 9f84 45bd
00000270: 582a a7bd 4526 b4bd f258 a93d ca68 6cbd
00000280: 700a a93d 580b 14be 36e5 9bbd 8bc4 623e
00000290: 095d b73d a372 81bd 5fbd bd3d 1de1 42be
000002a0: 9d8e f03d e04d 41be dc92 e53d 86ee f2bc
000002b0: 0d3a 313e 8127 cabd 7481 e13c 1667 aa3d
000002c0: 662f f6bc 696d bdbd 61dc a83d 4a16 57bd
000002d0: f4ac b53d 6ddf 0ebc e923 123c a7b7 5bbd
000002e0: e701 b1bd 0937 843d 5d01 583d a7c9 babd
000002f0: 0292 bcbd cc9d c6bd 7af7 9cbc ce75 19bb
00000300: cc1d 83bd bba7 2ebe 5f08 4d3d 5684 2fbd
00000310: de30 d4bd 1c81 c4bc 3901 4cbd 19a0 9bbd
00000320: 9b9b 453e 1fd4 8fbc 7cda 093e 0a97 9e3d
00000330: 087e 82bd 99bc 3fbe 6930 313e 1aa3 2ebe
00000340: a760 d73d 177e bfbd 99c1 a8bc 84bc 7b3d
00000350: ef6c ff3d ac91 8d3d e663 323e 253b cdbd
00000360: fc37 7d3d 0466 093e 060e 473e 9497 35bd
00000370: 2b60 c2bd 257c 21bd 0305 d5bc 6675 ed3d
00000380: 4397 00bc 887b b93d 7727 78bd b4a3 1a3e
00000390: 29a7 073e 70cc 783e aee3 4c3e f130 bebd
000003a0: c0bf c83c 8465 a4bd dadf 51bd 61be 00bc
000003b0: a478 013e e955 0c3d cbbb 543e c5f9 1dbe
000003c0: aa80 82bd ab43 4abc 9048 903d 6c39 f93c
000003d0: 6d09 43be d7b1 5b3d 26d4 27bc b62b 253b
000003e0: e95f 4ebe 1e91 47bc 78c8 303d 1819 25be
000003f0: 3f78 52be 3c2e 09bd f600 843c e7cb 813d
-0.044849027 -0.046294335 0.0868361 -0.030711792 0.095231704 -0.27744052 0.07712823 -0.011937224
0.11132573 0.098944 0.027928358 0.10086908 -0.0763483 -0.17735869 -0.061479278 -0.15765142
-0.06587293 -0.0153434975 -0.014023039 -0.10198807 0.047583118 0.054914523 0.09426934 0.02328879
0.18857925 -0.08871537 -0.03877107 0.09184945 -0.14578806 0.046806674 0.08409601 0.09884771
0.013613801 0.009817958 0.010192468 0.06446806 0.06057226 0.048260096 0.09171867 -0.034807388
-0.007010586 0.1686602 -0.02699294 0.031362996 0.036793657 0.009596639 0.13483281 -0.13251139
-0.092002325 0.16303563 0.1434132 0.11232736 -0.16508299 -0.030114055 0.05324024 -0.08602538
-0.1716615 -0.09623239 0.009307078 -0.106044956 -0.062631264 -0.056938563 0.10951467 0.21621597
0.039705284 0.03707009 0.13756008 -0.08760609 0.008237892 -0.087237194 -0.11448934 0.022793388
-0.04562515 -0.17637847 0.098107226 -0.16713685 0.076149516 -0.024283512 -0.23689584 -0.07590878
0.1323424 0.021064946 0.06711182 -0.1328429 -0.13152772 0.03702036 -0.03041564 -0.011464807
-0.09501691 0.021572098 0.065032385 -0.12323017 0.010291484 -0.015504729 -0.071726516 -0.0076992796
0.03312773 0.08149792 -0.15641092 -0.05711547 -0.040118236 -0.07873527 -0.07613846 -0.20472838
-0.102489546 -0.20450582 0.03806065 -0.20898432 -0.05793416 -0.113759026 -0.055187903 0.04238783
-0.22719872 -0.08425364 0.11170119 -0.08591259 0.15023214 -0.00016013175 0.10435605 0.08071685
0.116521925 0.0024996079 -0.018499212 0.08638031 -0.05871783 0.064324014 -0.022410499 -0.1726341
0.093592286 0.013443667 0.028422613 -0.0018718306 0.059488427 -0.18381503 -0.012797906 0.021262005
0.036715943 -0.08937158 0.028026935 -0.06664744 -0.013467951 0.044397846 -0.0043165605 0.10190954
0.092634216 0.05473444 0.04696274 0.095663436 0.021861695 -0.060778167 0.05049682 0.034689784
-0.051493865 0.10443573 0.18072219 -0.04822218 -0.08162373 -0.08796362 0.08268918 -0.057717122
0.08253944 -0.14457452 -0.07612078 0.22145288 0.08953292 -0.06320693 0.09264635 -0.19031186
0.11745951 -0.18877363 0.11209652 -0.029654752 0.17307301 -0.09870816 0.027527548 0.08320443
-0.030051898 -0.09249384 0.08245159 -0.05251149 0.08870879 -0.008720261 0.008919694 -0.05364194
-0.08642941 0.064558096 0.052735675 -0.091204934 -0.09207536 -0.09698066 -0.019160975 -0.0023416164
-0.06402168 -0.17056172 0.05005681 -0.042850815 -0.10360883 -0.023987345 -0.049805854 -0.075988956
0.1929764 -0.017557202 0.13462251 0.07743652 -0.06371695 -0.18724288 0.17303623 -0.17054406
0.10516482 -0.093502216 -0.020600127 0.06145908 0.12471949 0.0691255 0.1742092 -0.100210465
0.06182097 0.13417822 0.19438943 -0.04433401 -0.09490999 -0.039425034 -0.026003366 0.115946576
-0.007848564 0.09056765 -0.06058451 0.1510151 0.1324736 0.24296737 0.20008728 -0.092866786
0.024505496 -0.08027175 -0.051238872 -0.00785789 0.12643677 0.034261618 0.20774762 -0.15427311
-0.06372197 -0.012345235 0.0704509 0.030422889 -0.19046564 0.0536364 -0.010243451 0.0025203056
-0.20153774 -0.012180595 0.043159932 -0.16122854 -0.20553683 -0.03349136 0.01611374 0.063377194

lstm.bias_ih_l1 f4 [256]
00000000: 0aef 713d 30d1 93bd 4362 7cbd 03f5 76bd
00000010: 12db d6bc 350c 04bd 8003 f2bc 4ffc 0f3e
00000020: 712f 33bd 619c 4fbe 4414 d9bd dab1 e3bd
00000030: c177 603d 5b69 bcbd 4156 dbbd cc95 6abd
00000040: b9ea 493d d748 d13c f11b 803d c4fd d5bd
00000050: a8b3 963d 634a d1bd 64c9 0b3c 0c38 70bd
00000060: 210c c13d 0c65 093d 9397 923b 8ab6 283d
00000070: b6c7 f03d 8aa0 c6bc 96ab e33d dbf2 123e
00000080: 34b2 22be 63b6 2bbe d475 f6bd 1da5 65bd
00000090: a7da 8cbd 1c4d 96bd 5bbf c7bd bad1 a83d
000000a0: c8d3 d3bc 0a64 9abd d92d a33d 5c34 833d
000000b0: d41a ddbd 4707 bbbd 3bd1 c0bd 380d a3bc
000000c0: 4230 d33d 7ba4 e2bd ce8f 6a3a 73b0 aa3c
000000d0: e8eb a4bd db5b 373c 3596 96bc 9252 10bd
000000e0: 5055 b0bd 7042 f0bd f5fc 31bd 7399 273d
000000f0: 2c0f f03d e4b4 88bd 7890 3a3d 7141 b43d
00000100: ab49 2ebd e27c 5ebd 12c2 c8bd 89a3 0ebe
00000110: 71ff 07bd f36c 96bd 704f d1bd 18cf a03d
00000120: 7887 fd3d 8ff0 403d 2339 003d 7ff4 54bb
00000130: 5043 8fbc 3da3 af3c ea0d 33bd 004e 223e
00000140: 3843 aebc 8545 c5bc 3d49 e93d 8a5e 9c3d
00000150: d1b2 6dbd 4dd8 4b3d 55cd 82bc 2394 76bc
00000160: 137a 753c 0d34 38bc 8a2c b6bc 631e f9bc
00000170: 8b9e 953d ec94 90bd bbe4 ab3d e329 a3bd
00000180: f54a 943d 33c0 fbbd d0ce 513d ba14 86bd
00000190: e245 0dbe 59f9 493e 707d 1d3c 1a9a fb3d
000001a0: 57c9 81bd 9bea 7a3d 5997 9cbd ecb3 49bc
000001b0: c212 5f3d 5698 0fbe 70f8 c23d 9e97 1cbd
000001c0: b2d4 113e bac4 ae3d fa68 e73c dccc e73d
000001d0: e01b 51bd 33ae 77bb a922 c43c 6dfa 2cbe
000001e0: 037e e6bd 1a78 073d c7f4 22bd 6c1a b83b
000001f0: c013 703d bbcc 443d 32dd e4bc ddb6 cc3d
00000200: 2c70 c6bd fe26 89bd 03a2 57bd 7f64 8239
00000210: 8abe 2fbc 14d7 b73d 2707 113e e19f 163d
00000220: 55e7 c03d ce51 86bd 405e 7d3d 1990 9d3d
00000230: 49e1 08be ffe6 c5bd 1f3c 51bd 356f a03d
00000240: be41 1d3c 8ad1 cdbd d4e5 f63d f146 803d
00000250: 9198 70bd d452 efbc c9f9 58bd 109b 193d
00000260: 2ae0 5b3d 784e 1d3d a76c a63d 8846 46bc
00000270: 8a02 fbbd 1e6e 0dbd 557f 14be 8d4e f1bd
00000280: 3518 b73d 461b 1f3d 6c8e 073e 464b 873d
00000290: 5cf1 093e f1dc acbd c877 fe3c 3ebb 803d
000002a0: 1d47 91bd 2f4c db3d 1993 1cbe fa80 183d
000002b0: 8493 aebc 9cad 9d3d 1def a23d aa09 9e3d
000002c0: aa19 443d eb19 da3d aeb2 c4bd 66d4 603d
000002d0: 75d0 e3bd ba41 09be 01ba d3bc d9ef c6bd
000002e0: 51ac 5bbd cde8 efbd 6245 e33d a97c a1bd
000002f0: 1155 c93d 1cc7 acbd 6c02 55bd 1a63 ac3c
00000300: 920c 2c3c 5feb fabd b121 3f3b 1370 16be
00000310: 8e8d 61bd 3141 8a3d a481 c53d 89ed 393e
00000320: 100c 8fbd 2eee 313d 7c80 db3c 5125 06bd
00000330: 0af0 fd3c 936d 913d 4a5c 353d 87a3 b53c
00000340: b9b2 913d 300e a63d 43dc 883c 411c 8bbd
00000350: 3e3c cc3d 954a 42bd d890 0a3d 1729 52bd
00000360: 921f 0cbc 95b2 0a3d 42fe a53d 1195 f33c
00000370: cdaa b0bd faad e7bc 3299 d5bd ccec 51bd
00000380: fb7c 2f3d 1e8a e13b 4aae 013e f975 943d
00000390: 164c e63b c0b8 1e3e 32c6 a53d 0977 743d
000003a0: bb5a 9f3d f2f9 9abd efcc 78bd 9a85 923c
000003b0: eaaa 4ebc b75f e2bd 2db1 e83d 89b3 dabc
000003c0: 1864 2f3e 8655 9abc 691f b8bd dba1 5ebd
000003d0: a6f7 5f3d 5be5 16bd 2331 dfbd 32a8 ea3c
000003e0: d5e7 4c3d 9606 1cbd 8463 2a3e 8dad 023e
000003f0: 12fb e23c ff00 45bd 03d1 15be b55e d1bb
0.059065856 -0.07217634 -0.061617147 -0.060292255 -0.026227508 -0.032238204 -0.029542685 0.14061092
-0.043746416 -0.20274498 -0.105995685 -0.11117907 0.054801706 -0.091997825 -0.10709811 -0.057271764
0.049296115 0.025547428 0.062553294 -0.104487926 0.073584855 -0.10219266 0.008531902 -0.0586472
0.094261415 0.03354363 0.0044736355 0.041189708 0.11756842 -0.024246473 0.11116712 0.14350455
-0.15888292 -0.16768794 -0.12034193 -0.056065667 -0.06877642 -0.07338926 -0.09753295 0.08243127
-0.025857821 -0.07538612 0.07967729 0.06406471 -0.10796133 -0.091322474 -0.094149075 -0.019903764
0.10311939 -0.110665284 0.000894782 0.02083609 -0.08052808 0.011191334 -0.018382171 -0.035234995
-0.08610022 -0.11731422 -0.04345413 0.040917825 0.11721644 -0.06675127 0.045547932 0.088015445
-0.042550724 -0.054318316 -0.09802641 -0.13929571 -0.033202592 -0.07344999 -0.102202296 0.07852
0.12379354 0.047104415 0.03130449 -0.0032494364 -0.017488152 0.021440143 -0.04371444 0.15850067
-0.021272287 -0.024081001 0.11390922 0.076352194 -0.05803186 0.049766827 -0.01596705 -0.015049967
0.014982718 -0.011242879 -0.022238035 -0.030409997 0.0730563 -0.070596546 0.08393236 -0.07966974
0.072408594 -0.122925185 0.051222622 -0.06546922 -0.1379619 0.19724025 0.009612426 0.12285252
-0.06337231 0.061258893 -0.07646055 -0.012310963 0.05446125 -0.14022955 0.09520042 -0.03823053
0.14241293 0.08533616 0.028248299 0.11318371 -0.051051974 -0.003779304 0.023942309 -0.16892405
-0.112545036 0.033073522 -0.03978422 0.005618384 0.058612585 0.04804681 -0.027937505 0.09995816
-0.09689364 -0.0669689 -0.05264474 0.00024870408 -0.01072658 0.0897657 0.14162885 0.036773566
0.09419123 -0.06558572 0.061857462 0.076935 -0.1336719 -0.096632 -0.051082727 0.07833711
0.009598194 -0.10049732 0.12055555 0.06263531 -0.05873925 -0.0292143 -0.05297259 0.037501395
0.053680576 0.03840491 0.081261925 -0.012101777 -0.12256344 -0.034528844 -0.14501698 -0.117825605
0.08940164 0.03884437 0.13237923 0.06606154 0.13470978 -0.08440579 0.031062976 0.062857136
-0.07093642 0.1070789 -0.15290488 0.037232377 -0.021310575 0.07699129 0.079557635 0.07716687
0.047876038 0.10649475 -0.09604393 0.05489006 -0.111237444 -0.13403979 -0.02584553 -0.09713716
-0.05363113 -0.11714325 0.11097218 -0.07885105 0.09830678 -0.084364146 -0.052004263 0.021043349
0.010501044 -0.12251925 0.0029164369 -0.1469119 -0.055066638 0.067507155 0.096438676 0.18157019
-0.069847226 0.043440036 0.026794665 -0.03275043 0.030998249 0.07100978 0.044277467 0.022172702
0.07114167 0.08108175 0.016706591 -0.067924984 0.09972428 -0.04743441 0.03382954 -0.051308718
-0.008552449 0.033861715 0.081051365 0.029734166 -0.08626328 -0.0282812 -0.1042961 -0.051251218
0.0428438 0.00688292 0.12664142 0.07249064 0.007028113 0.15500164 0.080944434 0.059683833
0.07780977 -0.075672045 -0.060742315 0.017885972 -0.012613991 -0.110534124 0.113619186 -0.026696937
0.17128026 -0.018839609 -0.08990366 -0.054353576 0.054679535 -0.036839824 -0.10898044 0.028644655
0.05002578 -0.03809222 0.16639525 0.12761517 0.02770761 -0.048096653 -0.14630513 -0.006389464
