src/util/AI/checkpoints/012.ckpt (torch, 353508 bytes, 14 tensors)

lstm.weight_ih_l0 f4 [256, 12]
00000000: f9f5 4bbd 803e 9f3d 0291 28be 229d 013d
00000010: ff8e af3d c4f9 8d3d de89 7b3d 0ce0 d1ba
00000020: 1462 dabd a63f 0a3d 6ae1 ddbd 3bc6 52bd
00000030: 7c9c 34be eeb3 2a3b 407e 8abd f3bd e0bd
00000040: bf14 8ebd ecd0 25bd 1d59 f33d c730 df3d
00000050: e574 b23d 7041 203d 6e75 bfbd 7caa df3c
00000060: e76a a33d f045 d73d 900d 653d 4f91 fa3d
00000070: 5355 5e3d ec68 583e 436e 4b3e 7398 f6bd
00000080: ef24 993c ae0f 07bd dbc4 853d 2eed c3bd
00000090: de5d ae3c 439b 403d 3a6c 8b3d 3250 52be
000000a0: 5e8d 50be a2d4 b6bb 018e 313e 3387 043c
000000b0: bcd0 14be 49b4 7abd c1a9 503e 8483 be3c
000000c0: 4c17 093d ebcc adbd 0e23 80bd c7f0 a6bd
000000d0: 2c72 333d 54b1 efbc fe27 b33d 966e 413e
000000e0: a3da 533d f98c 47bd 97a4 b2bd 21d4 babd
000000f0: 12a8 1a3d aeba 253d e26a 0c3d 0f31 993d
00000100: e6ac 5a3c 8c49 98bd 487c 823e d920 923e
00000110: 2cb0 c4bc 7a14 19bd 2451 36bc 0556 dc3c
00000120: 1303 013e 3dc0 863b f1a6 1bbe 59a0 24be
00000130: 5e00 d23d 1871 70bc eb9c 56bd 4789 073e
00000140: d2cb 1cbd 45aa 92bd 9c8c 873b 1be0 573b
00000150: 435f 5fbd 7637 023e 6383 613d 5b72 4c3d
00000160: 5e55 b53d 7fd0 c13d 84d7 953b 47a6 003e
00000170: 5329 43bd bfc5 c5bc c929 4ebd 0562 57bd
00000180: 45ac 01bd d887 2f3b 4c29 05be 27d1 533b
00000190: 7f50 c1bc 93c5 0c3d 3b1f 3d3e 46a0 843e
000001a0: 3922 f33b c587 55bd 96a7 b4bd aa51 3bbc
000001b0: 0bfa 9c3d ab89 1abd 5572 cd3d 28d9 993d
000001c0: 3646 30bd 52ea 543a 79ea 8f3d a99e 1abe
000001d0: 646a 54be 29bd ae3b 85b8 06bd 40cb db3d
000001e0: b093 a33c 3ba1 a3bd d20c f0bd 3936 6fbd
000001f0: 56ed 2f3e d3f4 313d 6afb e33d ca4b f03d
00000200: 20b1 043e 4ca2 1c3c b3ed b73d 9306 7cbd
00000210: f601 aa3d d1ae 5b3d a693 423d 0b64 b3bd
00000220: 53a9 873d 37ee 863c 6ff9 c2bd 8da7 2ebe
00000230: 9d88 6cbe 9ef3 513d 0d04 243e 077a b83c
00000240: a003 073d ca59 4e3c 80ac 0cbe f965 dfbd
00000250: 12b3 3a3d b110 153e bdb1 91bd 7b38 8bbe
00000260: e2b7 a4bd d2c8 043d 09ae 76bd a789 c0bd
00000270: bd78 d23c f84b 583d 5cb2 223d 31da b2bd
00000280: 6c7a 19be 906d c8bd 131b 173e c6f6 dfbd
00000290: ae07 2cbe 65ba a2bd 47fa cebb f6c7 5c3c
000002a0: fd19 68bd b9d4 423d 11cd d2bd 74f3 b93d
000002b0: 9748 8ebd 6c37 92bd 88f1 d23d e3cf 253d
000002c0: 3236 b7bd 8d6c 9f3c 0916 afbc fb22 163d
000002d0: 7cf9 60bd a385 5abd 534e 123e 26c9 2d3c
000002e0: 1c1b 173e 4c12 ed3a e14f f9bd b9c4 12bd
000002f0: eaa6 27bd 4e18 b9bd f380 4ebd e114 cc3d
00000300: cdd1 75bd 654a b63c 231c 8b3d 695f 2e3e
00000310: f9fa ba3d 17e7 873d 0db0 63bd fed8 29be
00000320: bb2c 09bd ce37 76bc 1f80 c1bd 9b31 0ebd
00000330: 675f 93bd 5d48 32bd d971 0abd 9661 53be
00000340: bb41 e83c 7411 4a3e 53e7 263d d7cd dabd
00000350: f1ce ac3d 92e4 623b 1b3c 093e 365c f3bd
00000360: a367 0cbe dd8f 30bc 6179 68bd 57ab bf3d
00000370: b1f5 6f3d 46d1 11be 913c 67be a3c8 c83d
00000380: d2f4 473d a492 803d b88a 46be 08b1 c4bd
00000390: d806 6cbe 5774 b53a 70dc e0bd 6ece 753d
000003a0: 2b66 db3d 62e6 e83c 047d 8dbd bbdd 0dbd
000003b0: 2bfe a23c d06f 983d ffb7 6cbd b115 393d
000003c0: 0331 d3bd b7f9 2c3e 92fd cebd ef7d 2f3c
000003d0: 8722 95bc 91c3 a0bd f4b4 2ebd 8dd5 033e
000003e0: 6338 94bd 55f5 c5bd c309 4a3d 2b86 cc3c
000003f0: 0598 2abb 818d 9e3d 939f d8bd 6f34 393d
-0.049795125 0.07775593 -0.16461566 0.031643994 0.08572196 0.06932405 0.061410777 -0.0016012206
-0.10663238 0.033752106 -0.1083401 -0.05145858 -0.17637819 0.0026047188 -0.067623615 -0.1097373
-0.06937551 -0.040482447 0.118822314 0.108979754 0.08713702 0.039124906 -0.0934857 0.027302973
0.079793744 0.105113864 0.055921137 0.12234747 0.05428059 0.21133775 0.1986628 -0.12040796
0.01869437 -0.032973938 0.06531688 -0.09566723 0.021284994 0.04702307 0.06807752 -0.20538405
-0.20366427 -0.005579547 0.17339326 0.008088875 -0.14532751 -0.06120709 0.20377256 0.02325607
0.033469483 -0.084863506 -0.06256686 -0.081513934 0.043810055 -0.029259361 0.08747862 0.18889841
0.05172218 -0.048718426 -0.08722799 -0.09122492 0.03775794 0.040461235 0.03428162 0.0748006
0.013346886 -0.07435903 0.25485444 0.28540686 -0.024009787 -0.037373044 -0.011127744 0.026896486
0.12598829 0.004112272 -0.15200402 -0.16076793 0.10253976 -0.014675401 -0.052395742 0.13235961
-0.038280316 -0.071613826 0.004136635 0.0032939974 -0.054534208 0.12716469 0.05505694 0.049913745
0.08854173 0.094635956 0.0045728106 0.1256343 -0.04764683 -0.024142144 -0.05033282 -0.052583713
-0.03165843 0.002678385 -0.13004035 0.003232071 -0.023597954 0.03436811 0.18468945 0.2590353
0.007419851 -0.052131433 -0.08821027 -0.011433044 0.076648794 -0.037728947 0.10031573 0.075121224
-0.04303571 0.00081220747 0.07027144 -0.15099587 -0.2074371 0.0053326082 -0.032890815 0.10732126
0.019967884 -0.07989737 -0.11721195 -0.05840132 0.1718038 0.043446373 0.11131938 0.117332056
0.12958193 0.009560179 0.089808844 -0.061529707 0.08301155 0.053633515 0.04750409 -0.08759316
0.06624093 0.016471012 -0.09520232 -0.17056103 -0.23098989 0.051257722 0.1601717 0.022519125
0.03296244 0.01259465 -0.13737679 -0.109081216 0.04558093 0.14557149 -0.07113979 -0.2719153
-0.08042885 0.03241808 -0.060224567 -0.09401255 0.025692338 0.052806824 0.039720878 -0.08733023
-0.14988106 -0.097865224 0.14756422 -0.1093574 -0.16799805 -0.07945708 -0.0063164565 0.013475409
-0.05666541 0.04756615 -0.102930196 0.09079638 -0.06947439 -0.07139477 0.10299975 0.04048146
-0.08945884 0.01946094 -0.021372812 0.036654454 -0.054925427 -0.053350102 0.14287691 0.01060704
0.14756435 0.0018087118 -0.12173439 -0.03583214 -0.040930666 -0.09037839 -0.050415944 0.0996492
-0.060014535 0.022252271 0.06792476 0.17028584 0.091299005 0.06635874 -0.055587817 -0.16586682
-0.033489924 -0.015027953 -0.09448265 -0.034715276 -0.07195931 -0.043526042 -0.03379998 -0.20642695
0.028351655 0.1973322 0.04074795 -0.10683792 0.084379084 0.0034621102 0.13401835 -0.11882822
-0.1371141 -0.010776487 -0.05675638 0.09358852 0.05858392 -0.14239988 -0.22581698 0.098038934
0.048817463 0.062779695 -0.19388855 -0.096040785 -0.23049486 0.0013843876 -0.10979545 0.06001132
0.10712846 0.028430168 -0.069086105 -0.034635287 0.019896587 0.074432015 -0.05779266 0.045186702
-0.103120826 0.16892134 -0.101069584 0.010711177 -0.01820494 -0.07849801 -0.04265304 0.12874432
-0.072373174 -0.09665934 0.049325716 0.02496632 -0.0026030552 0.077418335 -0.10577311 0.04521602

lstm.weight_hh_l0 f4 [256, 64]
00000000: fd30 583d 95bb 5cbd 5d6c 273e 4c48 b7bc
00000010: fd36 5f3d 6e2f 463e 29db c5bd 504c d5bc
00000020: d760 f63d 3744 3a3e f711 ac3d 7a59 fc3c
00000030: 61fd 483e 4786 c4bd ba97 f83d cc5b 543d
00000040: 4bd6 1ebd ff66 823d d243 a539 c016 e23c
00000050: 4d79 f6bc 898d c5bd 943a db3b 6c6b bbbc
00000060: aed2 2d3e 9a45 6bbd 63e7 16be 60ae 2dbb
00000070: b5fd b13d ba33 883d 7230 f9bd f38e 8cbd
00000080: 5b01 5cbd 4eac 6e3c ba58 943d dc3c efbd
00000090: 947c 1fba 2b5b 023d 41d1 8ebd 27a8 a53d
000000a0: 0bd4 55bd d65b fcbc 1c88 f43c 3f1b f0bd
000000b0: 7ca5 81bd 4338 37be 65d0 d6bd 2b81 2bbe
000000c0: 3659 a73d e178 923d 4a50 bf3d 671b 9e3d
000000d0: 7cc9 51be 13ca 5fbb 73eb 643e 1ed1 babd
000000e0: 9dfd 093d 02b8 eb3d 4108 0cbe e437 86bd
000000f0: 51b1 84bd b050 203e 9493 d83c e1d1 e53d
00000100: 6e35 5c3d 1e23 99bd 05ce 823e d4ed c53d
00000110: e5ed 343d b2be e2bd adea 0ebd 752f 71bd
00000120: e6ca 8fbd f131 1fbe 98cb e73d d678 803c
00000130: e059 3b3c c83c bdbd 0e79 3abe 9980 983d
00000140: cf82 023e f589 45be 6010 4b3e f174 b03d
00000150: 0eec 4d3e 7265 f7bd 41a0 44be dd10 fa3c
00000160: c354 a63d 9354 17be 8fa4 7d3d 2a27 273e
00000170: a8a8 8fbd 355a 69be 650f 2bbd e307 213e
00000180: b177 18be f4b0 b8bd 5bef ae3c 638b a33d
00000190: ec49 5f3d 3bfa 87bd b763 02be a4a5 bc3d
000001a0: 2125 cb3c d237 36be 6986 53bd b1ec 34be
000001b0: 3507 bfbd b729 0fbe 6a81 07be a7b1 4cbd
000001c0: 5617 57bc 06a4 f3bb 092b 8d3d 7be2 9c3a
000001d0: ed23 33be 948d aa3d 27fd 11bd 2379 703e
000001e0: 35c3 8dbd a628 da3d 1ae2 31be 90d5 c83d
000001f0: 2cfe f23c ebb4 8abd 3094 923d 787b d8bd
00000200: df0b 163e a39c 61be d7b3 98bd d32f 543d
00000210: 2339 69bd c14f 303d 443a 86bc 8cd1 d63d
00000220: d14a a13d 73cc d0bd 7ad2 343d 7bb2 8e3d
00000230: 7f7f 243e 82df 31bd b75f 8ebd 8521 af3d
00000240: bdf1 10be 5a18 08bd 4eb2 553e bfe9 843c
00000250: 4927 aabd e39c 303d 7cd7 94bc 9aaa 493d
00000260: d3d1 32bd 1d91 13be a0e6 bbbd 4504 9bbd
00000270: 4e4d 37bc d586 503d 9e88 2ebe b0ca 0bbe
00000280: ad93 793c 10b4 cc3c 657b e33d 76e6 efbc
00000290: 2a34 4d3d 2fac ca3d 09ed 07bd be95 193e
000002a0: ef1e 343e 5506 6d3d 5dba 3a3d 7c45 c6bc
000002b0: 8d2c 393d 1378 043e 1324 0bbe 6798 383e
000002c0: ac42 5fbd e33c d439 3e3d 173c 6dfa 10be
000002d0: 3727 85bb 9e6e 41be 9fc6 67bc 3551 19be
000002e0: bfba 08be 0937 833c df79 cf3d 1a4e 9d3c
000002f0: 3aba a5bd c6cf 2ebb 2afc cbbd 667b 5c3e
00000300: 219d 823e 1d55 90be 90ea 053e 2699 7cbe
00000310: cf88 ba3c cadf 6bbe 315f ecbd 879b 99bd
00000320: f857 1f3e 1f2e 35be f55c 893d 8039 a5bc
00000330: 108f 81bc c32c d6bc 48d0 f2bb f24a 213e
00000340: e324 4c3d a6c3 26bb 139e 3cbe f41f 423e
00000350: eaa8 babd a847 1ebe 9954 2fbe 855c e43d
00000360: c58e 863d 64cf e2bd 1ce3 2cbe 9ed1 5b3e
00000370: c71e 163e f425 c4bd 93f4 2d3e 283e fdbb
00000380: 3f7d 383e ec1b 8a3b 66f3 223c d307 883d
00000390: aa62 bfbd cae4 d7bd 50c9 f5bc 6671 a93d
000003a0: ea4d 453e e86c 0b3e 56f1 8f3c 22ab 99be
000003b0: 2f37 4d3c 0be3 123e 6aa0 233d ad9a 963e
000003c0: 7f8f 9e3d 2274 3cbe d6d2 d2bd 6f78 c13d
000003d0: 9b89 34bd 96fc cf3d 0063 923d 1099 223d
000003e0: a6d9 bf3d 8e3b a53c 84de 9cbe 8ce3 31be
000003f0: 3756 b93d 75a3 89be 6327 423e 7e64 0d3c
0.052781094 -0.05388983 0.16349931 -0.022373341 0.0544958 0.1935403 -0.09660942 -0.026037365
0.120301895 0.18190084 0.08401864 0.030804384 0.19627906 -0.09595924 0.121383145 0.051845357
-0.038778584 0.06367301 0.00031521783 0.027598739 -0.030087138 -0.09646136 0.0066903327 -0.022878371
0.16974899 -0.057439424 -0.14736705 -0.002650164 0.08690969 0.06650491 -0.12167443 -0.06863203
-0.05371223 0.014567448 0.07243486 -0.1168153 -0.0006083932 0.031825226 -0.06973506 0.08088713
-0.052204173 -0.03080551 0.029850058 -0.11723947 -0.06330392 -0.17892556 -0.10488967 -0.16748492
0.081713125 0.07151962 0.09341486 0.0772007 -0.20487016 -0.0034147545 0.22355442 -0.09121917
0.03368913 0.11509706 -0.13675024 -0.06553629 -0.06479133 0.1565578 0.026437558 0.11221672
0.053761892 -0.07477401 0.25547805 0.09664503 0.044172186 -0.110715285 -0.034891773 -0.05888315
-0.07021122 -0.15546395 0.11318129 0.015682619 0.011435002 -0.09240109 -0.18210241 0.07446403
0.12745212 -0.19290908 0.19830465 0.08616055 0.20109579 -0.12079896 -0.19201757 0.03052562
0.08121636 -0.14778356 0.061924513 0.16323534 -0.070145905 -0.22788318 -0.04176273 0.15725665
-0.14889409 -0.09018126 0.021354368 0.0798557 0.054513857 -0.066395245 -0.1273335 0.09211281
0.024797978 -0.17794731 -0.051641855 -0.17668416 -0.093275465 -0.13980757 -0.13232961 -0.04997411
-0.013128122 -0.0074353246 0.06892974 0.0011969352 -0.17494173 0.08327785 -0.035641816 0.2348371
-0.069219984 0.10652284 -0.17371407 0.09806359 0.029662214 -0.067727886 0.07157171 -0.10570425
0.14652966 -0.22032408 -0.07456177 0.05180342 -0.056939255 0.04304481 -0.016385205 0.10489187
0.07875598 -0.101952456 0.04414604 0.06967636 0.16064261 -0.043426044 -0.0695185 0.08551315
-0.14154716 -0.03322635 0.20868799 0.01622474 -0.08308274 0.04311837 -0.018169157 0.049234964
-0.043657135 -0.14410825 -0.091748476 -0.07569174 -0.0111878645 0.050909836 -0.17044303 -0.13651538
0.015232963 0.024988204 0.1110752 -0.029284697 0.050098576 0.09896123 -0.03318504 0.14998528
0.17589925 0.057867367 0.045587886 -0.024203055 0.045208503 0.1293643 -0.1358798 0.18026887
-0.054506943 0.00040481155 0.00923091 -0.1415803 -0.0040635127 -0.18889853 -0.014146476 -0.14972384
-0.13352488 0.016017454 0.10130667 0.01920228 -0.080921605 -0.0026674136 -0.09960206 0.21531448
0.25510505 -0.28189936 0.1307776 -0.24667796 0.022770314 -0.23034588 -0.11541594 -0.075003676
0.15560901 -0.17693375 0.06707183 -0.02016902 -0.015815288 -0.02614439 -0.007410083 0.15751246
0.049839865 -0.0025446205 -0.18419676 0.18957502 -0.09114249 -0.15457022 -0.17122115 0.11150459
0.065702 -0.11074713 -0.1688351 0.21466681 0.14660178 -0.095775515 0.16987829 -0.007728357
0.18016528 0.0042147543 0.009945726 0.06642117 -0.093449906 -0.10541685 -0.03000322 0.08273582
0.19268003 0.13615763 0.017571133 -0.30013376 0.012525364 0.14344423 0.039947905 0.29414883
0.077422135 -0.18403676 -0.1029412 0.09446799 -0.044076543 0.10155599 0.07147789 0.039696753
0.09367685 0.02017 -0.30638516 -0.17371958 0.09049647 -0.2688252 0.18960337 0.008629916

lstm.bias_ih_l0 f4 [256]
00000000: 4ccf 24bd 54da bbbd 7f95 b3bd 86f5 f1bd
00000010: 17b2 c4bd 7c57 2a3d 8b05 bf3c a67e cc3d
00000020: 0f68 163e dcaa b6bd e200 a7bc a386 9a3b
00000030: e1f3 6ebd 7846 86bd 1859 bb3d aa97 02bd
00000040: e042 07be ffc8 593c 8bfb 2abd f2a0 53b9
00000050: 0500 f6bc 1517 d33d e30f 09bd 6cb7 49bd
00000060: 8c5e 5b3d cefc 203d 68d3 57be 0f85 503d
00000070: b689 8e3d 6741 25bd b3f3 7a3d cc10 9a3d
00000080: e642 7a3d 1160 92bd 0370 0dbd 93ad ff3d
00000090: 557e 1b3d c386 bcbd de7c 8ebd 663f 32be
000000a0: 2e8a 9839 2632 00bd 5d1b d63d 493e 963d
000000b0: ce0b b83c 6182 a3bd 6e0f 953d a1a0 4f3e
000000c0: 2f13 513d d34b c5bd 871b 36bd 3612 9cbd
000000d0: 5c8d bbbc 86be 86bd 56c7 7d3d 5e9e babd
000000e0: 954f 81be f635 3fbe 0379 ac3a 398d 9bbd
000000f0: fd33 e1bc e87e 70bc 4cf4 1d3e 0de7 c63d
00000100: 0f44 80bd 0fe6 5ebd e8b5 18bd e518 35be
00000110: abfa f13d 83c1 75bd 5384 83bc 33ea 94bd
00000120: c5db c1bd 3a61 94bb 20be f739 5504 2f3d
00000130: e1a7 fbbd 6141 14be c8c5 0dbd 8a86 823d
00000140: 272d 76bd dca7 9cbd 277b 583c f223 ea3d
00000150: 3ea8 dc3c ec1b 913d 1b15 fa3d 8178 9a3d
00000160: c744 2f3d fbf1 823d 5322 2bbd 82cd 803d
00000170: 70ef 313d 4a2a 3a3e b8c3 4cbd 63f0 303e
00000180: 05ce 0a3e 6e30 bd3c d408 1abb b7f8 013e
00000190: 65b5 e03d 0bcb 5abe a10a 413d 798f 4ebe
000001a0: 0b85 f73b 86c2 113e 774a b83d 9b0a 833d
000001b0: 5e59 023d c5c1 5dbd 1584 853d 47ae 3d3c
000001c0: b7e3 22bc 5777 053e db7b b63d 4982 99bd
000001d0: ba33 f73d 672d 3a3c a55c d3bd 7347 213e
000001e0: 56d0 dabc 0cff cebc 5ca3 dfbc bea2 1dbe
000001f0: e9dc 0bbe 1b3f 99bd 492d da3d 41f5 b8bc
00000200: 050d 2dbc 1705 bcbd 1b6c 853d 0796 4f3d
00000210: 4f92 1bbd d5e3 bc3d 3e13 8bbb c36d 233b
00000220: eb6c 2fbe 11c6 29bd 6c44 e4bd a83a 8fbd
00000230: bc8d 77bb 6fa2 7ebb 180b 953b 5f86 503d
00000240: cf06 313d 03a8 ba3d 16df 51bd f3b2 503e
00000250: 5bae b9bd de62 783d cb5e 073e 7286 283e
00000260: 1702 b63c fc3e 853d 4f9b 373e 0968 513d
00000270: 157b bfbb fe32 c4bd 1be4 9bbb 40b6 04be
00000280: 5b7f 243e 8bc8 ffbb 9d03 50bd c695 e6bc
00000290: 3901 c83d 712e c4bd cd6a 7dbd f737 0ebd
000002a0: 25b6 ef3d 76b0 333d 90d1 84be 25e4 25bd
000002b0: 3af2 c73c bbc7 c4bd 4357 af3d ab70 95bd
000002c0: f703 f23c c328 283e 7b7e 523d 9db5 1b3e
000002d0: e33b 9d3c 71ea bc3d a9c1 d83c 9423 c3bd
000002e0: afc8 68bd 216f 043e 2c8a 233e a97e 613d
000002f0: b501 23bd 1967 f93d 9438 9c3d 7c12 a4bd
00000300: 674b 783d c367 bdbb 015c 4eba 09db c63d
00000310: 2c26 503b c69c 57bd 2f2d 35be ef3b c63d
00000320: b72e cabd 6d32 02bd 109c 3abd 36bf 233c
00000330: 4780 29bb e989 1439 0c59 2bbe 4836 783c
00000340: 7322 dbbd 3778 4c3b 8843 13be 5186 8b3d
00000350: 868e 01be 7379 98bd 3f60 4e3c 2f55 66bc
00000360: d64d 14be 3c17 9c3d bd85 033e 5500 c63c
00000370: 964e b23d b680 9bbc 3f0c 0d3c ffcb d0bd
00000380: 43c6 b0bc 2af0 e0bc 7a8e 2cbd 5704 d4bd
00000390: 1e49 1b3d b015 dfbd 2610 2a3d 0566 5abd
000003a0: e6c9 34ba e51d 3e3e 3845 b33d 2fa0 f23d
000003b0: 9f32 8b3d e7df 73bd 21d8 c7bd ccfc 43bc
000003c0: 32d9 85bd 049b c9bd 86f9 f6bd 7e64 023e
000003d0: 9ffe d03d 3df3 fc3b 24c6 82bd 810b 98bd
000003e0: 285e c5bd 9354 213d 5ebc 30be a843 e23d
000003f0: 7352 bd3d daff a9bd 524e cc3c f89d 00be
-0.040236756 -0.09172502 -0.087687485 -0.11814408 -0.096042804 0.041587338 0.023318073 0.09985094
0.14688133 -0.089193076 -0.020386163 0.004715757 -0.05833805 -0.065564096 0.09147853 -0.03188292
-0.13209105 0.01329255 -0.041743796 -0.00020182485 -0.030029306 0.10307137 -0.033462416 -0.04924719
0.053556964 0.039303593 -0.21076739 0.050908145 0.0695986 -0.040345576 0.061267566 0.07522735
0.061098956 -0.071472295 -0.03453065 0.124842785 0.037962276 -0.09205391 -0.0695741 -0.17406997
0.0002909465 -0.031297825 0.10454438 0.07336099 0.022466566 -0.07983852 0.072783336 0.20276119
0.051043686 -0.09633603 -0.044459846 -0.07620661 -0.022894554 -0.06579308 0.06195768 -0.091122374
-0.2525603 -0.18672928 0.0013158623 -0.075952955 -0.02749061 -0.014678694 0.15425223 0.09712038
-0.06262981 -0.05441862 -0.037282854 -0.17685278 0.11815389 -0.059999 -0.016054308 -0.072712325
-0.09465746 -0.004528192 0.00047253165 0.04272874 -0.1228788 -0.14478065 -0.034612447 0.063733175
-0.060101654 -0.07649204 0.013212956 0.11432637 0.026935693 0.07085404 0.12211057 0.075425155
0.0427902 0.0639381 -0.04178078 0.062891975 0.043441236 0.18180194 -0.04999134 0.172792
0.13555153 0.023094382 -0.0023503797 0.12692533 0.10972098 -0.21366517 0.047129277 -0.20171918
0.0075537018 0.14234361 0.08998578 0.06398507 0.03182351 -0.05413987 0.06519333 0.0115771955
-0.009941987 0.13033806 0.08910342 -0.07495553 0.12070413 0.011363364 -0.10320405 0.15749912
-0.02671067 -0.0252681 -0.027299576 -0.15394112 -0.1365849 -0.074827395 0.10653169 -0.022577884
-0.010562186 -0.09180658 0.0651476 0.050680187 -0.037981328 0.09223143 -0.004244237 0.002493725
-0.17131393 -0.041448656 -0.11145863 -0.0699361 -0.003777369 -0.0038854142 0.0045484416 0.050909396
0.043219384 0.09114077 -0.051238142 0.20380764 -0.09066459 0.060641162 0.13219754 0.16457537
0.022217793 0.06506154 0.1793034 0.051124606 -0.00584353 -0.095800385 -0.004757417 -0.12960148
0.16064207 -0.007805889 -0.050784696 -0.02814759 0.09765858 -0.095791705 -0.06186943 -0.03472134
0.11704663 0.04386946 -0.25941133 -0.04050078 0.024407495 -0.09608408 0.08561566 -0.0729688
0.029542906 0.164218 0.051390152 0.15205999 0.019193595 0.09224404 0.026459532 -0.0952827
-0.05683201 0.12933017 0.15970677 0.055052433 -0.03979655 0.121778674 0.07627979 -0.08011338
0.060618784 -0.0057801916 -0.0007871986 0.097097464 0.0031761033 -0.052639745 -0.17693017 0.096794
-0.098721914 -0.03178637 -0.04555899 0.009994319 -0.0025863813 0.00014165755 -0.16733187 0.01514966
-0.1069993 0.0031199583 -0.1438123 0.06812728 -0.12652025 -0.074450396 0.012596189 -0.014058395
-0.14482817 0.07621619 0.12843986 0.02417008 0.08706395 -0.018982273 0.008608877 -0.10195159
-0.021578914 -0.02745827 -0.042128064 -0.1035239 0.037911527 -0.108928084 0.041519307 -0.05331995
-0.000689654 0.18566091 0.08753437 0.11846959 0.067967646 -0.0595397 -0.0975802 -0.011962127
-0.06535567 -0.0984402 -0.120593116 0.12733647 0.10204815 0.007719426 -0.063854486 -0.07424069
-0.096370995 0.039387297 -0.17259356 0.11048061 0.092442416 -0.08300753 0.02493969 -0.1256026

lstm.bias_hh_l0 f4 [256]
00000000: 2e79 10be c2cb 2ebd 7384 69bd fb69 81be
00000010: adfc 10be f8d6 b7bd 2fc8 e0bc 7df6 093e
00000020: db2b 0b3e 9904 af3d 5abb c13d a470 00bb
00000030: 20c1 943d d99f 63bc 5cd4 df3d e382 8a3d
00000040: 89c4 fa3c 4ca9 e9bd 25e0 10be dca0 c03d
00000050: 6db0 813c a05f 1a3e 6cfb 803d 774f 88bd
00000060: 6667 e2bd 140e 06bc 9ab1 2cbd 4d15 9fbd
00000070: d70c 90bd 7744 013c 1cbb ba3c 735d 4ebd
00000080: 29e0 1cbe 3998 bbbd e016 cfbd ee09 7b3d
00000090: 6f58 85bd 07cb 00bd 425f 183d 233a 8dba
000000a0: ff07 dabd 163a bc3d f955 d33d b785 0ebe
000000b0: 7fbe ab3d fb6a a4bd e779 8d3c 010a b83d
000000c0: 7ddb 3b3e 0428 e5bc a010 4abe aa27 0ebe
000000d0: a7b9 783b bd92 a13d 2c65 443d 247e 4ebd
000000e0: fdf8 8fbd 3ef5 2ebe c79a 1a3d 9411 833d
000000f0: b7da 3e3c 949e 2f3e 7224 28bd 6caa a23d
00000100: 7926 573b d3c7 4b3d 50ee 19be a66b fbbc
00000110: 416d 12ba 01d0 dcbd 6926 88bd 8b8f 95bd
00000120: 4730 31be 9e92 a03d 73ec 72bd b437 acbd
00000130: 8e12 0a3d 217c fbbc 9b35 90bd a1ca 453d
00000140: a0e1 36bc 4fb2 913d af12 363d 6a97 143d
00000150: e6cf fbbd 0a5a 37bd 2751 093e cd9e 85bd
00000160: ac19 be3d 85f8 133e b0e2 00be 60f5 ccbb
00000170: 9920 9b3d 9b59 1a3e b37d 913d a337 b33d
00000180: 1ebd a0bd 449d 00bc fb70 d83d c5a9 08bd
00000190: 1b1d 283e 2eff fabd 6a06 883d 25e5 98bd
000001a0: 2e8e 7e3c 9c41 7ebd 4deb a2bc b773 ef3d
000001b0: 437c 783d d1cb 923d 65b3 cdbc f7b9 0c3e
000001c0: 7e59 253d dac4 553e c718 be3d 2958 a03c
000001d0: 82d5 b43d d2ce 04b9 83d3 9cbc b7bd df3d
000001e0: 2fc2 4cbd 19f4 b9bc 35ac 543c 22f0 08bd
000001f0: 012b 7e3c e504 bd3c 6f2d 003d 548e 87bd
00000200: 2453 ac3d a558 b93d 6d70 36be 6f72 5bbc
00000210: d030 153e 8909 90bd 04a6 fa3a fbd5 133e
00000220: 7117 37be 57ef 60bd 13fc 8f3d 8a64 903d
00000230: c80e 4bbe 756a 02bd 99ca 69bc 60ce 93bd
00000240: a2db aabc 0102 363e 8a2b 0a3d a87b 323c
00000250: 8fae 5fbc 8226 6abd 093a 5b3e 0b43 fa3d
00000260: c916 a23d b152 023e 7ebe 873c 594c b4bd
00000270: 553d 73bd 008c 85bc ba08 cfbb 9715 48bb
00000280: c04e b13d e5ee df3d cdf4 e8bd 047e 433d
00000290: 9752 0a3d e76d 1bbc 6468 13be e797 a23d
000002a0: 56b9 1dbd 4e05 0e3d c156 00be 3c11 113e
000002b0: 7e9b 86bd 52e6 093e 2279 9d3d 2217 18bd
000002c0: 6472 ac3d d67a 243d 9aa7 993d dfd3 413d
000002d0: daa2 2f3e 5b55 ccbc 0634 833c 638d 0bbe
000002e0: d897 ebbd 2d4a 423e ea09 1dbd 1fa5 fa3c
000002f0: 87f9 e5bd 3560 593d 15f8 e43d d4f6 e2bd
00000300: cb33 0a3e 3b70 d93d 148c 53bd e242 35bd
00000310: d7bc 193e 2ec4 98bd 2ba4 a4bb 8bcb 92bd
00000320: 58cd 0bbe e1b3 bf3d 7c89 0f3e a0da a3bc
00000330: 987d faba 3702 9a3d 0a10 25bd 4869 823c
00000340: 0385 8b3d cc00 c33d 6523 b53c 2d3b 1ebe
00000350: 3efb a13d 16ac 6ebd 4365 f83d a005 33bc
00000360: 0085 023d 1ded 0c3d 4b82 fb3d 3e2c f1bd
00000370: ab46 133e 6d9b c23d d7a7 2abe 35dc 093e
00000380: eeca 103d 67ca 823d 6432 dc3c a0d9 43bd
00000390: 646e dcbc c67e 9e3d 3a5b 403c 8e92 0cbd
000003a0: 1b70 84bd 894d 203e 64e8 023e bb71 883c
000003b0: 5ae4 7c3c de24 32ba 3b70 5fbd 4fbc 053e
000003c0: a2e8 b23c 012b 713b 4959 d63d 3b6e 04bc
000003d0: cd7b fdbc fd17 1f3d 16a2 82bd 79ec 9b3d
000003e0: fc24 61bd 7718 19bd e8fc 28bc ae87 f03c
000003f0: 3948 123e a9f8 8bbc a49f a23c 9b93 a43d
-0.14108726 -0.042674787 -0.05701108 -0.2527617 -0.14158888 -0.08976549 -0.027439205 0.13472934
0.13590948 0.08545799 0.094595626 -0.001959839 0.07263398 -0.013893091 0.10929176 0.06763246
0.030611293 -0.11409244 -0.14148004 0.094056815 0.015831197 0.1507554 0.06297955 -0.06655782
-0.11054878 -0.008182067 -0.04216156 -0.07767735 -0.07033699 0.007889858 0.022794299 -0.05038209
-0.15319885 -0.091598935 -0.10111785 0.061288767 -0.06511008 -0.031443622 0.03720022 -0.0010774772
-0.106460564 0.091907665 0.10319132 -0.13918196 0.083859436 -0.080282174 0.017270042 0.08986283
0.18345447 -0.027973182 -0.19732904 -0.13882318 0.0037952454 0.07889316 0.047948048 -0.050413266
-0.070299126 -0.1708574 0.037745263 0.06399837 0.011648825 0.17150337 -0.041050382 0.07942662
0.0032829328 0.049751114 -0.15032315 -0.03069098 -0.0005585738 -0.10781861 -0.06647951 -0.07302769
-0.17303573 0.07840465 -0.059307527 -0.08409062 0.0337091 -0.030698838 -0.070414744 0.048288945
-0.011162192 0.07114088 0.04445141 0.036277212 -0.12295513 -0.044763602 0.13409863 -0.065244295
0.0928224 0.14450271 -0.12586474 -0.006254837 0.07574577 0.15073244 0.07104053 0.08750846
-0.07848571 -0.007849995 0.10568424 -0.03336503 0.16417353 -0.12255703 0.066418484 -0.07465581
0.015536828 -0.06207429 -0.01988759 0.11691993 0.06066538 0.07167781 -0.025109956 0.13742815
0.04036855 0.20875874 0.0928207 0.019573288 0.08829786 -0.00012665548 -0.019143825 0.10924857
-0.049989875 -0.022699403 0.0129805105 -0.033432133 0.015513183 0.023073623 0.03129333 -0.06618944
0.08414295 0.09050111 -0.17816325 -0.013393982 0.14569402 -0.07033069 0.0019122963 0.14437096
-0.17880036 -0.054915752 0.07030501 0.07050426 -0.19829857 -0.031839807 -0.014269494 -0.07217097
-0.020856682 0.17774202 0.03373293 0.01089374 -0.013652458 -0.05716563 0.21408857 0.12219819
0.07914502 0.12726857 0.016570326 -0.08803625 -0.059384663 -0.016302109 -0.006318179 -0.0030530447
0.086575985 0.109342374 -0.11374817 0.0477276 0.03377017 -0.009486652 -0.1439529 0.07939129
-0.03850683 0.034673028 -0.12533094 0.1416673 -0.065726265 0.13466766 0.0768912 -0.037131436
0.08420256 0.040156208 0.075026706 0.047321197 0.17151967 -0.024943044 0.016016018 -0.13628154
-0.11503571 0.18973608 -0.038339533 0.030596314 -0.11229234 0.053070266 0.111801304 -0.11082235
0.1349632 0.106171094 -0.05164726 -0.044253238 0.15013443 -0.07459293 -0.005024453 -0.07167729
-0.13652551 0.09360481 0.1401729 -0.02000171 -0.0019110916 0.07519954 -0.0402985 0.015919343
0.06812479 0.09521636 0.022111604 -0.15452261 0.07909249 -0.058269583 0.12128689 -0.010926634
0.03186512 0.034405816 0.12280711 -0.11776017 0.14382426 0.09502301 -0.16665588 0.13462909
0.03534978 0.063862614 0.026879497 -0.047814965 -0.026908107 0.07739024 0.0117405 -0.034319453
-0.06466695 0.15654577 0.12783962 0.016655793 0.015435303 -0.0006795655 -0.05455039 0.13060115
0.021839444 0.0036799314 0.104662485 -0.008082922 -0.030942822 0.038841236 -0.06378572 0.07613463
-0.05496691 -0.037376847 -0.010314204 0.029361572 0.14285363 -0.017086344 0.019851513 0.08035966

lstm.weight_ih_l1 f4 [256, 64]
00000000: f3e6 e2bd 6a72 50be 0c87 d5bc aa77 36be
00000010: d175 b7bd 115b e23d d463 c73c d442 5c3d
00000020: 4bc6 573d 2b93 80bd c5f7 233d b045 debd
00000030: 5b02 bf3d e9d1 f8bc b26b b0bd 0a0d 03be
00000040: d9e8 64bd 173e 69bd c1d7 d93d 084b b9bc
00000050: c802 48bd fe9f fa3d eea6 5c3b d9a6 2ebe
00000060: e4fb 73bd a47d 97bc f7c4 75be 69d7 823d
00000070: 9072 a1bb f1e6 3bbd 73af 07be 95ae 1fbe
00000080: ee99 15bd 1905 d4bd 0854 df3c ec84 75bd
00000090: 883e d2bd 80ab 45bd 4c51 6abd 42bb c33d
000000a0: 60e4 793b f19b 513d 4c5e b4bd 0634 0f3d
000000b0: 3c26 03be 948e bdbc 0b98 34bd 2443 20be
000000c0: 896b dcbc 4a61 883d 893d b0bd 4eb2 94bd
000000d0: 01b9 953d 5013 013e 1ac0 4d3d 058f ac3d
000000e0: 6a16 573d e531 503c 5f50 15bd 059e 523d
000000f0: dc86 bfbd e323 8d3d 1a52 883d 8519 1f3e
00000100: c01f 9abd 4622 d13b f754 7a3d 3f79 ec3c
00000110: 814d 5dbc 17b6 e33d 57aa ce3d 089e 40ba
00000120: ae93 013d 2729 1f3e 856f b63d 49a8 563c
00000130: 60e6 babd 76f0 a3bd 4ca9 9abc ab91 a0bc
00000140: d5ad 873d 651a ac3d 1ec1 263e 45c5 e73d
00000150: f16f 2ebe 3b38 293e cb45 3b3d 7a22 113d
00000160: 7401 953c 36d1 e73c cb7e a8bb d539 d23d
00000170: 815d 173e 567e 3f3e 5ba2 bd3d 9519 22bd
00000180: 84f4 09be 3a75 01bd ad3d 7f3b 19ef 183d
00000190: 10d5 363d 4eb5 103e 74f3 a7bd 951f 18be
000001a0: 2bf6 f5bd 2532 24be fae4 a5bc 11ee 843d
000001b0: 6869 f93c 70c3 15bd 8952 c5bd c6ed 2bbe
000001c0: 58b2 94bc 44ee 823e 405d 01be a58f e03c
000001d0: ce13 0bbd 06cd cdbb 21b2 0e3e 2a05 77bd
000001e0: 416c bb3d 07cf 83bc c9ab 0cbd d998 0ebe
000001f0: fecb c63d 5fd5 28bd 4a7e 92bc 70ba 7b3d
00000200: 07cf e5bd 6111 b83d 8d8b 453e 7fc8 03bd
00000210: eb5e 3a3d 17eb f8bc 6ad7 8a3d c462 06be
00000220: cae6 7abd 102b 49bd f6a0 49bd 10f0 a3bd
00000230: 6655 7e3d db89 7b3d 6a6b 85bc 1370 243c
00000240: 611b 563d 74ed 94bb 7d65 0dbe 260c 1ebe
00000250: f7e8 bdbc 74c2 f1bd a8ae db3d ab7e d3bc
00000260: c8f9 d1bc 83ff f5bd 7b1a e9bd 84ee 18bd
00000270: 2981 b7bd ffa8 aab7 5000 17be b232 c53c
00000280: 74db be3d d68f 053d b144 ab3b 9ecb a43c
00000290: e391 8fbd c15b ab3d 9842 0ebd e4f0 e93d
000002a0: f200 35be 6f80 2fbd 0973 c9bd 6c82 5ebc
000002b0: 612f 463d c245 17be 008f f4bc d7c9 383c
000002c0: 6ce7 c6bd 831d 1d3d 3d2a 753c 1d20 7dbd
000002d0: b379 5bbd f280 8bbe 6164 373c d147 ed3c
000002e0: a886 aabd b6b9 7b3d 34a3 a3bd 4f08 60bd
000002f0: 320b 85bc f060 253e e149 453c fdb1 033d
00000300: 6049 3dbc d2db c9bd fcd9 463d 2bc1 1fbe
00000310: a028 f03d fe58 d43d 862b c33d 417c 02be
00000320: a6a0 43ba 0a95 e4bd b721 573d 9750 333c
00000330: 44ee 283e c0e5 c3bd 12c3 dd3d b3fb 32bd
00000340: fe3b 41be 67c6 adbd 4669 b13e 374e 653d
00000350: 3dca b13c 637f bbbc 3c44 1e3d dd9c ad3d
00000360: bc55 343d 6cb5 a1bc 1c66 4fbd 3256 09be
00000370: a817 133e 862d c53c cb56 14be 7d05 09bd
00000380: 240e 1f3d af2f 37be 63da 3dbd 9d43 023e
00000390: 0922 ad3d 8e43 ca3c 4b48 683d 1d8f 643d
000003a0: ee09 09bc 639e 053e c7ef 84bd 9700 61bd
000003b0: ebd6 3ebd c5bb 823d 50cd 2f3d 626f 94bd
000003c0: 23fb de3d 63ee c1bd 75f4 033e 126c 0a3d
000003d0: 40ba 0e3e 170d a1bd 8c59 523d d454 a73d
000003e0: abf1 efbc 76d7 17be 427a 1cbc 776e 56ba
000003f0: 69ee fdba 3f89 7c3d 0b1f 453e 76ec b73d
-0.11079206 -0.20356146 -0.026065372 -0.17819086 -0.089580186 0.11052526 0.024339594 0.05377467
0.05267934 -0.0627807 0.040031213 -0.108531356 0.09326621 -0.03037353 -0.08614291 -0.12797943
-0.055886123 -0.05694398 0.10636855 -0.022618786 -0.048830777 0.12237547 0.0033668834 -0.17055835
-0.059566393 -0.018492527 -0.24000917 0.063887425 -0.004926987 -0.04587454 -0.13250522 -0.15593942
-0.036523752 -0.10352535 0.027261749 -0.059941217 -0.10265833 -0.04825926 -0.057206437 0.09557201
0.0038130507 0.051174108 -0.08807048 0.034961723 -0.12807554 -0.023139276 -0.044090312 -0.15650612
-0.026906746 0.066591814 -0.08605487 -0.072605714 0.07310677 0.12605023 0.05023203 0.08425716
0.05251161 0.012707208 -0.0364536 0.05142023 -0.09351894 0.068916105 0.06656285 0.15537079
-0.07525587 0.0063822595 0.061116185 0.028866408 -0.013507248 0.11118715 0.100910835 -0.0007347767
0.03163498 0.15543042 0.089079894 0.013101646 -0.09125972 -0.08004849 -0.018879555 -0.01960071
0.06624953 0.08403472 0.16284606 0.11316923 -0.1703489 0.16525356 0.045720857 0.03543327
0.01818917 0.028298002 -0.005142068 0.10264937 0.14781763 0.18700537 0.092594825 -0.03957518
-0.13472182 -0.031605937 0.0038946674 0.037337396 0.044636786 0.14131662 -0.08200732 -0.14855798
-0.120098434 -0.16034754 -0.020250786 0.0649072 0.03044577 -0.036563337 -0.09634883 -0.16789922
-0.018151447 0.25572407 -0.12633228 0.027412245 -0.033954434 -0.006280544 0.13935138 -0.06030766
0.09151507 -0.01608993 -0.034343515 -0.13925494 0.09706877 -0.04121911 -0.017882485 0.061457098
-0.11221128 0.0898769 0.19291516 -0.03217363 0.045500677 -0.030385537 0.06779368 -0.13123614
-0.061255254 -0.049113333 -0.04922577 -0.08004773 0.06209316 0.061410766 -0.01628657 0.010036486
0.052272204 -0.004544908 -0.13808246 -0.15434322 -0.023182375 -0.11804667 0.107266724 -0.025817236
-0.0256318 -0.120116256 -0.11382004 -0.03733684 -0.08960182 -2.0344274e-05 -0.14746213 0.024072025
0.09319201 0.032607876 0.0052266945 0.020116623 -0.070102476 0.0836711 -0.034731477 0.11422899
-0.17676142 -0.042847093 -0.09836394 -0.0135809 0.048385028 -0.14772704 -0.029853344 0.011278591
-0.09712109 0.038358223 0.014963684 -0.061798204 -0.05358286 -0.27246815 0.011193366 0.028964909
-0.08326465 0.061456405 -0.07990113 -0.054695424 -0.01624069 0.1615026 0.01204154 0.032152165
-0.0115531385 -0.098563805 0.04854773 -0.15601031 0.117264986 0.103685364 0.09529786 -0.12742712
-0.0007462598 -0.111612394 0.052522387 0.010944507 0.16497141 -0.09565306 0.10828222 -0.04369707
-0.18870541 -0.08485108 0.3465063 0.055982795 0.02170288 -0.022887891 0.038639292 0.08477185
0.044027075 -0.019739829 -0.05063449 -0.13411787 0.14364493 0.024069559 -0.14486234 -0.0334525
0.038831845 -0.17889284 -0.046350848 0.12721105 0.08453757 0.024690416 0.05670957 0.055800546
-0.008364184 0.13048701 -0.064910464 -0.054932203 -0.04659168 0.063834704 0.04292041 -0.07247807
0.10887744 -0.09469297 0.12886222 0.03379447 0.13938236 -0.07863825 0.05135493 0.081704766
-0.029290041 -0.14828286 -0.009550633 -0.00081799127 -0.001937342 0.061654326 0.19250123 0.08980648

lstm.weight_hh_l1 f4 [256, 64]
00000000: 3277 36bd eef1 3ebd 06c2 b13d 12c1 b4bc
00000010: 0eff af3d 82ea 8ebe b431 a73d b75e 0ebc
00000020: 97f7 ed3d 182a c33d 078c c93c 8939 dd3d
00000030: b1bd 99bd ff0c 3bbe ca20 70bd 585f 28be
00000040: 8f99 70bd 944d a3bc ffa9 6ebc 02a8 c4bd
00000050: 0a1f 253d bb88 6e3d ef96 c63d 2717 e03c
00000060: 1d53 413e 4523 bdbd f55b 1dbd ec6b c03d
00000070: a73c 1abe 9d3c 1c3d c760 9d3d 254f c33d
00000080: 08d6 553c 67d5 9e3c fb58 563c 52b6 8f3d
00000090: 3ac0 7f3d 6dc9 583d e197 b63d 3360 09bd
000000a0: 75bf f8ba 3054 2f3e e005 f4bc d4f3 f43c
000000b0: 3071 3b3d ad56 943c 5c69 0e3e 9301 07be
000000c0: c1a5 b6bd 0a02 293e 3b1b 143e 33d8 e53d
000000d0: d6c2 31be 533f acbc 44d1 513d bcc7 b5bd
000000e0: 8738 30be e9b1 cfbd 15a2 4b3c ff70 ebbd
000000f0: 9e45 88bd 2aa5 47bd 56b5 da3d e4ac 5e3e
00000100: 88d3 343d 5a7c 203d 496c 093e 473c b5bd
00000110: c747 bf3b 60ad abbd 875c f4bd c3e6 7a3c
00000120: 25a9 4ebd dd57 3abe eee0 ca3d 2400 2bbe
00000130: 1d2d a23d cc8a bcbc e763 6fbe 0968 a9bd
00000140: cdc7 023e cf44 9d3c 73ca 853d d4b2 08be
00000150: b7b4 11be 8f71 353d 776a e0bc 3156 8dbb
00000160: ab7a c3bd eaa2 8e3c e4f3 833d eaef ebbd
00000170: a11c a83c fc5f 30bc c3ee 98bd cbc1 f2b9
00000180: c822 e83c dd2e 993d 30c8 16be a4ed 7fbd
00000190: 012c 3ebd f3a8 9cbd 37ee a4bd ceca 4ebe
000001a0: 64ce c9bd a6c2 53be e494 233d 5eab 5bbe
000001b0: 4cc8 80bd a6f2 f2bd 3fb7 6bbd 5e15 253d
000001c0: 390d 6cbe e4dc abbd ed61 e43d 94b3 aebd
000001d0: 0d69 193e ff90 d33b 7132 db3d f3f7 ae3d
000001e0: e0f7 e53d f97b 4e3b f925 93bc 7bad b53d
000001f0: 30dc 78bd a7f0 8e3d 869e d5bc 615d 2fbe
00000200: 2ef0 b83d e2d6 8a3c fddb df3c fef6 193b
00000210: a939 7d3d 5ae1 47be caea 18bc 7cde dc3c
00000220: 9295 1c3d 8963 b7bd 7a7c 1d3d f27e 98bd
00000230: 1ae1 11bc 7834 2e3d fbee 56bb 9396 c83d
00000240: 1a99 d23d 13a8 633d 8e5a 503d cdfc b73d
00000250: 6524 9c3c e167 7bbd d0f0 633d 7303 233d
00000260: 3de5 57bd d732 dd3d 3c55 3e3e ddc4 50bd
00000270: 2e66 b0bd a962 b9bd ab54 a83d 9d1e 86bd
00000280: fd1d b23d 70a0 18be 5b0b 9fbd 050c 6d3e
00000290: 6ff8 c73d 782a 7fbd fdcb ba3d 00e8 3fbe
000002a0: bc2c f93d 583a 3bbe 3743 e23d 5555 17bd
000002b0: fa9e 3c3e 79dc c8bd fe87 0f3d 86a6 a83d
000002c0: 8245 05bd 359a b9bd 1097 b63d 8b91 5cbd
000002d0: 476d a93d be12 52bc 4a3f ad3c 0e93 6cbd
000002e0: 7eed acbd 1720 6e3d 2ed8 3a3d 5866 b4bd
000002f0: 65a0 c6bd e68c b9bd 2cde 50bc 173a 3dbb
00000300: a487 80bd b34b 35be cb94 5a3d b2fb 09bd
00000310: be4b eabd 95b9 07bd 8a60 48bd 7a1f 90bd
00000320: 09ec 443e 9774 ddbc 14dd 113e a7c7 973d
00000330: 2f12 6ebd b9b2 45be 1123 2f3e b8ce 33be
00000340: 78e5 e63d 27b3 b0bd 0436 e9bc de88 803d
00000350: ea47 f33d ba0c 863d 44fb 3b3e 7c37 bbbd
00000360: f14f 6e3d 9e13 073e a8e4 4d3e 3cd5 39bd
00000370: b992 bebd b33c 5bbd e514 bbbc b742 ee3d
00000380: d396 86ba e556 c03d 46ce 71bd 855e 243e
00000390: de35 0f3e 0756 793e 281a 4e3e a538 d0bd
000003a0: 505d 183d 8e11 abbd ac27 3ebd feeb 52bc
000003b0: f473 073e 42a0 f83c e283 543e 7c5d 1abe
000003c0: 7d58 8ebd da77 acbc eef0 8e3d 6cdd cd3c
000003d0: 6b0a 45be 760f 763d c9e3 42bc cbdc f4bb
000003e0: b155 52be 0b78 0ebc cf40 333d 8103 21be
000003f0: f240 59be ddcf debc e2c9 893c 277d 7c3d
-0.044547267 -0.04661744 0.08679585 -0.02206472 0.0859357 -0.2791329 0.08163777 -0.008689574
0.1161949 0.09529513 0.024602903 0.108019896 -0.07506884 -0.18266676 -0.05862502 -0.16442621
-0.058740195 -0.019934453 -0.014566897 -0.096023574 0.040312804 0.058235865 0.09696757 0.02735479
0.18879361 -0.09235243 -0.038417775 0.093955845 -0.150622 0.038143743 0.076844744 0.0953658
0.013051517 0.019388868 0.013082738 0.07017197 0.06243918 0.05292647 0.08915687 -0.03353901
-0.0018977957 0.17121959 -0.029787958 0.029901423 0.04576224 0.018107736 0.13907379 -0.13184194
-0.08918334 0.16504684 0.14463513 0.11222877 -0.1735948 -0.02102629 0.051224962 -0.08875987
-0.17209063 -0.101413555 0.01242878 -0.11496162 -0.066539034 -0.048741497 0.10679118 0.2174564
0.044147044 0.03918109 0.13420214 -0.088493876 0.005837414 -0.08382678 -0.11931711 0.015313807
-0.050454278 -0.1819758 0.09906183 -0.16699272 0.07918761 -0.023015402 -0.23377953 -0.08271796
0.1277153 0.01919785 0.06532755 -0.13349468 -0.14229093 0.04429775 -0.027394516 -0.0043132533
-0.095448814 0.017411668 0.06443003 -0.11520369 0.020521464 -0.010765072 -0.07467415 -0.00046302224
0.028336897 0.074796416 -0.14724803 -0.06248249 -0.046428684 -0.07649412 -0.080532484 -0.20194551
-0.09853819 -0.20679721 0.039936915 -0.2145209 -0.062882036 -0.11862688 -0.057547804 0.04030358
-0.23051919 -0.08391741 0.1115149 -0.085303456 0.1498148 0.006456494 0.1070298 0.08543386
0.11228919 0.0031507 -0.017962443 0.088709794 -0.060756862 0.069794945 -0.026076566 -0.17125465
0.09030186 0.016948167 0.027326578 0.0023493166 0.061822567 -0.19519559 -0.009333322 0.026961558
0.03822858 -0.08954532 0.03844879 -0.07446088 -0.008903766 0.042530507 -0.0032796252 0.09794345
0.10283108 0.05558021 0.05086761 0.08983765 0.019060323 -0.061378364 0.05564958 0.03979821
-0.052708853 0.108007126 0.18587202 -0.050968993 -0.08613239 -0.09052021 0.08219274 -0.06548808
0.08697126 -0.14904952 -0.07765838 0.23149116 0.09764182 -0.06229636 0.09120939 -0.18740845
0.121667355 -0.18283975 0.110479765 -0.036946613 0.1842002 -0.09807677 0.0350418 0.08234887
-0.03253699 -0.09062616 0.08915532 -0.053849738 0.08272796 -0.012821851 0.021148343 -0.05775743
-0.084437355 0.058136072 0.04561632 -0.08808583 -0.096985616 -0.09060077 -0.012748282 -0.0028873736
-0.062758714 -0.17704658 0.053364556 -0.0336873 -0.11440228 -0.03313597 -0.04892019 -0.07037254
0.19230665 -0.027033133 0.14244491 0.074111275 -0.05812281 -0.19306459 0.1710322 -0.17559326
0.112742364 -0.086279206 -0.02846814 0.06276105 0.11878951 0.06545396 0.18357569 -0.09141442
0.058181707 0.13191077 0.20106757 -0.04536937 -0.09305329 -0.053524684 -0.022837112 0.116338186
-0.0010268338 0.09391574 -0.05903461 0.16051681 0.13985392 0.24349223 0.20127165 -0.10167054
0.037198365 -0.08352958 -0.046424553 -0.012873648 0.13227826 0.030349854 0.20753434 -0.15074724
-0.069504716 -0.021053243 0.069795474 0.025129996 -0.19242255 0.06007334 -0.0118951285 -0.0074726096
-0.20540501 -0.008695613 0.04376298 -0.15723993 -0.21216181 -0.027198726 0.016819898 0.061642792

lstm.bias_ih_l1 f4 [256]
00000000: d562 5e3d 628d a2bd 5903 8dbd ae8c 8abd
00000010: c481 8abc 2aaa 28bd 1e95 dabc 0c77 0f3e
00000020: c03a 39bd 82da 4cbe b690 dcbd e474 debd
00000030: 399a 863d 86a6 b2bd d1e3 dfbd 0135 77bd
00000040: fc39 2e3d 6a78 0e3d 0d21 7b3d 99db d1bd
00000050: 7508 883d 0e0b d9bd 2c7b b53c 063e 5ebd
00000060: 4e73 da3d 620d e73c 41f8 273b 891a 2b3d
00000070: e284 f83d d440 a8bc e0ad d33d 3016 173e
00000080: 6372 26be 2db5 39be 794f 02be 7465 81bd
00000090: afd0 91bd 47c6 9cbd 0608 b7bd 34f4 a33d
000000a0: cfb2 73bc 7c8c acbd fa33 a23d ac7b 993d
000000b0: aca3 dcbd 410a a4bd e54a ccbd 1d05 56bc
000000c0: 6f8b c63d 262a dcbd 6ebb 7f3b 7231 ec3c
000000d0: 2af9 a6bd 4b67 f13b 99ec c7bb e91b 11bd
000000e0: 8f3c aebd 0705 ffbd 7cad 38bd bad2 233d
000000f0: 19c1 f93d 9082 93bd 853a 303d d821 a73d
00000100: 815c 1dbd 13f5 6abd 9d6b d2bd f121 13be
00000110: 80ba dabc 54c8 a6bd e115 c9bd a937 9b3d
00000120: caf4 fd3d b04e 623d 287e 1c3d e676 bebb
00000130: 17c2 dcbb aa04 e73c 03c6 3cbd 1af6 1c3e
00000140: d450 cebc 53f9 a3bc c125 ed3d a7aa 983d
00000150: 6cc9 79bd ad74 453d e756 093a 3575 54bc
00000160: 0878 c43c 16d7 90bc 1928 bdbc 3dd9 fbbc
00000170: 7578 a03d 151d 85bd 95c1 9a3d a10f b0bd
00000180: 0a00 8c3d 28cc fbbd b74d 363d af46 85bd
00000190: 2b46 08be 0a78 483e 1dfd 883c 9c9d 053e
000001a0: ab57 56bd 583b 6e3d 1abd 9ebd 141b 92bb
000001b0: f098 683d 5de5 03be c581 be3d 48d6 06bd
000001c0: e12d 093e 67bd b83d b697 d83c 0d49 f13d
000001d0: 4f05 5abd f5c2 41bc f1eb b33c 1775 2cbe
000001e0: 01e9 dabd 45e0 f73c f8e9 13bd 2743 913b
000001f0: c85a 783d 92a1 273d d71b f0bc 96ab c13d
00000200: 51dd c6bd 42f2 89bd aca3 60bd 8ecf 0c3b
00000210: aae2 16bc 8aae b43d a9e1 123e 4c27 1a3d
00000220: da28 c03d d30b 83bd 7ed2 733d bdc6 8b3d
00000230: b172 04be 7c1b cabd f5d9 64bd 1720 933d
00000240: 1eb9 643c e552 cdbd 18b2 003e 4ee0 8a3d
00000250: 43b7 84bd d397 f5bc cd6e 5ebd a1df 203d
00000260: f6d7 643d ac39 333d b758 a93d 5f69 69bc
00000270: 8f46 f7bd 63e2 01bd 8ae7 15be 00b7 e8bd
00000280: e765 b33d ff3e 243d b091 093e 0b55 893d
00000290: 91d6 0d3e ee13 a3bd 5cdc 153d f366 863d
000002a0: 67b2 94bd 5c98 dd3d f534 1ebe 940a 333d
000002b0: de95 91bc 2a0c a13d 2868 ac3d 78ce 993d
000002c0: 3fa3 4b3d fd63 e13d bc16 c7bd 214c 753d
000002d0: e874 e8bd f5ef 09be 61d7 04bd f317 c9bd
000002e0: 6aef 59bd 92ca f0bd cad8 eb3d 4509 a7bd
000002f0: 415b c43d 15a2 a3bd aa2c 3bbd 5d36 a53c
00000300: f68a 0d3c 443b 02be 3b90 18bb 7dbb 1cbe
00000310: bca8 38bd ba68 813d 9702 cd3d aaee 383e
00000320: ac51 86bd bde2 3f3d 63d9 e33c dcc3 e8bc
00000330: 4684 2e3d 0b26 9b3d 79fe 2c3d ae3b 823c
00000340: a53e 873d 0da3 b33d bdf8 903c c903 8cbd
00000350: bab3 c43d 3959 5cbd 3def 3a3d 44e0 42bd
00000360: d2d1 663a 5a47 003d f6e5 a23d 8ffc 0b3d
00000370: 23af a7bd 636b b9bc 8e43 e2bd 34e5 54bd
00000380: 4d63 1f3d 38a0 d93b 389b f43d 24b2 9e3d
00000390: b03b f53b abd4 1a3e 44f5 ad3d 87a7 6e3d
000003a0: 71db b33d 1055 a9bd 3d18 7ebd 160d cf3c
000003b0: 943f 13bc 4c99 ccbd 06f6 e33d ed0a b4bc
000003c0: b788 2a3e 921b 7fbc 48d3 bbbd b2d2 41bd
000003d0: 6a4f 5d3d 48ca 2ebd e8a6 cabd 72ae e53c
000003e0: 19e7 543d d51f 33bd d230 273e 1564 063e
000003f0: 9593 123d 8bd3 54bd 1b61 17be d5c7 2bbc
0.054293472 -0.07937123 -0.06885404 -0.06765114 -0.01690758 -0.041177906 -0.026682433 0.14010257
-0.045222044 -0.20005229 -0.10769789 -0.10862139 0.065723844 -0.08723168 -0.109321244 -0.060353283
0.042535767 0.034782805 0.061310817 -0.10246963 0.06642238 -0.10597812 0.02215346 -0.05425837
0.10666524 0.028204624 0.0025630149 0.041773353 0.121347204 -0.020538725 0.103358984 0.14754558
-0.16254573 -0.1813552 -0.12725629 -0.06318179 -0.07119881 -0.07655006 -0.08937077 0.080055624
-0.014874174 -0.08425233 0.0792007 0.07494292 -0.107734054 -0.08009768 -0.099752225 -0.013062743
0.096945636 -0.10750227 0.003902163 0.028832171 -0.08152993 0.00736705 -0.0061012027 -0.035427008
-0.085076444 -0.12452131 -0.045087323 0.039995886 0.121950336 -0.07202637 0.04302456 0.08160752
-0.038418297 -0.057362627 -0.10274432 -0.14368416 -0.026700258 -0.08143678 -0.09818626 0.07578976
0.124002054 0.055250823 0.03820625 -0.0058125136 -0.0067370045 0.028200466 -0.046087276 0.15328255
-0.025185026 -0.020016348 0.115794666 0.07454424 -0.060983106 0.048206974 0.0005239085 -0.012967397
0.023983017 -0.017680686 -0.02309041 -0.030743236 0.07835475 -0.064996876 0.07556454 -0.08596731
0.06835945 -0.12294799 0.04450771 -0.065076225 -0.13308017 0.19577041 0.016722256 0.13048404
-0.0523297 0.058162063 -0.07750912 -0.0044587944 0.056786478 -0.12880464 0.09302095 -0.0329192
0.13396408 0.09020501 0.026439529 0.117815115 -0.05322772 -0.011826267 0.021963092 -0.16841541
-0.10688973 0.030258307 -0.036111802 0.004433054 0.06063345 0.04092557 -0.02931015 0.094565555
-0.097101815 -0.0673566 -0.05484359 0.0021486017 -0.009209314 0.08822353 0.14343895 0.037635133
0.09382792 -0.0639874 0.059526913 0.06825016 -0.12934376 -0.098685235 -0.055871923 0.07183855
0.013960151 -0.100255765 0.12567937 0.06781064 -0.06480267 -0.029979622 -0.054304887 0.03927577
0.05587002 0.043756172 0.08268874 -0.014246314 -0.12074005 -0.03171004 -0.14639106 -0.113630295
0.08759671 0.04009914 0.13434482 0.06705674 0.13851382 -0.07962786 0.036587104 0.06562605
-0.0726059 0.10820076 -0.15449889 0.04371126 -0.017771658 0.07863648 0.08418304 0.07510084
0.04971623 0.110053994 -0.09721133 0.059887055 -0.11350423 -0.13470443 -0.032431964 -0.09819021
-0.05320684 -0.11757387 0.115159586 -0.08156065 0.09587718 -0.07989899 -0.04569689 0.020167524
0.008639088 -0.1271792 -0.0023279327 -0.15305896 -0.045082793 0.06318803 0.100102596 0.18059793
-0.065585464 0.046847094 0.027813619 -0.028413706 0.042606615 0.075756155 0.04223487 0.015897598
0.06603745 0.08771334 0.017696733 -0.068366595 0.096045926 -0.053796027 0.04563831 -0.047577158
0.00088050694 0.031318046 0.07954018 0.034176406 -0.081877016 -0.022634214 -0.11048041 -0.051976398
0.03891306 0.006641414 0.11943668 0.077488214 0.007483922 0.15120189 0.08494046 0.058265235
0.087820895 -0.082681775 -0.062034834 0.025274795 -0.008987326 -0.099901766 0.111309096 -0.021977866
0.16653715 -0.015570538 -0.09171158 -0.047320075 0.054030813 -0.04267338 -0.09895116 0.028037284
0.051978204 -0.04373153 0.16327217 0.13124116 0.035785276 -0.051959556 -0.14783137 -0.010484655

lstm.bias_hh_l1 f4 [256]
00000000: 8fce 883d adb4 0abe e0ed 6dbc 4dfe c8bd
00000010: 81ea edbb d3d2 8c3c 4cfb 363c c8d6 5a3e
00000020: 663a cabc 9856 d3bd 5c1f d2bd 7bb3 793c
00000030: e72c c33d 6e64 a8bd 09f3 dbbd 6743 74bd
00000040: 6f21 1abe 71d7 dbbd 62f4 193d c581 a9bd
00000050: f207 e9bc b234 043d 3e29 e73d bedc fabc
00000060: a421 a33c 65ed 7b3d c8d0 4cbc 3fb8 26bd
00000070: 1f8c 313d 354a 13be f604 ba3d 07a2 973c
00000080: bda1 c8bd aad3 863c efa9 6dbc 35fe 88bd
00000090: e5ad 953d 24cc 18bc f084 9bbd 8845 00be
000000a0: 9684 a1bd 33ba 663d c4c3 a03d dc98 a33d
000000b0: 92f7 a5bc 387d 20bc 6cc8 033d 8aa4 14be
000000c0: fb09 3d3d bc37 a6bd df05 90bc 4307 183e
000000d0: 267c e9bd 7bbd 213c 93eb dfbd 63cf 12bd
000000e0: c5fe 72bd eede 5cbd 3cb8 0fbd 5f28 ea3c
000000f0: 855e 903c df29 c7bd 63e3 debc c46a 8c3d
00000100: 75f6 153e 02c2 83bc 29e6 97bd a428 ab3b
00000110: cbee 393d cec5 e63d ac69 07bc 864d c5bd
00000120: 0948 f03c 6630 f4bd 6529 74bd 95fe 033b
00000130: 013a 66bd b01a ec3a 6571 54bd 0c1b 9bbd
00000140: c0f0 24be bfc1 ca3d 21ef cb39 0b53 a1bc
00000150: 7c55 dc3d b313 113e 6fe7 28bd 02ff afbb
00000160: 5ebe 2f3e 0622 7cbb 698c fe3c 6f64 943d
00000170: b71c ad3c 2b03 c7bd 59f2 bbbd 52e2 51bd
00000180: 3a1f 8d3d 4e6c a93c eeb6 163e 07cb 503d
00000190: 9698 12bd 9927 ca3d 0348 fdba 198b 393e
000001a0: 591b c73d 4538 803d afa6 95bd 1e21 84bd
000001b0: 6971 dfbc 9439 0f3d 9aa1 35bd 63a2 043e
000001c0: 837a 173e d914 a33d 3788 3a3c c3ef 9e3d
000001d0: 3158 96bd cfa9 073e 09e9 e9bd 110d 25be
000001e0: 7c90 713d 5d42 523e 3fa7 b63a 9333 0bbd
000001f0: 4b2f fb3c 85d4 9abc d2e9 a53c 31d4 fbbd
00000200: adae 1a3d d419 053d 1a42 e03c c797 b6bd
00000210: e54b ff3b c136 e2bc 9a0b 0f3d d0c2 70bd
00000220: 1053 aebd c147 5cbc 6d80 923b a827 a9ba
00000230: ce00 0abd ebdf 50bd 288c b23d 4f77 993d
00000240: e5a6 813d 755a 5b3d 64df 26bd 963a 4e3d
00000250: a5ef f1bd 835c fabb f2dc f7bd e621 9f3c
00000260: 7ce5 cd3a 6df1 803b eb78 c7bd f46b 5b3c
00000270: 9d69 97bd d348 f0bd 901c 903d cd43 85bc
00000280: ddff a13c 876d 3c3d 3773 b33d 914b c03d
00000290: 9382 48bd 5a11 f53d ecfb 103e e4b4 0b3e
000002a0: 5717 88bd 01b1 383d 1317 943d be6f 033e
000002b0: 0fbf 9abd 7f5b 73bd c984 64bd 98a2 e7bd
000002c0: cb92 1d3e d3bc d53d 9727 263d a296 c23d
000002d0: a7fa 743d 3ddb 7a3d d073 e9bd e9e5 143d
000002e0: 43cc a4bd 26af 62bd 4a45 04bd 4034 ddbb
000002f0: 8721 a2bb 4799 55bd c321 c6bd fe6e f63d
00000300: 440f b93d 74da 873d d904 ce3d cb7b fbbd
00000310: 618a b73d 4c34 df3d 0b3e f73c 6937 503e
00000320: 4882 a93c 2909 36bd dd3b 3dbd bfad f4bd
00000330: 592e e23c 28c8 4e3d 8b56 3abd e943 87bd
00000340: e4a7 5a3d b39f 2ebc 74c3 253e b931 aebd
00000350: b372 3ebc b13b 4cbd 19c3 833d f625 17be
00000360: 1768 2dbd f08a 60bc b002 1e3d eda7 143e
00000370: d96a 213e e40e 913c bf4b 433d f2b7 82bd
00000380: 58bd f0bc ddd9 083d c26b c4bd 3050 f93d
00000390: fcef 283e a06f 873d 9e63 df3d 62a7 e23d
000003a0: 09f4 1c3b 52a9 91bd fbeb 91bd 4358 cebd
000003b0: ab8a 8dbc 7cc7 86bd 22f2 d7bc b9f8 da3d
000003c0: 934f cf3d c4f0 e3bc d8f7 a0bd 9a72 aabc
000003d0: 5985 bd3c c723 843d bed4 383d 90ee ecbd
000003e0: eb82 b63d d91b 5ebd e70c 683d 8a22 5ebd
000003f0: 5f32 843d ae5c dbbd cb3b 42bd a6cb 0dbe
0.06680023 -0.13545485 -0.014522046 -0.09814129 -0.007260621 0.017190373 0.011168312 0.21370995
-0.02468605 -0.10319251 -0.102598876 0.015240545 0.09530049 -0.082222804 -0.10739715 -0.059634592
-0.15051816 -0.107344516 0.037586577 -0.08276705 -0.028446171 0.032276817 0.11287163 -0.030622836
0.019913502 0.061505694 -0.012500949 -0.040703055 0.04334652 -0.14383776 0.090829775 0.018509878
-0.09796474 0.016458351 -0.014505847 -0.06689111 0.073085584 -0.009326015 -0.07593715 -0.12526524
-0.07886617 0.056329917 0.07849839 0.0798814 -0.020259652 -0.0097954795 0.03217356 -0.14515892
0.046152096 -0.08116099 -0.017580925 0.1484652 -0.114006326 0.009871836 -0.10933604 -0.03584231
-0.059325 -0.05392354 -0.03508781 0.028583704 0.017623195 -0.09724783 -0.027208036 0.068563014
0.14644797 -0.016083721 -0.074169464 0.0052233506 0.045393746 0.11268197 -0.00826494 -0.09633927
0.029331224 -0.11923294 -0.05960979 0.0020140756 -0.05620766 0.0018013325 -0.051865954 -0.07573518
-0.16107464 0.099002354 0.00038897342 -0.019692918 0.10758492 0.14167671 -0.041236337 -0.0053709755
0.17162463 -0.0038472428 0.031072812 0.07245719 0.021131856 -0.09717401 -0.091770835 -0.051241226
0.068907216 0.020681527 0.1471822 0.050974872 -0.03579005 0.09870834 -0.0019323829 0.18119468
0.09722013 0.062607326 -0.07307183 -0.06451629 -0.027275758 0.03496702 -0.04434357 0.1295257
0.14792828 0.07962961 0.011385015 0.07760575 -0.0734104 0.1324837 -0.11421401 -0.16118266
0.05897568 0.20533128 0.0013935341 -0.033984732 0.0306622 -0.018900165 0.020253096 -0.12296332
0.03776424 0.032495335 0.02737527 -0.08915668 0.0077910298 -0.027614 0.034923173 -0.058779538
-0.08511937 -0.013444842 0.004470876 -0.0012905495 -0.033692174 -0.050994795 0.08718139 0.074934594
0.06330661 0.053553063 -0.040740386 0.05034884 -0.11813287 -0.007640423 -0.12102689 0.019425344
0.001570865 0.00393503 -0.0973986 0.013392437 -0.07393191 -0.1173264 0.07036698 -0.016267681
0.019775325 0.04600289 0.0876221 0.09389413 -0.04895265 0.119662 0.141586 0.13643223
-0.06645077 0.04509068 0.072309636 0.12835595 -0.07555973 -0.05941343 -0.055790696 -0.11310309
0.15388028 0.10436406 0.0405651 0.09501387 0.059809353 0.06124424 -0.113990426 0.036352072
-0.08046772 -0.055342816 -0.03229264 -0.0067506135 -0.0049478444 -0.05214813 -0.09674408 0.12032889
0.09036115 0.066334635 0.10059518 -0.12279471 0.089619406 0.10898647 0.030180952 0.20333637
0.020692006 -0.04444233 -0.04619967 -0.11947202 0.02760999 0.050483853 -0.04549269 -0.0660475
0.05338277 -0.010658192 0.1618784 -0.085055776 -0.011624026 -0.049861614 0.06433696 -0.14760575
-0.042335596 -0.013705 0.03857678 0.14517184 0.15763415 0.017707296 0.04767966 -0.06382741
-0.029387161 0.033410896 -0.09590866 0.12173498 0.16497797 0.06613088 0.10907672 0.11067082
0.0023949167 -0.071123734 -0.07125088 -0.10075428 -0.017278036 -0.065810174 -0.026360575 0.10691971
0.101225995 -0.027824767 -0.078597724 -0.0208066 0.023134874 0.064521365 0.04512476 -0.1156894
0.08911689 -0.054225776 0.05665293 -0.054232158 0.0645492 -0.107110366 -0.047420304 -0.13847217
