src/util/AI/checkpoints/013.ckpt (torch, 353508 bytes, 14 tensors)

lstm.weight_ih_l0 f4 [256, 12]
-0.05173599 0.07604099 -0.16372699 0.0349958 0.0904307 0.070146285 0.058438893 -0.006632674
-0.10267495 0.03959232 -0.10761927 -0.0506992 -0.17735387 0.0013085972 -0.066519685 -0.10635054
-0.06816114 -0.048817325 0.11899516 0.11161038 0.08817054 0.039275445 -0.09170052 0.027626984
0.07693055 0.10775731 0.05344612 0.13027939 0.05462173 0.20906118 0.20442292 -0.11296698
0.017823353 -0.03444453 0.0561925 -0.09257452 0.020594174 0.04827049 0.06354013 -0.20639811
-0.20690283 -0.0060120793 0.17519407 0.0070229354 -0.14378837 -0.05867417 0.2019627 0.018023387
0.038465843 -0.082316145 -0.06583629 -0.073164746 0.044198696 -0.0230374 0.085889205 0.18654451
0.04637687 -0.057582524 -0.09078136 -0.09235604 0.03640978 0.038296085 0.03741504 0.0755101
0.015348969 -0.07856254 0.25244766 0.28814095 -0.022420045 -0.0405546 -0.009662353 0.030697118
0.113014996 0.012768316 -0.15637511 -0.1706616 0.09943274 -0.00614699 -0.058635112 0.13088809
-0.04696782 -0.080695175 0.0008011055 -0.002135145 -0.05543859 0.12472466 0.059768256 0.052343644
0.092144154 0.09226304 -0.0005980598 0.12671024 -0.045232296 -0.026625812 -0.056499723 -0.051529095
-0.031976312 0.001614629 -0.1252267 0.0051900884 -0.020861752 0.04016412 0.18973671 0.26022935
0.011274225 -0.05281125 -0.09300906 -0.012059765 0.079429924 -0.039598245 0.100238554 0.07338738
-0.03925495 0.0021005424 0.06870371 -0.14868331 -0.19789511 0.011376521 -0.031554226 0.11491666
0.023922028 -0.079044476 -0.11870007 -0.064592965 0.16443916 0.046786163 0.11486446 0.116471134
0.12659475 0.008420303 0.09379447 -0.06348935 0.08646477 0.049579214 0.048445024 -0.08742838
0.06642744 0.01802082 -0.096954666 -0.17399406 -0.22663435 0.04463079 0.16479792 0.021420252
0.029697953 0.014610197 -0.13623708 -0.1092102 0.047856867 0.14791626 -0.074862674 -0.2716311
-0.0793022 0.032655694 -0.057155225 -0.100596234 0.01794084 0.058400527 0.04266521 -0.07841091
-0.14776628 -0.101574786 0.14418237 -0.11459369 -0.165109 -0.07085081 0.0013921709 0.015153887
-0.060144067 0.04674765 -0.096381746 0.090854585 -0.068903156 -0.07066451 0.10437244 0.038746104
-0.092185736 0.016996933 -0.02153508 0.03989757 -0.05636073 -0.050552353 0.14992678 0.018103896
0.14811485 0.00906122 -0.11284513 -0.031803768 -0.03883722 -0.08104576 -0.04837322 0.110356405
-0.061249226 0.020886114 0.06845924 0.17042796 0.09068856 0.06472243 -0.05492936 -0.16406809
-0.033147916 -0.016377727 -0.10005133 -0.03362772 -0.072570905 -0.041399732 -0.037358426 -0.20837429
0.025361512 0.19602965 0.038615655 -0.10828382 0.08253815 0.004271238 0.13262217 -0.12112443
-0.13695627 -0.009596204 -0.057436585 0.09468516 0.059326854 -0.14213729 -0.22671747 0.09733695
0.049127858 0.06676518 -0.19217423 -0.09698197 -0.22902781 0.0022360794 -0.10872778 0.060341045
0.11104369 0.028975125 -0.06967695 -0.03328308 0.02050772 0.07545538 -0.05968387 0.039959207
-0.098256096 0.17358415 -0.10804471 0.0048628943 -0.024006765 -0.07533444 -0.038739726 0.1291577
-0.07147183 -0.09046499 0.05150297 0.022658218 -0.00081120624 0.07796011 -0.10296332 0.04935734
00000000: 1ee9 53bd 61bb 9b3d 0ca8 27be c257 0f3d
00000010: bb33 b93d dba8 8f3d 9f5d 6f3d e756 d9bb
00000020: 3f47 d2bd 8e2b 223d 7e67 dcbd f7a9 4fbd
00000030: 419c 35be 3c85 ab3a 793b 88bd 50ce d9bd
00000040: 1198 8bbd adf4 47bd bcb3 f33d fc93 e43d
00000050: c292 b43d 4adf 203d 7bcd bbbd fc51 e23c
00000060: c48d 9d3d ddaf dc3d 52ea 5a3d f667 053e
00000070: 09bb 5f3d 2214 563e 3e54 513e 3b5b e7bd
00000080: 4802 923c b515 0dbd 1b2a 663d b697 bdbd
00000090: 1db5 a83c 47b7 453d 5421 823d 075a 53be
000000a0: 56de 53be fa00 c5bb 1366 333e a720 e63b
000000b0: 423d 13be 5454 70bd 4fcf 4e3e c8a5 933c
000000c0: 5c8e 1d3d 5e95 a8bd 2dd5 86bd 66d7 95bd
000000d0: b109 353d eeb8 bcbc aee6 af3d 8605 3f3e
000000e0: acf5 3d3d a7db 6bbd 94eb b9bd 2a25 bdbd
000000f0: 6c22 153d 5bdc 1c3d 8340 193d 0aa5 9a3d
00000100: 3e7a 7b3c 66e5 a0bd d240 813e 3687 933e
00000110: 3eaa b7bc 951c 26bd d94e 1ebc 8678 fb3c
00000120: 6874 e73d 3332 513c cc20 20be eac1 2ebe
00000130: 64a3 cb3d b16c c9bb 5f2b 70bd 8707 063e
00000140: 5461 40bd 8343 a5bd 4801 523a caed 0bbb
00000150: 9313 63bd a46f ff3d 8fcf 743d 4a66 563d
00000160: 13b6 bc3d 68f4 bc3d 1dc7 1cba 54c0 013e
00000170: 8045 39bd 601e dabc 416c 67bd 2c10 53bd
00000180: 98f9 02bd f6a1 d33a 6e3b 00be 9e11 aa3b
00000190: 44e6 aabc 2283 243d 574a 423e c83c 853e
000001a0: 87b7 383c 9c50 58bd 897b bebd 5296 45bc
000001b0: 28ac a23d c531 22bd df49 cd3d 1f4c 963d
000001c0: ccc9 20bd 41a9 093b 88b4 8c3d 7040 18be
000001d0: 04a5 4abe 9664 3a3c 013f 01bd 6d59 eb3d
000001e0: 21f8 c33c 12e2 a1bd 0619 f3bd 5149 84bd
000001f0: bd62 283e d9a2 3f3d 0f3e eb3d 6b88 ee3d
00000200: 0ea2 013e 50f5 093c 5117 c03d b406 82bd
00000210: 7114 b13d 9313 4b3d 4a6e 463d a70d b3bd
00000220: 1c0b 883d 66a0 933c 2b90 c6bd 802b 32be
00000230: d612 68be c6ce 363d c9c0 283e 8679 af3c
00000240: 1f49 f33c 9c5f 6f3c bc81 0bbe 99a9 dfbd
00000250: 9005 443d 5c77 173e 9a51 99bd 3b13 8bbe
00000260: 3169 a2bd fac1 053d 991b 6abd 6605 cebd
00000270: abf8 923c 6435 6f3d b7c1 2e3d e695 a0bd
00000280: 0b50 17be 7106 d0bd 8ba4 133e 19b0 eabd
00000290: 5512 29be 3b1a 91bd 8179 b63a 0248 783c
000002a0: a059 76bd 777a 3f3d cb63 c5bd f811 ba3d
000002b0: 191d 8dbd 8eb8 90bd 38c1 d53d 3cb4 1e3d
000002c0: e0cb bcbd 273d 8b3c 566a b0bc a26b 233d
000002d0: 82da 66bd fc0f 4fbd 6886 193e 9f4e 943c
000002e0: 6bab 173e 8375 143c 591b e7bd ab44 02bd
000002f0: c713 1fbd 52fb a5bd ff22 46bd 8a02 e23d
00000300: 78e0 7abd 5b19 ab3c 5c34 8c3d ab84 2e3e
00000310: ecba b93d 328d 843d 9cfd 60bd 7701 28be
00000320: 1cc6 07bd 952a 86bc b6e7 ccbd 38bd 09bd
00000330: 0ea0 94bd c492 29bd 2605 19bd 1260 55be
00000340: f2c2 cf3c ffbb 483e 732b 1e3d e8c3 ddbd
00000350: c309 a93d bef5 8b3b 1bce 073e 1610 f8bd
00000360: 443e 0cbe 6639 1dbc a042 6bbd 4bea c13d
00000370: b700 733d 708c 11be a028 68be 9858 c73d
00000380: 4b3a 493d 2fbc 883d 52c9 44be 7c9e c6bd
00000390: 4486 6abe 308b 123b acac debd 2c28 773d
000003a0: e06a e33d 3e5d ed3c cab2 8ebd d753 08bd
000003b0: ceff a73c 5a88 9a3d 1377 74bd 44ac 233d
000003c0: 7e3a c9bd 0bc0 313e 8b46 ddbd ea58 9f3b
000003d0: d6a9 c4bc f148 9abd 8cad 1ebd eb41 043e
000003e0: d35f 92bd b545 b9bd c7f4 523d ba9d b93c
000003f0: 21a7 54ba 8da9 9f3d 6fde d2bd ec2a 4a3d

lstm.weight_hh_l0 f4 [256, 64]
0.052957527 -0.061732873 0.15873119 -0.026604375 0.06079774 0.19465433 -0.101628974 -0.021963192
0.12333879 0.18536916 0.08177673 0.033133738 0.19375977 -0.09244443 0.123832054 0.052059438
-0.041549083 0.06368221 -0.0037741975 0.038055465 -0.021769723 -0.095784515 0.004513549 -0.01928951
0.17629187 -0.057657063 -0.14618888 -0.002280734 0.08780276 0.0662519 -0.11868468 -0.07329479
-0.06316138 0.014366224 0.073887415 -0.11910377 0.00011058737 0.031075986 -0.074641615 0.07777217
-0.052702427 -0.04260177 0.018400067 -0.11738054 -0.06586199 -0.17840917 -0.10463852 -0.1647121
0.08329053 0.07797658 0.088848524 0.07173892 -0.20301753 0.0014116396 0.22633156 -0.09337416
0.035269894 0.113983124 -0.13546172 -0.06401744 -0.062263682 0.15629207 0.03173345 0.10797469
0.049145564 -0.076931186 0.25669587 0.09557418 0.04630271 -0.10234818 -0.038661126 -0.057810333
-0.06842847 -0.16029926 0.10919791 0.017419472 0.011792565 -0.09329852 -0.18405546 0.07532427
0.12572575 -0.19249299 0.20117538 0.081626885 0.20670715 -0.11586758 -0.1926242 0.033568908
0.076113 -0.14947914 0.058264088 0.15930039 -0.0729003 -0.22823091 -0.04158245 0.16436444
-0.14513375 -0.08783597 0.018840954 0.07104178 0.058170088 -0.06585045 -0.12153194 0.09178886
0.025712384 -0.17659964 -0.053965952 -0.17530368 -0.09062234 -0.14445004 -0.14139338 -0.049826924
-0.014153049 -0.006828628 0.0677311 -0.0048953486 -0.174016 0.08039729 -0.033630654 0.23741977
-0.06933264 0.10787335 -0.16917504 0.09982689 0.029855847 -0.06450152 0.06695592 -0.10684437
0.13910012 -0.21484247 -0.07356537 0.056440216 -0.05688911 0.04859819 -0.019130848 0.10180169
0.07336072 -0.10200304 0.04216801 0.07281278 0.1620757 -0.041101824 -0.06797 0.083625756
-0.13754335 -0.031976227 0.20695198 0.0129295755 -0.08886805 0.04285527 -0.016772516 0.05679971
-0.03606227 -0.14657725 -0.101300396 -0.07763302 -0.0069574458 0.050395094 -0.16869068 -0.13456312
0.011628888 0.021803033 0.114397146 -0.030150551 0.05123305 0.09872677 -0.032794554 0.15236196
0.17388615 0.05514039 0.04443752 -0.017690884 0.04069617 0.12312633 -0.13902989 0.17463765
-0.061941866 0.0030889374 0.0020336336 -0.15643229 -0.004303871 -0.18976802 -0.012035999 -0.15132912
-0.13536571 0.02156332 0.100117 0.024529 -0.08639038 0.0019547038 -0.10042605 0.21702527
0.25525945 -0.27947393 0.13599196 -0.24641196 0.012940191 -0.22873616 -0.11975796 -0.07698367
0.1550472 -0.17933837 0.06976433 -0.022749007 -0.009170458 -0.024237063 -0.002066892 0.15641351
0.055049412 -0.0014815453 -0.18212686 0.19001418 -0.09231904 -0.15399523 -0.17157862 0.11049901
0.06726498 -0.11514847 -0.1722345 0.21083537 0.14983717 -0.093018994 0.1670943 -0.0077164304
0.1796066 -0.0013236279 0.007259539 0.06353573 -0.09709548 -0.09850715 -0.030246241 0.091763884
0.19494273 0.13570915 0.0170033 -0.2949713 0.014790736 0.13440292 0.038615827 0.29567167
0.0750561 -0.18550143 -0.10060937 0.09382884 -0.043873284 0.10444185 0.073251285 0.04087966
0.08873158 0.022087255 -0.30768603 -0.17377092 0.08911851 -0.26385832 0.18979098 0.008330043
00000000: fee9 583d 9cdb 7cbd 6e8a 223e 6bf1 d9bc
00000010: 0d07 793d 7753 473e da22 d0bd 27ec b3bc
00000020: 0c99 fc3d 6ad1 3d3e 8f7a a73d 3eb7 073d
00000030: f668 463e 8153 bdbd a99b fd3d 473c 553d
00000040: 5f2f 2abd d26b 823d 8758 77bb 0ce0 1b3d
00000050: 6b56 b2bc ac2a c4bd 65e6 933b 0905 9ebc
00000060: db85 343e d029 6cbd 8ab2 15be 5e78 15bb
00000070: efd1 b33d 13af 873d f410 f3bd 941b 96bd
00000080: c15a 81bd 5060 6b3c 4952 973d adec f3bd
00000090: 24eb e738 1193 fe3c b4dd 98bd 0447 9f3d
000000a0: 80de 57bd 327f 2ebd bdbb 963c 3565 f0bd
000000b0: a7e2 86bd e5b0 36be b84c d6bd 4aaa 28be
000000c0: 3a94 aa3d 2fb2 9f3d 37f6 b53d dbeb 923d
000000d0: d4e3 4fbe c406 b93a 76c3 673e f43a bfbd
000000e0: 2a77 103d fc6f e93d 7ab6 0abe 931b 83bd
000000f0: 3408 7fbd 070b 203e effa 013d d621 dd3d
00000100: dc4c 493d 198e 9dbd a46d 833e 65bc c33d
00000110: e9a7 3d3d ec9b d1bd 215b 1ebd 87ca 6cbd
00000120: 3a24 8cbd 7d25 24be 27a3 df3d 48b3 8e3c
00000130: 9a35 413c 4b13 bfbd 0979 3cbe 9c43 9a3d
00000140: 40be 003e e21c 45be eb00 4e3e ff2b a73d
00000150: 0aab 533e fb4b edbd 473f 45be 8d7f 093d
00000160: 22e1 9b3d 0f11 19be 53a6 6e3d a41f 233e
00000170: c14c 95bd 5db5 69be 5c52 2abd 274f 283e
00000180: f19d 14be 58e3 b3bd 5858 9a3c 5a7e 913d
00000190: c243 6e3d 9adc 86bd bde5 f8bd ccfb bb3d
000001a0: c7a2 d23c 89d6 34be 670b 5dbd cf82 33be
000001b0: 3598 b9bd b6ea 13be 6dc9 10be 5117 4cbd
000001c0: 31e2 67bc afc2 dfbb 9ab6 8a3d 2969 a0bb
000001d0: 4031 32be 56a7 a43d 4cc0 09bd 2b1e 733e
000001e0: 45fe 8dbd b4ec dc3d 393c 2dbe 0a72 cc3d
000001f0: 4094 f43c 5f19 84bd 2f20 893d 39d1 dabd
00000200: 4370 0e3e aaff 5bbe 71a9 96bd db2d 673d
00000210: 8e04 69bd e50e 473d 4cb8 9cbc 687d d03d
00000220: 253e 963d f8e6 d0bd 5db8 2c3d de1e 953d
00000230: 2cf7 253e 635a 28bd db33 8bbd fb43 ab3d
00000240: 2ad8 0cbe 81f9 02bd 38eb 533e 92d6 533c
00000250: 7400 b6bd 0289 2f3d 8466 89bc d0a6 683d
00000260: 08b6 13bd 5918 16be 9576 cfbd 10fe 9ebd
00000270: 49fb e3bb 166b 4e3d 40bd 2cbe eaca 09be
00000280: 1787 3e3c 469c b23c 0d49 ea3d 4afe f6bc
00000290: bfd9 513d 4331 ca3d 9553 06bd c604 1c3e
000002a0: 360f 323e e4da 613d 1e04 363d 79ec 90bc
000002b0: 07b1 263d a829 fc3d da5d 0ebe 36d4 323e
000002c0: c1b6 7dbd c56f 4a3b b646 053b c92f 20be
000002d0: 7d07 8dbb 8c52 42be a432 45bc 05f6 1abe
000002e0: 4f9d 0abe 8fa5 b03c 240a cd3d 0bf1 c83c
000002f0: 71ed b0bd 7d1a 003b 2cac cdbd df3b 5e3e
00000300: 5eb1 823e 3517 8fbe 7a41 0b3e 6b53 7cbe
00000310: 1803 543c d039 6abe a943 f5bd 9da9 9dbd
00000320: b1c4 1e3e 7aa4 37be 9ae0 8e3d 205c babc
00000330: b03f 16bc ce8c c6bc b274 07bb dd2a 203e
00000340: 7e7b 613d 6930 c2ba 777f 3abe 1493 423e
00000350: c411 bdbd edb0 1dbe 4eb2 2fbe 4e4d e23d
00000360: 39c2 893d f6d2 ebbd 3e5e 30be 3ae5 573e
00000370: ea6e 193e be80 bebd c51a 2b3e 1cda fcbb
00000380: cbea 373e 957d adba 6de1 ed3b 051f 823d
00000390: ffd9 c6bd 1ebe c9bd f7c6 f7bc b4ee bb3d
000003a0: 119f 473e 57f7 0a3e 814a 8b3c 7a06 97be
000003b0: d854 723c eba0 093e a12b 1e3d 4762 973e
000003c0: 03b7 993d 16f4 3dbe 490c cebd 5629 c03d
000003d0: 79b4 33bd 9ce5 d53d c504 963d 6e71 273d
000003e0: e7b8 b53d 55f0 b43c 0689 9dbe 01f1 31be
000003f0: c483 b63d 7018 87be 9158 423e bc7a 083c

lstm.bias_ih_l0 f4 [256]
-0.04089594 -0.092062995 -0.08690963 -0.1190313 -0.0959656 0.038628545 0.030243563 0.09852245
0.1482835 -0.09349938 -0.020173257 8.589987e-05 -0.056544904 -0.061625466 0.090510644 -0.027510878
-0.13200437 0.014475758 -0.041087024 0.0019549732 -0.02753343 0.106430165 -0.034850582 -0.050468523
0.0626301 0.041873295 -0.20844689 0.04661477 0.07545125 -0.03907432 0.067238376 0.07407663
0.06087838 -0.070669524 -0.03425154 0.1204598 0.046023015 -0.0949717 -0.07481664 -0.16793568
-0.00043133338 -0.03264962 0.10790162 0.07218978 0.024069851 -0.07655458 0.077104785 0.20414345
0.047594465 -0.099653155 -0.04385106 -0.07410976 -0.016164972 -0.0696477 0.061132107 -0.091840975
-0.25735426 -0.19178231 0.0013235187 -0.078216925 -0.025044933 -0.010353931 0.1540309 0.099786654
-0.062470216 -0.058018446 -0.043811884 -0.17431349 0.113301314 -0.063449994 -0.018453369 -0.075299054
-0.0912569 -0.009393771 -0.0022618761 0.04249445 -0.1252093 -0.1420801 -0.037113048 0.062431138
-0.059373103 -0.07832809 0.017912917 0.110998325 0.029038636 0.072669655 0.120938025 0.075928636
0.045365844 0.06304528 -0.04035609 0.062236518 0.04531509 0.17936765 -0.049714472 0.17354727
0.1346078 0.024626784 0.0015262734 0.1286031 0.109038405 -0.21596713 0.051329706 -0.19713432
0.007908722 0.134902 0.09309196 0.06641976 0.030131033 -0.05550395 0.06793751 0.009814184
-0.0052580084 0.13501738 0.089345515 -0.07888131 0.1263231 0.011907608 -0.10690116 0.16173714
-0.02449075 -0.035119377 -0.020403162 -0.15109307 -0.13108437 -0.072217576 0.10433102 -0.021325024
-0.006205928 -0.08847922 0.06332134 0.05686549 -0.04119082 0.093592755 -0.006744393 0.006560473
-0.16914633 -0.041270874 -0.11127165 -0.06916855 -0.0033447032 -0.0050555035 0.008978874 0.04619184
0.04257953 0.09370739 -0.051703174 0.19779024 -0.094233 0.06393709 0.13697648 0.16507153
0.020249696 0.06258822 0.17517743 0.057622217 -0.0119519355 -0.103725135 -0.0020138149 -0.1353619
0.16356608 -0.005792891 -0.048600797 -0.024969084 0.100265115 -0.10203304 -0.06386375 -0.03710568
0.117105536 0.03911514 -0.26285467 -0.04038706 0.022829125 -0.09173339 0.08858932 -0.06994484
0.033509642 0.16599767 0.056498673 0.1549467 0.021568604 0.09177414 0.032511417 -0.09487371
-0.055313278 0.12636061 0.15829058 0.059161313 -0.039529134 0.11968967 0.079246946 -0.07936122
0.06312089 -0.00953373 -0.007088642 0.09514238 0.015162056 -0.057750605 -0.16962542 0.096031934
-0.098411195 -0.034354504 -0.045022387 0.011559998 -0.0007548296 -0.0013850825 -0.17005344 0.008615772
-0.10778558 0.0044646403 -0.14576219 0.068024255 -0.124173805 -0.07449257 0.011286831 -0.01101085
-0.13622637 0.07933509 0.12715653 0.027854607 0.08935066 -0.021709928 0.010113024 -0.10508992
-0.017199503 -0.022407569 -0.044054974 -0.10896034 0.039282724 -0.10830246 0.04052778 -0.04859563
-0.00038315274 0.18831174 0.09286314 0.11604664 0.07073244 -0.0554868 -0.09551497 -0.020282235
-0.07062868 -0.09674908 -0.12561695 0.13172883 0.10232928 0.009851484 -0.067858495 -0.07480531
-0.09869681 0.03589454 -0.16358809 0.1095253 0.08876836 -0.08343185 0.024159042 -0.11898423
00000000: 8082 27bd 868b bcbd adfd b1bd afc6 f3bd
00000010: 9d89 c4bd f738 1e3d 59c1 f73c 23c6 c93d
00000020: a1d7 173e 9a7c bfbd 6342 a5bc 2425 b438
00000030: a19b 67bd fc6a 7cbd a55d b93d 7e5e e1bc
00000040: 272c 07be bb2b 6d3c de4a 28bd 021f 003b
00000050: ca8d e1bc 0ff8 d93d 7cbf 0ebd 15b8 4ebd
00000060: 3644 803d 5583 2b3d 1a73 55be 21ef 3e3d
00000070: 2f86 9a3d 650c 20bd 46b4 893d 7db5 973d
00000080: 9c5b 793d 2fbb 90bd 584b 0cbd a1b3 f63d
00000090: a182 3c3d 8680 c2bd 7739 99bd 55f7 2bbe
000000a0: 9624 e2b9 9cbb 05bd 86fb dc3d 3cd8 933d
000000b0: 232e c53c a6c8 9cbd 1de9 9d3d fb0a 513e
000000c0: 6af2 423d f416 ccbd 2b9d 33bd dcc6 97bd
000000d0: 676c 84bc 74a3 8ebd a965 7a3d 1f17 bcbd
000000e0: f0c3 83be 9562 44be eb79 ad3a 3230 a0bd
000000f0: 082b cdbc 89a3 29bc 47ba 1d3e f25c cc3d
00000100: c5e0 7fbd c0a4 6dbd 1774 33bd 3c7f 32be
00000110: 850a e83d 12f2 81bd 852b 97bc 6436 9abd
00000120: e6e4 babd 55e8 19bc fc3b 14bb a90e 2e3d
00000130: de36 00be 727d 11be da03 18bd cbb7 7f3d
00000140: 3631 73bd 7a6a a0bd 1cbe 923c 1753 e33d
00000150: 6fe2 ed3c d4d3 943d 5bae f73d 7980 9b3d
00000160: 89d1 393d e21d 813d 6d4c 25bd b8eb 7e3d
00000170: 519c 393d 27ac 373e 67a1 4bbd 60b6 313e
00000180: a1d6 093e 1cbe c93c 3d0d c83a 88b0 033e
00000190: 874f df3d 7d26 5dbe 193f 523d 94dd 49be
000001a0: 9693 013c c023 0a3e ffa6 be3d 1507 883d
000001b0: 5bd5 f63c 1c58 63bd d222 8b3d accb 203c
000001c0: 5f4b acbb ff41 0a3e c8fa b63d 868c a1bd
000001d0: d85a 013e 2118 433c ffee dabd 6c9e 253e
000001e0: d3a0 c8bc 56d9 0fbd 8824 a7bc 24b8 1abe
000001f0: fb3a 06be cfe6 93bd 80ab d53d d1b1 aebc
00000200: 195b cbbb 9834 b5bd 9eae 813d caeb 683d
00000210: b5b7 28bd 8fad bf3d 1200 ddbb 3cf9 d63b
00000220: b234 2dbe a60b 29bd 64e2 e3bd 3ea8 8dbd
00000230: cf32 5bbb a3a8 a5bb 211c 133c a833 3d3d
00000240: e067 2e3d a9e9 bf3d b5c6 53bd 8689 4a3e
00000250: 3bfd c0bd 73f1 823d 9043 0c3e 8308 293e
00000260: b1e2 a53c 412e 803d b661 333e 4605 6c3d
00000270: 0dd2 43bc d86d d4bd 35fa 03bb 4f9c 0abe
00000280: de7d 273e 4bd2 bdbb a111 47bd f78b ccbc
00000290: cc57 cd3d b3f6 d0bd ffca 82bd 20fc 17bd
000002a0: 07d5 ef3d 3237 203d e394 86be e76c 25bd
000002b0: 2504 bb3c b7de bbbd 516e b53d 3e3f 8fbd
000002c0: 6841 093d 4bfb 293e 276b 673d 59aa 1e3e
000002d0: a4b0 b03c 15f4 bb3d b12a 053d 264d c2bd
000002e0: 2d90 62bd ad64 013e ed16 223e 2253 723d
000002f0: 4de9 21bd dc1f f53d 394c a23d 2388 a2bd
00000300: 8645 813d 5d33 1cbc d747 e8bb 02da c23d
00000310: 466a 783c e68b 6cbd 49b2 2dbe 64ac c43d
00000320: cf8b c9bd 4fb7 0cbd 6569 38bd 2566 3d3c
00000330: c2df 45ba a88b b5ba 7d22 2ebe 2b29 0d3c
00000340: b0be dcbd 1e4c 923b af42 15be 4d50 8b3d
00000350: d64e febd 8f8f 98bd 67ec 383c da66 34bc
00000360: ed7e 0bbe 707a a23d 5235 023e 582f e43c
00000370: 7bfd b63d 05d9 b1bc 19b1 253c 6239 d7bd
00000380: f9e5 8cbc 1490 b7bc fd72 34bd 9926 dfbd
00000390: ece6 203d aecd ddbd 7500 263d 360c 47bd
000003a0: e4e1 c8b9 cbd4 403e 082f be3d dca9 ed3d
000003b0: 2bdc 903d 2046 63bd 5a9d c3bd ee26 a6bc
000003c0: c5a5 90bd 6224 c6bd bba1 00be ece3 063e
000003d0: 0392 d13d 1e68 213c 65f9 8abd 8733 99bd
000003e0: 8e21 cabd 2706 133d a383 27be cd4e e03d
000003f0: 30cc b53d 51de aabd 2fe9 c53c 01ae f3bd

lstm.bias_hh_l0 f4 [256]
-0.14174636 -0.04301277 -0.05623331 -0.25364897 -0.14151166 -0.09272426 -0.020513713 0.13340086
0.13731165 0.08115168 0.09480853 -0.0065896963 0.074427225 -0.009954416 0.10832388 0.07200446
0.030698162 -0.112909265 -0.14082319 0.09621366 0.018327072 0.15411429 0.0615914 -0.06777917
-0.10147562 -0.005612371 -0.039841097 -0.08197078 -0.06448434 0.0091611035 0.028765094 -0.051532805
-0.15341952 -0.090796165 -0.10083877 0.056905802 -0.057049345 -0.03436148 0.03195772 0.005056748
-0.107182816 0.09055588 0.10654856 -0.14035311 0.085462786 -0.076998234 0.021591475 0.091245085
0.18000524 -0.031290334 -0.1967203 -0.13672636 0.0105248215 0.07503854 0.047122475 -0.051131833
-0.075092904 -0.17591043 0.03775292 0.06173439 0.014094497 0.17582816 -0.041271757 0.08209289
0.0034425126 0.046151288 -0.15685229 -0.028151667 -0.00541118 -0.11126965 -0.06887857 -0.07561442
-0.16963512 0.073539056 -0.062041927 -0.08432492 0.031378713 -0.027998304 -0.07291535 0.04698693
-0.010433656 0.06930483 0.04915139 0.032949153 -0.12085218 -0.04294799 0.13292609 -0.064740814
0.095398076 0.14360991 -0.12444009 -0.0069102994 0.07761965 0.14829814 0.07131737 0.08826369
-0.07942953 -0.0063175964 0.1095609 -0.03168734 0.16349094 -0.12485905 0.07061891 -0.07007099
0.015891843 -0.06951576 -0.016781444 0.11935461 0.058972895 0.07031367 -0.022365715 0.1356653
0.045052562 0.21343806 0.09306279 0.015647525 0.09391691 0.00041758688 -0.022840913 0.11348668
-0.047769934 -0.03255067 0.01987693 -0.03058404 0.021013683 0.025683433 0.0290926 -0.06493655
0.08849921 0.09382847 -0.17998935 -0.007208683 0.14248435 -0.06896936 -0.00058785756 0.14843771
-0.17663276 -0.05473797 0.07049199 0.07127181 -0.19786592 -0.033009898 -0.009839065 -0.076888435
-0.02149652 0.18030854 0.033267897 0.004876301 -0.017220918 -0.053869635 0.21886751 0.12269439
0.077176966 0.12479529 0.012444327 -0.08153864 -0.06549308 -0.024226876 -0.0035745779 -0.008813489
0.08950008 0.11135539 -0.111564316 0.050906133 0.036376692 -0.015727919 -0.14594738 0.07700694
-0.03844791 0.029918669 -0.12877424 0.14178102 -0.067304626 0.13901825 0.07986486 -0.03410747
0.0881693 0.04193581 0.08013518 0.050207846 0.17389466 -0.025412947 0.022067897 -0.13587251
-0.11351695 0.18676652 -0.039755635 0.034705196 -0.11202491 0.050981265 0.11476846 -0.11007019
0.13746522 0.10241753 -0.057948682 -0.046208385 0.16212042 -0.07970375 0.0022802323 -0.07243936
-0.13621499 0.091036715 0.1407094 -0.018436044 -7.9540885e-05 0.073672764 -0.043020085 0.009385464
0.06733851 0.09656114 0.020161739 -0.1546258 0.081438825 -0.058311738 0.1199776 -0.00787909
0.04046692 0.037524685 0.121523835 -0.11407565 0.14611097 0.09229538 -0.16515172 0.13149075
0.03972919 0.06891334 0.024952607 -0.053251456 -0.025536958 0.078015864 0.010748966 -0.029595131
-0.06436042 0.1591966 0.13316853 0.01423279 0.018200058 0.0033733337 -0.052485146 0.12228108
0.016566368 0.0053710667 0.09963858 -0.0036906046 -0.030661799 0.040973265 -0.067789726 0.07557001
-0.05729267 -0.040869605 -0.0013086963 0.028406275 0.13917959 -0.017510576 0.019070866 0.08697809
00000000: f525 11be 292e 30bd e654 66bd 47de 81be
00000010: 6fe8 10be 38e6 bdbd 600c a8bc 3c9a 083e
00000020: 6d9b 0c3e da32 a63d f92a c23d 61ee d7bb
00000030: 4d6d 983d d917 23bc e9d8 dd3d 1377 933d
00000040: b67a fb3c f93c e7bd f433 10be ab0b c53d
00000050: a822 963c 23d0 1d3e 4447 7c3d cecf 8abd
00000060: 73d2 cfbd fbe7 b7bb 6b30 23bd 4ce0 a7bd
00000070: 5e10 84bd 7418 163c c6a4 eb3c 1014 53bd
00000080: 021a 1dbe 57f3 b9bd 8f84 cebd 0f16 693d
00000090: 93ac 69bd a0be 0cbd 19e6 023d 14b3 a53b
000000a0: aa82 dbbd 5c75 b93d 2236 da3d bab8 0fbe
000000b0: 1d07 af3d 40b1 9dbd 9be0 b03c b4de ba3d
000000c0: 4b53 383e 4b2a 00bd 0c71 49be ff01 0cbe
000000d0: 4d70 2c3c cead 993d 7f03 413d 9d6f 51bd
000000e0: 4fca 99bd dd21 34be cea2 1a3d 33dd 7c3d
000000f0: 9bec 663c 4c0c 343e 930c 29bd 5120 a83d
00000100: c79b 613b 2209 3d3d e39d 20be 539e e6bc
00000110: 4550 b1bb 58e1 e3bd 3510 8dbd bcdb 9abd
00000120: d4b4 2dbe a59b 963d ad1f 7ebd 8bb2 acbd
00000130: f786 003d b35c e5bc a554 95bd 5e75 403d
00000140: edf1 2abc b1ef 8d3d f852 493d b1f5 063d
00000150: 5981 f7bd 3bea 2fbd c71d 083e d596 84bd
00000160: 1160 c33d 7a0e 133e 72da febd cb6f e2bb
00000170: 0df7 9e3d 78db 173e d70e 923d 98c3 b43d
00000180: f3ab a2bd d703 cfbb 7761 e03d 96ca 01bd
00000190: 2b6a 273e 1ab6 ffbd a6a0 903d 6181 8fbd
000001a0: 9c2f 823c 475e 8ebd 3d79 89bc 3170 f43d
000001b0: 908d 713d 9d00 903d 4e38 b7bc d8eb 0a3e
000001c0: 0989 383d 828f 5a3e b497 be3d 3d2f 803c
000001d0: 8257 c03d 90ef da39 de1c bbbc b46b e83d
000001e0: 68aa 43bd da53 05bd f2d4 a23c 618b fabc
000001f0: e324 ac3c 1066 d23c 9b53 ee3c 74fd 84bd
00000200: 133f b53d 2429 c03d 214f 38be d136 ecbb
00000210: 6be7 113e cf3f 8dbd 741a 1aba 0e00 183e
00000220: 38df 34be ec34 60bd 1b5e 903d f4f6 913d
00000230: 5d9d 4abe 6335 07bd 0834 21bc af77 9dbd
00000240: 7819 b0bc cda2 383e eb43 083d 61c9 9f3b
00000250: e212 8dbc 68a6 5cbd ce1e 603e 3247 fb3d
00000260: f50e 9e3d ac94 ff3d 4ae3 4b3c bbfd a6bd
00000270: 3c21 86bd 7177 c6bc 7743 6abb 7466 10bc
00000280: d14b b73d 4b0e e43d d57b e4bd f382 503d
00000290: baff 143d d6d7 80bc 3b73 15be d1b5 9d3d
000002a0: 8e7b 1dbd ff17 f53c 65dd 03be 0b2f 113e
000002b0: 02d7 89bd cd5a 0e3e 3090 a33d 46b4 0bbd
000002c0: 1b92 b43d e2c4 2b3d ea1d a43d bea6 4d3d
000002d0: 7111 323e d02e d0bc bcc7 b43c 2a22 0bbe
000002e0: 937b e8bd b93f 3f3e ced6 22bd 0927 0e3d
000002f0: 516d e5bd bbd1 503d ba0b eb3d 7b6c e1bd
00000300: afc3 0c3e 48c0 d13d 995b 6dbd 0145 3dbd
00000310: e502 263e b83b a3bd f36f 153b 165b 94bd
00000320: f17b 0bbe 7571 ba3d 2016 103e 3007 97bc
00000330: 30cf a6b8 bfe1 963d d435 30bd 7dc5 193c
00000340: c6e8 893d d9c1 c53d 3b2a a53c 3a56 1ebe
00000350: 66c9 a63d 4ad8 6ebd d1b6 f53d 4c17 01bc
00000360: a4c0 253d 7cb3 193d 7de1 f83d 7fa0 e9bd
00000370: 1d9e 153e 5c05 bd3d 881d 29be 83a5 063e
00000380: 13bb 223d 7022 8d3d 6969 cc3c 331e 5abd
00000390: e232 d1bc c8c6 9f3d 6e1c 303c 7d71 f2bc
000003a0: 65cf 83bd 6f04 233e 555d 083e a630 693c
000003b0: 4a18 953c 2613 5d3b aafa 56bd 816e fa3d
000003c0: 31b6 873c c6ff af3b 500f cc3d 12de 71bb
000003d0: 742e fbbc 95d3 273d 57d5 8abd 73c4 9a3d
000003e0: b8ab 6abd e366 27bd 9088 abba 47b4 e83c
000003f0: 1885 0e3e 5772 8fbc 813a 9c3c 9221 b23d

lstm.weight_ih_l1 f4 [256, 64]
-0.10706225 -0.20416996 -0.025228541 -0.17884812 -0.086823925 0.109807834 0.024060423 0.052835066
0.0519082 -0.061026007 0.04381169 -0.1101286 0.093590565 -0.03525023 -0.08954284 -0.124919094
-0.057011664 -0.056623016 0.107832484 -0.02307225 -0.05332628 0.12612921 0.0029309052 -0.17039172
-0.062474456 -0.017191485 -0.23799886 0.063539244 -0.0101040015 -0.04265883 -0.13281536 -0.1569542
-0.037700363 -0.1074678 0.025361551 -0.051523916 -0.1027853 -0.047579624 -0.055972993 0.0836193
0.0024307454 0.05249157 -0.08783005 0.032725062 -0.1377868 -0.023696318 -0.045135304 -0.15525006
-0.026814457 0.06673802 -0.08845855 -0.067259096 0.08090494 0.121912315 0.048607945 0.09250521
0.05169329 0.012928363 -0.032546103 0.049171094 -0.09243573 0.0701165 0.06785103 0.15573297
-0.0772581 0.0047473065 0.060238533 0.035192505 -0.017639792 0.11219298 0.101567455 0.0064637023
0.027990231 0.16476274 0.08682031 0.011117361 -0.09115715 -0.067936964 -0.011732838 -0.03231204
0.07273448 0.08469131 0.1637129 0.11291256 -0.1739312 0.1639156 0.05315827 0.038807467
0.02313837 0.026120363 -0.009620619 0.103672974 0.15343644 0.18488544 0.09154672 -0.04693122
-0.13368578 -0.027548451 0.006528126 0.037377868 0.038975254 0.14093858 -0.0899009 -0.14460155
-0.12068329 -0.16122293 -0.02563503 0.06312765 0.03585121 -0.038254514 -0.087297276 -0.1731006
-0.017861802 0.25654233 -0.113353595 0.022964258 -0.038833816 -0.0038026122 0.13861847 -0.06778769
0.083259776 -0.021389147 -0.034754902 -0.136957 0.0886226 -0.037487376 -0.010895456 0.06360468
-0.1103615 0.08974533 0.18772534 -0.031730853 0.043640397 -0.031684447 0.071857646 -0.1308504
-0.062114306 -0.049310658 -0.047642633 -0.08174435 0.061305627 0.06977213 -0.016952137 0.010792362
0.055997405 -0.008549682 -0.14032994 -0.15585646 -0.014555783 -0.12031442 0.109628856 -0.028896522
-0.021561552 -0.1170597 -0.11664478 -0.03427029 -0.09037558 -0.0021162492 -0.14614204 0.028604537
0.08738901 0.036655515 0.010219016 0.020798253 -0.06982446 0.08259708 -0.031923417 0.114155635
-0.17809162 -0.050378602 -0.09563892 -0.013340167 0.047959283 -0.14776996 -0.0326228 0.00842563
-0.097938426 0.041113075 0.020741073 -0.061639573 -0.059936557 -0.27288166 0.015124276 0.025477318
-0.094268985 0.05991883 -0.08480815 -0.050330706 -0.017191598 0.16140401 0.004202475 0.032692015
-0.01115755 -0.099477395 0.050883334 -0.15510662 0.119069695 0.10593403 0.097320765 -0.12976444
-0.00071072293 -0.11078467 0.05582941 0.009174611 0.16853243 -0.09719353 0.10967347 -0.04230944
-0.187483 -0.08564292 0.34695482 0.052484848 0.016740058 -0.024101196 0.040459782 0.08297271
0.04781478 -0.023048773 -0.04896856 -0.13909122 0.14419147 0.02725089 -0.1481475 -0.0338399
0.039496083 -0.17761238 -0.048196316 0.13204677 0.08378848 0.028032808 0.055779345 0.060640804
-0.009183447 0.12961511 -0.06568783 -0.054647014 -0.045231853 0.056579884 0.039166987 -0.074892476
0.10409068 -0.0918073 0.1259096 0.032411005 0.13431478 -0.08143506 0.049631514 0.08816343
-0.027018959 -0.1460906 -0.009460105 -0.0036503968 -0.003441242 0.066596776 0.18708992 0.08987283
00000000: 7443 dbbd ee11 51be 16ac cebc f623 37be
00000010: bed0 b1bd eee2 e03d 5d1a c53c 9569 583d
00000020: b19d 543d 68f6 79bd e373 333d 1a8b e1bd
00000030: 69ac bf3d 8c62 10bd 3d62 b7bd 95d5 ffbd
00000040: 1085 69bd 89ed 67bd 47d7 dc3d 0402 bdbc
00000050: a86c 5abd 0428 013e 6e14 403b 2b7b 2ebe
00000060: 37e5 7fbd 28d5 8cbc f9b5 73be dd20 823d
00000070: 418b 25bc 06bb 2ebd c000 08be 9ab8 20be
00000080: b26b 1abd 1418 dcbd 07c3 cf3c be0a 53bd
00000090: 1981 d2bd dae2 42bd f043 65bd 9840 ab3d
000000a0: 244d 1f3b 6701 573d 3ee0 b3bd b70a 063d
000000b0: fc17 0dbe c81e c2bc ccdf 38bd dff9 1ebe
000000c0: fea9 dbbc f1ad 883d c229 b5bd 23bf 89bd
000000d0: 7db1 a53d 2aad f93d 2019 473d 5f73 bd3d
000000e0: 58bc 533d 7cd1 533c 104f 05bd a167 493d
000000f0: f24e bdbd 3d99 8f3d 7bf5 8a3d 7778 1f3e
00000100: 7f39 9ebd 4b8f 9b3b aebc 763d 0426 103d
00000110: 5381 90bc 6fc5 e53d 9902 d03d 77cd d33b
00000120: c54b e53c 90b7 283e d9ce b13d 9725 363c
00000130: 9ab0 babd 8922 8bbd 173b 40bc a159 04bd
00000140: d1f5 943d a372 ad3d 5ba4 273e b33e e73d
00000150: 051b 32be 7ed9 273e 7cbc 593d 94f4 1e3d
00000160: ae8c bd3c 5ffa d53c cd9f 1dbc 7f52 d43d
00000170: 711e 1d3e 9c52 3d3e d97c bb3d f33a 40bd
00000180: ede4 08be 4aad e1bc e4e9 d53b 8919 193d
00000190: 84a4 1f3d 3452 103e f71d b8bd 6e12 14be
000001a0: cd28 f7bd a017 25be 8e00 d2bc 1249 813d
000001b0: b8d8 123d c4b0 1cbd eac8 b2bd 4941 31be
000001c0: ea52 92bc 8459 833e ee25 e8bd 8a1f bc3c
000001d0: 3510 1fbd 3f35 79bb 00f2 0d3e 46d4 8abd
000001e0: 1a84 aa3d 4b38 afbc 285b 0ebd 753e 0cbe
000001f0: c47f b53d 5d8c 19bd db82 32bc 2c43 823d
00000200: 3605 e2bd 66cc b73d 123b 403e 36f8 01bd
00000210: 46c0 323d 8dc7 01bd 1a2a 933d a6fd 05be
00000220: 926b 7ebd f9f9 49bd ec24 43bd 9569 a7bd
00000230: 9c1b 7b3d b1e4 8e3d 35df 8abc 72d2 303c
00000240: 895d 653d f713 0cbc a7b2 0fbe d698 1fbe
00000250: 617b 6ebc 6867 f6bd 1885 e03d 66b8 ecbc
00000260: daa1 b0bc ffbc efbd 75e3 eebd 015f 0cbd
00000270: d516 b9bd c5b0 0abb 42a6 15be 1054 ea3c
00000280: 02f9 b23d 1824 163d a96d 273c 1961 aa3c
00000290: 2000 8fbd a828 a93d 21c2 02bd 6eca e93d
000002a0: a65d 36be cb59 4ebd 57de c3bd b790 5abc
000002b0: f470 443d 0251 17be 7c9f 05bd a70b 0a3c
000002c0: f193 c8bd 2f66 283d 2fe9 a93c c779 7cbd
000002d0: 0980 75bd 25b7 8bbe d0cb 773c cfb5 d03c
000002e0: 1910 c1bd 726d 753d e5af adbd 9227 4ebd
000002f0: 65d5 8cbc 1847 253e eab4 893b 10e8 053d
00000300: 28ce 36bc ceba cbbd 0b6b 503d 45d4 1ebe
00000310: d0da f33d f1f3 d83d 1c50 c73d f8e0 04be
00000320: cf4f 3aba 13e3 e2bd 61ad 643d 1c51 163c
00000330: c493 2c3e 670d c7bd 7c9c e03d aa4c 2dbd
00000340: 8bfb 3fbe 8e65 afbd 10a4 b13e 5afa 563d
00000350: 7222 893c df6f c5bc 28b9 253d 99ed a93d
00000360: 6ed9 433d c8d0 bcbc 4293 48bd ee6d 0ebe
00000370: eea6 133e 423d df3c fab3 17be b59b 0abd
00000380: a5c6 213d 05e0 35be 8069 45bd 4537 073e
00000390: 4b99 ab3d 0fa5 e53c e278 643d 7e62 783d
000003a0: 2b76 16bc d3b9 043e 5787 86bd 8cd5 5fbd
000003b0: 0945 39bd 4fc0 673d 906d 203d 3a61 99bd
000003c0: 7f2d d53d 7705 bcbd 72ee 003e 67c1 043d
000003d0: d089 093e 6dc7 a6bd 6a4a 4b3d 078f b43d
000003e0: dd56 ddbc c698 15be 8efe 1abc 7f3b 6fbb
000003f0: 7686 61bb e463 883d 8094 3f3e 3f0f b83d

lstm.weight_hh_l1 f4 [256, 64]
-0.040705986 -0.042681 0.085727 -0.02338508 0.084957495 -0.2771413 0.080419675 -0.008253504
0.11559696 0.09338992 0.025759667 0.10689712 -0.073778234 -0.18357415 -0.058054835 -0.16632964
-0.059346706 -0.020794686 -0.011990131 -0.09628084 0.041044194 0.056155108 0.09801162 0.027720958
0.1934176 -0.096549936 -0.039030623 0.095010206 -0.1503819 0.044341203 0.07730188 0.094942026
0.012108918 0.016724946 0.013175477 0.068869375 0.063696414 0.055018675 0.08753579 -0.03277145
-0.0027442025 0.17021216 -0.028991759 0.033363726 0.046327025 0.01594358 0.13989887 -0.1325523
-0.08912494 0.16508876 0.14199664 0.111324355 -0.17512259 -0.019510597 0.04442904 -0.09056816
-0.1725875 -0.09987566 0.01314122 -0.10725235 -0.06812007 -0.04901936 0.10728207 0.2188232
0.036544245 0.035476062 0.13658898 -0.0914988 0.0061945464 -0.09070868 -0.11484806 0.017027577
-0.04247593 -0.17540546 0.10854469 -0.16374001 0.07734945 -0.032521527 -0.23548959 -0.09161324
0.13591297 0.0151848085 0.073976696 -0.12774001 -0.14026159 0.0471756 -0.019796818 0.0033616878
-0.08891841 0.02483252 0.06870317 -0.11978141 0.0150548145 -0.013268232 -0.07632742 -0.0058052004
0.03024129 0.07709352 -0.14980131 -0.055225987 -0.043505132 -0.069480866 -0.07072193 -0.19861616
-0.10516538 -0.20666897 0.036140926 -0.21600701 -0.056420926 -0.1141633 -0.052973446 0.03936581
-0.22479893 -0.08054964 0.11032359 -0.07937485 0.14490767 -0.005795702 0.10982351 0.08396356
0.10920487 -0.0031477648 -0.018552968 0.082644336 -0.06836301 0.0668611 -0.024497153 -0.16625355
0.09937443 0.027196003 0.023485402 0.0007944101 0.05703911 -0.19159202 -0.013559092 0.022995159
0.039147157 -0.085189 0.036477182 -0.07490102 -0.004411101 0.037629813 -0.0038635486 0.09280558
0.09952425 0.04961425 0.053480156 0.09618644 0.022378828 -0.056817356 0.063552365 0.039120305
-0.04837503 0.10036387 0.18965575 -0.045078956 -0.080274396 -0.0877527 0.08345747 -0.05729286
0.08584322 -0.14660692 -0.07463589 0.22899872 0.08725139 -0.05951432 0.093665764 -0.1907687
0.11502588 -0.18774259 0.11563143 -0.031536512 0.1800593 -0.09617397 0.03455865 0.084325045
-0.033217628 -0.09181453 0.08615798 -0.053278454 0.082378544 -0.0062446776 0.016435307 -0.051308915
-0.08581319 0.06091737 0.050431408 -0.082315646 -0.09871994 -0.09115606 -0.022054885 -0.0026709335
-0.0602389 -0.1758769 0.055110026 -0.036192007 -0.114123866 -0.03108939 -0.049673744 -0.076872624
0.19535978 -0.01924732 0.14198181 0.07437881 -0.05722595 -0.19617619 0.16897829 -0.1757933
0.10820976 -0.08416734 -0.029353421 0.06825751 0.12108759 0.06091442 0.18288352 -0.091237634
0.057064403 0.13299565 0.19974478 -0.04523234 -0.08957714 -0.054008503 -0.015916012 0.121435225
0.00018865407 0.10198285 -0.06252975 0.1562389 0.14016855 0.24624918 0.20683733 -0.10433655
0.036442876 -0.085017666 -0.04428792 -0.007948474 0.13076532 0.026232276 0.20635256 -0.15112586
-0.07106652 -0.0227376 0.0663037 0.029830879 -0.18815908 0.06290643 -0.018677238 -0.011137141
-0.21156971 -0.0037839303 0.041359074 -0.1600803 -0.21366182 -0.029848274 0.018250024 0.06384899
00000000: 52bb 26bd 46d2 2ebd a391 af3d 1192 bfbc
00000010: 32fe ad3d 77e5 8dbe 12b3 a43d b439 07bc
00000020: 19be ec3d 3743 bf3d f005 d33c e1ec da3d
00000030: 0b19 97bd ddfa 3bbe e8ca 6dbd 5152 2abe
00000040: 8815 73bd 9e59 aabc 4172 44bc e42e c5bd
00000050: f51d 283d e602 663d 51ba c83d 1017 e33c
00000060: 430f 463e f9bb c5bd 93de 1fbd b694 c23d
00000070: b6fd 19be 1f9f 353d 7350 9e3d f770 c23d
00000080: 7c64 463c c102 893c f5dd 573c 630b 8d3d
00000090: 4473 823d 435b 613d f745 b33d 5b3b 06bd
000000a0: 14d8 33bb 194c 2e3e 2080 edbc 67a8 083d
000000b0: 68c1 3d3d 1c9c 823c a641 0f3e cabb 07be
000000c0: 2387 b6bd 070d 293e 9167 113e 06fe e33d
000000d0: 5653 33be b0d4 9fbc 3afb 353d cd7b b9bd
000000e0: c7ba 30be 9c8b ccbd 464e 573c 1fa7 dbbd
000000f0: 8982 8bbd 86c8 48bd b4b6 db3d 3013 603e
00000100: 6baf 153d 594f 113d fbdd 0b3e b963 bbbd
00000110: 9ffb ca3b 79c5 b9bd 7635 ebbd 6b7d 8b3c
00000120: 3efb 2dbd 7d9d 33be ae4c de3d 76ab 27be
00000130: 6369 9e3d 4b35 05bd 2f24 71be b99f bbbd
00000140: c52c 0b3e b4c9 783c 1881 973d 47ce 02be
00000150: bca0 0fbe 343b 413d f02c a2bc c34f 5c3b
00000160: db1a b6bd 926d cb3c 3fb4 8c3d f54f f5bd
00000170: 78a8 763c 0063 59bc 8d51 9cbd 8d39 bebb
00000180: 95bc f73c 35e3 9d3d 8465 19be a534 62bd
00000190: 7032 32bd fc4b 8ebd a9d6 90bd 0962 4bbe
000001a0: f260 d7bd 08a1 53be 8208 143d f130 5dbe
000001b0: a119 67bd 73ce e9bd affa 58bd 0b3e 213d
000001c0: b131 66be 36f7 a4bd 56f1 e13d 488f a2bd
000001d0: ad62 143e dfe9 bdbb 26eb e03d 16f5 ab3d
000001e0: cea6 df3d bb4a 4ebb 65fc 97bc 6f41 a93d
000001f0: e801 8cbd 79ee 883d 41ae c8bc 5f3e 2abe
00000200: d284 cb3d 27ca de3c 7564 c03c f63f 503a
00000210: d8a1 693d b330 44be f426 5ebc 5860 bc3c
00000220: c558 203d 9277 aebd 1969 153d b565 99bd
00000230: ff8a 90bb b821 1a3d 9733 7dbb da10 be3d
00000240: 5fd3 cb3d 5038 4b3d 020e 5b3d 65fd c43d
00000250: ce53 b73c 51b9 68bd be27 823d 9d3c 203d
00000260: e524 46bd 938b cd3d 1e35 423e b6a4 38bd
00000270: e766 a4bd b0b7 b3bd c0eb aa3d ebab 6abd
00000280: 92ce af3d 2020 16be b4da 98bd a47e 6a3e
00000290: dbb0 b23d 4ac5 73bd d6d3 bf3d df58 43be
000002a0: b092 eb3d 983f 40be 2cd0 ec3d 6e2c 01bd
000002b0: 7761 383e dcf6 c4bd 5f8d 0d3d 9cb2 ac3d
000002c0: 350f 08bd 4209 bcbd 9873 b03d 823a 5abd
000002d0: 15b6 a83d 27a0 ccbb 56a3 863c 4c29 52bd
000002e0: d3be afbd 7e84 793d 2a91 4e3d 1b95 a8bd
000002f0: ae2d cabd 07b0 babd 72ac b4bc d40a 2fbb
00000300: 11bd 76bd 1319 34be 0dbb 613d 123e 14bd
00000310: c6b9 e9bd 2daf febc b276 4bbd 656f 9dbd
00000320: 650c 483e 8eac 9dbc ae63 113e eb53 983d
00000330: c265 6abd 69e2 48be a508 2d3e 2903 34be
00000340: 149d dd3d ed5f acbd 9676 f0bc 98ca 8b3d
00000350: c5fc f73d 6681 793d d145 3b3e ccda babd
00000360: 5dbc 693d 0330 083e e589 4c3e 8c45 39bd
00000370: 3874 b7bd 0538 5dbd 4c62 82bc 08b3 f83d
00000380: 71d1 4539 62dc d03d 990f 80bd 17fd 1f3e
00000390: 5888 0f3e bf28 7c3e 2acd 533e 67ae d5bd
000003a0: 2045 153d be1d aebd 4067 35bd 513a 02bc
000003b0: 58e7 053e 12e5 d63c 164e 533e bdc0 1abe
000003c0: 538b 91bd 3444 babc 3cca 873d e35f f43c
000003d0: c6ac 40be 16d5 803d 0201 99bc 8e78 36bc
000003e0: bba5 58be d1fb 77bb 2268 293d 17ec 23be
000003f0: 2aca 5abe 5e84 f4bc 1381 953c 42c3 823d

lstm.bias_ih_l1 f4 [256]
0.05497176 -0.07253352 -0.06938372 -0.06686188 -0.017929725 -0.0430327 -0.028763425 0.14836945
-0.04369188 -0.19387679 -0.10426621 -0.11080758 0.0712966 -0.08882056 -0.10904057 -0.07402444
0.042767935 0.03549315 0.060291115 -0.10326256 0.06657524 -0.103067406 0.021245975 -0.040526215
0.10644453 0.031299796 0.0009820572 0.040683538 0.12290602 -0.015661858 0.10904201 0.14690217
-0.16323133 -0.18421404 -0.1253322 -0.066122584 -0.069772966 -0.08206452 -0.086585216 0.08332368
-0.016700828 -0.08324013 0.0820912 0.0725957 -0.10854556 -0.07918092 -0.096761495 -0.011836203
0.09822218 -0.10367809 0.0022909874 0.028518202 -0.07892311 0.004608484 -0.008400999 -0.030150924
-0.07957601 -0.12518266 -0.043621793 0.030109953 0.12230464 -0.07085068 0.045700315 0.08104466
-0.03930923 -0.051430225 -0.10649943 -0.14500292 -0.018922891 -0.081329554 -0.103253275 0.08117841
0.12869868 0.060656402 0.041812304 -0.0065396414 -0.002497152 0.03261536 -0.044905856 0.14643589
-0.027566398 -0.02232503 0.114253804 0.07909729 -0.05817318 0.04904979 0.0008605369 -0.004373027
0.023295168 -0.009724965 -0.024911445 -0.02444052 0.07708988 -0.057632837 0.081113905 -0.083733335
0.071293786 -0.12123415 0.050301608 -0.06858055 -0.13244139 0.19939294 0.021977078 0.13132608
-0.051184136 0.05638926 -0.07443364 -0.002860402 0.0568873 -0.13081075 0.09244495 -0.034191966
0.13482006 0.08859607 0.027169907 0.11934434 -0.04939557 -0.0075620497 0.018569635 -0.1636501
-0.09710501 0.03292079 -0.03610243 0.00077666354 0.0618307 0.04180826 -0.0247515 0.09470322
-0.09749214 -0.067948356 -0.054281894 0.002778743 -0.011206641 0.08914884 0.14270341 0.0376103
0.094243154 -0.06572129 0.06115124 0.07758554 -0.13127619 -0.09646098 -0.055045564 0.075714864
0.010802195 -0.102304585 0.12294185 0.06570766 -0.06307999 -0.033577356 -0.051870935 0.037500236
0.056745406 0.042493932 0.08179184 -0.015311146 -0.12052598 -0.031632997 -0.15267967 -0.11329038
0.086673394 0.04126811 0.13213591 0.06351995 0.13476752 -0.08313988 0.033081394 0.06330537
-0.07019883 0.10830028 -0.15332206 0.04325594 -0.018847743 0.08080439 0.08116242 0.07596095
0.047528084 0.10947541 -0.09822102 0.05897477 -0.11554944 -0.1339865 -0.029066574 -0.10110666
-0.059382673 -0.117330246 0.11443909 -0.07992369 0.09454104 -0.08133743 -0.045926936 0.015950471
0.007795057 -0.118303984 -0.0019290855 -0.15149632 -0.044259977 0.0647194 0.1015608 0.19035664
-0.064980775 0.05341043 0.03401747 -0.02664432 0.046192177 0.076465264 0.04368812 0.009768943
0.06700954 0.08599591 0.01776747 -0.06820098 0.09776482 -0.046777822 0.04273995 -0.03418629
0.0014037875 0.036117677 0.079445 0.03693983 -0.07792725 -0.019989492 -0.10437511 -0.049282964
0.041357297 0.010361281 0.120620415 0.07547152 0.00936255 0.1506654 0.089402266 0.06294763
0.08572392 -0.08084233 -0.05903521 0.021824837 -0.00672283 -0.09967515 0.113009706 -0.020616928
0.16912399 -0.013919462 -0.09342918 -0.04805201 0.05871404 -0.046478026 -0.10020784 0.034277417
0.06012294 -0.039373934 0.16416377 0.1305166 0.03674825 -0.051574003 -0.14553821 -0.011063463
00000000: 112a 613d 748c 94bd 0d19 8ebd e2ee 88bd
00000010: 5ce1 92bc 0e43 30bd 46a1 ebbc 29ee 173e
00000020: 42f6 32bd a387 46be 8689 d5bd 16ef e2bd
00000030: f403 923d 8ee7 b5bd aa50 dfbd 209a 97bd
00000040: 6e2d 2f3d 4461 113d d1f3 763d 527b d3bd
00000050: 9958 883d 0115 d3bd 0a0c ae3c d1fe 25bd
00000060: 97ff d93d 3734 003d 5fb8 803a c8a3 263d
00000070: 27b6 fb3d 4c4d 80bc 6b51 df3d 866d 163e
00000080: 1d26 27be 9ba2 3cbe 1657 00be 476b 87bd
00000090: 21e5 8ebd 7111 a8bd 9753 b1bd 9ba5 aa3d
000000a0: 2dd0 88bc cd79 aabd 6e1f a83d 0ead 943d
000000b0: 224d debd 9b29 a2bd e42a c6bd a2ec 41bc
000000c0: b628 c93d 2e55 d4bd 6424 163b 019f e93c
000000d0: 71a2 a1bd c402 973b 58a4 09bc 12ff f6bc
000000e0: bff8 a2bd e22f 00be c4ac 32bd 26a9 f63c
000000f0: db7a fa3d 291a 91bd 4130 3b3d befa a53d
00000100: b702 21bd 80a8 52bd 601c dabd a57b 14be
00000110: 2e04 9bbc 1c90 a6bd 7476 d3bd de40 a63d
00000120: 96c9 033e d972 783d 6143 2b3d 7d4a d6bb
00000130: 42a7 23bb af97 053d 34ef 37bd 4af3 153e
00000140: edd2 e1bc fbe2 b6bc e6fd e93d c3fd a13d
00000150: 0047 6ebd 6fe8 483d a795 613a 9c4b 8fbb
00000160: 82d5 be3c 7655 1fbc 1613 ccbc 7c37 c8bc
00000170: 4de1 9d3d 6910 6cbd 0c1f a63d 627c abbd
00000180: 7a02 923d 9c49 f8bd 0f09 4e3d f673 8cbd
00000190: b79e 07be aa2d 4c3e 4609 b43c 587a 063e
000001a0: 75a6 51bd 6df8 663d aa70 98bd 9575 3bbb
000001b0: a802 693d 41f3 05be c753 bd3d e00c 0cbd
000001c0: 450e 0a3e db71 b53d 6d93 de3c ce6a f43d
000001d0: 0253 4abd 12cb f7bb 591f 983c e493 27be
000001e0: fede c6bd f3d7 063d 24e0 13bd 0299 4b3a
000001f0: 3042 7d3d 233f 2b3d a8c3 cabc c3f3 c13d
00000200: f6a9 c7bd 8228 8bbd b156 5ebd 921b 363b
00000210: 0f9c 37bc ab93 b63d d820 123e 420d 1a3d
00000220: 8e02 c13d e298 86bd b979 7a3d 2be5 9e3d
00000230: 446d 06be 568d c5bd 7577 61bd 6510 9b3d
00000240: b1fb 303c 1185 d1bd f0c8 fb3d bd91 863d
00000250: 1530 81bd 6988 09bd 9e76 54bd d999 193d
00000260: df6d 683d 1e0e 2e3d 7b82 a73d 9adb 7abc
00000270: 53d6 f6bd 9a91 01bd 0f58 1cbe c904 e8bd
00000280: d281 b13d c008 293d a34e 073e bf16 823d
00000290: 7f00 0a3e 3e45 aabd 5b80 073d 3fa6 813d
000002a0: 67c4 8fbd 8acc dd3d 7500 1dbe 242d 313d
000002b0: 9566 9abc c67c a53d 7c38 a63d 6a91 9b3d
000002c0: cfac 423d a534 e03d 1a28 c9bd 878f 713d
000002d0: 2fa5 ecbd c233 09be 061d eebc 0211 cfbd
000002e0: 3f3b 73bd d74a f0bd 0b5f ea3d 08af a3bd
000002f0: bc9e c13d 3d94 a6bd e21d 3cbd 90aa 823c
00000300: ad6d ff3b 5c49 f2bd 5ed9 fcba da21 1bbe
00000310: f349 35bd 9b8b 843d 1cff cf3d daec 423e
00000320: a414 85bd e5c4 5a3d e755 0b3d 3045 dabc
00000330: 0234 3d3d d299 9c3d 50f2 323d eb0d 203c
00000340: 4c3c 893d a01e b03d 168d 913c f5ac 8bbd
00000350: ec38 c83d 1a9a 3fbd 1610 2f3d ec06 0cbd
00000360: 4bff b73a 21f0 133d 0fb4 a23d 384e 173d
00000370: 5298 9fbd 01c1 a3bc 9ec2 d5bd efdc 49bd
00000380: 4566 293d 5dc2 293c d607 f73d d090 9a3d
00000390: 6265 193c 0848 1a3e 8918 b73d b0ea 803d
000003a0: 0690 af3d aa90 a5bd e8ce 71bd 00ca b23c
000003b0: 2f4b dcbb 7c22 ccbd a271 e73d d5e4 a8bc
000003c0: d72e 2d3e 750e 64bc cc57 bfbd 2fd2 44bd
000003d0: 227e 703d be5f 3ebd c539 cdbd 7a66 0c3d
000003e0: 7943 763d 9046 21bd 8c1a 283e 25a6 053e
000003f0: 5585 163d 433f 53bd f807 15be 8743 35bc

lstm.bias_hh_l1 f4 [256]
0.067478634 -0.12861715 -0.01505162 -0.097352035 -0.008282753 0.015335603 0.009087298 0.22197683
-0.023155928 -0.097017154 -0.0991672 0.01305432 0.10087325 -0.083811685 -0.107116476 -0.07330575
-0.1502859 -0.10663417 0.03656687 -0.083559975 -0.028293306 0.035187494 0.111964166 -0.016890706
0.01969278 0.06460086 -0.014081899 -0.04179287 0.044905387 -0.13896091 0.0965128 0.017866485
-0.09865037 0.013599598 -0.012581725 -0.069831915 0.07451143 -0.014840394 -0.073151596 -0.12199719
-0.08069284 0.057342082 0.08138889 0.077534184 -0.021071149 -0.008878735 0.03516426 -0.14393246
0.04742863 -0.07733682 -0.019192096 0.14815125 -0.11139951 0.0071132723 -0.11163583 -0.030566234
-0.053824555 -0.05458481 -0.03362228 0.018697739 0.017977502 -0.09607214 -0.024532257 0.06800015
0.14555693 -0.010151296 -0.07792458 0.0039045904 0.05317109 0.1127892 -0.013331966 -0.090950616
0.03402786 -0.11382746 -0.056003734 0.0012869458 -0.051967803 0.0062162215 -0.050684534 -0.082581796
-0.1634561 0.096693724 -0.0011518722 -0.015139844 0.11039485 0.14251935 -0.0408997 0.003223396
0.17093675 0.0041084755 0.02925177 0.07875985 0.019866979 -0.08981002 -0.08622147 -0.049007237
0.07184155 0.02239539 0.152976 0.04747055 -0.035151254 0.10233078 0.0033224307 0.18203671
0.09836567 0.06083452 -0.06999635 -0.06291789 -0.02717495 0.0329609 -0.04491956 0.12825283
0.14878426 0.07802067 0.012115382 0.07913497 -0.06957823 0.13674784 -0.11760746 -0.15641734
0.06876041 0.20799376 0.00140291 -0.03764111 0.031859446 -0.01801748 0.024811745 -0.12282565
0.037373945 0.031903602 0.027936978 -0.08852655 0.0057936986 -0.026688686 0.034187634 -0.05880437
-0.08470413 -0.015178702 0.0060952334 0.008044814 -0.035624545 -0.048770513 0.088007785 0.07881091
0.060148615 0.05150426 -0.043477837 0.04824579 -0.11641017 -0.011238161 -0.11859297 0.0176498
0.0024462375 0.0026728162 -0.0982955 0.012327611 -0.07371784 -0.11724937 0.06407837 -0.015927713
0.018851971 0.04717186 0.085413255 0.09035734 -0.052699078 0.11614998 0.1380803 0.13411155
-0.06404369 0.045190185 0.07348649 0.12790066 -0.07663581 -0.057245504 -0.058811318 -0.11224298
0.15169217 0.10378548 0.03955536 0.09410156 0.057764117 0.061962076 -0.11062502 0.033435654
-0.08664362 -0.055099268 -0.03301316 -0.005113644 -0.0062839813 -0.053586487 -0.0969741 0.11611184
0.08951713 0.0752099 0.100994036 -0.12123206 0.0904422 0.11051782 0.031639133 0.21309508
0.021296736 -0.037878994 -0.039995812 -0.117702715 0.031195551 0.051192958 -0.044039443 -0.07217615
0.054354873 -0.012375598 0.1619492 -0.084890164 -0.009905108 -0.04284341 0.061438568 -0.13421491
-0.041812308 -0.008905384 0.038481493 0.1479352 0.1615839 0.020352015 0.053784993 -0.061133932
-0.02694294 0.037130743 -0.09472492 0.11971828 0.16685645 0.06559431 0.113538526 0.11535321
0.00029793882 -0.06928429 -0.0682512 -0.10420423 -0.015013532 -0.06558356 -0.024659984 0.10828069
0.10381298 -0.02617367 -0.08031532 -0.021538533 0.02781811 0.060716704 0.04386812 -0.1094492
0.09726165 -0.04986818 0.057544604 -0.054956675 0.06551224 -0.10672483 -0.045127276 -0.13905098
00000000: 3d32 8a3d 37b4 03be 129b 76bc 8160 c7bd
00000010: 62b4 07bc 2e42 7b3c e4e2 143c e54d 633e
00000020: 80b1 bdbc eeb0 c6bd 2c18 cbbd c9e1 553c
00000030: a296 ce3d 76a5 abbd e25f dbbd 5321 96bd
00000040: 8ce4 19be 0463 dabd 24c7 153d 7e21 abbd
00000050: 5dc7 e7bc c320 103d 784d e53d 615e 8abc
00000060: c152 a13c 754d 843d c4b7 66bc 002f 2bbd
00000070: b6ee 373d c54b 0ebe 81a8 c53d bc5c 923c
00000080: 3509 cabd d9d0 5e3c 9423 4ebc 0904 8fbd
00000090: 7399 983d 2025 73bc 81d0 95bd aad9 f9bd
000000a0: 4a42 a5bd 88df 6a3d 38af a63d 3eca 9e3d
000000b0: 679d acbc 1d78 11bc 6608 103d 0863 13be
000000c0: 8644 423d c462 9ebd be38 9dbc f6b4 173e
000000d0: 6d25 e4bd 7416 e93b 53a1 e4bd 0a66 fabc
000000e0: 2377 5cbd 5294 5fbd 84b7 09bd 002c 993c
000000f0: 8e45 933c 78c1 c4bd dff7 c8bc aa43 8b3d
00000100: e00c 153e 9f51 26bc ec96 9fbd 28e4 7f3b
00000110: eec9 593d 06fe e63d 516e 5abc 5144 babd
00000120: cc60 0b3d 5f1e e9bd 2c64 65bd bcae a83a
00000130: 31dc 54bd 72b1 cb3b 969a 4fbd a520 a9bd
00000140: 0961 27be 5c07 c63d 6bfa 96ba 1c0d 78bc
00000150: b216 e23d 98f0 113e 7286 27bd 9c3f 533b
00000160: 0b0a 2f3e 64a0 863b 68a1 ef3c d84c a13d
00000170: 13c0 a23c 51ee b7bd e294 b0bd d0bb 48bd
00000180: aa21 933d 8976 b73c bea5 1c3e 7b70 423d
00000190: c3fa 0fbd cd92 d13d 23bd 593b d567 3a3e
000001a0: f173 c93d 9e2d 793d 3f5a 8fbd 18db 80bd
000001b0: 009e debc 0202 073d 93fd 37bd b654 033e
000001c0: e75a 183e 4dc9 9f3d 987f 463c 8411 a23d
000001d0: 087f 8ebd a007 0c3e 2edc f0bd de2b 20be
000001e0: 42d2 8c3d 51fc 543e d9e1 b73a 912d 1abd
000001f0: 0d7f 023d 6599 93bc 0042 cb3c 048c fbbd
00000200: 6c15 193d 5aad 023d 17dc e43c 684d b5bd
00000210: 11d9 bd3b 3ba2 dabc 5508 0c3d dadc 70bd
00000220: 5c79 adbd 17b0 78bc 86ba c73b 65ce 033c
00000230: 0beb 11bd 97c3 47bd 6d3d b43d 9d67 a13d
00000240: 655e 763d 22f6 523d d115 32bd 619d 453d
00000250: 7568 eebd 4320 38bc dfe0 f2bd 5096 903c
00000260: 0e51 203b 6a2a 2f3b 274f c9bd c0f9 493c
00000270: 61f9 96bd 7020 f0bd 853b 833d d67a 82bc
00000280: 736f 9a3c 4837 413d 25ed ae3d 450d b93d
00000290: fdda 57bd 0ae0 ed3d ec64 0d3e 8a54 093e
000002a0: 5729 83bd 5819 393d 1680 963d 64f8 023e
000002b0: 3cf3 9cbd 437a 6abd 23e4 70bd a6df e5bd
000002c0: 3155 1b3e 7b8d d43d cd04 223d 52b8 c03d
000002d0: 119a 6c3d f2cb 7d3d 5f8f e2bd d3f3 083d
000002e0: 3672 b1bd c5af 61bd cf38 07bd 5b90 a7bb
000002f0: dbe9 cdbb 817d 5bbd 5b9a c6bd 0bcc ed3d
00000300: c254 b73d a607 9a3d f6d5 ce3d 8448 f8bd
00000310: c339 b93d 2b57 e23d 0998 013d 9935 5a3e
00000320: 7e76 ae3c 0127 1bbd a6d2 23bd 1f0e f1bd
00000330: d08d ff3c b5af 513d b462 34bd 17d1 93bd
00000340: 37a3 5e3d 05c3 4abc 03d6 253e e5da adbd
00000350: 0949 22bc 927c 2fbd 02a7 7b3d a26f 09be
00000360: 6243 2bbd e3e7 11bc c59e 1d3d 537c 173e
00000370: 4076 253e 45b9 a63c a74d 5c3d 9367 7abd
00000380: 71b7 dcbc 6816 183d 24ff c1bd dc2e f53d
00000390: 6bdc 2a3e 4f56 863d e386 e83d 4e3e ec3d
000003a0: ac34 9c39 ece4 8dbd 49c7 8bbd 0769 d5bd
000003b0: 51fb 75bc ac50 86bd bc03 cabc 44c2 dd3d
000003c0: e69b d43d 2a6a d6bc 5c7c a4bd 9471 b0bc
000003d0: cee2 e33c 14b2 783d 0faf 333d e726 e0bd
000003e0: 1e31 c73d 9442 4cbd e4b3 6b3d 401a 61bd
000003f0: 482b 863d 8c92 dabd 61d7 38bd 6163 0ebe
