src/util/AI/checkpoints/014.ckpt (torch, 353508 bytes, 14 tensors)

lstm.weight_ih_l0 f4 [256, 12]
00000000: c839 4bbd 0c98 a33d 7adf 23be 289e 133d
00000010: 2551 c03d 2e79 983d 3656 773d ab4c 7ebb
00000020: d926 c8bd 9d1a 263d be74 d8bd f5a1 47bd
00000030: 3b15 32be d261 f3ba 5e62 88bd 5fb6 d9bd
00000040: 9867 88bd 2df0 69bd a628 f53d 8f33 ea3d
00000050: 7adf b63d 83bb 213d df5b c2bd 1c8b f13c
00000060: 6a4c 913d 128f ee3d 7281 333d df4f 063e
00000070: 7df8 313d 0090 503e c1cf 503e a2b9 d8bd
00000080: dbd7 813c fb0b 16bd a160 433d c62d b6bd
00000090: 315a 833c e76b 583d 4ca7 893d aee2 50be
000000a0: 5837 51be 1f8c 8cbb 1e1e 393e a070 303c
000000b0: 3cac 0ebe 22c0 5dbd 5ad2 503e 6838 873c
000000c0: 6910 213d 2572 a1bd c9c8 99bd 2be7 81bd
000000d0: 3d6c 363d 122c b8bc 5961 a83d c73d 443e
000000e0: c95f 373d 36bd 81bd b278 bcbd 748f b9bd
000000f0: 629d 093d 5f86 183d 8277 203d 308a a33d
00000100: aed3 9f3c f066 afbd 3cf1 7e3e 7ae7 933e
00000110: 88eb 98bc 457b 2bbd 0bd6 eebb 279e 043d
00000120: 0c61 f03d c842 803c 19a9 1ebe 3b31 2dbe
00000130: 0eb6 d03d 80ac 4a39 f97e 84bd aac6 fb3d
00000140: bd5d 49bd 76a4 a0bd cd67 043c 0180 39bb
00000150: 1149 6cbd 439a 003e e1fc 543d b295 4d3d
00000160: 01b4 b93d 6139 b83d 1ed1 9ebb 7353 003e
00000170: 44ee 3ebd d9cc 83bc e0bd 37bd de2e 67bd
00000180: b6e8 dfbc 8edc e3ba 61c2 f6bd 8f74 103c
00000190: f977 68bc 6cee 443d f87e 4b3e 1465 883e
000001a0: 569e 703c 6cc0 4fbd 56e5 c0bd aff1 4cbc
000001b0: 6893 a03d 1c24 27bd 6e23 ce3d 3422 933d
000001c0: 7977 2cbd ce4c 803b 6d57 8f3d 1e35 17be
000001d0: 6200 4abe 1694 363c 3481 e5bc 70d9 eb3d
000001e0: 13e9 c03c 51aa a3bd c75e ebbd 161a 6dbd
000001f0: ef8c 2c3e e33c 4b3d 9353 eb3d 276b ef3d
00000200: 7e28 033e fc51 083c f2da c53d 6b56 64bd
00000210: 7da6 ac3d d3f7 483d ca22 403d 7b78 b4bd
00000220: de5b 823d 3205 853c 7fdc cbbd c686 35be
00000230: d847 69be c904 2f3d 3d32 2d3e 803c c73c
00000240: 6d52 083d e5b2 8e3c 81f6 06be fe7d d6bd
00000250: 2040 503d f959 1d3e efa5 9bbd 0bcd 89be
00000260: 4a55 a0bd 23d4 073d 360e 4fbd 5dc0 ccbd
00000270: 932c 9a3c 97d2 623d c2df 3a3d 5615 a6bd
00000280: adb9 14be a9b5 d5bd e9af 123e e958 f6bd
00000290: ef48 28be f28d 92bd 06ff d13b 9cfa 4a3c
000002a0: 8e94 89bd 00bb 273d c9d6 b8bd 773a c63d
000002b0: 11f8 7dbd 9b60 9ebd 2f51 c53d cce8 333d
000002c0: 4a89 bfbd 48f5 283c 0c04 8fbc 1991 383d
000002d0: 385b 5dbd dde4 67bd 1dc5 163e 5334 3b3c
000002e0: cf13 103e 1411 a43b 2a9d efbd 4dd6 fcbc
000002f0: fda0 1bbd 052a afbd aeb7 3dbd 2376 f43d
00000300: a381 80bd f7ce ba3c 77bb 843d 007f 333e
00000310: 9683 aa3d 94a7 883d e802 64bd 4abe 28be
00000320: cb68 25bd 106f adbc e126 c2bd 7591 11bd
00000330: f1e6 9bbd 1b88 23bd ab8e 1fbd 39fb 56be
00000340: d083 c13c 8dd5 413e 91ed ef3c 4c09 e3bd
00000350: 4481 a23d ad10 a13a 6015 083e 7380 fcbd
00000360: 5de1 0bbe 5722 3abc 9271 5cbd 7c0f c03d
00000370: 109f 803d 515c 12be c3d5 6bbe 463c c63d
00000380: 04c0 493d 9367 893d db13 41be e12e bfbd
00000390: 0420 60be 3265 263c 0b60 dcbd 2cc7 843d
000003a0: 73a1 f03d c124 113d a6f6 88bd 016e 03bd
000003b0: 5284 9c3c efb4 a53d ef4c 83bd caac ed3c
000003c0: acd5 d0bd 2202 2f3e 3efe d1bd d646 6d3b
000003d0: 677a cdbc 7506 acbd 4ed0 59bd 2055 fc3d
000003e0: 574b 93bd 3430 b9bd 7b77 4b3d be50 d03c
000003f0: 215f 43b9 084c 983d f95f dabd cce6 453d
-0.04961565 0.07987985 -0.16003218 0.0360395 0.09390477 0.07444988 0.06038495 -0.0038803022
-0.097730346 0.040552724 -0.10569142 -0.04873844 -0.17390911 -0.0018568581 -0.06659387 -0.10630488
-0.06660384 -0.057113815 0.11970644 0.11435615 0.089293435 0.039485466 -0.09490179 0.029485278
0.07094653 0.11648382 0.04382462 0.13116406 0.043449868 0.20367432 0.20391752 -0.10582282
0.015849998 -0.03663252 0.047699574 -0.08895449 0.016034218 0.05283728 0.067213625 -0.20398971
-0.20431268 -0.0042891647 0.18077895 0.010769039 -0.1393289 -0.05413831 0.20392743 0.016506389
0.03932229 -0.078830995 -0.07509 -0.0634292 0.044536818 -0.022481952 0.082216926 0.19164191
0.044769082 -0.06334917 -0.09202708 -0.09060565 0.033597358 0.03723752 0.03917647 0.079853415
0.019510116 -0.08564556 0.24896711 0.2888754 -0.018666998 -0.041865606 -0.0072886995 0.03237739
0.1173726 0.015656844 -0.15494193 -0.16913311 0.10190974 0.00019328482 -0.064695306 0.122937515
-0.04916166 -0.078438684 0.008081389 -0.0028305056 -0.05768687 0.12558846 0.051998977 0.05019159
0.09067536 0.08995319 -0.004846706 0.12531833 -0.046613947 -0.01608889 -0.044858813 -0.05644118
-0.027332645 -0.0017384456 -0.120487936 0.008816852 -0.01418876 0.04807894 0.19872653 0.26639616
0.014686188 -0.050720617 -0.09418742 -0.012508794 0.078406155 -0.04080592 0.100653514 0.07184258
-0.042106126 0.003915406 0.06999097 -0.14766356 -0.19726709 0.011143705 -0.02801571 0.11516082
0.023548638 -0.0799147 -0.11492687 -0.057886206 0.16850637 0.049618613 0.1149055 0.116903596
0.12808415 0.008320328 0.09660901 -0.055746477 0.084301926 0.04906447 0.046908177 -0.08812042
0.063651785 0.016237829 -0.09954166 -0.17727193 -0.22781312 0.042729173 0.16913696 0.02432084
0.033281732 0.017419288 -0.13179971 -0.1047325 0.050842404 0.15366353 -0.07600009 -0.26914248
-0.078287676 0.033161294 -0.050550662 -0.09997628 0.018820083 0.055376615 0.04562355 -0.08109538
-0.14523955 -0.104350396 0.14324917 -0.12028677 -0.16434072 -0.0715598 0.006408575 0.0123888515
-0.06717788 0.04094982 -0.09025342 0.0967912 -0.062004153 -0.0773327 0.09634625 0.043923184
-0.09352358 0.010312386 -0.017457984 0.04506025 -0.05404207 -0.056614745 0.1472363 0.011426049
0.14070056 0.0050069187 -0.116998985 -0.030863905 -0.037995327 -0.085529365 -0.04631775 0.11936595
-0.06274726 0.022803767 0.064810686 0.17528915 0.08325879 0.06672588 -0.055666834 -0.1647884
-0.04038314 -0.021171123 -0.09480072 -0.03553911 -0.07612408 -0.039924722 -0.03895442 -0.20994271
0.023622423 0.1892912 0.029288085 -0.110857576 0.07934812 0.0012288295 0.13289404 -0.12329187
-0.13660188 -0.011360726 -0.053819247 0.093779534 0.06280339 -0.14293028 -0.23030762 0.09679465
0.049255386 0.06709208 -0.1885523 -0.09335113 -0.21887213 0.010155963 -0.10760506 0.064833015
0.11749544 0.035435442 -0.066876695 -0.03208733 0.019106064 0.08091151 -0.06411158 0.029013056
-0.10197005 0.17090657 -0.10253571 0.0036205552 -0.02508278 -0.08399669 -0.05317717 0.12320924
-0.07192104 -0.09042397 0.049674492 0.025429126 -0.00018632087 0.07436377 -0.106628366 0.04831581

lstm.weight_hh_l0 f4 [256, 64]
00000000: 342d 533d 13f6 7cbd 971c 223e 9fb1 c1bc
00000010: 3b25 8a3d a17e 453e f257 cabd cc20 9ebc
00000020: a9b6 f73d 40a2 383e b2a1 a53d 2c8b 053d
00000030: d1e4 483e 2776 c1bd cf48 f43d 5f45 5a3d
00000040: f583 2bbd 3840 863d ba74 0c3a ec70 203d
00000050: be29 c6bc 4fd6 bdbd bd26 b83b 87b1 a3bc
00000060: 6967 383e 672a 59bd 7f5a 16be cfe6 83bb
00000070: a5a5 ad3d a106 8e3d a55a f8bd b035 9bbd
00000080: f9b8 7dbd 3083 3e3c e787 933d 02dd f0bd
00000090: 1fc0 d4ba 1483 033d 4cd6 9cbd 7db2 a13d
000000a0: 9062 51bd c55b 46bd c741 423c 2be4 ecbd
000000b0: ce6c 85bd 9043 38be f38d d8bd 365f 28be
000000c0: b324 af3d 3ec0 a53d 7566 ba3d dfa4 843d
000000d0: d72d 4ebe e1d0 9dbb 3550 643e d505 bbbd
000000e0: 0988 093d e2a3 f33d 6ee0 0abe 3b43 83bd
000000f0: cfff 83bd 401c 1d3e bb52 063d c396 dd3d
00000100: 16f8 5d3d 8127 adbd d74a 833e 0605 bf3d
00000110: 8108 613d 294c cebd d75f 35bd 3607 6ebd
00000120: 7d47 87bd 6ae6 26be 0f63 e13d 09be a63c
00000130: 5f73 2a3c e4c2 c0bd aa86 36be acfe a33d
00000140: 4e25 003e 9701 4abe 1e79 4b3e 0f6f a83d
00000150: 935f 4d3e e4ad fbbd 1388 47be 94c5 253d
00000160: 19c7 9c3d b7c0 1cbe 45cc 6b3d 2716 273e
00000170: 7d95 96bd 9f28 70be 5107 21bd ae70 293e
00000180: 916c 13be d92e b9bd 5f31 aa3c d1e8 853d
00000190: 70bf 6d3d 7831 8dbd becc f6bd eac6 bc3d
000001a0: 2e8a f13c 3baf 30be b8ea 56bd 1dc9 2dbe
000001b0: 130e babd 476f 13be db60 15be 465d 3fbd
000001c0: d9e0 7cbc 6673 3cbc 4716 823d 778b aaba
000001d0: 23c0 30be bb47 b53d 6497 06bd fcfa 743e
000001e0: 1e91 8cbd 158b e13d 8cd8 30be 76fe c93d
000001f0: 30ac 033d 7b51 8dbd 0070 923d 5016 e0bd
00000200: 4e8d 0f3e 7fb6 57be 2bac 89bd e1ae 873d
00000210: 757d 65bd 75ed 623d c349 c1bc fd64 c93d
00000220: 39d5 943d f66e cdbd 124d 373d f314 903d
00000230: 4b9d 2b3e beec 07bd 1798 70bd 7b3e ae3d
00000240: 8bb2 09be 2584 f1bc 352b 543e f60d a73b
00000250: 1f81 c5bd 6b6d 213d 85b6 b1bb e2c0 5b3d
00000260: 87a1 0ebd d5eb 18be 6e11 e0bd 1e5b b1bd
00000270: 696c f0bb 6d1e 563d c0ff 32be 6cee 09be
00000280: d2eb 8f3c be1d c33c 9dd8 f33d 4f6b f1bc
00000290: dcab 443d e7cd db3d eaab fbbc a789 183e
000002a0: ab26 323e 1e77 4d3d 0c43 263d 6cbf 76bc
000002b0: 3e18 ee3c 5316 ee3d af7f 10be f6bd 2b3e
000002c0: 0a9c 8fbd c7a4 b13b 91c5 f83b ada1 27be
000002d0: a7f3 0f3b dfc8 45be ce47 25bc c016 1bbe
000002e0: 4ab6 0bbe b780 b63c 2c99 bc3d 8f64 033d
000002f0: 4cf8 bfbd b0cc 4f3c e693 d8bd 84e9 683e
00000300: e2f3 823e 7704 8ebe 475d 083e 9fcc 7cbe
00000310: d099 803b c577 69be ad7c 01be 98a1 98bd
00000320: d512 1f3e 729e 33be 56d4 923d 2639 aabc
00000330: 9b31 14bc b80e 9fbc 3296 04b9 5150 1c3e
00000340: 5b72 6a3d 30bb 9dbb 4918 3dbe 20e7 443e
00000350: e362 c4bd f269 21be c7cc 32be 352b e03d
00000360: b0b2 8e3d c807 f4bd 0055 33be 8a9e 583e
00000370: bc5d 1d3e f5ee c3bd 9856 2c3e f67e 1ebc
00000380: a55a 363e 8772 f3b9 de73 183c ce7d 703d
00000390: d735 cbbd 5c29 d2bd 0e28 00bd e10a c33d
000003a0: 6665 4b3e d728 063e 7017 613c 920d 97be
000003b0: 5c59 7d3c c730 063e 26f3 303d 4474 963e
000003c0: ea09 9b3d 5752 3cbe c68e cabd 735d ba3d
000003d0: 75dc 42bd ec43 c93d e683 9b3d a81a 133d
000003e0: 5b08 a93d dfdd b73c 8a52 9fbe f3b2 36be
000003f0: 7c73 b13d 2a1c 88be 21bb 433e 0e8a b63b
0.05155678 -0.061758112 0.15831219 -0.023644267 0.067453824 0.19286586 -0.098800555 -0.019302748
0.120953865 0.18030643 0.080874816 0.032603428 0.19618537 -0.09446364 0.1192795 0.053288814
-0.04187389 0.065552175 0.000535797 0.03917019 -0.024189826 -0.09269392 0.0056198523 -0.019982113
0.18008198 -0.053018954 -0.14682959 -0.0040253173 0.0847886 0.06934858 -0.12126664 -0.075785995
-0.06194398 0.011627957 0.07203656 -0.11760904 -0.0016231573 0.032107428 -0.076580614 0.07895372
-0.051119387 -0.048427362 0.011856503 -0.11566957 -0.065148935 -0.17994523 -0.1057395 -0.1644257
0.08551922 0.08093308 0.091015734 0.06476759 -0.20134674 -0.00481616 0.22296222 -0.09131972
0.033577 0.118964925 -0.13562176 -0.064093076 -0.06445276 0.15342808 0.03279374 0.10819771
0.05419167 -0.084548004 0.25643036 0.0932713 0.05493975 -0.1007312 -0.044280853 -0.058112346
-0.06605432 -0.16298833 0.11005222 0.020354288 0.010403483 -0.094121724 -0.17824808 0.08007559
0.1251423 -0.19727169 0.19870421 0.08224308 0.2005599 -0.122890264 -0.19485502 0.04047163
0.07655162 -0.1530789 0.057567853 0.16317044 -0.073527314 -0.23452996 -0.039313618 0.1654689
-0.14396884 -0.090421386 0.020775495 0.06538547 0.058043897 -0.06894201 -0.1205077 0.09217627
0.029484835 -0.17254345 -0.05246994 -0.1697125 -0.09084716 -0.14397918 -0.14587729 -0.04671981
-0.015434467 -0.0115021225 0.06351905 -0.0013011534 -0.17260794 0.08851572 -0.03285922 0.23923868
-0.068636164 0.11012856 -0.17270106 0.09862988 0.032146633 -0.06900307 0.071502686 -0.10941756
0.14018747 -0.2106571 -0.067222916 0.066251524 -0.05602785 0.055402238 -0.023594743 0.09833715
0.072672315 -0.1003093 0.044751234 0.07035246 0.16759221 -0.03318476 -0.058738794 0.08508011
-0.13447015 -0.029481957 0.20719607 0.0050981 -0.096437685 0.03941099 -0.0054233694 0.053650744
-0.034822013 -0.14933713 -0.109408244 -0.08659957 -0.0073371422 0.05227511 -0.17480373 -0.13469857
0.017568503 0.023817893 0.1190655 -0.029470114 0.04801546 0.10732632 -0.030721623 0.1489626
0.17397563 0.050162427 0.040591285 -0.015060287 0.029064294 0.11625352 -0.14111207 0.16771683
-0.07012184 0.0054212543 0.007591911 -0.16370268 0.0021965296 -0.19314907 -0.01008792 -0.15145397
-0.13643757 0.022278173 0.09208903 0.032078322 -0.09373531 0.012683079 -0.105750844 0.22745329
0.25576693 -0.2773778 0.13316832 -0.24687432 0.003924586 -0.22799595 -0.12645216 -0.074526966
0.15534528 -0.17540911 0.07169406 -0.020779204 -0.00904503 -0.019416198 -0.00012644453 0.15265013
0.057237964 -0.0048135743 -0.18466295 0.19228792 -0.09589174 -0.15763071 -0.17460929 0.10945741
0.06967676 -0.11915547 -0.17512894 0.21154228 0.15367788 -0.09567062 0.16829908 -0.0096738245
0.17808016 -0.000464339 0.009304969 0.058713727 -0.099223785 -0.10261795 -0.0312882 0.09523559
0.19862899 0.13101517 0.013738498 -0.2950254 0.0154631995 0.13104545 0.043200634 0.2938558
0.0757025 -0.18390785 -0.09890513 0.09099855 -0.047573525 0.09827408 0.07593517 0.035914093
0.08253547 0.022444664 -0.3111766 -0.17841701 0.08664605 -0.26583987 0.19114353 0.0055706566

lstm.bias_ih_l0 f4 [256]
00000000: f972 1cbd 0b57 c3bd 5a19 a1bd 9a58 f3bd
00000010: 8325 c4bd 1103 193d 300c f33c 81bd c33d
00000020: ddb0 153e 14d7 c3bd 3e72 acbc 9fdf 21bb
00000030: 293f 51bd 829b 86bd 8d2d a93d b00e 0cbd
00000040: f7ba 05be c86e 6a3c b94f 31bd 45da 403c
00000050: b732 0ebd 63e7 d73d 51c4 1abd bb98 3dbd
00000060: 3fee 813d 819f 363d 5c17 54be 5b00 3c3d
00000070: 0e0f 8b3d 49a4 02bd fe85 8c3d d4a7 943d
00000080: 4174 6b3d 3c6f 7dbd f365 fdbc d608 f23d
00000090: 6515 3e3d 6087 b9bd 3479 94bd ea22 2ebe
000000a0: 9e41 0b3a 2779 dfbc c9b3 d43d 15d4 8f3d
000000b0: 9262 cf3c 1e87 8fbd 3097 9d3d e850 4a3e
000000c0: 08c2 433d a885 c3bd e338 40bd e623 8bbd
000000d0: 83c2 a3bc 01d9 8bbd 2ece 823d 7d83 b5bd
000000e0: f1fc 81be 99f8 45be 7227 bb3b 00c4 a3bd
000000f0: 2ac7 d9bc 470e 03bc 36db 263e 2b79 cf3d
00000100: 30a5 87bd 1e46 68bd b693 3abd 1fef 33be
00000110: 3e50 e13d 29f8 81bd 69d1 a4bc 60fb a6bd
00000120: e25e bcbd 0c41 28bc 9ad6 19bc 52dd 3b3d
00000130: 6eeb f8bd c95c 12be dd53 fdbc d3b6 703d
00000140: e085 6dbd d821 a3bd b4d7 d13c 4c88 ee3d
00000150: 7da4 e83c b24b 963d 0311 f23d fb14 a53d
00000160: dabb 473d 2c6e 813d 69e5 2bbd d32b 7f3d
00000170: e826 2b3d 1e31 3a3e a1ce 46bd 41de 353e
00000180: 728f 053e 0374 ef3c 5b46 013b 2fc0 003e
00000190: 4fe9 ce3d 0c3c 5abe 7254 5e3d c7d4 4abe
000001a0: 271c 8b3b ebae 073e c301 be3d 06e8 8a3d
000001b0: 31a1 183d 1ac6 70bd 5ee6 9b3d 1dbb 283c
000001c0: 94df 3fba c63e 103e 6a9b b53d 49ac a3bd
000001d0: 22ee 013e 2400 813c f140 e1bd c4d9 263e
000001e0: 7458 e7bc 2444 05bd 39d8 60bc 499c 14be
000001f0: ff32 06be 2971 8ebd ac2b e43d 0c6b b9bc
00000200: 9548 2bbc 7def b8bd cb57 823d 59d5 543d
00000210: f592 07bd 66bd b63d fb0c 17bb 1c57 683b
00000220: 55ef 2dbe 991a 35bd 2e04 e8bd b85f 9abd
00000230: dc46 6bbb 4bb7 d4bb d452 7c3c ca0f 413d
00000240: 9598 453d 3c55 c53d c3d5 7fbd 811a 443e
00000250: ff6c bcbd 0ac5 8b3d 24f4 083e 655a 2b3e
00000260: 82fd 1f3c 8cc7 803d ef80 313e 902b 5f3d
00000270: e281 b1bc 16c5 d0bd 6afc 16ba d47c 11be
00000280: 79de 253e 77b8 113c 16b4 37bd 8e7a c8bc
00000290: 248b ce3d f181 cfbd af21 85bd 33dd 3bbd
000002a0: 383c eb3d e195 223d 1ed1 8abe 20cc 17bd
000002b0: 99a0 a43c 3188 c2bd 33db ce3d c915 91bd
000002c0: f747 033d d0cb 2b3e 1676 6d3d 96c7 203e
000002d0: 5359 9d3c ef87 ba3d 1439 0e3d 4357 c5bd
000002e0: d76b 62bd d222 053e 0b68 253e 4adf 733d
000002f0: 9dab 19bd 58f6 fe3d 97b2 b23d e3fb 9ebd
00000300: eb92 823d f109 13bc 666b fabb c002 bf3d
00000310: afe7 8d3c 9a9e 59bd 33b9 2abe e192 be3d
00000320: f472 ccbd 8ff6 12bd b34e 43bd a0ba 8a3c
00000330: d466 7e39 cc71 41b9 4e3b 30be 5552 ff3b
00000340: 6a6f d9bd d2c4 baba 25ae 0fbe 2e5d 8d3d
00000350: c642 fdbd cbe3 a8bd dcbf 193c c9b6 dabb
00000360: 71ef 0bbe f898 9d3d 0734 fb3d a7f5 083d
00000370: d39d b53d 287a b1bc 395d 603c 5f1d cdbd
00000380: cbae 56bc 4fc4 dfbc 4139 19bd 3dcb e7bd
00000390: de66 243d af2f d6bd 9fc2 2f3d c4ae 43bd
000003a0: 13e3 b5ba c50a 4a3e 5b1b b53d e762 ed3d
000003b0: c2cd 903d 86c3 4fbd 6280 abbd bd4e d9bc
000003c0: 91a2 8bbd def4 c7bd 3152 02be 617e 043e
000003d0: 4f76 dd3d 1eb8 4f3c 987a 86bd 31b0 a2bd
000003e0: 4379 c1bd 4ea8 173d 73b3 24be 6bf1 e03d
000003f0: 49db b43d d72e a1bd ea61 d33c 02b2 e6bd
-0.038195584 -0.095380865 -0.078661636 -0.11882134 -0.09577467 0.03735644 0.029668897 0.095576294
0.14618249 -0.09562507 -0.021050569 -0.002469994 -0.051085625 -0.065726295 0.08260641 -0.034193695
-0.13059603 0.014308639 -0.04328892 0.0117707895 -0.034716334 0.105421804 -0.03778488 -0.046288233
0.0634427 0.04458571 -0.20712036 0.045898777 0.06789981 -0.031894956 0.068614945 0.07258573
0.057483915 -0.06187366 -0.030932402 0.118180916 0.046407122 -0.09059024 -0.0724968 -0.17005506
0.0005312207 -0.02727945 0.10385854 0.07022873 0.025315557 -0.070081934 0.07694852 0.19757426
0.047792464 -0.09546977 -0.04692925 -0.067939565 -0.019990211 -0.068284996 0.06386982 -0.0886297
-0.2538829 -0.19333114 0.0057114894 -0.079963684 -0.026584227 -0.007999009 0.1629456 0.10130533
-0.06623304 -0.056707494 -0.045551024 -0.17571686 0.11001633 -0.06346161 -0.020119386 -0.08153415
-0.09197785 -0.010269415 -0.009389544 0.045865364 -0.1215428 -0.14293207 -0.030923778 0.058768105
-0.057989 -0.079654396 0.02561555 0.1164709 0.028398747 0.073386565 0.11819651 0.08060642
0.048763134 0.06319842 -0.04196683 0.062297653 0.04178515 0.18182799 -0.0485369 0.17760564
0.13043001 0.029230123 0.0019725773 0.12573312 0.10103094 -0.21311969 0.054279752 -0.1980773
0.0042452994 0.1325032 0.0927768 0.06782536 0.0372631 -0.058782674 0.076122984 0.0102985175
-0.00073193875 0.14086446 0.088675335 -0.07991845 0.12688497 0.015747137 -0.10998715 0.16294008
-0.02824042 -0.032535687 -0.0137234265 -0.14512743 -0.13105391 -0.06955177 0.11141142 -0.022634052
-0.010454317 -0.09030054 0.063644014 0.051961277 -0.033099134 0.08922844 -0.0023048508 0.0035452312
-0.16985829 -0.04421482 -0.11328922 -0.07537788 -0.003590039 -0.006491577 0.015400607 0.0471342
0.048241217 0.09635398 -0.06245972 0.19150735 -0.09200477 0.068246916 0.13374382 0.16733702
0.009765031 0.062880605 0.1733434 0.054484904 -0.021668378 -0.10193841 -0.00057596585 -0.14207774
0.16198148 0.0088940775 -0.044849478 -0.024472501 0.10085133 -0.10132206 -0.06500565 -0.04586525
0.11486095 0.039693717 -0.2711267 -0.037059903 0.02009611 -0.09498633 0.10100403 -0.07084233
0.032051053 0.16776967 0.057973944 0.15701136 0.019207632 0.091079585 0.034722403 -0.096357845
-0.055278625 0.13001564 0.1615297 0.059539117 -0.03751718 0.1244933 0.087254696 -0.07762887
0.06375679 -0.008974538 -0.0076421974 0.093266964 0.01732239 -0.05312977 -0.1667221 0.09305359
-0.09982863 -0.035879668 -0.047682475 0.016934693 0.00024261634 -0.00018448307 -0.17210123 0.007791797
-0.10616954 -0.0014249331 -0.14031275 0.06902538 -0.12366252 -0.08246573 0.009384122 -0.0066746217
-0.13665558 0.07695192 0.12265783 0.033437397 0.08867993 -0.021664694 0.013694101 -0.10015368
-0.013103197 -0.027315287 -0.037408117 -0.113180615 0.040137164 -0.10458314 0.042910215 -0.04777409
-0.0013876877 0.19730671 0.08843108 0.1159113 0.07070495 -0.050723575 -0.083740965 -0.026526803
-0.068181165 -0.097635016 -0.12726666 0.12938835 0.10813581 0.012678174 -0.06566352 -0.07943762
-0.09446957 0.037025742 -0.1608408 0.10983547 0.08830888 -0.07870262 0.025803525 -0.11264421

lstm.bias_hh_l0 f4 [256]
00000000: 1662 0ebe 33c5 3dbd 418c 44bd bec2 81be
00000010: 66b6 10be 2681 c0bd 89c1 acbc ea95 053e
00000020: a974 0a3e 60d8 a13d 065f c03d 65d7 15bc
00000030: 919b a33d 0848 66bc d1a8 cd3d 5fc7 853d
00000040: 1f82 033d 9a94 e7bd 2375 12be 0426 d93d
00000050: 0b96 363c c7c7 1c3e 6f42 703d 1940 82bd
00000060: 6b28 cebd 6e0d 3ebb 75c1 1dbd ad57 a9bd
00000070: 8087 93bd 6fdc 853c b4eb f63c 642f 59bd
00000080: d593 20be c5ef a7bd 60b8 c7bd 74c0 5f3d
00000090: cf19 68bd 8998 f5bc 9e66 0c3d 5e82 403b
000000a0: ff89 d9bd dd74 c43d 65ee d13d d3ba 11be
000000b0: 4094 b13d b86f 90bd f098 af3c 876a ad3d
000000c0: 2d87 383e 560f debc f597 4cbe 8ab0 05be
000000d0: 2488 db3b 4178 9c3d 353a 4c3d 5248 44bd
000000e0: 4dae 92bd e1b7 35be f69b 2c3d 9eb5 753d
000000f0: 57b4 4d3c a675 363e a088 04bd 8a3c ab3d
00000100: b2f0 a7b9 c467 423d cd65 22be 881d f2bc
00000110: 767a 0ebc 71e7 e3bd b779 90bd b8a0 a7bd
00000120: d171 2ebe 92d0 943d d1a8 8dbd 3bcb a5bd
00000130: 6e8b 0f3d 8c57 ecbc a8a7 88bd 6674 313d
00000140: a144 14bc 5338 8b3d bcdf 683d 2d60 1d3d
00000150: ddd0 f8bd 8dfa 2cbd 1b4f 053e a504 76bd
00000160: 3855 ca3d a236 133e 7b13 01be 406f e0bb
00000170: 63bc 973d 6f60 1a3e 3778 943d 5613 bd3d
00000180: 433a abbd c3b0 e0ba 724b e13d e58b 0dbd
00000190: 1337 1f3e 32e1 f9bd 5eab 963d c36f 91bd
000001a0: b859 483c e947 93bd 4c0e 8cbc 2251 f73d
000001b0: 0c62 873d 9a49 893d 2e54 68bc d16a 0b3e
000001c0: f312 4b3d 498c 603e 5638 bd3d 8d60 6f3c
000001d0: 177e c13d 557f 8b3b af64 d4bc 64e2 ea3d
000001e0: 3a06 53bd 517d f5bc 5b8d d93c abac c9bc
000001f0: b464 ac3c b33c e83c 282a 143d c2ab 87bd
00000200: b88b ac3d 3f6e bc3d 8dfa 37be 4175 46bc
00000210: 9430 1a3e f82f 96bd 8c6c 7c3b a2e9 143e
00000220: db99 35be df43 6cbd 513c 8c3d 7a3f 853d
00000230: b0dd 4abe 3217 0dbd 68f5 5fbb 9a89 9bbd
00000240: 07b8 81bc 9658 3b3e c369 b83c f559 b8ba
00000250: eca3 75bc 31ff 4abd 62cf 5c3e 02eb ff3d
00000260: f695 883d f216 003e a7d7 2d3c 936a adbd
00000270: 6c07 9abd 6dd4 b7bc 5e08 0cbb a06e 7ebc
00000280: 0d0d b43d 4111 013e 0ccd dcbd a48b 523d
00000290: 6c66 173d 8109 76bc 939e 16be 50c5 8b3d
000002a0: 2cad 26bd 56d5 f93c c555 0cbe 3b97 143e
000002b0: dd6f 8fbd 1106 0b3e 12fd bc3d 6c61 0fbd
000002c0: 5f95 b13d dc06 333d 6123 a73d 9e1b 563d
000002d0: 89a6 2f3e 7adf d5bc 7ae4 c63c 3fa7 0cbe
000002e0: 6869 e8bd defd 423e 7592 15bd 31b3 0f3d
000002f0: 744e e1bd ca7e 643d 1872 fb3d 3be0 ddbd
00000300: 516a 0d3e 77e5 d23d 08a0 6fbd 83f3 44bd
00000310: 4339 283e 17c5 99bd b7db a93b 9974 9abd
00000320: 84ef 0cbe cd51 b73d d15c 0d3e 40ff 55bc
00000330: 8a9f 703a 3157 993d 2299 38bd 7b45 0c3c
00000340: 0c38 8d3d fcb1 b93d b5ce d13c c74f 1dbe
00000350: 76d5 a73d 64c0 87bd 43d1 f13d 5f2f 68bb
00000360: 8efe 233d 85f0 0f3d ccaa ef3d 8231 debd
00000370: 4dee 143e 0c1d bd3d cc72 25be 8eb3 0b3e
00000380: 6482 333d 6515 833d 6b6e 013d 7b67 6bbd
00000390: ed32 cabc c764 a73d f324 573c aeb6 ebbc
000003a0: 13de 85bd 693a 2c3e 7fd3 033e 1af9 663c
000003b0: 90de 943c 2b4f 053c b5c0 26bd 8da4 ed3d
000003c0: 07c3 9b3c dff7 923b 62ae c83d 0ba1 c5bb
000003d0: 559d cbbc 8f67 333d 8a56 86bd c947 913d
000003e0: 145b 59bd bcc4 22bd 0d8d bc3a 973e eb3c
000003f0: ae0c 0e3e af68 51bc 3cb3 a93c 901d bf3d
-0.13904604 -0.046330642 -0.04798532 -0.2534389 -0.1413208 -0.09399633 -0.021088379 0.13045469
0.13521065 0.079025984 0.09393124 -0.009145592 0.07988656 -0.0140552595 0.10041965 0.06532168
0.032106515 -0.113076404 -0.14302497 0.10602954 0.0111441715 0.15310584 0.058657106 -0.06359882
-0.10066303 -0.0028999704 -0.038514573 -0.08268676 -0.07203579 0.016340462 0.030141689 -0.05302371
-0.15681393 -0.08200029 -0.097519636 0.054626897 -0.056665238 -0.029979961 0.03427755 0.002937458
-0.10622024 0.095926024 0.10250548 -0.14231424 0.086708546 -0.07052559 0.021435231 0.08467584
0.18020315 -0.027106922 -0.19979842 -0.13055626 0.006699579 0.07640124 0.049860198 -0.047920533
-0.071621515 -0.17745925 0.042140923 0.059987657 0.012555203 0.17818317 -0.03235686 0.08361156
-0.00032032054 0.04746224 -0.15859146 -0.029555097 -0.008696189 -0.11128128 -0.07054465 -0.081849515
-0.17035605 0.07266344 -0.06916965 -0.08095404 0.03504508 -0.02885034 -0.06672603 0.043323897
-0.0090495655 0.06797852 0.056853995 0.0384218 -0.121492125 -0.04223113 0.13018458 -0.060063023
0.098795354 0.1437631 -0.12605087 -0.0068491995 0.07408979 0.15075849 0.07249492 0.09232204
-0.08360722 -0.0017142523 0.11000718 -0.034557242 0.15548353 -0.12201156 0.073569044 -0.07101395
0.012228422 -0.0719145 -0.017096661 0.12076022 0.06610498 0.067034915 -0.014180226 0.13614966
0.04957862 0.21928515 0.09239261 0.014610422 0.09447878 0.0042571225 -0.025926916 0.11468962
-0.05151961 -0.029966982 0.026556661 -0.024618467 0.021044113 0.028349256 0.036173016 -0.06624557
0.08425087 0.09200715 -0.17966671 -0.012112916 0.15057594 -0.07333368 0.0038516847 0.14542249
-0.17734472 -0.057681914 0.06847442 0.06506248 -0.1981113 -0.03444595 -0.0034173373 -0.07594605
-0.015834821 0.18295512 0.022511369 -0.0014064895 -0.014992695 -0.049559776 0.21563485 0.12495996
0.06669228 0.12508753 0.010610498 -0.08467593 -0.07520947 -0.02244016 -0.0021367292 -0.015529305
0.08791552 0.12604238 -0.10781297 0.051402703 0.03696291 -0.015016914 -0.14708929 0.06824744
-0.040692493 0.030497234 -0.13704593 0.14510815 -0.07003758 0.13576533 0.09227957 -0.035005018
0.086710684 0.043707713 0.08161045 0.05227243 0.17153372 -0.026107538 0.024278868 -0.13735674
-0.1134823 0.19042155 -0.036516625 0.035083 -0.11001292 0.055784978 0.12277621 -0.10833784
0.13810088 0.10297673 -0.058502227 -0.048083793 0.16428094 -0.07508295 0.0051836628 -0.075417705
-0.13763243 0.08951149 0.13804938 -0.013061345 0.00091790466 0.074873336 -0.045067914 0.008561487
0.06895456 0.09067151 0.02561126 -0.15362464 0.08195011 -0.066284925 0.11807492 -0.0035428626
0.040037684 0.035141487 0.11702499 -0.108492866 0.1454403 0.09234056 -0.16157073 0.13642713
0.043825522 0.06400565 0.031599443 -0.057471734 -0.024682486 0.08173519 0.013131368 -0.028773632
-0.06536498 0.16819157 0.12873648 0.014097476 0.018172532 0.008136551 -0.040711123 0.11603651
0.019013895 0.004485115 0.09798886 -0.0060311607 -0.024855295 0.043799933 -0.06559475 0.0709377
-0.053065374 -0.0397384 0.0014385298 0.028716369 0.13872024 -0.012781306 0.020715348 0.093318105

lstm.weight_ih_l1 f4 [256, 64]
00000000: 54a8 d1bd fa25 55be bf7a c9bc b648 36be
00000010: 4d31 9cbd 0f3d e33d 3cff c63c 1c0f 5a3d
00000020: 98dc 573d e7cf 7fbd 81b1 313d 1af3 debd
00000030: 2478 c03d 6c9f 20bd b72e adbd 80dd 01be
00000040: f191 70bd e351 7abd 8228 d53d 60bb acbc
00000050: 3af0 43bd 9aa7 fb3d 0008 5d3b fc05 31be
00000060: 6c98 5ebd 3a3c 99bc aa61 72be f20e 863d
00000070: faf4 28bc f37a 26bd 165f 07be 2c67 22be
00000080: 8758 24bd d5b6 dfbd a8aa d03c 4d34 4bbd
00000090: ed0b d4bd 74f4 3cbd 3597 7cbd b49f a83d
000000a0: 6240 663b 7d7b 493d 6a5b bbbd d1bb 063d
000000b0: 2f9c 11be 842f cfbc d542 26bd 6dac 1fbe
000000c0: a2c6 ddbc d1df 8b3d 60ce bcbd 2915 95bd
000000d0: 4182 a73d 3df3 fd3d b884 423d 571c be3d
000000e0: 3218 543d e138 333c 5a1a 0cbd 9687 523d
000000f0: d663 bfbd db1a 953d 1767 8e3d bfab 213e
00000100: e47d a5bd 0269 df3b a208 743d 22c2 2a3d
00000110: 667b bfbc 6ab0 ec3d 9921 cc3d d44e b03b
00000120: a48e d53c 44fa 2b3e 5496 a83d df3d 3a3c
00000130: fac7 b8bd 9eea 88bd dd4d 49bc ca9e 0bbd
00000140: 01e8 953d 9cff ac3d f9de 1e3e a3cc db3d
00000150: 44c7 35be b0cb 2e3e 5f66 6c3d e872 0a3d
00000160: c47d d23c e969 f53c fdbd 0bbc a427 cf3d
00000170: 1934 173e 0ffd 403e 70bd b73d 2d1b 37bd
00000180: c9bb 06be 03a6 eebc fbf9 573b 1b54 263d
00000190: de5a 3e3d 5616 123e b80f b0bd 077b 15be
000001a0: 82f7 f8bd 5123 26be 361a c6bc ffaa 883d
000001b0: 804e e03c 5dd4 24bd 74ce b7bd 948d 35be
000001c0: 12b8 bebc f1f1 823e fc6d f3bd b892 c43c
000001d0: 7681 0ebd cd7a ef39 c010 0f3e 0716 77bd
000001e0: 3f7c ad3d 5f23 90bc 1594 ebbc 6b75 0dbe
000001f0: 9473 b53d 92ab 15bd c5fa 82bc 3b1c 7a3d
00000200: ac15 ecbd 52b1 b83d c596 393e 6b9a fabc
00000210: 8fff 263d 21ef 02bd 6f01 ac3d f9b9 ffbd
00000220: be8f 8ebd f5fb 39bd a781 4bbd a4c7 b7bd
00000230: f1d0 803d ae3c 973d 1102 88bc e587 9c3b
00000240: 7c6a 813d be11 0ebc 0947 19be 106f 23be
00000250: 1be2 83bc ed05 e3bd 5656 f03d f692 f2bc
00000260: 3abd b0bc 6fce ebbd 39bf ecbd 9e9a 18bd
00000270: 4c3b c6bd 6ea7 433b 8f8d 1abe dd7c fb3c
00000280: 3ea9 ab3d efbe 113d fd38 2c3c e6f3 b13c
00000290: 0597 90bd 589a b53d bec4 e6bc e7cb e73d
000002a0: b965 41be 10ae 6abd 9c02 c3bd c156 76bc
000002b0: e80f 433d f905 19be fe6b 0fbd feaf 213a
000002c0: b2d4 d0bd fd5a 403d f3a2 da3c 26d2 7fbd
000002d0: bceb 6abd 892f 8bbe d62d 753c cdf5 a43c
000002e0: 25c2 cdbd d245 713d 6178 a1bd 0d12 3ebd
000002f0: c216 9ebc 6d89 243e 66ec 8fbb 5798 063d
00000300: 465b 53bc 5bbb c9bd fadf 5d3d b88c 1dbe
00000310: 0cac 043e 445d e23d ef2d cd3d 758d 06be
00000320: e788 d9bb db34 debd cae8 613d ea51 e93b
00000330: 701b 2f3e c2da c7bd 569a e93d cc84 2ebd
00000340: ac38 3dbe 7465 b3bd ba41 b13e dd28 3d3d
00000350: 5381 673c f725 cfbc b5a8 333d d5de 9e3d
00000360: 5403 303d ca55 d2bc 00cb 52bd ee7d 12be
00000370: 847b 163e b006 fc3c e09f 19be 0962 14bd
00000380: 077d 2a3d 4199 32be 0062 4abd 803e 053e
00000390: 4098 ad3d 3ab7 013d 5114 5d3d 7bf5 813d
000003a0: 761a 15bc 56db 013e 48d9 8abd 7964 62bd
000003b0: a6e3 2cbd 2884 4d3d 35d9 1f3d eb90 a0bd
000003c0: 3a1e cf3d 37a4 afbd cfa0 fd3d dd42 003d
000003d0: 0689 073e 72b4 a9bd 3c43 4a3d 6094 b43d
000003e0: 3370 e3bc a1ec 16be 68dd 2abc 7df6 b139
000003f0: d689 f4bb a64f 963d e683 3d3e 6955 ba3d
-0.10237184 -0.20815268 -0.024594663 -0.17801175 -0.07626591 0.110956304 0.024291627 0.053237066
0.05270061 -0.06245413 0.04338217 -0.10886212 0.09397915 -0.039214537 -0.08456176 -0.12682152
-0.05873293 -0.06111325 0.10408117 -0.021085441 -0.04783652 0.12287827 0.0033726692 -0.17287439
-0.05434458 -0.018705476 -0.23670068 0.06545819 -0.010312313 -0.040644597 -0.13219866 -0.1585967
-0.04012349 -0.10923544 0.025472 -0.049610425 -0.10353837 -0.046131566 -0.06166764 0.08233586
0.003513359 0.049190033 -0.09148295 0.03289396 -0.14219736 -0.025291212 -0.04059108 -0.15593119
-0.027072255 0.06829799 -0.092190504 -0.072794266 0.08179141 0.1239991 0.04748985 0.09282749
0.051780887 0.010938854 -0.03420482 0.051398836 -0.09345214 0.07280513 0.069532566 0.15788172
-0.08080652 0.006817938 0.059578545 0.041689046 -0.02337427 0.11557086 0.09967346 0.005380491
0.026068993 0.16794688 0.08231798 0.01136729 -0.090225175 -0.06685375 -0.01228663 -0.03408698
0.07319642 0.08447191 0.15514745 0.10732391 -0.17751795 0.17069888 0.057714816 0.03380099
0.025694735 0.029957728 -0.008529183 0.10114983 0.14765967 0.18846534 0.08971679 -0.04470365
-0.13157572 -0.029131895 0.0032955396 0.040607553 0.046473376 0.14266333 -0.08596748 -0.14597712
-0.12156583 -0.1622441 -0.02418242 0.0667324 0.027381182 -0.040241588 -0.08974925 -0.17729789
-0.023281131 0.25575212 -0.11886212 0.023995742 -0.034791432 0.00045677126 0.13971233 -0.06032374
0.08470964 -0.017594991 -0.028757134 -0.13814323 0.088599354 -0.036540575 -0.015988717 0.06106208
-0.11527571 0.09018196 0.1812392 -0.03059121 0.040771063 -0.031966332 0.08398711 -0.12486643
-0.069610104 -0.0454063 -0.049684193 -0.08973625 0.062898524 0.073846206 -0.016602548 0.004776942
0.063191384 -0.008671222 -0.14968504 -0.15960336 -0.016099026 -0.11085115 0.11735217 -0.029611092
-0.021574605 -0.115139835 -0.1155991 -0.03725683 -0.09679279 0.0029854435 -0.15093063 0.030699188
0.0838189 0.03558248 0.010511634 0.021722745 -0.07060055 0.08867329 -0.028169986 0.11318188
-0.1888646 -0.057294905 -0.09521982 -0.015035332 0.04762259 -0.14943685 -0.0350151 0.00061678875
-0.101968184 0.046961773 0.026689028 -0.062456273 -0.05735372 -0.27184704 0.014964541 0.020136738
-0.10046796 0.058904476 -0.078842886 -0.046403933 -0.019297961 0.16068049 -0.0043921946 0.032860126
-0.012900179 -0.09850188 0.05416868 -0.15385711 0.12956256 0.11052945 0.10018527 -0.13139899
-0.0066386345 -0.10849925 0.055153646 0.0071203606 0.1710031 -0.097585216 0.1140639 -0.042607114
-0.1847865 -0.08759585 0.34620458 0.04618155 0.014129954 -0.025286658 0.043862063 0.077573456
0.042971924 -0.025675673 -0.051463127 -0.14305851 0.14695555 0.030764908 -0.15002394 -0.036226306
0.04162314 -0.17441274 -0.049409866 0.13012123 0.08476305 0.03166888 0.053974453 0.0634565
-0.009100547 0.12681326 -0.06779724 -0.0552716 -0.04220929 0.050174862 0.039025504 -0.07840141
0.10113187 -0.08576243 0.123841874 0.031313766 0.13235864 -0.0828637 0.049380526 0.08817363
-0.027763462 -0.14738704 -0.010428764 0.0003394372 -0.0074627204 0.073394105 0.18507347 0.09098322

lstm.weight_hh_l1 f4 [256, 64]
00000000: db8a 30bd ae56 2ebd 68a3 ad3d 3024 bcbc
00000010: 815c b43d 00a8 8cbe 4dfa a93d 08b4 1ebc
00000020: 9f37 e53d 6852 ba3d 0963 b53c 2cc3 df3d
00000030: 68aa 9cbd 2797 3abe 6f84 65bd 214d 28be
00000040: f0c4 79bd 0aeb b1bc d2bd 60bc 46a5 c7bd
00000050: 1aff 0b3d c43f 823d f24a c23d 19ac a23c
00000060: f9cf 453e 61a1 cebd b0c9 2fbd 5f08 cb3d
00000070: ddde 17be 2a0d 513d e520 963d 92ff bf3d
00000080: adb0 003c c782 a53c e3f2 773c 1ec8 873d
00000090: 3efd 7b3d 8565 593d 9e20 ac3d 24eb fbbc
000000a0: f094 17bb 9d97 2f3e 2b72 02bd fffa f73c
000000b0: da94 253d 7950 733c 07c3 0d3e e5f6 08be
000000c0: 9180 b0bd 9cb5 293e 12db 143e cb16 dd3d
000000d0: 48dc 35be 72cf b8bc 879c 2b3d a1f3 b0bd
000000e0: ada2 2ebe 4830 cebd 7ac3 723c bbbd ebbd
000000f0: 6ddb 8abd 8a79 41bd c3dd d63d 830a 5f3e
00000100: 4f60 083d 19ee 183d 025d 103e 3f30 b6bd
00000110: 3d1a 763c 447c bcbd 7ad9 f4bd 49a5 893c
00000120: a895 39bd b70c 35be a17a dd3d 4778 2dbe
00000130: a0f5 953d 310c e4bc cd07 77be 29ff b7bd
00000140: e268 0b3e 9087 b93c b3b7 953d 46ca 04be
00000150: c943 1abe 62b5 283d 28c5 9cbc ac30 9b3b
00000160: d031 c4bd 9775 013d 60ed 973d b25b fbbd
00000170: 8d2d 563c d171 40bc 07a1 93bd 1ba5 c8bb
00000180: 63f8 123d a56c a93d 3db6 19be dbd6 51bd
00000190: dedd 2dbd 4aa7 98bd ef33 85bd 3ded 4fbe
000001a0: 4459 d9bd d9f8 56be fa33 233d bea6 60be
000001b0: 9455 61bd c3bc e8bd eda5 68bd 8635 333d
000001c0: 007e 6cbe 83a6 acbd 5baa e63d fbc6 a0bd
000001d0: ec3e 173e 0c50 5cbb cf4f e63d 662c a03d
000001e0: 86ac e53d be50 89ba af0b 56bc 6c1d 9b3d
000001f0: 56c9 83bd b291 8c3d 8ec5 9abc 019e 31be
00000200: 3c6a c53d ebd6 013d 1896 c93c 964b fe3b
00000210: 6a3a 6c3d f44c 41be cec9 69bc bae6 bd3c
00000220: bf93 253d a17d b2bd f11b 243d 895f a0bd
00000230: 96a2 e0bb 2f9c 0f3d a032 d9bb e142 b23d
00000240: 357b d33d 2f80 443d 9eba 623d 35e2 d13d
00000250: f4a9 8b3c be2d 5cbd dc0f 933d cae9 0e3d
00000260: e39f 4bbd db19 d43d 3d1d 4b3e 20a3 1abd
00000270: 46e0 a5bd c724 b1bd cef4 a63d f1e1 6abd
00000280: 5b6d b23d b71f 12be 2ff0 87bd 3f48 723e
00000290: 8902 b43d 8fb6 6fbd 6890 cc3d 0587 43be
000002a0: 7167 e53d 6a12 41be 55df eb3d 9464 01bd
000002b0: 4eb3 3b3e 3346 acbd 218f 0a3d d2d9 b13d
000002c0: c0c8 00bd dc3a b9bd a69a a83d 2720 4ebd
000002d0: 5fe7 9c3d 5bd9 343a de79 493c 2583 4ebd
000002e0: 80d9 b2bd 5448 6c3d 81e6 643d 2ee9 b7bd
000002f0: 655d d0bd 51b1 b6bd 50e5 a6bc ea3a b9bb
00000300: bb8f 6dbd 76b7 34be b778 693d a085 1bbd
00000310: 12c4 f0bd 5a44 cfbc 3d3f 5bbd f686 a7bd
00000320: 6b4a 493e 35d2 6dbc 9680 113e da2b 9c3d
00000330: 804a 69bd d657 4cbe e2ee 293e 4f8a 36be
00000340: d7c9 d13d 3869 acbd bd18 09bd c23a 9a3d
00000350: 7b13 f63d b53f 6a3d f87c 3c3e 2439 bcbd
00000360: 64a7 743d c2b7 073e aaee 4b3e 1bfd 2cbd
00000370: 9a70 afbd d33c 62bd 07d9 9fbb 7297 013e
00000380: 11b2 143b d8d7 d73d 0b18 86bd e513 1b3e
00000390: 8729 0c3e 7f1f 7d3e d305 5b3e 03da ddbd
000003a0: f1db 153d 9d6e bcbd 0d8a 29bd c7b4 253a
000003b0: 7b3c 003e b66d a93c 175b 4b3e 34c1 18be
000003c0: 9f74 95bd c83c d7bc 34e8 703d de68 033d
000003d0: 114f 3bbe f5f8 883d 6d57 fcbc 4b2d 47bc
000003e0: c6cd 5fbe fc13 2d3b b71b 2b3d df10 21be
000003f0: 68b4 5abe 7c71 0cbd 29a0 953c c976 823d
-0.043101173 -0.042563133 0.08478433 -0.022966474 0.08806706 -0.27471924 0.08299694 -0.0096864775
0.111922495 0.09097749 0.02214195 0.10925898 -0.0764969 -0.18221723 -0.0560345 -0.16435672
-0.06097883 -0.02171852 -0.013717132 -0.0974832 0.03417883 0.063598186 0.09486951 0.019857453
0.19317617 -0.10089374 -0.042916954 0.09913706 -0.1483111 0.051037945 0.07330493 0.09374918
0.007854623 0.020203961 0.015133592 0.06629966 0.061520807 0.053075332 0.08404659 -0.030751772
-0.0023129545 0.1714768 -0.03184716 0.030271051 0.04042516 0.014850729 0.13843928 -0.13375433
-0.08618272 0.16573185 0.14536694 0.10795363 -0.17759812 -0.022559855 0.041897323 -0.086402185
-0.17054243 -0.10067803 0.014817113 -0.115107976 -0.067801334 -0.04723505 0.104915164 0.21781354
0.033294972 0.037336443 0.1409798 -0.08895921 0.015020904 -0.09203389 -0.11955543 0.016802447
-0.04530874 -0.17680632 0.10814405 -0.16940413 0.0732224 -0.027837845 -0.2412407 -0.08984215
0.13614228 0.022647649 0.073104285 -0.12967786 -0.1506492 0.041188605 -0.01913698 0.0047360267
-0.095798135 0.031606283 0.074183226 -0.12273349 0.013072384 -0.011745886 -0.07208448 -0.0061231977
0.03588141 0.082726754 -0.15010925 -0.051230293 -0.042447917 -0.07453783 -0.06504046 -0.20305343
-0.10612729 -0.20993365 0.03984449 -0.21938607 -0.055013254 -0.113641284 -0.056798864 0.043752216
-0.2309494 -0.08430197 0.112629615 -0.078504525 0.14770097 -0.0033617048 0.11245691 0.07820968
0.11214547 -0.0010476334 -0.013064309 0.07573971 -0.06434886 0.06863727 -0.01889303 -0.1734543
0.09639403 0.031699102 0.024607703 0.0077604754 0.057672895 -0.18877012 -0.014269305 0.023181308
0.040424105 -0.08715368 0.04006571 -0.07830722 -0.0068553193 0.035061058 -0.0066283494 0.087041624
0.10326234 0.047973808 0.055353753 0.10248224 0.017048813 -0.05375456 0.07180759 0.034890927
-0.049713027 0.10356494 0.19835372 -0.037753224 -0.080994174 -0.08649593 0.081521615 -0.05734438
0.08712264 -0.14269911 -0.06637608 0.23660372 0.08789546 -0.05852371 0.09988481 -0.19094475
0.112013705 -0.1885468 0.115172066 -0.03159006 0.18330118 -0.08411827 0.033827905 0.08684124
-0.03144145 -0.0904443 0.08232622 -0.05032363 0.07661318 0.00068988436 0.012297122 -0.050418038
-0.08732891 0.057686165 0.05588389 -0.08980022 -0.101740636 -0.08920539 -0.020373017 -0.005652775
-0.0579984 -0.1764811 0.05699989 -0.03796923 -0.117561474 -0.025301147 -0.053527106 -0.08180039
0.19657294 -0.014515449 0.14209208 0.076255515 -0.056955814 -0.19955382 0.16595033 -0.17826198
0.10243576 -0.084185064 -0.033470858 0.075307384 0.12015434 0.057189662 0.18407047 -0.09190586
0.05972995 0.13253692 0.19915262 -0.042233568 -0.08566399 -0.055233788 -0.0048781666 0.12655428
0.0022689144 0.10539216 -0.065475546 0.15144308 0.13687716 0.24719046 0.2138894 -0.10832598
0.036586706 -0.09200785 -0.04139142 0.00063211884 0.12523071 0.020682197 0.19858967 -0.14917451
-0.07297634 -0.0262741 0.058815196 0.03208243 -0.1829188 0.0668811 -0.030803407 -0.012156795
-0.2185584 0.0026409617 0.041774478 -0.15729092 -0.21357882 -0.034287915 0.018264847 0.06370313

lstm.bias_ih_l1 f4 [256]
00000000: e296 683d e4b8 92bd 063c 85bd 8d9e 84bd
00000010: c7b8 5cbc 2a04 43bd 0cb5 b7bc 2ffa 173e
00000020: 7834 3bbd fd65 46be 4874 d8bd a875 e3bd
00000030: efa1 8b3d 2a8e afbd 2cee dfbd 11cf 97bd
00000040: c5ee 373d 9186 083d 2d8c 6b3d eebc cebd
00000050: ada0 853d 0fd5 b9bd bca2 b13c 2051 1abd
00000060: 6640 d53d 0a44 ed3c 46da a3ba dc62 e63c
00000070: a374 fb3d 767c 8cbc 0b0b e63d 1a61 143e
00000080: ac04 29be 140e 3cbe e587 00be 1a7e 88bd
00000090: 1719 7cbd 24b8 a1bd b9e5 b0bd dc5a a33d
000000a0: 559f a8bc f4fc a5bd 06e7 a83d c795 923d
000000b0: 009b e6bd bccc a4bd d428 c4bd 3ef1 5ebc
000000c0: 4601 c73d 3c99 ddbd 56f3 1ebb a8fc e53c
000000d0: 5a0a a0bd e37a d03b e542 bebb 20ca cabc
000000e0: fc68 9ebd 2d2a 02be e31c 3abd 0e81 ec3c
000000f0: 167e f93d 0eef 8dbd 6fb1 3e3d 430f a53d
00000100: ff03 1ebd 3a69 4dbd a8dd d8bd 5976 15be
00000110: a0e7 51bc 24b2 aebd 66bb d0bd 948a a43d
00000120: 53b6 063e 1d72 773d 597d 2c3d 3d93 ebbb
00000130: 3d0d b0bb 014f 093d d199 38bd e8db 173e
00000140: b361 e1bc 41ca d7bc 968b eb3d 66cc a53d
00000150: 1a2f 6fbd 3ea7 5f3d 53a7 f53a ce80 b5ba
00000160: d510 b93c e2ea 43bc c39f d6bc 3fb4 0dbd
00000170: 769d 9b3d c7d6 6bbd 9d3d ab3d 48ce a4bd
00000180: f5c9 8d3d 9c9d f2bd 7e3e 423d 697a 88bd
00000190: fb2a ffbd 942b 4f3e 731a c33c 4456 013e
000001a0: 6394 58bd 5618 683d 1691 9ebd bf64 13ba
000001b0: 9dd3 623d 2103 05be 3473 c43d 96d6 1abd
000001c0: dbe2 053e 25f7 a43d 7091 c63c 89f6 ec3d
000001d0: 1e75 47bd 01d0 c2bb 6337 dc3c c9fd 1ebe
000001e0: d251 c1bd 6290 f63c 711b 15bd b32a fa3a
000001f0: 022d 833d 01f4 1a3d 8bb8 bcbc 2a84 b93d
00000200: b532 c5bd ebd1 83bd 68ff 61bd 4693 4b3b
00000210: 5240 3abc c1fe b13d 96d6 113e 5667 123d
00000220: 222b bd3d d0f6 7ebd fd18 6c3d 1626 a43d
00000230: bb23 02be cff1 cdbd fcb4 5cbd f5cc 993d
00000240: a9e3 2a3c a753 d2bd 104e f83d 62e6 823d
00000250: 1788 74bd 72b6 1abd 0885 5ebd b42c 133d
00000260: 8cc7 5f3d a16d 253d 2ce0 a43d 14ae 4abc
00000270: d27c f4bd 71b4 e9bc 9a1b 1fbe 5958 e8bd
00000280: c2e7 ac3d edca 273d 5da0 073e 3b63 7f3d
00000290: ad98 073e 56e0 a4bd 4bad 013d b515 7c3d
000002a0: 2224 8dbd 315d dd3d f8e4 1abe cbb2 2b3d
000002b0: 2d19 a2bc d1a3 a63d 6c99 a43d e5d1 973d
000002c0: c838 383d e938 e03d 19a5 c3bd b3fb 753d
000002d0: 24da e7bd e324 08be 9c29 d9bc b835 d5bd
000002e0: 6516 74bd 56c4 f0bd 8743 e83d 7611 a0bd
000002f0: 7646 c33d cb1e a8bd db4a 51bd 5c7c 8e3c
00000300: 84d3 293c 23fe ebbd c433 ad3a b100 1abe
00000310: d327 20bd e73b 813d fac2 db3d e692 453e
00000320: b1b0 87bd f726 583d 5a8c 143d 66e7 d4bc
00000330: 1148 3d3d 4727 a03d 508d 2f3d 4490 7a3c
00000340: bbf6 8f3d a225 ac3d 514a 813c 12bc 87bd
00000350: c8a8 c83d a239 1bbd dabf 383d 97d6 05bd
00000360: 48b4 51bb c224 1d3d aba0 a43d fb92 0e3d
00000370: 3fd6 a1bd acf3 aabc e9ed cdbd 2d2c 42bd
00000380: 4b3b 263d a510 8a3c a677 f73d da40 9c3d
00000390: 9322 a93c 1098 213e 84f8 bc3d b06e 6f3d
000003a0: 82e0 ac3d 2316 a3bd c436 73bd fe68 b63c
000003b0: cf43 0dbc adcd cdbd dc13 e83d 86fc c8bc
000003c0: 9e19 2b3e 3152 9ebc c073 c1bd e976 4abd
000003d0: 286e 763d cd4e 31bd ceb1 c6bd 3821 273d
000003e0: d7d0 773d 1f8f 2cbd 7b03 283e e2fe 073e
000003f0: 8da8 153d 0aa9 51bd dd1b 12be 3db8 48bc
0.056784518 -0.07164171 -0.06505589 -0.06475554 -0.013471789 -0.047611393 -0.022425197 0.14841531
-0.045704335 -0.19374843 -0.10569054 -0.111064255 0.06817996 -0.085720375 -0.109340996 -0.07412542
0.044905443 0.033331458 0.05750673 -0.10094629 0.06524787 -0.09073841 0.021684043 -0.037675023
0.10412674 0.028963108 -0.0012500964 0.028123312 0.12278106 -0.017149191 0.11232575 0.14490166
-0.16505688 -0.18364745 -0.1255184 -0.06664677 -0.061547365 -0.0789645 -0.08637566 0.079763144
-0.020583788 -0.081048876 0.08247189 0.07157474 -0.11260033 -0.080468625 -0.095781 -0.013607321
0.0971704 -0.10820243 -0.0024253926 0.028074577 -0.078144744 0.0063623055 -0.0058063143 -0.024754584
-0.07734868 -0.12711401 -0.045437705 0.028870132 0.12182252 -0.06930362 0.046555933 0.080595516
-0.03857803 -0.05014918 -0.105891526 -0.14595927 -0.012811571 -0.085300714 -0.101919934 0.08034244
0.13155489 0.06041156 0.04211173 -0.007189183 -0.005372672 0.03352261 -0.045068566 0.14829981
-0.027512407 -0.02634156 0.11501233 0.080956265 -0.05839453 0.054602854 0.0018741883 -0.0013847591
0.022591034 -0.011957856 -0.026199227 -0.034595724 0.07598393 -0.057577875 0.08361361 -0.080471575
0.06923286 -0.11846468 0.04742288 -0.06663973 -0.1245937 0.20231467 0.023816323 0.12630564
-0.052875888 0.056663834 -0.07742517 -0.00056226173 0.05537759 -0.12989475 0.09592286 -0.0378023
0.1307482 0.080549516 0.024239272 0.1157046 -0.048695676 -0.005945206 0.02688188 -0.15526499
-0.09439434 0.030098144 -0.036403123 0.0019086212 0.06405069 0.037830357 -0.023037216 0.090584114
-0.09628812 -0.06436523 -0.055175215 0.0031063124 -0.011367874 0.086911686 0.14242014 0.03574308
0.092367426 -0.062247097 0.05764102 0.08015077 -0.12708943 -0.10055887 -0.053883538 0.075097956
0.010430255 -0.10269862 0.12124264 0.06391598 -0.059700098 -0.03777165 -0.054326087 0.035931304
0.054633662 0.040387753 0.0805057 -0.012370605 -0.1193787 -0.028528424 -0.15537873 -0.11344976
0.08442642 0.04096501 0.13244767 0.062350493 0.13241835 -0.08050601 0.031659406 0.06154414
-0.068916574 0.108087905 -0.15126407 0.041918557 -0.019787395 0.08136714 0.080370754 0.07413081
0.044976026 0.10948355 -0.09552974 0.060054492 -0.11320904 -0.13295321 -0.026509099 -0.10410637
-0.05959167 -0.11756198 0.11341005 -0.078158304 0.09534924 -0.08208998 -0.05109678 0.017393284
0.010365371 -0.11523082 0.001321428 -0.15039326 -0.03910048 0.063102536 0.10730548 0.19294319
-0.06625498 0.052771535 0.036266662 -0.025989246 0.046211306 0.078199916 0.042859375 0.015293185
0.07029482 0.084056154 0.015782507 -0.066276684 0.097978175 -0.03789676 0.04510484 -0.032675352
-0.0031998325 0.038365133 0.080384575 0.03480814 -0.07902192 -0.020868145 -0.100551434 -0.04740541
0.04058389 0.01685364 0.12083368 0.07629557 0.02064637 0.15780663 0.09227088 0.05845517
0.08441259 -0.079632066 -0.0593784 0.022266861 -0.008622124 -0.10048995 0.11331913 -0.024534475
0.16708991 -0.019326301 -0.09445906 -0.049429808 0.060163647 -0.04328804 -0.09701882 0.040803164
0.0605019 -0.04212868 0.16407578 0.13280824 0.036537696 -0.0511866 -0.14268441 -0.012250957
