src/util/AI/checkpoints/015.ckpt (torch, 353508 bytes, 14 tensors)

lstm.weight_ih_l0 f4 [256, 12]
000000 a8 d5 48 bd 82 b5 a2 3d 54 78 26 be 5e 2f 08 3d
       -0.049031883 0.07944776 -0.16256839 0.033248298
000010 ae 74 bd 3d d5 45 9a 3d 96 96 6f 3d 64 b9 07 bc
       0.092507705 0.07532851 0.05849322 -0.008283947
000020 08 4f d1 bd 10 5d 28 3d 28 b7 d5 bd 45 4d 41 bd
       -0.10220152 0.041104376 -0.10435325 -0.04719283
000030 41 9b 30 be 16 1f be ba 12 c0 87 bd 2a b3 d3 bd
       -0.17246725 -0.0014505114 -0.066284314 -0.10336907
000040 e3 cf 87 bd d4 ca 6d bd ac 97 00 3e d1 e4 ef 3d
       -0.06631448 -0.05805476 0.12557858 0.11713565
000050 89 86 b8 3d ea 6c 1e 3d 70 3d bd bd 76 b5 f5 3c
       0.090100355 0.038678087 -0.09240234 0.029993754
000060 a8 4a 95 3d 27 5e eb 3d 29 b0 35 3d a7 ca 04 3e
       0.0728963 0.114925675 0.044357453 0.1296793
000070 12 28 29 3d 74 9c 50 3e 68 7d 53 3e 8f f1 d9 bd
       0.04129798 0.20372182 0.20653307 -0.10641777
000080 e8 6d 63 3c 34 da 1c bd 40 79 46 3d 2c bd b3 bd
       0.013881184 -0.038294032 0.048455477 -0.08776316
000090 2e 29 85 3c d6 64 55 3d 33 d0 99 3d f6 52 52 be
       0.016254988 0.052098118 0.07510414 -0.2053946
0000a0 97 4f 48 be 0e ba 1f 3a 56 02 3e 3e ac 40 ef 3b
       -0.19561611 0.0006093093 0.18555579 0.0073014107
0000b0 ab b3 10 be 87 35 5f bd 7d 2e 4a 3e 13 54 85 3c
       -0.14131038 -0.054494407 0.19744296 0.016275441
0000c0 ff a7 fd 3c 4b 9e 9c bd a9 b0 93 bd 9a 70 6c bd
       0.030963896 -0.076473795 -0.072114296 -0.057724573
0000d0 af de 40 3d 4e 99 cf bc be 07 b1 3d 4f dc 4f 3e
       0.047087368 -0.025341656 0.08644055 0.20298885
0000e0 11 49 28 3d ce d8 8d bd 4a 3a b7 bd e5 e5 b7 bd
       0.041085307 -0.06926118 -0.08946665 -0.08979396
0000f0 70 25 e1 3c 68 ec 18 3d 62 fe 24 3d 95 d7 a8 3d
       0.027483672 0.03733483 0.04028166 0.08244244
000100 71 c2 a8 3c 8e 12 b8 bd 84 9d 7b 3e 87 8b 94 3e
       0.02060053 -0.08987914 0.24571806 0.290127
000110 68 3d a5 bc 30 96 31 bd 0d 4c f5 bb 56 08 0c 3d
       -0.020170882 -0.04335612 -0.0074858726 0.034187637
000120 ff 49 f1 3d fe ab 92 3c dc dc 1b be 6e 4e 2f be
       0.11781692 0.017904278 -0.1522097 -0.17119762
000130 70 cd c8 3d 5e ea ef 3b d7 11 86 bd 8b 74 fc 3d
       0.09804809 0.00732164 -0.065463714 0.12326916
000140 62 c4 43 bd 05 f6 95 bd 5c ff 2e 3c 46 d5 a3 b8
       -0.047794707 -0.07322315 0.010681 -7.812171e-05
000150 40 d1 72 bd 92 b9 01 3e da 7c 54 3d 40 d4 47 3d
       -0.059281588 0.12668446 0.05187688 0.0487864
000160 d4 c4 b5 3d b4 a4 af 3d cc a8 bf bb a7 91 03 3e
       0.088754326 0.085763365 -0.0058489796 0.1284853
000170 11 b1 42 bd 68 90 89 bc 81 05 29 bd 20 07 57 bd
       -0.047532145 -0.016792491 -0.041265015 -0.05249703
000180 3f bf ab bc 56 42 c0 bb c1 b8 ef bd e6 1f 19 3c
       -0.020965217 -0.005867283 -0.11705161 0.009345984
000190 45 61 0d bc e0 76 6e 3d 1b 61 54 3e 49 7d 89 3e
       -0.008629148 0.058218837 0.20740168 0.26853397
0001a0 a4 8f 8d 3c cb 54 4c bd 58 3d c5 bd be f2 1e bc
       0.017280407 -0.049885552 -0.09630841 -0.009701429
0001b0 68 f4 96 3d 1a e2 20 bd 43 af d1 3d 48 44 94 3d
       0.073708355 -0.039278127 0.10238507 0.07239586
0001c0 4f 49 33 bd 4f d8 1d 3b 9c b5 91 3d b8 c1 1b be
       -0.043771084 0.0024085229 0.07114717 -0.15210617
0001d0 00 57 4b be b1 f7 2e 3c 06 b1 d4 bc 67 b5 f1 3d
       -0.19857407 0.010679171 -0.025963318 0.11802178
0001e0 16 3b cc 3c 30 fa a4 bd 5a f5 ed bd 11 53 74 bd
       0.024930518 -0.08055532 -0.11619063 -0.05964953
0001f0 61 3d 29 3e 14 2f 56 3d 62 60 ec 3d e7 97 ea 3d
       0.1652732 0.05229099 0.11541821 0.11454754
000200 ab 50 02 3e 0e 3b e5 3b b2 2c c2 3d 46 bb 5f bd
       0.12726085 0.0069955653 0.09481181 -0.054621957
000210 7d 7a a4 3d 34 1e 56 3d b3 3d 46 3d 71 45 b9 bd
       0.08031175 0.052274898 0.048398685 -0.09046448
000220 a6 85 82 3d 67 2a 9d 3c a8 69 c7 bd e4 31 37 be
       0.06373148 0.019185258 -0.09736949 -0.17890126
000230 65 31 67 be d1 26 33 3d 40 24 2c 3e e1 5e d4 3c
       -0.22577436 0.04373819 0.16810703 0.025924148
000240 c2 ca 0c 3d fc d4 82 3c 4a 83 0c be dc ca de bd
       0.034373052 0.0159707 -0.13721958 -0.10878536
000250 d2 c0 27 3d ed 24 15 3e 4d 62 a0 bd 7b eb 8b be
       0.040955372 0.14564867 -0.078312494 -0.27328095
000260 26 c1 a9 bd 90 73 02 3d cd ab 32 bd e7 96 c8 bd
       -0.08288793 0.03184849 -0.043620873 -0.09794407
000270 87 31 9d 3c 96 17 6c 3d 8c 73 4e 3d 5a 8e 9d bd
       0.019188656 0.05763968 0.050403163 -0.07693167
000280 39 8c 0e be 9a 3f ce bd 85 ca 19 3e 1e 1b ef bd
       -0.13920678 -0.10070725 0.15018661 -0.11675094
000290 c1 5a 22 be 78 c4 8f bd 6c d9 b5 3b 0e 13 ae 3c
       -0.15854932 -0.07019895 0.0055496003 0.02124932
0002a0 3a dd 86 bd 75 59 31 3d 2d f5 ba bd d9 51 c4 3d
       -0.06585164 0.043298203 -0.09128795 0.09585924
0002b0 91 10 7a bd 10 85 96 bd e1 be cf 3d 25 88 28 3d
       -0.061050955 -0.073495984 0.10143829 0.041145463
0002c0 e6 70 cb bd 98 c5 43 3c 05 1e 80 bc a6 41 32 3d
       -0.09933643 0.0119489655 -0.015639314 0.04351964
0002d0 5b 6d 56 bd d5 34 67 bd 8a 01 18 3e c1 2b 53 3c
       -0.052350383 -0.05644687 0.14844337 0.01288885
0002e0 39 29 0d 3e 4e 22 a4 3b 3c 26 f0 bd 8e 74 ee bc
       0.13785256 0.0050089722 -0.11726043 -0.029108312
0002f0 0f 7d 11 bd 32 d6 b7 bd 84 9f 3c bd 93 49 01 3e
       -0.035519656 -0.089764014 -0.046050563 0.12625723
000300 5a 19 8a bd 55 b9 b4 3c f1 b0 7f 3d f8 65 2d 3e
       -0.06743117 0.02206103 0.062424604 0.16933429
000310 70 64 a1 3d 76 86 74 3d 4d a1 79 bd 66 e2 2a be
       0.07880485 0.059698544 -0.060944844 -0.16687927
000320 b3 d8 27 bd bc 2d bc bc 34 b4 c0 bd a3 74 0a bd
       -0.040978145 -0.022971027 -0.09409371 -0.03380264
000330 5a e5 93 bd fa da 18 bd 05 cc 2f bd 57 9d 58 be
       -0.0722148 -0.037318207 -0.042919178 -0.2115377
000340 50 70 bf 3c 7f 10 44 3e cd f8 e8 3c 5d 56 e9 bd
       0.023368984 0.19146918 0.02843895 -0.113934256
000350 d8 5b a6 3d b5 66 24 3b af f4 04 3e e8 59 fe bd
       0.081229866 0.0025085632 0.12983964 -0.12419492
000360 cb 47 09 be f6 c1 1f bc ad 8a 67 bd 10 c8 bd 3d
       -0.13406293 -0.009750834 -0.056528736 0.092666745
000370 6e c0 54 3d 6b 58 17 be cf 5e 6d be c3 0b c7 3d
       0.051941328 -0.14779823 -0.23180698 0.0971904
000380 98 35 42 3d 68 95 7a 3d a1 ab 46 be ed 8c c3 bd
       0.047414392 0.06117764 -0.19401409 -0.09548364
000390 3e 66 5f be 32 22 42 3c ab 90 d7 bd f4 a8 86 3d
       -0.21816346 0.011848973 -0.1052564 0.06575194
0003a0 8a 00 f7 3d 0a be fd 3c ca 5d 91 bd 16 15 0e bd
       0.1206065 0.030974407 -0.07097967 -0.034688078
0003b0 c1 3e b9 3c 23 bb ae 3d 5d e6 8c bd 7d 97 98 3c
       0.022612931 0.08531787 -0.06879876 0.018626923
0003c0 a3 9c d3 bd e4 70 2c 3e 85 2a d4 bd 20 7c cc b9
       -0.103326105 0.1683994 -0.103596725 -0.00039002392
0003d0 d4 ed e4 bc f7 01 b3 bd 85 e4 59 bd 9b 4d 01 3e
       -0.027945437 -0.08740609 -0.05319645 0.1262726
0003e0 75 f7 90 bd 6f c9 b4 bd a0 f1 62 3d db 48 da 3c
       -0.07078449 -0.08827483 0.055406213 0.026646068
0003f0 7d 23 71 bb ca 9e 8b 3d 62 70 e7 bd 74 21 4f 3d
       -0.0036794834 0.06817396 -0.11300732 0.050569013

lstm.weight_hh_l0 f4 [256, 64]
000000 7b e2 40 3d 85 1b 82 bd 78 2d 22 3e d0 08 bb bc
       0.04709099 -0.06352905 0.15837657 -0.02283135
000010 69 ab 89 3d 4d 08 45 3e 9f 95 b7 bd 4a 0e bb bc
       0.06722147 0.19241448 -0.08964085 -0.022833962
000020 8b cf fa 3d 87 d1 3c 3e e4 ee a6 3d 00 d4 e3 3c
       0.12246617 0.18439303 0.081510335 0.02781105
000030 01 74 49 3e 2a 16 c4 bd 21 3d f5 3d 20 a9 5a 3d
       0.19673158 -0.0957454 0.1197455 0.053383946
000040 e5 55 29 bd 8e fd 82 3d 5c b4 1c 3b 06 cc 06 3d
       -0.04134168 0.06396018 0.0023911214 0.032909416
000050 5f 19 e9 bc d7 3f c1 bd 30 e8 09 3c 57 16 89 bc
       -0.02845448 -0.094360046 0.008417174 -0.016734285
000060 20 e6 2e 3e 26 6b 63 bd 1e 63 12 be 29 89 2d bb
       0.17079973 -0.055522107 -0.14295623 -0.002647946
000070 d9 fa ad 3d f7 bd 8e 3d b9 94 f7 bd ef 7f 8e bd
       0.08495111 0.06969827 -0.120889135 -0.06957995
000080 ee a7 83 bd 4d b0 8b 3b c9 8f 92 3d 74 02 ee bd
       -0.064285144 0.00426296 0.07156331 -0.11621562
000090 c9 f2 57 ba 5e 16 0d 3d 36 af 91 bd ff 00 93 3d
       -0.0008237777 0.03444516 -0.07113497 0.07177924
0000a0 18 84 5e bd 76 59 4c bd e3 7a a3 3c 10 ea f3 bd
       -0.054325193 -0.049890004 0.019956058 -0.11909878
0000b0 a1 7e 88 bd bd 4f 38 be 5b 6b da bd 57 6d 24 be
       -0.066647775 -0.17999168 -0.10665008 -0.16057335
0000c0 e2 8c ac 3d 60 95 9b 3d 2d 67 be 3d 5f 70 80 3d
       0.08425309 0.075968504 0.09297023 0.06271433
0000d0 5d 97 4d be 22 3b 41 bb 77 8a 5d 3e 75 16 b8 bd
       -0.20077272 -0.0029484709 0.21634851 -0.08988658
0000e0 a8 2e 12 3d 8e 32 ee 3d b2 1a 0c be e6 c1 86 bd
       0.035689026 0.11630736 -0.13682058 -0.06579952
0000f0 1c 98 77 bd 9b 3a 1f 3e d6 2b bf 3c 37 1e e0 3d
       -0.060447797 0.155497 0.023336332 0.10943263
000100 40 dd 5c 3d 2d 91 b0 bd 9c 60 84 3e e1 92 be 3d
       0.053921938 -0.0862144 0.25854957 0.09305359
000110 11 04 86 3d f1 56 c6 bd b5 b6 3c bd 73 15 75 bd
       0.06543744 -0.096845515 -0.04607268 -0.05983491
000120 16 b0 84 bd be 37 25 be 64 6c e4 3d 11 51 ad 3c
       -0.06478898 -0.16134545 0.11153486 0.02115682
000130 a4 53 27 3c 10 25 bd bd 85 50 35 be db 99 a2 3d
       0.010212813 -0.09235585 -0.17706497 0.07939502
000140 79 f2 01 3e 9f 20 4a be 33 92 48 3e 10 31 a0 3d
       0.12690152 -0.19739006 0.1958702 0.07821858
000150 07 f3 51 3e 85 c1 fb bd 4c bb 47 be 4f cc 33 3d
       0.20502864 -0.1229277 -0.19505042 0.043896016
000160 72 c2 91 3d 4c 06 1b be e8 b2 68 3d 6f 3c 26 3e
       0.071171656 -0.15139121 0.056811243 0.16233991
000170 77 47 8d bd 64 5d 74 be d2 ab 1f bd a3 28 28 3e
       -0.068983965 -0.2386375 -0.03898222 0.16421752
000180 1b 60 13 be 71 1b ba bd 19 d6 c9 3c 1d 74 7b 3d
       -0.1439213 -0.09087265 0.024638223 0.06139003
000190 e2 67 6d 3d bb 54 8c bd cc 12 f7 bd 8d e8 bd 3d
       0.0579604 -0.068520986 -0.12064132 0.09272871
0001a0 60 73 db 3c 44 40 30 be 30 17 71 bd 6e ee 33 be
       0.026788414 -0.17212015 -0.058860004 -0.17571422
0001b0 0a b5 af bd fd fa 11 be 08 79 12 be 99 67 3f bd
       -0.08579452 -0.142559 -0.14303982 -0.046729658
0001c0 e3 6a 93 bc e4 a2 3b bc 36 2d 8b 3d b7 5a a3 bb
       -0.017995303 -0.01145241 0.06795733 -0.0049851793
0001d0 76 38 34 be 96 e2 bf 3d dd 8a 04 bd a9 47 6f 3e
       -0.17599663 0.0936939 -0.032358993 0.2336718
0001e0 97 7b 90 bd 1f 94 e5 3d e5 bd 30 be 26 db ca 3d
       -0.07054823 0.112098925 -0.17259939 0.099050805
0001f0 08 83 01 3d 08 e0 8d bd bd c8 97 3d 0d 2c e0 bd
       0.0316191 -0.06927496 0.07411335 -0.10945902
000200 8c 6b 0d 3e b9 de 57 be 0e 92 8f bd 52 b3 89 3d
       0.13810557 -0.21081056 -0.070102796 0.06723656
000210 39 c9 53 bd 3a 21 5d 3d 55 82 c4 bc d1 b3 c6 3d
       -0.051705573 0.053986765 -0.023987928 0.09702266
000220 18 4a 95 3d 0c 1e cd bd b4 0d 26 3d dd d8 8d 3d
       0.07289523 -0.100154966 0.040540412 0.06926129
000230 e0 7e 2a 3e ee 7d 08 bd a9 89 7b bd 71 11 b3 3d
       0.16649961 -0.03332322 -0.06141058 0.08743561
000240 a8 fc 0b be 8c 89 04 bd aa c1 54 3e 27 92 06 3c
       -0.136706 -0.032357737 0.20777002 0.008213556
000250 e5 31 c8 bd e7 b9 29 3d 96 61 90 bb 54 4d 58 3d
       -0.097751416 0.041437056 -0.0044061644 0.05280812
000260 3f 0b fe bc 9d 23 15 be 97 33 dc bd 05 d1 ac bd
       -0.031011222 -0.14564367 -0.107520275 -0.08438305
000270 1f 35 41 bc 78 64 50 3d cb 6c 31 be db a9 03 be
       -0.01179245 0.050877064 -0.17326657 -0.12857763
000280 b1 3a 7f 3c b5 79 d4 3c 65 fc f7 3d 44 ae d9 bc
       0.015577958 0.02593694 0.12108687 -0.026572354
000290 bb b0 4f 3d a7 b8 d4 3d c6 fb d8 bc a5 26 19 3e
       0.050705653 0.10386782 -0.026487242 0.14956148
0002a0 e7 1d 34 3e 79 8b 41 3d cd de 3c 3d 2d be 2c bc
       0.17589532 0.047252152 0.046110917 -0.010543388
0002b0 e9 89 bf 3c 22 7e f2 3d 0b 64 19 be 21 87 2d 3e
       0.02338119 0.11840464 -0.1497957 0.16946079
0002c0 d9 a6 8c bd f6 a8 e1 3b 9c f4 10 3c 09 2e 24 be
       -0.06867761 0.006886597 0.008847382 -0.16033186
0002d0 02 6d 04 3c 5e 9c 47 be 8b 44 33 bc 36 02 19 be
       0.00808263 -0.19493243 -0.010941635 -0.1494225
0002e0 67 c4 09 be 83 ee ce 3c ed 72 c9 3d 62 d4 fa 3c
       -0.13453828 0.025260216 0.098363735 0.03061885
0002f0 3a 3b bc bd db eb 2b 3c ee 72 df bd 39 88 67 3e
       -0.09190984 0.010493244 -0.10910593 0.22610559
000300 05 ce 83 3e 6e fa 8d be 53 d9 01 3e 73 64 80 be
       0.25743118 -0.27730125 0.12680559 -0.25076637
000310 85 22 a7 3b 91 71 6f be 16 bd 09 be 89 00 9c bd
       0.0051005506 -0.23383166 -0.13451037 -0.076172896
000320 82 44 22 3e 86 54 38 be d9 14 91 3d 87 bb 74 bc
       0.15846446 -0.18000993 0.070840545 -0.014937288
000330 3f 2b 12 bc 37 4f d0 bc fe d0 20 bb d6 e7 1d 3e
       -0.0089214435 -0.025428398 -0.0024538632 0.1542047
000340 6b 5c 6e 3d 06 87 f9 bb b8 20 38 be 58 fc 48 3e
       0.058193605 -0.007614973 -0.17981231 0.19627512
000350 42 40 c3 bd 60 61 21 be 55 bf 33 be ab 08 e5 3d
       -0.095337406 -0.15759802 -0.17553456 0.11183294
000360 51 0c 94 3d 87 ab ee bd af 93 38 be d0 70 5b 3e
       0.07228912 -0.1165381 -0.18025087 0.21429753
000370 8d 4b 1c 3e 59 61 c5 bd 70 95 2a 3e 98 66 bd bb
       0.15263195 -0.09637708 0.16658568 -0.0057800524
000380 fb d9 2f 3e 3c 64 e1 3a b1 98 01 3c 21 26 76 3d
       0.17172997 0.001719601 0.00790994 0.060094956
000390 32 f3 cb bd 1e 10 dc bd c8 d1 00 bd 62 39 c9 3d
       -0.09958495 -0.107452616 -0.031450063 0.09825398
0003a0 5b 00 4b 3e 49 8e 04 3e 92 26 81 3c 04 65 9a be
       0.19824354 0.12944902 0.015765462 -0.30155194
0003b0 8a 08 46 3c 90 56 06 3e 96 a1 24 3d a5 d1 97 3e
       0.012086997 0.13118958 0.040193163 0.29652134
0003c0 e2 7f 96 3d 45 51 3d be f6 bc d1 bd 15 b6 b3 3d
       0.073486105 -0.18488033 -0.102411196 0.08774964
0003d0 dd bb 42 bd 7c ba dc 3d 5f fe a3 3d 59 3e 1a 3d
       -0.04754244 0.107777566 0.08007502 0.037657116
0003e0 d5 06 ad 3d 62 74 c6 3c 9f b6 a0 be a0 16 3a be
       0.08448569 0.024225418 -0.3138933 -0.18172693
0003f0 0f b1 af 3d 3e 78 88 be eb 10 41 3e be b9 33 bb
       0.08578693 -0.26654238 0.1885411 -0.0027423943

lstm.bias_ih_l0 f4 [256]
000000 12 32 1d bd 1b da c2 bd 58 6d a3 bd e4 41 f7 bd
       -0.03837783 -0.095142566 -0.0797984 -0.120731145
000010 fa 8f be bd 27 56 0d 3d ac 34 02 3d eb f0 bf 3d
       -0.09304805 0.03450599 0.031788513 0.09372123
000020 9f bc 12 3e 35 70 c3 bd 23 c2 af bc b0 0f f8 b9
       0.14329766 -0.09542886 -0.021454876 -0.00047313934
000030 7d b0 5a bd 53 4c 81 bd 8c 97 ad 3d b1 25 06 bd
       -0.05339097 -0.06313386 0.08476171 -0.03275079
000040 dd 64 07 be 3b 53 91 3c 52 a0 2d bd cd e4 4a 3c
       -0.1322207 0.017739883 -0.04238922 0.012383652
000050 3e c8 11 bd ee a6 cb 3d f8 ae e5 bc 01 33 2e bd
       -0.035591356 0.09943949 -0.028037533 -0.04252911
000060 4d fa 79 3d de ad 33 3d 02 c8 53 be d3 1b 33 3d
       0.06102972 0.043866985 -0.20681766 0.043727707
000070 56 d6 97 3d ca 91 11 bd d2 f8 8a 3d 72 0b a0 3d
       0.07413928 -0.035539426 0.0678574 0.07814683
000080 7f 9c 6b 3d 9d fe 65 bd 06 69 f2 bc 13 dc e6 3d
       0.057522293 -0.05615102 -0.029591095 0.112724446
000090 c2 cf 42 3d 60 82 bc bd da 30 86 bd 73 26 2d be
       0.047561415 -0.092045546 -0.065522864 -0.16909198
0000a0 bc 79 19 3a 4b 9c d8 bc 5a c8 d0 3d 6c 64 93 3d
       0.00058546267 -0.026441714 0.10194464 0.07196888
0000b0 97 a9 d2 3c 82 54 92 bd e1 72 ac 3d 5f 68 48 3e
       0.025715632 -0.07145025 0.08420349 0.19571064
0000c0 47 c0 24 3d 73 cc c5 bd 38 77 43 bd ee 3b 8f bd
       0.040222432 -0.09658136 -0.047721118 -0.069938526
0000d0 f4 fa 50 bc 71 7d 8f bd 41 1c 7d 3d 92 4a bd bd
       -0.012755144 -0.07006348 0.061794523 -0.09242739
0000e0 43 b0 82 be f6 6e 42 be e6 ed d9 3b 0e be 98 bd
       -0.25525102 -0.1898764 0.006650674 -0.07458125
0000f0 ce 26 df bc 99 ce 39 bc ec f9 28 3e db 86 d2 3d
       -0.027240183 -0.011340761 0.16501588 0.10279628
000100 02 75 82 bd b3 d0 68 bd 57 e8 41 bd 7f 14 35 be
       -0.06369974 -0.056839656 -0.047340717 -0.176836
000110 53 38 e1 3d 9c 65 8b bd 0f 81 a4 bc 2b 4b a1 bd
       0.10997071 -0.0680649 -0.020081071 -0.07875665
000120 c7 ff c4 bd 72 5a d8 bb 19 d3 49 bc 5e 65 2e 3d
       -0.09619098 -0.006602579 -0.012318396 0.04257714
000130 b3 bc fc bd 76 ad 0c be 9a 3e de bc 02 cf 6a 3d
       -0.12340679 -0.13738045 -0.02712946 0.057326324
000140 a4 8c 77 bd 6d 9a a7 bd bc 6d ec 3c fd 54 ef 3d
       -0.06043686 -0.08183751 0.02886092 0.11686132
000150 9e 88 d4 3c 98 5c 91 3d 47 77 fd 3d e5 5d ba 3d
       0.02594405 0.07097739 0.12376266 0.0909994
000160 03 37 40 3d 4e 04 80 3d bf 4b 13 bd c9 dd 7c 3d
       0.046927463 0.06250821 -0.03596091 0.06173495
000170 0d 30 32 3d 1a 27 38 3e 56 cf 4f bd f6 6f 3c 3e
       0.043502856 0.17983666 -0.05073484 0.18402085
000180 d3 44 04 3e 2a e0 fb 3c fe 17 b6 ba 00 72 04 3e
       0.1291688 0.030746538 -0.0013892648 0.12934113
000190 eb d4 c3 3d ef 08 5c be 90 2e 76 3d fd 16 4a be
       0.09562095 -0.21487783 0.060103 -0.19735332
0001a0 a2 3d 86 3b de 74 0a 3e 33 6a bd 3d 7c 39 8c 3d
       0.0040967027 0.13521144 0.092487715 0.06846902
0001b0 06 fb 1f 3d 1e 0b 6b bd 12 0d a0 3d 13 bb 6e 3c
       0.039057754 -0.05738365 0.07814993 0.014570969
0001c0 16 5a 3f 3b 3c f9 0e 3e f0 d8 b6 3d 84 2d a6 bd
       0.0029197983 0.13962263 0.08928096 -0.0811415
0001d0 6e a2 0b 3e 93 0d 84 3c 09 d0 e5 bd f8 3a 21 3e
       0.13636181 0.016119754 -0.1122132 0.15745151
0001e0 e3 75 e8 bc d7 6f ec bc 5e a7 3e bc 62 2c 15 be
       -0.028376525 -0.028861923 -0.011636583 -0.14567712
0001f0 fe f6 04 be d1 44 96 bd ef c1 e2 3d 72 23 c6 bc
       -0.12984845 -0.073373444 0.11072146 -0.024186824
000200 16 dd ce bb f3 ce bc bd 8b f1 79 3d 7e 2a 57 3d
       -0.0063129766 -0.0921916 0.06102137 0.052530758
000210 95 ed 18 bd 3c 14 ba 3d bd 90 81 bb d9 0e f0 3a
       -0.03733595 0.09085891 -0.0039540217 0.0018314972
000220 6c ab 2e be ab 88 36 bd bb bd f1 bd 40 68 ae bd
       -0.1705758 -0.04456393 -0.11803766 -0.08515978
000230 2f ef 28 bc 48 31 dd bb 59 3b 49 3c 6b 27 2d 3d
       -0.010310932 -0.0067502595 0.012282216 0.04227392
000240 dc 8a 31 3d e6 06 d0 3d 27 9f 7a bd b5 b6 45 3e
       0.043345317 0.10157566 -0.061186936 0.19307978
000250 81 86 b3 bd 68 50 92 3d e0 50 06 3e 37 7b 29 3e
       -0.08765889 0.071442425 0.13116789 0.16550909
000260 a8 84 1c 3c 77 dc 6e 3d 07 be 3a 3e 8c 4e 71 3d
       0.009553112 0.05831572 0.18236552 0.0589128
000270 57 fc bf bc 25 43 d2 bd 70 f2 96 3b d4 23 1a be
       -0.023435755 -0.10266713 0.0046065375 -0.1505273
000280 e3 c2 29 3e d5 5c 87 3c 7b 92 31 bd 59 f9 c3 bc
       0.1657825 0.016523758 -0.043352585 -0.02392261
000290 58 86 c6 3d 3e cb d7 bd 5f 70 9c bd 48 c3 4b bd
       0.09693593 -0.10536812 -0.076386206 -0.04974678
0002a0 4e fc e0 3d fd fc 33 3d 27 f0 8c be ca 31 2c bd
       0.10985623 0.04394244 -0.27526972 -0.04203967
0002b0 4d f2 7d 3c 17 3a be bd e8 97 e4 3d 99 c9 8f bd
       0.015499664 -0.092884235 0.11161786 -0.070208736
0002c0 d7 43 00 3d 9f ad 2c 3e cb d9 69 3d 77 df 21 3e
       0.031314697 0.16863106 0.05709247 0.15807901
0002d0 11 a6 be 3c 05 42 ad 3d 47 67 28 3d 21 af bd bd
       0.023272546 0.08459858 0.041114118 -0.09261919
0002e0 b7 77 61 bd 52 d2 00 3e 3b a1 25 3e 7a e0 71 3d
       -0.05504581 0.12580231 0.16174786 0.05905197
0002f0 ce a9 22 bd 98 f2 01 3e 7e 07 bd 3d 0f b7 a3 bd
       -0.03971272 0.12690198 0.09229945 -0.079939
000300 a7 ce 59 3d 92 38 0b bc e7 b4 df bb 88 e8 b8 3d
       0.053175595 -0.008497374 -0.006826985 0.09028727
000310 c1 68 8c 3c af f5 76 bd e5 5f 27 be 2e c7 b8 3d
       0.017139794 -0.060292896 -0.16345175 0.090223655
000320 08 0e ca bd c1 17 0d bd b6 78 67 bd bd 1f a6 3c
       -0.098659575 -0.03444648 -0.056511603 0.020278806
000330 5a 4a d4 3a ae c0 f7 ba 19 08 2f be ac 19 1d 3c
       0.0016196475 -0.0018902028 -0.17092933 0.00958864
000340 ee 5b e1 bd fc 48 39 bb ca 7a 11 be e1 28 94 3d
       -0.11003862 -0.0028272262 -0.14206997 0.072343595
000350 d0 4b 06 be ed 4a 9c bd 9f 4b d6 3b e6 2c a6 bb
       -0.13114858 -0.076314785 0.0065397765 -0.0050712703
000360 8a 53 0e be eb 6b a1 3d 43 ac f8 3d f0 42 dc 3c
       -0.13899055 0.07881912 0.12142231 0.026887387
000370 07 df b6 3d b9 b8 d9 bc 2d 25 5f 3c 8e cc c8 bd
       0.08929258 -0.02657734 0.013619703 -0.09804641
000380 8f c3 88 bc 6a e0 f1 bc 69 9e 17 bd 38 66 e5 bd
       -0.016694812 -0.029525954 -0.037016306 -0.11201137
000390 4e 66 10 3d 84 31 dd bd 39 4f 3f 3d fb 2d 32 bd
       0.035253815 -0.1080046 0.046706412 -0.04350088
0003a0 27 a8 aa bb a9 86 4e 3e 5a 68 c4 3d 5f 86 e6 3d
       -0.0052080336 0.20168556 0.09590216 0.11256098
0003b0 67 9b 97 3d 17 6f 40 bd b2 a2 ae bd fb 1c bf bc
       0.074026875 -0.046980944 -0.085271254 -0.023329249
0003c0 fd b6 8f bd d5 cf c6 bd 86 9d 03 be 2c 03 03 3e
       -0.07017324 -0.097076096 -0.12853059 0.12794179
0003d0 ea cf e9 3d 68 30 ed 3b d1 9e 94 bd 7f d7 9b bd
       0.114166096 0.0072384365 -0.07256854 -0.07609462
0003e0 bb 7a b5 bd 09 57 0f 3d 2e e8 29 be 8b 4d e3 3d
       -0.088612996 0.034995113 -0.16592476 0.110987745
0003f0 13 02 b9 3d 73 0b a2 bd cb d8 ea 3c d7 5c e5 bd
       0.09033599 -0.0791234 0.028667828 -0.111993484

lstm.bias_hh_l0 f4 [256]
000000 e5 91 0e be 53 cb 3c bd 55 34 49 bd 14 bd 82 be
       -0.13922842 -0.046092343 -0.049122173 -0.2553488
000010 a0 eb 0d be a7 57 c6 bd 63 64 9b bc a4 af 03 3e
       -0.13859415 -0.09684687 -0.018968767 0.1285997
000020 6b 80 07 3e 3f 3f a2 3d 0b 8b bf 3d ef 3f ea bb
       0.13232581 0.079222195 0.09352692 -0.0071487348
000030 de e2 9e 3d 96 ce 3b bc d0 12 d2 3d e0 bb 88 3d
       0.07758115 -0.011462828 0.102574944 0.06676459
000040 f1 b4 f9 3c a9 8d e0 bd 4f 89 11 be 5e 67 da 3d
       0.030481787 -0.109645195 -0.14212535 0.10664247
000050 eb 3f 28 3c 8c a7 16 3e a3 17 8c 3d 77 1a 75 bd
       0.0102691455 0.14712352 0.06840446 -0.059839692
000060 81 19 d3 bd 7f 27 6d bb 31 84 1c bd f1 c9 ad bd
       -0.10307599 -0.0036186872 -0.038212005 -0.08485783
000070 38 c0 86 bd fc 02 50 3c 0d b7 f0 3c 32 68 42 bd
       -0.065796316 0.012696024 0.02938416 -0.04746265
000080 c4 89 20 be 71 37 9c bd 26 f9 c4 bd e9 66 49 3d
       -0.15677553 -0.07627762 -0.09617834 0.04917041
000090 72 5f 63 bd 46 c2 00 bd 57 f7 28 3d 3e 9f 7f 3b
       -0.055510946 -0.031435274 0.041251507 0.0039004828
0000a0 93 6d d9 bd 14 2c c6 3d f6 02 ce 3d a9 f2 0f be
       -0.10616603 0.09676376 0.100591585 -0.14057411
0000b0 05 66 b2 3d 1c 3d 93 bd c5 07 eb 3c 97 99 a9 3d
       0.08710865 -0.0718939 0.028690228 0.08281248
0000c0 c4 c6 30 3e 6e 2a e7 bc 8c 67 4d be 90 bc 07 be
       0.17263323 -0.028218474 -0.20059031 -0.13255525
0000d0 22 4e 64 3c d1 d3 98 3d 1c ba 43 3d 78 d6 53 bd
       0.013934644 0.07462276 0.04778491 -0.051718205
0000e0 b6 7b 95 bd 3e 2e 32 be be 74 30 3d c3 e0 85 3d
       -0.072989866 -0.17400452 0.043080084 0.065370105
0000f0 0b f5 42 3c a1 09 33 3e 50 1b f8 bc 3a 4a ae 3d
       0.011899243 0.17484142 -0.030286461 0.08510251
000100 68 07 11 3b 2f dd 41 3d f5 3a 24 be 63 48 fb bc
       0.0022129659 0.047330078 -0.16038115 -0.030674165
000110 08 3a 0f bc e4 54 ed bd a4 65 90 bd 83 f0 a1 bd
       -0.008741863 -0.11588457 -0.070506364 -0.07907202
000120 45 c2 32 be 09 53 9c 3d 69 a8 93 bd 33 87 ac bd
       -0.1745692 0.07633025 -0.07209856 -0.08424225
000130 de e8 07 3d fe dc be bc 54 e2 80 bd 95 8c 2b 3d
       0.033181064 -0.023298737 -0.06293169 0.041882116
000140 be 5f 3c bc be bf 86 3d bd 2a 76 3d 98 f9 1e 3d
       -0.011497436 0.06579541 0.060099352 0.03881225
000150 d4 d7 fd bd b0 d8 36 bd 3f 02 0b 3e dd 72 4b bd
       -0.123946816 -0.044640243 0.13575076 -0.04967009
000160 c6 92 c6 3d b5 81 12 3e 1b da f5 bd a2 df f2 bb
       0.096959636 0.14307292 -0.12004491 -0.007411913
000170 f2 40 9b 3d 6b 56 18 3e d9 f7 8f 3d ba 36 ca 3d
       0.07580747 0.14876716 0.07029695 0.098737195
000180 7b cf ad bd 81 74 4f b9 df 68 da 3d 6f 89 fd bc
       -0.084868394 -0.0001978446 0.10664534 -0.030949323
000190 e2 ac 19 3e 06 7b fd bd 77 98 a2 3d 49 f4 8f bd
       0.15007356 -0.123769805 0.079392366 -0.070290156
0001a0 74 ea 45 3c ff bb 8d bd 87 6c 8e bc 98 a2 f8 3d
       0.012079824 -0.06920623 -0.017385734 0.12140387
0001b0 f4 0e 8b 3d 13 27 8c 3d 90 1e 47 bc cf ca 0f 3e
       0.067899615 0.0684339 -0.012153283 0.14042209
0001c0 0f 08 5a 3d bf 46 5f 3e dc 75 be 3d a9 56 5b 3c
       0.05323034 0.21804331 0.09299824 0.013387361
0001d0 aa e6 d4 3d f7 b4 97 3b 13 a1 e6 bc cd a4 df 3d
       0.10395558 0.004629727 -0.028152978 0.10920105
0001e0 e8 94 53 bd e4 64 d7 bc c8 a5 ea 3c 74 2d ce bc
       -0.05165568 -0.026293226 0.028643504 -0.025168158
0001f0 c0 44 b6 3c 1a ee c8 3c bb 56 11 3d da d9 8a bd
       0.02224958 0.024527598 0.035483103 -0.06779833
000200 fe 06 b5 3d c9 8e b8 3d 11 aa 3a be a6 20 3d bc
       0.08839224 0.09011609 -0.18228938 -0.0115434285
000210 f1 d9 15 3e 22 d9 92 bd 16 58 10 3b 62 28 13 3e
       0.1463392 -0.07170321 0.002202516 0.14370874
000220 f2 55 36 be f1 b1 6d bd c4 82 82 3d e5 6d 62 3d
       -0.17806223 -0.058031026 0.06372598 0.055280585
000230 8f bf 51 be 71 26 0e bd af 29 d6 bb c6 7d a5 bd
       -0.2048323 -0.03470463 -0.006535731 -0.0808063
000240 7a d3 a9 bc 6a b1 40 3e fe d6 c2 3c 21 09 2e 39
       -0.020730723 0.18817678 0.023784157 0.00016597334
000250 ec 6f 2e bc 7a e8 3d bd 1e 2c 5a 3e ab 2c fc 3d
       -0.010646801 -0.046364285 0.21305892 0.12313207
000260 d5 26 88 3d 8d d4 f6 3d 94 d4 a0 3c 17 59 a4 bd
       0.066480316 0.120522596 0.019632615 -0.08024805
000270 08 a6 9d bd 99 cc bd bc a7 9b 47 3b 98 6f c4 bc
       -0.076976836 -0.023168849 0.0030457766 -0.023978993
000280 d2 d5 bb 3d 51 e1 08 3e 41 bc d9 bd 42 cc 54 3d
       0.09171642 0.13367201 -0.1063161 0.051952608
000290 d6 5c 07 3d 11 2a 9c bc e8 45 22 be 4b d2 83 3d
       0.03304752 -0.019063028 -0.1584698 0.064365946
0002a0 f7 2c 3b bd c5 51 0e 3d bf 93 10 be d0 7d 0f 3e
       -0.04569718 0.03474595 -0.1411886 0.14012837
0002b0 bd d9 98 bd 16 2d 0d 3e c7 b9 d2 3d 09 c9 0c bd
       -0.07463405 0.1378673 0.102893405 -0.03437141
0002c0 56 13 b0 3d 0e 8e 36 3d 3a 55 a5 3d 1e 7b 5a 3d
       0.08597438 0.044569068 0.08072896 0.05334007
0002d0 1e d0 33 3e 87 7b 05 bd ed 40 fb 3c 33 d3 08 be
       0.17559859 -0.032588508 0.030670607 -0.13361816
0002e0 4e ef e7 bd 5e ad 3e 3e 91 ad 14 bd 61 b4 0d 3d
       -0.113249406 0.18620822 -0.03629834 0.03459585
0002f0 8f cd e5 bd 6d 5c 6e 3d 75 e3 02 3e 67 9b e2 bd
       -0.11220848 0.058193613 0.1278208 -0.11064797
000300 87 94 02 3e a5 df d3 3d 42 49 6c bd e3 27 51 bd
       0.12751971 0.10345391 -0.05768705 -0.05106343
000310 69 09 28 3e a8 70 a8 bd 99 82 0a 3c 4c 40 a0 bd
       0.1640984 -0.082246125 0.0084539885 -0.07824764
000320 10 bd 0b be 37 41 ba 3d 51 52 04 3e 0a 35 1f bc
       -0.1364634 0.0909447 0.12922026 -0.009717235
000330 9f 66 16 3b e3 d8 95 3d 78 cc 33 bd fe b5 29 3c
       0.002294935 0.073167585 -0.04389617 0.010358332
000340 88 4b 85 3d c7 d2 b6 3d 83 69 c3 3c f1 e9 19 be
       0.06508547 0.08926921 0.023854023 -0.15030648
000350 92 80 98 3d 13 4f 76 bd fb fd eb 3d 35 37 fe ba
       0.07446398 -0.060134005 0.11523052 -0.0019395115
000360 33 6e 1a 3d 67 96 17 3d 08 23 ed 3d 9c 9b eb bd
       0.03770275 0.03700867 0.11578947 -0.115042895
000370 eb 8e 15 3e 61 0d b3 3d 4d 86 25 be 01 dc 0d 3e
       0.146053 0.08742786 -0.16164513 0.13853456
000380 53 cc 24 3d c2 1c 7d 3d 41 09 03 3d 6b 9d 66 bd
       0.04023392 0.061795004 0.031991247 -0.05630247
000390 0f 34 f2 bc f2 62 a0 3d ab ab 8a 3c 14 b5 c8 bc
       -0.02956584 0.07831372 0.01692756 -0.024500407
0003a0 06 b1 8d bd 4d b6 30 3e f8 79 0b 3e d5 14 30 3c
       -0.0691853 0.17257042 0.13620746 0.010747154
0003b0 1c 15 b0 3c f6 a0 42 3c 46 05 2d bd fe 30 f4 3d
       0.02149444 0.011879196 -0.042241357 0.11923407
0003c0 41 71 8b 3c 09 49 a5 3b b4 17 c6 3d 04 08 f5 bb
       0.017021777 0.005044107 0.0967249 -0.007477762
0003d0 f9 36 9a bc 93 1f 1d 3d c3 7a 94 bd 7b 20 98 3d
       -0.018825041 0.03836019 -0.072499774 0.0742807
0003e0 02 5e 41 bd 01 16 2b bd dc e5 6e bb f8 ae f4 3c
       -0.047208793 -0.04176903 -0.0036452925 0.029868588
0003f0 15 20 10 3e 94 4d 58 bc 12 2a c1 3c bb 72 c0 3d
       0.14074738 -0.01320209 0.023579631 0.09396883

lstm.weight_ih_l1 f4 [256, 64]
000000 21 ec d2 bd ba 57 55 be 53 1e bd bc c1 b2 37 be
       -0.10298944 -0.20834246 -0.023085749 -0.17939283
000010 de 78 9c bd d9 68 e7 3d ac e2 97 3c df cd 5b 3d
       -0.07640241 0.11299295 0.018540703 0.05366313
000020 84 36 5d 3d ac 8f 77 bd 2e 71 2f 3d 10 0d dc bd
       0.05400707 -0.06043975 0.042832546 -0.10744679
000030 b2 06 c2 3d c4 50 2b bd b6 bc b3 bd 84 6e 00 be
       0.09473933 -0.04182507 -0.08776228 -0.12542158
000040 61 01 64 bd fb 6e 73 bd 58 54 d2 3d e5 fc 93 bc
       -0.055665378 -0.05943201 0.102699935 -0.018064925
000050 2a 31 3e bd e2 84 fe 3d 64 68 27 3b 10 d6 30 be
       -0.046433605 0.12427689 0.00255444 -0.17269158
000060 d1 57 54 bd 8a 70 8c bc 7f 61 73 be 44 c5 84 3d
       -0.05184156 -0.017143507 -0.2376766 0.06482938
000070 d2 5e 3b bc 91 fd 2b bd bf 25 06 be 27 61 21 be
       -0.011436181 -0.041989867 -0.13100336 -0.15759717
000080 58 e2 24 bd c2 7a de bd 93 40 d8 3c f8 30 46 bd
       -0.04025492 -0.10863258 0.026397979 -0.048386544
000090 11 8e d4 bd 4e 37 3d bd 62 73 80 bd ef a7 ad 3d
       -0.103786595 -0.04619532 -0.062720075 0.084792964
0000a0 da 92 56 3b 55 1c 4c 3d ba 56 be bd e5 aa 04 3d
       0.003274134 0.049831707 -0.092938855 0.03238954
0000b0 84 18 10 be 4e e2 d2 bc 76 f8 2b bd a1 e2 1f be
       -0.14071852 -0.025742676 -0.041984998 -0.15613796
0000c0 3c bb e3 bc 66 57 8a 3d 35 a1 c1 bd 61 8f 96 bd
       -0.027799241 0.06754951 -0.09454576 -0.07351566
0000d0 50 a0 a2 3d 2d 92 f7 3d c9 78 38 3d 04 7d bf 3d
       0.079407334 0.12088428 0.045037065 0.09350017
0000e0 0a d5 4f 3d c0 6c 55 3c 65 cf 10 bd a4 cd 4f 3d
       0.05074028 0.013026416 -0.035354037 0.050733224
0000f0 4f d8 bf bd 77 0d 96 3d 44 f6 8f 3d 49 aa 21 3e
       -0.093674295 0.07326787 0.07029393 0.15787615
000100 ff e0 a7 bd 5f c3 c8 3b f2 32 6b 3d 34 89 33 3d
       -0.081972115 0.0061268057 0.057421632 0.04383202
000110 9a 14 b6 bc b9 65 e3 3d 8f 05 ca 3d 39 5a 59 3b
       -0.02222662 0.111033864 0.098643415 0.003316535
000120 c5 1b d9 3c f9 77 23 3e 46 66 ac 3d f9 22 63 3c
       0.0265025 0.15963735 0.084179446 0.013863319
000130 c0 df c5 bd e6 14 8c bd 53 a7 7b bc 09 58 03 bd
       -0.096618176 -0.068399236 -0.015359717 -0.03206638
000140 04 cb 99 3d 34 bc aa 3d fd 33 1c 3e 7d 35 f1 3d
       0.07509425 0.08336678 0.15254207 0.1177778
000150 10 e5 31 be 3c 24 39 3e 3b ac 5c 3d 7d f8 2a 3d
       -0.17372537 0.18080229 0.05387519 0.041740883
000160 9e 0c 00 3d 57 bf 44 3d b6 1d cb bb 21 e1 e4 3d
       0.031262033 0.04803404 -0.00619861 0.111757524
000170 74 55 07 3e 2f 2c 46 3e 54 2f c4 3d 7f 61 3c bd
       0.13216192 0.19352792 0.095793396 -0.045991417
000180 ac 57 0a be 2b cb e7 bc 48 e8 97 bb 9b de 41 3d
       -0.13510007 -0.02829512 -0.0046358444 0.047331434
000190 a1 ee 34 3d b0 5a 11 3e 4c fd ae bd e2 fb 20 be
       0.044172887 0.14194751 -0.08544406 -0.15721086
0001a0 38 e2 e9 bd 54 01 25 be 57 60 bc bc ef 6c 91 3d
       -0.11420101 -0.16113788 -0.022995157 0.071008556
0001b0 c4 b7 bd 3c d8 e1 0f bd bf 72 b7 bd e0 ca 2c be
       0.023158915 -0.03512749 -0.08957433 -0.16874266
0001c0 93 1e 55 bc 6c 57 83 3e b6 34 e3 bd 16 a0 c6 3c
       -0.013007778 0.25652635 -0.11094038 0.024246257
0001d0 36 2c 8f bc 5d 28 d9 39 ef c9 10 3e a1 9d 7b bd
       -0.017477136 0.00041419538 0.14139532 -0.061429624
0001e0 12 7e a3 3d bc 89 8e bc 1b f2 9d bc bd d4 12 be
       0.079830304 -0.017399661 -0.019280484 -0.14338966
0001f0 b7 de be 3d 5e 69 1d bd 2e 07 86 bc 96 4c 65 3d
       0.09319823 -0.038430564 -0.016360845 0.05598124
000200 3c 17 e0 bd c0 81 ae 3d 5a b0 3f 3e f8 ca d5 bc
       -0.109419316 0.085208416 0.18719617 -0.02609776
000210 ff 92 20 3d 02 70 0d bd 92 b4 af 3d 14 96 03 be
       0.039202686 -0.034530647 0.08579363 -0.12850219
000220 2d f0 90 bd 9c e9 5b bd 0f 6d 3f bd a3 5d b3 bd
       -0.0707706 -0.053689584 -0.046734866 -0.08758094
000230 8e 3c 6c 3d 32 da 94 3d 66 8f 87 bc a6 46 bc 3b
       0.057674937 0.0726818 -0.01654787 0.0057457266
000240 43 cc 79 3d bc d7 4a bc f2 1d 22 be 5f 9d 21 be
       0.060985815 -0.012380537 -0.15831736 -0.15782689
000250 e2 22 78 bc be 32 da bd e3 3a ee 3d 21 4d 05 bd
       -0.015145035 -0.106542096 0.116323255 -0.03254426
000260 b5 10 a3 bc e5 09 e6 bd aa 90 e4 bd f1 38 0e bd
       -0.019905427 -0.11232356 -0.11160405 -0.034722272
000270 d0 8f ce bd 82 35 77 3b 64 ea 17 be e7 93 e9 3c
       -0.10086024 0.0037721102 -0.14835507 0.028512908
000280 f2 e6 ad 3d 5e 8f 14 3d 10 59 74 3a 1b 52 d3 3c
       0.08491315 0.036269538 0.00093211327 0.025795987
000290 51 f3 93 bd 57 f9 b8 3d 47 d2 ef bc 29 74 cc 3d
       -0.07224143 0.09031933 -0.029275073 0.09983093
0002a0 cb 82 3e be 14 d0 67 bd b3 17 c2 bd a1 6f 37 bc
       -0.18604581 -0.056594923 -0.094771765 -0.011196048
0002b0 96 8f 47 3d 9f ed 17 be 80 ed 0e bd 97 c8 17 3a
       0.04872092 -0.14836739 -0.034894466 0.0005790083
0002c0 14 4c dc bd 8c f4 40 3d d5 85 02 3d 2d 86 80 bd
       -0.10756698 0.047108218 0.031865913 -0.06275592
0002d0 25 c3 3b bd 76 2e 8a be 28 46 60 3b 78 8a ed 3c
       -0.0458404 -0.26988572 0.0034221504 0.028996691
0002e0 db 2a d3 bd 20 72 62 3d 70 37 9b bd 5e 9d 56 bd
       -0.103109084 0.05528462 -0.07578933 -0.05239617
0002f0 bf 50 a8 bc c4 60 22 3e 90 53 1c bb 90 77 05 3d
       -0.020546315 0.15857226 -0.0023853518 0.032584727
000300 ea 6f 16 bc 49 ba c4 bd 60 d7 5e 3d 35 d0 1a be
       -0.009181956 -0.096058436 0.054404616 -0.15118487
000310 10 04 fc 3d 40 16 e6 3d 99 ab cc 3d 31 8e 06 be
       0.12305462 0.112347126 0.09993667 -0.13140179
000320 ea 04 12 bc 54 27 dc bd 2e d7 6d 3d 91 5d a1 3b
       -0.008912304 -0.10749689 0.05806654 0.004924484
000330 05 77 2f 3e 5c 1f c5 bd 84 41 eb 3d a0 e1 3a bd
       0.17135246 -0.09625122 0.114871055 -0.04562533
000340 36 f7 3c be 4d 82 b7 bd 88 bf b0 3e b4 80 37 3d
       -0.18453678 -0.089604 0.34521127 0.044800475
000350 92 23 0d 3c 17 e1 cc bc 2d 7d 3f 3d f8 cc 96 3d
       0.008614438 -0.025009675 0.046750236 0.073633134
000360 22 db 31 3d b1 44 d9 bc b4 68 4b bd 89 ce 13 be
       0.043421872 -0.026522012 -0.0496604 -0.14434256
000370 db ad 17 3e f0 84 f5 3c d9 b4 1a be ed 6c 13 bd
       0.14812414 0.029970616 -0.1510805 -0.03599255
000380 64 20 27 3d 3d 8e 2e be d3 6e 47 bd 36 aa 0b 3e
       0.040802374 -0.17046447 -0.048689675 0.13639149
000390 2b ae af 3d 0b 09 f5 3c 64 8b 5b 3d ec f1 79 3d
       0.08578142 0.029911539 0.05359973 0.06102173
0003a0 d3 ca 49 bc 6e a2 01 3e 1e b9 91 bd f7 43 5c bd
       -0.0123164235 0.12659618 -0.071153864 -0.053775754
0003b0 e2 c9 39 bd 4e a9 3e 3d 8b ba 1c 3d f6 b8 a1 bd
       -0.045358546 0.04654818 0.03826384 -0.078966066
0003c0 5b 84 cb 3d 26 c2 ab bd eb 90 04 3e 8b b3 f9 3c
       0.09937354 -0.0838664 0.12945907 0.03048112
0003d0 83 ba 0a 3e 5c 1e a7 bd f3 e2 4c 3d dc e2 b3 3d
       0.13547711 -0.081600875 0.050021123 0.08783504
0003e0 4c bb fc bc 49 80 15 be c1 ff f5 bb 60 89 99 39
       -0.030851029 -0.14599718 -0.007507295 0.00029284786
0003f0 bb a0 29 bc 0e 61 92 3d bb ec 3d 3e cb 18 bc 3d
       -0.010353263 0.07147418 0.18547337 0.091844164

lstm.weight_hh_l1 f4 [256, 64]
000000 09 c1 2e bd 18 14 36 bd 85 d4 ad 3d 93 dc b1 bc
       -0.04266456 -0.044452757 0.084878005 -0.021711623
000010 26 0d b6 3d 2b c2 8c be 16 49 ad 3d 7f 36 4d bc
       0.088892266 -0.27491888 0.08461206 -0.0125252
000020 e7 a8 e6 3d 1d ac c3 3d b9 07 b0 3c 09 d1 e5 3d
       0.11262684 0.095543124 0.021488057 0.11221511
000030 f9 14 98 bd ab be 38 be 35 6e 62 bd e3 16 2a be
       -0.07425875 -0.18041484 -0.055280883 -0.16610293
000040 5e a8 7e bd ea b0 ab bc 46 0f 88 bc 02 c8 c9 bd
       -0.062172286 -0.020958383 -0.016608845 -0.098526016
000050 f9 c0 09 3d e1 f1 81 3d 10 38 c3 3d ca 62 9f 3c
       0.0336313 0.06344963 0.095321774 0.019456286
000060 d9 bc 45 3e 8f 9e d1 bd a5 ee 31 bd dc 3f cd 3d
       0.19310321 -0.10235321 -0.04344048 0.10021946
000070 4f d8 14 be 99 3c 59 3d 3a e6 99 3d ca 90 c1 3d
       -0.1453564 0.053036306 0.07514615 0.094514444
000080 74 eb f3 3b c4 0f e3 3c a2 b4 84 3c d7 9d 84 3d
       0.0074438397 0.027717479 0.016199414 0.06475418
000090 4c 23 7a 3d 38 da 57 3d ae ca ac 3d 7d e5 f1 bc
       0.061068818 0.052698344 0.084370956 -0.029528374
0000a0 89 90 be 39 dd 2b 30 3e fb c1 03 bd b8 fd f4 3c
       0.0003634731 0.17204233 -0.032167416 0.029906139
0000b0 ed ba 26 3d 3d 8f 4e 3c ae f7 0b 3e cb 7f 09 be
       0.04070561 0.012607393 0.13668701 -0.13427655
0000c0 69 40 ac bd 97 7e 29 3e c7 2b 16 3e 70 52 da 3d
       -0.08410723 0.16552196 0.14665137 0.10660255
0000d0 9e a2 33 be 76 64 ba bc ad 0b 0a 3d 35 f1 ad bd
       -0.17542502 -0.022752982 0.03370254 -0.08493272
0000e0 5f 28 2e be 5c 9c cc bd a9 36 72 3c 9d 73 ef bd
       -0.17007588 -0.09990761 0.01478354 -0.11691973
0000f0 b5 af 89 bd 0f 37 44 bd 51 f3 d4 3d d7 30 5f 3e
       -0.067229666 -0.04790407 0.103979714 0.21795975
000100 56 59 fe 3c 91 32 24 3d 8f f6 0f 3e e7 44 ad bd
       0.031048458 0.040087286 0.14058898 -0.08460408
000110 ca 78 2b 3c 32 b6 bc bd db 06 f1 bd ab c0 c3 3c
       0.01046581 -0.092144385 -0.11768886 0.023895582
000120 40 f0 40 bd fd 14 42 be ab 13 e0 3d 10 51 30 be
       -0.04710412 -0.18953319 0.10941251 -0.17218423
000130 ff 4c 8e 3d b9 a1 f3 bc c2 58 76 be ae b4 bf bd
       0.069482796 -0.029740201 -0.24057296 -0.09360634
000140 06 7e 0e 3e 87 53 a2 3c 1d ec 9d 3d be 1f 02 be
       0.13915262 0.01981522 0.07711051 -0.12707421
000150 4d 3d 1b be 7d f0 44 3d 7b eb 8f bc cb 87 f5 3a
       -0.15160103 0.04808091 -0.01756834 0.0018732486
000160 7c 09 c0 bd 0c 1b ee 3c 97 38 9d 3d a0 26 f9 bd
       -0.09376809 0.029065631 0.07676809 -0.1216557
000170 02 8b 21 3c 93 f6 68 bc cd d4 9b bd 44 07 47 bc
       0.009859802 -0.014218944 -0.07608948 -0.012147728
000180 a7 fa 09 3d 68 6b a1 3d f7 c8 19 be 96 f0 4d bd
       0.033686306 0.07881814 -0.15018068 -0.05027827
000190 a0 e7 18 bd b6 9f 90 bd c8 4d 86 bd 95 52 4e be
       -0.03733027 -0.070617124 -0.06557804 -0.2014869
0001a0 f0 3d db bd 4f c0 55 be ef 8f 22 3d a7 73 65 be
       -0.10705173 -0.20874141 0.039688047 -0.22407399
0001b0 a6 30 53 bd 97 c3 e0 bd 2f 9c 5c bd 07 92 2f 3d
       -0.051560067 -0.10974806 -0.053859886 0.042863872
0001c0 97 6a 6a be 29 ec aa bd 33 ae df 3d 52 4e a3 bd
       -0.22892223 -0.08345825 0.10921898 -0.07973923
0001d0 2c 91 12 3e e7 1f b8 bb 7f f9 e9 3d 36 1c 9b 3d
       0.14313191 -0.0056190374 0.11424541 0.0757374
0001e0 f9 6d ea 3d bf 20 2e b9 35 53 55 bc 04 79 a0 3d
       0.11446757 -0.00016606132 -0.013020326 0.07835582
0001f0 92 12 84 bd c4 32 8d 3d da d3 a0 bc 49 b6 2f be
       -0.064488545 0.068944484 -0.019632269 -0.1715938
000200 18 60 cb 3d d6 7f 16 3d db 2c bf 3c 6c 78 7b 3c
       0.09930438 0.036743008 0.023336818 0.015348535
000210 5b 2f 4e 3d ca af 3e be bf 2a 41 bc da cc bf 3c
       0.05033813 -0.18621746 -0.011789977 0.02341311
000220 b9 ef 42 3d f9 f1 b0 bd ad 8d 37 3d dc e3 9e bd
       0.0475919 -0.086399026 0.044812847 -0.077583045
000230 78 9f 96 ba 57 48 df 3c ed 92 c6 bb c9 05 a1 3d
       -0.0011491617 0.027256174 -0.0060599954 0.078624316
000240 4f 23 df 3d f0 14 36 3d a7 d1 6c 3d 8a 32 df 3d
       0.108954065 0.04445356 0.057817128 0.108983114
000250 11 05 91 3c 66 66 5b bd 42 fc a1 3d c7 aa 1d 3d
       0.017702611 -0.05356445 0.079094425 0.038492944
000260 ec 7c 3c bd 8d 82 d6 3d 98 e1 51 3e 7e d8 02 bd
       -0.046017572 0.10474119 0.20496213 -0.031944744
000270 a1 95 a2 bd 62 4c c0 bd 77 f0 a5 3d 8f 37 63 bd
       -0.07938696 -0.09389569 0.08102506 -0.055472907
000280 02 e6 ac 3d 77 7e 14 be c4 ce 8f bd 08 35 74 3e
       0.08442308 -0.14501368 -0.07021859 0.23848355
000290 b8 ca bc 3d d8 55 6a bd d8 9f d8 3d 2d 0b 44 be
       0.09218353 -0.057210773 0.10577363 -0.19144888
0002a0 01 aa e0 3d 91 c3 44 be ae 1c f0 3d b7 36 c6 bc
       0.10969926 -0.19215228 0.1172422 -0.024196012
0002b0 b5 6c 41 3e 6f 61 9c bd 25 b4 0e 3d 8e 8a ab 3d
       0.18889125 -0.076357715 0.034839768 0.083760366
0002c0 5f 36 fd bc b4 3e ba bd 95 5b 97 3d 1c cc 35 bd
       -0.030909715 -0.09093991 0.07390515 -0.044384107
0002d0 7b 67 87 3d 93 1f 15 3b f2 bf 9c 3b 46 d3 72 bd
       0.06611534 0.0022754415 0.004783624 -0.059283517
0002e0 cb 05 c3 bd ea 64 6f 3d d2 82 5e 3d e5 1d b4 bd
       -0.09522589 0.05844585 0.05432398 -0.087947644
0002f0 d5 7a de bd 4b bc b5 bd 9e d7 b3 bc 3d 3a 7a bb
       -0.10863272 -0.08873805 -0.0219534 -0.0038181685
000300 45 94 82 bd 91 33 38 be af 2c 77 3d b6 6b 17 bd
       -0.063759364 -0.17988421 0.060345348 -0.036967956
000310 a9 b5 f1 bd e3 e9 f0 bc 5f ca 4f bd de 26 a6 bd
       -0.11802227 -0.0294084 -0.050730105 -0.08112882
000320 d2 50 4b 3e ff 09 74 bc b4 41 16 3e 9d 27 a0 3d
       0.19855049 -0.014894961 0.14673501 0.07820056
000330 09 a1 70 bd 87 78 4b be 1e 7f 27 3e 91 0f 37 be
       -0.058747325 -0.19870196 0.16357085 -0.17877032
000340 69 e4 db 3d 96 6e ad bd 43 dc 00 bd f3 16 96 3d
       0.10736925 -0.08468358 -0.031460058 0.07328596
000350 86 d8 ee 3d 61 90 69 3d 7f 18 3f 3e a0 cf bc bd
       0.11662392 0.057022456 0.18661688 -0.09219289
000360 48 7f 6d 3d a7 31 0c 3e 2c 4b 4f 3e bb c3 3e bd
       0.057982713 0.13690816 0.2024352 -0.046573382
000370 b7 e9 bc bd 89 6c 69 bd 0d e0 a8 bb db 61 f9 3d
       -0.09224265 -0.056988273 -0.005153662 0.121768676
000380 80 af 78 3b cf 66 ec 3d 0b 10 8b bd 05 90 1f 3e
       0.0037946403 0.11543047 -0.06790169 0.15582283
000390 40 71 0e 3e 46 ba 7d 3e 38 09 5c 3e f4 34 db bd
       0.13910389 0.24778089 0.21487892 -0.107034594
0003a0 0b ab 11 3d 7f cf b9 bd 2d 3c 30 bd 9d 78 c3 ba
       0.03556351 -0.0907278 -0.043026138 -0.0014913265
0003b0 bc c7 06 3e 69 4e df 3c 34 35 4d 3e 8a 51 17 be
       0.1316213 0.027259069 0.20039827 -0.14777198
0003c0 cc 59 94 bd 90 7a ca bc ff fc 7e 3d b1 4d 11 3d
       -0.0724369 -0.024716645 0.062252995 0.035474483
0003d0 59 b3 3e be 24 29 82 3d b0 b9 01 bd a2 78 56 bc
       -0.18623103 0.06355503 -0.031671226 -0.013090285
0003e0 87 23 61 be 3e 1b 30 ba 0a 05 2f 3d dc ff 27 be
       -0.21986209 -0.00067179266 0.042729415 -0.16406196
0003f0 cc 5b 59 be c8 cd 00 bd d9 bd a8 3c a2 e1 7a 3d
       -0.21226424 -0.03144625 0.020598339 0.061250336

lstm.bias_ih_l1 f4 [256]
000000 e8 9c 62 3d e6 a3 91 bd 7a 7d 83 bd 40 3a 7f bd
       0.05532542 -0.07111339 -0.06420417 -0.06231141
000010 29 5c 64 bc 64 f1 43 bd 77 bc be bc 6d bc 20 3e
       -0.013937988 -0.04783763 -0.023283226 0.15696879
000020 a1 d4 26 bd 9d ca 44 be 3f d1 d7 bd 74 87 db bd
       -0.040730122 -0.19217916 -0.105379574 -0.10719195
000030 61 79 81 3d 36 b6 ab bd 7e ce db bd 8f fb 93 bd
       0.06321979 -0.08384363 -0.10732745 -0.07225715
000040 34 d8 37 3d 77 f3 0e 3d 70 36 78 3d 17 df d2 bd
       0.04488392 0.034900155 0.06059879 -0.10296457
000050 54 7e 8a 3d 71 0d bd bd a2 23 d4 3c 36 fa cd bc
       0.067623764 -0.09231079 0.025895897 -0.025143724
000060 5f aa de 3d a5 23 0a 3d 84 f9 0a ba 6d 38 d4 3c
       0.108723395 0.0337254 -0.0005301463 0.025905812
000070 3a de 01 3e 6b c3 73 bc 68 7c eb 3d 6e cf 18 3e
       0.12682429 -0.014878134 0.11498338 0.14922878
000080 7c 50 27 be 6b a1 40 be 64 0e f9 bd 11 c4 83 bd
       -0.16339296 -0.18811576 -0.12160948 -0.06433881
000090 d6 7f 79 bd 70 6c af bd 6a 11 ac bd e5 90 a5 3d
       -0.06091293 -0.08565605 -0.08401759 0.08084277
0000a0 d5 b2 96 bc b8 72 aa bd 17 9e ac 3d 25 fb 99 3d
       -0.01839582 -0.08322662 0.08428591 0.07518605
0000b0 1e 55 e0 bd 75 a3 9c bd 4a 57 b9 bd 69 8d 8e bc
       -0.10953735 -0.076483645 -0.09049852 -0.017401414
0000c0 f9 39 cb 3d a5 4f d8 bd 4e e0 fc ba 7b 3f 01 3d
       0.09923167 -0.10562066 -0.0019292922 0.03155468
0000d0 04 e8 98 bd 22 60 bd 3b cb 59 06 bc ae 71 fd bc
       -0.074661285 0.005779282 -0.008200119 -0.030937996
0000e0 d3 ab 95 bd 07 34 04 be 7f e0 29 bd c1 5e c4 3c
       -0.073081635 -0.12910472 -0.04147386 0.023970963
0000f0 06 f5 f4 3d e0 2d 8e bd c4 7f 4b 3d 63 b0 a6 3d
       0.11960797 -0.06942344 0.049682394 0.08139112
000100 68 71 22 bd b0 8a 48 bd 4f 10 d9 bd 2a 92 12 be
       -0.039658934 -0.048960388 -0.10598814 -0.1431357
000110 01 18 3b bc 56 57 b0 bd 02 b3 d2 bd e7 14 ac 3d
       -0.011419297 -0.08610408 -0.10288049 0.08402424
000120 82 e6 0d 3e 82 0e 71 3d 8b d7 34 3d 2c a8 d9 bb
       0.13857463 0.058851726 0.04415087 -0.006642362
000130 81 21 48 bc 4b ba 04 3d 04 63 2d bd 33 3d 1b 3e
       -0.012215019 0.032404225 -0.042330757 0.15160064
000140 cb a9 f0 bc ae 00 ca bc c0 7a f1 3d 45 c1 9d 3d
       -0.029377839 -0.024658527 0.11790991 0.07702879
000150 d6 ec 59 bd 7d f9 56 3d f8 0b e5 3b 27 4f 58 3c
       -0.05320438 0.052484024 0.006989952 0.013202465
000160 e0 e9 dc 3c be a3 0e bc e9 c3 d4 bc cf f7 ff bc
       0.026966989 -0.008706031 -0.025972323 -0.031246094
000170 94 f4 a0 3d bf b9 66 bd e3 9b ae 3d a3 5d 9e bd
       0.078591496 -0.056329485 0.08525827 -0.077327035
000180 3d 93 94 3d 72 ef f7 bd 6c db 5a 3d bf 3d 84 bd
       0.07254646 -0.121062174 0.053431913 -0.0645709
000190 23 61 f8 bd 9f 6b 4d 3e 7f 4b c6 3c e0 ef 03 3e
       -0.12127902 0.20060585 0.024205921 0.12884474
0001a0 42 ed 3e bd 67 62 72 3d 70 e8 9b bd d4 c6 66 3b
       -0.046612985 0.059175875 -0.07612693 0.0035213726
0001b0 04 8f 62 3d 95 cb ff bd 9d 25 cc 3d 66 88 15 bd
       0.05531217 -0.12490002 0.09968112 -0.036507033
0001c0 2a e5 08 3e ef 59 ae 3d cb c5 bf 3c 54 a3 ec 3d
       0.13368669 0.08513247 0.023409745 0.1155459
0001d0 75 73 33 bd e7 e7 db bb 7b 93 b7 3c 9b 18 22 be
       -0.04381128 -0.0067109945 0.022409191 -0.15829699
0001e0 46 bd b5 bd 22 6d fe 3c 64 3c 05 bd d0 4d 20 ba
       -0.08873992 0.031057898 -0.032528296 -0.00061151106
0001f0 56 1d 74 3d 6a 6b 19 3d 6f bc 9e bc 6a ef b8 3d
       0.05959829 0.037455954 -0.019376962 0.090300396
000200 f6 81 c2 bd b0 2a 87 bd dc 0d 58 bd df 39 f7 3b
       -0.09497444 -0.06599939 -0.052747592 0.0075447406
000210 7a ca 5d bc 84 f2 ad 3d 9c bc 10 3e 30 bd 0e 3d
       -0.013537044 0.08493522 0.14134449 0.034848392
000220 fc 0e c7 3d e2 cd 6a bd 18 02 75 3d 6d 42 96 3d
       0.09719655 -0.05732525 0.05981645 0.073368885
000230 8c bb f4 bd 3d 24 d2 bd 83 c8 6b bd a2 d9 8d 3d
       -0.11949834 -0.10260818 -0.05756427 0.06926276
000240 32 c5 37 3c 5f 1d d1 bd b4 d4 fa 3d 39 e5 8c 3d
       0.011216449 -0.1021068 0.12247601 0.06879658
000250 7c 92 72 bd 95 08 24 bd b5 49 54 bd b7 c2 15 3d
       -0.05922173 -0.040047247 -0.051828105 0.036562648
000260 6b 17 71 3d 75 67 2e 3d 07 0d aa 3d 15 cf 54 bc
       0.058860224 0.042579133 0.08303266 -0.012988825
000270 a2 41 f7 bd 42 02 e1 bc 7b 3d 1d be b4 8c e2 bd
       -0.12073065 -0.027466897 -0.15355484 -0.11061993
000280 e9 1b b3 3d 8e e6 16 3d 25 54 06 3e ef da 7e 3d
       0.08745558 0.036840968 0.13118036 0.06222051
000290 2d a0 07 3e ed 0b a3 bd fa 54 15 3d 3f 09 7e 3d
       0.13244696 -0.07961259 0.036457993 0.062020537
0002a0 0e 07 95 bd 46 57 dc 3d e0 59 1b be 2c d0 2a 3d
       -0.07276736 0.107588336 -0.15171003 0.041702434
0002b0 f1 3d 8c bc 15 4c af 3d 14 bb a6 3d e5 cd 97 3d
       -0.01711938 0.08559433 0.08141151 0.07412318
0002c0 80 bb 3b 3d 7d 08 e3 3d 13 c9 c5 bd 53 94 7c 3d
       0.04583311 0.110856034 -0.096574925 0.06166489
0002d0 6f 3d ed bd ac e1 08 be 74 48 e4 bc 7c cf d3 bd
       -0.11583983 -0.13367337 -0.02786658 -0.10342309
0002e0 e2 e3 81 bd 66 7f f3 bd bd 70 e8 3d 48 2c 9d bd
       -0.06342293 -0.11889534 0.11349628 -0.076744616
0002f0 9b d3 bc 3d 64 be a5 bd 4c d4 3d bd 06 11 66 3c
       0.09220048 -0.08092955 -0.04634504 0.014042145
000300 d4 85 1c 3c ca 80 ea bd ce 8a 9c 3b 47 c9 16 be
       0.0095533915 -0.11450346 0.004777289 -0.14725219
000310 0e 7d 24 bd 29 76 80 3d c4 84 dd 3d 3d f9 4f 3e
       -0.040158324 0.06272537 0.10816339 0.2030992
000320 47 cd 7f bd 68 5e 5e 3d 83 25 22 3d cf b2 a8 bc
       -0.062451627 0.05428925 0.039586555 -0.020593075
000330 3a 0d 32 3d 0c c2 a3 3d d4 f5 34 3d d3 23 8a 3c
       0.043469645 0.07995996 0.044179752 0.016862785
000340 c3 35 93 3d 04 0c b1 3d c2 c5 9b 3c cd e0 8c bd
       0.071879886 0.0864487 0.019015197 -0.06878815
000350 d2 38 d0 3d 77 a5 18 bd 79 fd 4f 3d 96 6b ab bc
       0.101670876 -0.037267175 0.05077884 -0.020925324
000360 4b 52 01 ba 40 91 35 3d 31 5b a7 3d d6 48 20 3d
       -0.0004933222 0.044327974 0.0817169 0.03913196
000370 23 66 95 bd 34 26 8d bc af c0 c6 bd b8 36 25 bd
       -0.07294872 -0.01723013 -0.0970472 -0.040335387
000380 f1 db 2a 3d de 83 87 3c 63 74 02 3e 49 59 a3 3d
       0.04171366 0.016542371 0.1273971 0.07976014
000390 26 26 ca 3c a1 1e 20 3e aa bc c3 3d 30 4b 7a 3d
       0.024676394 0.15636684 0.09557469 0.06110686
0003a0 3f f1 b1 3d d4 03 a3 bd 18 1a 74 bd 00 2e b5 3c
       0.08688592 -0.079597145 -0.059595197 0.022116661
0003b0 fa 05 de bb 38 63 c2 bd d3 d9 ea 3d 5d b9 d4 bc
       -0.006775615 -0.09491581 0.11467328 -0.025967294
0003c0 ee fa 2d 3e 12 8d 84 bc 48 cc c4 bd 5d 99 41 bd
       0.16990253 -0.016180549 -0.09609276 -0.0472654
0003d0 cb c9 80 3d 89 f5 25 bd 96 b9 ca bd 3b 47 11 3d
       0.06288489 -0.040517364 -0.09898679 0.03546832
0003e0 1b db 87 3d 3e 92 21 bd 23 da 2b 3e d1 1d 0a 3e
       0.06633588 -0.039446108 0.16782431 0.13487937
0003f0 2c a7 14 3d d6 ce 4d bd 4e 82 0e be 02 d5 47 bc
       0.03629224 -0.050246082 -0.13916895 -0.012196781
