src/util/AI/checkpoints/016.ckpt (torch, 353508 bytes, 14 tensors)

lstm.weight_ih_l0 f4 [256, 12]
000000 ec 95 45 bd ee 18 a4 3d c8 a0 24 be 26 3c 0c 3d
       -0.04823868 0.080125675 -0.16076958 0.03423705
000010 7b 48 bf 3d 71 9f 9b 3d 54 07 6f 3d 86 70 17 bc
       0.093399964 0.075987704 0.058356598 -0.009243136
000020 74 a1 d4 bd 23 62 1f 3d 81 28 db bd aa da 4a bd
       -0.10382357 0.03891195 -0.10701085 -0.04952494
000030 67 fa 30 be b0 0d b1 ba bf a2 85 bd 65 5b d5 bd
       -0.17283021 -0.0013508108 -0.06525182 -0.10417823
000040 12 47 87 bd 5e 55 6f bd 20 f4 ff 3d 1f 56 f1 3d
       -0.066053525 -0.058431022 0.12497735 0.117840044
000050 99 91 b8 3d 5e 44 1c 3d 3e 86 bf bd 29 2e f5 3c
       0.090121455 0.038151138 -0.093517765 0.029929237
000060 95 77 95 3d db a1 eb 3d 93 a0 38 3d 7c 05 04 3e
       0.07298199 0.11505481 0.04507501 0.12892717
000070 b9 9d 2b 3d ce 5f 51 3e 2c 73 52 3e 6b 66 da bd
       0.041898463 0.20446703 0.20551747 -0.10664066
000080 8d f8 3c 3c 7e a1 1b bd b9 e7 43 3d f0 79 b3 bd
       0.0115338685 -0.037995808 0.04782841 -0.08763492
000090 97 6f 94 3c 13 b3 4e 3d da ad 90 3d 82 d7 52 be
       0.018119616 0.050463747 0.070644096 -0.20590022
0000a0 4e c5 49 be 00 c9 9c bb 19 f7 3d 3e e5 c0 f4 3b
       -0.19704172 -0.0047847033 0.18551292 0.007469284
0000b0 82 4b 0d be 90 60 5e bd d3 0c 49 3e 88 69 87 3c
       -0.13798335 -0.054291308 0.19633798 0.016529813
0000c0 8d 17 f4 3c 94 4f a0 bd 20 32 92 bd b8 e1 69 bd
       0.029796386 -0.07827678 -0.07138467 -0.057100028
0000d0 ef 8f 39 3d 89 c1 c4 bc 0a 70 ae 3d 5a e0 4e 3e
       0.04530328 -0.024018066 0.085174635 0.20202771
0000e0 b5 39 10 3d 6a cc 94 bd 31 fc b5 bd c6 c8 bb bd
       0.035211284 -0.072655514 -0.08885992 -0.09169154
0000f0 a9 36 c7 3c 1a 49 1a 3d 6b 7b 1b 3d 2a a9 a7 3d
       0.024318056 0.03766737 0.037959497 0.08186562
000100 26 2f 9c 3c 6d fc b8 bd b1 07 7b 3e c9 b2 95 3e
       0.01906545 -0.090325214 0.24514653 0.29237965
000110 e3 84 98 bc 33 65 32 bd 10 8c ff bb 2a c1 10 3d
       -0.018618053 -0.043553542 -0.007798679 0.035340466
000120 ec 9e f4 3d de a9 86 3c a9 b8 1c be a9 e7 2c be
       0.119443744 0.01643842 -0.15304817 -0.16885246
000130 c8 87 c9 3d 98 96 e3 3b 21 19 83 bd 06 3f fe 3d
       0.09840351 0.0069454424 -0.06401277 0.124143645
000140 87 97 3d bd c0 6b 8c bd 5e fd 31 3c 55 de b2 39
       -0.046287086 -0.06856489 0.01086363 0.00034116456
000150 f5 c9 6a bd 5a 0d 03 3e 3d ce 56 3d 90 58 44 3d
       -0.057321507 0.12798062 0.052442778 0.047936022
000160 3e 37 b5 3d 6b ca b1 3d ac fc a6 bb cf 6b 03 3e
       0.08848427 0.08681186 -0.005096039 0.12834094
000170 09 fb 42 bd 87 67 8e bc 1a 90 30 bd d5 55 59 bd
       -0.047602687 -0.01738335 -0.043106176 -0.05306037
000180 4a fd 9e bc a3 06 c9 bb 96 d8 ea bd 87 a1 24 3c
       -0.019407887 -0.0061348244 -0.11467092 0.010048277
000190 44 77 0e bc 32 43 6f 3d 01 80 56 3e bf 61 8a 3e
       -0.008695427 0.05841369 0.20947267 0.270277
0001a0 37 b9 87 3c 7d d4 4b bd 34 47 c7 bd 38 5d 29 bc
       0.01656781 -0.04976319 -0.09730378 -0.0103371665
0001b0 6a 28 94 3d eb 9a 18 bd fb da d5 3d 57 8c 93 3d
       0.07234271 -0.037257116 0.10442158 0.07204502
0001c0 f3 41 32 bd 83 f4 0f 3c 55 67 95 3d 29 6a 1b be
       -0.043519925 0.0087863235 0.072951 -0.15177216
0001d0 e0 f5 4a be 46 22 39 3c ae 1b e0 bc 53 c4 f4 3d
       -0.19820356 0.011299675 -0.027356949 0.119515084
0001e0 84 f5 d3 3c 85 1b a6 bd b2 07 ee bd 0a dc 69 bd
       0.025873907 -0.08110718 -0.116225615 -0.05709461
0001f0 ee 36 29 3e 9b 93 50 3d 4e 86 ea 3d 5f 70 e9 3d
       0.1652486 0.050922018 0.11451398 0.11398386
000200 28 2f 03 3e 3e c8 05 3c b1 4b c3 3d 0e ef 64 bd
       0.12810957 0.008165417 0.09535921 -0.055892043
000210 50 91 a8 3d fe 4f 51 3d e9 67 4b 3d 2f ce b8 bd
       0.08230841 0.051101677 0.049659643 -0.090237014
000220 d5 48 7f 3d 86 ab 98 3c b2 67 c7 bd 4d e9 37 be
       0.062325317 0.018636476 -0.09736575 -0.17960091
000230 6a 0c 65 be 0e cb 35 3d 85 56 2b 3e 27 fe da 3c
       -0.22368017 0.0443831 0.16732223 0.026732517
000240 b3 16 0c 3d b8 9d 81 3c 7e e3 08 be 81 89 e4 bd
       0.034201335 0.015822276 -0.13368031 -0.11159039
000250 28 6f 26 3d 33 c8 17 3e cc 4d 9d bd d9 07 8d be
       0.04063335 0.14822464 -0.07680854 -0.2754505
000260 59 33 af bd a6 34 03 3d 26 08 20 bd 3a 43 c6 bd
       -0.08554716 0.03203263 -0.03907027 -0.09680791
000270 4a b5 99 3c c8 dd 71 3d 01 08 63 3d 0f f3 9e bd
       0.018763203 0.059049398 0.055427555 -0.077612035
000280 ba 32 0c be a6 90 cb bd b3 61 19 3e 70 d8 ed bd
       -0.13691226 -0.09939699 0.14978676 -0.11613548
000290 48 c8 1d be 55 d5 8e bd f9 67 02 3c 80 d4 d1 3c
       -0.15408432 -0.069742836 0.007959359 0.025614023
0002a0 8c f8 87 bd 36 df 2f 3d 01 1a b8 bd 0a e8 c9 3d
       -0.066392034 0.04293748 -0.08989335 0.09858711
0002b0 48 9a 73 bd c0 10 97 bd ee 59 cd 3d 77 0c 28 3d
       -0.059473306 -0.07376242 0.10026918 0.041027512
0002c0 b3 6e cb bd 48 46 44 3c a2 35 77 bc 87 b4 35 3d
       -0.099332236 0.011979647 -0.015088471 0.044361617
0002d0 df 01 5d bd ab d7 64 bd fe 47 17 3e 55 da 61 3c
       -0.053956863 -0.05586974 0.14773557 0.013784965
0002e0 4b 8e 0b 3e 1f 36 de 3b f3 3c f2 bd 3f 73 fa bc
       0.13628499 0.006781354 -0.118280314 -0.030572532
0002f0 a4 3f 0f bd 52 3a b8 bd 0b e3 3b bd 70 31 01 3e
       -0.0349728 -0.08995499 -0.045870822 0.12616515
000300 25 2a 91 bd 8e 56 b0 3c 8f 0c 81 3d 60 d6 27 3e
       -0.070881166 0.021525647 0.063012235 0.16390371
000310 72 48 9e 3d b6 0c 70 3d 68 e6 7b bd bb 00 2c be
       0.077286616 0.058605872 -0.06149903 -0.16797154
000320 de 2d 2f bd 69 38 bd bc 9b 66 bd bd 14 8b 09 bd
       -0.04276835 -0.023098188 -0.09248086 -0.0335799
000330 88 15 97 bd e0 15 16 bd f9 a0 2e bd d8 18 58 be
       -0.07377154 -0.036641955 -0.042633984 -0.21103227
000340 ed 44 b8 3c f0 d3 43 3e b4 d5 eb 3c ad 0d e7 bd
       0.022493804 0.19123816 0.028788425 -0.11281905
000350 03 4a a5 3d 4b 82 07 3b 24 85 05 3e b5 54 ff bd
       0.08070757 0.0020677026 0.1303907 -0.124673285
000360 7e 27 06 be db 5d 14 bc e7 be 6f bd 6a 14 c5 3d
       -0.13101003 -0.00905558 -0.058531668 0.09623034
000370 6e 98 54 3d be 47 17 be 7b f2 6d be f5 ad c8 3d
       0.05190318 -0.14773461 -0.2323703 0.09798805
000380 a3 3e 41 3d 5b 39 76 3d d7 64 49 be 93 66 c6 bd
       0.047178876 0.060113292 -0.19667374 -0.09687533
000390 9f 83 59 be 92 14 8d 3c 68 c9 d2 bd 07 24 92 3d
       -0.21241616 0.017221723 -0.102923214 0.07135778
0003a0 99 73 01 3e 1c 31 08 3d 45 4a 8c bd 08 b6 02 bd
       0.12641753 0.03324996 -0.06850103 -0.03191188
0003b0 09 65 c3 3c 12 a7 b3 3d 91 65 8e bd 87 90 8d 3c
       0.023851888 0.087721005 -0.06952966 0.01728083
0003c0 9d 0e cf bd 7a b5 2f 3e 74 37 d5 bd 68 f6 44 bb
       -0.10110209 0.17159072 -0.104109675 -0.0030054096
0003d0 bb 36 fa bc f9 35 b1 bd 41 59 57 bd 3c 25 fe 3d
       -0.030543676 -0.086528726 -0.052575354 0.12409446
0003e0 f6 30 94 bd 3d a8 ad bd e5 cd 63 3d 46 ad be 3c
       -0.07235901 -0.084793545 0.05561628 0.023275983
0003f0 e2 51 8a bb 6f b0 89 3d e6 80 e9 bd 8b 36 4a 3d
       -0.004221187 0.06723105 -0.114015386 0.049368422

lstm.weight_hh_l0 f4 [256, 64]
000000 30 79 36 3d 47 1f 82 bd 4a 02 22 3e 03 2f bc bc
       0.044549167 -0.06353622 0.15821186 -0.022971636
000010 32 3e 85 3d 4e ff 45 3e ef 49 b5 bd 86 cb be bc
       0.065060034 0.19335672 -0.08851992 -0.023290407
000020 e7 86 f7 3d 50 15 3b 3e 1a e8 a4 3d 72 49 e5 3c
       0.120862775 0.18269849 0.08052082 0.027989123
000030 ad da 49 3e c3 b5 c4 bd 71 c5 f5 3d 5b c0 59 3d
       0.19712324 -0.09604981 0.120005496 0.05316196
000040 46 06 33 bd b4 16 81 3d 1d 36 39 3b 16 c7 08 3d
       -0.043707155 0.063031584 0.0028261014 0.03339299
000050 26 65 f2 bc 96 2b bf bd ba 82 27 3c 50 a7 81 bc
       -0.029589247 -0.09334485 0.010224039 -0.015826851
000060 c9 5d 2e 3e b7 75 5d bd e1 6d 11 be ea 75 7e bb
       0.17027964 -0.05406734 -0.14202072 -0.0038827606
000070 48 ea ab 3d 4b da 90 3d 23 24 f8 bd 2c 84 8e bd
       0.08394295 0.07072886 -0.121162675 -0.069588035
000080 1d 7a 8b bd 09 bc 39 3b e8 01 90 3d ab 84 ea bd
       -0.06810401 0.0028340837 0.070316136 -0.11451086
000090 7d 45 7d 39 dc 7d 10 3d 60 58 90 bd 08 15 91 3d
       0.00024153847 0.03527628 -0.07048106 0.070840895
0000a0 4f d4 68 bd 5d 19 4e bd 64 3b ae 3c 88 5d f2 bd
       -0.0568431 -0.050317157 0.021268554 -0.11834246
0000b0 c3 bb 8b bd 25 5d 39 be 82 ab d9 bd 8f 22 24 be
       -0.06822922 -0.18101938 -0.10628416 -0.16028808
0000c0 f0 dc aa 3d be 2c 9a 3d e7 58 c2 3d 84 d6 7b 3d
       0.08342922 0.07528065 0.09489613 0.061483875
0000d0 fb 0d 4c be f2 c1 3a bb c4 16 5d 3e 2e 56 b6 bd
       -0.19927208 -0.0028496948 0.21590716 -0.08903156
0000e0 70 64 0c 3d a9 af ef 3d 07 5b 0b be ed 6f 88 bd
       0.034275472 0.117034264 -0.13608943 -0.06661973
0000f0 35 b8 7b bd ae a4 21 3e 8d d3 b8 3c 68 14 dc 3d
       -0.06145497 0.15785477 0.022561813 0.1074608
000100 d3 07 5a 3d b8 34 af bd 39 64 84 3e 1d c4 be 3d
       0.053230118 -0.08554977 0.25857714 0.093147494
000110 f9 8b 88 3d fd a0 c5 bd a6 40 35 bd ad ae 74 bd
       0.06667323 -0.09649847 -0.044251107 -0.059736896
000120 4d b1 82 bd 33 34 25 be ef 3f e4 3d 5a ba b2 3c
       -0.06381474 -0.16133194 0.11145007 0.021817375
000130 7a f9 1e 3c 16 57 bb bd b1 34 35 be ed d8 a3 3d
       0.009703035 -0.0914747 -0.17695881 0.0800036
000140 aa a4 02 3e 08 7f 49 be 1b ab 4b 3e cd 5c 9e 3d
       0.12758127 -0.19677365 0.1988949 0.07732544
000150 4a 22 54 3e a8 80 fb bd c8 9c 47 be 06 a3 37 3d
       0.20716205 -0.122803986 -0.19493401 0.044833206
000160 0c 68 91 3d 4b 67 1b be 0e 4c 64 3d 05 08 27 3e
       0.070999235 -0.15176122 0.055736594 0.16311653
000170 58 65 8e bd 96 50 74 be 5f fd 1e bd ed 8d 28 3e
       -0.069529235 -0.23858866 -0.038815852 0.1646039
000180 21 bd 15 be 6b ba b4 bd 88 cd cf 3c a3 b9 78 3d
       -0.14622928 -0.08824619 0.02536656 0.060723912
000190 77 93 6c 3d 9c f9 8c bd 4a 72 f7 bd b3 9d c1 3d
       0.05775782 -0.06883547 -0.12082346 0.09453907
0001a0 65 3a e5 3c df cd 30 be e0 55 7e bd 5b 50 35 be
       0.027981946 -0.17266034 -0.062093616 -0.17706434
0001b0 f9 99 ac bd e8 b9 11 be c9 e3 11 be 62 c4 3e bd
       -0.084278055 -0.14231074 -0.1424705 -0.046574004
0001c0 81 90 8f bc 69 34 37 bc 17 8b 8f 3d 86 4c b6 bb
       -0.01752496 -0.011181929 0.07008951 -0.0055633215
0001d0 1b 3e 35 be 1a 7e be 3d 8f 9a 02 bd 3b 13 6e 3e
       -0.17699473 0.09301396 -0.03188568 0.23249523
0001e0 63 39 91 bd 1d eb e5 3d 3c a0 31 be 1f 7d ca 3d
       -0.07091024 0.11226485 -0.17346281 0.09887146
0001f0 0b 5e 02 3d 36 23 8b bd eb e8 93 3d 3f 06 df bd
       0.031827968 -0.06793825 0.0722216 -0.10889863
000200 cd c7 0f 3e 82 ab 57 be 25 48 90 bd 1b 3d 89 3d
       0.14041062 -0.21061519 -0.070450105 0.06701108
000210 2e cf 58 bd a9 d8 57 3d 23 fe c6 bc 46 68 c6 3d
       -0.052931957 0.052696858 -0.024291104 0.09687857
000220 05 72 93 3d 8c 6b cd bd a4 14 2d 3d 44 06 8a 3d
       0.07199482 -0.100302786 0.042256013 0.06739476
000230 39 64 29 3e 78 f6 09 bd 5f fd 7e bd ec 0d b1 3d
       0.16542138 -0.033682317 -0.062253352 0.086452335
000240 99 3f 0c be e1 b9 0a bd 8e 0c 53 3e bf 99 15 3c
       -0.13696136 -0.033868674 0.20610258 0.009130894
000250 33 e5 ca bd 3a ac 21 3d 09 77 98 bb f7 d2 58 3d
       -0.099069975 0.03947089 -0.004652862 0.052935567
000260 70 1b fe bc 8e 40 15 be 66 c3 da bd a5 21 ab bd
       -0.031018943 -0.14575407 -0.106818005 -0.083560266
000270 2a 7f 21 bc c8 a9 4b 3d 08 cb 30 be bf ef 02 be
       -0.009856978 0.049722463 -0.1726495 -0.12786768
000280 f4 16 55 3c f6 3d d9 3c 20 04 f9 3d 35 11 de bc
       0.013005961 0.026518803 0.1215899 -0.027107814
000290 f4 f6 4e 3d bf 86 d3 3d 09 90 d5 bc 32 7a 19 3e
       0.05052848 0.10328435 -0.026069658 0.1498802
0002a0 fb c0 33 3e 78 de 35 3d bd 26 41 3d 00 5c 38 bc
       0.17554085 0.044401616 0.047156084 -0.011252403
0002b0 fc a5 ba 3c 3f 4c f4 3d a4 6f 1a be 42 38 2d 3e
       0.022784226 0.11928605 -0.1508165 0.16915992
0002c0 c2 53 8c bd 73 0e 01 3c 26 e9 11 3c 79 ee 23 be
       -0.06851913 0.00787698 0.008905685 -0.16008939
0002d0 84 95 cf 3b 19 18 49 be 7d c5 27 bc 6c 98 19 be
       0.0063349623 -0.19638099 -0.010239956 -0.1499955
0002e0 f0 d4 08 be 42 5f de 3c 22 87 ca 3d 3c 29 f6 3c
       -0.13362479 0.027145032 0.09889056 0.030048959
0002f0 f0 cb b9 bd fc 92 1e 3c f7 4e e3 bd 33 d1 66 3e
       -0.09072101 0.0096785985 -0.11099046 0.2254074
000300 4a 9d 84 3e be 66 8d be 1a 6b 03 3e ce 6e 81 be
       0.25901252 -0.2761745 0.12833825 -0.2527985
000310 5d ef 24 3b 03 1c 70 be 53 cc 06 be 41 9d a2 bd
       0.0025167086 -0.23448186 -0.13163881 -0.0794015
000320 01 55 21 3e 07 8f 38 be 5a 52 8f 3d ed 98 4f bc
       0.15755083 -0.1802331 0.06998129 -0.012670738
000330 4f 4b 22 bc bf 12 d9 bc ee 29 a2 bb 38 4b 20 3e
       -0.00990565 -0.026498197 -0.004948846 0.15653694
000340 65 49 73 3d 10 54 8f bb e9 e0 38 be d6 b3 46 3e
       0.059396166 -0.0043740347 -0.18054546 0.1940454
000350 14 bd bf bd ba 36 23 be 17 89 34 be 23 fc e3 3d
       -0.09362236 -0.15938845 -0.1763042 0.11132076
000360 01 f6 9e 3d 59 d1 f5 bd 53 ea 3b be 5f 75 5c 3e
       0.07761765 -0.120028205 -0.18351106 0.21529149
000370 b8 b8 1d 3e 58 1e c9 bd 32 3f 2a 3e d4 e9 c8 ba
       0.15402496 -0.09820241 0.1662567 -0.0015328475
000380 fb 83 2e 3e 7e eb 44 bb d7 1f 14 3c 99 51 6d 3d
       0.17042534 -0.003004759 0.009040794 0.057939146
000390 56 b5 cd bd 8d 00 de bd 7a 58 e9 bc b9 db c6 3d
       -0.10044353 -0.10839949 -0.028484572 0.097098775
0003a0 02 e0 4a 3e e0 4d 05 3e 50 a4 92 3c 07 be 9b be
       0.19812015 0.13017988 0.017900616 -0.30418417
0003b0 98 8c 38 3c c4 4c 07 3e 70 b9 13 3d 05 e7 98 3e
       0.011263989 0.13212878 0.03606552 0.29863754
0003c0 1f b7 9a 3d 96 54 40 be 8c 38 d9 bd 70 c0 b2 3d
       0.07554459 -0.18782267 -0.106064886 0.08728111
0003d0 6a 94 43 bd d2 ba ea 3d f0 aa a6 3d 4a 6f 1a 3d
       -0.04774896 0.114614144 0.081380725 0.03770379
0003e0 c4 4d ac 3d 0e 54 c4 3c 0a 9e a1 be 47 5d 39 be
       0.0841327 0.023965862 -0.31565887 -0.18101989
0003f0 cc 7f b3 3d dc 22 8a be ed bf 3f 3e 78 e3 7f bb
       0.0876461 -0.2697972 0.18725558 -0.0039045494

lstm.bias_ih_l0 f4 [256]
000000 80 21 18 bd 1f 97 c2 bd ff 20 a5 bd 89 28 fe bd
       -0.037141323 -0.0950148 -0.08062934 -0.12410075
000010 3a e5 c0 bd 41 97 0e 3d dc 04 f8 3c f5 9b c3 3d
       -0.094187215 0.034812216 0.030275755 0.09551231
000020 a1 52 12 3e e6 c0 be bd 40 f0 ad bc b2 bc 20 bb
       0.14289333 -0.09314136 -0.021232724 -0.0024526534
000030 34 31 5a bd b1 26 73 bd ed 8e ac 3d ac 75 06 bd
       -0.05326958 -0.05936307 0.084256984 -0.032827064
000040 2e f4 09 be 36 ad 99 3c 1c 7b 29 bd e3 da 68 3c
       -0.13472053 0.018759351 -0.041377172 0.014212343
000050 bf 6a 08 bd 8c 16 cc 3d b5 5d f1 bc 31 e8 3b bd
       -0.033304926 0.09965238 -0.029463628 -0.04587573
000060 7c 80 84 3d 80 dd 2c 3d 18 4a 55 be f2 98 37 3d
       0.06469819 0.042203426 -0.20829046 0.044823594
000070 7b d0 95 3d bd aa 12 bd f0 3e 91 3d e0 65 a0 3d
       0.07315155 -0.03580736 0.070920825 0.07831931
000080 5b fd 64 3d 7c 61 60 bd d4 53 f9 bc 15 7e e8 3d
       0.05590568 -0.05478047 -0.03043548 0.11352173
000090 7f 1f 41 3d 66 db bb bd 85 fe 8c bd 7a 44 2c be
       0.047149178 -0.09172706 -0.06884483 -0.16822997
0000a0 55 b5 99 3a 6d 5f e0 bc cf f9 d6 3d 95 eb 95 3d
       0.0011727015 -0.027389253 0.10496866 0.07320324
0000b0 07 95 d4 3c 19 e0 96 bd 42 55 aa 3d e9 f9 45 3e
       0.025949968 -0.07366962 0.08317043 0.19333614
0000c0 d9 ff 24 3d 6d c2 c8 bd bf db 41 bd ce 18 8f bd
       0.040283058 -0.09802709 -0.047328707 -0.06987153
0000d0 ea 83 7a bc 2b fd 99 bd fb 99 7f 3d 1f 55 c2 bd
       -0.01529024 -0.07518991 0.062402707 -0.09488892
0000e0 d5 a3 83 be 52 93 43 be a3 0a 81 3b a8 7b 9c bd
       -0.2571093 -0.19099167 0.0039380356 -0.07640773
0000f0 f8 0f ad bc ee 36 0d bc f1 b9 21 3e d3 96 ca 3d
       -0.021125779 -0.008619053 0.15793587 0.09892049
000100 89 2b 7f bd b7 0c 67 bd 9a 5d 4b bd 01 c1 37 be
       -0.062297378 -0.05640861 -0.049649812 -0.17944719
000110 e0 04 df 3d 4f a1 8d bd 5d 50 a3 bc ce 62 a2 bd
       0.10889602 -0.06915533 -0.019935781 -0.07929002
000120 20 78 c4 bd 54 be b6 bb 0b bf 46 bc 54 55 2f 3d
       -0.095932245 -0.005576888 -0.012130509 0.042805985
000130 94 b5 fa bd 2e 2c 08 be 85 c3 e3 bc fe 72 6f 3d
       -0.122416645 -0.13298103 -0.027803192 0.058459274
000140 cc 49 77 bd 3d 09 aa bd ca 44 03 3d 60 fe f1 3d
       -0.060373113 -0.08302543 0.032048024 0.11816096
000150 dc f6 d9 3c 51 a6 8f 3d 80 a5 ff 3d 77 25 b6 3d
       0.02660697 0.07014144 0.124827385 0.088938646
000160 a6 8e 47 3d 08 cb 7f 3d 40 9a 1f bd 40 0a 78 3d
       0.048720025 0.062449485 -0.038965464 0.06055665
000170 f3 e1 20 3d c6 97 37 3e 3d a3 4d bd 0f 80 3d 3e
       0.039277982 0.1792899 -0.050204504 0.18505882
000180 74 b2 04 3e d9 03 0b 3d 97 94 7a ba f2 67 06 3e
       0.129587 0.033939216 -0.0009558885 0.1312559
000190 e8 7b c8 3d ab a1 5c be 87 7c 77 3d d1 74 49 be
       0.09789258 -0.21546046 0.060421493 -0.19673468
0001a0 b7 b0 90 3b 11 de 0a 3e db 5a bc 3d ca 49 8e 3d
       0.0044155973 0.13561274 0.09197017 0.06947668
0001b0 66 ca 1f 3d 47 fe 78 bd 2c 01 a6 3d 70 00 51 3c
       0.03901138 -0.060789373 0.08105692 0.012756452
0001c0 1a a5 c3 3a 31 78 0e 3e b7 10 b6 3d 95 31 ad bd
       0.0014926523 0.13913037 0.08889907 -0.08456723
0001d0 af c7 09 3e c3 a4 61 3c 02 23 e1 bd 6d 98 1f 3e
       0.1345508 0.013772192 -0.10993005 0.1558549
0001e0 d9 6a e3 bc 70 9a f3 bc bf 9b 3d bc 15 bb 15 be
       -0.02776091 -0.029736727 -0.011572777 -0.14622147
0001f0 e9 a3 06 be f5 77 96 bd 17 89 e1 3d 27 b0 c0 bc
       -0.13148464 -0.07347099 0.11012476 -0.023521496
000200 1b 96 eb bb 16 fe be bd cb b6 77 3d e8 11 4f 3d
       -0.007189525 -0.09325807 0.06047706 0.050554186
000210 13 9f 0b bd 77 2a bd 3d f2 77 7e bb ec 24 2a 3b
       -0.034087252 0.09236615 -0.0038828817 0.0025961949
000220 2b 4f 30 be 84 ba 31 bd db c1 f3 bd 64 67 b5 bd
       -0.172177 -0.043390766 -0.11902209 -0.08857611
000230 85 6d 07 bc d3 90 e0 bb ce 71 00 3c 8b 58 31 3d
       -0.008265858 -0.006853202 0.007839633 0.04329733
000240 56 f3 2b 3d 22 74 d2 3d 51 0a 82 bd 82 07 44 3e
       0.04198011 0.10276057 -0.06349624 0.19143489
000250 71 7f b8 bd 47 b2 93 3d d8 7f 05 3e 21 1c 26 3e
       -0.090086825 0.07211738 0.1303705 0.16221668
000260 bb 06 19 3c ea 9f 6f 3d 70 6c 3b 3e 7d 1d 73 3d
       0.009339984 0.058502115 0.18303084 0.059354294
000270 51 5a bb bc c5 53 d3 bd 7d 4f 5d 3b b0 e3 1a be
       -0.022870215 -0.10318712 0.0033769303 -0.15125918
000280 88 40 2a 3e 51 82 93 3c 6d 12 2b bd 2c 57 be bc
       0.16626179 0.018006476 -0.04176562 -0.023234926
000290 99 e1 ca 3d 6b 0b da bd 05 eb 96 bd b7 09 4f bd
       0.099063106 -0.10646709 -0.07369045 -0.050546374
0002a0 ca 43 e2 3d f4 94 31 3d 99 4e 8e be 88 bc 28 bd
       0.11048086 0.043354943 -0.2779434 -0.041195422
0002b0 d5 72 81 3c 54 f3 bb bd ab e0 e1 3d df 46 92 bd
       0.015801826 -0.091772705 0.1102918 -0.07142424
0002c0 ea ef 02 3d 66 9a 2d 3e 54 d5 66 3d ae e9 21 3e
       0.03196708 0.1695343 0.05635579 0.15811798
0002d0 28 5f c0 3c 5c 7d ab 3d 89 b1 26 3d 50 02 bf bd
       0.023482874 0.0837352 0.040696654 -0.09326613
0002e0 84 eb 61 bd cd ae fd 3d 81 c0 24 3e 7d 16 73 3d
       -0.055156246 0.12386856 0.1608906 0.05934762
0002f0 a9 a1 16 bd 6d 26 03 3e 9d 4d c4 3d 46 8f a1 bd
       -0.036775265 0.12807627 0.09585116 -0.07888655
000300 f5 f8 63 3d f7 71 03 bc 31 0a c4 bb b8 ac b8 3d
       0.055657346 -0.008022777 -0.00598266 0.090173185
000310 1a a7 80 3c f6 ca 78 bd 58 9a 2a be d7 c2 bc 3d
       0.01570468 -0.060740434 -0.1666044 0.0921685
000320 9d d8 cb bd 65 60 0b bd dd c0 62 bd 25 f3 b7 3c
       -0.09953425 -0.034027476 -0.05535971 0.022454808
000330 a3 34 83 3b b6 82 04 39 38 80 2d be 76 12 d6 3b
       0.0040040775 0.00012637195 -0.16943443 0.0065329624
000340 4f 2e e0 bd e6 79 00 3b a5 f5 12 be f5 cc 8d 3d
       -0.10946333 0.0019603907 -0.14351518 0.06923858
000350 c9 2b 04 be 94 69 97 bd 52 12 f4 3b 83 54 8d bb
       -0.12907328 -0.07393184 0.007448473 -0.004313053
000360 a0 5d 0e be b2 8c 9e 3d 10 b4 f8 3d 4f 55 da 3c
       -0.13902903 0.07741679 0.12143719 0.026652006
000370 0a 28 b5 3d f4 9f e0 bc 08 fc 55 3c 6c 3b c5 bd
       0.088455275 -0.027420022 0.013060577 -0.096304744
000380 5a e4 7f bc f0 42 ea bc a0 6d 1b bd df 44 e3 bd
       -0.015618408 -0.028596371 -0.037946343 -0.110971205
000390 8e 49 14 3d f7 1a dd bd 39 4a 3d 3d 20 10 35 bd
       0.03620296 -0.10796159 0.046213362 -0.04420483
0003a0 74 ef 77 bb a6 9f 4e 3e 60 c5 d2 3d 19 02 e9 3d
       -0.0037831934 0.20178089 0.102915525 0.11377353
0003b0 0a 2b 9a 3d 7c 34 3b bd b1 8d a9 bd ab 53 d9 bc
       0.0752774 -0.04570435 -0.082789786 -0.026529154
0003c0 97 d6 8c bd 15 07 c7 bd 0b de 02 be 93 68 ff 3d
       -0.06876867 -0.09718148 -0.12780015 0.12471118
0003d0 9c d9 e9 3d a4 55 f7 3b 76 c8 8f bd 23 e6 9e bd
       0.11418459 0.007548051 -0.07020657 -0.07758739
0003e0 91 ff b2 bd 8f 74 0f 3d 4d e0 29 be 80 a7 de 3d
       -0.08740152 0.03502327 -0.1658947 0.10871792
0003f0 8c 99 b5 3d 16 93 a3 bd 11 db dd 3c ff 6f e9 bd
       0.08867177 -0.07987039 0.027081998 -0.11398315

lstm.bias_hh_l0 f4 [256]
000000 c2 4d 0d be 63 45 3c bd a3 9b 4c bd b8 76 84 be
       -0.13799194 -0.04596461 -0.049953114 -0.25871825
000010 42 16 0f be 20 b7 c5 bd de c8 a7 bc 30 85 05 3e
       -0.13973334 -0.09654069 -0.020481523 0.13039088
000020 6d 16 07 3e 8e ee a6 3d 86 ff bf 3d a4 8e 15 bc
       0.13192149 0.081509694 0.09374909 -0.009128246
000030 8b 22 9f 3d a8 0d fc bb 31 0a d1 3d e0 93 88 3d
       0.077702604 -0.0076920576 0.10207022 0.0666883
000040 6f 3a e5 3c 27 77 de bd 03 80 10 be 23 26 de 3d
       0.027981965 -0.1086257 -0.14111333 0.10847118
000050 f7 b5 4d 3c 5d df 16 3e ec 2b 89 3d d3 67 81 bd
       0.012555591 0.14733644 0.066978306 -0.06318631
000060 2c 96 cb bd df 16 ad bb 90 8c 22 bd 61 8b ab bd
       -0.099407524 -0.0052822675 -0.039684832 -0.08376194
000070 13 c6 88 bd 4c 9f 4b 3c c3 e7 04 3d 5c b3 41 bd
       -0.06678405 0.012428116 0.032447588 -0.04729019
000080 8a 31 22 be df 68 99 bd e5 b3 c6 bd f1 aa 4c 3d
       -0.1583921 -0.07490706 -0.09702281 0.04996771
000090 b5 0f 65 bd aa e8 fe bc f9 5b 1b 3d 7e 0e 9c 3b
       -0.055923183 -0.031116802 0.03792951 0.00476247
0000a0 aa 39 d8 bd 4b 3b c4 3d 6b 34 d4 3d 14 af 0e be
       -0.105578735 0.09581622 0.103615604 -0.13933975
0000b0 df e0 b2 3d b3 c8 97 bd 53 91 e2 3c b8 bc a4 3d
       0.08734297 -0.07411327 0.027657187 0.08043808
0000c0 b2 d6 30 3e 60 02 f3 bc ae 00 4d be 06 ab 07 be
       0.172694 -0.029664218 -0.2001979 -0.13248834
0000d0 2c c5 3a 3c 17 54 8e 3d d3 37 46 3d 95 eb 5d bd
       0.0113995485 0.069496326 0.048393082 -0.054179747
0000e0 ee 49 99 bd 9a 52 33 be 52 58 25 3d 29 23 82 3d
       -0.07484804 -0.17511979 0.040367432 0.063543625
0000f0 65 91 93 3c 1f d3 35 3e 90 0d 19 bd 32 5a a6 3d
       0.018013665 0.17756318 -0.03736645 0.08122672
000100 75 ed 6c 3b 2b a1 43 3d 46 98 26 be 3b 56 08 bd
       0.0036152278 0.047761124 -0.16269025 -0.03328536
000110 97 d5 20 bc 97 90 ef bd 79 19 90 bd 26 08 a3 bd
       -0.009816549 -0.116975 -0.070361085 -0.079605386
000120 70 7e 32 be d2 6c 9e 3d f1 45 93 bd 35 0f ac bd
       -0.17431045 0.077355996 -0.07191075 -0.08401338
000130 14 f7 0b 3d 8d d2 9a bc 93 43 82 bd 91 30 30 3d
       0.03417118 -0.018899227 -0.06360545 0.043015067
000140 54 54 3b bc ee 50 84 3d 51 9c 81 3d 6a 4c 24 3d
       -0.01143368 0.064607486 0.06328643 0.040111937
000150 43 7c fc bd 4e 45 3a bd 5a 19 0c 3e bb e3 53 bd
       -0.123283885 -0.04547625 0.13681546 -0.051730853
000160 96 3e ca 3d 5d 72 12 3e 59 01 fc bd 1e be 0c bc
       0.098752186 0.14301439 -0.123049445 -0.008590249
000170 e7 99 92 3d 17 c7 17 3e e8 0d 91 3d ea 56 cc 3d
       0.07158261 0.1482204 0.070827305 0.09977515
000180 38 f4 ac bd 89 44 44 3b 16 4c db 3d d0 d9 ed bc
       -0.084450185 0.0029948077 0.107078716 -0.029034525
000190 65 00 1c 3e 7e ac fe bd 6d 3f a3 3d f2 af 8e bd
       0.15234526 -0.12435244 0.07971082 -0.06967153
0001a0 f8 23 4b 3c a4 e9 8c bd f3 a9 92 bc e6 b2 fa 3d
       0.012398712 -0.06880501 -0.017903304 0.122411534
0001b0 a6 f6 8a 3d 86 2d 85 3d a9 7d 17 bc 26 ef 0d 3e
       0.06785326 0.065028235 -0.009246268 0.13860759
0001c0 90 2f 54 3d b4 c5 5e 3e a3 ad bd 3d 34 36 23 3c
       0.05180317 0.21755105 0.09261634 0.0099616535
0001d0 1e 31 d1 3d 5f 90 15 3b 01 ed d3 bc af 5f dc 3d
       0.102144465 0.0022821648 -0.025869848 0.10760438
0001e0 60 0f 51 bd 7d 8f de bc 96 2b eb 3c 00 a3 d2 bc
       -0.051040053 -0.02716803 0.028707307 -0.02571249
0001f0 43 dd a8 3c 79 21 c8 3c 0b e5 0e 3d 0e 7d 89 bd
       0.020613318 0.024430024 0.0348864 -0.067133054
000200 6d 3b b3 3d a6 5f b6 3d bd 38 3b be fb 82 5d bc
       0.08751569 0.08904962 -0.18283363 -0.013519998
000210 94 2d 19 3e e7 c2 8f bd a4 01 15 3b e4 f0 13 3e
       0.14958793 -0.070195965 0.0022736574 0.14447361
000220 b1 f9 37 be ca e3 68 bd a3 7e 80 3d 92 6f 54 3d
       -0.17966343 -0.05685786 0.06274154 0.051864214
000230 7a a7 4f be 5a 92 0e bd 63 de 33 bc 3a 65 a3 bd
       -0.20278731 -0.03480754 -0.010978314 -0.07978292
000240 80 02 b5 bc 08 e8 41 3e 01 ec af 3c 04 d4 c1 ba
       -0.022095919 0.18936169 0.02147484 -0.0014787917
000250 2a 37 56 bc bb 24 3b bd 16 5b 59 3e 90 6e f5 3d
       -0.013074676 -0.045689326 0.21226153 0.11983979
000260 14 b7 87 3d 45 36 f7 3d 08 48 a6 3c 9f 71 a3 bd
       0.06626716 0.12070898 0.020298019 -0.07980656
000270 7c 7d 9c bd 40 0f c2 bc 8f 0c ee 3a 44 6e ca bc
       -0.07641122 -0.023688912 0.0018161702 -0.024710782
000280 1d d1 bc 3d fb 65 0a 3e 3d 7c d6 bd 5b 9d 57 3d
       0.09219573 0.13515465 -0.10472915 0.0526403
000290 56 13 10 3d a9 2a a5 bc 3f 83 1f be 19 2f 82 3d
       0.03517469 -0.020161944 -0.1557741 0.063566394
0002a0 01 9e 38 bd bc e9 0b 3d 99 50 13 be 1e 5b 10 3e
       -0.04507256 0.034158453 -0.14386214 0.14097258
0002b0 57 3b 98 bd 7d 50 0e 3e 8a 02 d0 3d 89 c3 11 bd
       -0.07433193 0.13897891 0.10156734 -0.035586867
0002c0 5b 69 b1 3d 38 41 3a 3d fc d2 a3 3d ea a3 5a 3d
       0.08662673 0.045472354 0.079992265 0.053378977
0002d0 43 07 34 3e e0 04 09 bd 87 d5 f7 3c cf 7c 09 be
       0.17580895 -0.033451915 0.030253185 -0.13426517
0002e0 34 29 e8 bd 78 b2 3c 3e 7d 30 18 bd 64 ea 0e 3d
       -0.11335984 0.18427455 -0.037155617 0.0348915
0002f0 85 c9 df bd ca 2b 73 3d 88 86 06 3e 9e 73 e0 bd
       -0.10927109 0.059367932 0.13137257 -0.10959552
000300 13 1f 05 3e 78 d8 d4 3d ea d3 68 bd 7d 9f 51 bd
       0.13000135 0.10392851 -0.056842722 -0.05117749
000310 31 91 26 3e 49 5b a9 bd 47 b7 ad 3b a3 44 9c bd
       0.16266324 -0.082693644 0.0053013894 -0.07630279
000320 5e a2 0c be ee 1c bb 3d 3e 80 05 3e a3 1c f7 bb
       -0.13733813 0.09136377 0.13037202 -0.0075412556
000330 5d 55 99 3b 27 fa 99 3d e4 ac 2d bd 13 4b ef 3b
       0.0046793655 0.07518416 -0.04240121 0.0073026507
000340 27 79 86 3d dc a0 c0 3d ee 92 b7 3c e7 17 1d be
       0.06566077 0.094056815 0.022408929 -0.1534115
000350 a6 c0 9c 3d 71 8c 6c bd 6d da ed 3d b4 d5 9a ba
       0.07653932 -0.057751123 0.11613927 -0.0011812956
000360 e8 45 1a 3d f2 d7 11 3d d5 2a ed 3d 09 17 ec bd
       0.037664324 0.035606332 0.11580435 -0.11527831
000370 5f b3 14 3e 90 53 b1 3d d8 18 26 be 8e a4 0f 3e
       0.1452155 0.086585164 -0.16220415 0.14027616
000380 09 35 29 3d bb 75 80 3d 14 74 fe 3c cb 5a 62 bd
       0.041310344 0.06272455 0.03106121 -0.05526237
000390 74 6d ea bc 7f 79 a0 3d 96 a1 86 3c 6c 79 ce bc
       -0.028616644 0.078356735 0.016434472 -0.025204383
0003a0 fe c5 8a bd 4a cf 30 3e 79 a8 12 3e 9e f2 43 3c
       -0.06776045 0.17266575 0.1432208 0.0119597
0003b0 be 53 ba 3c 48 8b 57 3c 57 db 22 bd 4f a3 ed 3d
       0.02274501 0.013155766 -0.03975996 0.11603414
0003c0 cf f2 96 3c ba d4 a1 3b b4 96 c7 3d 54 72 2f bc
       0.018426327 0.004938689 0.09745541 -0.01070841
0003d0 34 10 9a bc 3d 64 1e 3d 68 a4 8f bd d7 11 95 3d
       -0.018806554 0.038669813 -0.0701378 0.07278793
0003e0 ae 67 3c bd 7b f8 2a bd c5 ec 6c bb bb 16 e2 3c
       -0.045997314 -0.041740876 -0.0036151868 0.02759873
0003f0 d4 6b 0e 3e cc 8a 64 bc 58 2c b4 3c 93 5f bc 3d
       0.1390832 -0.013949107 0.021993801 0.09197917

lstm.weight_ih_l1 f4 [256, 64]
000000 42 03 ce bd ca 57 54 be be cc ba bc 10 d7 35 be
       -0.10059215 -0.20736614 -0.022802707 -0.17757821
000010 d2 dc 97 bd c0 39 eb 3d ec b7 68 3c 40 4b 5e 3d
       -0.07415165 0.11485624 0.014204007 0.054270983
000020 36 a4 59 3d c0 83 7a bd 90 ba 35 3d 3b 26 d9 bd
       0.05313512 -0.061160803 0.044367373 -0.10602995
000030 2e 3f c2 3d 78 35 2c bd 22 ca b2 bd 83 d7 01 be
       0.09484707 -0.04204318 -0.0872996 -0.12679867
000040 80 4e 6a bd 39 30 82 bd 67 f3 d2 3d b9 d9 8f bc
       -0.05720377 -0.06356854 0.103003316 -0.017559873
000050 79 bf 40 bd eb f2 fe 3d b1 06 0d 3b 76 8a 2e be
       -0.047057603 0.12448677 0.002151888 -0.17045006
000060 35 33 49 bd b6 14 74 bc 12 63 71 be f3 36 86 3d
       -0.0491211 -0.014897516 -0.23572949 0.065534495
000070 e9 99 58 bc a9 bb 2c bd bb e4 04 be 1e 5b 22 be
       -0.013220289 -0.042171154 -0.12977879 -0.15855071
000080 12 b0 2c bd 8c a6 db bd 42 54 d0 3c 9d 26 3d bd
       -0.0421601 -0.10725126 0.025430802 -0.046179403
000090 bb 0c d7 bd 13 fd 42 bd 4a fb 80 bd 48 da b0 3d
       -0.10500475 -0.04760463 -0.062979296 0.08635384
0000a0 b1 22 2e 3b 08 ed 4a 3d 39 0e c0 bd 47 d8 fb 3c
       0.002657097 0.049542457 -0.09377713 0.030742778
0000b0 3a 55 11 be cf c2 cf bc ed 95 28 bd 2c fb 1f be
       -0.14192668 -0.025361447 -0.041158605 -0.15623158
0000c0 97 0c e2 bc 36 c6 88 3d fa eb c3 bd bc f8 9a bd
       -0.027593894 0.06678431 -0.09566493 -0.075669736
0000d0 a5 49 a4 3d 60 ad fa 3d 36 aa 37 3d 57 4b c4 3d
       0.08021859 0.122401 0.04484006 0.095846824
0000e0 14 d8 52 3d a8 d1 5d 3c 37 48 19 bd 8e 34 56 3d
       0.0514756 0.0135387555 -0.037422385 0.052296214
0000f0 5f 0e c3 bd ea 9e 90 3d a4 5f 90 3d a9 36 21 3e
       -0.095242254 0.070615605 0.07049492 0.15743507
000100 f3 48 a9 bd 11 40 a7 3b d6 16 68 3d 37 1c 39 3d
       -0.08265867 0.005104073 0.056662403 0.045192923
000110 98 07 ae bc 6d 69 dd 3d 30 c5 ce 3d b0 58 cc 3a
       -0.021243855 0.10811124 0.10096204 0.0015590396
000120 6d 80 d5 3c d7 c8 23 3e 34 d7 ae 3d b4 7f 36 3c
       0.026062215 0.15994583 0.085371405 0.011138845
000130 bd c2 c9 bd 94 11 94 bd 7b 0f 90 bc 19 3d 04 bd
       -0.098515965 -0.07229915 -0.017585507 -0.03228483
000140 58 30 99 3d 7c 29 ad 3d 11 cd 1c 3e e8 47 f4 3d
       0.07479924 0.08455178 0.15312602 0.119277775
000150 8e b7 2e be 35 0e 38 3e 00 af 56 3d f0 6b 25 3d
       -0.17062208 0.1797417 0.052412987 0.04038614
000160 ab 11 f9 3c 45 68 47 3d b2 ed 96 bb 24 da e9 3d
       0.030403933 0.048683424 -0.004605972 0.1141856
000170 99 48 09 3e cc 47 45 3e 0f e7 c4 3d 54 d5 3b bd
       0.134066 0.1926567 0.096143834 -0.045857742
000180 75 90 09 be d9 da ee bc 85 34 aa bb cf 61 47 3d
       -0.13434012 -0.02915709 -0.005194249 0.048677262
000190 b9 c6 39 3d d8 6f 10 3e 8c a1 ad bd c4 b3 21 be
       0.045355532 0.14105165 -0.08478078 -0.15791231
0001a0 db 47 ea bd dc 64 25 be 54 35 bc bc 11 bd 8f 3d
       -0.114394866 -0.16151756 -0.022974648 0.070184834
0001b0 1c 84 bb 3c 3a f0 00 bd 62 be b8 bd 18 2b 29 be
       0.022890143 -0.031479098 -0.09020688 -0.16520345
0001c0 26 58 2c bc a8 ea 82 3e a4 79 e0 bd 88 b6 c8 3c
       -0.010519063 0.25569654 -0.10960701 0.0245011
0001d0 7b 59 86 bc e4 69 1e ba eb 0c 11 3e bd d6 7c bd
       -0.01640009 -0.00060430006 0.14165084 -0.061728228
0001e0 f4 26 a2 3d b0 e8 99 bc e1 ae 9d bc aa 4c 16 be
       0.07917586 -0.018787712 -0.019248428 -0.14677683
0001f0 78 8a c6 3d e6 dd 21 bd b0 30 93 bc 02 90 68 3d
       0.096943796 -0.03951826 -0.017967552 0.05677796
000200 c1 bb de bd 91 b9 b1 3d 76 b0 3f 3e 57 6e d7 bc
       -0.10875655 0.08677972 0.18719658 -0.026297731
000210 41 1d 21 3d 2d 83 14 bd 9c ed b0 3d d8 2f 05 be
       0.03933454 -0.03625791 0.086390704 -0.13006532
000220 0a 03 8f bd 86 2b 5b bd 29 07 38 bd 67 2c b2 bd
       -0.069830015 -0.053508304 -0.044928703 -0.08699875
000230 6b 63 63 3d 49 55 97 3d df 3f 9b bc 90 6a aa 3b
       0.055514734 0.07389314 -0.018951355 0.0052006915
000240 55 3c 7c 3d 4b c5 51 bc c3 7d 23 be cf 24 22 be
       0.061580975 -0.012803386 -0.15965943 -0.15834354
000250 3a 5d 73 bc 05 68 de bd a8 b3 ee 3d f8 5a 03 bd
       -0.01485377 -0.10859684 0.116553605 -0.032069176
000260 7b 48 7b bc 7d ab e2 bd 12 94 e4 bd 18 0f 0e bd
       -0.015337105 -0.11067865 -0.11161055 -0.034682363
000270 0a a1 cd bd bf f8 12 3b 2f 7a 17 be 82 fa ff 3c
       -0.100404814 0.0022426096 -0.14792703 0.031247381
000280 82 cc ae 3d ab 02 14 3d 91 30 16 3b 24 f1 db 3c
       0.085351005 0.036135357 0.0022917131 0.026848383
000290 52 4f 99 bd 16 1f b8 3d a5 30 e0 bc 6c 3b d1 3d
       -0.07485832 0.08990304 -0.027366946 0.10216412
0002a0 ca 6f 40 be 14 53 69 bd 55 7c c3 bd 3d 94 50 bc
       -0.18792644 -0.056963995 -0.09545199 -0.012730655
0002b0 f0 7b 4c 3d 11 47 16 be b9 f1 10 bd b5 a3 f1 39
       0.049922884 -0.14675547 -0.035386775 0.00046089073
0002c0 84 be d9 bd 37 a3 40 3d 03 97 02 3d d6 8a 7e bd
       -0.10632041 0.047030654 0.031882297 -0.062144123
0002d0 c9 a2 3e bd a3 37 88 be 01 7f b1 38 4b 3b ea 3c
       -0.046541963 -0.26604947 8.463674e-05 0.028592726
0002e0 54 f4 d6 bd f8 ff 60 3d 76 4e a0 bd 5d 44 54 bd
       -0.10495821 0.05493161 -0.07827465 -0.05182301
0002f0 75 7d a3 bc 79 16 1f 3e 46 f7 16 bb ce 30 12 3d
       -0.019957284 0.15535916 -0.002303557 0.035691075
000300 56 73 01 bc bf cb c0 bd d5 ec 61 3d 44 cf 1b be
       -0.007901033 -0.094138615 0.0551575 -0.15215784
000310 29 e6 fd 3d bc c2 e8 3d 48 d0 c8 3d 5c fd 06 be
       0.12397415 0.11365268 0.098053515 -0.13182586
000320 5f df e8 bb bf 8f de bd 80 04 6e 3d cb 93 8b 3b
       -0.007106706 -0.10867261 0.05810976 0.0042595617
000330 73 c0 2f 3e b2 13 c4 bd 66 18 eb 3d e5 30 3d bd
       0.17163257 -0.09574069 0.11479263 -0.046189208
000340 8c 0e 3d be 76 95 b8 bd 03 85 b1 3e 90 a5 34 3d
       -0.1846258 -0.090128824 0.34671792 0.044103205
000350 d2 e3 9d 3b 32 5d df bc e8 c2 40 3d 9d 97 99 3d
       0.004818418 -0.027266119 0.047060877 0.07499621
000360 05 c0 3a 3d a3 d0 e0 bc 04 42 4d bd f5 f1 13 be
       0.04559328 -0.027443236 -0.050111786 -0.14447768
000370 3c b8 19 3e de 97 ea 3c 14 ff 1a be e2 7e 0b bd
       0.15011686 0.028636869 -0.15136367 -0.03405655
000380 0a 81 20 3d e1 55 30 be b6 13 45 bd 62 c3 09 3e
       0.03918556 -0.1722026 -0.0481145 0.13453439
000390 fb ad b0 3d 7c 30 f4 3c d3 86 69 3d 84 64 80 3d
       0.08626934 0.029808275 0.057013344 0.06269172
0003a0 c1 96 42 bc c7 d3 00 3e ea 57 8d bd 91 60 64 bd
       -0.011876763 0.12580787 -0.06901534 -0.055756155
0003b0 cc 85 3a bd c3 a8 3f 3d 05 32 14 3d 62 74 a3 bd
       -0.045537755 0.046791803 0.036180515 -0.07981183
0003c0 6a ab ca 3d e8 ee ae bd af 4c 05 3e 07 8a e3 3c
       0.09895976 -0.085416615 0.13017534 0.027775778
0003d0 38 b5 08 3e 52 35 9f bd 3d d8 4f 3d 50 e6 b3 3d
       0.1335038 -0.07773842 0.05074333 0.08784163
0003e0 5e 2d fc bc 1b a6 14 be cd 3f 17 bc dd 70 2f 3a
       -0.030783352 -0.14516489 -0.00923152 0.0006692538
0003f0 06 53 2f bc 64 51 91 3d 48 68 3b 3e d3 32 bb 3d
       -0.010700947 0.07095602 0.18301499 0.09140553

lstm.weight_hh_l1 f4 [256, 64]
000000 cb 83 27 bd 71 84 37 bd d5 bf ad 3d 70 16 a7 bc
       -0.040897172 -0.04480404 0.08483855 -0.020396441
000010 af 6a b4 3d 5e 75 8c be e0 48 af 3d 2e 7b 58 bc
       0.08809411 -0.27433294 0.08558822 -0.013212962
000020 83 40 e9 3d 53 57 c6 3d 9c 41 b1 3c 5d 72 e7 3d
       0.11389258 0.096846245 0.02163773 0.1130111
000030 71 25 95 bd e7 3f 3b be 0f a3 63 bd ee e7 2c be
       -0.07282532 -0.18286096 -0.055575427 -0.16885349
000040 fa 39 7d bd d1 86 ae bc 0b 63 79 bc 10 91 c5 bd
       -0.06182287 -0.02130452 -0.015221368 -0.09646809
000050 1e 52 0c 3d bf 68 81 3d 89 82 c7 3d e3 26 c1 3c
       0.034258 0.06318807 0.097416945 0.023578113
000060 ca b3 46 3e e9 02 d2 bd 1e 34 2d bd 5a 57 cf 3d
       0.19404522 -0.10254461 -0.04228603 0.10124083
000070 24 e7 15 be 89 05 59 3d 84 2b 9c 3d b2 b9 c1 3d
       -0.14638954 0.052983794 0.076254874 0.09459247
000080 a7 ba 03 3c 65 6f f7 3c 14 f3 85 3c bd fe 83 3d
       0.008040107 0.030204484 0.01635126 0.06445072
000090 50 6a 79 3d c7 38 5c 3d 2f 19 b0 3d 19 ea f2 bc
       0.060892403 0.053765085 0.085985534 -0.029652642
0000a0 06 0c 97 ba 54 f1 2f 3e 09 b2 05 bd a7 ce fc 3c
       -0.0011523969 0.17181903 -0.03264049 0.030860258
0000b0 fa 09 2a 3d 6b f8 60 3c e0 a0 0c 3e dd bf 09 be
       0.04151342 0.013731102 0.13733244 -0.13452096
0000c0 c6 73 ac bd 4b cf 29 3e f4 a3 14 3e 4a 5a e0 3d
       -0.084205195 0.16582982 0.14515668 0.10954721
0000d0 dd a5 35 be 22 98 b1 bc c8 b6 eb 3c 72 8d af bd
       -0.17739053 -0.021678988 0.02877368 -0.085719004
0000e0 c4 6d 2f be 09 8a cc bd fb 74 76 3c b0 b3 f4 bd
       -0.17131716 -0.099872656 0.015042539 -0.11948335
0000f0 79 8b 8b bd 2f 4c 47 bd 40 68 d4 3d 79 6b 5f 3e
       -0.06813712 -0.04865664 0.103714466 0.21818341
000100 9c f1 05 3d df 72 26 3d 7d 95 0e 3e 23 be af bd
       0.03270112 0.040636893 0.13924213 -0.085811876
000110 7b 82 38 3c 1b 61 b7 bd 22 28 f0 bd 92 71 c0 3c
       0.011261578 -0.08954068 -0.11726405 0.023491655
000120 39 ad 45 bd fd 3e 44 be 31 dd da 3d 1b 61 2c be
       -0.0482609 -0.19164653 0.1068672 -0.16833918
000130 b0 a2 90 3d 74 25 fe bc 5b f0 73 be 4c 7a c3 bd
       0.0706228 -0.031023718 -0.23822157 -0.09544811
000140 0f 50 0d 3e 28 6c 8b 3c aa 1b 9d 3d 9c af 02 be
       0.13800071 0.017019346 0.07671292 -0.12762302
000150 93 a4 1b be 9b 13 4b 3d 66 e1 9a bc 6e 8f 24 3a
       -0.15199499 0.049579244 -0.018906306 0.0006277476
000160 d2 ad bc bd b3 65 cb 3c 39 cd 98 3d 29 fc f1 bd
       -0.09212841 0.024828767 0.07461018 -0.11815674
000170 ab ed 55 3c d8 15 40 bc 9a 9e 9e bd fa e4 1f bc
       0.013057153 -0.011723958 -0.077450946 -0.009759182
000180 a8 36 fb 3c 4a 84 9c 3d 22 dd 16 be a9 63 5c bd
       0.03066571 0.0764242 -0.14732793 -0.05380598
000190 dc ac 1b bd 35 48 8c bd eb 7b 8b bd 94 a1 4c be
       -0.03800665 -0.0684971 -0.06810745 -0.19983512
0001a0 7c ba db bd 7f 8a 55 be d6 b4 20 3d 5a 8f 62 be
       -0.107289284 -0.20853613 0.03923496 -0.22124997
0001b0 dc 3b 5d bd b4 e7 e7 bd 6b 73 5c bd 59 02 27 3d
       -0.054012164 -0.11323491 -0.05382101 0.040773723
0001c0 d6 e6 67 be 14 61 a8 bd b7 97 db 3d c3 fb a2 bd
       -0.2264665 -0.08221641 0.10722297 -0.07958176
0001d0 7b 62 12 3e 64 0d ac bb 1a ce e7 3d 1d 30 9f 3d
       0.1429538 -0.0052506197 0.11318608 0.07772849
0001e0 0c ed e9 3d 2d ec d5 39 bc 29 70 bc 78 b3 a3 3d
       0.11422166 0.0004080249 -0.014658388 0.07993215
0001f0 bc e7 82 bd 5d b0 8d 3d d5 25 ba bc 6a 1e 2d be
       -0.06391856 0.06918404 -0.022723118 -0.16906133
000200 74 aa cc 3d c7 44 15 3d 3f 66 ae 3c 75 e2 95 3c
       0.09993449 0.036442544 0.02128899 0.01829646
000210 e3 78 44 3d 43 e2 3d be 3b 11 0e bc 0e a1 db 3c
       0.04796685 -0.18543343 -0.0086711 0.026810195
000220 8d 4c 47 3d 99 f1 b1 bd c0 db 37 3d f0 d3 9a bd
       0.04865699 -0.08688659 0.044887304 -0.07559955
000230 be bc 88 3a 31 ba c3 3c 27 32 90 bb 31 24 98 3d
       0.0010432226 0.023892494 -0.00440051 0.07428778
000240 f2 68 e3 3d 35 51 29 3d 51 00 76 3d 2a 12 e4 3d
       0.11104001 0.04133721 0.060058895 0.11136277
000250 d6 60 91 3c 19 f7 53 bd f2 f6 a8 3d 09 c1 26 3d
       0.01774637 -0.051749323 0.08250226 0.040711436
000260 9c b3 34 bd d0 a6 d3 3d 43 02 53 3e 9a e6 eb bc
       -0.0441166 0.10334551 0.20606332 -0.028796483
000270 f4 c4 a4 bd 47 8e c3 bd 92 61 a3 3d e5 87 61 bd
       -0.08045378 -0.095486216 0.079775944 -0.05506124
000280 d5 38 a9 3d 32 d9 14 be 7a 1f 8b bd ba d2 74 3e
       0.08262793 -0.14535978 -0.06793113 0.23908511
000290 5c 1b bd 3d a3 9d 5c bd c4 9b d8 3d cb 3b 42 be
       0.09233734 -0.05386127 0.10576585 -0.18968122
0002a0 f0 10 e0 3d 07 73 42 be 44 8e ea 3d ce f4 c6 bc
       0.109407306 -0.18989192 0.11452916 -0.024286654
0002b0 ee 78 44 3e db eb 97 bd db 28 1c 3d 21 bf a7 3d
       0.19186756 -0.07418033 0.0381249 0.08190752
0002c0 95 81 eb bc 2a 44 b4 bd 08 ea 96 3d 42 bd 28 bd
       -0.028748313 -0.08802064 0.07368857 -0.041196115
0002d0 2d 93 75 3d 64 7b 46 3b fd ef 83 3b 6a 47 6d bd
       0.05995481 0.003028595 0.0040264116 -0.057929434
0002e0 70 3d c8 bd 0f 0f 60 3d 69 0c 5e 3d 76 77 b7 bd
       -0.09777343 0.05470186 0.054211054 -0.08958332
0002f0 d7 a8 e1 bd 37 29 b2 bd c8 85 c9 bc f7 78 7a ba
       -0.11018532 -0.08699267 -0.024599925 -0.00095547683
000300 10 22 7a bd f0 0b 38 be a6 c5 6f 3d 52 f4 21 bd
       -0.06106764 -0.17973304 0.0585381 -0.039539643
000310 11 dd f3 bd 4a 87 ef bc 9f b1 54 bd 14 c3 a9 bd
       -0.119073994 -0.029239316 -0.051927205 -0.08289161
000320 ff b1 4a 3e 85 0f 72 bc e0 8f 15 3e f1 9f a0 3d
       0.19794463 -0.014774208 0.14605665 0.078430064
000330 e0 c2 6a bd 9e 21 4c be 16 bc 28 3e fa ae 37 be
       -0.057314754 -0.19934699 0.16477999 -0.17937842
000340 21 a6 d9 3d b6 95 ad bd 25 39 f7 bc 6a c4 96 3d
       0.1062739 -0.08475821 -0.030178616 0.07361682
000350 13 33 f2 3d d8 32 79 3d 76 2b 40 3e 18 3e bb bd
       0.11826148 0.060839504 0.18766579 -0.09142703
000360 f6 72 70 3d 0f d0 0a 3e 72 41 4e 3e 9b 8e 3b bd
       0.058703385 0.1355593 0.20142153 -0.045790296
000370 76 aa bb bd 15 ea 62 bd ed 5f c3 bb 9d 45 fc 3d
       -0.09163372 -0.05539902 -0.005962363 0.12317965
000380 a4 25 6b 3b 88 91 ec 3d 4d f5 89 bd ab 30 1e 3e
       0.003588059 0.115511954 -0.067362405 0.15448253
000390 dd fd 0a 3e b5 7d 7e 3e af 74 5b 3e 87 bd d9 bd
       0.13573404 0.24852641 0.2143123 -0.106318526
0003a0 0b 5b 14 3d 81 85 b9 bd 74 55 32 bd f5 a6 05 bb
       0.036219638 -0.09058667 -0.043538526 -0.0020393704
0003b0 28 ea 04 3e 2a 0b de 3c 76 13 4f 3e 1c fe 17 be
       0.12979949 0.027104933 0.20222268 -0.14843029
0003c0 66 f8 94 bd 5d 2d bf bc fe d2 7f 3d ac 70 13 3d
       -0.07273941 -0.02333706 0.062457077 0.035996124
0003d0 1b 7c 3d be 8c 07 83 3d ef dd 00 bd f6 56 3f bc
       -0.18504374 0.06397924 -0.031461652 -0.011678448
0003e0 7f 5e 61 be db 85 16 bb 6c 01 2e 3d 12 42 29 be
       -0.22008704 -0.0022967968 0.042481825 -0.1652911
0003f0 60 12 59 be 30 77 01 bd 15 7b 9d 3c 49 c2 79 3d
       -0.21198416 -0.031607807 0.01922373 0.0609763

lstm.bias_ih_l1 f4 [256]
000000 3c db 64 3d 32 3f 95 bd 5f cb 85 bd 44 e6 81 bd
       0.05587314 -0.07287444 -0.065329306 -0.06342748
000010 a0 b1 78 bc de 9c 4e bd 8b d9 af bc fb cd 1d 3e
       -0.015179068 -0.05044257 -0.021466037 0.15410607
000020 bc 70 2f bd 25 1e 43 be 38 c7 da bd e6 b7 e1 bd
       -0.04283212 -0.19054468 -0.10682529 -0.11021404
000030 ac cc 83 3d 3c 98 ab bd a6 6b e0 bd db 78 96 bd
       0.064355224 -0.08378646 -0.10958032 -0.0734727
000040 d1 f4 33 3d 92 18 ff 3c 4f 28 7a 3d 70 4d d4 bd
       0.043934647 0.031139646 0.061073598 -0.103663325
000050 89 f4 8c 3d 2a 4a bc bd 62 35 d4 3c a2 2f aa bc
       0.06882579 -0.09193833 0.025904361 -0.020774666
000060 8b 02 e2 3d 08 43 05 3d a4 b1 11 bb 88 c0 c8 3c
       0.11035641 0.03253463 -0.0022231126 0.024505869
000070 4a 4f 03 3e f1 70 90 bc 8c 5f e6 3d 84 07 17 3e
       0.12823215 -0.01763198 0.11248693 0.1474896
000080 0e 50 29 be 95 86 41 be 08 73 f9 bd 24 a7 88 bd
       -0.16534445 -0.18898995 -0.121801436 -0.066725045
000090 80 ee 79 bd a3 fb b3 bd c1 e0 a9 bd 64 2b a2 3d
       -0.061018467 -0.0878823 -0.082948215 0.07918432
0000a0 f2 32 8e bc c4 c0 a4 bd 1c 9d b0 3d 66 86 98 3d
       -0.017358277 -0.080445796 0.08623716 0.074475095
0000b0 22 6d e3 bd 5d f0 9a bd df 74 b9 bd 3e c6 a4 bc
       -0.111048 -0.07565377 -0.090554945 -0.02011406
0000c0 a1 60 c9 3d 89 69 df bd 40 89 61 bb ce 66 01 3d
       0.098328836 -0.10908801 -0.0034414083 0.031592183
0000d0 9b 6d 98 bd 15 01 a3 3b c5 5d 02 bc a5 a7 05 bd
       -0.074427806 0.004974494 -0.007956927 -0.03263058
0000e0 ee a0 98 bd c3 81 02 be f2 e2 28 bd 6a 83 c9 3c
       -0.0745257 -0.12744813 -0.041232057 0.024598796
0000f0 cf 08 f7 3d f5 8d 8d bd 8a 28 39 3d 05 9c a3 3d
       0.12062227 -0.06911842 0.045204677 0.07988743
000100 73 f7 24 bd 5a 96 4e bd f8 fc db bd a6 d0 13 be
       -0.04027505 -0.050436355 -0.10741609 -0.14435062
000110 5c 1b 3d bc ab 80 b3 bd f9 18 d2 bd 5e ae a8 3d
       -0.0115421675 -0.08764776 -0.102586694 0.08236383
000120 ff 09 0a 3e 2a 46 75 3d 84 38 2c 3d 14 ef 0c bc
       0.13480376 0.059881367 0.042046085 -0.008601923
000130 42 20 3f bc 54 c5 f0 3c 26 78 38 bd d7 ff 17 3e
       -0.011665406 0.029390968 -0.045036457 0.14843689
000140 56 6a f2 bc 88 83 e9 bc b5 db f0 3d f4 5c 9a 3d
       -0.02959172 -0.028505102 0.11760656 0.07537261
000150 8f 03 53 bd 92 8b 59 3d 6b b4 04 3c ed c0 83 3c
       -0.051517066 0.05311162 0.008099656 0.016083205
000160 af ac ee 3c 69 92 05 bc 27 c0 e6 bc 9b 88 ff bc
       0.029135076 -0.008152583 -0.028167797 -0.031193068
000170 b5 d0 a1 3d 75 51 70 bd 00 dd a8 3d 8f ad a2 bd
       0.07901136 -0.058671433 0.082452774 -0.0794326
000180 a8 cb 90 3d 1b cf f5 bd b6 6a 56 3d 4d 1d 88 bd
       0.07070094 -0.12002393 0.05234786 -0.06646214
000190 80 81 f8 bd 0f 26 4b 3e a7 95 c5 3c 3f 50 02 3e
       -0.12134075 0.19838737 0.024119211 0.12725924
0001a0 46 ce 3a bd d9 e5 70 3d a9 40 9b bd 49 1d 35 3b
       -0.045606874 0.05881295 -0.07580692 0.0027635864
0001b0 5d 7b 5f 3d b3 69 ff bd 15 5b c9 3d 82 c7 1f bd
       0.054561008 -0.124713324 0.09831826 -0.039008625
0001c0 f1 d7 06 3e 1f f4 a7 3d 6b 73 b0 3c a0 43 ec 3d
       0.13168313 0.08200859 0.02153941 0.11536336
0001d0 5d 4b 33 bd b1 5b f6 bb b0 71 c7 3c e1 5b 23 be
       -0.043773044 -0.0075182547 0.024346203 -0.15953018
0001e0 16 06 b9 bd 66 23 06 3d e1 40 09 bd d4 b6 27 bb
       -0.09034364 0.032748602 -0.03350914 -0.0025591152
0001f0 0e 4a 69 3d fe 6c 1f 3d 43 80 c0 bc c1 ba b5 3d
       0.05695539 0.038922302 -0.02349866 0.08873511
000200 8e 77 c2 bd f2 e9 87 bd 33 df 62 bd 52 d1 ea 3b
       -0.094954595 -0.066364184 -0.05538864 0.007166066
000210 61 61 31 bc 1b 5e af 3d fb 81 13 3e 8a 3c 0f 3d
       -0.01082644 0.08562871 0.14405052 0.034969844
000220 c2 b6 c4 3d 9e e3 69 bd e9 09 79 3d 32 5d 99 3d
       0.09605171 -0.05710184 0.060800467 0.07488479
000230 8f 01 fb bd 6e be d0 bd 1a 18 63 bd fd c3 91 3d
       -0.12256157 -0.101925716 -0.055442907 0.0711746
000240 02 48 26 3c ba cb d0 bd 1e a5 fa 3d 2a 64 8c 3d
       0.010149004 -0.10195108 0.12238525 0.06855042
000250 10 fd 75 bd c0 6b 1f bd 32 46 62 bd 7c 89 22 3d
       -0.060055792 -0.038921118 -0.055242725 0.039681897
000260 01 a6 70 3d f5 7c 26 3d 4a c8 a6 3d 73 e4 4a bc
       0.058752064 0.040646512 0.08143671 -0.012383568
000270 21 d9 f3 bd 8d eb cb bc 2b c9 1c be 29 6f e1 bd
       -0.119066484 -0.024892593 -0.15311114 -0.1100753
000280 c8 81 b1 3d 7b bc 1b 3d d7 bc 06 3e 1d 07 7f 3d
       0.08667332 0.038021546 0.13157974 0.062262643
000290 38 d9 06 3e 84 09 a4 bd f5 74 10 3d 31 2b 82 3d
       0.131688 -0.080096275 0.03526779 0.06355894
0002a0 3a 7e 94 bd 08 2f e1 3d 27 4c 1d be ee 63 2b 3d
       -0.07250638 0.109952986 -0.15361081 0.041843347
0002b0 2b 55 9c bc 05 8d aa 3d 1b 17 a6 3d 01 d1 95 3d
       -0.01908358 0.083276786 0.08109876 0.07315255
0002c0 c2 00 44 3d 71 a7 e3 3d 25 eb c5 bd 8b c4 7d 3d
       0.047852285 0.11115921 -0.09663991 0.061955016
0002d0 bb 53 e8 bd bc bf 0a be 5a d3 f2 bc 51 a1 d0 bd
       -0.11344095 -0.13549703 -0.029641796 -0.10187019
0002e0 81 ff 7c bd 43 0a f2 bd 7e 33 e8 3d c0 b8 9c bd
       -0.061767105 -0.118183635 0.11337946 -0.07652426
0002f0 c3 9e ba 3d a1 89 a4 bd 16 70 43 bd 74 71 52 3c
       0.09112313 -0.08034063 -0.047714315 0.012844432
000300 4c 80 2a 3c 20 67 ea bd d1 5e 9f 3b 93 54 17 be
       0.010406565 -0.11445451 0.004863598 -0.14778356
000310 cb 02 29 bd 0a 57 74 3d 5a 1c e1 3d ce e6 4d 3e
       -0.04126243 0.05965332 0.10991736 0.20107576
000320 ad e5 82 bd 55 17 64 3d 88 e4 1a 3d 1c 5d ba bc
       -0.063914634 0.055686314 0.0378156 -0.022749476
000330 20 1d 37 3d a2 f7 9f 3d b9 30 27 3d 96 38 7d 3c
       0.04470551 0.07810904 0.04081795 0.015455386
000340 c9 65 92 3d a5 f4 a9 3d 07 e1 a5 3c c0 23 8f bd
       0.0714832 0.08298615 0.020248903 -0.06989241
000350 a8 df d2 3d 3f 51 1c bd 0f 60 4e 3d ff d4 8d bc
       0.10296565 -0.03816342 0.050384577 -0.017313479
000360 67 96 e7 39 74 13 32 3d 74 ce a3 3d 33 a5 24 3d
       0.00044171812 0.043475583 0.07998362 0.04019661
000370 fa 7b 92 bd ee 0c a3 bc b2 d9 cb bd 39 f3 2a bd
       -0.07152553 -0.019903626 -0.099536315 -0.04173586
000380 83 f5 23 3d 80 53 8f 3c 5a 71 03 3e 88 8d a1 3d
       0.04002906 0.01749587 0.12836209 0.07888323
000390 9f 3f d1 3c 1f 34 20 3e 2c 00 c1 3d ef 6c 71 3d
       0.025543032 0.15644883 0.09423861 0.058941778
0003a0 75 cb b4 3d dd 27 a1 bd 16 2b 6d bd d8 66 b2 3c
       0.08827869 -0.078689314 -0.057902418 0.021777555
0003b0 cb 85 f3 bb d0 8b c1 bd 5e bd ea 3d 10 49 e6 bc
       -0.007431721 -0.09450495 0.114619 -0.02811101
0003c0 7a c1 2c 3e 11 d3 96 bc 76 f2 c8 bd c1 14 46 bd
       0.1687068 -0.018411191 -0.09811871 -0.048359636
0003d0 fe 04 81 3d ed 12 29 bd a0 fe c6 bd aa 02 0e 3d
       0.0629978 -0.041277815 -0.097165346 0.03467051
0003e0 c6 1c 82 3d d1 4d 1b bd 4d cc 2b 3e f6 21 0c 3e
       0.06353144 -0.03791601 0.16777153 0.1368483
0003f0 7b 54 16 3d c0 70 46 bd 26 89 11 be 6e ec 4a bc
       0.03670166 -0.04844737 -0.14212474 -0.012385471
