src/util/AI/checkpoints/017.ckpt (torch, 353508 bytes, 14 tensors)

lstm.weight_ih_l0 f4 [256, 12]
0	0xbd400e7e	-0.04688882
1	0x3da6d781	0.08146573
2	0xbe235279	-0.1594943
3	0x3d0ae9ab	0.03391425
4	0x3dc0f0d8	0.09420937
5	0x3d9fcc39	0.07802624
6	0x3d70fc94	0.058834627
7	0xbc140809	-0.009035119
8	0xbdd57280	-0.1042223
9	0x3d193997	0.037408438
10	0xbddea4b9	-0.10871262
11	0xbd52caa7	-0.051462796
12	0xbe30762c	-0.17232579
13	0xbad8e883	-0.0016548786
14	0xbd86502e	-0.06558262
15	0xbdd721d2	-0.105044976
16	0xbd8719af	-0.06596696
17	0xbd7493c0	-0.059711218
18	0x3e00de39	0.12584771
19	0x3df14691	0.117810376
20	0x3db86434	0.09003487
21	0x3d1c86b0	0.038214386
22	0xbdba8b38	-0.09108585
23	0x3cf9f7b5	0.030513624
24	0x3d929fca	0.071593836
25	0x3defa546	0.11701445
26	0x3d39b8bf	0.045342203
27	0x3e01530c	0.12629336
28	0x3d2828b0	0.041054428
29	0x3e5280c5	0.20556934
30	0x3e4e65a6	0.20155963
31	0xbdd9e546	-0.106394336
32	0x3c4ba90c	0.012430441
33	0xbd1475e2	-0.036245234
34	0x3d3e68f7	0.04648682
35	0xbdb627d9	-0.08894319
36	0x3c9521f1	0.018204661
37	0x3d470473	0.048588227
38	0x3d8f4d35	0.06997148
39	0xbe53ab17	-0.20670734
40	0xbe49b625	-0.19698389
41	0xbbce801a	-0.006301892
42	0x3e3e1efe	0.1856651
43	0x3bebbdc2	0.0071942518
44	0xbe0be75d	-0.13662477
45	0xbd5eab62	-0.054362662
46	0x3e49827f	0.19678687
47	0x3c9b9672	0.018992636
48	0x3cf6ff7a	0.030151118
49	0xbd99f25a	-0.07516928
50	0xbd98be62	-0.07458188
51	0xbd62a4db	-0.055333
52	0x3d37d31a	0.044879057
53	0xbc9a9d16	-0.018873733
54	0x3db0a233	0.08624687
55	0x3e504a1e	0.20340773
56	0x3d129e1e	0.035795324
57	0xbd9119b6	-0.07084982
58	0xbdb63919	-0.08897609
59	0xbdc159ec	-0.09440979
60	0x3cb85cba	0.022505153
61	0x3d174b20	0.03693688
62	0x3d1b8bb7	0.03797504
63	0x3daa9a3a	0.08330198
64	0x3ca202fc	0.019776814
65	0xbdba3bf9	-0.0909347
66	0x3e7b59a5	0.24545915
67	0x3e95c869	0.29254463
68	0xbc9b54a6	-0.018961262
69	0xbd3bca03	-0.04584695
70	0xbc0052d4	-0.007832248
71	0x3d15fc3c	0.036617503
72	0x3df38a24	0.118915826
73	0x3c8e6111	0.01738027
74	0xbe1dab5a	-0.15397397
75	0xbe2ce95a	-0.16885892
76	0x3dc42356	0.09577052
77	0x3be900a8	0.007110674
78	0xbd86db29	-0.0658477
79	0x3dff827e	0.12476061
80	0xbd318d6e	-0.04334777
81	0xbd80932f	-0.06278073
82	0x3c13666b	0.008996586
83	0xba7db476	-0.0009678075
84	0xbd61960d	-0.05507474
85	0x3e04a543	0.12953667
86	0x3d5eebe0	0.054424167
87	0x3d456020	0.048187375
88	0x3db2998d	0.08720694
89	0x3db03025	0.08602933
90	0xbbc9e433	-0.0061612367
91	0x3e0391ce	0.12848589
92	0xbd47d4d6	-0.04878696
93	0xbca34004	-0.019927986
94	0xbd322b0f	-0.043498095
95	0xbd5e2cbf	-0.054241892
96	0xbc8aca6a	-0.016942222
97	0xbbd6eba5	-0.0065588527
98	0xbde89bd8	-0.1135785
99	0x3c33339c	0.010937598
100	0xbbf5f21b	-0.007505668
101	0x3d73d2aa	0.059527077
102	0x3e587078	0.21136653
103	0x3e8ab45a	0.27090722
104	0x3c9b9be1	0.018995227
105	0xbd45f61e	-0.04833042
106	0xbdc62945	-0.0967584
107	0xbc1e0051	-0.00964363
108	0x3d91972b	0.07108911
109	0xbd15c35b	-0.03656326
110	0x3dd5f7c0	0.10447645
111	0x3d91b35f	0.071142904
112	0xbd3b2e38	-0.045698375
113	0x3c26ccc5	0.010180657
114	0x3d9a7459	0.07541723
115	0xbe1bce65	-0.15215452
116	0xbe4bf93b	-0.19919293
117	0x3c423ea9	0.01185576
118	0xbcf7c12b	-0.030243477
119	0x3df75b2d	0.12077937
120	0x3cd92cfb	0.026510706
121	0xbda90d33	-0.08254471
122	0xbdea154b	-0.114298426
123	0xbd63d39a	-0.05562172
124	0x3e29d476	0.16584954
125	0x3d499f98	0.049224466
126	0x3de805e1	0.11329246
127	0x3deab0a8	0.11459476
128	0x3e03a698	0.12856519
129	0x3c0b1f42	0.008491339
130	0x3dc05064	0.09390333
131	0xbd5e506f	-0.054275926
132	0x3da82cab	0.08211645
133	0x3d585de4	0.052823916
134	0x3d44b4df	0.048024055
135	0xbdb78b22	-0.08962084
136	0x3d74b0a0	0.059738755
137	0x3c9849e1	0.018589916
138	0xbdcb2dff	-0.099208824
139	0xbe376974	-0.17911321
140	0xbe64b646	-0.22335157
141	0x3d39eb0d	0.045390178
142	0x3e299de7	0.16564141
143	0x3cd70a52	0.026250038
144	0x3d08198c	0.03322749
145	0x3c9926a3	0.018695181
146	0xbe0b97f3	-0.13632183
147	0xbde6c0cd	-0.112672426
148	0x3d13ddba	0.036100127
149	0x3e17d521	0.14827396
150	0xbd9734e1	-0.07383133
151	0xbe8c091e	-0.27350706
152	0xbdb30399	-0.087409206
153	0x3d084255	0.033266384
154	0xbd179320	-0.037005544
155	0xbdc595e7	-0.09647732
156	0x3ca3b13e	0.019981977
157	0x3d6d83e9	0.057987127
158	0x3d72d705	0.05928709
159	0xbd9c9553	-0.07645669
160	0xbe072fc1	-0.1320181
161	0xbdcadaba	-0.09905
162	0x3e18c2e1	0.1491809
163	0xbdf164af	-0.11786782
164	0xbe1e7d60	-0.15477514
165	0xbd91b1fd	-0.07114027
166	0x3c2a0d3e	0.010379134
167	0x3ce2165a	0.027598549
168	0xbd87772d	-0.06614528
169	0x3d2bbb22	0.04192651
170	0xbdba09e4	-0.09083918
171	0x3dc93f59	0.09826536
172	0xbd720e79	-0.059095833
173	0xbd99b47a	-0.07505126
174	0x3dd1cfaf	0.102446906
175	0x3d25f5e6	0.04051771
176	0xbdcdaab1	-0.100423224
177	0x3c3854c6	0.01125068
178	0xbc5f5eab	-0.01363341
179	0x3d39c80f	0.045356806
180	0xbd5e7716	-0.054312788
181	0xbd61e251	-0.055147473
182	0x3e17ff5a	0.14843503
183	0x3c7ec4f8	0.015549891
184	0x3e0c28fb	0.13687508
185	0x3c22c939	0.0099356705
186	0xbded688b	-0.115922056
187	0xbcf4f4e1	-0.029901924
188	0xbd0cdb50	-0.03438884
189	0xbdb1b239	-0.086765714
190	0xbd39cc8a	-0.04536108
191	0x3e02901b	0.12750284
192	0xbd90b7eb	-0.070663296
193	0x3cb05974	0.02152703
194	0x3d7e95fb	0.06215475
195	0x3e2ad43b	0.16682522
196	0x3d9e1e5e	0.07720636
197	0x3d6e1492	0.058125086
198	0xbd72176b	-0.059104364
199	0xbe2b3af9	-0.16721715
200	0xbd26b7d1	-0.040702645
201	0xbcb8e146	-0.022568356
202	0xbdb89657	-0.0901305
203	0xbd054484	-0.032536045
204	0xbd9ac977	-0.075579576
205	0xbd164ba8	-0.036693245
206	0xbd2c0b5b	-0.042003017
207	0xbe54db89	-0.20786871
208	0x3cbfdb1a	0.023419905
209	0x3e426460	0.18983603
210	0x3cdd558b	0.02701833
211	0xbde6e60f	-0.11274349
212	0x3da71698	0.08158606
213	0x3a64a5e5	0.000872223
214	0x3e072e3b	0.1320123
215	0xbdfc5b28	-0.12322074
216	0xbe06667f	-0.13125037
217	0xbc1fbdeb	-0.00974987
218	0xbd6a641f	-0.05722439
219	0x3dc62d94	0.09676662
220	0x3d60cde7	0.054883864
221	0xbe189bb2	-0.14903143
222	0xbe6cf582	-0.23140529
223	0x3dcc250d	0.099680044
224	0x3d4317d8	0.04763016
225	0x3d6826f4	0.056677774
226	0xbe48d68c	-0.19613093
227	0xbdc3cb49	-0.09560258
228	0xbe5abe18	-0.21361578
229	0x3c8a79d9	0.016903805
230	0xbdd2b8ac	-0.102891296
231	0x3d90a75b	0.070631705
232	0x3e017e8f	0.12645935
233	0x3d08042d	0.033207107
234	0xbd8d60f7	-0.0690326
235	0xbd0e7e95	-0.034788687
236	0x3cb37891	0.021908076
237	0x3db10b5c	0.08644745
238	0xbd8e3872	-0.0694436
239	0x3c84940b	0.016183874
240	0xbdd0dd7a	-0.10198493
241	0x3e2f41bb	0.17114918
242	0xbdd5d196	-0.10440366
243	0xbadb4943	-0.0016730208
244	0xbcf85582	-0.03031421
245	0xbdafc242	-0.085819736
246	0xbd56490d	-0.05231576
247	0x3dfd7303	0.12375452
248	0xbd940f5f	-0.07229494
249	0xbdaede5e	-0.08538507
250	0x3d60bb51	0.05486614
251	0x3cc7b959	0.024380373
252	0xbb841cd4	-0.004031757
253	0x3d86f0c4	0.06588891
254	0xbdefdccd	-0.11712036
255	0x3d3d20bc	0.046173796

lstm.weight_hh_l0 f4 [256, 64]
0	0x3d326e89	0.043562446
1	0xbd829ce0	-0.06377578
2	0x3e229089	0.15875448
3	0xbcad654f	-0.021166472
4	0x3d868575	0.06568424
5	0x3e45a971	0.19302918
6	0xbdadfc00	-0.08495331
7	0xbcbfa44a	-0.023393769
8	0x3df49b2f	0.119436614
9	0x3e3981fc	0.18115991
10	0x3da41fa4	0.080138475
11	0x3ce74b5e	0.02823418
12	0x3e49dab6	0.19712338
13	0xbdc7f1dc	-0.09762928
14	0x3df4f0a8	0.11959964
15	0x3d5b7673	0.05357976
16	0xbd39562e	-0.045248203
17	0x3d80f819	0.06297321
18	0x3b5da3a2	0.0033819457
19	0x3d09fc55	0.03368791
20	0xbd035acb	-0.03206901
21	0xbdbae1f8	-0.09125131
22	0x3c439215	0.011936684
23	0xbc877b6a	-0.01653834
24	0x3e2dc9a7	0.16971456
25	0xbd5c3b24	-0.05376734
26	0xbe0f7a23	-0.14011435
27	0xbb94dcb1	-0.00454291
28	0x3da921b1	0.08258379
29	0x3d93534b	0.07193621
30	0xbdf90bd0	-0.12160456
31	0xbd8bee00	-0.06832504
32	0xbd8f37a9	-0.06993038
33	0x3b9285fe	0.0044715395
34	0x3d8cab03	0.068685554
35	0xbde74cf9	-0.11293978
36	0x3a302753	0.0006719727
37	0x3d13576a	0.035972036
38	0xbd8ba0ea	-0.06817801
39	0x3d8e2d2f	0.06942212
40	0xbd68cc5d	-0.05683552
41	0xbd4cb96a	-0.049981512
42	0x3cabd57f	0.020975826
43	0xbdefc38f	-0.11707222
44	0xbd8d700f	-0.06906139
45	0xbe3892bb	-0.18024723
46	0xbddc66fc	-0.1076183
47	0xbe22a977	-0.15884958
48	0x3da9286c	0.08259663
49	0x3d978c42	0.07399799
50	0x3dc25a8d	0.094899274
51	0x3d78ef2a	0.06077496
52	0xbe496bc0	-0.1967001
53	0xbb232bf4	-0.0024898024
54	0x3e5d017e	0.215826
55	0xbdb37deb	-0.08764251
56	0x3d109350	0.03529674
57	0x3df26494	0.1183559
58	0xbe0a2b05	-0.13492973
59	0xbd901790	-0.07035744
60	0xbd7dda79	-0.06197593
61	0x3e20d741	0.15707113
62	0x3cacd227	0.021096302
63	0x3ddaa9c3	0.10676911
64	0x3d5170b1	0.05113286
65	0xbdaf1c9d	-0.085503794
66	0x3e848259	0.25880697
67	0x3dbeb3ba	0.09311624
68	0x3d8caa78	0.06868452
69	0xbdc26730	-0.09492338
70	0xbd3c2d69	-0.045941744
71	0xbd715318	-0.058917135
72	0xbd84f949	-0.0649286
73	0xbe2353b2	-0.15949896
74	0x3dde004e	0.10839902
75	0x3cb8ef4b	0.022575041
76	0x3c24ebad	0.010065955
77	0xbdbc070a	-0.0918103
78	0xbe344967	-0.17606126
79	0x3da3c33c	0.079962224
80	0x3e02a9d9	0.12760104
81	0xbe4a7aa6	-0.19773349
82	0x3e4aefba	0.19818011
83	0x3d9c9294	0.07645145
84	0x3e530057	0.20605598
85	0xbdfb80a9	-0.12280399
86	0xbe48777a	-0.19576827
87	0x3d328b59	0.043589924
88	0x3d982e23	0.07430675
89	0xbe1d1cd1	-0.15343024
90	0x3d64a3e1	0.05582035
91	0x3e2619b7	0.16220747
92	0xbd8ff0ab	-0.07028326
93	0xbe74373c	-0.23849195
94	0xbd1f8558	-0.038945526
95	0x3e291339	0.16511239
96	0xbe15a1fa	-0.1461257
97	0xbdb7f2d9	-0.089818664
98	0x3ccc120d	0.024910951
99	0x3d7606f4	0.060065225
100	0x3d6d8cd9	0.05799565
101	0xbd8c1946	-0.06840758
102	0xbdf5af02	-0.11996271
103	0x3dc08ec2	0.09402229
104	0x3cdc60bb	0.026901593
105	0xbe3014ff	-0.1719551
106	0xbd7edd3f	-0.062222715
107	0xbe3275b7	-0.17427717
108	0xbda825ec	-0.08210358
109	0xbe114470	-0.14186263
110	0xbe12b4f3	-0.14326839
111	0xbd3ea85e	-0.046547286
112	0xbc8de4d6	-0.017321032
113	0xbc44510e	-0.011982216
114	0x3d8c9921	0.068651445
115	0xbb7f3d54	-0.0038946467
116	0xbe36dad3	-0.17856912
117	0x3dbdb7a5	0.09263543
118	0xbd00e48d	-0.031467963
119	0x3e6e3364	0.23261791
120	0xbd90242b	-0.070381485
121	0x3de5fe2d	0.11230121
122	0xbe311184	-0.17291838
123	0x3dc92947	0.09822326
124	0x3d01ab07	0.031657245
125	0xbd8994ae	-0.067178115
126	0x3d987d38	0.074457586
127	0xbdde91e8	-0.10867673
128	0x3e0fc9f0	0.14041877
129	0xbe5a382a	-0.21310487
130	0xbd92f693	-0.071759365
131	0x3d888bcf	0.066672914
132	0xbd5c57a5	-0.05379452
133	0x3d57eb95	0.052714903
134	0xbcdf3c75	-0.027250508
135	0x3dc9e0af	0.09857308
136	0x3d983c5f	0.0743339
137	0xbdccf28b	-0.10007199
138	0x3d31a582	0.04337073
139	0x3d8ae814	0.06782547
140	0x3e284a0e	0.164345
141	0xbd073331	-0.033007804
142	0xbd790cb7	-0.06080314
143	0x3da9eb9e	0.082968935
144	0xbe09dd51	-0.13463332
145	0xbd0206ee	-0.03174489
146	0x3e552583	0.20815091
147	0x3c1c07fa	0.009523386
148	0xbdcf4682	-0.1012087
149	0x3d151b4f	0.036402997
150	0xbb96d33a	-0.004602817
151	0x3d554010	0.052063048
152	0xbcf50cf5	-0.029913405
153	0xbe169428	-0.14704955
154	0xbddf8a96	-0.10915105
155	0xbda91142	-0.08255245
156	0xbb90e406	-0.0044217138
157	0x3d4fd9d9	0.050744865
158	0xbe30b5f6	-0.17256913
159	0xbe010c55	-0.1260236
160	0x3c3851e7	0.011249996
161	0x3cf4cf62	0.029884044
162	0x3dfef9d2	0.12449993
163	0xbcf3109c	-0.029671006
164	0x3d4ae0be	0.049530737
165	0x3dd5c27a	0.10437484
166	0xbcda2511	-0.026629003
167	0x3e1c3ece	0.15258333
168	0x3e33c2a1	0.17554714
169	0x3d301595	0.042989332
170	0x3d474337	0.048648085
171	0xbc573e90	-0.013137475
172	0x3cb74fcd	0.02237692
173	0x3df4afa6	0.11947565
174	0xbe1cd048	-0.15313828
175	0x3e2d35b9	0.16915025
176	0xbd8a6cb5	-0.067590155
177	0x3bd5ee7b	0.006528673
178	0x3be76607	0.007061723
179	0xbe24d5b6	-0.16097149
180	0x3ae9ec0b	0.0017846836
181	0xbe4a5833	-0.19760208
182	0xbc0404d7	-0.0080577945
183	0xbe1cede0	-0.15325117
184	0xbe0a25ec	-0.13491029
185	0x3ce1d196	0.027565759
186	0x3dc9ea64	0.098591596
187	0x3cf2f0b7	0.029655797
188	0xbdb89548	-0.09012848
189	0x3c31033d	0.010803995
190	0xbde6014b	-0.11230715
191	0x3e667a5a	0.22507611
192	0x3e853d9e	0.26023573
193	0xbe8c8e34	-0.27452242
194	0x3e040801	0.12893678
195	0xbe8288b7	-0.2549493
196	0x39cbde37	0.0003888474
197	0xbe714863	-0.2356277
198	0xbe096b53	-0.13419847
199	0xbda5808e	-0.080811605
200	0x3e22fa35	0.15915759
201	0xbe3a5aff	-0.18198775
202	0x3d92dd0c	0.071710676
203	0xbbfb4959	-0.007668656
204	0xbc526f60	-0.012843937
205	0xbce1cf05	-0.027564535
206	0xbbb543d7	-0.005531769
207	0x3e21b2bc	0.15790838
208	0x3d71c5ba	0.059026457
209	0xbb9dfa9f	-0.004821136
210	0xbe37654d	-0.17909737
211	0x3e4a36a5	0.19747408
212	0xbdc3e1bf	-0.09564542
213	0xbe258166	-0.16162643
214	0xbe37764b	-0.17916219
215	0x3de833a9	0.113379784
216	0x3da06ced	0.07833276
217	0xbdf4de0f	-0.11956417
218	0xbe3e5146	-0.18585691
219	0x3e5f2f0d	0.21795292
220	0x3e1df39f	0.15424965
221	0xbdcd3ae2	-0.10020997
222	0x3e2d6119	0.16931571
223	0xb9d4b101	-0.0004056767
224	0x3e2e70bd	0.17035194
225	0xbbde6753	-0.0067872196
226	0x3c17eaeb	0.009272317
227	0x3d69eb18	0.05710897
228	0xbdcf5ae5	-0.10124759
229	0xbde4b8d6	-0.11168067
230	0xbce57332	-0.028009031
231	0x3dc96bdd	0.098350264
232	0x3e4dd10f	0.20099281
233	0x3e05c01b	0.13061564
234	0x3c967b4c	0.01836934
235	0xbe9c8ddc	-0.3057698
236	0x3c203127	0.009777344
237	0x3e085c91	0.13316561
238	0x3d10d809	0.035362277
239	0x3e9945ec	0.2993616
240	0x3d9ea942	0.07747127
241	0xbe41c1f2	-0.1892164
242	0xbddc15c2	-0.107463375
243	0x3db4c7b3	0.08827152
244	0xbd474e90	-0.048658907
245	0x3ded696e	0.11592375
246	0x3daa1220	0.08304238
247	0x3d15f0b7	0.036606517
248	0x3da919e9	0.08256895
249	0x3cce1cf6	0.025160294
250	0xbea2a49a	-0.31766206
251	0xbe3a94e6	-0.18220863
252	0x3db6ef5e	0.089323744
253	0xbe8b9a1c	-0.27266014
254	0x3e3ff7d8	0.18746889
255	0xbbb88cb6	-0.0056320084

lstm.bias_ih_l0 f4 [256]
0	0xbd11f34e	-0.035632424
1	0xbdc28662	-0.09498288
2	0xbda4d2be	-0.080480084
3	0xbe01ce53	-0.12676363
4	0xbdbbd100	-0.09170723
5	0x3d08c900	0.033394814
6	0x3d013e7f	0.03155374
7	0x3dc6d4c9	0.09708554
8	0x3e1388e3	0.14407687
9	0xbdbf1779	-0.09330649
10	0xbcb4d93b	-0.02207624
11	0x391de4c4	0.00015057909
12	0xbd518169	-0.051148806
13	0xbd6da469	-0.058018122
14	0x3da9d0a3	0.082917474
15	0xbd065ba4	-0.03280224
16	0xbe0a18d4	-0.13486034
17	0x3c9ab196	0.018883508
18	0xbd2d9d1e	-0.042386167
19	0x3c6fe9e6	0.014643168
20	0xbd11b75d	-0.03557526
21	0x3dccf9ab	0.10008558
22	0xbcebd566	-0.02878828
23	0xbd451fec	-0.048126146
24	0x3d8633a0	0.065528154
25	0x3d2be6e8	0.041968256
26	0xbe57d995	-0.21079095
27	0x3d306430	0.043064296
28	0x3d9863d2	0.07440914
29	0xbd11de21	-0.03561223
30	0x3d972b54	0.07381311
31	0x3d9dd8c6	0.07707362
32	0x3d6fbc08	0.05852893
33	0xbd523350	-0.051318467
34	0xbd01d24b	-0.03169469
35	0x3de5e312	0.11224951
36	0x3d392ed3	0.04521067
37	0xbdbdbf18	-0.09264964
38	0xbd8bf264	-0.06833342
39	0xbe2af7ab	-0.1669604
40	0x3b07e50b	0.0020735885
41	0xbcd740d3	-0.026276028
42	0x3dd9c1a4	0.10632637
43	0x3d949b41	0.07256175
44	0x3ce114f6	0.027475815
45	0xbd9af6cb	-0.07566603
46	0x3dadc17f	0.08484172
47	0x3e46a34f	0.19398235
48	0x3d295c92	0.041348048
49	0xbdbeca1c	-0.09315893
50	0xbd403556	-0.046925865
51	0xbd924af1	-0.071432
52	0xbc71f9b0	-0.014769003
53	0xbd9a3010	-0.075286984
54	0x3d819142	0.06326534
55	0xbdc3937b	-0.09549614
56	0xbe8490bc	-0.25891674
57	0xbe45cad6	-0.19315657
58	0x3b21af89	0.0024671277
59	0xbd9c53fe	-0.07633208
60	0xbcb2cbf1	-0.021825762
61	0xbc064879	-0.00819599
62	0x3e222952	0.15836075
63	0x3dcbd277	0.09952252
64	0xbd7aea1f	-0.06125843
65	0xbd6a504a	-0.057205476
66	0xbd5fe6b4	-0.054663375
67	0xbe394638	-0.18093193
68	0x3dd8b556	0.10581462
69	0xbd8c9730	-0.06864774
70	0xbc9b6813	-0.018970525
71	0xbd9d0cf7	-0.076684885
72	0xbdc53eb8	-0.09631103
73	0xbbf534e0	-0.00748311
74	0xbc4a6890	-0.012354031
75	0x3d31aa37	0.04337522
76	0xbdf8a5f4	-0.12141028
77	0xbe08bf32	-0.13354185
78	0xbcd150bf	-0.025551198
79	0x3d67ba9a	0.05657444
80	0xbd803f08	-0.06262022
81	0xbdabe927	-0.0839408
82	0x3d04fb83	0.032466423
83	0x3df45616	0.11930482
84	0x3cdd4710	0.027011424
85	0x3d911cf7	0.07085603
86	0x3e01034f	0.12598918
87	0x3db87b17	0.090078525
88	0x3d5142c1	0.051089052
89	0x3d8021ec	0.0625647
90	0xbd205934	-0.03914757
91	0x3d7afb61	0.06127489
92	0x3d221cb3	0.03957815
93	0x3e36f745	0.17867763
94	0xbd495962	-0.049157508
95	0x3e4111f5	0.18854506
96	0x3e033ba9	0.12815727
97	0x3d154de2	0.036451228
98	0xb9dbe2fc	-0.00041940052
99	0x3e05ac15	0.13053925
100	0x3dca77d2	0.09886135
101	0xbe5c6dd2	-0.21526268
102	0x3d79a9de	0.060953014
103	0xbe48cd85	-0.1960965
104	0x3bbdbb8a	0.0057901787
105	0x3e0c10b9	0.13678254
106	0x3dbf4cdb	0.09340831
107	0x3d90bd2e	0.07067333
108	0x3d23f765	0.040030856
109	0xbd7cac0e	-0.06168752
110	0x3da98376	0.08277027
111	0x3c40add4	0.011760194
112	0x3a6056b1	0.000855784
113	0x3e14cbf6	0.1453093
114	0x3db613c9	0.088904925
115	0xbdac5fd4	-0.08416715
116	0x3e0a6931	0.1351669
117	0x3c7f4fd3	0.015582996
118	0xbdecd744	-0.11564496
119	0x3e20e28a	0.15711418
120	0xbce8379b	-0.028346827
121	0xbcf7adcc	-0.03023424
122	0xbc249e91	-0.010047571
123	0xbe0f9875	-0.14023001
124	0xbe0741da	-0.13208714
125	0xbd97d649	-0.074139185
126	0x3de31542	0.11088039
127	0xbcca1fab	-0.024673304
128	0xbb49d7bf	-0.003079876
129	0xbdbdace5	-0.09261493
130	0x3d760fae	0.060073547
131	0x3d53a715	0.051673014
132	0xbcfd5841	-0.030925872
133	0x3dbc32c6	0.09189372
134	0xbbc6c87f	-0.0060663815
135	0x3b43b939	0.002986504
136	0xbe2d6cb9	-0.16936006
137	0xbd304ed6	-0.043043934
138	0xbdf52efe	-0.11971854
139	0xbdb68869	-0.08912737
140	0xbc24b2fc	-0.010052439
141	0xbbefdf94	-0.0073203538
142	0x3bb89062	0.005632446
143	0x3d2a4d12	0.041577406
144	0x3d2fab86	0.042888187
145	0x3dd563df	0.104194395
146	0xbd858b9b	-0.06520768
147	0x3e429359	0.19001521
148	0xbdb49613	-0.08817687
149	0x3d964b8e	0.0733863
150	0x3e05cca4	0.13066345
151	0x3e26bf93	0.16284017
152	0x3c49e2ac	0.012322109
153	0x3d6f1c5c	0.058376655
154	0x3e3b844f	0.1831219
155	0x3d7423e6	0.059604548
156	0xbccf20df	-0.025284229
157	0xbddb66da	-0.10712977
158	0x3adc98ca	0.0016830203
159	0xbe1f9c7a	-0.15587035
160	0x3e2f8372	0.17139986
161	0x3cb02872	0.02150366
162	0xbd31e690	-0.043432772
163	0xbcac96cf	-0.021068005
164	0x3dc8a51e	0.097971186
165	0xbddf89ba	-0.10914941
166	0xbd9bdc0b	-0.07610329
167	0xbd4fb540	-0.050709963
168	0x3de32f07	0.11092954
169	0x3d3191bb	0.04335187
170	0xbe90865f	-0.28227517
171	0xbd2d3c87	-0.04229405
172	0x3c8dc44e	0.01730552
173	0xbdbcfff9	-0.092285104
174	0x3de02b2b	0.10945734
175	0xbd9004e6	-0.07032184
176	0x3d09d9b5	0.033654887
177	0x3e3022cb	0.17200772
178	0x3d6f67b9	0.058448527
179	0x3e22a5dc	0.15883583
180	0x3cc8802c	0.02447518
181	0x3dafa44f	0.08576261
182	0x3d257736	0.04039689
183	0xbdc3dbea	-0.0956343
184	0xbd630b69	-0.055430803
185	0x3dfd1d7b	0.123591386
186	0x3e27431d	0.16334195
187	0x3d6e5761	0.0581888
188	0xbd1ac183	-0.037782203
189	0x3e029e0c	0.12755603
190	0x3dbf2d7f	0.093348496
191	0xbda55d91	-0.08074487
192	0x3d66e21b	0.056367975
193	0xbc24a238	-0.010048442
194	0xbbe2a668	-0.00691681
195	0x3db6cc67	0.089257054
196	0x3c58edd6	0.013240298
197	0xbd76dfb5	-0.060271937
198	0xbe2b5944	-0.16733271
199	0x3dbda364	0.0925968
200	0xbdc98b8b	-0.09841069
201	0xbd17a50d	-0.03702264
202	0xbd643ef1	-0.055724088
203	0x3cc43368	0.023950294
204	0x3b96e094	0.0046044085
205	0xbb032817	-0.002001291
206	0xbe2cd814	-0.16879302
207	0x3b0b14dc	0.002122215
208	0xbde0aa7f	-0.109700195
209	0x3a990c0a	0.0011676562
210	0xbe0fdb2f	-0.14048456
211	0x3d9097d3	0.07060208
212	0xbe02a850	-0.12759519
213	0xbd9a9ab7	-0.07549041
214	0x3be57ea0	0.0070036203
215	0xbb91d56e	-0.0044504916
216	0xbe0c4b01	-0.13700487
217	0x3d9ed4a4	0.07755402
218	0x3df33d3a	0.118769124
219	0x3cd14d71	0.025549622
220	0x3dbd3c21	0.09239984
221	0xbce75b4d	-0.028241778
222	0x3c5ad4a4	0.013356362
223	0xbdc744fa	-0.09729953
224	0xbc799e12	-0.015235441
225	0xbce6dd61	-0.028181734
226	0xbd1b340e	-0.03789144
227	0xbde01feb	-0.10943588
228	0x3d188254	0.037233666
229	0xbddafef5	-0.106931604
230	0x3d4370e7	0.047715094
231	0xbd2d2d56	-0.042279564
232	0xbaf564b4	-0.0018722028
233	0x3e50d47c	0.20393556
234	0x3dd92329	0.106024094
235	0x3dea573f	0.11442422
236	0x3da221f1	0.0791663
237	0xbd3b7f37	-0.04577562
238	0xbda83f62	-0.08215214
239	0xbcc7b28f	-0.024377136
240	0xbd914db7	-0.07094901
241	0xbdc582b0	-0.09644067
242	0xbe049ff5	-0.12951644
243	0x3dfe9615	0.124309696
244	0x3dec7b8e	0.11547004
245	0x3bc44b0c	0.0059903916
246	0xbd8c9a95	-0.06865422
247	0xbd9f581f	-0.0778048
248	0xbdac2406	-0.084053084
249	0x3d0c4347	0.03424385
250	0xbe291847	-0.16513167
251	0x3de16086	0.110047385
252	0x3db7ddad	0.08977828
253	0xbda5655f	-0.080759756
254	0x3cea4ba0	0.028600514
255	0xbdedf959	-0.11619825

lstm.bias_hh_l0 f4 [256]
0	0xbe0bc233	-0.136483
1	0xbd3c23d3	-0.045932602
2	0xbd4bff24	-0.049803868
3	0xbe85d3c0	-0.26138115
4	0xbe0c8c1c	-0.13725322
5	0xbdc89e49	-0.097958155
6	0xbc9d50bb	-0.019203534
7	0x3e072198	0.13196409
8	0x3e084caf	0.13310502
9	0x3da697fb	0.08134457
10	0x3dbe4545	0.09290556
11	0xbbd5cfc4	-0.0065250117
12	0x3da37a6c	0.079823345
13	0xbbcffb96	-0.00634713
14	0x3dce4be7	0.10073071
15	0x3d88a0d8	0.066713035
16	0x3ce41533	0.02784214
17	0xbdde360a	-0.10850151
18	0xbe118888	-0.14212239
19	0x3ddf0805	0.108902015
20	0x3c288387	0.010285265
21	0x3e1750ed	0.14776964
22	0x3d8a8df9	0.067653604
23	0xbd8603a7	-0.065436654
24	0xbdc9e308	-0.09857756
25	0xbbb4cb6c	-0.005517414
26	0xbd2cca78	-0.042185277
27	0xbdaf25be	-0.085521206
28	0xbd8632bc	-0.065526456
29	0x3c4ed1bd	0.012623248
30	0x3d10c07f	0.03533983
31	0xbd46cd8f	-0.04853588
32	0xbe1f81db	-0.1557688
33	0xbd9251c1	-0.071444996
34	0xbdc94814	-0.09828201
35	0x3d4774f2	0.048695512
36	0xbd6d0061	-0.05786169
37	0xbd033bbe	-0.032039396
38	0x3d1d7443	0.038440954
39	0x3bc5a7b7	0.006031956
40	0xbdd6615c	-0.104677886
41	0x3dc682f3	0.09692945
42	0x3dd6fc40	0.104973316
43	0xbe0f5735	-0.1399811
44	0x3db600d8	0.0888688
45	0xbd9bdf65	-0.076109685
46	0x3cf04251	0.029328497
47	0x3da60f85	0.08108429
48	0x3e31ede4	0.17375904
49	0xbccb210a	-0.024796028
50	0xbe4c9712	-0.19979504
51	0xbe094411	-0.13404872
52	0x3c434f61	0.011920781
53	0x3d8e2132	0.06939925
54	0x3d49c062	0.049255736
55	0xbd606858	-0.05478701
56	0xbd9cfd88	-0.07665545
57	0xbe358a1e	-0.17728469
58	0x3d1f51fa	0.03889654
59	0x3d824ad4	0.063619286
60	0x3c8dd56d	0.017313683
61	0x3e36420c	0.17798632
62	0xbd174ffe	-0.03694152
63	0x3da795d5	0.08182875
64	0x3b98826a	0.0046542184
65	0x3d405d98	0.046964258
66	0xbe2bba8a	-0.16770378
67	0xbd0e6b2a	-0.03477017
68	0xbc5351e4	-0.012897942
69	0xbdee8678	-0.11646742
70	0xbd8e1f62	-0.069395795
71	0xbd9db24f	-0.07700025
72	0xbe32e1bd	-0.17468925
73	0x3d9a8569	0.07544977
74	0xbd93bb21	-0.072134264
75	0xbdaae4ce	-0.08344422
76	0x3d10165d	0.035177577
77	0xbc9f6aff	-0.0194602
78	0xbd7b4dc4	-0.06135346
79	0x3d28782d	0.041130234
80	0xbc602575	-0.013680805
81	0x3d827104	0.06369212
82	0x3d8277b0	0.06370485
83	0x3d28fbcc	0.041255757
84	0xbdfba83b	-0.12287947
85	0xbd3757ee	-0.04476159
86	0x3e0d49e9	0.13797726
87	0xbd4f387f	-0.05059099
88	0x3dcf18a6	0.10112123
89	0x3e129095	0.14312966
90	0xbdfc60c9	-0.12323148
91	0xbc00f98f	-0.007871999
92	0x3d93374f	0.07188284
93	0x3e172696	0.14760813
94	0x3d9332da	0.071874335
95	0x3dd37ab1	0.10326136
96	0xbdafe1cc	-0.08587989
97	0x3bb47263	0.0055068
98	0x3ddc6561	0.10761524
99	0xbcf3b8ef	-0.02975127
100	0x3e1cfe5c	0.15331405
101	0xbdfe44cc	-0.12415466
102	0x3da4561c	0.080242366
103	0xbd8d6151	-0.06903327
104	0x3c61a967	0.013773299
105	0xbd8a8459	-0.067635246
106	0xbc86e200	-0.016465187
107	0x3dfd264a	0.12360819
108	0x3d8d0d2f	0.0688728
109	0x3d8356a0	0.06413007
110	0xbbf6d6f6	-0.0075329496
111	0x3e0ce9f7	0.13761126
112	0x3d5193c9	0.05116633
113	0x3e651979	0.22372998
114	0x3dbdb0b5	0.0926222
115	0x3c29c458	0.010361753
116	0x3dd2741a	0.10276051
117	0x3b861e36	0.004092957
118	0xbd015f0f	-0.031584796
119	0x3ddef3ee	0.1088637
120	0xbd5375c3	-0.05162598
121	0xbce2a2d9	-0.027665542
122	0x3cf7aa2f	0.030232517
123	0xbca18e2d	-0.019721115
124	0x3ca3edb8	0.020010814
125	0x3cc2a83b	0.02376186
126	0x3d11fd4e	0.03564196
127	0xbd8bd8f3	-0.06828489
128	0x3dbba61a	0.09162541
129	0x3db7b0d7	0.089692764
130	0xbe3ba283	-0.18323712
131	0xbc4b2e41	-0.0124011645
132	0x3e1c6a54	0.15274936
133	0xbd90ba98	-0.0706684
134	0x38bd13ed	9.015934e-05
135	0x3e145738	0.14486396
136	0xbe35173f	-0.17684649
137	0xbd67781c	-0.05651103
138	0x3d7e22f5	0.062045056
139	0x3d522d9c	0.051313028
140	0xbe517bd1	-0.20457388
141	0xbd107c32	-0.035274692
142	0xbc5807f8	-0.013185494
143	0xbda6eafa	-0.08150287
144	0xbcad9225	-0.021187851
145	0x3e435fe4	0.19079548
146	0x3ca1e6fe	0.019763466
147	0xbb3df428	-0.002898464
148	0xbc36ec4e	-0.011164738
149	0xbd35f221	-0.044420365
150	0x3e59a7e2	0.21255448
151	0x3df6b579	0.12046332
152	0x3d8dd297	0.069249325
153	0x3df6f481	0.12058354
154	0x3ca706fe	0.020389076
155	0xbda2ee6f	-0.07955634
156	0xbda16f1f	-0.07882523
157	0xbce25bb2	-0.027631614
158	0x390032e2	0.00012225987
159	0xbcf0348c	-0.029321931
160	0x3dc756ee	0.097333774
161	0x3e0dfac7	0.13865195
162	0xbdd9e64d	-0.106396295
163	0x3d607d8b	0.054807227
164	0x3d0b9a6f	0.034082826
165	0xbcbb23ef	-0.022844283
166	0xbe21fbc8	-0.15818703
167	0x3d81d957	0.063402824
168	0xbd36c799	-0.044623945
169	0x3d0be683	0.03415538
170	0xbe17c027	-0.14819394
171	0x3e0f3b17	0.13987385
172	0xbd9526f1	-0.07282818
173	0x3e0dca2f	0.13846658
174	0x3dce4d0a	0.10073288
175	0xbd0d3fa2	-0.034484513
176	0x3db4de3d	0.08831451
177	0x3d4462b6	0.0479457
178	0x3da81c2e	0.082085
179	0x3d5d94a7	0.054096844
180	0x3e350b63	0.17680125
181	0xbd00b701	-0.031424526
182	0x3cf560d1	0.029953392
183	0xbe0be9a8	-0.13663352
184	0xbde8b92e	-0.11363445
185	0x3e3c69ca	0.1839973
186	0xbd0e2634	-0.034704402
187	0x3d0a2b48	0.033732682
188	0xbde1d96a	-0.110277966
189	0x3d710a43	0.058847677
190	0x3e03f67a	0.12886992
191	0xbde441e9	-0.11145384
192	0x3e05d95a	0.13071194
193	0x3dd0b266	0.10190277
194	0xbd6ca773	-0.05777688
195	0xbd55601c	-0.05209361
196	0x3e240b29	0.16019882
197	0xbda865a8	-0.082225144
198	0x3b95d9a1	0.0045730625
199	0xbd9b6416	-0.07587449
200	0xbe0b7bdd	-0.13621469
201	0x3db4fa8f	0.08836853
202	0x3e0520ba	0.13000765
203	0xbbc61b98	-0.00604577
204	0x3bad014e	0.0052796965
205	0x3d959ea6	0.073056504
206	0xbd2b0c55	-0.041759808
207	0x3b3d861a	0.0028919042
208	0x3d85fcf7	0.0654239
209	0x3dbf013e	0.09326409
210	0x3cd0669c	0.025439553
211	0xbe1bb273	-0.15204792
212	0x3d9fc78f	0.07801735
213	0xbd72eeb7	-0.059309687
214	0x3decf132	0.11569442
215	0xbaacd97a	-0.0013187372
216	0x3d229066	0.03968849
217	0x3d1267c7	0.0357435
218	0x3de7b3ff	0.113136284
219	0xbdee5905	-0.11638073
220	0x3e18bd70	0.14916015
221	0x3dafa4b7	0.08576339
222	0xbe25cb53	-0.16190843
223	0x3e0e9fc5	0.13928135
224	0x3d2ac695	0.04169329
225	0x3d814f1d	0.06313918
226	0x3cfee72e	0.031116094
227	0xbd5c10e4	-0.053727046
228	0xbce1fbf6	-0.027585965
229	0x3da29581	0.07938672
230	0x3c92eef1	0.017936202
231	0xbcbeb3e5	-0.02327914
232	0xbd86dc19	-0.06584949
233	0x3e330420	0.17482042
234	0x3e15d75a	0.14632931
235	0x3c4e9bbe	0.012610374
236	0x3cda2f54	0.026633896
237	0x3c56606e	0.013084514
238	0xbd203eb2	-0.03912229
239	0x3df20b99	0.11818618
240	0x3c851643	0.016245967
241	0x3bba1be0	0.0056795925
242	0x3dc412ed	0.09573922
243	0xbc36064f	-0.0111099025
244	0xbc8f888d	-0.017521167
245	0x3d1802e9	0.03711215
246	0xbd8c7687	-0.06858545
247	0x3d949fdb	0.072570525
248	0xbd2eb094	-0.042648867
249	0xbd2e29c3	-0.042520296
250	0xbb3aeb89	-0.0028521738
251	0x3cecfad1	0.028928192
252	0x3e0f8dda	0.14018956
253	0xbc731d19	-0.01483848
254	0x3cc09ce7	0.023512317
255	0x3db7d639	0.089764066

lstm.weight_ih_l1 f4 [256, 64]
0	0xbdd3c92d	-0.103411056
1	0xbe5192c5	-0.20466144
2	0xbcac45c5	-0.021029362
3	0xbe337c04	-0.17527777
4	0xbd9b9ec4	-0.075986415
5	0x3df4584d	0.119309045
6	0x3c5ffc84	0.013671044
7	0x3d5ea015	0.054351885
8	0x3d52a537	0.051427092
9	0xbd7a0adb	-0.06104551
10	0x3d26b000	0.04069519
11	0xbde01826	-0.10942106
12	0x3dc5f76d	0.09666333
13	0xbd305045	-0.0430453
14	0xbdb4f6b1	-0.08836115
15	0xbe023bc6	-0.12718114
16	0xbd6496b6	-0.05580779
17	0xbd87658d	-0.06611166
18	0x3dd10a50	0.10207045
19	0xbca0f0a2	-0.019645993
20	0xbd52ac9a	-0.051434137
21	0x3e03ba28	0.12863982
22	0x3b5a9f19	0.003335899
23	0xbe305403	-0.17219548
24	0xbd51bb55	-0.051204044
25	0xbc7ca68f	-0.01542057
26	0xbe7182b8	-0.23585021
27	0x3d7fa661	0.06241453
28	0xbc810191	-0.015747817
29	0xbd257f04	-0.040404335
30	0xbe073e6c	-0.13207406
31	0xbe22c2b6	-0.15894589
32	0xbd290bc7	-0.041270997
33	0xbdd940b3	-0.106080435
34	0x3cb3e5e4	0.021960206
35	0xbd2d80f3	-0.042359304
36	0xbdd6d6af	-0.104901664
37	0xbd3ce13d	-0.04611324
38	0xbd80855f	-0.062754385
39	0x3dab00d8	0.0834977
40	0x3a49df0d	0.00077007787
41	0x3d4b802e	0.04968279
42	0xbdc02ec6	-0.09383921
43	0x3d114724	0.035468236
44	0xbe12fb89	-0.14353766
45	0xbceceb7e	-0.028920885
46	0xbd2b062c	-0.041753933
47	0xbe216d73	-0.15764408
48	0xbcf604dd	-0.030031616
49	0x3d894b6b	0.06703838
50	0xbdc55194	-0.096347004
51	0xbd976d7e	-0.07393931
52	0x3da97d7d	0.08275888
53	0x3df60b4c	0.120138735
54	0x3d2bfa92	0.04198701
55	0x3dc85ead	0.09783683
56	0x3d51606f	0.051117357
57	0x3c81398a	0.015774507
58	0xbd07ff2d	-0.03320234
59	0x3d5784af	0.05261677
60	0xbdc66f07	-0.096891455
61	0x3d943a37	0.07237666
62	0x3d910e0b	0.070827566
63	0x3e2184f9	0.15773381
64	0xbda6d269	-0.08145601
65	0x3bd8f35f	0.006620809
66	0x3d66c9fe	0.05634498
67	0x3d420e6e	0.047377042
68	0xbcae5c5e	-0.021284278
69	0x3dd8db24	0.10588673
70	0x3dca9264	0.09891203
71	0x390f88c8	0.00013688498
72	0x3cbf4477	0.023348076
73	0x3e245b73	0.1605051
74	0x3db2172c	0.08695826
75	0x3c3df773	0.011594641
76	0xbdcdfab8	-0.100575864
77	0xbd96f33c	-0.07370612
78	0xbca1cf49	-0.019752162
79	0xbd011f82	-0.03152419
80	0x3d9489b2	0.07252826
81	0x3da9bb40	0.08287668
82	0x3e1baae3	0.15201907
83	0x3dfab6d8	0.12241906
84	0xbe2e793f	-0.17038439
85	0x3e37e748	0.1795932
86	0x3d54cd85	0.05195381
87	0x3d2f3d9b	0.04278336
88	0x3d00ea69	0.03147355
89	0x3d510cec	0.051037714
90	0xbb3539a9	-0.0027652776
91	0x3dee3d96	0.1163284
92	0x3e09c5e8	0.13454401
93	0x3e4463c7	0.19178687
94	0x3dc8613b	0.0978417
95	0xbd3956a9	-0.04524866
96	0xbe0a330a	-0.13496032
97	0xbd01e917	-0.031716432
98	0xbbb5b13f	-0.005544811
99	0x3d413267	0.047167208
100	0x3d364c0b	0.044506114
101	0x3e0ee270	0.13953567
102	0xbdabe13e	-0.08392571
103	0xbe23a3b4	-0.15980417
104	0xbde7bc2d	-0.113151886
105	0xbe26cedf	-0.16289853
106	0xbcb22ec5	-0.021750817
107	0x3d8ca836	0.06868021
108	0x3ca87756	0.020564716
109	0xbcf36262	-0.029709999
110	0xbdb8a606	-0.090160415
111	0xbe27411c	-0.16333431
112	0xbc1c8065	-0.009552096
113	0x3e82b627	0.25529596
114	0xbddc1aeb	-0.10747322
115	0x3cbf4202	0.023346905
116	0xbc7a6945	-0.015283887
117	0x3b4d21c1	0.0031300636
118	0x3e116389	0.14198126
119	0xbd8242a0	-0.06360364
120	0x3d9e746d	0.0773705
121	0xbc9d6ded	-0.019217456
122	0xbc9f16e9	-0.019420104
123	0xbe16e6af	-0.14736436
124	0x3dc9cf15	0.09853951
125	0xbd29afc9	-0.041427407
126	0xbc97b3d6	-0.01851837
127	0x3d65126f	0.055925783
128	0xbde0d873	-0.109787844
129	0x3db347d7	0.08753937
130	0x3e406646	0.18789014
131	0xbce4bc1a	-0.027921725
132	0x3d210c19	0.039318178
133	0xbd15c7e7	-0.036567595
134	0x3db59d7f	0.088679306
135	0xbe059a3d	-0.13047118
136	0xbd8d9259	-0.06912679
137	0xbd54b2cc	-0.051928326
138	0xbd383afd	-0.04497813
139	0xbdb729c2	-0.089435115
140	0x3d62b495	0.055347998
141	0x3d97e92b	0.0741752
142	0xbca46d3e	-0.020071622
143	0x3bc7b1ae	0.006094179
144	0x3d788ebf	0.06068301
145	0xbc38169a	-0.011235857
146	0xbe240c7f	-0.16020392
147	0xbe2249fd	-0.15848537
148	0xbc66279a	-0.014047528
149	0xbddf893b	-0.109148465
150	0x3ded3940	0.11583185
151	0xbd0a9991	-0.03383786
152	0xbc70607e	-0.014671443
153	0xbde600bd	-0.112306096
154	0xbde35672	-0.111004725
155	0xbd121f01	-0.0356741
156	0xbdcb9b35	-0.09941713
157	0x3a85fbea	0.0010222171
158	0xbe18da69	-0.14927067
159	0x3d058009	0.032592807
160	0x3db0f444	0.0864034
161	0x3d089524	0.033345357
162	0x3b834bb1	0.004006826
163	0x3cc781a2	0.024353806
164	0xbd93c578	-0.072153986
165	0x3db91053	0.09036317
166	0xbcddd2f6	-0.027078133
167	0x3dd591df	0.10428213
168	0xbe4148db	-0.18875448
169	0xbd680719	-0.056647394
170	0xbdc3be3f	-0.09557771
171	0xbc487ab8	-0.01223629
172	0x3d59a665	0.0531372
173	0xbe16595e	-0.14682528
174	0xbd128a28	-0.035776287
175	0x389dc5bd	7.523175e-05
176	0xbdd9eded	-0.10641084
177	0x3d4275e2	0.047475703
178	0x3cf45cf6	0.029829483
179	0xbd7dba71	-0.061945383
180	0xbd468fe7	-0.04847708
181	0xbe886e2f	-0.26646563
182	0xba66479b	-0.0008784474
183	0x3cec7daa	0.028868515
184	0xbdd7e358	-0.10541409
185	0x3d5dc706	0.05414488
186	0xbda1ca8c	-0.07899961
187	0xbd58950e	-0.052876525
188	0xbc9d28fb	-0.01918458
189	0x3e1e828f	0.15479492
190	0xbb57f4e8	-0.0032952372
191	0x3d121db4	0.03567286
192	0xbbcbe947	-0.006222877
193	0xbdbcd7c3	-0.09220841
194	0x3d6571bd	0.056016672
195	0xbe1b1c21	-0.15147449
196	0x3e003d6c	0.1252343
197	0x3ded8d2d	0.11599193
198	0x3dc34f41	0.09536601
199	0xbe073b86	-0.132063
200	0xbba01853	-0.004885712
201	0xbddc789e	-0.107651934
202	0x3d72621b	0.059175592
203	0x3b83b5d6	0.0040194793
204	0x3e308e81	0.17241861
205	0xbdc1648d	-0.09443007
206	0x3deb2aa3	0.11482742
207	0xbd3cae31	-0.04606456
208	0xbe3d02b4	-0.18458062
209	0xbdb7acdf	-0.089685194
210	0x3eb11ed9	0.34593847
211	0x3d30a62d	0.043127228
212	0x3b33a877	0.0027413645
213	0xbcd73925	-0.026272366
214	0x3d44b658	0.04802546
215	0x3d9b9582	0.07596876
216	0x3d3e76a9	0.046499882
217	0xbce7b6bf	-0.028285382
218	0xbd4ab1a1	-0.049485806
219	0xbe15e766	-0.14639053
220	0x3e1957b0	0.14974856
221	0x3ceeac36	0.029134851
222	0xbe1be1ac	-0.15222806
223	0xbd0a271b	-0.0337287
224	0x3d1dfc22	0.03857053
225	0xbe33094f	-0.1748402
226	0xbd421977	-0.047387566
227	0x3e094b06	0.13407525
228	0x3db15214	0.08658233
229	0x3d00d96d	0.031457353
230	0x3d679d20	0.05654633
231	0x3d83671d	0.06416152
232	0xbc4d1d1c	-0.012519147
233	0x3e008f0b	0.12554567
234	0xbd8ed751	-0.06974662
235	0xbd67b0c0	-0.056565046
236	0xbd3ed346	-0.046588205
237	0x3d3bda0c	0.045862243
238	0x3d15e450	0.03659469
239	0xbda65c60	-0.08123088
240	0x3dcaa3ac	0.09894499
241	0xbdb18e75	-0.0866975
242	0x3e053feb	0.13012664
243	0x3ccbfcfa	0.024900902
244	0x3e08b15d	0.13348909
245	0xbd9d47a2	-0.076796785
246	0x3d506f64	0.05088748
247	0x3db50955	0.088396706
248	0xbcf270c1	-0.02959478
249	0xbe12a051	-0.14318968
250	0xbc00ea5f	-0.007868378
251	0x3ab361e3	0.0013685789
252	0xbc3f1d66	-0.011664724
253	0x3d9323a3	0.071845315
254	0x3e3a5819	0.18197669
255	0x3db92e95	0.09042088

lstm.weight_hh_l1 f4 [256, 64]
0	0xbd255e42	-0.040373094
1	0xbd36e369	-0.04465047
2	0x3db02860	0.08601451
3	0xbcb36f1b	-0.021903565
4	0x3db110b1	0.08645762
5	0xbe8c166a	-0.2736085
6	0x3da8b330	0.08237302
7	0xbc6abebb	-0.0143277
8	0x3de9905b	0.11404487
9	0x3dcbbc3f	0.099480145
10	0x3cc55a85	0.024091015
11	0x3de759a2	0.11296393
12	0xbd97ac07	-0.074058585
13	0xbe3c538d	-0.18391247
14	0xbd6a1d92	-0.057157107
15	0xbe2e60a5	-0.17029054
16	0xbd812a20	-0.06306863
17	0xbcae409a	-0.021271039
18	0xbc7d3a8a	-0.015455851
19	0xbdc260d9	-0.094911285
20	0x3d18bc82	0.03728915
21	0x3d75de44	0.060026422
22	0x3dc91be7	0.09819775
23	0x3cbc7d80	0.023009062
24	0x3e480db0	0.19536471
25	0xbdd2bd44	-0.10290006
26	0xbd29f01a	-0.041488744
27	0x3dce3d68	0.10070306
28	0xbe1689ff	-0.14701079
29	0x3d5f88ac	0.0545737
30	0x3d9f37f5	0.07774345
31	0x3dc1395f	0.09434771
32	0x3c165745	0.00917608
33	0x3d095d5d	0.033536304
34	0x3c7117a9	0.014715114
35	0x3d804418	0.06262988
36	0x3d78e036	0.0607607
37	0x3d5e70ea	0.054306902
38	0x3db33ef2	0.0875224
39	0xbcfe303e	-0.031028863
40	0xbaf4b6f4	-0.0018670247
41	0x3e2e0bef	0.1699674
42	0xbcfb78e2	-0.03069729
43	0x3d0a598d	0.03377681
44	0x3d26ca97	0.04072055
45	0x3c6c0ebd	0.014407811
46	0x3e0a3c1f	0.13499497
47	0xbe087f80	-0.13329887
48	0xbdabfbe7	-0.08397656
49	0x3e27f0d4	0.16400462
50	0x3e11e5fd	0.1424789
51	0x3ddb8ab0	0.10719812
52	0xbe3482d7	-0.17628036
53	0xbcb357e1	-0.02189249
54	0x3cc4897c	0.023991339
55	0xbdb20c19	-0.08693714
56	0xbe30ad8a	-0.172537
57	0xbdc9cd90	-0.09853661
58	0x3c789058	0.015171133
59	0xbded18c4	-0.11576989
60	0xbd8f9551	-0.07010902
61	0xbd595121	-0.053055886
62	0x3dd6202f	0.10455357
63	0x3e5f872f	0.21828912
64	0x3d07df34	0.033171847
65	0x3d2adc0b	0.041713756
66	0x3e0dab10	0.13834786
67	0xbdaf7e81	-0.085690506
68	0x3c28ea32	0.010309743
69	0xbdb37465	-0.08762435
70	0xbded63df	-0.115913145
71	0x3cc90772	0.024539683
72	0xbd4a4bb4	-0.049388602
73	0xbe4654ae	-0.1936824
74	0x3dd67f99	0.10473556
75	0xbe2c2ae7	-0.16813241
76	0x3d940221	0.072269686
77	0xbcf8d2a5	-0.03037388
78	0xbe72e30b	-0.23719423
79	0xbdc40b0f	-0.09572422
80	0x3e0d705f	0.13812397
81	0x3c84c611	0.016207727
82	0x3d9c6049	0.076355524
83	0xbe0275e9	-0.12740292
84	0xbe1dc235	-0.15406115
85	0x3d56b4b3	0.052418422
86	0xbc9ec7b4	-0.019382335
87	0x3b931efc	0.0044897776
88	0xbdbe3f5a	-0.09289427
89	0x3cbce426	0.023058008
90	0x3d97a623	0.07404735
91	0xbdec8dc3	-0.115504764
92	0x3c5e1fd3	0.013557392
93	0xbc3771a8	-0.011196531
94	0xbda35dcc	-0.07976875
95	0xbc1e102a	-0.0096474085
96	0x3cf187ed	0.02948376
97	0x3d98a35c	0.07453033
98	0xbe14ba1f	-0.14524125
99	0xbd604f2a	-0.054762997
100	0xbd1a3e0b	-0.037656825
101	0xbd8bc661	-0.06824947
102	0xbd8defc2	-0.06930496
103	0xbe4ba31b	-0.19886439
104	0xbddb9d1d	-0.10723326
105	0xbe554f49	-0.20831026
106	0x3d1c12aa	0.038103737
107	0xbe632769	-0.22183003
108	0xbd5cce1f	-0.05390751
109	0xbde99648	-0.11405617
110	0xbd5a2651	-0.053259198
111	0x3d2671bf	0.04063582
112	0xbe682a5f	-0.22672413
113	0xbda64cfa	-0.08120151
114	0x3dd9fe1f	0.10644173
115	0xbd9ddba2	-0.07707907
116	0x3e1149e3	0.14188342
117	0xbb9233c8	-0.004461739
118	0x3deac7ea	0.11463912
119	0x3da4addf	0.08040976
120	0x3decedbd	0.115687825
121	0x37d48b06	2.5337107e-05
122	0xbc6fa50f	-0.014626755
123	0x3da0d903	0.07853892
124	0xbd809901	-0.06279183
125	0x3d920f5a	0.07131834
126	0xbccaad0e	-0.024740722
127	0xbe2d8657	-0.16945778
128	0x3dcc5e8b	0.0997897
129	0x3d14f326	0.036364697
130	0x3cb1cc87	0.021703972
131	0x3c9708dc	0.018436842
132	0x3d401978	0.04689929
133	0xbe3f1656	-0.18660864
134	0xbc02881d	-0.007967022
135	0x3cf061db	0.029343536
136	0x3d4385f8	0.047735184
137	0xbdb29d46	-0.08721404
138	0x3d38cb89	0.04511598
139	0xbd9b3b03	-0.07579615
140	0x3aab3bbe	0.0013064069
141	0x3cbff61b	0.023432782
142	0xbb7d85c2	-0.0038684462
143	0x3d97c8d0	0.07411349
144	0x3de5172c	0.1118606
145	0x3d282291	0.04104859
146	0x3d77df42	0.06051565
147	0x3de352e9	0.11099798
148	0x3c8d8273	0.017274117
149	0xbd4e1fef	-0.050323423
150	0x3dab9c81	0.0837946
151	0x3d2f66c8	0.04282263
152	0xbd36988a	-0.044579066
153	0x3dd43c2d	0.1036304
154	0x3e53ffa6	0.20702991
155	0xbce20cd4	-0.027594008
156	0xbda75b22	-0.08171679
157	0xbdc3d0b3	-0.095612906
158	0x3da1d512	0.07901968
159	0xbd66e7a5	-0.056373257
160	0x3dab063e	0.083508
161	0xbe152d95	-0.1456817
162	0xbd8b9fc0	-0.06817579
163	0x3e766a33	0.2406395
164	0x3dbe33c8	0.0928722
165	0xbd5ad1b6	-0.053422652
166	0x3dd73184	0.10507491
167	0xbe41edd3	-0.18938379
168	0x3de21332	0.110388175
169	0xbe41b3d4	-0.18916255
170	0x3de9a171	0.11407746
171	0xbcd59036	-0.026069742
172	0x3e45abe6	0.19303855
173	0xbd9723c0	-0.07379866
174	0x3d1ebaa5	0.038752217
175	0x3da79202	0.08182146
176	0xbceaa90a	-0.028645057
177	0xbdb2d917	-0.08732813
178	0x3d9b4f00	0.075834274
179	0xbd236703	-0.03989316
180	0x3d71082d	0.058845688
181	0x3a9758b1	0.0011546818
182	0x3bc30dcd	0.005952573
183	0xbd6caf87	-0.057784583
184	0xbdc44059	-0.09582586
185	0x3d5b4ff6	0.053543054
186	0x3d5e6d52	0.054303475
187	0xbdba05ea	-0.09083159
188	0xbde08087	-0.10962015
189	0xbdb1c31b	-0.086797915
190	0xbcc84572	-0.024447177
191	0xbb0bfb60	-0.0021359548
192	0xbd7b998a	-0.061425723
193	0xbe3b675f	-0.18301152
194	0x3d6d9682	0.058004864
195	0xbd232453	-0.039829563
196	0xbdf370f9	-0.11886782
197	0xbcf8302d	-0.03029641
198	0xbd4da66a	-0.050207533
199	0xbdaba3f4	-0.08380881
200	0x3e4cd44f	0.20002864
201	0xbc50014e	-0.012695624
202	0x3e17a74a	0.1480991
203	0x3da49fdc	0.08038303
204	0xbd6db120	-0.058030248
205	0xbe4d0c26	-0.20024166
206	0x3e298e2f	0.16558145
207	0xbe385af1	-0.18003441
208	0x3ddbad38	0.10726398
209	0xbdaf4830	-0.085586905
210	0xbce19b15	-0.02753977
211	0x3d9760ce	0.07391511
212	0x3df211bb	0.11819788
213	0x3d82f441	0.06394244
214	0x3e41cfea	0.18926969
215	0xbdbaace6	-0.09115009
216	0x3d741485	0.05958988
217	0x3e0b3726	0.13595256
218	0x3e4e7209	0.20160688
219	0xbd3910a3	-0.04518188
220	0xbdbf6990	-0.09346306
221	0xbd60000e	-0.054687552
222	0xbbbe8a9d	-0.005814864
223	0x3dfa0c52	0.12209381
224	0x3b4ccc90	0.0031249858
225	0x3df667fb	0.120315515
226	0xbd86ce2e	-0.065822944
227	0x3e1f2c57	0.15544258
228	0x3e0a0654	0.13478976
229	0x3e7f52f6	0.24933991
230	0x3e5c083e	0.21487519
231	0xbdd5a5d3	-0.10432019
232	0x3d10622f	0.035249885
233	0xbdb5bef4	-0.08874312
234	0xbd37dba6	-0.044887207
235	0xbb001e91	-0.001954947
236	0x3e05e7a6	0.13076648
237	0x3ce2a306	0.027665626
238	0x3e513753	0.20431261
239	0xbe192470	-0.14955306
240	0xbd91e2af	-0.071233146
241	0xbcafd27e	-0.021462675
242	0x3d819a4d	0.06328259
243	0x3d17fe66	0.037107848
244	0xbe3e44f7	-0.18580996
245	0x3d7e62c7	0.06210592
246	0xbd0459d3	-0.032312226
247	0xbc4379f3	-0.01193093
248	0xbe623180	-0.22089195
249	0xbb98e7fa	-0.0046663256
250	0x3d2586d8	0.0404118
251	0xbe2c3aac	-0.16819257
252	0xbe5a842c	-0.21339482
253	0xbcf8e935	-0.03038464
254	0x3c97a911	0.018513234
255	0x3d7e718b	0.06212

lstm.bias_ih_l1 f4 [256]
0	0x3d6e212c	0.058137104
1	0xbd97d784	-0.07414153
2	0xbd87bc43	-0.06627705
3	0xbd80b209	-0.062839575
4	0xbc7b229d	-0.015328077
5	0xbd5668b5	-0.05234595
6	0xbcba1d0c	-0.022718929
7	0x3e1f5bbd	0.15562339
8	0xbd2eaf16	-0.042647444
9	0xbe430345	-0.19044216
10	0xbddad99e	-0.106860384
11	0xbddd3b43	-0.10802319
12	0x3d865cfb	0.06560703
13	0xbda8cdcf	-0.0824238
14	0xbde049a4	-0.10951546
15	0xbd98540e	-0.07437907
16	0x3d3687fa	0.04456327
17	0x3cfe8332	0.031068418
18	0x3d7b07a1	0.061286572
19	0xbdd2d18b	-0.102938734
20	0x3d8ccde2	0.068752065
21	0xbdba22a7	-0.09088641
22	0x3cdc6640	0.026904225
23	0xbc92d731	-0.017924877
24	0x3ddab91f	0.1067984
25	0x3d0706b7	0.03296539
26	0xbb1c7ea0	-0.0023879185
27	0x3cd557fc	0.02604293
28	0x3e01902d	0.12652655
29	0xbc8addc5	-0.016951451
30	0x3de80b10	0.11330235
31	0x3e177c33	0.14793472
32	0xbe294e14	-0.1653369
33	0xbe3fc421	-0.18727161
34	0xbdf92aba	-0.121663526
35	0xbd8c7223	-0.06857707
36	0xbd75a619	-0.059972856
37	0xbdba3739	-0.09092564
38	0xbdaaf120	-0.08346772
39	0x3da33c77	0.07970517
40	0xbc8f6f98	-0.017509267
41	0xbda5e8fb	-0.08101078
42	0x3db1c0cf	0.086793534
43	0x3d99512e	0.07486187
44	0xbde3a6a5	-0.11115769
45	0xbd9747b6	-0.07386725
46	0xbdba9e4b	-0.09112223
47	0xbca7f8b4	-0.020504333
48	0x3dc7489c	0.09730646
49	0xbde4c133	-0.11169662
50	0xbb73723d	-0.0037146949
51	0x3d0697ee	0.032859735
52	0xbd98836a	-0.0744694
53	0x3b7246fa	0.0036968575
54	0xbbd0f668	-0.00637703
55	0xbcfcd766	-0.030864429
56	0xbd9a2c9b	-0.07528039
57	0xbe0363d4	-0.1283105
58	0xbd2313db	-0.039813858
59	0x3ccc2fbe	0.024925109
60	0x3df2d657	0.11857288
61	0xbd8cb9ba	-0.06871362
62	0x3d3dcf89	0.0463405
63	0x3da358a1	0.07975889
64	0xbd216dd9	-0.0394114
65	0xbd53e462	-0.051731475
66	0xbdda7f8e	-0.106688604
67	0xbe12fd9e	-0.1435456
68	0xbc34a50b	-0.011025677
69	0xbdb4270f	-0.08796512
70	0xbdd3acdc	-0.10335705
71	0x3da87863	0.08226087
72	0x3e0a869a	0.13527909
73	0x3d73ac97	0.059490766
74	0x3d2f15f3	0.04274554
75	0xbbef20fc	-0.007297633
76	0xbc2cd259	-0.010548198
77	0x3cfbd777	0.03074239
78	0xbd3706c7	-0.044684198
79	0x3e17dba3	0.14829879
80	0xbcf7a47d	-0.030229801
81	0xbce55f47	-0.027999533
82	0x3df2a930	0.11848676
83	0x3d993727	0.074812226
84	0xbd531cd4	-0.051541165
85	0x3d5fd800	0.054649353
86	0x3c09de79	0.008414858
87	0x3c9a8348	0.018861428
88	0x3ce84072	0.028351042
89	0xbbc58a5b	-0.006028456
90	0xbceab486	-0.028650533
91	0xbce8c6e4	-0.028415151
92	0x3da09e3c	0.07842681
93	0xbd6e1ca0	-0.058132768
94	0x3daac210	0.08337796
95	0xbda1870a	-0.07887085
96	0x3d9344ac	0.071908325
97	0xbdf2a0d8	-0.11847085
98	0x3d56e8c5	0.05246808
99	0xbd8923fd	-0.06696317
100	0xbdf7dfe0	-0.12103248
101	0x3e4bee9f	0.19915245
102	0x3cc82ab9	0.024434434
103	0x3e03c93d	0.12869735
104	0xbd30b6d2	-0.0431431
105	0x3d6c6fe9	0.057723913
106	0xbd99d6b8	-0.075116575
107	0x3b86af73	0.0041102706
108	0x3d60a5b9	0.054845545
109	0xbdfdeb73	-0.12398424
110	0x3dc865df	0.09785055
111	0xbd1c6afa	-0.03818796
112	0x3e05fa5f	0.1308379
113	0x3da34fb9	0.0797419
114	0x3cb10cd3	0.02161256
115	0x3defa246	0.11700873
116	0xbd361b5f	-0.044459697
117	0xbc1135d4	-0.008862931
118	0x3cd9c671	0.026583882
119	0xbe21b8e6	-0.1579319
120	0xbdbb7310	-0.09152806
121	0x3d04ba9f	0.03240454
122	0xbd04a0bc	-0.03237985
123	0xbb584be0	-0.003300421
124	0x3d64ecbe	0.055889837
125	0x3d1cc743	0.03827597
126	0xbcb603f9	-0.022218691
127	0x3db7d995	0.08977047
128	0xbdc43953	-0.09581246
129	0xbd872136	-0.06598131
130	0xbd61e1b2	-0.05514688
131	0x3bce7316	0.0063003404
132	0xbc3026d4	-0.010751445
133	0x3daeed2b	0.0854133
134	0x3e129397	0.14314114
135	0x3d0a117e	0.033708088
136	0x3dc223ab	0.094794594
137	0xbd693844	-0.056938425
138	0x3d783c3c	0.06060432
139	0x3d9a481f	0.07533287
140	0xbdfc770c	-0.12327394
141	0xbdd1c3a0	-0.10242391
142	0xbd6a1b42	-0.0571549
143	0x3d900282	0.07031728
144	0x3c38392d	0.0112441005
145	0xbdcffcd1	-0.10155643
146	0x3df9d662	0.121990934
147	0x3d8a1428	0.06742126
148	0xbd7a2019	-0.061065767
149	0xbd17afc4	-0.037032858
150	0xbd6006d4	-0.05469401
151	0x3d21cdd8	0.03950295
152	0x3d71902f	0.058975395
153	0x3d28f5ce	0.041250043
154	0x3da6dc1b	0.081474505
155	0xbc542766	-0.012948846
156	0xbdf21473	-0.11820307
157	0xbcca8cc4	-0.024725325
158	0xbe1daec2	-0.15398696
159	0xbde15c3e	-0.11003922
160	0x3db344da	0.08753367
161	0x3d1e27b7	0.038612094
162	0x3e06da3c	0.13169187
163	0x3d80b8f3	0.06285276
164	0x3e067a9e	0.13132712
165	0xbda23a3f	-0.07921266
166	0x3d10d132	0.035355754
167	0x3d828d6c	0.0637463
168	0xbd94d401	-0.07266999
169	0x3de00770	0.109389186
170	0xbe1beea3	-0.15227751
171	0x3d2b997f	0.041894432
172	0xbc99c29f	-0.01876956
173	0x3dad99b0	0.08476579
174	0x3da4b2f0	0.08041942
175	0x3d981ce4	0.074273854
176	0x3d3f55f5	0.046712834
177	0x3de2c0fa	0.110719636
178	0xbdc5cb18	-0.09657878
179	0x3d80189b	0.06254693
180	0xbde6b468	-0.112648785
181	0xbe0af551	-0.13570143
182	0xbcec3b82	-0.02883697
183	0xbdd34e1b	-0.10317632
184	0xbd7a597a	-0.061120488
185	0xbdf11541	-0.11771632
186	0x3deb66f9	0.1149425
187	0xbd9d4625	-0.07679395
188	0x3dbe9781	0.09306241
189	0xbda44cea	-0.08022483
190	0xbd45daad	-0.04830425
191	0x3c414ff6	0.011798849
192	0x3c51060b	0.012757788
193	0xbde95bcd	-0.11394463
194	0x3bab87ae	0.00523468
195	0xbe1697d1	-0.14706351
196	0xbd240ec8	-0.04005316
197	0x3d737a49	0.059442792
198	0x3de13b5b	0.10997649
199	0x3e4f79bb	0.2026128
200	0xbd81f8b5	-0.06346265
201	0x3d649d7c	0.05581425
202	0x3d1c9477	0.038227525
203	0xbca76c97	-0.020437522
204	0x3d3c0461	0.045902614
205	0x3da24af1	0.0792445
206	0x3d2b4945	0.041817922
207	0x3c85a14e	0.016312268
208	0x3d947a94	0.072499424
209	0x3da8cf90	0.082427144
210	0x3caaec16	0.020864528
211	0xbd8e7a13	-0.069568776
212	0x3dd3c017	0.103393726
213	0xbd123c52	-0.035702057
214	0x3d521902	0.05129338
215	0xbc737018	-0.014858268
216	0xbb0977f2	-0.0020976034
217	0x3d39bea3	0.04534782
218	0x3da4b913	0.080431126
219	0x3d2ff136	0.042954646
220	0xbd9379b3	-0.07200947
221	0xbc9baf28	-0.01900442
222	0xbdca8087	-0.09887796
223	0xbd279f0f	-0.040923174
224	0x3d29c4c9	0.041447435
225	0x3caaafb3	0.020835733
226	0x3e04a23e	0.12952515
227	0x3da12fcc	0.07870445
228	0x3ce7607c	0.02824425
229	0x3e1f706b	0.15570228
230	0x3dc3470a	0.09535034
231	0x3d74d798	0.05977592
232	0x3db541b7	0.08850425
233	0xbda12dc3	-0.078700565
234	0xbd6b59bd	-0.057458628
235	0x3cb6fc32	0.022337053
236	0xbbf74c7e	-0.0075469604
237	0xbdbe9c8f	-0.09307205
238	0x3de78f16	0.11306588
239	0xbce150c7	-0.027504338
240	0x3e2cb8c4	0.16867357
241	0xbca68ec8	-0.020331755
242	0xbdc95804	-0.09831241
243	0xbd450e21	-0.048109178
244	0x3d80ab1c	0.062826365
245	0xbd26fa9b	-0.04076634
246	0xbdc1b646	-0.09458594
247	0x3d15c029	0.03656021
248	0x3d81ef2b	0.06344446
249	0xbd1f4c06	-0.03889086
250	0x3e2d7acd	0.16941376
251	0x3e0ea738	0.13930976
252	0x3d110396	0.03540381
253	0xbd431160	-0.047623992
254	0xbe0e2959	-0.1388296
255	0xbc3f7c26	-0.011687314
