src/util/AI/checkpoints/018.ckpt (torch, 353508 bytes, 14 tensors)

lstm.weight_ih_l0 f4 [256, 12]
00000000: 7507 3cbd c201 a93d 5c4c 23be 188b 063d
00000010: 8211 c23d 7538 a43d f640 733d 565b 30bc
00000020: 86b6 d7bd cbff 193d 5859 dbbd 4471 4fbd
00000030: 623f 31be ff17 92ba c8f0 84bd 98a6 d3bd
00000040: 40e1 85bd 6707 6bbd a867 033e 76ac f13d
00000050: 6f4b b83d 8d1c 1d3d 1d91 b7bd 8c58 033d
00000060: 4a46 923d 8714 ef3d 1d0b 393d aa08 023e
00000070: 5938 2c3d b56a 543e 74fa 4d3e 65e0 d9bd
00000080: c4c1 573c 2a61 15bd 0f96 3f3d 6be4 b3bd
00000090: 9872 813c b6c2 493d 5e21 923d e0cc 52be
000000a0: 60e8 48be 8a98 d8bb 90da 403e d124 153c
000000b0: 5a50 0bbe 6bba 67bd ccb7 4a3e deae 973c
000000c0: 9bb2 f03c 27d1 9fbd f6ad 98bd 669d 6abd
000000d0: db0c 273d 15d5 a4bc 974c b53d c47f 4b3e
000000e0: 3d4e d93c 83b4 9abd db3a b0bd db2c bfbd
000000f0: 4066 aa3c 30a9 143d a710 1f3d 276c ac3d
00000100: 7992 a03c 09b2 bbbd 3abd 7a3e 6d8c 963e
00000110: d43a 9abc 884f 36bd 8fee d4bb 3ca5 1c3d
00000120: df19 f53d ebb0 903c 2321 1cbe 46c7 2dbe
00000130: 60bc c73d 30d6 233c 2164 84bd bf76 fb3d
00000140: 0acf 34bd 80c1 7ebd 355a 143c 14bc 80ba
00000150: 831d 5ebd 7749 053e 7a09 6b3d ef21 423d
00000160: d43f af3d 368e aa3d b564 e4bb 0d38 063e
00000170: e782 46bd 4fe5 b2bc 1a0f 35bd e216 65bd
00000180: ecd2 77bc 4c79 cebb 8e73 e9bd 814b 383c
00000190: 42a6 fdbb 8181 733d 5a22 593e 1c79 8a3e
000001a0: 73be a33c a87e 43bd b18b c6bd 7650 2dbc
000001b0: 4c63 903d 0dcf 1bbd 1107 d63d 340d 923d
000001c0: 2ec9 36bd 8d27 1a3c 55e6 9c3d 0a2c 1bbe
000001d0: b338 49be d796 5a3c 3f3e fdbc 6883 f83d
000001e0: 4598 de3c d522 aabd 3202 e9bd 26bd 63bd
000001f0: 30cb 283e 2469 483d d214 ea3d 42c7 eb3d
00000200: 16fe 013e 932e c43b 99fe c13d 29a8 56bd
00000210: eeb7 a73d 3acc 5c3d 501f 4a3d 461f b6bd
00000220: 71e4 6c3d 018f a33c aca5 c8bd 7a5f 37be
00000230: 0e9a 63be 6385 363d baf6 283e 77b3 d33c
00000240: 18fb 0b3d 1803 893c 076a 09be d73a ebbd
00000250: f953 0b3d bdfb 163e 7ce3 98bd f732 8dbe
00000260: b666 b7bd 78a6 f43c 30eb 12bd 74b2 c7bd
00000270: 11e1 973c 59f0 713d fd71 823d 30d6 97bd
00000280: 5705 04be 80d2 c8bd 5f9c 1b3e b94e eabd
00000290: b408 1ebe 6686 93bd 8611 493c feb1 033d
000002a0: db99 88bd 0b26 283d 640f b8bd 8bed ce3d
000002b0: 5c50 70bd 978f 9bbd 5553 cb3d 6a1e 273d
000002c0: fee8 ccbd e36b 363c 2648 36bc 161e 363d
000002d0: ea0e 65bd 6b16 5dbd cff9 163e ee56 773c
000002e0: 5183 0b3e 653b 4e3c 40d3 eabd 14ea efbc
000002f0: c41b 0cbd a3dc b2bd 4bbe 3dbd ee3b 033e
00000300: 325b 94bd d714 b33c be5e 773d 0e6a 263e
00000310: 6dd8 993d 16d1 6d3d 043c 72bd 361a 2dbe
00000320: 1c78 2ebd d091 d0bc 1e0b b9bd 5f0c 0ebd
00000330: 87c7 9fbd 7898 1abd a0e5 25bd 2037 53be
00000340: 3f1c c33c a040 413e d106 e63c 70f1 e2bd
00000350: 0343 a73d 3d2a ff39 a81c 0a3e 65dd fdbd
00000360: c781 05be c219 21bc 9ab4 6abd 087e c83d
00000370: dcaf 603d 4d8e 1abe 4c18 6ebe ee05 cc3d
00000380: 78e0 3d3d fd57 643d 9110 49be ba21 c4bd
00000390: 5da9 5abe 4b4d 7b3c bbf0 d0bd 0470 913d
000003a0: 801f 013e 6b7b 043d 36ef 8cbd 0cdb 10bd
000003b0: ec21 ab3c ae2a b13d 9e82 8dbd f8d2 863c
000003c0: 1ad4 d2bd e56a 2e3e e89d d7bd f2ee 0dbb
000003d0: c0ac f4bc d8c9 adbd 18e3 4ebd 01e4 fa3d
000003e0: c129 9bbd fedd b2bd 4084 693d 9378 d33c
000003f0: 4bb8 fcbb 58a4 833d 475d f3bd 8a21 413d
-0.04590555 0.082522884 -0.15947098 0.032847494 0.094759956 0.08018581 0.059388123 -0.010763964
-0.105328605 0.03759746 -0.107104 -0.050645128 -0.17309335 -0.0011146067 -0.06491238 -0.103345096
-0.06537104 -0.057380106 0.1283251 0.118004724 0.08998763 0.038357306 -0.08963225 0.032066867
0.07142313 0.11673837 0.045176614 0.12698618 0.042045925 0.2074383 0.20115072 -0.10638503
0.013168756 -0.036469616 0.046773966 -0.08783802 0.015801713 0.049257956 0.071352705 -0.20585966
-0.19619894 -0.006609981 0.18833375 0.009103016 -0.1360487 -0.056574266 0.19796675 0.018516
0.02938204 -0.078035645 -0.074550554 -0.057279013 0.040783744 -0.020121137 0.08852499 0.19872957
0.026526565 -0.07553961 -0.08604976 -0.093347274 0.02080071 0.036294162 0.03883424 0.08419066
0.019601094 -0.09164817 0.24486247 0.2940401 -0.01882688 -0.04450944 -0.006498165 0.038243517
0.11967825 0.017662486 -0.15247016 -0.16970548 0.097527266 0.009999797 -0.064644106 0.122785084
-0.04414276 -0.062196255 0.00905471 -0.0009821677 -0.054227363 0.13016306 0.057382084 0.047395643
0.08557096 0.08327906 -0.006970013 0.13107319 -0.048464682 -0.021837858 -0.044203855 -0.055930026
-0.015125971 -0.006301081 -0.113989934 0.01124847 -0.0077407667 0.059449676 0.2120451 0.27045524
0.019988274 -0.04772821 -0.09694613 -0.010578265 0.070501894 -0.038039256 0.104505666 0.071314245
-0.044625454 0.009408844 0.0766112 -0.15153518 -0.19650535 0.013341627 -0.03091347 0.12134439
0.027172217 -0.08307425 -0.11377372 -0.055600308 0.1648376 0.048928395 0.114297524 0.11512615
0.12694582 0.0059869974 0.09472389 -0.052406464 0.08189379 0.053905703 0.04934627 -0.08892684
0.057835046 0.01996565 -0.097972244 -0.17907515 -0.22226736 0.0445608 0.16500369 0.025842411
0.03417501 0.016725108 -0.13419352 -0.11485832 0.03401563 0.14744468 -0.07465264 -0.27577946
-0.089551374 0.029864535 -0.035868824 -0.09750834 0.018539937 0.059067104 0.06369398 -0.074139
-0.12892662 -0.09805775 0.1519637 -0.114407964 -0.15433007 -0.07203369 0.012272244 0.03215217
-0.066699706 0.041051906 -0.089873105 0.101039015 -0.058670387 -0.07595747 0.09928004 0.04080049
-0.10005377 0.011134121 -0.0111256 0.044462286 -0.055922426 -0.053976458 0.14743732 0.015096409
0.13624312 0.012587403 -0.11466074 -0.029286422 -0.034206167 -0.08733489 -0.046324056 0.1281583
-0.072439566 0.021860523 0.060393088 0.16251394 0.07511983 0.058060728 -0.059139267 -0.1690453
-0.042595014 -0.025460154 -0.090353236 -0.034679767 -0.07801729 -0.03774306 -0.04050219 -0.20626497
0.02381718 0.18872309 0.028079422 -0.11081207 0.08167078 0.0004866886 0.13487494 -0.12395743
-0.13037787 -0.009832801 -0.05730114 0.097896636 0.054855213 -0.15093346 -0.23251456 0.099620685
0.04635665 0.055747975 -0.19635226 -0.09576745 -0.2135367 0.015338252 -0.10202166 0.071014434
0.12609673 0.032344263 -0.06881563 -0.03536515 0.020890199 0.08650719 -0.06909679 0.01645802
-0.102943614 0.17032965 -0.10528165 -0.0021657315 -0.02986753 -0.08485764 -0.050509542 0.122505195
-0.07576323 -0.08733748 0.05701089 0.02581433 -0.007712399 0.064278305 -0.118830256 0.047151126

lstm.weight_hh_l0 f4 [256, 64]
00000000: 8a40 363d 0b9b 82bd afd9 223e 38fe a1bc
00000010: 3180 893d b356 443e c953 adbd 9319 c3bc
00000020: 4928 f33d 68ef 393e d004 a33d 0ce0 e23c
00000030: 5ffd 493e 4349 ccbd 8884 f73d 4a1b 5c3d
00000040: 0c50 38bd 7593 813d 85e1 483b da95 0e3d
00000050: 71e5 06bd 83b8 b9bd 7d93 403c 3d13 93bc
00000060: fc6e 2b3e 3f96 59bd e22d 0ebe ad08 81bb
00000070: 7650 a73d d6b7 953d 1ad2 f7bd 9c91 8cbd
00000080: 971b 8dbd 210f 843b d305 8b3d ae35 e7bd
00000090: eaa2 753a 212d 173d 9a31 8ebd 7256 8e3d
000000a0: 2700 65bd 2e58 4abd 3e6e ae3c 90cb ecbd
000000b0: 1c78 8dbd 778e 37be 2644 dbbd 686d 20be
000000c0: 1ee7 ab3d c33f 983d 51e6 c23d ba3c 753d
000000d0: 7bb6 47be 7853 02bb 8360 5d3e 2dc8 b3bd
000000e0: d859 133d 33f6 f23d 8317 0abe 2ae3 90bd
000000f0: 43af 79bd ffdc 1e3e f4b4 ac3c c9e7 dd3d
00000100: 3bb6 4e3d 0261 aabd 8ef1 833e 7011 c13d
00000110: d438 893d c549 bebd 96f6 40bd acbc 6abd
00000120: 5456 8abd b055 22be 572e dc3d 9134 b73c
00000130: 7b55 313c dcec babd 1e0c 36be 3eda a23d
00000140: c1a0 033e 4d31 49be 6391 4d3e e53d 993d
00000150: be8a 533e d5e0 f8bd a66e 48be d30c 373d
00000160: d275 963d f4dd 1ebe 0789 5f3d be93 253e
00000170: 7562 8ebd 0cf1 72be 7e7f 20bd bd41 293e
00000180: 431e 15be 8ca6 bbbd 623a c63c d855 733d
00000190: 293b 6b3d e84b 8cbd a0ce f1bd a45a c13d
000001a0: cada dc3c c0d5 30be 8c23 83bd 6254 32be
000001b0: 97c1 a4bd 30a7 12be 4524 0fbe 5bbe 42bd
000001c0: 38e7 90bc 6d96 2cbc 63a5 8e3d 2e87 a3bb
000001d0: 25f9 37be 7e32 bb3d afff febc 3edc 6c3e
000001e0: 7ff0 8fbd 60d5 e53d 8bc4 32be ef74 cc3d
000001f0: 833f f83c 00d9 88bd e08d 933d 4797 ddbd
00000200: 9fd0 133e 409e 58be 29ca 92bd 50cf 863d
00000210: 95f3 56bd a5bb 5a3d 967a e4bc b741 cb3d
00000220: 4b35 983d cce9 c9bd 1997 393d 5c82 8b3d
00000230: 163d 283e eed3 0bbd 6a1d 7abd 62f2 aa3d
00000240: 12ed 0abe b68f 03bd d4bd 573e 3e57 293c
00000250: 354d d3bd ed82 0b3d 386d bcbb 1d73 553d
00000260: f3ee f2bc 6278 16be 55df dfbd d9fa a9bd
00000270: 52d2 49ba 3922 503d 29a1 31be ba73 00be
00000280: 1871 3e3c 95e1 e43c 83ec fb3d b48b 03bd
00000290: 7888 473d a896 d73d be26 dcbc 39d2 1d3e
000002a0: 9430 363e fe50 343d c203 483d 9049 7bbc
000002b0: e33a b03c 1f65 f43d e926 1bbe a02f 2e3e
000002c0: cd4f 89bd b479 923b 8401 a43b e07f 25be
000002d0: 5c85 2d3a ed16 4abe 5904 02bc 3a57 1fbe
000002e0: 0d29 08be 895d dc3c b5e1 c63d 1139 f63c
000002f0: 6ff6 b8bd 530f 343c fd7e e5bd c879 683e
00000300: 81ab 853e 9099 8dbe e949 053e 4c6a 82be
00000310: 1745 eaba feb8 6fbe d300 0abe 941f a2bd
00000320: 237f 223e f3df 3ebe ee40 933d 1baa dabb
00000330: 4a02 55bc 051b e0bc cae2 08bb dada 203e
00000340: 656b 723d eba2 8dbb 79fe 38be f509 4c3e
00000350: 91f6 c4bd 801a 25be 6b99 37be b843 ec3d
00000360: bed6 9a3d 6620 f3bd 08f3 3fbe c64d 603e
00000370: 8535 1e3e db57 cdbd 75a2 2d3e 0ab2 3cbb
00000380: 7de6 303e 3ff0 89bb ef8e e53b 83e1 6d3d
00000390: af5f cdbd 2da7 e8bd 2e9d f9bc 7e43 c33d
000003a0: 6366 4d3e 227b 083e 8882 813c 35b7 9cbe
000003b0: cf8a 0f3c 151d 073e 42db 193d 356e 993e
000003c0: 6303 9d3d f68a 43be 958d ddbd 1132 b83d
000003d0: 5d58 3dbd fbf0 ed3d 9415 ad3d 70e1 173d
000003e0: aa9e a83d 0e7d db3c 5357 a2be 6a5c 3abe
000003f0: 41ee b83d 884e 8bbe 094e 423e 22be 0abc
0.044495143 -0.06377228 0.15903352 -0.019774541 0.06713904 0.19173698 -0.084632464 -0.023815906
0.11872918 0.18157732 0.07959902 0.027694725 0.1972556 -0.09974911 0.12085825 0.053736962
-0.044998214 0.06326953 0.0030651998 0.03481088 -0.032933656 -0.09068396 0.011753914 -0.01795351
0.16741556 -0.0531218 -0.1388469 -0.003937802 0.081696436 0.073104545 -0.121006206 -0.0686371
-0.06890028 0.004030124 0.0678822 -0.112895355 0.00093702844 0.036908273 -0.069430545 0.06950082
-0.05590835 -0.0494005 0.021292802 -0.11562264 -0.06907675 -0.1792544 -0.10706358 -0.15666735
0.083936915 0.074340366 0.095165856 0.059872366 -0.19503205 -0.0019886177 0.21618848 -0.08778415
0.035974354 0.11863365 -0.13485532 -0.07074578 -0.06095816 0.15513991 0.021082379 0.10835225
0.050466757 -0.08319284 0.2577023 0.09427154 0.06700292 -0.09291414 -0.047110163 -0.057308838
-0.06754747 -0.15853 0.10751026 0.022363933 0.010823603 -0.091272086 -0.1777806 0.07951783
0.12854291 -0.19647713 0.20074992 0.074825086 0.20658395 -0.12152258 -0.19573459 0.044689965
0.07346691 -0.15514356 0.05457404 0.1616964 -0.06952373 -0.23724765 -0.039184086 0.16528983
-0.14562325 -0.09162626 0.024197761 0.05940804 0.057429466 -0.068504155 -0.11806989 0.094411165
0.026959796 -0.17269039 -0.064032644 -0.17415002 -0.08044737 -0.1432159 -0.1397868 -0.04754482
-0.017688379 -0.010533911 0.06965139 -0.00499048 -0.17966135 0.0914049 -0.031127779 0.2313089
-0.07028293 0.11222339 -0.17457788 0.09983241 0.030303722 -0.066820145 0.07204795 -0.108198695
0.14435051 -0.21154118 -0.07167465 0.065825105 -0.05247839 0.053401608 -0.027890485 0.099246435
0.0743204 -0.09859046 0.045310114 0.068119735 0.16429552 -0.03413766 -0.061063208 0.08347012
-0.13566998 -0.032119475 0.21068507 0.010335742 -0.103174604 0.034060407 -0.0057503246 0.052111734
-0.029654955 -0.1469436 -0.10931269 -0.082997985 -0.00076988817 0.050813887 -0.17346634 -0.12544146
0.011623643 0.027939597 0.123009704 -0.032115653 0.04871413 0.10526782 -0.026873942 0.15412225
0.17791969 0.044022553 0.04883171 -0.015337363 0.021512454 0.1193335 -0.15151562 0.17010355
-0.06704674 0.0044700745 0.0050050635 -0.16162062 0.00066192984 -0.19735308 -0.007935607 -0.15560618
-0.1329691 0.02690007 0.09711019 0.030056508 -0.090313785 0.010989982 -0.11205862 0.22702706
0.2610741 -0.2765622 0.13016476 -0.25471723 -0.0017873374 -0.23410413 -0.13476877 -0.07916179
0.15868811 -0.18640117 0.07190119 -0.00667311 -0.013001034 -0.027356634 -0.002088713 0.15708485
0.05918445 -0.0043224 -0.18065824 0.19925673 -0.09617341 -0.1612339 -0.17929618 0.11536354
0.0756049 -0.11871414 -0.18745053 0.21904668 0.15450104 -0.10026523 0.16956504 -0.0028792643
0.17275424 -0.004209548 0.0070055644 0.058076393 -0.10028016 -0.11360011 -0.030470457 0.095343575
0.20058589 0.13328221 0.015809312 -0.30608526 0.008761122 0.13194688 0.037562616 0.29966894
0.076666616 -0.19095978 -0.1081802 0.089939244 -0.046226848 0.11618229 0.08451381 0.03708023
0.08233388 0.02679303 -0.31707248 -0.18199316 0.09029818 -0.27208352 0.1897508 -0.008468183

lstm.bias_ih_l0 f4 [256]
00000000: 44d9 0fbd d9f6 c0bd 374b a6bd ae29 00be
00000010: 58dc c1bd c38d 003d adbe 043d a14a c73d
00000020: 9e10 133e 9f6e c0bd ddb9 b5bc a63b 353b
00000030: 4304 5bbd 1803 64bd 52bd a73d 49f1 00bd
00000040: cf02 0cbe eb8d 993c 000f 2ebd 24e0 773c
00000050: 2ab6 15bd 581e c53d faeb e7bc 6cf9 40bd
00000060: adee 843d 699d 393d efc3 57be d382 3b3d
00000070: 650b 9c3d 26d3 0cbd f0ac 993d 2a36 a03d
00000080: eb5e 7e3d b5ce 4bbd 374e 00bd c802 e73d
00000090: ad4d 3a3d bee8 b9bd c913 86bd dd22 2bbe
000000a0: 31f1 433b 0086 b1bc 3a40 de3d 9b39 8e3d
000000b0: 2e94 e73c 46da 9abd e64c ac3d 9673 463e
000000c0: da0c 353d ffde bfbd f0b7 4abd ddbd 94bd
000000d0: 6136 5ebc 1869 9cbd e10f 8e3d 426e c1bd
000000e0: 3a2b 85be f658 47be 7e7c 333b 4432 9cbd
000000f0: 688b afbc e8ca 0dbc b886 213e dcff d13d
00000100: 8289 7abd 8294 71bd 1b70 63bd 56aa 36be
00000110: aa35 da3d 72c1 8dbd 8116 93bc 1c45 9bbd
00000120: acda c8bd 7bd1 11bc fa2c 5fbc 1306 323d
00000130: 9891 ffbd 694b 09be 92c7 debc 02b3 693d
00000140: d0f8 83bd d789 acbd 28cb 003d a2f6 f63d
00000150: 4c46 e13c fa46 913d c068 ff3d 3c9c bd3d
00000160: fdf5 4f3d 3a31 8a3d d935 13bd dead 763d
00000170: 48ea 263d 1367 353e 039c 4abd c3b9 433e
00000180: f612 063e 3464 103d 2757 d5b9 1c57 043e
00000190: a0dc c63d aa8c 5fbe ecb5 793d 5b54 49be
000001a0: c727 a43b 3a17 0b3e 84a2 c33d 3782 8e3d
000001b0: 7d8d 273d 6593 7ebd 7270 ac3d d555 263c
000001c0: 66b8 073b f6cc 163e 15f3 b13d 8f2c adbd
000001d0: 2a41 0c3e a08e 783c 96c0 eabd 05b4 203e
000001e0: 48ad e2bc 15f6 ebbc 8f99 1fbc 757d 0cbe
000001f0: a6ce 04be b4ba 97bd 9ff1 e53d 4768 dfbc
00000200: 3ce6 9ebb df04 babd fe0c 793d 8712 4d3d
00000210: 978b 00bd 647a bc3d 1ed0 0abc f95d 863b
00000220: 4d48 2bbe 9e4c 2fbd ea55 f9bd f58b b5bd
00000230: 1811 06bc 6e2c e5bb 6efb 973b 68db 283d
00000240: f9d1 3b3d 819a d73d e740 8abd 4261 433e
00000250: e82f b6bd 1175 983d be9f 063e 2fe2 293e
00000260: ae32 293c 47c7 663d bd31 3b3e dddc 783d
00000270: 3b81 dbbc 8b46 dbbd 41e9 2b3b 1318 22be
00000280: f49f 2f3e fba6 c33c 3b28 28bd c336 acbc
00000290: 23ac cb3d d471 e0bd c695 a0bd 5033 5bbd
000002a0: 70c5 e43d 1473 363d 8252 91be 7d59 2cbd
000002b0: e71d 883c 77b2 babd d054 e23d 9990 8fbd
000002c0: 7036 043d a392 303e e3f6 6e3d 8c48 233e
000002d0: d17c dd3c 23b6 ad3d 4323 173d 300d c5bd
000002e0: 79e3 63bd a83d 013e d0e9 273e 6295 7c3d
000002f0: 7681 1ebd a152 023e 5c66 c13d 6326 a7bd
00000300: efbf 653d e699 ecbb da82 0abc 478d b43d
00000310: 58e2 393c 3959 7bbd 0094 2abe 9451 c03d
00000320: 17a5 c7bd 59b2 19bd ff89 62bd aa70 a63c
00000330: 580c ad3b f5b1 74bb 20dd 2cbe 21c0 4eba
00000340: 37c8 e2bd 44c3 e1b9 185f 0cbe 1ea8 923d
00000350: a4f0 02be 445a 9bbd 9bdd c73b 169c 79bb
00000360: 93b7 0fbe 0c9c a33d af18 ee3d 067e d93c
00000370: a7b3 bf3d 4387 f7bc 6157 553c 0bed bfbd
00000380: 7801 58bc eb5c e3bc b7e0 1abd 0510 debd
00000390: e33b 113d b231 dabd 8861 433d c7f5 2fbd
000003a0: 66a7 24ba 6938 503e bac8 e43d f80e e83d
000003b0: 5618 a73d db18 30bd 574d a1bd 180d d7bc
000003c0: 7a5d 93bd de0d c7bd 929a 04be 941d ff3d
000003d0: e771 f33d f7ad b03b e4f7 8cbd 31a0 a0bd
000003e0: 7468 adbd 6d63 123d 11d8 26be 50b1 e73d
000003f0: 68ac b83d 2991 a6bd f4b4 f13c fdd3 ecbd
-0.03511931 -0.094220825 -0.08119815 -0.125159 -0.09465855 0.031385195 0.032408405 0.09731031
0.14361808 -0.09396099 -0.022183353 0.0027653961 -0.05347086 -0.055667013 0.08190407 -0.031480107
-0.13672946 0.01874443 -0.042494774 0.015129123 -0.03655068 0.09624928 -0.028310765 -0.047112867
0.06490836 0.045316134 -0.21070836 0.04577906 0.07619361 -0.034381054 0.07503688 0.07822831
0.06210224 -0.049757678 -0.03132459 0.11279827 0.045484234 -0.09077595 -0.065467425 -0.16712518
0.00298984 -0.021670341 0.10852094 0.06944581 0.0282689 -0.075611636 0.08413105 0.1938003
0.04420171 -0.09368705 -0.049491823 -0.07262776 -0.01356277 -0.076372325 0.069366224 -0.09444858
-0.26009542 -0.1946753 0.0027387436 -0.07626775 -0.021428779 -0.008654334 0.15774047 0.102538794
-0.061166294 -0.05897952 -0.055526834 -0.17838416 0.10654767 -0.069216624 -0.017955067 -0.07581541
-0.09807333 -0.008900042 -0.013621563 0.043462824 -0.12478942 -0.13407673 -0.027194772 0.05705548
-0.064439416 -0.08424728 0.031443745 0.1205876 0.02749934 0.07093616 0.12471151 0.09258315
0.050771702 0.067476705 -0.035940025 0.060224406 0.04075077 0.17715101 -0.04946519 0.19113831
0.1309317 0.03525181 -0.0004069146 0.12923855 0.0971005 -0.21831003 0.06096451 -0.19661085
0.0050096246 0.13583079 0.09552482 0.0695843 0.040906418 -0.062152285 0.08419885 0.0101523
0.0020709275 0.14726624 0.08688942 -0.084557645 0.13696733 0.015170723 -0.11462514 0.15693672
-0.027670518 -0.028803864 -0.009741201 -0.13719733 -0.12969455 -0.07408658 0.11227726 -0.027271403
-0.0048492234 -0.0908296 0.060803406 0.050066497 -0.031383123 0.09203032 -0.008472471 0.004100558
-0.167268 -0.042797677 -0.1217459 -0.08864585 -0.008182786 -0.006993822 0.004638127 0.041224867
0.045854542 0.10527516 -0.067506604 0.1908007 -0.08895856 0.07444204 0.13146874 0.16590188
0.010327024 0.05634239 0.18280692 0.060757507 -0.02679502 -0.107068144 0.002623156 -0.15829496
0.17150861 0.023883333 -0.04105399 -0.021022206 0.09944942 -0.10959211 -0.07841067 -0.053515732
0.11170471 0.04454334 -0.2838326 -0.04207753 0.016615821 -0.09116071 0.11051333 -0.07010002
0.03227848 0.17243437 0.05834092 0.15945643 0.027037056 0.084820054 0.036898863 -0.09621656
-0.055636857 0.12621176 0.16397786 0.0616659 -0.038697682 0.12726833 0.094433516 -0.081616186
0.056091245 -0.0072204946 -0.008454049 0.08816009 0.011345468 -0.061364386 -0.1665802 0.0939056
-0.09748285 -0.0375236 -0.055307385 0.020317394 0.0052810125 -0.0037337516 -0.16881227 -0.0007886906
-0.11073344 -0.00043060828 -0.1370815 0.07160972 -0.1278711 -0.07585576 0.0060994155 -0.003808742
-0.14034872 0.07988748 0.11625802 0.02654935 0.09360438 -0.030215865 0.013021321 -0.09371384
-0.013183944 -0.027754268 -0.03781196 -0.10842899 0.035457503 -0.1065401 0.047700435 -0.042959
-0.0006281048 0.20334019 0.11171098 0.1133098 0.081589386 -0.042992454 -0.078760795 -0.02625136
-0.071955636 -0.09719442 -0.12949589 0.124568135 0.118869595 0.005391832 -0.06883219 -0.07843054
-0.084671885 0.03573935 -0.1629336 0.113131166 0.09017259 -0.08133156 0.02950523 -0.11563871

lstm.bias_hh_l0 f4 [256]
00000000: aa3b 0bbe c204 39bd 04f0 4ebd 6301 85be
00000010: cb91 0fbe ebbb ccbd 7150 96bc 845c 073e
00000020: 6ad4 073e d540 a53d 1e0d be3d 1721 80bb
00000030: fcb8 9e3d 27f1 82bb 9638 cc3d 0b56 8b3d
00000040: 75c5 d43c f47e debd 0ca5 11be cd06 e03d
00000050: 4d88 183c 4063 133e 5788 8b3d 60f0 83bd
00000060: fb27 cbbd 882e 0ebb 0d74 2cbd 6b96 a9bd
00000070: 298b 82bd aefd 623c b3c3 153d bd12 42bd
00000080: 22d9 1bbe 721f 8fbd 0686 c8bd 4fb4 493d
00000090: 87e1 6bbd f91d f7bc 7c31 293d 5041 c03b
000000a0: 0181 d4bd a4f1 cf3d d67a db3d 0988 12be
000000b0: a5a0 b73d e0c2 9bbd dd6f ea3c 1cb0 a53d
000000c0: f9d9 343e 8874 cfbc b637 4fbe 897d 0abe
000000d0: b012 573c 2ae8 8b3d 9cbd 623d ed1d 5cbd
000000e0: 7667 9fbd 3e18 37be c76e 203d 8e6c 823d
000000f0: f615 913c e6c9 353e 6dda 19bd 3ac3 ad3d
00000100: 5187 9b3b 6019 393d e69c 2cbe 8cfb 03bd
00000110: 3d4f 47bc bab0 efbd fb0a 8cbd 74ea 9bbd
00000120: bdaf 34be 879e 973d b753 96bd dcb6 aabd
00000130: 233f 023d aacc a3bc 9604 81bd 9570 2a3d
00000140: 66f3 7dbc 55d0 813d 835f 803d e63c 2e3d
00000150: 5fa8 fabd eb03 37bd f4fa 0b3e 3ef6 44bd
00000160: 5172 ce3d 3b98 173e 20cf f5bd 7d2f 12bc
00000170: 0a9e 953d 6496 153e 8991 923d 40ca d83d
00000180: 4b33 aabd 1525 8d3b e96b dc3d ae60 febc
00000190: be30 1b3e 3f41 02be 2c5c a43d e36e 8ebd
000001a0: 8edf 543c 5977 8cbd 7116 6bbc 53eb fa3d
000001b0: 36d8 8e3d f362 823d ad07 c8bb 7644 0b3e
000001c0: f68d 563d 791a 673e 0190 b93d de5e 233c
000001d0: 0f24 d63d 9f37 713b 5f63 fabc de96 de3d
000001e0: a3b0 50bd 22eb d6bc bd2c fa3c 40b6 88bc
000001f0: 5b87 b73c 8116 c33c fab5 173d 222b 91bd
00000200: 7406 b83d dd58 bb3d 33e3 3abe 7a80 65bc
00000210: 77f2 1b3e fa72 90bd d5c6 17bb 447b 153e
00000220: d3f2 32be e475 66bd 13d5 753d 8626 543d
00000230: b391 4fbe cc25 0fbd 7852 68bc caa3 a7bd
00000240: 4745 95bc 317b 443e b111 8f3c 2e7b 0abb
00000250: dbba 43bc 089f 31bd fc7a 5a3e a1fa fc3d
00000260: 9dbc 893d f0c9 f23d b872 a43c f891 a0bd
00000270: 2e87 a4bd 5cda e1bc 1a40 8b3a b108 02bd
00000280: f28f c73d 9f6a 103e 2207 d5bd 89ad 603d
00000290: 71a8 113d 6dc4 bebc a358 24be 9a34 783d
000002a0: c69a 33bd dcc7 103d 7c58 19be d573 0f3e
000002b0: 8490 96bd f5f0 0e3e af76 d03d 0c57 0cbd
000002c0: 990c b23d 2222 463d c5e3 a73d 661f 603d
000002d0: f6aa 373e 5a93 04bd f1b8 d83c 4882 0cbe
000002e0: 3625 e9bd b118 3f3e 5d8b 0bbd 4969 183d
000002f0: 5eb9 e3bd 8adc 6f3d f112 053e bb0a e6bd
00000300: cf90 053e 057d d63d 66f3 72bd 5bde 59bd
00000310: 6d1a 223e 6ba2 aabd f481 ae3b e6b5 98bd
00000320: a888 0abe e2f3 b33d ef8d 053e 3f93 1ebc
00000330: 122d c33b 5612 923d 7b20 2bbd 3c64 9fb7
00000340: 3fdf 833d 45bb bb3d 7647 ec3c 4daa 1abe
00000350: e536 9f3d c36d 74bd 2717 eb3d cc77 31ba
00000360: 11de 143d 8ef6 1b3d 748f e23d e44c ecbd
00000370: 31f9 193e c099 ab3d 1e23 26be bc4b 123e
00000380: c02d 333d 3d2f 823d d68d ff3c 1bf1 57bd
00000390: e388 f0bc c462 a33d 2cd0 923c c244 c4bc
000003a0: dd4f 84bd 0d68 323e 2daa 1b3e 9f59 3c3c
000003b0: c808 ee3c e2fc 813c a45a 12bd fa34 ee3d
000003c0: 86ae 793c 3f69 a13b b41d c43d 4bca 31bc
000003d0: 615e 67bc 488f 153d d6d3 8cbd c957 933d
000003e0: 6839 31bd 9d09 28bd 5075 2bba f41e 033d
000003f0: 30f5 0f3e 9a7b 7cbc 3b06 c83c 95fb b83d
-0.13596979 -0.045170553 -0.050521865 -0.2597762 -0.1402046 -0.0999678 -0.018348904 0.13218886
0.13264623 0.08069006 0.09279846 -0.0039101946 0.07750127 -0.0039960328 0.099717304 0.06803521
0.025973061 -0.10864058 -0.14223117 0.10938797 0.00930984 0.1439333 0.06813114 -0.06442332
-0.09919735 -0.0021695215 -0.042102862 -0.08280643 -0.06374199 0.013854427 0.036563586 -0.04738115
-0.15219548 -0.069884196 -0.09791188 0.04924422 -0.057588127 -0.03016566 0.041306958 0.005867161
-0.10376168 0.10153511 0.107167885 -0.14309706 0.089661874 -0.07605529 0.028617794 0.08090231
0.17661275 -0.025324121 -0.20236096 -0.1352445 0.013127014 0.06831391 0.055356607 -0.053739477
-0.077834055 -0.17880341 0.039168146 0.063683614 0.017710667 0.177528 -0.037561823 0.08484502
0.0047463556 0.045190215 -0.16856727 -0.032222316 -0.012164888 -0.1170363 -0.06838032 -0.07613078
-0.17645164 0.074032836 -0.07340186 -0.08335659 0.031798493 -0.019995052 -0.06299703 0.041611273
-0.015499925 0.06338564 0.062682174 0.042538546 -0.122391455 -0.04468147 0.1366995 -0.048086397
0.10080398 0.14804165 -0.120023966 -0.008922455 0.07305534 0.1460815 0.07156665 0.10585451
-0.083105646 0.004307399 0.1076277 -0.03105196 0.15155312 -0.12720202 0.08025393 -0.06954744
0.012992753 -0.06858701 -0.014348612 0.12251916 0.06974833 0.06366529 -0.0061044306 0.13600335
0.05238148 0.22568692 0.0906067 0.009971349 0.104560964 0.0036806834 -0.030564962 0.108686194
-0.050949704 -0.026235167 0.030538911 -0.016688466 0.02240341 0.023814442 0.03703878 -0.07088305
0.08985606 0.09147809 -0.18250732 -0.014007682 0.15229212 -0.0705318 -0.0023159285 0.14597803
-0.17475443 -0.056264773 0.060017657 0.05179455 -0.20270424 -0.034948155 -0.014179818 -0.08185537
-0.01822151 0.19187619 0.01746449 -0.002113055 -0.011946405 -0.043364555 0.21335977 0.12352491
0.06725428 0.11854923 0.020074233 -0.07840341 -0.08033596 -0.027569942 0.0010623962 -0.03174657
0.09744252 0.14103173 -0.10401751 0.054852996 0.03556103 -0.023287022 -0.16049437 0.06059704
-0.043848775 0.03534685 -0.1497516 0.1400903 -0.07351783 0.13959105 0.10178887 -0.034262702
0.08693809 0.048372395 0.081977405 0.054717444 0.1793631 -0.032367088 0.026455374 -0.13721573
-0.113840505 0.18661763 -0.034068454 0.037209783 -0.1111934 0.05855993 0.12995507 -0.112325154
0.13043521 0.10473064 -0.059314154 -0.05319057 0.15830393 -0.0833176 0.00532555 -0.074565694
-0.13528693 0.08786751 0.13042425 -0.009678661 0.0059563005 0.071324036 -0.041779023 -1.9000952e-05
0.06439065 0.09166578 0.028842669 -0.15104027 0.07774142 -0.05967499 0.11479025 -0.0006769865
0.03634459 0.03807693 0.11062518 -0.11538103 0.15036465 0.08378935 -0.16224334 0.14286703
0.043744802 0.06356666 0.031195562 -0.05272017 -0.029362148 0.079778224 0.01792153 -0.023958568
-0.06460545 0.17422505 0.15201636 0.011495977 0.029056922 0.015867654 -0.035730973 0.11631198
0.015239364 0.0049258764 0.09575978 -0.010851453 -0.014121623 0.036513597 -0.06876342 0.07194478
-0.043267637 -0.041024793 -0.0006540613 0.03201194 0.14058375 -0.015410328 0.024417033 0.090323605

lstm.weight_ih_l1 f4 [256, 64]
00000000: bf5a d7bd b6f0 51be cb86 abbc b8e6 32be
00000010: 3f52 9dbd 2e0b f83d a73c 843c a2cd 6b3d
00000020: 732c 473d e902 7dbd 6d7f 1e3d f3e6 dfbd
00000030: 2cb6 cb3d 00c0 29bd a9b5 acbd ed37 06be
00000040: 7708 53bd dfe0 80bd b5e6 d43d dbc3 b6bc
00000050: 29f0 52bd 5084 043e f744 ea3b 149e 33be
00000060: c58d 55bd 1d5b 95bc 6d4a 73be b05a 723d
00000070: 6e43 88bc ec83 17bd 900e 0abe 4321 23be
00000080: 7947 23bd c670 d5bd bdb4 b73c 3174 29bd
00000090: c676 dbbd 0cee 2ebd de66 82bd 7535 aa3d
000000a0: c1ef 1b3b 23f3 453d f4c5 c2bd d21b 143d
000000b0: a4e1 13be e403 08bd c4e5 24bd 52cd 23be
000000c0: 0f65 00bd e623 8d3d d54e c5bd 4913 93bd
000000d0: 57a4 aa3d f633 f63d 6b54 273d aeb1 c53d
000000e0: c904 533d 8cd7 893c 593a 16bd 0ada 613d
000000f0: 10b1 cebd 2c23 9b3d b785 933d ae6e 223e
00000100: 29b2 a9bd 4af7 6c3b 3f4b 673d f630 4a3d
00000110: 5c5a c8bc 7e44 d73d d58f c83d 4dc6 dd3a
00000120: a987 a83c d98d 253e 6c41 ad3d 0d59 3a3c
00000130: 5f33 c8bd 3d92 93bd e507 8fbc 33ac 10bd
00000140: c88f 923d d0cd ae3d e04c 1a3e 459d ff3d
00000150: 3ae8 30be 0459 383e 8f44 5b3d 6e19 223d
00000160: 77c2 f93c 2d7f 4f3d b375 97bb 1956 ee3d
00000170: 01f2 0a3e 9cd2 453e bf0f c33d 9492 45bd
00000180: 2475 07be fca7 e7bc e7d9 01bc 5d6e 3c3d
00000190: e11f 303d 8932 103e 3b10 abbd 0455 23be
000001a0: f457 e9bd 4507 26be c19d c4bc eca2 8c3d
000001b0: 40d1 983c 0a30 f0bc a972 b5bd b735 25be
000001c0: 2ba8 30bc fac9 823e 001a debd f22f bf3c
000001d0: 9cd1 6dbc 8d73 c0ba 93da 103e 3628 81bd
000001e0: 3896 9c3d 4289 a5bc 107c afbc 0f55 19be
000001f0: 6c6a c73d ff54 24bd 428b 84bc f1d9 643d
00000200: 43cf dfbd a9d2 b53d 3362 413e 556d e5bc
00000210: 8be0 223d 0972 16bd 8b22 bb3d 4fb1 05be
00000220: ab73 8cbd 0b74 4abd 9d37 36bd 11ee b9bd
00000230: a7d3 633d ff72 9a3d 2566 b0bc 4a6e 533b
00000240: 25a7 7f3d f62b 37bc 0f33 22be 3397 25be
00000250: 291a 4bbc ab57 e1bd 539a ee3d aa64 0abd
00000260: 6d51 4dbc fa9e ebbd b1f7 e2bd f81a 14bd
00000270: 1827 c8bd 3ffd a639 cd60 19be 571a 083d
00000280: ac86 ab3d a02d ff3c 268e d13b c6b8 b13c
00000290: c182 91bd f855 ba3d a636 e7bc 086b df3d
000002a0: fc64 41be a570 74bd 19b2 c3bd 138f 4fbc
000002b0: 553f 6f3d 1eed 16be 1332 10bd dec1 7dba
000002c0: 753b dabd 5122 423d ab72 fa3c c969 80bd
000002d0: 7c3d 52bd affc 87be a290 09bb c013 d33c
000002e0: 68ae d9bd 8719 583d bad6 a0bd 5fe2 50bd
000002f0: 0fd3 97bc 0c12 1d3e 26f8 8abb 2092 173d
00000300: e09f 77bb 4329 bfbd 4164 653d 7eab 1abe
00000310: dc2d 033e deb2 e93d 5e3b c53d b4b8 08be
00000320: a473 78bb d449 d7bd dce2 793d bff7 713b
00000330: 1581 303e da82 bebd e000 ed3d aa98 39bd
00000340: c7ca 3dbe 5d12 b9bd 0f95 b13e 9c25 313d
00000350: dc51 733b 0523 e9bc 1e3b 473d dff2 9a3d
00000360: ac3e 3c3d c923 f2bc 137b 3ebd 2515 15be
00000370: 1011 193e 1f0b e73c b1df 1bbe 98fb 07bd
00000380: 3797 123d eab2 32be dbd4 3ebd 4d29 0b3e
00000390: 14be b23d 0b26 023d 1bb5 663d e7e8 813d
000003a0: b0d1 50bc 1946 fe3d f162 8bbd f546 6bbd
000003b0: fc74 43bd 670b 413d 0407 103d 932f a4bd
000003c0: 14bb c93d eabe b0bd 8455 063e 18b2 c23c
000003d0: a225 0a3e 80b5 94bd eb3b 513d 540c b83d
000003e0: 33b9 f7bc 3cf4 13be 245c 0ebc 397c a73a
000003f0: a57c 36bc 5f8e 933d e672 393e 1c5a b93d
-0.10515355 -0.2050198 -0.020938298 -0.17470825 -0.07681703 0.12111507 0.016142203 0.057569154
0.048626374 -0.061770353 0.03869574 -0.10932722 0.09946856 -0.04144287 -0.084330864 -0.13107271
-0.051521745 -0.06292891 0.103955664 -0.022310188 -0.051498566 0.12941098 0.0071493345 -0.17540771
-0.052137155 -0.018231923 -0.2375886 0.059168518 -0.016633715 -0.036991045 -0.13482118 -0.15930657
-0.039863084 -0.104219005 0.02242505 -0.041370574 -0.107160136 -0.042707488 -0.063672766 0.08310977
0.0023794028 0.048327576 -0.09510413 0.036159344 -0.14441544 -0.033206835 -0.040258184 -0.15996292
-0.031346377 0.06891613 -0.09634177 -0.07181413 0.083321266 0.120216295 0.04085199 0.0965303
0.051518235 0.016826414 -0.03667674 0.05513958 -0.10092366 0.07575068 0.072032385 0.15862533
-0.082859345 0.0036158138 0.056468245 0.0493631 -0.02445715 0.10511111 0.09793059 0.001692006
0.0205725 0.16167392 0.08459744 0.01137377 -0.09775423 -0.07205627 -0.01745982 -0.035320472
0.0715633 0.08535349 0.15068388 0.12481169 -0.17276087 0.18002707 0.05353218 0.039575033
0.030488236 0.050658394 -0.004622185 0.116375156 0.1356888 0.19318622 0.09524488 -0.04823549
-0.1322828 -0.028278343 -0.007925487 0.046003688 0.042999152 0.14081778 -0.08352705 -0.159504
-0.11393729 -0.1621371 -0.024001004 0.068670124 0.018654466 -0.029319782 -0.0885976 -0.16133772
-0.010782282 0.2554472 -0.10844803 0.023338292 -0.014515307 -0.0014682874 0.1414588 -0.06306498
0.076458395 -0.020207051 -0.021421462 -0.14973854 0.09737095 -0.04012012 -0.016179685 0.055871908
-0.10928204 0.08878071 0.18885116 -0.028006235 0.039764922 -0.036729846 0.09137448 -0.13055919
-0.068579994 -0.049427073 -0.04448663 -0.09078611 0.05562177 0.07541465 -0.021533081 0.0032261782
0.06241526 -0.011179915 -0.1583979 -0.16170959 -0.012396374 -0.110030495 0.11650529 -0.033787407
-0.01253162 -0.11504932 -0.110824 -0.036158532 -0.097730815 0.0003185067 -0.14978333 0.033228245
0.08375296 0.031149685 0.0063951192 0.021694552 -0.071050175 0.090984285 -0.0282243 0.109090865
-0.18886179 -0.05967774 -0.09555454 -0.012668389 0.058410008 -0.1473889 -0.035204004 -0.00096800725
-0.10655872 0.047396008 0.030572256 -0.06270177 -0.051328167 -0.2655997 -0.002099075 0.025766253
-0.106289685 0.05275872 -0.07853456 -0.050997134 -0.018533258 0.15338916 -0.0042410074 0.03700459
-0.0037784502 -0.09334042 0.056003813 -0.15104482 0.12810463 0.11411069 0.09630464 -0.13351709
-0.0037910724 -0.105121285 0.061007366 0.003692135 0.17236741 -0.09302302 0.115724325 -0.045311607
-0.18534385 -0.09036706 0.34684035 0.043248758 0.003712765 -0.028459081 0.048640363 0.07565855
0.045958206 -0.02955808 -0.04650409 -0.14558847 0.14947915 0.028203545 -0.1522205 -0.033198923
0.03578874 -0.17451063 -0.046589714 0.13589974 0.08727661 0.03177456 0.05632506 0.06343251
-0.012745306 0.12415714 -0.06805981 -0.057440717 -0.047718987 0.047130015 0.03516294 -0.080168866
0.098501354 -0.08630164 0.13118559 0.023766562 0.13490918 -0.07261181 0.051082533 0.089867264
-0.030239677 -0.14448637 -0.00868896 0.001277811 -0.011138116 0.072048895 0.18110237 0.0905039

lstm.weight_hh_l1 f4 [256, 64]
00000000: 6532 2bbd f859 31bd 373a b33d ce5e b5bc
00000010: 3a84 b33d 71c5 8bbe a039 a23d 4992 88bc
00000020: 737c ea3d 2e32 cc3d 6871 d23c af08 e83d
00000030: 84de 9bbd b934 3bbe 3fc2 74bd 76db 2cbe
00000040: 814a 80bd a255 a0bc d45c 9cbc 89ae bfbd
00000050: d671 083d 212c 643d 1ce2 ca3d 5747 b33c
00000060: d1b7 463e e990 d2bd 6976 26bd d6ac cb3d
00000070: 16ad 15be 7635 683d 9dfd a33d 2bd9 c33d
00000080: ab34 283c f044 183d efc1 6d3c d431 813d
00000090: 69fc 703d 2a5d 523d 3e4d b73d 8c7d 09bd
000000a0: 3ac1 5ebb f7ac 2b3e 7844 e9bc b411 0c3d
000000b0: 3278 1b3d 3f29 5a3c 07d8 053e 4488 05be
000000c0: b949 afbd 70fa 243e 129a 0f3e 12e2 d43d
000000d0: 2a33 32be 1e04 afbc e69f b13c 4a82 b4bd
000000e0: 58b6 31be 2ca2 c6bd 2b0c 913c 6610 e9bd
000000f0: ce0b 92bd 3a48 5bbd 766f d73d a4a4 5d3e
00000100: 56ab 053d f470 2c3d 6f04 0f3e b0ce abbd
00000110: b341 173c 568f acbd 48fa edbd 96a6 c63c
00000120: 07a4 4dbd 31c6 46be 7d08 d33d f649 2dbe
00000130: ebd4 923d ac38 fdbc 40df 74be 549b c6bd
00000140: 0de0 0e3e 8658 9b3c 4f37 963d e134 ffbd
00000150: 0cbe 20be fe16 543d 53a1 7fbc ad32 ee3b
00000160: e9b5 c4bd 5528 ca3c 9e55 9d3d 6645 e8bd
00000170: c6f0 4d3c fadd 46bc 52ae a4bd 4ddc 26bc
00000180: bbab ff3c c08f 9b3d a94e 11be 3fdf 5bbd
00000190: 9071 1abd 9df0 8dbd 9bfc 86bd ed91 4dbe
000001a0: d879 d6bd 175a 56be 66f3 1e3d 72d9 61be
000001b0: 8093 5bbd 36ec e5bd 60ad 62bd 0cc9 2f3d
000001c0: 962c 69be f4b1 a8bd f4e1 d73d 6d49 99bd
000001d0: 9d47 113e f9ea 32bb 55f4 e33d 55e5 a73d
000001e0: 1e19 ee3d 5019 c43a f8b1 3bbc e9e1 9b3d
000001f0: 6195 73bd 6d88 923d 4fbd bbbc dd5d 30be
00000200: bb7f ce3d 1165 1d3d e620 b33c ac9d 873c
00000210: e83f 493d 520e 40be 9a47 08bc e29f f03c
00000220: 50cf 383d ed15 b7bd 77d9 363d 1f0d 9ebd
00000230: b844 443a 099d cc3c 3064 80bb 6133 9b3d
00000240: f33a e13d b42a 293d 06a1 763d 8fce de3d
00000250: 7e45 8d3c 39a1 43bd 0220 a93d 6214 2b3d
00000260: c1e8 3cbd 4f7b d43d d597 533e f693 e7bc
00000270: c557 a9bd de02 bebd 8f8d a03d eb5c 68bd
00000280: a06f ac3d c475 15be 4d81 8fbd 125a 773e
00000290: f2b9 ba3d 8a2d 55bd 7bae d13d 819e 41be
000002a0: b8e5 e23d 0d3f 42be ec8c e83d 2da0 ebbc
000002b0: 11a8 443e fac2 97bd 5e87 1c3d cdf1 a73d
000002c0: 9732 ecbc b024 b2bd d77e 9f3d a5d2 27bd
000002d0: 6889 763d f7a2 e3b9 0dac 1a3c bb77 5dbd
000002e0: 6551 bcbd 7ad9 553d db1d 673d ec17 bbbd
000002f0: f488 dcbd ae2b b2bd 68a8 c5bc 36eb 5fbb
00000300: 1e17 7fbd 6b79 3fbe 390e 653d 7360 25bd
00000310: 504e f0bd 7b26 f9bc 44ac 43bd 6992 acbd
00000320: 796b 4f3e 81cb 36bc a3ab 193e e6a1 ab3d
00000330: 6921 6abd 7931 4dbe 344c 2c3e ff64 37be
00000340: 78f5 db3d 5bcf b5bd b1eb d5bc d218 943d
00000350: 89bc f63d e3a1 823d ed85 3f3e b327 c0bd
00000360: 0272 7d3d 2b4b 0a3e c8d5 4b3e a5ab 39bd
00000370: 0198 c1bd cbde 5bbd 0999 01bc 85a0 f83d
00000380: 3137 99b8 112d f73d 4fb7 88bd ea7e 1e3e
00000390: 293e 0a3e 1d09 803e 9cdc 5a3e 2eb3 cfbd
000003a0: 6c47 0a3d 8589 adbd 6313 42bd 8c99 e9ba
000003b0: f9f1 053e ce5a e03c 9f48 533e 7247 1cbe
000003c0: b29b 8abd 91d3 9abc fbd8 813d 9a21 1a3d
000003d0: f6e5 3ebe a74d 703d c841 14bd 877b 4abc
000003e0: 5605 63be 94dd 02bc 7565 1c3d 1180 2abe
000003f0: f1f6 5cbe 8b71 f6bc ce4e 7c3c 6f7b 833d
-0.041796107 -0.04329869 0.08751338 -0.022139933 0.087654546 -0.27299073 0.07921147 -0.016671317
0.11449518 0.099705085 0.025688842 0.11329781 -0.07610801 -0.18281831 -0.05975556 -0.16880593
-0.062642105 -0.019572083 -0.019087233 -0.09359462 0.033311687 0.055706147 0.09906408 0.021884603
0.19406058 -0.10281546 -0.04064027 0.09945075 -0.14616808 0.05669161 0.08007357 0.09562906
0.010266463 0.03717512 0.014511569 0.06308332 0.058834467 0.05135838 0.0895028 -0.033566996
-0.0033989684 0.167652 -0.028475031 0.03419657 0.037956424 0.013315498 0.13070689 -0.13040262
-0.08558983 0.1611116 0.14023617 0.10394682 -0.1740233 -0.021364268 0.02168269 -0.08813913
-0.17354715 -0.096989006 0.017705997 -0.11380081 -0.07131158 -0.053535677 0.10519306 0.21644837
0.0326341 0.042099908 0.13966535 -0.08389032 0.0092319725 -0.08425777 -0.11620003 0.024249356
-0.050205257 -0.19411542 0.103043534 -0.16922745 0.07169517 -0.030910812 -0.23913288 -0.09697595
0.13952656 0.01896311 0.07334768 -0.12461258 -0.15697497 0.05177974 -0.015602428 0.0072692246
-0.09605009 0.024677435 0.07682346 -0.11341362 0.012569612 -0.012137884 -0.080410615 -0.01018436
0.031209817 0.075957775 -0.14190163 -0.0536797 -0.037705958 -0.06930659 -0.065911494 -0.20075198
-0.104724586 -0.20932804 0.03880634 -0.22055605 -0.053607464 -0.11226694 -0.055341125 0.042916343
-0.22770914 -0.08237067 0.10541144 -0.07484708 0.14187475 -0.00273007 0.11130587 0.081980385
0.116258845 0.0014961157 -0.011456005 0.07611448 -0.05946863 0.071549274 -0.022917418 -0.17223306
0.100829564 0.038426463 0.021866273 0.016554676 0.04913321 -0.18755463 -0.008317852 0.029373113
0.045119584 -0.08939729 0.044640984 -0.077173464 0.00074870465 0.024977224 -0.0039181933 0.07578159
0.10997572 0.04130049 0.060212158 0.10879242 0.01724505 -0.047761176 0.08258058 0.041767485
-0.04612041 0.10375082 0.20663388 -0.028268795 -0.08268694 -0.092778906 0.078395 -0.05672924
0.08419728 -0.14595705 -0.07007084 0.24155453 0.091174975 -0.052045383 0.10238358 -0.1890812
0.110789716 -0.18969364 0.11355004 -0.028762901 0.19204737 -0.07410236 0.038215034 0.08200417
-0.028832717 -0.08698404 0.07787865 -0.04097237 0.060189635 -0.00043418232 0.009440434 -0.054069262
-0.09195212 0.052209355 0.056424957 -0.09135422 -0.10768309 -0.086997375 -0.024128154 -0.0034167296
-0.062277906 -0.18698661 0.055921767 -0.040375184 -0.11733687 -0.030413857 -0.047771707 -0.08426363
0.20255841 -0.011156918 0.1500688 0.08380489 -0.05716077 -0.20038404 0.16825944 -0.1790962
0.10740179 -0.088774405 -0.026113363 0.072312966 0.12047679 0.06378534 0.18703432 -0.09382572
0.061876304 0.13505237 0.1990577 -0.04532971 -0.094528206 -0.05367927 -0.007910022 0.12139992
-7.305889e-05 0.120691426 -0.06675588 0.15478101 0.13500275 0.25006953 0.21373218 -0.10141598
0.03375952 -0.084734954 -0.04738177 -0.001782225 0.13080586 0.027387049 0.20633171 -0.15261629
-0.06767978 -0.01889971 0.06340214 0.0376297 -0.1864241 0.058667805 -0.036195546 -0.012358553
-0.22170004 -0.007987399 0.038182694 -0.16650416 -0.21578576 -0.030083438 0.015399648 0.064200275

lstm.bias_ih_l1 f4 [256]
00000000: e348 7d3d 4fa9 94bd c3ea 88bd 99b4 80bd
00000010: ce5f 62bc aa77 57bd 5be5 a5bc 0d3a 203e
00000020: 3b61 31bd fa03 43be c1ef debd be29 ddbd
00000030: cd68 8d3d 56e7 a5bd 9f1f e2bd 4238 97bd
00000040: e7ca 353d 6054 ef3c e43d 6c3d 7905 d7bd
00000050: e70d 903d a105 bdbd bb12 e23c 0d3b 72bc
00000060: f35f d53d 2c11 073d 7379 0abb 11d8 d83c
00000070: 8c5d 013e 35ba 8abc 96ed ed3d 7421 1a3e
00000080: 6b85 2abe a87d 3ebe c53b 00be e8bd 8abd
00000090: e0c8 6dbd a039 babd a89e aabd 5587 9f3d
000000a0: e3fc 9dbc 172e a5bd ab55 b43d 3e0e 9b3d
000000b0: f4e1 e5bd e3b1 99bd ca4a babd a81e abbc
000000c0: dab6 ca3d 315a e4bd 26fa 25bb 4d7d 003d
000000d0: 748d 9abd b806 3e3a 803e d9bb e1a2 00bd
000000e0: edd0 98bd 35f8 01be 5768 18bd 2de6 cf3c
000000f0: 682e ed3d f589 89bd 382c 393d 0320 ae3d
00000100: c3dc 16bd 320d 53bd b049 dbbd 31be 12be
00000110: 1e09 1ebc e4e8 b0bd 215e d7bd f12a a93d
00000120: e827 0c3e cc38 753d 55dd 2a3d f856 f2bb
00000130: 7c30 13bc eb59 0a3d 4486 3bbd d081 193e
00000140: 5ace 02bd 3650 ebbc 9731 ed3d ca44 973d
00000150: a0fb 4abd e1d0 543d ab78 2c3c 735e 9a3c
00000160: a982 e63c ee71 82bb fda1 e0bc c04f e5bc
00000170: 94ee 9f3d 3fb0 6ebd b6ae b13d f0b0 9dbd
00000180: 8490 933d 584c efbd 42c9 473d 38af 84bd
00000190: 0b6d f7bd b590 4f3e 74b9 cf3c 4020 033e
000001a0: 9c4e 34bd fcd8 6a3d ffb0 98bd c1af f53b
000001b0: 479f 613d 5223 febd 01a4 ca3d 21cc 19bd
000001c0: 3f51 073e c37c a43d 7c8d c43c eab4 e93d
000001d0: 2f12 36bd 1913 31bc 4a22 003d 08e8 20be
000001e0: 15d4 bcbd e6f1 073d 4bcc f5bc 8561 49bb
000001f0: a5e2 5f3d 54ed 173d 9947 b7bc 5917 c23d
00000200: 9c4f c7bd 7d13 85bd b175 66bd cefb d13b
00000210: 2256 48bc cf7f b23d 225d 133e f72b 0b3d
00000220: 2549 be3d 875d 73bd 4f2f 773d 10f9 983d
00000230: cf8f fabd 30e7 d1bd 33f5 65bd d5d1 8e3d
00000240: fa08 403c 3af6 cebd 5ea1 f73d c493 893d
00000250: 5495 7abd a31b 17bd 43c3 63bd 91bc 293d
00000260: 4aa1 663d 3816 223d 12df a33d cd17 53bc
00000270: 00f8 f1bd 4d92 d3bc b77d 1cbe 0ff8 e1bd
00000280: c765 b23d 7547 243d 5360 073e e8b1 803d
00000290: 60f9 053e 2a6f a0bd dbde 0b3d a969 813d
000002a0: bc79 92bd 2cf8 e03d 12c7 1bbe 24e0 2b3d
000002b0: c07b 9fbc e5d3 ad3d 0fe7 a33d 57fb 983d
000002c0: 9524 3b3d ef1e e33d 5c9f c6bd 9ec9 7d3d
000002d0: 07c7 e6bd ea57 0abe 034b fabc c386 d2bd
000002e0: 5294 6bbd 697d f2bd 8d39 ee3d 59be 9bbd
000002f0: 5040 c23d 66dd a6bd a7bf 4bbd ec43 2e3c
00000300: 5363 853c 5c50 e5bd ab44 ae3b 2298 17be
00000310: 834e 1cbd b411 763d b976 e43d 1f9e 503e
00000320: 1f25 83bd 6aa0 643d a698 1a3d 86ea aabc
00000330: 5b4a 443d 202a a63d fa08 283d 972d 943c
00000340: 4803 943d d008 a93d 1efe 963c a218 8fbd
00000350: deb1 d43d 1af3 12bd fcd4 583d b83e 46bc
00000360: d284 25bb 2601 3d3d 31f7 a53d 5389 2f3d
00000370: a19f 92bd b6d8 9abc de1e c5bd 4a27 1dbd
00000380: d2e6 2d3d ad91 be3c 630e 033e 7428 a33d
00000390: 81e1 fa3c f665 223e aad4 c13d 140c 743d
000003a0: 9b03 b33d 4f49 a0bd 8f93 6abd 0357 be3c
000003b0: c47e ebbb 1007 bebd 5c7e e93d 2b25 e1bc
000003c0: e012 2d3e b8be a4bc 9542 c7bd e0d9 4dbd
000003d0: 6d2a 7d3d 953c 33bd eadd bebd 7759 153d
000003e0: b7d2 863d 0d08 19bd a938 2f3e 0081 0f3e
000003f0: 2ff3 0a3d d098 3ebd ea6e 0dbe 21f8 e8bb
0.06183709 -0.072588556 -0.06685402 -0.06284446 -0.013816787 -0.052604355 -0.020250967 0.15647145
-0.043305617 -0.19044486 -0.10885573 -0.10798977 0.06904755 -0.081007645 -0.110411875 -0.07383777
0.044382956 0.029215038 0.05767621 -0.10499091 0.07033902 -0.09229589 0.027596822 -0.014784587
0.104186915 0.03297536 -0.0021129518 0.026470216 0.12633342 -0.016934494 0.116175815 0.15051824
-0.16652457 -0.18602622 -0.125228 -0.06774503 -0.058052897 -0.09093022 -0.083310425 0.077894844
-0.019285625 -0.080654316 0.08805402 0.07571076 -0.11224738 -0.07504632 -0.09096296 -0.020888641
0.098981574 -0.11150015 -0.0025326102 0.031369496 -0.07546511 0.0007248926 -0.006629765 -0.031405333
-0.074617244 -0.1269234 -0.03720888 0.025378311 0.11581117 -0.06715766 0.045208186 0.085021995
-0.03683163 -0.051526256 -0.10707414 -0.14330365 -0.009645728 -0.0863817 -0.105160005 0.082601435
0.13687098 0.05986862 0.041714985 -0.0073956214 -0.008983728 0.03377716 -0.045782343 0.14990926
-0.031935073 -0.028724771 0.11581724 0.07386167 -0.049556375 0.051957015 0.010526816 0.018843865
0.028138475 -0.0039808666 -0.027420992 -0.02799213 0.07809177 -0.05827355 0.086759016 -0.07699764
0.072052985 -0.11684483 0.04877592 -0.06478733 -0.12081345 0.20270045 0.025356986 0.12805271
-0.04402028 0.05733584 -0.07455634 0.007497758 0.05508354 -0.124090806 0.098945625 -0.037548188
0.13214587 0.08031609 0.023993246 0.1141146 -0.044450935 -0.010807776 0.0312827 -0.15713513
-0.09220139 0.033189677 -0.030004641 -0.0030728292 0.054659504 0.037091568 -0.022373008 0.094771095
-0.09731981 -0.06497858 -0.056264583 0.0064081913 -0.012227567 0.08715784 0.14390996 0.033977475
0.09291295 -0.059415367 0.06034785 0.0746938 -0.122344606 -0.10249174 -0.056142043 0.06973616
0.01172089 -0.10105558 0.12091325 0.06717637 -0.061177567 -0.03689159 -0.055606138 0.041439597
0.05630616 0.03957197 0.08001532 -0.0128840925 -0.1181488 -0.025826598 -0.15282331 -0.110336415
0.08710819 0.04010721 0.13220339 0.06283933 0.1308341 -0.07833703 0.03414808 0.06318981
-0.07152125 0.10984835 -0.15212658 0.041961804 -0.019468188 0.08487681 0.08003055 0.07469814
0.045689184 0.110898845 -0.09698364 0.061959855 -0.1126843 -0.13510099 -0.030553346 -0.1027961
-0.057514496 -0.11840326 0.11632071 -0.07604665 0.09484923 -0.08147697 -0.04974332 0.010636311
0.016282713 -0.11196968 0.0053182445 -0.14804128 -0.038160812 0.060075477 0.11155457 0.20372818
-0.06403565 0.055817045 0.037743233 -0.020863783 0.047922473 0.081135035 0.041024186 0.018088145
0.07227188 0.08253634 0.01843172 -0.0698712 0.10385488 -0.03587637 0.052937493 -0.012099914
-0.002525617 0.046143673 0.08103789 0.042855572 -0.07159353 -0.018902164 -0.09625028 -0.038367547
0.042456456 0.023262823 0.12798457 0.079667 0.030625107 0.15859208 0.094643906 0.05958183
0.08740922 -0.078264825 -0.05726963 0.02323485 -0.0071867425 -0.09278691 0.11401054 -0.027483543
0.16901731 -0.020110473 -0.097294964 -0.05025661 0.06180804 -0.043758947 -0.093196705 0.036462273
0.065831594 -0.037361193 0.17111458 0.14014053 0.033923324 -0.046532452 -0.13811842 -0.0071096574
