src/util/AI/checkpoints/019.ckpt (torch, 353508 bytes, 14 tensors)

lstm.weight_ih_l0 f4 [256, 12]
0	0xbd3ed049	-0.046585355
1	0x3da7990f	0.081834905
2	0xbe20d07a	-0.15704527
3	0x3d0ca223	0.034334313
4	0x3dc626e0	0.096753836
5	0x3da6fa37	0.081531934
6	0x3d73db99	0.059535597
7	0xbc28b13e	-0.010296164
8	0xbddaf913	-0.106920384
9	0x3d140826	0.036140583
10	0xbddbae72	-0.10726632
11	0xbd4cd08e	-0.05000358
12	0xbe2f00e6	-0.17090186
13	0xba97a539	-0.0011569626
14	0xbd8a03a5	-0.067389764
15	0xbdd5a895	-0.10432545
16	0xbd88830c	-0.0666562
17	0xbd767717	-0.060172167
18	0x3e02c6b6	0.12771115
19	0x3def66bf	0.11689519
20	0x3db57c51	0.08861602
21	0x3d185c90	0.03719765
22	0xbdba0976	-0.09083836
23	0x3d021be9	0.0317649
24	0x3d92848b	0.07154187
25	0x3dee6b7d	0.116415955
26	0x3d3701f3	0.044679593
27	0x3e02a6a5	0.12758882
28	0x3d22b99b	0.03972779
29	0x3e52d3a7	0.20588551
30	0x3e50d1ec	0.20392579
31	0xbdd81e28	-0.10552627
32	0x3c69ef93	0.01427831
33	0xbd0aefe3	-0.03392018
34	0x3d38f1ad	0.045152355
35	0xbdb3f7d7	-0.08787506
36	0x3c83d951	0.016094835
37	0x3d402c67	0.046917345
38	0x3d8d22e2	0.06891419
39	0xbe546b13	-0.2074397
40	0xbe497315	-0.19672807
41	0xbc1c6506	-0.00954557
42	0x3e3f118b	0.18659036
43	0x3ba51bb3	0.0050387024
44	0xbe0ea95f	-0.13931797
45	0xbd649e36	-0.055814944
46	0x3e4b7d51	0.19872023
47	0x3c9a656e	0.018847194
48	0x3ceda589	0.029009597
49	0xbda05b4e	-0.07829915
50	0xbd92204a	-0.07135065
51	0xbd5ce089	-0.05392507
52	0x3d3578af	0.044304546
53	0xbc91362e	-0.01772603
54	0x3dadfd32	0.08495559
55	0x3e4bcfc2	0.19903472
56	0x3cd827db	0.026386192
57	0xbd9cbe4a	-0.07653482
58	0xbdb3a975	-0.08772556
59	0xbdc16199	-0.094424434
60	0x3c957b40	0.018247247
61	0x3d169013	0.036758494
62	0x3d1b7ff6	0.03796383
63	0x3dae9cab	0.08525976
64	0x3ca15548	0.019693986
65	0xbdba0b5b	-0.09084197
66	0x3e7b0502	0.24513629
67	0x3e964b7d	0.29354468
68	0xbc9ca496	-0.01912145
69	0xbd36ff23	-0.04467691
70	0xbbc1005e	-0.0058899364
71	0x3d1d0597	0.03833541
72	0x3df4f478	0.11960691
73	0x3c90180c	0.017589591
74	0xbe1caa08	-0.15299237
75	0xbe2d5ecf	-0.16930698
76	0x3dc864dc	0.097848624
77	0x3c443129	0.011974611
78	0xbd7c6bff	-0.06162643
79	0x3dfe1051	0.12405456
80	0xbd3b31d0	-0.0457018
81	0xbd829bec	-0.06377396
82	0x3bfd0cb1	0.00772246
83	0x3a8641f6	0.0010243047
84	0xbd62d20f	-0.05537611
85	0x3e06ccfb	0.13164131
86	0x3d655ad4	0.055994824
87	0x3d3a159c	0.045430765
88	0x3daa00b0	0.083009124
89	0x3da7793c	0.081774205
90	0xbbfea4a6	-0.0077710925
91	0x3e0526df	0.1300311
92	0xbd4fe25a	-0.050752975
93	0xbccb2523	-0.024797982
94	0xbd3d67fb	-0.04624174
95	0xbd638ab3	-0.055552196
96	0xbc4d0b6d	-0.012514931
97	0xbbba1dac	-0.0056798067
98	0xbdee178a	-0.116255835
99	0x3c312135	0.01081114
100	0xbc2070db	-0.009792532
101	0x3d6a98d7	0.057274666
102	0x3e57cbac	0.21073788
103	0x3e8a890c	0.27057683
104	0x3caa34f4	0.020777203
105	0xbd483b3e	-0.048884623
106	0xbdc4558f	-0.095866315
107	0xbc37a89a	-0.011209631
108	0x3d9429ea	0.07234557
109	0xbd214cd8	-0.039379925
110	0x3dd2afeb	0.1028746
111	0x3d8e8506	0.06958966
112	0xbd3dfe77	-0.046385255
113	0x3be91480	0.0071130395
114	0x3d98fb01	0.0746975
115	0xbe1c3810	-0.15255761
116	0xbe476216	-0.1947101
117	0x3c693c24	0.01423553
118	0xbcf3f51b	-0.029779961
119	0x3dfce44f	0.12348234
120	0x3cd0889f	0.025455771
121	0xbdacf058	-0.084442794
122	0xbde759b6	-0.11296408
123	0xbd59471e	-0.05304634
124	0x3e29e68b	0.16591851
125	0x3d41b46d	0.047291208
126	0x3de882bb	0.1135306
127	0x3df1c6df	0.1180551
128	0x3e03f09f	0.12884758
129	0x3b73a19e	0.0037175189
130	0x3dbe3b87	0.09288698
131	0xbd4a7ee5	-0.049437422
132	0x3daa3792	0.083113804
133	0x3d57aadf	0.05265319
134	0x3d4a1fb5	0.049346644
135	0xbdb7a125	-0.08966283
136	0x3d6144f5	0.054997403
137	0x3c90d27e	0.017678495
138	0xbdc96876	-0.098343775
139	0xbe3563ab	-0.17713802
140	0xbe620ad6	-0.22074446
141	0x3d48b0ca	0.048996724
142	0x3e295f02	0.16540149
143	0x3ceb4481	0.028719189
144	0x3d0f12b5	0.03492995
145	0x3c8e01f3	0.017334914
146	0xbe06caa0	-0.13163233
147	0xbdea53d1	-0.11441768
148	0x3d0bcd48	0.03413132
149	0x3e1af4e6	0.15132484
150	0xbd9632b9	-0.07333893
151	0xbe8c578d	-0.27410546
152	0xbdb5bf3a	-0.08874364
153	0x3cf9af14	0.030478992
154	0xbd0f8149	-0.035035405
155	0xbdc8987a	-0.097947076
156	0x3c8fd881	0.017559292
157	0x3d6e2172	0.058137365
158	0x3d86699d	0.06563113
159	0xbd94f4bd	-0.072732426
160	0xbe02c7c2	-0.12771514
161	0xbdc422f3	-0.095769785
162	0x3e1f8c18	0.15580785
163	0xbde4d291	-0.11172975
164	0xbe1f8d8f	-0.15581344
165	0xbd9dcd4b	-0.07705172
166	0x3c55d50b	0.013051282
167	0x3d0e9e0b	0.03481869
168	0xbd86e97f	-0.065875046
169	0x3d1b14f7	0.03786179
170	0xbdb79636	-0.08964197
171	0x3dd46e82	0.1037264
172	0xbd7a6d23	-0.061139237
173	0xbd9b2fc0	-0.07577467
174	0x3dd4448e	0.10364638
175	0x3d305681	0.043051247
176	0xbdd41431	-0.10355414
177	0x3bec8fa1	0.0072192703
178	0xbc709b7a	-0.014685506
179	0x3d448b13	0.047984194
180	0xbd6acdf2	-0.05732531
181	0xbd57931a	-0.05263052
182	0x3e1768f5	0.14786132
183	0x3c836673	0.016040063
184	0x3e0a68f0	0.13516593
185	0x3c6e10f5	0.01453041
186	0xbde79b14	-0.11308876
187	0xbcf21a53	-0.029553568
188	0xbd14e74d	-0.036353398
189	0xbdb41388	-0.08792788
190	0xbd42f6ae	-0.047598533
191	0x3e0434d5	0.12910779
192	0xbd936562	-0.071970716
193	0x3cb045dd	0.021517688
194	0x3d751404	0.05983354
195	0x3e27f2dc	0.16401237
196	0x3d9b23fd	0.075752236
197	0x3d6c1efe	0.057646744
198	0xbd6a7bdc	-0.057247028
199	0xbe2b7cbf	-0.16746806
200	0xbd30c66e	-0.043157987
201	0xbceac55e	-0.028658565
202	0xbdbe4f03	-0.09292414
203	0xbd0992d3	-0.033587288
204	0xbd9ed9b0	-0.07756364
205	0xbd20e8e8	-0.039284617
206	0xbd1f6af6	-0.038920365
207	0xbe520b29	-0.2051207
208	0x3cc99ff2	0.0246124
209	0x3e3ff9ca	0.1874763
210	0x3ce1c948	0.027561799
211	0xbde2266a	-0.11042483
212	0x3da59a5d	0.08086083
213	0xba7f1d4b	-0.0009731843
214	0x3e0b4fd3	0.1360467
215	0xbe0088e1	-0.12552215
216	0xbe02a1e8	-0.12757075
217	0xbc0af545	-0.008481328
218	0xbd6e8ea5	-0.058241505
219	0x3dd22da6	0.10262613
220	0x3d62f9d8	0.05541405
221	0xbe1ce0b2	-0.1532009
222	0xbe700b4c	-0.2344181
223	0x3dcb7c89	0.099358626
224	0x3d3d41f3	0.046205472
225	0x3d61dee8	0.05514422
226	0xbe499c4e	-0.19688532
227	0xbdc4dfdf	-0.096130125
228	0xbe591a01	-0.21201326
229	0x3c891633	0.016734218
230	0xbdcd56d3	-0.10026326
231	0x3d955897	0.07292288
232	0x3e040389	0.12891974
233	0x3d0884e6	0.033329867
234	0xbd8cb57e	-0.068705544
235	0xbd0d0649	-0.034429822
236	0x3cbac53a	0.022799123
237	0x3db6416f	0.08899199
238	0xbd8d7f10	-0.06909001
239	0x3c7b0afc	0.015322443
240	0xbdcad35b	-0.09903594
241	0x3e31f349	0.17377962
242	0xbddd7ff8	-0.10815424
243	0xbb92abec	-0.004476061
244	0xbd02cee7	-0.0319356
245	0xbdaa16d7	-0.083051376
246	0xbd405b33	-0.046961974
247	0x3dfcc52e	0.123422965
248	0xbd9e7281	-0.07736684
249	0xbdb3d060	-0.08779979
250	0x3d5e229a	0.054232217
251	0x3cb89db9	0.022536146
252	0xbb2fa686	-0.0026802137
253	0x3d883084	0.066498786
254	0xbdf297c5	-0.11845354
255	0x3d34435e	0.04400956

lstm.weight_hh_l0 f4 [256, 64]
0	0x3d2c9b1f	0.042140123
1	0xbd845188	-0.06460863
2	0x3e220b1d	0.15824552
3	0xbc9dbf10	-0.019256145
4	0x3d8b4260	0.067997694
5	0x3e449bcb	0.19200055
6	0xbdaf839e	-0.08570026
7	0xbcbcdb7f	-0.023053883
8	0x3defb122	0.11703707
9	0x3e37b56d	0.17940302
10	0x3da43403	0.08017733
11	0x3ce91bf5	0.028455714
12	0x3e4b95d6	0.19881377
13	0xbdcd4b03	-0.10024073
14	0x3df5c3a1	0.12000204
15	0x3d58cca2	0.052929528
16	0xbd3ba29e	-0.04580938
17	0x3d80585b	0.062668525
18	0x3b87f7e6	0.004149425
19	0x3d101475	0.03517576
20	0xbd0988b6	-0.033577643
21	0xbdb7cf1b	-0.08975049
22	0x3c563bd5	0.0130757885
23	0xbc8e9cf9	-0.017408835
24	0x3e2b2705	0.16714104
25	0xbd57c9db	-0.05268274
26	0xbe0ea566	-0.13930282
27	0xbb65b30d	-0.003504935
28	0x3da5911c	0.08084318
29	0x3d971b76	0.07378285
30	0xbdf8a69f	-0.121411555
31	0xbd920980	-0.07130718
32	0xbd8ecfca	-0.06973226
33	0x3ba0632c	0.0048946347
34	0x3d89c88e	0.06727706
35	0xbde47535	-0.11155168
36	0xba62573d	-0.00086342153
37	0x3d137e80	0.03600931
38	0xbd917c5b	-0.07103797
39	0x3d925dce	0.07146798
40	0xbd68ed27	-0.05686679
41	0xbd4a6b17	-0.049418535
42	0x3c8f5cda	0.01750033
43	0xbdeeb2b4	-0.11655179
44	0xbd8f0dc0	-0.069850445
45	0xbe3759d6	-0.17905363
46	0xbdd640d4	-0.10461584
47	0xbe2000bd	-0.15625282
48	0x3daeed29	0.085413285
49	0x3d9ad517	0.07560175
50	0x3dc29337	0.09500735
51	0x3d703526	0.058644436
52	0xbe46245a	-0.19349805
53	0xbb805639	-0.0039165285
54	0x3e5dc113	0.21655683
55	0xbdb36d05	-0.08761028
56	0x3d119b3b	0.03554843
57	0x3df49f73	0.11944475
58	0xbe0a0461	-0.13478233
59	0xbd902d6e	-0.07039915
60	0xbd78542c	-0.060627148
61	0x3e1e33b7	0.15449415
62	0x3cbcf78a	0.023067255
63	0x3dda30ac	0.10653815
64	0x3d52a008	0.05142215
65	0xbdaafffe	-0.08349608
66	0x3e849917	0.25898048
67	0x3dc26e31	0.094936736
68	0x3d8a71db	0.067599975
69	0xbdbe4f7d	-0.09292505
70	0xbd3c68b4	-0.04599829
71	0xbd6e919b	-0.05824433
72	0xbd88f61e	-0.06687568
73	0xbe2080fe	-0.15674207
74	0x3ddc5f8e	0.10760413
75	0x3cb65b09	0.022260206
76	0x3c342f35	0.010997583
77	0xbdbbc1c3	-0.091678165
78	0xbe330cb3	-0.17485313
79	0x3da73337	0.08164065
80	0x3e025847	0.12728988
81	0xbe4a9d1a	-0.19786492
82	0x3e4b79df	0.19870709
83	0x3d9763bd	0.073920704
84	0x3e4fc2e9	0.20289196
85	0xbdf9a766	-0.12190132
86	0xbe482d90	-0.1954863
87	0x3d2eb032	0.0426485
88	0x3d98aa12	0.07454313
89	0xbe218cb2	-0.15776327
90	0x3d62ccd5	0.055371124
91	0x3e23f013	0.1600955
92	0xbd8c29fc	-0.068439454
93	0xbe74f6d6	-0.23922285
94	0xbd1fab37	-0.038981643
95	0x3e28b780	0.1647625
96	0xbe108dd9	-0.1411661
97	0xbdc188a9	-0.09449894
98	0x3cbd5cdb	0.023115566
99	0x3d730b39	0.059336875
100	0x3d6c8f8d	0.05775409
101	0xbd8b9746	-0.068159625
102	0xbdf41239	-0.11917538
103	0x3dc0affe	0.09408568
104	0x3cd55619	0.026042031
105	0xbe2fce02	-0.1716843
106	0xbd7e5211	-0.062089983
107	0xbe32ecfc	-0.17473215
108	0xbd9aaad1	-0.07552112
109	0xbe1208f0	-0.14261222
110	0xbe118685	-0.14211471
111	0xbd4015e3	-0.046895873
112	0xbca0218b	-0.019547245
113	0xbc43f82c	-0.011961024
114	0x3d8df2d1	0.06931079
115	0xbad3e560	-0.0016166382
116	0xbe374ac6	-0.17899618
117	0x3dc60d5d	0.096705176
118	0xbcfb3d0d	-0.03066876
119	0x3e6e8d92	0.23296192
120	0xbd902833	-0.070389174
121	0x3de78e7d	0.11306474
122	0xbe306540	-0.17226124
123	0x3dcc4f8b	0.09976109
124	0x3cf9d1fb	0.030495634
125	0xbd8a3070	-0.0674752
126	0x3d99f25b	0.07516929
127	0xbdde2afe	-0.10848044
128	0x3e113e70	0.14183974
129	0xbe57c55e	-0.21071383
130	0xbd9050dd	-0.070466734
131	0x3d891f44	0.066954166
132	0xbd599a58	-0.05312571
133	0x3d60c7b0	0.054877937
134	0xbcf6b99e	-0.030117806
135	0x3dc8ca22	0.09804179
136	0x3d9d4726	0.07679586
137	0xbdca7edf	-0.0988748
138	0x3d304256	0.043032013
139	0x3d8d2870	0.068924785
140	0x3e28c6d1	0.16482092
141	0xbd0a5eba	-0.033781745
142	0xbd7959b5	-0.060876567
143	0x3dab5c20	0.08367181
144	0xbe0a3685	-0.1349736
145	0xbd03b802	-0.032157905
146	0x3e55c9ee	0.20877811
147	0x3c1ecc83	0.009692314
148	0xbdd370e7	-0.10324269
149	0x3d0aee42	0.033918627
150	0xbba1dfe2	-0.004940019
151	0x3d575fc3	0.05258156
152	0xbcea9a26	-0.028637957
153	0xbe1711b1	-0.14752842
154	0xbde1b4a3	-0.11020782
155	0xbdabc60f	-0.08387386
156	0xba81d1cc	-0.0009904443
157	0x3d536d60	0.05161798
158	0xbe32a252	-0.17444733
159	0xbdfca7c1	-0.12336684
160	0x3c59c41a	0.013291383
161	0x3ce3c753	0.027805006
162	0x3e00767f	0.12545203
163	0xbd03e37e	-0.032199375
164	0x3d48dad6	0.049036823
165	0x3dd87325	0.10568837
166	0xbccc51ff	-0.024941443
167	0x3e1fe6da	0.15615407
168	0x3e35dc2d	0.17759772
169	0x3d4232ad	0.04741161
170	0x3d413fa4	0.047179833
171	0xbc7da95c	-0.015482273
172	0x3cb264bf	0.021776555
173	0x3df1841d	0.11792777
174	0xbe1b0123	-0.15137152
175	0x3e2dabcd	0.16960068
176	0xbd89c336	-0.06726687
177	0x3ba56edc	0.005048616
178	0x3b917288	0.004438702
179	0xbe27b317	-0.16376911
180	0xba7e8625	-0.000970932
181	0xbe4b1310	-0.1983149
182	0xbbecf1c4	-0.007230969
183	0xbe1f9cc7	-0.1558715
184	0xbe07b6e7	-0.13253365
185	0x3ce3deec	0.027816258
186	0x3dc727f5	0.09724418
187	0x3cfda2fd	0.030961508
188	0xbdbbe242	-0.09174015
189	0x3c4656ea	0.012105683
190	0xbde3e7c0	-0.11128187
191	0x3e692c00	0.22770691
192	0x3e85e789	0.2615321
193	0xbe8b6f66	-0.27233428
194	0x3e06b30f	0.13154243
195	0xbe8344a3	-0.25638303
196	0xbb8e59d1	-0.004344203
197	0xbe6e8dba	-0.23296252
198	0xbe0a9df3	-0.13536815
199	0xbda7f0fb	-0.0820026
200	0x3e220342	0.15821555
201	0xbe3f73b7	-0.18696485
202	0x3d942fdf	0.07235693
203	0xbb880ccc	-0.004151916
204	0xbc4a5f3d	-0.012351808
205	0xbcf28156	-0.029602688
206	0xbb71130c	-0.0036785034
207	0x3e23fe32	0.16014937
208	0x3d72ec6d	0.059307504
209	0xbb85f53f	-0.0040880735
210	0xbe395464	-0.18098599
211	0x3e4f263e	0.20229432
212	0xbdc0b207	-0.09408956
213	0xbe277a28	-0.16355193
214	0xbe3a75f6	-0.18209061
215	0x3deb278b	0.114821516
216	0x3d9cf921	0.07664705
217	0xbdf400ee	-0.1191424
218	0xbe420a34	-0.18949205
219	0x3e604b27	0.21903668
220	0x3e20113c	0.15631574
221	0xbdcf39bd	-0.101184346
222	0x3e2e9247	0.17047988
223	0xba20826d	-0.00061229506
224	0x3e31637d	0.17323108
225	0xbbdd040e	-0.006744868
226	0x3bbdfa6c	0.005797675
227	0x3d6f7670	0.05846256
228	0xbdd01a7f	-0.10161304
229	0xbde54ccc	-0.111962885
230	0xbcef18df	-0.029186664
231	0x3dc89d46	0.097956225
232	0x3e518722	0.20461705
233	0x3e09a47e	0.13441655
234	0x3c916a43	0.017750865
235	0xbe9d18e0	-0.3068304
236	0x3c19a568	0.009377815
237	0x3e08280d	0.13296528
238	0x3d113df3	0.03545947
239	0x3e99f15f	0.30066964
240	0x3d9e1c7d	0.077202775
241	0xbe4394a3	-0.19099669
242	0xbde25db8	-0.11053032
243	0x3dba8370	0.09107101
244	0xbd463eb2	-0.048399635
245	0x3df61d00	0.1201725
246	0x3daef5ac	0.08542952
247	0x3d1b6cf2	0.037945695
248	0x3dad3da4	0.08459023
249	0x3ccb4c31	0.024816604
250	0xbea38274	-0.31935465
251	0xbe38b710	-0.18038583
252	0x3dc00891	0.09376634
253	0xbe8c238a	-0.27370864
254	0x3e3fcd06	0.18730554
255	0xbc1cfb7d	-0.009581444

lstm.bias_ih_l0 f4 [256]
0	0xbd0f76d6	-0.03502544
1	0xbdc1b4d4	-0.09458318
2	0xbda52dbb	-0.08065363
3	0xbe0369be	-0.12833306
4	0xbdc1aecc	-0.09457168
5	0x3cf8b8c8	0.030361548
6	0x3d00f2a2	0.031481393
7	0x3dc3e757	0.09565609
8	0x3e130f4d	0.14361306
9	0xbdc5ae37	-0.096523695
10	0xbcbd792f	-0.023129074
11	0x3aa0912d	0.0012250297
12	0xbd51dbfc	-0.051235184
13	0xbd5ef273	-0.054430436
14	0x3d9e6b25	0.0773528
15	0xbd013372	-0.031543203
16	0xbe0bc062	-0.13647607
17	0x3c92fb60	0.01794213
18	0xbd2a3f08	-0.041564018
19	0x3c878934	0.016544916
20	0xbd106f36	-0.03526231
21	0x3dcfb9c5	0.101428546
22	0xbcf3830e	-0.029725578
23	0xbd42d2af	-0.047564205
24	0x3d895441	0.06705523
25	0x3d2ddccd	0.0424469
26	0xbe55a3df	-0.20863293
27	0x3d3cbfe0	0.046081424
28	0x3da382d8	0.07983941
29	0xbd06564f	-0.032797154
30	0x3d9db1bb	0.07699915
31	0x3da34b65	0.07973365
32	0x3d826d12	0.0636846
33	0xbd4ae689	-0.04953626
34	0xbcec0f7c	-0.028815977
35	0x3de4f46a	0.11179431
36	0x3d3eddd8	0.046598285
37	0xbdb3946a	-0.08768542
38	0xbd83b975	-0.064318575
39	0xbe2936de	-0.16524836
40	0x3b3930e5	0.0028257903
41	0xbcbd93b9	-0.023141729
42	0x3ddadbda	0.106864646
43	0x3d89967b	0.06718155
44	0x3cfd33e8	0.03090854
45	0xbda10c35	-0.078636564
46	0x3daf9ad3	0.08574452
47	0x3e477f3e	0.19482133
48	0x3d38ad5f	0.045087215
49	0xbdbe821c	-0.0930216
50	0xbd4ce5c7	-0.05002382
51	0xbd903aec	-0.070424885
52	0xbc78a3df	-0.015175789
53	0xbda02bee	-0.07820879
54	0x3d87d01e	0.06631492
55	0xbdc4e5e6	-0.09614162
56	0xbe861a3c	-0.2619189
57	0xbe49c6dc	-0.19704765
58	0xbadac354	-0.0016690292
59	0xbd98aae9	-0.074544735
60	0xbcb71ae0	-0.022351682
61	0xbc26ffd3	-0.010192829
62	0x3e1ffc25	0.1562353
63	0x3dccb89e	0.099961504
64	0xbd817f1f	-0.063230745
65	0xbd767d02	-0.06017781
66	0xbd602b6f	-0.05472892
67	0xbe3781e6	-0.17920646
68	0x3de047a5	0.10951165
69	0xbd928b34	-0.07155457
70	0xbc9533cc	-0.018213175
71	0xbd94c142	-0.072634235
72	0xbdc93444	-0.09824422
73	0xbc497ae6	-0.012297368
74	0xbc6f8d68	-0.014621116
75	0x3d3c7b2d	0.046015907
76	0xbdfb61f4	-0.122745425
77	0xbe0b2038	-0.13586509
78	0xbcc6d30b	-0.024270555
79	0x3d6ccb73	0.05781121
80	0xbd821e22	-0.06353404
81	0xbda92926	-0.082598016
82	0x3cf159c4	0.029461749
83	0x3df2d7a8	0.118575394
84	0x3cd3ad0b	0.02583935
85	0x3d934a74	0.07191935
86	0x3dfdafe6	0.123870656
87	0x3dbdc136	0.09265368
88	0x3d5d0398	0.053958505
89	0x3d88d68a	0.06681545
90	0xbd0cc96e	-0.034371786
91	0x3d80ec5e	0.062950835
92	0x3d2c8089	0.04211477
93	0x3e37bbf1	0.17942788
94	0xbd3d8913	-0.046273302
95	0x3e4632ee	0.19355366
96	0x3e0677db	0.13131659
97	0x3d15afb3	0.036544513
98	0x3a324557	0.00068004936
99	0x3e026341	0.12733175
100	0x3dc43637	0.09580653
101	0xbe5e2168	-0.21692431
102	0x3d771b9a	0.060329057
103	0xbe47ba4b	-0.19504659
104	0x3bdcdb79	0.0067400304
105	0x3e0c2509	0.13686003
106	0x3dbc3d23	0.091913484
107	0x3d85aa5d	0.06526635
108	0x3d35710f	0.044297274
109	0xbd802725	-0.06257466
110	0x3dadf076	0.0849313
111	0x3c4b8ef8	0.012424223
112	0x3aaa5b7f	0.0012997239
113	0x3e147f36	0.14501652
114	0x3daef887	0.085434966
115	0xbdace7f4	-0.08442679
116	0x3e09b9e0	0.13449812
117	0x3c8d9366	0.0172822
118	0xbdf1edfc	-0.1181297
119	0x3e1de52c	0.15419453
120	0xbcee2f86	-0.029075395
121	0xbcee3411	-0.029077562
122	0xbc21d3bd	-0.0098771425
123	0xbe0d2002	-0.13781741
124	0xbe055344	-0.13020045
125	0xbd95706d	-0.07296834
126	0x3de7828a	0.11304195
127	0xbcd99022	-0.026557986
128	0xbba637c2	-0.005072565
129	0xbdb65f3a	-0.08904882
130	0x3d6aa130	0.057282627
131	0x3d4ec67c	0.05048226
132	0xbcf08a96	-0.029362958
133	0x3dbc8c47	0.09206443
134	0xbbdfa157	-0.006824653
135	0x3b902a85	0.0043996
136	0xbe2ab008	-0.16668713
137	0xbd2396a1	-0.039938573
138	0xbdf6e9dc	-0.12056324
139	0xbdc0481e	-0.09388755
140	0xbbb21ad1	-0.0054353257
141	0xbc1417f6	-0.009038916
142	0x3ac954bb	0.0015360335
143	0x3d277ae0	0.040888667
144	0x3d3b43ff	0.045719143
145	0x3dc82f8a	0.09774692
146	0xbd8e8ca4	-0.06960419
147	0x3e3de8d2	0.18545845
148	0xbdb9d04c	-0.090729326
149	0x3da0e064	0.07855299
150	0x3e07365d	0.13204332
151	0x3e275530	0.1634109
152	0x3c1236c2	0.008924188
153	0x3d6ec6c0	0.05829501
154	0x3e3a397d	0.18185993
155	0x3d770a39	0.060312483
156	0xbcd7b86c	-0.026333056
157	0xbdd8ae25	-0.105800904
158	0xbb15ea04	-0.002287508
159	0xbe22ecf1	-0.15910698
160	0x3e309b77	0.17246805
161	0x3cc3e971	0.023915024
162	0xbd2a1d63	-0.04153193
163	0xbcb3fde1	-0.021971645
164	0x3dce39fb	0.10069653
165	0xbde1c4eb	-0.11023887
166	0xbda0941b	-0.07840749
167	0xbd61b919	-0.055108164
168	0x3de3e2e8	0.11127263
169	0x3d322694	0.043493822
170	0xbe90b2fd	-0.28261557
171	0xbd230588	-0.039800197
172	0x3c9395d2	0.018015776
173	0xbdb648b1	-0.089005835
174	0x3deabfcf	0.11462366
175	0xbd86ccd7	-0.06582039
176	0x3d1616c0	0.03664279
177	0x3e323add	0.17405267
178	0x3d734ae4	0.059397593
179	0x3e239e7f	0.1597843
180	0x3cda52d0	0.026650816
181	0x3dab2da0	0.08358312
182	0x3d1faec7	0.03898504
183	0xbdc3f670	-0.095684886
184	0xbd6234df	-0.055226203
185	0x3dff8f6c	0.124785274
186	0x3e286081	0.16443063
187	0x3d7902c2	0.060793646
188	0xbd20f6b5	-0.03929778
189	0x3e062166	0.13098678
190	0x3dc5bd3c	0.09655234
191	0xbda38f86	-0.07986359
192	0x3d62582c	0.05525987
193	0xbbdfe5b7	-0.006832804
194	0xbb935b78	-0.004496988
195	0x3db40dd6	0.087917015
196	0x3c3cdfc5	0.01152796
197	0xbd7909e8	-0.060800463
198	0xbe2b6b5c	-0.16740173
199	0x3dc4c8ba	0.09608598
200	0xbdc4a2c3	-0.09601357
201	0xbd24daf3	-0.04024787
202	0xbd5ab884	-0.053398624
203	0x3cb12265	0.021622846
204	0x3bc38fc8	0.005968068
205	0xbbb43b18	-0.0055002086
206	0xbe2f85a2	-0.1714082
207	0xbac96406	-0.0015364892
208	0xbde5e4f4	-0.1122531
209	0xbb19f82a	-0.0023493865
210	0xbe0eb0f4	-0.1393469
211	0x3d925ebc	0.071469754
212	0xbe055271	-0.1301973
213	0xbd94c174	-0.07263461
214	0x3bd00310	0.0063480213
215	0xbb7a6675	-0.0038208042
216	0xbe0d4f4f	-0.13799785
217	0x3da4f8d7	0.08055275
218	0x3def70b2	0.11691417
219	0x3cd78d00	0.026312351
220	0x3dc1f6f2	0.09470929
221	0xbcf33bf9	-0.029691683
222	0x3c45229a	0.012032175
223	0xbdc147ed	-0.09437547
224	0xbc5a6c05	-0.013331418
225	0xbcf95143	-0.030434256
226	0xbd0fdf18	-0.03512487
227	0xbddcb250	-0.10776198
228	0x3d1665e8	0.03671828
229	0xbddc0d05	-0.10744671
230	0x3d3f7c00	0.046749115
231	0xbd1a7baf	-0.03771561
232	0x3a4c9865	0.0007804691
233	0x3e4e57f0	0.20150733
234	0x3de2026e	0.1103562
235	0x3de7c989	0.11317737
236	0x3dad710d	0.08468828
237	0xbd3076e2	-0.043082125
238	0xbda22f36	-0.07919161
239	0xbccf0ad9	-0.025273727
240	0xbd902195	-0.07037655
241	0xbdc92771	-0.09821976
242	0xbe04db95	-0.12974389
243	0x3dfcaf3e	0.12338112
244	0x3df14a1b	0.117817126
245	0x3bf21748	0.0073880292
246	0xbd8cbb8a	-0.06871708
247	0xbda1a96f	-0.07893645
248	0xbdb0a843	-0.086258434
249	0x3d107ff4	0.035278276
250	0xbe268944	-0.162633
251	0x3de90733	0.11378326
252	0x3dbb87e7	0.09156781
253	0xbdab4701	-0.08363152
254	0x3ce81b33	0.028333282
255	0xbdecc7d8	-0.11561555

lstm.bias_hh_l0 f4 [256]
0	0xbe0b2312	-0.13587597
1	0xbd3a80c0	-0.04553294
2	0xbd4cb50c	-0.049977347
3	0xbe86a163	-0.26295003
4	0xbe0f7b01	-0.14011766
5	0xbdced49e	-0.10099147
6	0xbc9de883	-0.01927591
7	0x3e05aadf	0.13053463
8	0x3e07d319	0.13264121
9	0x3da0013d	0.07812736
10	0x3dbc1d4b	0.09185275
11	0xbbb29aa4	-0.0054505635
12	0x3da34d26	0.07973699
13	0xbb34d808	-0.0027594585
14	0x3dc2e669	0.095166035
15	0x3d8b34ef	0.06797206
16	0x3cd6d8f7	0.026226504
17	0xbde02399	-0.1094429
18	0xbe10b114	-0.1413005
19	0x3de2ed16	0.11080377
20	0x3c2da40d	0.010598195
21	0x3e18b0ee	0.14911243
22	0x3d88a292	0.06671633
23	0xbd84dd09	-0.064874716
24	0xbdc6c267	-0.09705048
25	0xbba51c3e	-0.005038767
26	0xbd23f3fb	-0.0400276
27	0xbda8f7e7	-0.082504086
28	0xbd762774	-0.06009622
29	0x3c7cf137	0.0154383695
30	0x3d1dcd45	0.03852584
31	0xbd3be830	-0.045875728
32	0xbe1a3a5a	-0.15061322
33	0xbd8eab5a	-0.069662765
34	0xbdc362c7	-0.09540325
35	0x3d45979b	0.048240285
36	0xbd67515c	-0.056474075
37	0xbcddccb1	-0.027075144
38	0x3d2de628	0.042455822
39	0x3bfdc0c8	0.0077439286
40	0xbdd4d709	-0.10392577
41	0x3dccee33	0.100063704
42	0x3dd81676	0.10551159
43	0xbe14d996	-0.14536127
44	0x3dbd088d	0.092301466
45	0xbda1f4cf	-0.07908022
46	0x3cf7a771	0.03023121
47	0x3da7c75f	0.08192324
48	0x3e35c216	0.17749819
49	0xbcca00fe	-0.024658676
50	0xbe4fc331	-0.20289303
51	0xbe083c07	-0.13304149
52	0x3c3ca531	0.011513994
53	0x3d882554	0.06647745
54	0x3d563e03	0.052305233
55	0xbd630d40	-0.055432558
56	0xbda32366	-0.07965736
57	0xbe398624	-0.18117577
58	0x3d0e60ec	0.0347604
59	0x3d85f3e9	0.06540663
60	0x3c89867e	0.016787764
61	0x3e343699	0.17598952
62	0xbd2004c4	-0.039067045
63	0x3da87bfc	0.08226773
64	0x3b2fc345	0.002681927
65	0x3d3430e0	0.043991923
66	0xbe2bcbbf	-0.16776942
67	0xbd0759f3	-0.033044767
68	0xbc16bf67	-0.009200907
69	0xbdf47a7c	-0.119374245
70	0xbd8c924a	-0.0686384
71	0xbd95669a	-0.0729496
72	0xbe34dc8d	-0.17662258
73	0x3d90a960	0.07063556
74	0xbd985fcb	-0.07440146
75	0xbda57c52	-0.08080353
76	0x3d0a9e74	0.03384252
77	0xbcb27303	-0.021783357
78	0xbd760ee7	-0.060072806
79	0x3d2d8906	0.042367004
80	0xbc6f1dee	-0.014594538
81	0x3d853106	0.06503491
82	0x3d78a0c8	0.060700208
83	0x3d25feeb	0.04052631
84	0xbdfe0eae	-0.12405144
85	0xbd32fcf7	-0.043698277
86	0x3e0b1e7e	0.1358585
87	0xbd44ac55	-0.04801591
88	0x3dd4f914	0.103990704
89	0x3e16eaf3	0.14738064
90	0xbdf298ee	-0.11845575
91	0xbbcb0800	-0.006196022
92	0x3d986925	0.0744193
93	0x3e17eb42	0.14835837
94	0x3d991b06	0.074758574
95	0x3dddbca7	0.10826998
96	0xbda9697a	-0.08272071
97	0x3bb780fe	0.005600094
98	0x3ddea5c8	0.10871464
99	0xbd06ffe2	-0.032958873
100	0x3e19dd8b	0.15025918
101	0xbe00d5fd	-0.1258163
102	0x3da30f01	0.07961846
103	0xbd8b3acc	-0.06798324
104	0x3c71396a	0.014723161
105	0xbd8a5bc6	-0.06755786
106	0xbc93209e	-0.017959889
107	0x3df21379	0.1182012
108	0x3d95ca06	0.073139235
109	0x3d81857e	0.0632429
110	0xbbb007e0	-0.0053720325
111	0x3e0d9801	0.13827516
112	0x3d53654d	0.05161028
113	0x3e64ccb9	0.2234372
114	0x3db69573	0.08915224
115	0x3c2583a1	0.010102184
116	0x3dd1156b	0.10209163
117	0x3bbdcc1c	0.005792154
118	0xbd0b8c75	-0.034069497
119	0x3dd8f927	0.10594397
120	0xbd5671c1	-0.052354578
121	0xbcd9291e	-0.026508864
122	0x3cf90fae	0.030402984
123	0xbc8dcaa2	-0.017308537
124	0x3cb362c0	0.021897674
125	0x3ccc3fb2	0.024932716
126	0x3d1ad7cc	0.037803456
127	0xbd8fb517	-0.07016962
128	0x3db79160	0.08963275
129	0x3dbefe82	0.09325887
130	0xbe3e7e1f	-0.18602799
131	0xbc5eb0bd	-0.013591942
132	0x3e1e0414	0.15431243
133	0xbd906117	-0.070497684
134	0xba2f247f	-0.00066811586
135	0x3e15c9ae	0.14627716
136	0xbe325a8e	-0.17417356
137	0xbd5abfe7	-0.05340567
138	0x3d7aad27	0.061200287
139	0x3d3eae3d	0.046552885
140	0xbe4cc176	-0.19995674
141	0xbd178640	-0.036993265
142	0xbc8d92c8	-0.017281905
143	0xbda85411	-0.082191594
144	0xbc966131	-0.018356891
145	0x3e3cc5b1	0.18434788
146	0x3c7bc5b4	0.01536696
147	0xbbf44b48	-0.0074552633
148	0xbc60bdc9	-0.013717123
149	0xbd20c854	-0.039253548
150	0x3e5b119b	0.21393435
151	0x3df7e0a7	0.12103396
152	0x3d86dd18	0.06585139
153	0x3df6c9b4	0.120501906
154	0x3c9cb0ef	0.019127337
155	0xbda17b4d	-0.07884846
156	0xbda394f9	-0.07987399
157	0xbcd778b3	-0.026302671
158	0xbb7c3336	-0.0038482673
159	0xbd055c0b	-0.032558482
160	0x3dc986fc	0.09840199
161	0x3e1072f3	0.1410635
162	0xbdd601b8	-0.104495466
163	0x3d5cc9fa	0.053903557
164	0x3d16c43c	0.036808237
165	0xbcc41096	-0.02393369
166	0xbe2457d1	-0.16049124
167	0x3d71aed1	0.05900461
168	0xbd355fe7	-0.044280913
169	0x3d0c7b5c	0.034297332
170	0xbe18196e	-0.1485345
171	0x3e11c8cc	0.14236754
172	0xbd93b292	-0.07211794
173	0x3e1125d6	0.1417459
174	0x3dd8e1af	0.10589921
175	0xbcf59ee8	-0.029982999
176	0x3dbafcbf	0.09130239
177	0x3d4cc2e6	0.049990557
178	0x3daa0dc1	0.083034046
179	0x3d617757	0.055045452
180	0x3e3745b5	0.17897685
181	0xbd09a454	-0.03360398
182	0x3ce9cff3	0.02854154
183	0xbe0bf6e4	-0.136684
184	0xbde84dec	-0.113429874
185	0x3e3da2c2	0.18519118
186	0xbd09b0ad	-0.033615757
187	0x3d14d6a9	0.03633753
188	0xbde4f404	-0.11179355
189	0x3d7f17b6	0.062278472
190	0x3e073e5f	0.13207386
191	0xbde273de	-0.11057256
192	0x3e04b6e3	0.12960391
193	0x3dd74848	0.105118334
194	0xbd62be20	-0.0553571
195	0xbd5add3e	-0.05343365
196	0x3e224a47	0.15848647
197	0xbda97ac2	-0.08275367
198	0x3b939696	0.004504035
199	0xbd943ec0	-0.07238531
200	0xbe090781	-0.13381769
201	0x3dae5f8f	0.0851432
202	0x3e078250	0.13233304
203	0xbc092fca	-0.00837321
204	0x3bd9b082	0.006643356
205	0x3d8e7432	0.06955756
206	0xbd35c28e	-0.044374995
207	0xba490304	-0.0007667991
208	0x3d80c283	0.062871
209	0x3db7cd46	0.089747
210	0x3cd9b8b4	0.026577331
211	0xbe1acf08	-0.15118039
212	0x3d9a7346	0.07541518
213	0xbd673c14	-0.05645378
214	0x3deb9983	0.115038894
215	0xba34a133	-0.00068904756
216	0x3d1e7f03	0.038695347
217	0x3d1eb023	0.038742196
218	0x3de3e777	0.11128133
219	0xbdecc927	-0.11561804
220	0x3e1b1ad5	0.15146954
221	0x3dacac92	0.08431353
222	0xbe27266b	-0.16323249
223	0x3e119e48	0.14220536
224	0x3d32931c	0.043597326
225	0x3d796450	0.06088668
226	0x3d0ac88a	0.033882655
227	0xbd5535c6	-0.052053235
228	0xbce634d2	-0.028101359
229	0x3da18771	0.078871615
230	0x3c8b0519	0.016970204
231	0xbc995083	-0.018715149
232	0xbd816d67	-0.06319695
233	0x3e308794	0.17239219
234	0x3e1a46ff	0.15066145
235	0x3c3a2e07	0.011363513
236	0x3d03b5d2	0.03215582
237	0x3c8140e9	0.015778022
238	0xbd141e65	-0.0361618
239	0x3df03587	0.117289595
240	0x3c89c6d9	0.01681845
241	0x3b7fa0e2	0.0039005806
242	0x3dc39ba6	0.09551172
243	0xbc453d09	-0.012038478
244	0xbc789cbf	-0.01517409
245	0x3d1dbc72	0.038509794
246	0xbd8c977c	-0.06864831
247	0x3d924e8b	0.07143887
248	0xbd37b908	-0.044854194
249	0xbd29ed16	-0.04148587
250	0xb9b93efd	-0.0003533288
251	0x3d05cab6	0.032664023
252	0x3e1162f3	0.14197902
253	0xbc91154b	-0.017710349
254	0x3cbe6c7a	0.023245085
255	0x3db907ba	0.09034677

lstm.weight_ih_l1 f4 [256, 64]
0	0xbdd730eb	-0.10507377
1	0xbe4f9886	-0.20273027
2	0xbca726b7	-0.020404203
3	0xbe304dca	-0.17217174
4	0xbda2606a	-0.07928546
5	0x3dfc6ee8	0.12325841
6	0x3c778e1c	0.015109565
7	0x3d7055a4	0.058675423
8	0x3d3d7c98	0.0462614
9	0xbd7a682f	-0.061134513
10	0x3d1ed6b9	0.038778994
11	0xbde1397f	-0.10997295
12	0x3dcc9e54	0.09991136
13	0xbd2d67db	-0.042335372
14	0xbda90c39	-0.082542844
15	0xbe058f9c	-0.13043064
16	0xbd4d7271	-0.050157968
17	0xbd85b52f	-0.06528699
18	0x3dd12157	0.10211437
19	0xbcb53143	-0.022118216
20	0xbd50ab78	-0.050944775
21	0x3e04c90a	0.12967315
22	0x3c16dc9f	0.009207874
23	0xbe3391b2	-0.17536047
24	0xbd586a91	-0.052836005
25	0xbc9d767b	-0.019221535
26	0xbe74b3bd	-0.2389669
27	0x3d69c731	0.05707473
28	0xbc9c6658	-0.01909177
29	0xbd1401b7	-0.036134448
30	0xbe0aa446	-0.13539228
31	0xbe2432c3	-0.16034989
32	0xbd175c79	-0.036953423
33	0xbdd1930f	-0.10233127
34	0x3cb58928	0.022160128
35	0xbd1c505e	-0.03816258
36	0xbde14c41	-0.110008724
37	0xbd2ce465	-0.04221
38	0xbd82c5e5	-0.06385402
39	0x3da0eecf	0.07858049
40	0x3a9bb3ee	0.0011879185
41	0x3d4dff3a	0.05029223
42	0xbdc51377	-0.09622853
43	0x3d16c167	0.036805537
44	0xbe1797fe	-0.14804074
45	0xbd123873	-0.035698365
46	0xbd20c548	-0.039250642
47	0xbe24b5a3	-0.16084914
48	0xbd0e1b93	-0.034694266
49	0x3d91dff1	0.071227916
50	0xbdc62917	-0.09675806
51	0xbd93b8be	-0.07212971
52	0x3daf49f5	0.08559028
53	0x3def4f49	0.11685044
54	0x3d229112	0.03968913
55	0x3dc6cad7	0.097066574
56	0x3d5183bf	0.051151033
57	0x3c877424	0.016534872
58	0xbd1880ab	-0.037232082
59	0x3d6eb251	0.058275525
60	0xbdd42c42	-0.10360004
61	0x3d9ce169	0.07660181
62	0x3d96f6bd	0.0737128
63	0x3e22efe1	0.15911819
64	0xbdaddbea	-0.08489211
65	0x3b988ddc	0.004655583
66	0x3d601784	0.054709926
67	0x3d565cba	0.052334525
68	0xbcd218e0	-0.025646627
69	0x3dd59f58	0.10430783
70	0x3dc92a9e	0.09822582
71	0x3aab9b0f	0.0013092476
72	0x3c8edb45	0.01743854
73	0x3e24d6ce	0.16097566
74	0x3dab3006	0.08358769
75	0x3c21b3e3	0.0098695485
76	0xbdcac1f4	-0.09900275
77	0xbd915817	-0.0709688
78	0xbc9c576e	-0.019084658
79	0xbd136a44	-0.035990015
80	0x3d8f1a0c	0.0698739
81	0x3dad38e9	0.084581204
82	0x3e1a1056	0.15045294
83	0x3e010c09	0.12602247
84	0xbe306c5a	-0.17228833
85	0x3e3a78f4	0.18210202
86	0x3d5e5fe8	0.054290682
87	0x3d297e63	0.041380297
88	0x3d0d868b	0.03455214
89	0x3d526015	0.051361162
90	0xbb7aeb00	-0.0038287044
91	0x3df1742e	0.11789738
92	0x3e088580	0.13332176
93	0x3e46a07e	0.1939716
94	0x3dc38db5	0.09548513
95	0xbd401407	-0.0468941
96	0xbe095b7b	-0.13413803
97	0xbcee5f0e	-0.02909806
98	0xbc1976dd	-0.009366718
99	0x3d4995b2	0.049215026
100	0x3d33558b	0.043782752
101	0x3e0f1c89	0.13975729
102	0xbda5c2bf	-0.080937855
103	0xbe265312	-0.16242626
104	0xbdeb8c4c	-0.11501369
105	0xbe26ec11	-0.1630099
106	0xbcc173bc	-0.023614757
107	0x3d919d76	0.071101114
108	0x3c6c80e2	0.014435025
109	0xbcebbd5e	-0.02877682
110	0xbdb77ca3	-0.089593194
111	0xbe24fd33	-0.16112213
112	0xbc12d285	-0.008961325
113	0x3e82f899	0.2558029
114	0xbdda2dd0	-0.10653269
115	0x3cb6f0cb	0.022331616
116	0xbc40325a	-0.011730755
117	0xbaa339b7	-0.0012453113
118	0x3e1204a3	0.14259581
119	0xbd81c1b8	-0.06335777
120	0x3d9b2baa	0.07576688
121	0xbc9957af	-0.018718569
122	0xbc9d7633	-0.0192214
123	0xbe19a1e0	-0.15003157
124	0x3dc758ff	0.097337715
125	0xbd27ccb8	-0.04096672
126	0xbc9010e5	-0.017586181
127	0x3d5f73f3	0.054553937
128	0xbde28ece	-0.11062394
129	0x3db57773	0.08860674
130	0x3e446cba	0.19182101
131	0xbd0152b6	-0.03157302
132	0x3d2189a4	0.039437905
133	0xbd16f088	-0.036850482
134	0x3db74efd	0.08950613
135	0xbe07ac06	-0.13249215
136	0xbd896b30	-0.067098975
137	0xbd3a7375	-0.045520265
138	0xbd35b6d7	-0.044363823
139	0xbdb31a1e	-0.08745216
140	0x3d5cccb7	0.05390617
141	0x3d979de0	0.07403159
142	0xbcb2b058	-0.021812603
143	0x3b8001d5	0.0039064684
144	0x3d6ae7cb	0.05734996
145	0xbc58d507	-0.013234383
146	0xbe255ca3	-0.1614862
147	0xbe257e8e	-0.16161558
148	0xbc7a7a27	-0.015287912
149	0xbde1c7d2	-0.11024441
150	0x3de9ac88	0.11409861
151	0xbd0fa3eb	-0.035068434
152	0xbc64c5a9	-0.0139631415
153	0xbded0c78	-0.11574644
154	0xbde3710a	-0.11105545
155	0xbd19a556	-0.037511192
156	0xbdc42352	-0.09577049
157	0xbaac4251	-0.0013142322
158	0xbe177dd3	-0.14794092
159	0x3d072c79	0.033001397
160	0x3dad5904	0.08464244
161	0x3d01c790	0.03168446
162	0x3bf4c15a	0.0074693384
163	0x3ca9cb2d	0.020726765
164	0xbd90ad12	-0.070642605
165	0x3dba4dd4	0.09096876
166	0xbcec5f10	-0.028853923
167	0x3de13e91	0.10998262
168	0xbe467ec9	-0.19384302
169	0xbd70bfaf	-0.058776554
170	0xbdc1c296	-0.094609424
171	0xbc41a985	-0.011820202
172	0x3d8a3a54	0.067494065
173	0xbe159b82	-0.14610103
174	0xbd0e8a77	-0.03480002
175	0xb9d0360f	-0.00039713128
176	0xbddbca68	-0.10731965
177	0x3d3d32e2	0.046191104
178	0x3cf4bf92	0.029876504
179	0xbd7b4d3d	-0.061352957
180	0xbd572acc	-0.05253105
181	0xbe877d4e	-0.26462787
182	0xbb4ee048	-0.0031566788
183	0x3cd2103e	0.02564251
184	0xbdda8700	-0.106702805
185	0x3d5fa450	0.05460006
186	0xbd9de59d	-0.07709811
187	0xbd56b769	-0.052421007
188	0xbc8e808e	-0.017395284
189	0x3e1ca6c0	0.15297985
190	0xbb6f513e	-0.003651693
191	0x3d19df52	0.03756649
192	0xb9e77644	-0.00044147868
193	0xbdbceb4d	-0.092245676
194	0x3d640846	0.055671953
195	0xbe1a4f39	-0.15069284
196	0x3dfacab8	0.12245697
197	0x3def1b4a	0.11675127
198	0x3dc6f6f4	0.09715071
199	0xbe07c792	-0.13259724
200	0xbbb489e5	-0.0055096024
201	0xbdd53573	-0.10410585
202	0x3d82c41d	0.06385062
203	0x3b8258da	0.003977877
204	0x3e2fdfe6	0.17175254
205	0xbdb9dbaf	-0.090751044
206	0x3df18aab	0.11794027
207	0xbd392193	-0.045198034
208	0xbe3e62d4	-0.18592387
209	0xbdbb8d9b	-0.091578685
210	0x3eb1c1e7	0.34718248
211	0x3d295403	0.041339885
212	0x3b6209ba	0.003449066
213	0xbced099d	-0.028935248
214	0x3d4c67a1	0.049903516
215	0x3d9bce76	0.07607739
216	0x3d3322c4	0.043734327
217	0xbd01772d	-0.031607796
218	0xbd3c5591	-0.04598004
219	0xbe15a728	-0.14614546
220	0x3e199df7	0.15001665
221	0x3cda3b9c	0.026639752
222	0xbe1bab3f	-0.15202044
223	0xbd0ab1a9	-0.033860836
224	0x3d1b5eed	0.037932325
225	0xbe31d5a6	-0.17366657
226	0xbd3d0374	-0.04614587
227	0x3e0a2aca	0.13492885
228	0x3db41046	0.087921664
229	0x3d0115c1	0.031514887
230	0x3d6596a1	0.056051854
231	0x3d7c0f1b	0.061537843
232	0xbc5da965	-0.013529156
233	0x3e01ad73	0.12663822
234	0xbd8dba86	-0.06920342
235	0xbd6de9e4	-0.058084384
236	0xbd3f881d	-0.046760667
237	0x3d3b86ba	0.045782782
238	0x3d0f8f50	0.035048783
239	0xbda45988	-0.08024889
240	0x3dc56ec4	0.096402675
241	0xbdae1e23	-0.08501842
242	0x3e0637a8	0.13107169
243	0x3caf9bdd	0.021436626
244	0x3e0998d0	0.134372
245	0xbd94e4a1	-0.0727017
246	0x3d540f80	0.051772594
247	0x3dbd82a7	0.092534356
248	0xbcf71b6f	-0.030164449
249	0xbe13f999	-0.14450683
250	0xbbf53277	-0.0074828225
251	0x3a8a1a8f	0.001053648
252	0xbc473c37	-0.012160352
253	0x3d94e198	0.07269591
254	0x3e39e960	0.18155432
255	0x3db78f2f	0.08962857

lstm.weight_hh_l1 f4 [256, 64]
0	0xbd2cf066	-0.04222145
1	0xbd2b696d	-0.04184859
2	0x3dba853f	0.09107446
3	0xbca11b91	-0.019666465
4	0x3db26aaf	0.087117545
5	0xbe8d38f7	-0.27582523
6	0x3d9ca9e5	0.07649592
7	0xbc89bbd5	-0.016813198
8	0x3de88949	0.1135431
9	0x3dcd694a	0.10029848
10	0x3ce830db	0.028343609
11	0x3de5b602	0.11216356
12	0xbd9c9c41	-0.076469906
13	0xbe39baa8	-0.1813761
14	0xbd7fdd84	-0.062467113
15	0xbe2d1fb8	-0.16906631
16	0xbd7695ea	-0.060201563
17	0xbc8d13a3	-0.017221278
18	0xbc9bbbdc	-0.019010477
19	0xbdc01601	-0.09379197
20	0x3d08c860	0.033394217
21	0x3d5de442	0.05417276
22	0x3dcde20c	0.10052881
23	0x3cceea50	0.025258213
24	0x3e44e3b5	0.19227488
25	0xbdcd574c	-0.10026416
26	0xbd1a0729	-0.037604485
27	0x3dc761d1	0.09735454
28	0xbe173051	-0.14764525
29	0x3d6940b1	0.05694646
30	0x3da761e5	0.08172969
31	0x3dc096cd	0.09403763
32	0x3c52d462	0.012868019
33	0x3d292fd6	0.041305386
34	0x3c466151	0.012108163
35	0x3d858c80	0.06520939
36	0x3d7c4427	0.061588433
37	0x3d4bdcd5	0.04977115
38	0x3dbd007c	0.09228608
39	0xbd116fd8	-0.035507053
40	0xbb1dc4f1	-0.0024073685
41	0x3e28fa13	0.16501646
42	0xbcd610d2	-0.026131067
43	0x3d0f983b	0.035057288
44	0x3d29fa85	0.04149868
45	0x3c7b375b	0.015333022
46	0x3e03a936	0.12857518
47	0xbe0342a1	-0.12818386
48	0xbdb2c3dc	-0.087287635
49	0x3e22506a	0.15850988
50	0x3e0d98fa	0.13827887
51	0x3dd1e55f	0.10248827
52	0xbe307991	-0.17233874
53	0xbcba5f1a	-0.022750426
54	0x3c9f74d3	0.019464886
55	0xbdb736f8	-0.08946031
56	0xbe313c13	-0.17308073
57	0xbdc179e9	-0.09447081
58	0x3ca8b3a9	0.020593481
59	0xbde6883f	-0.11256456
60	0xbd8fc7ee	-0.070205554
61	0xbd6117ca	-0.054954328
62	0x3ddcd6d0	0.1078316
63	0x3e5c139e	0.21491858
64	0x3cfbeb5b	0.030751875
65	0x3d29fad8	0.04149899
66	0x3e0f0d5e	0.13969943
67	0xbda79518	-0.08182734
68	0x3bdd9cc2	0.0067630718
69	0xbdaca0d5	-0.08429114
70	0xbdee7666	-0.116436765
71	0x3cd3f8c7	0.025875462
72	0xbd4cc221	-0.049989823
73	0xbe472c88	-0.19450581
74	0x3dd53fa5	0.1041253
75	0xbe2db832	-0.16964796
76	0x3d900264	0.07031706
77	0xbd055529	-0.03255192
78	0xbe74ca0f	-0.23905204
79	0xbdcaa53d	-0.09894798
80	0x3e0fb790	0.14034867
81	0x3c911422	0.017709795
82	0x3d97240c	0.07379922
83	0xbdfc69e7	-0.12324887
84	0xbe22db1e	-0.15903899
85	0x3d5b21bf	0.05349898
86	0xbc6d3d7b	-0.01447999
87	0x3c035715	0.008016367
88	0xbdc58a15	-0.09645478
89	0x3ccaa79e	0.02473813
90	0x3d9eae11	0.07748044
91	0xbde53c9e	-0.111932024
92	0x3c3307f4	0.010927189
93	0xbc519890	-0.012792721
94	0xbda46866	-0.08027725
95	0xbc362cd6	-0.011119088
96	0x3cfd628f	0.030930785
97	0x3d9a22e1	0.07526184
98	0xbe10dbc3	-0.14146332
99	0xbd58960d	-0.052877475
100	0xbd1c2db9	-0.038129542
101	0xbd8acfda	-0.06777926
102	0xbd8743b1	-0.06604708
103	0xbe4d2369	-0.20033039
104	0xbdd4f938	-0.10399097
105	0xbe55fadb	-0.20896475
106	0x3d1da5d7	0.038488235
107	0xbe6355a9	-0.22200646
108	0xbd584b6d	-0.052806307
109	0xbde31bcb	-0.110892855
110	0xbd620c61	-0.055187587
111	0x3d2c54fd	0.04207324
112	0xbe683423	-0.22676139
113	0xbda72ff3	-0.081634425
114	0x3dd995cd	0.10624275
115	0xbd97a44e	-0.074043855
116	0x3e10290d	0.1407816
117	0xbb19d868	-0.0023474935
118	0x3de8a047	0.113586955
119	0x3da678e4	0.08128527
120	0x3deba8c3	0.11506798
121	0x3a4f11ca	0.0007899074
122	0xbc3ce13c	-0.011528309
123	0x3d99b2fc	0.07504842
124	0xbd75d211	-0.060014788
125	0x3d9481ef	0.07251345
126	0xbcbaf4ce	-0.02282181
127	0xbe2f3160	-0.17108679
128	0x3dd4886b	0.10377582
129	0x3d22dced	0.039761472
130	0x3cbbf7e6	0.022945356
131	0x3c8e0e69	0.017340856
132	0x3d4621fe	0.04837226
133	0xbe3f30a9	-0.18670906
134	0xbc129f4d	-0.008949113
135	0x3ceea408	0.02913095
136	0x3d318765	0.043342013
137	0xbdb985bf	-0.09058713
138	0x3d37a776	0.044837438
139	0xbda2f03b	-0.079559766
140	0x3a7e7188	0.00097062485
141	0x3cd5d470	0.026102275
142	0xbb8f4c7d	-0.004373132
143	0x3d9be29d	0.076115824
144	0x3de25a00	0.110523224
145	0x3d2924ed	0.04129498
146	0x3d7635ad	0.060109783
147	0x3ddd8034	0.108154684
148	0x3c8c2dc3	0.017111665
149	0xbd3dc652	-0.04633171
150	0x3daa2d67	0.08309441
151	0x3d31652a	0.04330937
152	0xbd3fe705	-0.046851177
153	0x3dd425cf	0.10358774
154	0x3e54b6a1	0.20772792
155	0xbce61af6	-0.028089028
156	0xbda85f07	-0.0822125
157	0xbdbe3277	-0.09286969
158	0x3d9f6966	0.07783775
159	0xbd63b322	-0.055590756
160	0x3dace199	0.08441467
161	0xbe15db2b	-0.14634387
162	0xbd8e033b	-0.0693421
163	0x3e78668b	0.24257867
164	0x3dbb7cd5	0.09154669
165	0xbd53985a	-0.051658966
166	0x3dd02ee6	0.10165195
167	0xbe428f2d	-0.1899993
168	0x3de7af96	0.11312787
169	0xbe42b0d5	-0.19012769
170	0x3de97105	0.1139851
171	0xbce5a8f6	-0.028034668
172	0x3e43fd6d	0.19139643
173	0xbd98ada8	-0.07454997
174	0x3d1d1b23	0.038355958
175	0x3da910e2	0.08255173
176	0xbcf13109	-0.029442327
177	0xbdb30bfb	-0.087425195
178	0x3d9e6007	0.077331595
179	0xbd2cca8e	-0.04218536
180	0x3d72583b	0.059166174
181	0xb8af7309	-8.366077e-05
182	0x3c1e0f09	0.009647139
183	0xbd5e3821	-0.054252747
184	0xbdb7e162	-0.08978535
185	0x3d54cf12	0.05195529
186	0x3d691a2f	0.056909736
187	0xbdbbe05b	-0.09173652
188	0xbddb1b06	-0.10698514
189	0xbdb1ad54	-0.08675638
190	0xbcb32830	-0.021869749
191	0xbb92da54	-0.004481593
192	0xbd8289ae	-0.063739166
193	0xbe3fe86c	-0.18741006
194	0x3d6e03e4	0.05810918
195	0xbd2c10c4	-0.042008176
196	0xbdf15957	-0.11784618
197	0xbd03bd14	-0.03216274
198	0xbd3ec2e5	-0.046572585
199	0xbdacc1af	-0.0843538
200	0x3e511a6c	0.20420235
201	0xbc2b40fb	-0.010452504
202	0x3e1acc50	0.15117002
203	0x3dac278f	0.08405983
204	0xbd69edf4	-0.057111695
205	0xbe4e040f	-0.20118736
206	0x3e2b30bb	0.16717808
207	0xbe3656bf	-0.17806529
208	0x3ddfd107	0.10928541
209	0xbdb26f05	-0.087125815
210	0xbcd31a3f	-0.025769351
211	0x3d9379ea	0.07200988
212	0x3df79717	0.12089365
213	0x3d8025fc	0.06257245
214	0x3e40e54e	0.18837473
215	0xbdbbbe53	-0.09167161
216	0x3d7e8e3f	0.062147375
217	0x3e0bc1da	0.13648167
218	0x3e4cc5b3	0.19997291
219	0xbd3e0150	-0.04638797
220	0xbdc4c721	-0.09608293
221	0xbd5dd3ba	-0.054156996
222	0xbc03c31e	-0.008042125
223	0x3df6193f	0.12016534
224	0x3a7384f9	0.0009289529
225	0x3dfc9aee	0.12334238
226	0xbd8c876f	-0.068617694
227	0x3e201159	0.15631618
228	0x3e0cac4e	0.13737604
229	0x3e804637	0.2505357
230	0x3e5c4589	0.215109
231	0xbdd0d2f8	-0.10196489
232	0x3d096191	0.033540312
233	0xbdae2c80	-0.085045815
234	0xbd3efa60	-0.046625495
235	0x371486b2	8.852849e-06
236	0x3e078c1d	0.13237043
237	0x3ce7e51f	0.028307496
238	0x3e53d5d1	0.20687033
239	0xbe1c6634	-0.15273362
240	0xbd8bc2c0	-0.06824255
241	0xbc9673a8	-0.018365696
242	0x3d819949	0.06328065
243	0x3d25282b	0.04032151
244	0xbe3d6888	-0.18496907
245	0x3d6ffd0b	0.05859093
246	0xbd14f4f0	-0.036366403
247	0xbc6b91ff	-0.01437807
248	0xbe63c9e6	-0.22244987
249	0xbc06f872	-0.008237945
250	0x3d1b454e	0.03790789
251	0xbe2df46a	-0.16987768
252	0xbe5d11a1	-0.21588756
253	0xbcef7a7d	-0.029233212
254	0x3c85f03a	0.0163499
255	0x3d81d7f2	0.063400164

lstm.bias_ih_l1 f4 [256]
0	0x3d83d3f9	0.06436915
1	0xbd947f9b	-0.07250901
2	0xbd8be156	-0.06830089
3	0xbd7f35c1	-0.062307123
4	0xbc56e9c9	-0.013117262
5	0xbd57d1e2	-0.052690394
6	0xbcab2493	-0.020891463
7	0x3e2048b5	0.15652736
8	0xbd46f62c	-0.04857461
9	0xbe40a779	-0.18813886
10	0xbddf09e7	-0.108905606
11	0xbddbbaa2	-0.10728957
12	0x3d898110	0.0671407
13	0xbda8deca	-0.08245619
14	0xbde36c65	-0.11104659
15	0xbd9c5bb7	-0.07634681
16	0x3d341d9e	0.043973558
17	0x3cf5a606	0.029986393
18	0x3d62388c	0.05522971
19	0xbdd819c4	-0.105517894
20	0x3d92da82	0.07170583
21	0xbdba8080	-0.09106541
22	0x3ce90c09	0.028448122
23	0xbc82cf46	-0.015967976
24	0x3dca826a	0.09888156
25	0x3d08a193	0.033357214
26	0xbb6122af	-0.0034352948
27	0x3cdb681c	0.026783042
28	0x3e01bda9	0.12670006
29	0xbc7d39dd	-0.01545569
30	0x3de9b221	0.114109285
31	0x3e1a8aa3	0.15091948
32	0xbe2ac707	-0.16677485
33	0xbe3de5a4	-0.18544632
34	0xbe025106	-0.1272622
35	0xbd8a66c4	-0.06757882
36	0xbd72304f	-0.059128102
37	0xbdbbdd8b	-0.09173115
38	0xbdaa7adb	-0.08324214
39	0x3d9d94e8	0.07694417
40	0xbc9908d4	-0.018680967
41	0xbda4434e	-0.0802065
42	0x3db7f0a8	0.089814484
43	0x3d9e4a8f	0.07729065
44	0xbde6ed62	-0.11275746
45	0xbd970c8a	-0.073754385
46	0xbdc03a66	-0.093861386
47	0xbcb0e327	-0.02159269
48	0x3dc905e4	0.09815577
49	0xbde774ad	-0.11301551
50	0xbaab1512	-0.0013052544
51	0x3d050965	0.032479662
52	0xbd99b72a	-0.07505639
53	0x3a18ba9e	0.0005826148
54	0xbb9cc345	-0.00478402
55	0xbd03f9e4	-0.032220736
56	0xbd96b3aa	-0.07358487
57	0xbdffdd37	-0.12493365
58	0xbd1bc461	-0.03802908
59	0x3ce0adaa	0.02742656
60	0x3dead6dd	0.11466763
61	0xbd8a5090	-0.06753647
62	0x3d3490f5	0.044083554
63	0x3dac80fd	0.0842304
64	0xbd10e7bc	-0.03537725
65	0xbd507cc4	-0.050900236
66	0xbdda9a95	-0.106740154
67	0xbe11db74	-0.14243871
68	0xbc1cd148	-0.009571381
69	0xbdad0777	-0.084486894
70	0xbdd47a72	-0.10374917
71	0x3dacad42	0.08431484
72	0x3e081e15	0.13292725
73	0x3d7e93e7	0.06215277
74	0x3d2e40bd	0.042542208
75	0xbbf9c436	-0.007622267
76	0xbc1e77f3	-0.009672153
77	0x3d00f837	0.031486716
78	0xbd3b05c4	-0.045659795
79	0x3e160eec	0.1465413
80	0xbd026406	-0.03183367
81	0xbce5ea80	-0.02806592
82	0x3de6504d	0.11245785
83	0x3d967e46	0.073483035
84	0xbd4a157e	-0.049336903
85	0x3d5ca72c	0.053870365
86	0x3c41cb97	0.011828325
87	0x3c94e7cb	0.018176934
88	0x3cc8d055	0.024513403
89	0xbb82bb8a	-0.0039896416
90	0xbce5f14c	-0.02806916
91	0xbcdf8d3e	-0.02728903
92	0x3da32b37	0.07967227
93	0xbd6b0c04	-0.057384506
94	0x3db0fbc4	0.086417705
95	0xbd9b48cb	-0.075822435
96	0x3d94f7be	0.072738156
97	0xbdec661a	-0.11542912
98	0x3d4393dc	0.04774843
99	0xbd804999	-0.06264038
100	0xbdf8588d	-0.12126265
101	0x3e4e3604	0.20137793
102	0x3cd02c04	0.025411613
103	0x3e026b5a	0.12736264
104	0xbd38dd1e	-0.04513275
105	0x3d72ac60	0.05924642
106	0xbd94ccdf	-0.072656386
107	0x3c1a5893	0.009420532
108	0x3d60f896	0.05492457
109	0xbdfe2585	-0.124095
110	0x3dc34bb8	0.095359266
111	0xbd1c7286	-0.038195156
112	0x3e077260	0.13227224
113	0x3da3cad8	0.07997674
114	0x3cccf592	0.02501944
115	0x3de96ff7	0.11398309
116	0xbd38fc5f	-0.045162555
117	0xbc184c2e	-0.009295506
118	0x3d0774ec	0.03307049
119	0xbe217c73	-0.1577013
120	0xbdba0aa0	-0.09084058
121	0x3d0579d0	0.032586873
122	0xbcf9c754	-0.030490555
123	0xbb29f23c	-0.0025931736
124	0x3d622c4a	0.05521802
125	0x3d136df4	0.03599353
126	0xbcbc2b97	-0.022970004
127	0x3dc12cdf	0.094323866
128	0xbdcb5b4b	-0.09929522
129	0xbd866f93	-0.0656425
130	0xbd659c95	-0.05605753
131	0x3bc83f1b	0.0061110384
132	0xbc362779	-0.011117809
133	0x3daf33c4	0.085547954
134	0x3e13984c	0.14413565
135	0x3d166431	0.036716644
136	0x3dbd7dc0	0.092525005
137	0xbd70c3bf	-0.058780428
138	0x3d7bb6bc	0.061453566
139	0x3d9531ec	0.072849125
140	0xbdf8bec5	-0.121457614
141	0xbdd05117	-0.10171717
142	0xbd6bd8e5	-0.057579894
143	0x3d8cd564	0.068766385
144	0x3c4cc88d	0.012498987
145	0xbdcfc54b	-0.101450525
146	0x3df5fc42	0.12011005
147	0x3d87e4fd	0.06635473
148	0xbd7edec9	-0.062224183
149	0xbd1d85c3	-0.038457643
150	0xbd5ede8f	-0.054411467
151	0x3d2a055a	0.04150901
152	0x3d6a4f59	0.057204578
153	0x3d291356	0.041278206
154	0x3da39dde	0.07989095
155	0xbc521d2c	-0.012824338
156	0xbdf340a8	-0.118775666
157	0xbccb3385	-0.02480484
158	0xbe1c8af0	-0.15287375
159	0xbde6b08c	-0.112641424
160	0x3db5e00f	0.088806264
161	0x3d22efe0	0.039779544
162	0x3e064767	0.13113175
163	0x3d7e054f	0.06201678
164	0x3e06f2e9	0.131786
165	0xbda052fc	-0.07828328
166	0x3d102ac0	0.03519702
167	0x3d81deb8	0.06341308
168	0xbd920918	-0.07130641
169	0x3de3893c	0.1111016
170	0xbe1be879	-0.152254
171	0x3d2c39dd	0.04204737
172	0xbc9f0f33	-0.019416427
173	0x3dae8139	0.08520741
174	0x3da48f81	0.08035184
175	0x3d995d54	0.07488504
176	0x3d3e09b5	0.046395976
177	0x3de4d77a	0.111739114
178	0xbdc6c8c7	-0.09706264
179	0x3d809af1	0.06279553
180	0xbde6a2c5	-0.112615146
181	0xbe0bdd60	-0.13658667
182	0xbcf4f9d8	-0.029904291
183	0xbdd45e81	-0.10369588
184	0xbd6852ef	-0.056719717
185	0xbdf4080e	-0.11915599
186	0x3def3295	0.1167957
187	0xbd9bde96	-0.07610814
188	0x3dc2e261	0.095158346
189	0xbda67d3c	-0.08129355
190	0xbd4ac115	-0.049500544
191	0x3c081895	0.008306642
192	0x3c936013	0.017990148
193	0xbde17b24	-0.11009815
194	0x3b8b9ea7	0.004260856
195	0xbe16165e	-0.1465697
196	0xbd180552	-0.03711445
197	0x3d764b46	0.06013038
198	0x3de42c99	0.11141319
199	0x3e501e0c	0.20323962
200	0xbd876ba1	-0.066123255
201	0x3d6d9289	0.058001075
202	0x3d1cc839	0.038276885
203	0xbca01e15	-0.019545594
204	0x3d43b66c	0.047781393
205	0x3da2be9b	0.07946511
206	0x3d2882e3	0.04114045
207	0x3c82d723	0.015971726
208	0x3d949bf2	0.07256307
209	0x3da98d09	0.082788534
210	0x3c85139e	0.016244706
211	0xbd901b4b	-0.07036456
212	0x3dd87ab4	0.10570279
213	0xbd0fe739	-0.03513262
214	0x3d58f503	0.052968036
215	0xbc542307	-0.012947804
216	0xbb9a4c04	-0.004708769
217	0x3d3f351b	0.046681505
218	0x3da5d687	0.080975585
219	0x3d32978b	0.043601554
220	0xbd8f860d	-0.0700799
221	0xbc8e2d58	-0.017355606
222	0xbdc76b02	-0.09737207
223	0xbd1812df	-0.037127372
224	0x3d323fe0	0.043517947
225	0x3cd5609c	0.026047044
226	0x3e01f84f	0.12692378
227	0x3da5bc2b	0.08092531
228	0x3cf76a91	0.030202182
229	0x3e2117a8	0.1573168
230	0x3dc12950	0.09431708
231	0x3d74b22a	0.059740223
232	0x3db325a2	0.08747412
233	0xbd9e7109	-0.077364035
234	0xbd604412	-0.054752417
235	0x3cc8e60e	0.024523761
236	0xbbf01d05	-0.007327678
237	0xbdbb8f31	-0.09158171
238	0x3de45835	0.11149637
239	0xbce24a0e	-0.027623203
240	0x3e2db8fc	0.16965097
241	0xbcab6187	-0.020920528
242	0xbdc6e38e	-0.09711371
243	0xbd4cd9ad	-0.05001228
244	0x3d801c1e	0.06255363
245	0xbd312a01	-0.04325295
246	0xbdba2964	-0.09089926
247	0x3d13f8ec	0.036126062
248	0x3d895c47	0.06707054
249	0xbd1c0d50	-0.038098633
250	0x3e2fc708	0.17165768
251	0x3e142414	0.14466888
252	0x3d04d6d5	0.032431442
253	0xbd38f286	-0.045153163
254	0xbe0e32af	-0.13886522
255	0xbbf2ce39	-0.0074098376
