src/util/AI/checkpoints/020.ckpt (torch, 353508 bytes, 14 tensors)

lstm.weight_ih_l0 f4 [256, 12]
0	0xbd3d2fbc	-0.0461881
1	0x3da81830	0.082077384
2	0xbe1fec72	-0.1561754
3	0x3d0e607a	0.034759976
4	0x3dc5f261	0.09665371
5	0x3da56bc1	0.08077193
6	0x3d739b03	0.059474003
7	0xbc13b867	-0.009016133
8	0xbdd7e611	-0.105419286
9	0x3d17c25e	0.037050597
10	0xbdddce6d	-0.10830388
11	0xbd55e5de	-0.05222117
12	0xbe2dcaaa	-0.16971841
13	0xbadbc51c	-0.0016767117
14	0xbd8b0699	-0.06788368
15	0xbdd6e769	-0.10493357
16	0xbd8b2d49	-0.06795747
17	0xbd81fd52	-0.06347145
18	0x3dff5e4d	0.12469158
19	0x3dee81fc	0.11645886
20	0x3db53b5c	0.088492125
21	0x3d14800c	0.036254928
22	0xbdbf09fa	-0.09328075
23	0x3d00e91b	0.031472307
24	0x3d93b48f	0.07212173
25	0x3deecebd	0.11660526
26	0x3d31527a	0.043291546
27	0x3e01acd5	0.12663586
28	0x3d20282d	0.039100815
29	0x3e5294fc	0.20564646
30	0x3e520cd7	0.2051271
31	0xbdd1f0b5	-0.10250989
32	0x3c63ac4a	0.013896057
33	0xbd0e1254	-0.034685448
34	0x3d367ca6	0.044552468
35	0xbdb34f9b	-0.08755418
36	0x3c80f4ed	0.01574179
37	0x3d3ff67c	0.046865925
38	0x3d8c1cb0	0.06841409
39	0xbe566404	-0.2093659
40	0xbe49f4d3	-0.197223
41	0xbc2d222f	-0.010567232
42	0x3e3c834a	0.18409458
43	0x3b2e680d	0.0026612312
44	0xbe101ffa	-0.14074698
45	0xbd5bc805	-0.05365755
46	0x3e48cdba	0.19609728
47	0x3c9ba25e	0.018998321
48	0x3ce03b1e	0.02737194
49	0xbd9aac67	-0.075524144
50	0xbd935287	-0.07193475
51	0xbd5713c1	-0.052509073
52	0x3d3f8a69	0.046762858
53	0xbc44bcee	-0.012007935
54	0x3db39bf0	0.08769977
55	0x3e4c7417	0.1996616
56	0x3cd59ad5	0.026074806
57	0xbd9c1444	-0.07621053
58	0xbdb62c4b	-0.08895167
59	0xbdc41aa3	-0.09575393
60	0x3c8499bc	0.016186588
61	0x3d1a4be7	0.037670042
62	0x3d1f8ccc	0.038952634
63	0x3dafa301	0.085760124
64	0x3ca110ec	0.01966139
65	0xbdbf6d13	-0.09346976
66	0x3e793b64	0.24339062
67	0x3e9662bb	0.293722
68	0xbca79647	-0.0204574
69	0xbd42f5e2	-0.047597773
70	0xbb8e6dd3	-0.004346588
71	0x3d1760f5	0.0369577
72	0x3df6f459	0.12058324
73	0x3c7c663c	0.015405234
74	0xbe1b14f2	-0.15144709
75	0xbe3004e9	-0.17189373
76	0x3dc768ee	0.097368106
77	0x3c373fe3	0.011184665
78	0xbd72baff	-0.059260365
79	0x3dfddf16	0.12396066
80	0xbd40b889	-0.047050986
81	0xbd80915d	-0.06277726
82	0x3c46b037	0.012126974
83	0x3a995e7e	0.0011701134
84	0xbd7d974a	-0.06191186
85	0x3e0275b5	0.12740214
86	0x3d516105	0.051117916
87	0x3d23e362	0.04001177
88	0x3da53e9b	0.08068582
89	0x3da0b4ff	0.07847022
90	0xbc117a1d	-0.008879212
91	0x3e04939d	0.12946935
92	0xbd5fb77b	-0.05461834
93	0xbce3ad7f	-0.02779269
94	0xbd3b927a	-0.045793988
95	0xbd5e6b93	-0.05430181
96	0xbc3e114a	-0.011600802
97	0xbb8a5e5b	-0.004222674
98	0xbdeea503	-0.11652567
99	0x3c2a8794	0.010408301
100	0xbc2f1de2	-0.010688277
101	0x3d74d53f	0.05977368
102	0x3e58db1c	0.21177334
103	0x3e8ac7b2	0.2710548
104	0x3c9ea6b7	0.019366605
105	0xbd49298b	-0.049111884
106	0xbdc36606	-0.09540944
107	0xbc3b3be7	-0.011427856
108	0x3d8dbabc	0.069203824
109	0xbd202764	-0.039100066
110	0x3dd6b18c	0.10483083
111	0x3d8e9a90	0.06963074
112	0xbd3845f2	-0.04498858
113	0x3bec920a	0.0072195577
114	0x3d95a4ac	0.07306799
115	0xbe1e5f59	-0.1546606
116	0xbe498fdb	-0.19683783
117	0x3c6e48cf	0.014543726
118	0xbce48660	-0.027896106
119	0x3dffe7ea	0.12495406
120	0x3ce9f3ae	0.028558578
121	0xbda56c0f	-0.08077251
122	0xbde8194e	-0.113329515
123	0xbd547539	-0.051869605
124	0x3e293f36	0.1652802
125	0x3d4fcab8	0.050730437
126	0x3df0c90f	0.11757099
127	0x3dfb3559	0.12266035
128	0x3e07ac47	0.13249312
129	0x3bb13ba3	0.0054087206
130	0x3dbdb0f9	0.092622705
131	0xbd4cd7cf	-0.0500105
132	0x3da06e87	0.078335814
133	0x3d6a758f	0.05724102
134	0x3d439130	0.047745883
135	0xbdb7c881	-0.0897379
136	0x3d5d2b67	0.05399647
137	0x3caca81b	0.021076253
138	0xbdc29753	-0.09501519
139	0xbe379cff	-0.17930983
140	0xbe61d38b	-0.22053353
141	0x3d500d98	0.050794214
142	0x3e2a340d	0.16621418
143	0x3cdd3e7e	0.027007338
144	0x3d112241	0.035433058
145	0x3caf1048	0.021370068
146	0xbe081ff8	-0.13293445
147	0xbde3a70b	-0.11115845
148	0x3d09ad34	0.033612445
149	0x3e1d6b7e	0.15373036
150	0xbd90194d	-0.07036076
151	0xbe89ca4f	-0.26912162
152	0xbdaf0f11	-0.085477956
153	0x3d0584a6	0.032597207
154	0xbd068e99	-0.032850835
155	0xbdd04285	-0.101689376
156	0x3c901134	0.017586328
157	0x3d6018ae	0.054711036
158	0x3d879f95	0.06622235
159	0xbd9986e9	-0.07496435
160	0xbe05b919	-0.1305889
161	0xbdcb1e82	-0.09917928
162	0x3e1c47bb	0.15261738
163	0xbdeaa137	-0.114565305
164	0xbe22a2c8	-0.15882409
165	0xbda556b9	-0.08073182
166	0x3c7233b8	0.0147828385
167	0x3d0e27ce	0.03470593
168	0xbd89b92c	-0.06724772
169	0x3d18db7c	0.03731869
170	0xbdb4e3b8	-0.088324964
171	0x3dd635b9	0.104594655
172	0xbd743899	-0.05962429
173	0xbd9ad49a	-0.07560082
174	0x3dd19598	0.10233611
175	0x3d2d5f84	0.04232742
176	0xbdd60d4f	-0.10451757
177	0x3bead833	0.0071668862
178	0xbc6cdd06	-0.014456993
179	0x3d44b245	0.048021574
180	0xbd759ed1	-0.059965912
181	0xbd4e4368	-0.050357252
182	0x3e16feb8	0.14745605
183	0x3c877cad	0.016538942
184	0x3e0846ca	0.13308254
185	0x3c75ce88	0.015002854
186	0xbdedb968	-0.11607629
187	0xbcf9677e	-0.030444857
188	0xbd1fd8de	-0.03902518
189	0xbdba4a05	-0.09096149
190	0xbd5af8ed	-0.05346005
191	0x3e02dd66	0.1277977
192	0xbd8b8f4e	-0.068144426
193	0x3cd5b536	0.026087385
194	0x3d74d1d6	0.059770428
195	0x3e2b2f75	0.16717322
196	0x3d9acb2a	0.07558282
197	0x3d72ebd2	0.059306927
198	0xbd66a17e	-0.056306355
199	0xbe2a2133	-0.16614227
200	0xbd255e67	-0.040373232
201	0xbccdf3fc	-0.025140755
202	0xbdc01287	-0.09378534
203	0xbd1a5c8f	-0.037685927
204	0xbd9a7afc	-0.07542989
205	0xbd242f26	-0.040084027
206	0xbd227a7b	-0.039667588
207	0xbe53e49e	-0.2069268
208	0x3cb7f533	0.022455787
209	0x3e3f4847	0.18679915
210	0x3cdea1c4	0.027176745
211	0xbde3f788	-0.11131197
212	0x3da6408b	0.08117779
213	0xbb29e84c	-0.0025925813
214	0x3e0b4f52	0.13604477
215	0xbe015d33	-0.12633209
216	0xbe02a065	-0.12756498
217	0xbb92e96c	-0.0044833925
218	0xbd65bfb1	-0.056091014
219	0x3dd7a714	0.105299145
220	0x3d75275e	0.059851997
221	0xbe181d86	-0.14855012
222	0xbe6e607a	-0.2327899
223	0x3dcd885a	0.100357726
224	0x3d43628a	0.047701396
225	0x3d6e2438	0.05814001
226	0xbe4b260d	-0.19838734
227	0xbdc90cfd	-0.098169304
228	0xbe5c00f6	-0.21484742
229	0x3c6f428a	0.0146032665
230	0xbdd314ff	-0.10306739
231	0x3d8f338f	0.06992256
232	0x3e00a997	0.12564693
233	0x3cf4c042	0.029876832
234	0xbd9711e2	-0.07376458
235	0xbd2275d1	-0.03966314
236	0x3c9667eb	0.018360099
237	0x3dafafc6	0.08578448
238	0xbd8e37e8	-0.06944257
239	0x3c4e181f	0.012578993
240	0xbdc1d310	-0.09464085
241	0x3e36fd17	0.17869984
242	0xbdda1f3c	-0.10650489
243	0xbbba6335	-0.005688096
244	0xbd167ed4	-0.036742046
245	0xbda60f00	-0.0810833
246	0xbd386838	-0.045021266
247	0x3df8980b	0.12138375
248	0xbd9968f8	-0.07490724
249	0xbdb2c4f2	-0.087289706
250	0x3d5152b3	0.05110426
251	0x3c9d3db6	0.019194465
252	0xbaa1cce3	-0.0012344386
253	0x3d8a1d4b	0.067438684
254	0xbdf41a3f	-0.119190685
255	0x3d253d43	0.040341627

lstm.weight_hh_l0 f4 [256, 64]
0	0x3d2ca97b	0.042153817
1	0xbd84cf3b	-0.064848386
2	0x3e23981e	0.15975997
3	0xbc9e9f48	-0.01936306
4	0x3d8a3197	0.0674774
5	0x3e4603df	0.19337414
6	0xbdb16ed4	-0.08663717
7	0xbc9f7dc6	-0.019469153
8	0x3ded848e	0.115975484
9	0x3e37646c	0.17909402
10	0x3da1a52f	0.078928344
11	0x3ce5a4f4	0.028032757
12	0x3e4cc5a1	0.19997264
13	0xbdcc9728	-0.09989768
14	0x3df5e434	0.12006417
15	0x3d5b9a9d	0.053614248
16	0xbd3ee55b	-0.04660545
17	0x3d7d9c23	0.06191648
18	0x3ba28777	0.0049599963
19	0x3d117949	0.035516057
20	0xbd0e43ea	-0.034732737
21	0xbdb69df5	-0.08916847
22	0x3c48d13f	0.012256919
23	0xbca0a5e5	-0.019610355
24	0x3e29c3ff	0.16578673
25	0xbd4ff5c7	-0.0507715
26	0xbe0d1c95	-0.13780434
27	0xbb9b28f2	-0.0047351057
28	0x3da3e8f3	0.08003416
29	0x3d99b0e8	0.07504445
30	0xbdfb5e8a	-0.12273891
31	0xbd900cc7	-0.07033687
32	0xbd8af8b6	-0.06785719
33	0x3bb86eba	0.005628434
34	0x3d891c46	0.06694846
35	0xbde56ec3	-0.11202767
36	0xbaf7da0b	-0.0018909586
37	0x3d15cdd8	0.03657326
38	0xbd946a67	-0.07246857
39	0x3d94c7e9	0.07264692
40	0xbd7cca75	-0.061716516
41	0xbd482bf0	-0.048870027
42	0x3c961fa2	0.01832563
43	0xbdeb8f43	-0.115019344
44	0xbd8d813d	-0.06909416
45	0xbe372539	-0.17885293
46	0xbddb2b4a	-0.10701616
47	0xbe1fed0a	-0.15617767
48	0x3daeaaad	0.085286476
49	0x3d93e54a	0.07221468
50	0x3dc6a30f	0.0969907
51	0x3d6b52f9	0.057452176
52	0xbe44b2a1	-0.19208767
53	0xbc030f27	-0.007999218
54	0x3e5df398	0.21674955
55	0xbdb43664	-0.08799437
56	0x3d144e5b	0.036207538
57	0x3df62778	0.12019247
58	0xbe08ef07	-0.13372432
59	0xbd92562f	-0.071453445
60	0xbd7cbfe3	-0.061706435
61	0x3e20a4dd	0.1568789
62	0x3cc83bbd	0.024442548
63	0x3ddccb40	0.10780954
64	0x3d52d47a	0.051472165
65	0xbdafc848	-0.085831225
66	0x3e85a93a	0.26105672
67	0x3dc1b554	0.09458414
68	0x3d8772db	0.06613704
69	0xbdbcc831	-0.09217871
70	0xbd3aeb67	-0.045634653
71	0xbd749291	-0.05971009
72	0xbd849dc5	-0.06475405
73	0xbe21edda	-0.1581339
74	0x3de06481	0.109566696
75	0x3cb712e3	0.022347873
76	0x3c2f1731	0.010686682
77	0xbdbd8237	-0.09253352
78	0xbe306eb5	-0.17229731
79	0x3da70aca	0.08156355
80	0x3e031467	0.12800752
81	0xbe4c1363	-0.1992927
82	0x3e4bbdb6	0.19896588
83	0x3d94b182	0.072604194
84	0x3e54b110	0.20770669
85	0xbdf76c66	-0.12081222
86	0xbe486d25	-0.19572885
87	0x3d30bbe5	0.04314794
88	0x3d99ed6a	0.07515986
89	0xbe20b812	-0.15695217
90	0x3d6309cf	0.055429276
91	0x3e229217	0.15876041
92	0xbd8bd6a4	-0.06828049
93	0xbe7482b8	-0.2387799
94	0xbd2165c6	-0.0394037
95	0x3e2aefa6	0.16692981
96	0xbe114278	-0.14185512
97	0xbdc080ad	-0.09399543
98	0x3cc394b9	0.023874627
99	0x3d70b342	0.058764704
100	0x3d69d0d5	0.057083923
101	0xbd8a884e	-0.06764279
102	0xbdf4119b	-0.119174205
103	0x3dbf8fa2	0.09353568
104	0x3cd35476	0.02579711
105	0xbe2e4583	-0.17018704
106	0xbd80a4a1	-0.062814005
107	0xbe34c7ed	-0.1765439
108	0xbd98efa1	-0.074675806
109	0xbe12f184	-0.14349943
110	0xbe11f585	-0.14253815
111	0xbd41cac1	-0.0473125
112	0xbcae23ac	-0.021257244
113	0xbc3abbc1	-0.011397303
114	0x3d8e8dcd	0.0696064
115	0xba9e942a	-0.00120986
116	0xbe37b329	-0.17939438
117	0x3dc63eca	0.09679945
118	0xbcfa35ff	-0.030543325
119	0x3e6eee86	0.23333177
120	0xbd8eaef1	-0.06966961
121	0x3de7d638	0.11320156
122	0xbe2fee2e	-0.17180702
123	0x3dcaeb6e	0.09908186
124	0x3d02c011	0.03192145
125	0xbd8beaca	-0.06831892
126	0x3da143cf	0.078742616
127	0xbddfddaa	-0.10930951
128	0x3e11c9ee	0.14237186
129	0xbe568042	-0.20947364
130	0xbd8e4480	-0.06946659
131	0x3d88de6b	0.06683048
132	0xbd6c3352	-0.05766613
133	0x3d67e90a	0.056618728
134	0xbceb52a2	-0.028725926
135	0x3dc9de22	0.098568216
136	0x3d96f3ec	0.07370743
137	0xbdc8bfed	-0.09802232
138	0x3d2b3443	0.041797888
139	0x3d8ad414	0.06778732
140	0x3e2b9a3f	0.16758059
141	0xbd0de1d5	-0.0346392
142	0xbd74bcba	-0.059750296
143	0x3dab6cde	0.08370374
144	0xbe08a54c	-0.13344306
145	0xbcf764ce	-0.030199435
146	0x3e56855d	0.20949312
147	0x3c0ccbf0	0.008593544
148	0xbdd4e1f2	-0.10394658
149	0x3d039984	0.032128826
150	0xbb58c750	-0.0033077784
151	0x3d4c9a5f	0.049951907
152	0xbd06a7f2	-0.03287501
153	0xbe1a184d	-0.15048333
154	0xbde4e536	-0.11176531
155	0xbdafd2b5	-0.08585111
156	0xb8e1b956	-0.000107633576
157	0x3d5cbcf4	0.053891137
158	0xbe35097f	-0.17679404
159	0xbdfb796a	-0.12279017
160	0x3c6e10f4	0.014530409
161	0x3d00a4be	0.03140711
162	0x3e021e7e	0.12706944
163	0xbd0add7c	-0.03390263
164	0x3d46a22f	0.048494514
165	0x3dddc2c4	0.10828164
166	0xbcc6a4e1	-0.024248542
167	0x3e225f06	0.15856561
168	0x3e364468	0.17799532
169	0x3d42269a	0.047400095
170	0x3d471db6	0.04861232
171	0xbc7f600d	-0.015586865
172	0x3cbcc1a8	0.023041561
173	0x3dec14f2	0.115274325
174	0xbe1d425c	-0.15357345
175	0x3e2b8689	0.1675054
176	0xbd8d9e28	-0.069149315
177	0x3bcc395e	0.0062324246
178	0x3b7d78ac	0.0038676662
179	0xbe29621c	-0.16541332
180	0xbb49caa2	-0.0030790945
181	0xbe4acd51	-0.19804884
182	0xbbdef97b	-0.0068046427
183	0xbe205518	-0.1565746
184	0xbe06804d	-0.1313488
185	0x3cdbe8af	0.02684435
186	0x3dc459d7	0.09587448
187	0x3d058ccb	0.032604974
188	0xbdbd76cb	-0.092511736
189	0x3c8362ad	0.016038263
190	0xbde5173e	-0.11186074
191	0x3e69be51	0.22826506
192	0x3e86d451	0.2633386
193	0xbe8aeb76	-0.27132767
194	0x3e03fecf	0.1289017
195	0xbe8363e6	-0.25662154
196	0xbba9beb3	-0.005180204
197	0xbe6fee23	-0.23430686
198	0xbe0c8b3c	-0.13724989
199	0xbda81151	-0.08206428
200	0x3e253dab	0.16136806
201	0xbe3e047f	-0.18556403
202	0x3d9b5e29	0.07586319
203	0xbb59cf9c	-0.0033235317
204	0xbc579276	-0.013157478
205	0xbce99594	-0.028513707
206	0xbb849a57	-0.004046719
207	0x3e22c2ee	0.15894672
208	0x3d7ae2ad	0.06125133
209	0xbaec1ab5	-0.001801333
210	0xbe385b37	-0.18003546
211	0x3e4d89bc	0.20072073
212	0xbdbd677b	-0.09248253
213	0xbe2a0cee	-0.16606495
214	0xbe3a11d9	-0.18170871
215	0x3ded0b56	0.11574428
216	0x3d9d40c6	0.0767837
217	0xbdf65fb2	-0.12029971
218	0xbe42b9fa	-0.19016257
219	0x3e62243c	0.22084135
220	0x3e21fbd6	0.15818724
221	0xbdd4db1d	-0.10393355
222	0x3e2e6e9e	0.17034385
223	0x3a2c779b	0.0006579102
224	0x3e317e6e	0.17333385
225	0xbbb9f34d	-0.0056747557
226	0x3c06121e	0.00818303
227	0x3d6878c6	0.056755804
228	0xbdd56d6b	-0.104212604
229	0xbde7f616	-0.11326234
230	0xbce4c74f	-0.027927069
231	0x3dca73a9	0.09885342
232	0x3e5334db	0.20625632
233	0x3e0863b0	0.13319278
234	0x3c9dc1dd	0.01925748
235	0xbe9eb06d	-0.30993977
236	0x3c35d506	0.011098152
237	0x3e0863ba	0.13319293
238	0x3d0c9e5c	0.03433071
239	0x3e9976bb	0.29973397
240	0x3d9e1072	0.077179804
241	0xbe42e178	-0.19031322
242	0xbde3258f	-0.11091148
243	0x3dbd58e8	0.09245473
244	0xbd4e6fe7	-0.050399687
245	0x3dfa206e	0.12213217
246	0x3db0dfc3	0.08636429
247	0x3d17ef6b	0.03709356
248	0x3da8215d	0.082094885
249	0x3cc06dba	0.023489822
250	0xbea4dae4	-0.3219825
251	0xbe39882e	-0.18118355
252	0x3dc2b89d	0.095078684
253	0xbe8d5cdb	-0.27609906
254	0x3e3e79a8	0.18601096
255	0xbc130936	-0.008974364

lstm.bias_ih_l0 f4 [256]
0	0xbd0d5c8b	-0.034512084
1	0xbdc38902	-0.095476165
2	0xbda3c1cb	-0.079959475
3	0xbe0607a8	-0.13088858
4	0xbdb854ca	-0.09000547
5	0x3cf72c59	0.030172514
6	0x3cef49bc	0.029209964
7	0x3db50a0e	0.088398084
8	0x3e149acc	0.14512175
9	0xbdc7f807	-0.09764104
10	0xbc964d63	-0.018347448
11	0x3be0878c	0.006852096
12	0xbd42e843	-0.047584783
13	0xbd6d7313	-0.05797107
14	0x3d9d352e	0.07676159
15	0xbcfcf4b9	-0.030878412
16	0xbe07600e	-0.13220236
17	0x3c911942	0.01771224
18	0xbd15c1a5	-0.036561627
19	0x3c58ec62	0.013239952
20	0xbd026bcc	-0.031841084
21	0x3dd00d1a	0.10158749
22	0xbd00b639	-0.03142378
23	0xbd412094	-0.04715021
24	0x3d8d24ad	0.06891761
25	0x3d2dd279	0.04243705
26	0xbe5479a1	-0.20749523
27	0x3d358ba9	0.044322643
28	0x3d9f3800	0.07774353
29	0xbce868bb	-0.028370252
30	0x3d9d777b	0.07688805
31	0x3da8bfab	0.08239683
32	0x3d7d35a6	0.06181874
33	0xbd5080f8	-0.050904244
34	0xbce3e7f1	-0.02782056
35	0x3de5f028	0.11227447
36	0x3d4491ac	0.047990486
37	0xbdb59a02	-0.08867265
38	0xbd7e278e	-0.06204944
39	0xbe28ad37	-0.16472326
40	0x3b0ba96a	0.0021310695
41	0xbcb3e196	-0.021958154
42	0x3dd63e4e	0.104611024
43	0x3d8c3cc1	0.068475254
44	0x3cdb3273	0.026757454
45	0xbd9ac376	-0.075568125
46	0x3db17543	0.08664944
47	0x3e4af617	0.19820438
48	0x3d3c4bea	0.045970835
49	0xbdc3a04a	-0.09552057
50	0xbd5955cd	-0.05306034
51	0xbd8f489b	-0.0699627
52	0xbc76a8b9	-0.015054875
53	0xbd9eee7e	-0.077603325
54	0x3d87cf90	0.06631386
55	0xbdc95ed7	-0.098325424
56	0xbe85e371	-0.26150087
57	0xbe486f10	-0.19573617
58	0xbb28d290	-0.002576027
59	0xbd9947f9	-0.07484431
60	0xbcbd3861	-0.023098173
61	0xbc22da61	-0.009939761
62	0x3e1deaa6	0.15421543
63	0x3dcea879	0.10090727
64	0xbd81e455	-0.06342379
65	0xbd7f1d62	-0.06228388
66	0xbd5fcc7a	-0.054638363
67	0xbe358a7c	-0.17728609
68	0x3ddfa300	0.10919762
69	0xbd91bedd	-0.071164824
70	0xbc9d876c	-0.019229613
71	0xbd9d1a6f	-0.076710574
72	0xbdc240ff	-0.09485053
73	0xbc5318cd	-0.012884331
74	0xbc38fe65	-0.011291121
75	0x3d3fa9a4	0.04679264
76	0xbdff52b9	-0.1246695
77	0xbe0e7c6f	-0.13914655
78	0xbcbcd6a5	-0.02305157
79	0x3d668696	0.056280695
80	0xbd8202e8	-0.063482106
81	0xbda935c3	-0.08262207
82	0x3cdfcb5e	0.027318653
83	0x3dea5cdb	0.11443492
84	0x3cde3e97	0.027129455
85	0x3d8fa5e6	0.070140645
86	0x3dfa6f5c	0.12228271
87	0x3dbdeac9	0.09273297
88	0x3d5d08c0	0.053963423
89	0x3d8f4fd7	0.0699765
90	0xbd07e426	-0.033176564
91	0x3d7e196d	0.062035967
92	0x3d2cba7f	0.042170044
93	0x3e3943e7	0.18092309
94	0xbd3cbf3a	-0.046080805
95	0x3e47a7c8	0.19497597
96	0x3e07d36e	0.13264248
97	0x3d0e18ab	0.034691494
98	0xb9897038	-0.00026214286
99	0x3e0331c6	0.12811956
100	0x3dc70225	0.09717206
101	0xbe610d04	-0.21977621
102	0x3d71357b	0.058888894
103	0xbe477d7d	-0.19481464
104	0x3bd5cd02	0.006524683
105	0x3e0c86b2	0.13723257
106	0x3dbaee86	0.09127526
107	0x3d8b5f67	0.06805306
108	0x3d1d1ccd	0.038357545
109	0xbd813eb4	-0.06310788
110	0x3daeef8f	0.08541786
111	0x3c42ee25	0.011897598
112	0x3b8ecc91	0.0043578823
113	0x3e1297c6	0.1431571
114	0x3dadeefe	0.0849285
115	0xbdb185d5	-0.086681046
116	0x3e073165	0.13202436
117	0x3c881901	0.016613485
118	0xbdf59620	-0.11991525
119	0x3e1e5b87	0.15464602
120	0xbcd1e6ea	-0.025622804
121	0xbcf91d16	-0.030409377
122	0xbc14a351	-0.009072141
123	0xbe0bf885	-0.13669021
124	0xbe0586ba	-0.13039675
125	0xbd909836	-0.07060282
126	0x3de717fb	0.11283871
127	0xbccd5057	-0.025062723
128	0xbc22b75a	-0.00993141
129	0xbdb6c9c6	-0.08925204
130	0x3d6ac880	0.057320118
131	0x3d4aca39	0.04950926
132	0xbcea0ba1	-0.028569998
133	0x3dbf1e19	0.093319125
134	0xbbba7832	-0.005690598
135	0x3b911088	0.0044270195
136	0xbe298685	-0.16555221
137	0xbd270d13	-0.040783953
138	0xbdf77e9b	-0.12084695
139	0xbdc05bbd	-0.09392498
140	0xbb800f9e	-0.0039081117
141	0xbc149f89	-0.009071239
142	0x3a6f39f8	0.00091257645
143	0x3d1ab91b	0.037774187
144	0x3d44e48f	0.048069533
145	0x3dc8bf83	0.09802153
146	0xbd89fa89	-0.06737239
147	0x3e3ee856	0.18643317
148	0xbdb36339	-0.087591596
149	0x3d9f28e6	0.07771473
150	0x3e060bc9	0.13090433
151	0x3e269955	0.16269429
152	0x3c242afe	0.010020016
153	0x3d650d67	0.055920985
154	0x3e393a0d	0.18088551
155	0x3d71c2e8	0.059023768
156	0xbcdb7f63	-0.026794141
157	0xbdd20b68	-0.10256082
158	0xbb8a9bd5	-0.0042300024
159	0xbe24d1b0	-0.16095614
160	0x3e317d56	0.17332968
161	0x3cb6c033	0.022308445
162	0xbd2a2302	-0.041537292
163	0xbcb7403d	-0.022369498
164	0x3dcd0474	0.10010615
165	0xbddba638	-0.10725063
166	0xbda0e7b2	-0.078566924
167	0xbd6942d9	-0.056948517
168	0x3de6d248	0.11270577
169	0x3d294305	0.04132368
170	0xbe90b0ce	-0.2825989
171	0xbd1f32e9	-0.03886691
172	0x3c90ad87	0.01766087
173	0xbdb96044	-0.09051564
174	0x3deb9f85	0.11505035
175	0xbd8abead	-0.0677465
176	0x3d205016	0.039138876
177	0x3e2f649f	0.17128228
178	0x3d6542a3	0.055971753
179	0x3e24dacb	0.16099088
180	0x3cdc83fe	0.026918408
181	0x3da7f985	0.08201889
182	0x3d19d758	0.037558883
183	0xbdc48039	-0.09594769
184	0xbd62eb80	-0.05540037
185	0x3e020d3a	0.12700358
186	0x3e29ad60	0.16570044
187	0x3d69e6de	0.057104938
188	0xbd28150a	-0.04103569
189	0x3e073010	0.13201928
190	0x3dcc13b0	0.099646926
191	0xbda14daf	-0.07876145
192	0x3d72d27e	0.059282772
193	0xbbdd5f70	-0.006755762
194	0xbbd1e823	-0.0064058467
195	0x3db1e524	0.08686283
196	0x3c887a8e	0.016660001
197	0xbd712bd0	-0.058879673
198	0xbe2be097	-0.16784893
199	0x3db785ae	0.08961044
200	0xbdc6d40a	-0.09708412
201	0xbd24486d	-0.040108133
202	0xbd4accab	-0.049511593
203	0x3cbc5600	0.022990227
204	0x3bd15ee2	0.0063894847
205	0xbbe94e6b	-0.007119944
206	0xbe2fcc2a	-0.17167726
207	0xba944acd	-0.0011313796
208	0xbdea528c	-0.11441526
209	0xbb70e7f9	-0.003675936
210	0xbe0bfd27	-0.13670789
211	0x3d93711e	0.0719931
212	0xbdfda5a2	-0.123851076
213	0xbd9aa389	-0.07550723
214	0x3b415cd4	0.0029504793
215	0xbb47ba7c	-0.0030476144
216	0xbe0c51bc	-0.13703054
217	0x3da7007c	0.08154389
218	0x3df43800	0.11924744
219	0x3cec0cdd	0.028814727
220	0x3dbe8d2b	0.093042694
221	0xbcd9bcad	-0.026579225
222	0x3c85f1fb	0.016350737
223	0xbdbc27bf	-0.091872685
224	0xbc5053a0	-0.01271525
225	0xbcf5e490	-0.030016214
226	0xbd0ead5e	-0.034833305
227	0xbdde07c6	-0.108413264
228	0x3d0fd59a	0.035115816
229	0xbdd8069e	-0.10548137
230	0x3d43275c	0.047644958
231	0xbd2064f8	-0.03915879
232	0x3aab5857	0.0013072592
233	0x3e4f2ef5	0.20232756
234	0x3de2263f	0.11042451
235	0x3dea3414	0.11435714
236	0x3da73775	0.081648745
237	0xbd2f78e0	-0.042839885
238	0xbda16905	-0.07881359
239	0xbcd03694	-0.02541665
240	0xbd8eed5a	-0.06978865
241	0xbdc3bd2e	-0.095575675
242	0xbe07f6f8	-0.13277805
243	0x3df6819e	0.12036441
244	0x3df1974d	0.117964365
245	0x3c1880a1	0.009308011
246	0xbd94974d	-0.07255421
247	0xbda1f40a	-0.07907875
248	0xbdb4ac7c	-0.08821961
249	0x3d183266	0.03715744
250	0xbe260f46	-0.16216764
251	0x3de35908	0.11100966
252	0x3db91670	0.09037483
253	0xbda6be7f	-0.08141803
254	0x3d04d33d	0.032428015
255	0xbde9a72b	-0.11408838

lstm.bias_hh_l0 f4 [256]
0	0xbe0a9c7b	-0.13536255
1	0xbd3e292e	-0.04642599
2	0xbd49dd2f	-0.049283203
3	0xbe87f05b	-0.26550564
4	0xbe0ace0d	-0.13555165
5	0xbdcf37b9	-0.1011805
6	0xbcb0840b	-0.021547338
7	0x3dfc7872	0.123276606
8	0x3e095e98	0.13414991
9	0x3d9db76d	0.07701001
10	0x3dc5e83e	0.09663437
11	0x39391351	0.00017650171
12	0x3daac708	0.083387434
13	0xbbce7104	-0.0063000936
14	0x3dc1b072	0.094574824
15	0x3d8c9183	0.06863692
16	0x3cf9db8d	0.030500198
17	0xbde09c1c	-0.109672755
18	0xbe0b91b5	-0.13629802
19	0x3ddc2851	0.10749877
20	0x3c65b1ba	0.014019424
21	0x3e18da98	0.14927137
22	0x3d852839	0.065018125
23	0xbd8403f8	-0.064460695
24	0xbdc2f1fb	-0.0951881
25	0xbba56eee	-0.0050486242
26	0xbd1f4aed	-0.038889814
27	0xbdac9203	-0.08426287
28	0xbd7ebd24	-0.062192097
29	0x3ca2bc79	0.019865261
30	0x3d1d58cf	0.038414773
31	0xbd30ff9d	-0.04321252
32	0xbe1c2376	-0.15247902
33	0xbd917895	-0.07103077
34	0xbdc158df	-0.09440779
35	0x3d478f25	0.048720498
36	0xbd619d88	-0.055081874
37	0xbce5e332	-0.028062437
38	0x3d37318f	0.044724997
39	0x3c077b09	0.00826908
40	0xbdd6433e	-0.10462044
41	0x3dcf5ab9	0.10124726
42	0x3dd378ea	0.10325797
43	0xbe138670	-0.14406753
44	0x3db4882d	0.08815036
45	0xbd9bac10	-0.07601178
46	0x3cff1129	0.031136112
47	0x3daeb506	0.08530621
48	0x3e36a9b6	0.17838177
49	0xbcde79a8	-0.02715762
50	0xbe52df33	-0.20592956
51	0xbe07c2e3	-0.13257937
52	0x3c3ea057	0.011634908
53	0x3d8962c4	0.06708291
54	0x3d563ced	0.052304197
55	0xbd6bff1e	-0.057616346
56	0xbda24847	-0.07923942
57	0xbe382e58	-0.17986429
58	0x3d0aa9e2	0.03385342
59	0x3d8556d9	0.065107055
60	0x3c8368fd	0.016041273
61	0x3e3478f2	0.17624262
62	0xbd284aba	-0.04108689
63	0x3daa6bd7	0.0832135
64	0x3b231d8b	0.0024889435
65	0x3d2b9080	0.041885853
66	0xbe2bb401	-0.16767885
67	0xbcfef8ad	-0.031124437
68	0xbc1be4b1	-0.0095149735
69	0xbdf3ae25	-0.1189845
70	0xbd8ea731	-0.06965483
71	0xbd9dbfc7	-0.07702594
72	0xbe3162e8	-0.17322886
73	0x3d8f75a5	0.07004861
74	0xbd918def	-0.0710715
75	0xbda3e511	-0.08002675
76	0x3d02bd0d	0.031918574
77	0xbccd54b2	-0.0250648
78	0xbd7110b5	-0.058853824
79	0x3d274428	0.040836483
80	0xbc6e4414	-0.014542598
81	0x3d852469	0.06501085
82	0x3d6fd998	0.058557123
83	0x3d150937	0.03638574
84	0xbdfb6a45	-0.12276129
85	0xbd3a4611	-0.045476977
86	0x3e097e36	0.13427052
87	0xbd445932	-0.047936626
88	0x3dd4fbb0	0.10399568
89	0x3e1a2795	0.15054162
90	0xbdf0263e	-0.11726044
91	0xbbe9025c	-0.007110877
92	0x3d988628	0.07447463
93	0x3e197338	0.14985359
94	0x3d997ff8	0.07495111
95	0x3de0a669	0.1096924
96	0xbda6b268	-0.08139497
97	0x3b75919f	0.003747083
98	0x3ddcb7cf	0.10777246
99	0xbd03c5de	-0.032171123
100	0x3e1b4381	0.1516247
101	0xbe03c199	-0.1286682
102	0x3da01beb	0.07817825
103	0xbd8ac12c	-0.06775126
104	0x3c6db22b	0.014507811
105	0xbd899861	-0.06718517
106	0xbc985b11	-0.018598111
107	0x3df7c883	0.120987915
108	0x3d899fe1	0.067199476
109	0x3d806dee	0.062709674
110	0xbba0162a	-0.0048854547
111	0x3e0d0df0	0.13774848
112	0x3d5fec00	0.054668427
113	0x3e62e549	0.22157778
114	0x3db58bea	0.08864577
115	0x3c009497	0.007847927
116	0x3dcc0472	0.099617854
117	0x3ba7e27d	0.005123435
118	0xbd12dcbd	-0.035855044
119	0x3dd9e5d6	0.10639541
120	0xbd484d6e	-0.048901968
121	0xbce41222	-0.027840678
122	0x3cffa7f3	0.031208014
123	0xbc848ef0	-0.01618144
124	0x3cb1c72a	0.021701414
125	0x3cdfa072	0.027298186
126	0x3d1a02b5	0.037600238
127	0xbd8ca52d	-0.06867442
128	0x3dad9df7	0.08477395
129	0x3dbe93f6	0.09305565
130	0xbe3e7456	-0.18599066
131	0xbc6ea1c8	-0.014564939
132	0x3e1ed3f2	0.15510538
133	0xbd8dcf45	-0.06924299
134	0x39f4494d	0.0004659392
135	0x3e15d0df	0.14630459
136	0xbe31310b	-0.17303865
137	0xbd5e3659	-0.05425105
138	0x3d7983a8	0.060916573
139	0x3d3e86ee	0.046515398
140	0xbe4b311c	-0.19842952
141	0xbd17a822	-0.03702558
142	0xbc92ae4b	-0.017905375
143	0xbdaeb4f4	-0.08530608
144	0xbc832015	-0.016006509
145	0x3e3d0daa	0.18462244
146	0x3c902b2b	0.01759871
147	0xbbd45ab6	-0.00648054
148	0xbc2d5527	-0.010579384
149	0xbd243746	-0.040091775
150	0x3e59e707	0.21279536
151	0x3df6690c	0.12031755
152	0x3d891ba1	0.06694723
153	0x3df1ed03	0.118127845
154	0x3c94b54a	0.018152852
155	0xbda41eee	-0.08013712
156	0xbda486b0	-0.08033502
157	0xbcbceda2	-0.02306253
158	0xbbbdc06e	-0.0057907617
159	0xbd0ceee5	-0.034407515
160	0x3dcb4ad9	0.099263854
161	0x3e0ecdd1	0.139457
162	0xbdd6048e	-0.104500875
163	0x3d5b28c2	0.053505667
164	0x3d14593e	0.03621792
165	0xbcab95d6	-0.02094547
166	0xbe248196	-0.16065058
167	0x3d6a2511	0.057164256
168	0xbd2f811a	-0.04284773
169	0x3d0397cd	0.03212719
170	0xbe181515	-0.14851792
171	0x3e12bd71	0.14330079
172	0xbd946ca1	-0.07247282
173	0x3e0f9a0d	0.1402361
174	0x3dd9c165	0.1063259
175	0xbd02b332	-0.031909175
176	0x3dc01961	0.09379841
177	0x3d4169d8	0.04722008
178	0x3da309a1	0.07960821
179	0x3d66688d	0.05625205
180	0x3e378bd4	0.17924434
181	0xbd100c97	-0.035168257
182	0x3cde2123	0.02711541
183	0xbe0c3bce	-0.13694689
184	0xbde8a93f	-0.11360406
185	0x3e3fe844	0.18740946
186	0xbd047d3b	-0.03234599
187	0x3d05bac5	0.03264882
188	0xbde88330	-0.11353147
189	0x3d81a943	0.06331112
190	0x3e0a699c	0.1351685
191	0xbde03207	-0.10947042
192	0x3e08d57b	0.13362686
193	0x3dd770aa	0.10519536
194	0xbd6a8fb5	-0.057265956
195	0xbd5f2ea0	-0.054487824
196	0x3e278b9b	0.16361849
197	0xbda58bbc	-0.08083293
198	0x3b84ee4f	0.004056729
199	0xbda181cc	-0.07886085
200	0xbe0a2023	-0.13488822
201	0x3daea8d7	0.085282974
202	0x3e0b7d4c	0.13622016
203	0xbbe5914a	-0.007005845
204	0x3be77f9c	0.007064773
205	0x3d8b22fd	0.06793783
206	0xbd36dca5	-0.044644017
207	0xb9bda143	-0.00036169039
208	0x3d78a9d8	0.06070885
209	0x3db515ca	0.088420466
210	0x3cef56e8	0.029216245
211	0xbe1a45d0	-0.15065694
212	0x3da77282	0.081761375
213	0xbd730048	-0.05932644
214	0x3de4a43c	0.11164138
215	0x38b0741f	8.413963e-05
216	0x3d227558	0.03966269
217	0x3d22bf6c	0.039733335
218	0x3de8aec5	0.1136146
219	0xbde7a92d	-0.113115646
220	0x3e1965f7	0.14980303
221	0x3db30c63	0.08742597
222	0xbe22ba55	-0.15891393
223	0x3e142e5e	0.14470813
224	0x3d351939	0.044213507
225	0x3d7b1aa6	0.06130471
226	0x3d0bfa44	0.03417422
227	0xbd57e0ae	-0.052704506
228	0xbcf35570	-0.029703826
229	0x3da58dd8	0.08083695
230	0x3c925bcc	0.017866038
231	0xbca5231f	-0.020158349
232	0xbd805939	-0.06267018
233	0x3e315e99	0.17321242
234	0x3e1a58f7	0.15073
235	0x3c4d8253	0.012543279
236	0x3cee851f	0.029116211
237	0x3c833cf4	0.016020276
238	0xbd129216	-0.03578385
239	0x3defea98	0.11714667
240	0x3c8e97b6	0.017406326
241	0x3bd67506	0.006544712
242	0x3dbd64dd	0.09247754
243	0xbc76a9e0	-0.01505515
244	0xbc76330e	-0.015026821
245	0x3d2599af	0.040429767
246	0xbd94733f	-0.07248544
247	0x3d9203f0	0.07129657
248	0xbd3fc18b	-0.046815436
249	0xbd223aa4	-0.039606705
250	0x38eb1c02	0.0001121089
251	0x3cf4dcef	0.029890506
252	0x3e102a33	0.14078598
253	0xbc7de6c8	-0.015496917
254	0x3cdff7c4	0.027339824
255	0x3dbc2867	0.09187394

lstm.weight_ih_l1 f4 [256, 64]
0	0xbdd305fd	-0.103038765
1	0xbe4c8f67	-0.19976579
2	0xbc8a1413	-0.016855275
3	0xbe2e1b96	-0.1700271
4	0xbda61cd2	-0.08110966
5	0x3df8f46e	0.12155996
6	0x3c8a72f6	0.01690052
7	0x3d6d3df3	0.057920408
8	0x3d3a45c7	0.0454767
9	0xbd73496f	-0.059396204
10	0x3d255434	0.040363505
11	0xbde77c40	-0.11302996
12	0x3dcff5cf	0.10154306
13	0xbd331ef2	-0.043730684
14	0xbda73eb3	-0.08166256
15	0xbe056a94	-0.13028938
16	0xbd469dc7	-0.048490312
17	0xbd8735ed	-0.066020824
18	0x3dd26935	0.10273973
19	0xbcaadc73	-0.020857072
20	0xbd627d33	-0.05529518
21	0x3e03aeca	0.12859645
22	0x3c207f6c	0.009796005
23	0xbe361fdd	-0.17785592
24	0xbd551a24	-0.052026883
25	0xbcb4303d	-0.021995658
26	0xbe754373	-0.23951511
27	0x3d66387e	0.05620622
28	0xbc93a83c	-0.018024556
29	0xbd0f78dd	-0.035027374
30	0xbe0be9e6	-0.13663444
31	0xbe240cdf	-0.16020535
32	0xbd16265b	-0.036657672
33	0xbdcd6f32	-0.100309744
34	0x3ca9f4d2	0.020746622
35	0xbd1005e2	-0.03516186
36	0xbde8765b	-0.113506995
37	0xbd298404	-0.041385666
38	0xbd840675	-0.06446544
39	0x3da2c493	0.0794765
40	0x3ab439d8	0.0013750149
41	0x3d4a7277	0.04942557
42	0xbdc6d67c	-0.097088784
43	0x3d1ca540	0.038243532
44	0xbe17b98e	-0.14816877
45	0xbd15f46e	-0.03661006
46	0xbd231926	-0.039818905
47	0xbe23e548	-0.16005433
48	0xbd1ec50b	-0.038762134
49	0x3d91bf8d	0.071166135
50	0xbdc38c18	-0.09548205
51	0xbd954ca3	-0.07290008
52	0x3daf40fe	0.08557318
53	0x3dea79b2	0.11448993
54	0x3d180fde	0.037124507
55	0x3dce4c1b	0.1007311
56	0x3d508417	0.05090722
57	0x3c8e0d8e	0.017340448
58	0xbd16e75b	-0.03684173
59	0x3d6a3f8c	0.05718951
60	0xbdd77d47	-0.10521942
61	0x3d99d6de	0.07511686
62	0x3d9528ad	0.07283149
63	0x3e255663	0.16146235
64	0xbdad6726	-0.0846694
65	0x3b414c2f	0.0029494872
66	0x3d5c05d8	0.05371651
67	0x3d6681e2	0.05627621
68	0xbceb5ad5	-0.028729836
69	0x3dcdac50	0.100426316
70	0x3dd08f73	0.10183611
71	0x3ba074a1	0.0048967157
72	0x3c4584af	0.01205556
73	0x3e279f91	0.16369464
74	0x3dabbcae	0.08385597
75	0x3bb431c5	0.005499097
76	0xbdcc2316	-0.099676296
77	0xbd87a097	-0.06622427
78	0xbc9c08bb	-0.019047132
79	0xbd240f26	-0.04005351
80	0x3d947a94	0.072499424
81	0x3dab4d02	0.083642974
82	0x3e1adfd4	0.15124446
83	0x3e01e73f	0.1268587
84	0xbe2b579c	-0.16732639
85	0x3e3923d5	0.18080075
86	0x3d6976d8	0.056998104
87	0x3d2a35a7	0.041555073
88	0x3d13dcbc	0.03609918
89	0x3d52698a	0.05137018
90	0xbb920cdc	-0.0044570994
91	0x3df911f1	0.12161625
92	0x3e08e3f1	0.13368203
93	0x3e4824cf	0.19545291
94	0x3dc330ee	0.09530817
95	0xbd49ab3b	-0.049235564
96	0xbe09a84c	-0.13443106
97	0xbcdec0e6	-0.02719159
98	0xbbe5163d	-0.0069911764
99	0x3d467c3c	0.048458323
100	0x3d29db33	0.04146881
101	0x3e0f5ee0	0.14001036
102	0xbdab6aa3	-0.08369949
103	0xbe2b972d	-0.16756888
104	0xbdeb17bb	-0.114791356
105	0xbe2816c1	-0.1641493
106	0xbcc5e622	-0.024157587
107	0x3d8a0779	0.067397065
108	0x3c7f2ab6	0.015574148
109	0xbcf09fb0	-0.02937302
110	0xbdb19f84	-0.08673003
111	0xbe289372	-0.16462496
112	0xbbf75939	-0.007548478
113	0x3e85af57	0.26110336
114	0xbdd07dd5	-0.101802506
115	0x3c9dac63	0.01924724
116	0xbc51bedc	-0.012801852
117	0xbac2c574	-0.0014859871
118	0x3e1450c9	0.14483942
119	0xbd83654b	-0.064158045
120	0x3d930693	0.07178988
121	0xbcaa2ce6	-0.020773362
122	0xbc90ddaf	-0.017683832
123	0xbe19926d	-0.14997263
124	0x3dc44b51	0.09584678
125	0xbd1ea498	-0.038731188
126	0xbc915d19	-0.017744588
127	0x3d54818d	0.05188136
128	0xbde6af4d	-0.11263905
129	0x3dba4f08	0.09097105
130	0x3e3dbb32	0.1852844
131	0xbce2f50a	-0.027704734
132	0x3d11651f	0.035496827
133	0xbd120e74	-0.035658315
134	0x3db443ae	0.088019714
135	0xbe060bda	-0.13090459
136	0xbd8eb2f6	-0.06967728
137	0xbd2849a2	-0.041085847
138	0xbd3ba9ae	-0.045816116
139	0xbdb55e6c	-0.088559
140	0x3d568e99	0.052382085
141	0x3da69934	0.0813469
142	0xbcb2f607	-0.02184583
143	0x3b0fe57a	0.0021956847
144	0x3d72dbf2	0.059291787
145	0xbc81420c	-0.015778564
146	0xbe25f870	-0.16208053
147	0xbe24b820	-0.16085863
148	0xbca84e18	-0.02054505
149	0xbdd7fb04	-0.10545924
150	0x3dee9eaf	0.1165136
151	0xbd050931	-0.03247947
152	0xbc40fca3	-0.011778983
153	0xbdea0b48	-0.11427933
154	0xbde185f3	-0.11011877
155	0xbd1f3064	-0.03886451
156	0xbdceffc7	-0.101073794
157	0xbb305e67	-0.0026911737
158	0xbe165354	-0.14680225
159	0x3d119470	0.03554195
160	0x3da97138	0.08273548
161	0x3ce29100	0.027657032
162	0x3c153732	0.009107398
163	0x3caa971d	0.02082401
164	0xbd8ee9d5	-0.06978194
165	0x3dba6c59	0.09102697
166	0xbcd47328	-0.025933817
167	0x3ddcae4e	0.107754335
168	0xbe4aeec0	-0.19817638
169	0xbd780031	-0.060547058
170	0xbdc4869e	-0.09595989
171	0xbc0eb0bd	-0.00870913
172	0x3d862da9	0.06551678
173	0xbe15664e	-0.14589807
174	0xbd1352d5	-0.035967667
175	0xbb4782d0	-0.003044296
176	0xbdd55beb	-0.104179226
177	0x3d372ca0	0.044720292
178	0x3d104786	0.03522446
179	0xbd79007e	-0.060791485
180	0xbd49f9e5	-0.049310584
181	0xbe867ae7	-0.26265642
182	0xbb9e4e44	-0.0048311073
183	0x3cb758f7	0.022381289
184	0xbde6b733	-0.11265411
185	0x3d6ff110	0.058579504
186	0xbd98c46a	-0.07459338
187	0xbd559afa	-0.05214975
188	0xbc93bca7	-0.018034292
189	0x3e1a8e9c	0.15093464
190	0xbbbc3247	-0.005743298
191	0x3d21f69b	0.039541822
192	0xbab9985d	-0.0014159788
193	0xbdb9600d	-0.09051523
194	0x3d6ee286	0.0583215
195	0xbe1a80f8	-0.1508826
196	0x3df72c8e	0.12069045
197	0x3df2e3d9	0.11859865
198	0x3dc9e124	0.09857395
199	0xbe0a8fd1	-0.13531424
200	0xbb5901d5	-0.0033112664
201	0xbdd5b46b	-0.104348026
202	0x3d81b371	0.06333054
203	0x3b5936ab	0.0033144157
204	0x3e316680	0.17324257
205	0xbdbbac7e	-0.0916376
206	0x3df4c92e	0.119524345
207	0xbd2fb4d0	-0.042897046
208	0xbe3d0d38	-0.18462074
209	0xbdbb7305	-0.091527976
210	0x3eb2ab37	0.34896252
211	0x3d291220	0.04127705
212	0xbb06261d	-0.0020469495
213	0xbcdf2da3	-0.027243441
214	0x3d51d51e	0.051228635
215	0x3d994013	0.07482924
216	0x3d3f4abd	0.046702135
217	0xbd00117e	-0.03126668
218	0xbd3f9e57	-0.046781864
219	0xbe18deed	-0.1492879
220	0x3e181caa	0.14854684
221	0x3ce77c51	0.02825752
222	0xbe1cc018	-0.15307653
223	0xbcf437c5	-0.02981175
224	0x3d1695c4	0.03676392
225	0xbe336ca6	-0.17521915
226	0xbd3dc4e3	-0.046330344
227	0x3e0bfe10	0.13671136
228	0x3dae8bc4	0.08522752
229	0x3d093278	0.033495396
230	0x3d6dc312	0.05804736
231	0x3d8055f3	0.062663935
232	0xbc670d47	-0.014102287
233	0x3e020a66	0.12699279
234	0xbd86f32e	-0.065893516
235	0xbd65be19	-0.056089494
236	0xbd38e039	-0.04513571
237	0x3d2ffbf2	0.042964883
238	0x3cf8293b	0.030293098
239	0xbda6054f	-0.08106481
240	0x3dc18ae3	0.09450319
241	0xbdb3356c	-0.08750424
242	0x3e04560e	0.12923452
243	0x3ca5f136	0.02025662
244	0x3e08de5c	0.13366073
245	0xbd8d5b70	-0.06902206
246	0x3d4f6afb	0.050639134
247	0x3dbf68c9	0.09346158
248	0xbcee3489	-0.029077785
249	0xbe12adf2	-0.14324167
250	0xbbef3259	-0.007299703
251	0x3a9c6f3c	0.0011935006
252	0xbc4ab5cb	-0.012372444
253	0x3d968c94	0.07351032
254	0x3e376ae0	0.17911863
255	0x3db8f972	0.09031953

lstm.weight_hh_l1 f4 [256, 64]
0	0xbd2abf0a	-0.041686095
1	0xbd274656	-0.040838562
2	0x3dbb65b7	0.0915026
3	0xbcb05452	-0.021524582
4	0x3db19da8	0.08672649
5	0xbe8cc121	-0.27491096
6	0x3d9dcdcb	0.077052675
7	0xbc9088dc	-0.017643385
8	0x3deef011	0.11666883
9	0x3dd39228	0.103306115
10	0x3cfa88ed	0.03058287
11	0x3de3f2a1	0.11130262
12	0xbd9b4d0f	-0.07583057
13	0xbe3c9d39	-0.1841935
14	0xbd80a552	-0.06281532
15	0xbe2f43ed	-0.17115755
16	0xbd79dbc8	-0.061000615
17	0xbc8dd9ef	-0.017315833
18	0xbc884c6b	-0.016638001
19	0xbdba1b1c	-0.09087202
20	0x3d0b92fb	0.03407572
21	0x3d592610	0.053014815
22	0x3dd2fcf2	0.10302152
23	0x3cdf31e6	0.027245473
24	0x3e470234	0.19434434
25	0xbdcc245a	-0.09967871
26	0xbd145802	-0.036216743
27	0x3dc8d28a	0.09805782
28	0xbe18a2a2	-0.1490579
29	0x3d6b2111	0.05740458
30	0x3da8c338	0.0824036
31	0x3dc29e95	0.09502903
32	0x3c5a36c4	0.013318721
33	0x3d2ab846	0.041679643
34	0x3c25ed44	0.010127369
35	0x3d831ecf	0.06402361
36	0x3d7ad9aa	0.061242737
37	0x3d52834d	0.05139475
38	0x3dc210d6	0.094758675
39	0xbd15a444	-0.03653361
40	0xbb71434e	-0.0036813798
41	0x3e27f6ef	0.16402791
42	0xbccbe6c3	-0.02489031
43	0x3d1d316e	0.038377218
44	0x3d2edd4c	0.042691514
45	0x3c70ede4	0.014705155
46	0x3e03331e	0.12812468
47	0xbe03b277	-0.12861048
48	0xbdb3e491	-0.0878383
49	0x3e219c46	0.1578227
50	0x3e0a14bf	0.13484477
51	0x3dd79a70	0.105275035
52	0xbe31804d	-0.17334099
53	0xbcae9596	-0.021311563
54	0x3c83eb7a	0.016103495
55	0xbdb8c4fe	-0.09021948
56	0xbe3245b7	-0.17409407
57	0xbdc0423d	-0.09387634
58	0x3ca90bf9	0.020635592
59	0xbde7a672	-0.11311044
60	0xbd942e9d	-0.07235453
61	0xbd5e8e42	-0.054334886
62	0x3ddec606	0.10877614
63	0x3e5c4057	0.21508919
64	0x3ce1d405	0.02756692
65	0x3d2b380c	0.041801497
66	0x3e10f2d4	0.14155132
67	0xbda023f0	-0.078193545
68	0x3bd9c850	0.0066461936
69	0xbda8732d	-0.08225093
70	0xbdf03d60	-0.11730456
71	0x3ce8a34a	0.028398175
72	0xbd4fab5c	-0.05070053
73	0xbe45a94f	-0.19302867
74	0x3dd9aa86	0.10628228
75	0xbe302a21	-0.17203571
76	0x3d8c06c7	0.0683723
77	0xbd049a10	-0.032373488
78	0xbe76a712	-0.2408717
79	0xbdcc98af	-0.099900596
80	0x3e124ed2	0.1428788
81	0x3c97c9cf	0.018528847
82	0x3d98e29f	0.074650995
83	0xbdf56e4b	-0.11983927
84	0xbe23db64	-0.1600166
85	0x3d5b7a7b	0.053583603
86	0xbc478784	-0.012178306
87	0x3bb48b0a	0.005509739
88	0xbdc94ff5	-0.09829704
89	0x3cd1afcb	0.02559652
90	0x3da4a175	0.08038608
91	0xbde40ee4	-0.11135653
92	0x3c2be1fe	0.010490892
93	0xbc5bf155	-0.013424237
94	0xbda5b6b2	-0.08091487
95	0xbc475da6	-0.012168324
96	0x3d0248fc	0.031807885
97	0x3d9d9eef	0.0769633
98	0xbe1116c8	-0.14168847
99	0xbd555b3e	-0.05208897
100	0xbd1551a3	-0.036454808
101	0xbd8d4842	-0.06898548
102	0xbd823213	-0.06357207
103	0xbe4e4ef1	-0.20147301
104	0xbdda2bbb	-0.10652872
105	0xbe573867	-0.2101761
106	0x3d1def21	0.03855813
107	0xbe61b2aa	-0.22040811
108	0xbd4ec434	-0.050480083
109	0xbdde4116	-0.10852258
110	0xbd66327b	-0.056200486
111	0x3d325818	0.043541044
112	0xbe680c67	-0.22660981
113	0xbda8317f	-0.08212566
114	0x3dd5ce45	0.104397334
115	0xbd9470c2	-0.07248069
116	0x3e0f6d50	0.14006543
117	0x3a1977b0	0.00058543216
118	0x3de8cc01	0.11367036
119	0x3da4acdf	0.08040785
120	0x3deb5727	0.11491232
121	0x3aae0ecf	0.001327956
122	0xbc0e5b91	-0.008688823
123	0x3d96e412	0.0736772
124	0xbd74c627	-0.059759285
125	0x3d92d999	0.0717041
126	0xbca49bed	-0.020093882
127	0xbe30cf77	-0.17266642
128	0x3dd686c1	0.10474921
129	0x3d2dbb38	0.042414874
130	0x3cacc7f5	0.02109144
131	0x3cad7c56	0.021177452
132	0x3d354466	0.044254683
133	0xbe405a50	-0.18784451
134	0xbbf1ed36	-0.007383014
135	0x3d077e24	0.03307928
136	0x3d387615	0.045034487
137	0xbdbe92ac	-0.09305319
138	0x3d36e334	0.04465027
139	0xbda159fd	-0.07878492
140	0x3b08a521	0.0020850378
141	0x3cbb073e	0.022830602
142	0xbb94fcb3	-0.0045467257
143	0x3d9237d6	0.07139556
144	0x3dec9b21	0.11553026
145	0x3d1f6c93	0.038921904
146	0x3d81535d	0.063147284
147	0x3de24459	0.110481925
148	0x3c862899	0.01637678
149	0xbd2cf89e	-0.042229287
150	0x3db73f2f	0.08947598
151	0x3d408b85	0.047008056
152	0xbd358331	-0.044314567
153	0x3dd3ace6	0.10335712
154	0x3e5950dc	0.21222252
155	0xbcd19576	-0.025583964
156	0xbdadb8dd	-0.084825255
157	0xbdbdad0e	-0.09261523
158	0x3d9b4bf3	0.075828455
159	0xbd699430	-0.05702609
160	0x3dabe50d	0.08393297
161	0xbe154de5	-0.14580496
162	0xbd8af0bd	-0.067841984
163	0x3e7ae279	0.24500455
164	0x3dbc3da6	0.09191446
165	0xbd3f6f22	-0.046736844
166	0x3dd79c86	0.10527901
167	0xbe429d9f	-0.1900544
168	0x3de61f38	0.11236423
169	0xbe42915c	-0.19000763
170	0x3de79736	0.11308138
171	0xbce86f6a	-0.028373439
172	0x3e46f23b	0.19428341
173	0xbd8d55d8	-0.06901139
174	0x3d25538d	0.040362883
175	0x3daa4eb1	0.083157904
176	0xbcdd259f	-0.026995478
177	0xbdaecaca	-0.08534773
178	0x3d9aaaa8	0.07552081
179	0xbd22e4b1	-0.03976888
180	0x3d61a67f	0.055090424
181	0xb9c19788	-0.00036924728
182	0x3bfc36df	0.007696971
183	0xbd605727	-0.054770615
184	0xbdb3543a	-0.08756299
185	0x3d485c18	0.048915952
186	0x3d77c72c	0.06049268
187	0xbdbe9bec	-0.093070835
188	0xbddeb28c	-0.10873899
189	0xbdaf84a9	-0.08570225
190	0xbcc3a77e	-0.023883577
191	0xbba03787	-0.004889432
192	0xbd811e6e	-0.06304632
193	0xbe400e2d	-0.18755408
194	0x3d6bf8e6	0.057610415
195	0xbd329578	-0.043599576
196	0xbdf12a25	-0.117756166
197	0xbd08b2c6	-0.033373617
198	0xbd42f837	-0.047599997
199	0xbdb0fca8	-0.0864194
200	0x3e50bb63	0.20383982
201	0xbc28d6d7	-0.010305128
202	0x3e1a3d9a	0.15062562
203	0x3dac5b9b	0.0841591
204	0xbd64af12	-0.055831023
205	0xbe4ba99b	-0.19888918
206	0x3e2ac14c	0.166753
207	0xbe34d826	-0.17660579
208	0x3ddc5faf	0.10760438
209	0xbdadd6dd	-0.084882475
210	0xbce2a2ad	-0.02766546
211	0x3d907374	0.07053271
212	0x3dfa6117	0.1222555
213	0x3d809996	0.06279294
214	0x3e40929c	0.18805927
215	0xbdbd52be	-0.092442974
216	0x3d74bfc4	0.059753194
217	0x3e0ca5a5	0.13735063
218	0x3e4bdfe7	0.1990963
219	0xbd437959	-0.047723148
220	0xbdc257ba	-0.09489389
221	0xbd5f3594	-0.054494455
222	0xbbba12d0	-0.005678512
223	0x3df618d3	0.120164536
224	0x3ad5c1d2	0.0016308373
225	0x3e00ac54	0.12565738
226	0xbd901c56	-0.07036655
227	0x3e1f8aaa	0.1558024
228	0x3e0a26fd	0.13491435
229	0x3e7ed1cd	0.2488472
230	0x3e5c22c4	0.21497637
231	0xbdd30f01	-0.10305596
232	0x3d0893e6	0.033344172
233	0xbdac2ea3	-0.08407333
234	0xbd39dd41	-0.04537702
235	0xbade30d0	-0.0016951803
236	0x3e061511	0.13093974
237	0x3ce45e8f	0.02787712
238	0x3e539797	0.20663296
239	0xbe1c7d9e	-0.15282294
240	0xbd8d4ddd	-0.06899617
241	0xbca3dfd6	-0.020004194
242	0x3d874a3b	0.06605955
243	0x3d1e8983	0.03870536
244	0xbe3951a3	-0.18097548
245	0x3d6bf30b	0.05760483
246	0xbd11bf89	-0.035583053
247	0xbc7374dd	-0.014859405
248	0xbe62020f	-0.22071098
249	0xbc079592	-0.008275406
250	0x3d186af0	0.03721136
251	0xbe300978	-0.17191112
252	0xbe5bf7bd	-0.21481223
253	0xbcf02c27	-0.029317928
254	0x3c88d778	0.016704306
255	0x3d80fbe7	0.062980466

lstm.bias_ih_l1 f4 [256]
0	0x3d8526ec	0.065015644
1	0xbd903057	-0.0704047
2	0xbd87f766	-0.066389844
3	0xbd81e474	-0.06342402
4	0xbc559c70	-0.013037786
5	0xbd5fbd58	-0.05462393
6	0xbca6f610	-0.020381004
7	0x3e20f175	0.15717109
8	0xbd4bd04d	-0.049759198
9	0xbe3ec438	-0.18629539
10	0xbdd980f6	-0.106203005
11	0xbdd6fd49	-0.10497529
12	0x3d8de4cd	0.06928406
13	0xbdabe063	-0.08392408
14	0xbde2db36	-0.110769674
15	0xbd9b00cf	-0.075685136
16	0x3d354561	0.044255618
17	0x3cefdc0f	0.029279737
18	0x3d6476dd	0.05577742
19	0xbddc076d	-0.10743604
20	0x3d8e7c8d	0.0695735
21	0xbdb2b008	-0.087249815
22	0x3ced998b	0.029003879
23	0xbc539c5a	-0.012915695
24	0x3dce6d17	0.10079401
25	0x3d06f0c5	0.03294446
26	0xbb9eb688	-0.0048435368
27	0x3cd690ce	0.026192095
28	0x3e03a6ef	0.12856649
29	0xbc69b9f9	-0.014265531
30	0x3deb1c07	0.11479955
31	0x3e1a683d	0.15078826
32	0xbe2a36cc	-0.16622466
33	0xbe3e5dab	-0.18590419
34	0xbe04efe4	-0.12982136
35	0xbd8f9197	-0.07010191
36	0xbd78ff8a	-0.060790576
37	0xbdbfc70f	-0.09364139
38	0xbdac4552	-0.08411659
39	0x3d9c15f1	0.076213725
40	0xbc8af91d	-0.01696449
41	0xbda07589	-0.07834918
42	0x3db69164	0.0891445
43	0x3da227ac	0.07917723
44	0xbde03912	-0.10948385
45	0xbd903328	-0.07041007
46	0xbdbe5bc8	-0.0929485
47	0xbcaca923	-0.021076744
48	0x3dc40cf8	0.09572786
49	0xbdebb183	-0.11508467
50	0xbad217be	-0.0016028804
51	0x3d0ef0a3	0.034897458
52	0xbd92f304	-0.07175258
53	0xba73d232	-0.0009301036
54	0x38730793	5.794277e-05
55	0xbcf63f34	-0.030059434
56	0xbd900758	-0.07032651
57	0xbe0245ba	-0.12721911
58	0xbd148dc6	-0.03626802
59	0x3cde2c21	0.027120652
60	0x3de95dfb	0.113948785
61	0xbd871d1e	-0.065973505
62	0x3d2ff935	0.04296227
63	0x3da9a878	0.08284086
64	0xbd10d781	-0.03536177
65	0xbd48bf20	-0.049010396
66	0xbdda188e	-0.10649215
67	0xbe13da39	-0.14438714
68	0xbc0ac00a	-0.008468637
69	0xbdadeb4a	-0.084921435
70	0xbdd4fd73	-0.10399904
71	0x3dace4dc	0.08442089
72	0x3e090675	0.1338137
73	0x3d847290	0.064671636
74	0x3d378deb	0.044813078
75	0xbba259cc	-0.0049545523
76	0xbbfe0a66	-0.0077527044
77	0x3cfaa0a9	0.030594187
78	0xbd3baeac	-0.045820877
79	0x3e167c6a	0.14695898
80	0xbd01ed86	-0.03172066
81	0xbce68c84	-0.028143175
82	0x3decf584	0.11570266
83	0x3d947f08	0.07250792
84	0xbd40193c	-0.046899065
85	0x3d68990a	0.056786574
86	0x3c5a47b9	0.013322764
87	0x3cbbc67a	0.02292179
88	0x3cd65955	0.026165644
89	0xbb31f371	-0.002715316
90	0xbced6228	-0.028977469
91	0xbcde9ba9	-0.027173834
92	0x3da3b34d	0.07993183
93	0xbd63f1a0	-0.055650353
94	0x3db3237b	0.08747002
95	0xbd9a00d5	-0.0751969
96	0x3d958309	0.073003836
97	0xbdebe732	-0.115187064
98	0x3d46cf73	0.048537683
99	0xbd8085ff	-0.06275558
100	0xbdf5489e	-0.11976741
101	0x3e4ebda1	0.20189525
102	0x3cd600c7	0.026123418
103	0x3e020ad5	0.12699445
104	0xbd309f8f	-0.043120917
105	0x3d72c517	0.05926999
106	0xbd967531	-0.07346571
107	0x3c3cda22	0.011526616
108	0x3d6c3f6a	0.057677664
109	0xbdf8631e	-0.1212828
110	0x3dc98271	0.09839333
111	0xbd1ff887	-0.039055374
112	0x3e053592	0.13008717
113	0x3da20d13	0.0791265
114	0x3ccfa4eb	0.025347194
115	0x3decd5f5	0.115642466
116	0xbd2f6d9b	-0.042829137
117	0xbc116eab	-0.008876483
118	0x3d165e3e	0.03671097
119	0xbe1dd98a	-0.15415016
120	0xbdb90003	-0.09033205
121	0x3d02d0d7	0.031937446
122	0xbcdb4f02	-0.026771072
123	0xbb10e7ed	-0.0022110895
124	0x3d5bfb54	0.053706482
125	0x3d19dddb	0.037565093
126	0xbcbf82f5	-0.023377875
127	0x3dc474f1	0.09592617
128	0xbdc489c1	-0.09596587
129	0xbd8462d4	-0.064641625
130	0xbd6a53ee	-0.057208948
131	0x3ba17039	0.004926708
132	0xbc330718	-0.010926984
133	0x3db112ad	0.0864614
134	0x3e11ca16	0.14237246
135	0x3d1181cf	0.035524186
136	0x3db90e70	0.09035957
137	0xbd7032ad	-0.05864208
138	0x3d76fd42	0.06030012
139	0x3d932319	0.07184429
140	0xbdfdb69d	-0.12388346
141	0xbdd00c0e	-0.10158549
142	0xbd6f555c	-0.058431014
143	0x3d8e2733	0.069410704
144	0x3c2e636f	0.010643824
145	0xbdccb462	-0.09995343
146	0x3df491cd	0.11941872
147	0x3d858644	0.0651975
148	0xbd7244ca	-0.059147634
149	0xbd1dbe19	-0.03851137
150	0xbd5e5c56	-0.054287277
151	0x3d26fe6a	0.040769972
152	0x3d64f761	0.05589998
153	0x3d25e083	0.040497314
154	0x3d9e6efd	0.07736013
155	0xbc50c3c3	-0.012741986
156	0xbdee49d5	-0.11635176
157	0xbcd29628	-0.025706366
158	0xbe1d775d	-0.15377565
159	0xbde761a7	-0.112979226
160	0x3db4db63	0.08830907
161	0x3d1f09a6	0.03882756
162	0x3e060d74	0.1309107
163	0x3d7fd2ff	0.06245708
164	0x3e072e8f	0.13201354
165	0xbd9eedf7	-0.07760232
166	0x3d0d5ee5	0.034514327
167	0x3d7d778a	0.06188158
168	0xbd8f69b6	-0.07002585
169	0x3dddf412	0.10837568
170	0xbe19bc2f	-0.15013193
171	0x3d2b4dc8	0.041822225
172	0xbca186dc	-0.019717626
173	0x3dac2343	0.08405163
174	0x3da45646	0.08024268
175	0x3d9a2d0b	0.075281225
176	0x3d35dc21	0.044399384
177	0x3de03883	0.10948279
178	0xbdc73ab8	-0.097279966
179	0x3d79cc2d	0.060985733
180	0xbde559f3	-0.11198797
181	0xbe0d3300	-0.13788986
182	0xbcf8364c	-0.030299328
183	0xbdd6474d	-0.10462818
184	0xbd6272f8	-0.055285424
185	0xbdef66b0	-0.11689508
186	0x3def1c5a	0.116753295
187	0xbd99f3f1	-0.07517231
188	0x3dc7deb5	0.09759275
189	0xbda89b6e	-0.08232771
190	0xbd497b32	-0.049189754
191	0x3c16904a	0.009189675
192	0x3ca3d7bd	0.020000333
193	0xbdd9853d	-0.10621116
194	0x3bc36963	0.005963491
195	0xbe17663f	-0.14785098
196	0xbd11f944	-0.03563811
197	0x3d714d7a	0.058911778
198	0x3de73346	0.112890765
199	0x3e523012	0.2052615
200	0xbd8281d6	-0.063724205
201	0x3d77a043	0.06045557
202	0x3d296366	0.04135456
203	0xbc84a494	-0.016191758
204	0x3d50fbf0	0.051021516
205	0x3da08cd4	0.07839361
206	0x3d2972e2	0.041369326
207	0x3c866743	0.01640666
208	0x3d95d9f0	0.07316959
209	0x3da72550	0.08161414
210	0x3c9a483a	0.018833268
211	0xbd9167b3	-0.07099857
212	0x3dd71e3c	0.105038136
213	0xbcf9c3cf	-0.030488877
214	0x3d5f8d46	0.05457809
215	0xbc0e54e0	-0.008687228
216	0xbb36a89d	-0.0027871497
217	0x3d464fa2	0.048415788
218	0x3da5f596	0.081034824
219	0x3d38a98c	0.045083568
220	0xbd8cf1e6	-0.06882076
221	0xbc7a505b	-0.015277947
222	0xbdc71ab0	-0.09721887
223	0xbd167479	-0.03673217
224	0x3d3c1153	0.04591496
225	0x3cd79ac2	0.026318911
226	0x3e010798	0.12600553
227	0x3da4d53c	0.08048484
228	0x3cf53842	0.029934052
229	0x3e20e8e7	0.15713845
230	0x3dc4312b	0.095796905
231	0x3d78255f	0.060582515
232	0x3db6c42b	0.08924135
233	0xbd9ca8f4	-0.07649413
234	0xbd5f8396	-0.05456885
235	0x3cd065f2	0.025439236
236	0xbb84df4a	-0.0040549384
237	0xbdb590ba	-0.08865495
238	0x3de8742f	0.11350285
239	0xbcdd1cf1	-0.02699134
240	0x3e2c2cfe	0.16814038
241	0xbcae226e	-0.021256652
242	0xbdc88387	-0.09790712
243	0xbd4010e9	-0.046891127
244	0x3d85dbf1	0.06536091
245	0xbd3ae34c	-0.045626923
246	0xbdb0bff9	-0.08630366
247	0x3d1c3cef	0.03814405
248	0x3d90827f	0.0705614
249	0xbd1e3052	-0.0386203
250	0x3e324101	0.1740761
251	0x3e1754eb	0.14778487
252	0x3d0696ac	0.032858536
253	0xbd3000cf	-0.04296952
254	0xbe0df1e9	-0.13861813
255	0xbc0b5826	-0.008504903
