src/util/AI/checkpoints/021.ckpt (torch, 353508 bytes, 14 tensors)

lstm.weight_ih_l0 f4 [256, 12]
00000000: aa01 41bd 9a35 a63d d154 20be a986 0e3d
00000010: bf8a c43d 592f a33d 636b 703d ca00 24bc
00000020: 12fb dabd 41fa 123d a1c6 ddbd 007a 54bd
00000030: 5cdf 2cbe 9a5c 54ba b503 8bbd 20ba d6bd
00000040: fb44 8cbd 7117 80bd 6032 013e f71e f03d
00000050: 9fe0 b63d 1229 163d 9a8f bdbd 2969 003d
00000060: cdb6 923d abe6 f03d b844 2e3d 3d55 013e
00000070: ab62 1b3d d06a 513e 3df2 503e 4f72 d0bd
00000080: 2b40 6b3c ebea 0abd d6f9 323d 6db0 b4bd
00000090: 5fd1 813c 151e 443d 3b71 8c3d 8998 55be
000000a0: 18d9 49be 0469 24bc 6466 3c3e b6a2 1d3b
000000b0: e2af 0fbe 7c97 58bd ae38 493e a016 993c
000000c0: 5c25 ea3c 21bf 9bbd 0021 92bd c98b 50bd
000000d0: 9095 413d f095 4dbc 0301 b23d 39bc 4b3e
000000e0: 7fdd d53c 3982 9dbd 2615 b7bd c375 c3bd
000000f0: 56c3 8a3c 4666 1d3d 99c3 1c3d 10e9 af3d
00000100: affc 943c 34b2 c0bd 3c97 793e c7cd 953e
00000110: e0e7 a4bc 5272 41bd 9237 81bb 4642 143d
00000120: 3d12 f33d f7a6 8a3c eefa 1bbe 5ae5 30be
00000130: d36b c63d d7b6 3c3c 5ca8 77bd ca20 ff3d
00000140: 4649 45bd f307 82bd c5f4 423c 2d6b 82b9
00000150: 8739 7bbd 482e 033e e221 513d 134d 253d
00000160: 4fd9 a43d 4aaf a03d 370b 12bc 0e91 043e
00000170: 05ba 5fbd facc e2bc 1778 3cbd cca8 5fbd
00000180: ff8d 50bc c115 99bb a018 efbd b446 533c
00000190: c442 29bc b842 6f3d 2287 583e 058b 8a3e
000001a0: 4f83 a93c b853 44bd 5186 bfbd 4dd9 22bc
000001b0: d553 8b3d 5b57 1fbd e006 d83d 940c 8e3d
000001c0: 8221 3bbd 04ae ef3b 3dc2 973d ae3c 1ebe
000001d0: 294b 4abe 60ae 6a3c 833d e1bc 4822 003e
000001e0: 2580 dd3c 67f5 a6bd ae8e e7bd 1fbf 51bd
000001f0: 1819 2a3e c4d3 4c3d 4505 ee3d cada fb3d
00000200: 40b5 073e 8dc0 8f3b 29d4 c03d 8e13 47bd
00000210: 7cfa 9f3d 5e78 693d e52c 453d 8e8a b7bd
00000220: 1bfe 5a3d 8dee a13c fe07 c6bd 6300 37be
00000230: ff57 62be c969 503d 2da5 2a3e 5b6a de3c
00000240: 2d97 143d 0a38 a53c 888c 07be 6bcc e6bd
00000250: bf63 043d af27 1c3e 248d 91bd eb5e 8abe
00000260: bbf5 b2bd 87f7 fd3c c8aa 08bd 6a47 d0bd
00000270: cbb6 953c 23de 613d 4390 8a3d 559e 97bd
00000280: e3ba 04be 3ff5 c9bd 9358 1d3e 1e72 e8bd
00000290: 4fab 21be 8282 a3bd 94a3 803c 616c 143d
000002a0: cc47 88bd e02e 1b3d 0277 b6bd 0e3a d53d
000002b0: df9d 77bd 075b 9abd 27c0 d23d 6d47 2d3d
000002c0: 28a5 d6bd 590c fa3b dfe3 72bc 535f 403d
000002d0: bcb1 78bd 3a1b 51bd 3ad2 153e 2564 873c
000002e0: 650c 073e dec6 6f3c 23c0 ecbd 88c8 f5bc
000002f0: d7d6 1dbd c0b2 b9bd 87f9 55bd 7231 053e
00000300: 9b74 8cbd a099 d13c 4c1f 753d 3303 2a3e
00000310: 89cc 973d a29b 703d 57c3 64bd 1f14 2bbe
00000320: 45c4 2cbd bdfe d5bc 5539 c1bd e5e6 1dbd
00000330: 1677 9abd c662 25bd 896e 23bd 7fd8 54be
00000340: f588 b03c a9db 3e3e 9ae2 dd3c e683 e4bd
00000350: 1cd5 a23d 2bd4 7bbb f190 0b3e 1f37 01be
00000360: b4b4 04be fd1f b2bb 6322 62bd bffd d63d
00000370: e97a 723d adcd 18be 95a8 6ebe 86d5 cb3d
00000380: f80d 3c3d d987 673d e5de 49be 8c01 c6bd
00000390: 79f7 5bbe f4b6 703c 7cb1 d2bd 7153 8e3d
000003a0: 83f6 003e a848 f93c 54f8 95bd d3e2 23bd
000003b0: 4928 8c3c e3af ad3d 6257 90bd ba83 2e3c
000003c0: 4ebd bebd bf0d 383e ebad dabd d496 c5bb
000003d0: 5dfe 17bd 0e79 a5bd 8fb4 34bd c53f fb3d
000003e0: d604 9abd 615f b4bd 1e2e 4c3d ad2c 8b3c
000003f0: 5e11 c7ba b091 893d dbb4 f4bd b1ed 253d
-0.047120728 0.081156924 -0.15657355 0.03479639 0.09596776 0.07968015 0.058696162 -0.010009954
-0.10692419 0.035883192 -0.10828901 -0.05187416 -0.1688208 -0.0008100957 -0.067878164 -0.10484719
-0.068490945 -0.06254471 0.12616873 0.11724656 0.08929562 0.03666026 -0.092559054 0.03135029
0.07163773 0.117627464 0.042546004 0.12630172 0.037935894 0.20450902 0.20404907 -0.10178053
0.014358561 -0.03391544 0.043695293 -0.08822713 0.015846906 0.04788025 0.068575345 -0.20858969
-0.19711721 -0.010034803 0.18398434 0.0024053282 -0.14031938 -0.05287884 0.19650528 0.018687546
0.028582267 -0.07604814 -0.071352005 -0.05091456 0.047261775 -0.012547955 0.08691599 0.1989602
0.026106594 -0.076908536 -0.089395806 -0.09543946 0.016938847 0.038427614 0.038272474 0.08589375
0.018186895 -0.094089895 0.24374098 0.29258558 -0.020130098 -0.047228165 -0.003943392 0.036196016
0.11868713 0.016925318 -0.15232441 -0.1727499 0.096885346 0.011518202 -0.060463294 0.12457426
-0.048165582 -0.063491724 0.011899178 -0.00024875384 -0.06133416 0.12810624 0.051057704 0.040356707
0.08049261 0.07845934 -0.008913807 0.12945959 -0.05462076 -0.027685631 -0.046012964 -0.054604337
-0.012729167 -0.0046717827 -0.11674619 0.012895275 -0.01033086 0.058413237 0.21145299 0.27059188
0.020692496 -0.047931403 -0.09351791 -0.009939504 0.06803099 -0.038901668 0.10548186 0.06935993
-0.045686252 0.0073144455 0.07410095 -0.15452835 -0.19755234 0.014323801 -0.027495151 0.12513077
0.027038643 -0.081522755 -0.11306511 -0.051207658 0.16611135 0.050006643 0.11622099 0.1229759
0.13252735 0.0043869675 0.09415466 -0.048602633 0.07811448 0.056999557 0.048138518 -0.08961974
0.05346499 0.01976707 -0.09669493 -0.17871241 -0.2210388 0.050882135 0.16664572 0.027150324
0.036276985 0.020168323 -0.13237202 -0.112694584 0.032321688 0.15249513 -0.071069986 -0.27025542
-0.087382756 0.03100182 -0.033365995 -0.10169871 0.018275639 0.055143487 0.06765797 -0.07403246
-0.12961917 -0.0986123 0.1536582 -0.11349891 -0.15788005 -0.07983877 0.015703 0.03623617
-0.06654319 0.0378865 -0.08909418 0.10411464 -0.060453292 -0.07536893 0.102905564 0.042304445
-0.1048072 0.0076308665 -0.0148248365 0.04696591 -0.060716376 -0.051051356 0.14630976 0.016527245
0.13188322 0.014634816 -0.11560085 -0.030002847 -0.038534965 -0.09067297 -0.05223992 0.13007143
-0.06858178 0.02558595 0.0598443 0.16602783 0.07412059 0.058742173 -0.055850353 -0.16706894
-0.042179365 -0.026122445 -0.09434763 -0.038550276 -0.07542245 -0.0403774 -0.039900336 -0.20785712
0.021549681 0.18638481 0.027085591 -0.1115797 0.07950804 -0.0038426023 0.1362951 -0.12618683
-0.12959558 -0.005435942 -0.055208575 0.10497617 0.059199248 -0.14922209 -0.23306496 0.09952836
0.04591176 0.05652604 -0.19713934 -0.09668264 -0.21481122 0.014692057 -0.10287759 0.06949509
0.12594037 0.030430153 -0.073227555 -0.04001124 0.017109053 0.08480813 -0.07047917 0.010651523
-0.09313451 0.17973994 -0.106777035 -0.006029943 -0.037107814 -0.0807973 -0.044117507 0.122680224
-0.07520454 -0.088072546 0.04984867 0.016989077 -0.0015187671 0.06717241 -0.11948558 0.040509883

lstm.weight_hh_l0 f4 [256, 64]
00000000: e802 333d 5b01 84bd f8b0 233e 708d a2bc
00000010: fd27 8a3d 890a 453e 473f b3bd 694b a6bc
00000020: 1633 ef3d 1c8b 383e 2536 a43d 5d96 e03c
00000030: b6b2 4b3e 80fe cabd 0f61 f23d db9e 593d
00000040: fe26 42bd b95a 7e3d cee6 943b 8b2e 123d
00000050: 2a63 0cbd 67cb b8bd 517e 413c 127d a0bc
00000060: bae5 293e a736 56bd 62df 0cbe c47c 86bb
00000070: 870d a63d 4da4 963d 9251 f9bd 563d 8ebd
00000080: 98a9 8cbd a0d7 973b dd3d 8b3d 23a5 e5bd
00000090: cff9 bdba 0f68 0e3d 5f35 92bd bb7e 943d
000000a0: d4db 7dbd 04f7 4abd a7e8 a63c 8635 eebd
000000b0: b65d 8dbd 519e 36be 5220 dabd 852e 20be
000000c0: 2905 ae3d b2f5 913d 94e6 c63d b59c 693d
000000d0: 097e 45be 2848 dabb 0145 5e3e fe05 b5bd
000000e0: a4f3 1a3d c59f f33d e6bb 09be 2e7d 91bd
000000f0: 5257 79bd 10b4 1e3e 9412 c63c 8f17 dd3d
00000100: 1a03 4a3d 3885 acbd ccc3 853e e135 c33d
00000110: ee49 853d f0ea bdbd 4e0d 3fbd b177 73bd
00000120: 7acb 88bd 5597 20be 1a93 dd3d fd9e b23c
00000130: a873 3c3c f663 bcbd a2ea 30be 4679 a33d
00000140: cb96 033e 26bd 4bbe 45a9 4b3e d9ae 923d
00000150: 2dd8 523e 9020 f3bd fea5 47be c0c0 2c3d
00000160: 6f0b 983d cc6f 21be 88ec 5c3d 817c 213e
00000170: bb8b 8cbd 1d10 73be ab2e 24bd 9552 2b3e
00000180: 6fc0 11be 6009 bdbd 5d6d c23c 3410 743d
00000190: 690a 6c3d ff1d 88bd ccf0 f5bd 88de bf3d
000001a0: d332 d93c 1334 2fbe 7c6a 84bd 12f6 32be
000001b0: 0025 9abd cb79 14be a564 10be 3020 47bd
000001c0: 7bad adbc 68fa 24bc fdf8 903d 5bca 12bb
000001d0: e13d 36be 5e50 c53d 3082 ffbc c4e8 6c3e
000001e0: e0f3 8fbd 7b20 ea3d 22c7 2dbe 88c9 cb3d
000001f0: a0aa fa3c 2946 89bd be5b a03d 2d6b dfbd
00000200: 093e 123e a9a4 55be cace 8cbd 0bac 893d
00000210: 8eef 70bd 21c8 693d ffe9 e7bc 4c87 cb3d
00000220: 0a77 963d 2ed0 c5bd 44cd 2b3d 82a3 873d
00000230: 7cdf 2c3e eaf0 0bbd 9622 73bd 6e0d ab3d
00000240: 6acb 08be 02ed f5bc 6a47 543e 4072 ec3b
00000250: b706 d7bd 67ee fd3c 4904 1fbb 7279 483d
00000260: 081e 02bd d014 1cbe 13ca e5bd 2ecb b1bd
00000270: a876 8f3a 4059 603d f367 36be 9eb5 fabd
00000280: 58e1 803c 402b fd3c 11a7 023e 3094 0cbd
00000290: 5d5c 473d 8dc8 df3d 47b7 c6bc 98a0 223e
000002a0: 84f7 353e d2cd 403d 7ee4 483d 3bca 80bc
000002b0: 3e8d b83c 6aad ea3d fcbc 1ebe 377b 2a3e
000002c0: 1f7e 8fbd 2d44 f73b cb0f 703b 6d43 29be
000002d0: ebba 6dbb 9edc 4bbe 4a10 b0bb e962 20be
000002e0: 80b1 06be 0cbf e13c a686 c33d f508 093d
000002f0: 2ca4 bebd b2a5 8b3c 175a e7bd 9676 6a3e
00000300: 397e 863e ef56 8abe 803f 023e 1165 83be
00000310: 6996 bfbb 4f8c 6fbe cdd4 0cbe f3b4 a6bd
00000320: 88c1 243e 5912 3dbe d2b3 9b3d 0808 8fbb
00000330: 86ef 49bc 3c94 e5bc c558 83bb 65f3 213e
00000340: 7e4e 7e3d 66fb a9ba 341d 38be 1c8b 4c3e
00000350: 3224 bdbd 0879 2abe 421c 39be 292e ee3d
00000360: b7f2 9e3d 025b f6bd 9068 42be 9c79 623e
00000370: 812d 223e 13fc d4bd 076f 2d3e b9a1 c73a
00000380: 1e3b 313e 6b7e bcbb 9b11 0d3c 99e4 653d
00000390: 89c0 d8bd d0d9 e7bd 5c89 debc 4d51 cb3d
000003a0: b414 533e bd99 073e 2968 a03c 7522 9fbe
000003b0: e0be 283c 41e5 073e bafc 093d e32b 993e
000003c0: ed58 9d3d dc40 42be 1114 e4bd 7b08 bd3d
000003d0: 5846 4fbd aed9 fa3d a86a b13d f2e0 133d
000003e0: 1be1 a93d 06e5 b63c a385 a5be 07fd 38be
000003f0: 89cc c13d 9e5c 8dbe 8dcc 3c3e 6be6 02bc
0.043703943 -0.06445571 0.15985477 -0.019842833 0.067459084 0.192423 -0.087523036 -0.02029963
0.11679666 0.18021816 0.0801814 0.027415449 0.19892392 -0.09911823 0.11834919 0.053130012
-0.047400467 0.06209824 0.0045441156 0.035688918 -0.034274258 -0.09023171 0.011809901 -0.019590888
0.1659154 -0.052298214 -0.13757089 -0.0041042287 0.08108049 0.07355557 -0.121737614 -0.06945293
-0.06868285 0.004633859 0.06798909 -0.11213138 -0.0014494004 0.034767207 -0.07139086 0.072507344
-0.061977223 -0.04955198 0.02037461 -0.116313025 -0.069026396 -0.1783383 -0.10650696 -0.15642746
0.08497078 0.07126941 0.09711948 0.057034213 -0.1928636 -0.0066614337 0.2170601 -0.088390335
0.03783001 0.11895708 -0.13450584 -0.07103954 -0.06087429 0.15498376 0.02417878 0.10795509
0.049319364 -0.08423847 0.26125944 0.09531761 0.065082416 -0.092733264 -0.046643548 -0.05944032
-0.06679435 -0.15682729 0.10819073 0.021804327 0.011502184 -0.091987535 -0.17277005 0.079821154
0.12850492 -0.19896373 0.1988879 0.07162256 0.20590277 -0.11871445 -0.19496915 0.04217601
0.07424056 -0.15765303 0.05393651 0.1577015 -0.06862589 -0.23736615 -0.04008357 0.16730721
-0.14233564 -0.09230304 0.02373379 0.059585765 0.057627115 -0.06646346 -0.12008819 0.09368616
0.026513493 -0.17109708 -0.06465623 -0.17476681 -0.075265884 -0.14499585 -0.14100893 -0.04861468
-0.021200886 -0.010069467 0.07078741 -0.0022398445 -0.17797042 0.096344694 -0.031190008 0.23135668
-0.07028937 0.114319764 -0.16970494 0.099505484 0.030598938 -0.06702835 0.078299984 -0.10909114
0.14281477 -0.20863594 -0.068753794 0.06722268 -0.058822207 0.057075623 -0.02830982 0.09937915
0.07346924 -0.09658848 0.041943803 0.066229835 0.16882128 -0.0341653 -0.059359156 0.08352171
-0.13358846 -0.03002024 0.20730367 0.007215768 -0.10499328 0.030997468 -0.0024264029 0.048943944
-0.03176692 -0.15242314 -0.11220183 -0.086813316 0.0010945396 0.054772615 -0.17813091 -0.12241672
0.015732452 0.030904412 0.12759043 -0.03432101 0.04867207 0.10926924 -0.024257315 0.15881574
0.17770201 0.047071286 0.049046032 -0.015721431 0.022528287 0.11458857 -0.1550178 0.16648565
-0.070064776 0.007545969 0.0036630507 -0.16529627 -0.0036274742 -0.19908378 -0.0053730356 -0.15662731
-0.13153648 0.027556919 0.095471665 0.033455808 -0.09308657 0.017046783 -0.1129648 0.228968
0.26268175 -0.2701945 0.12719536 -0.25663045 -0.0058467877 -0.23393367 -0.13753052 -0.08139982
0.16089451 -0.1846403 0.076026574 -0.004364971 -0.012325173 -0.028024785 -0.004008385 0.15815504
0.062086575 -0.0012968599 -0.1797989 0.19974941 -0.09235419 -0.16647732 -0.18077186 0.11629898
0.07761138 -0.12029077 -0.189852 0.22116703 0.15837671 -0.10399642 0.16936885 0.0015230692
0.17307708 -0.005752375 0.0086101545 0.05612621 -0.10583598 -0.11320841 -0.027165107 0.09927616
0.20613366 0.1324224 0.019580917 -0.31080976 0.010299414 0.13271047 0.033688284 0.29916295
0.07682977 -0.18970054 -0.1113664 0.09230133 -0.050604194 0.1224855 0.08662921 0.036103196
0.082948886 0.022326004 -0.3232852 -0.18065272 0.0946284 -0.27609724 0.18437405 -0.007989506

lstm.bias_ih_l0 f4 [256]
00000000: 52c5 11bd 35b2 c0bd b5b4 a2bd 4d0b 06be
00000010: b3c0 bbbd 55c1 fc3c f91e fc3c b634 b63d
00000020: f873 143e 4a3d c7bd 04b1 9cbc e6d2 d93b
00000030: 71e2 46bd 56da 68bd 205d 9e3d c450 04bd
00000040: 8e3d 08be 473e 8a3c 5b63 1bbd 51f1 563c
00000050: 2aaa f8bc 3a7b d03d 9816 ffbc 333e 3fbd
00000060: 5b86 8d3d d98c 2d3d be1a 56be c617 3a3d
00000070: 4a54 a13d e086 efbc 7369 9c3d e2da ae3d
00000080: 31ce 7a3d 6476 51bd f4f7 f1bc 7097 e73d
00000090: 283a 463d eedb b4bd 55f9 7bbd 51ef 26be
000000a0: 2508 603b 2389 acbc c967 d73d 4152 8b3d
000000b0: 95c0 e93c 90e7 99bd 19e3 b13d faad 4b3e
000000c0: d8a7 3e3d 0108 c3bd a045 58bd ff89 90bd
000000d0: 91ca 7abc 0be4 a0bd 13d1 853d b115 cebd
000000e0: cab6 84be 852f 4abe ed7d 5bba a090 99bd
000000f0: 0c77 bbbc 1a81 23bc 168e 1d3e dec8 cf3d
00000100: 9af0 85bd 2d3a 7dbd 8e78 67bd 13d9 35be
00000110: 2039 dd3d 731c 94bd 73a5 98bc 1220 9cbd
00000120: b211 c3bd 7094 52bc 4e27 3bbc a53e 413d
00000130: 8e7b fdbd 4314 0dbe e669 b3bc c77c 633d
00000140: fa18 80bd f1e9 a8bd 2058 e73c b447 e93d
00000150: 1d3e df3c 4153 903d e089 fc3d 77ad bf3d
00000160: 8910 613d 1501 943d 147e 0abd 4e05 7c3d
00000170: afbe 313d b031 383e 9135 3dbd c3cf 493e
00000180: 7d0b 083e f987 103d 267d 11ba 7143 043e
00000190: 8c54 c63d 74bb 61be bb7b 6f3d 57ee 45be
000001a0: 5b9f c53b 4703 0c3e 8435 be3d d0b6 883d
000001b0: 0a94 213d d8bd 81bd 1b04 b03d e617 4b3c
000001c0: 8faf 613b 9d53 133e bb61 af3d 151b b2bd
000001d0: cc2c 083e 82b0 813c 2fbb f5bd ca60 1e3e
000001e0: f9b5 c9bc 002e ffbc e0da c2bb 79cf 0bbe
000001f0: 763d 05be 3ac8 93bd 97f2 e63d b0e3 d1bc
00000200: 9f2b 15bc 95a8 b5bd 6f8b 643d 76a8 4d3d
00000210: 2177 e7bc ee95 c03d e735 c7bb 9abc b03b
00000220: 0a1b 2bbe a31e 26bd 8e4d f5bd 71c6 bfbd
00000230: b715 97bb b836 07bc 6392 183a 7dfa 203d
00000240: 96bf 413d a630 cb3d 02d9 8dbd 7048 3f3e
00000250: 5779 b4bd 36a4 9f3d 04c8 053e c1cb 263e
00000260: c8c4 0f3c 5524 5e3d bbde 3a3e b48e 7c3d
00000270: 05aa eabc b45c d6bd fe62 0ebb 153a 27be
00000280: 924b 333e 5435 ca3c 55a3 2cbd 0df3 b4bc
00000290: ca07 ce3d 831b ddbd 42d3 a1bd d743 71bd
000002a0: d039 e83d 4a02 263d 79e2 90be 008e 26bd
000002b0: 48db 8d3c 5bb8 b5bd e14a e93d 272a 88bd
000002c0: a15e 243d c994 303e 59b4 623d 6850 243e
000002d0: 0d34 eb3c 5f79 ac3d 30d2 1c3d 588d c3bd
000002e0: 240c 63bd db1b 033e 332d 2a3e 2207 693d
000002f0: 29cd 23bd 75b1 063e f9d3 cc3d 99c3 a6bd
00000300: 6dbf 693d e317 b9bb 2d8d fabb 7c0d b03d
00000310: d93a 7e3c c573 75bd 93b5 2bbe a7f9 b73d
00000320: fbbb c8bd 6b27 23bd b416 4fbd fd85 c33c
00000330: a479 ed3b 7f75 fcbb 1f87 2fbe cf42 a5bb
00000340: 598c eabd a21e 7dbb f904 0cbe 5c01 953d
00000350: 73e8 febd 8f8c 99bd ce91 a03b 1636 42bb
00000360: 3488 0cbe f9ea aa3d 561b f13d 83d5 e33c
00000370: 3fa1 bf3d 4d37 e0bc 7d1e 803c bc00 babd
00000380: bd66 66bc 1bb0 edbc 1dc4 0abd c536 dbbd
00000390: 5ac2 123d fa31 dabd 8a3e 413d 64c7 1bbd
000003a0: 1841 dc3a 9153 503e 4fe3 e83d 6422 ec3d
000003b0: 702f ab3d 0030 2dbd fb02 9fbd a182 c7bc
000003c0: c738 91bd 2ef6 c3bd 20a2 06be 80b2 f53d
000003d0: bf23 f73d 3039 033c 4d0f 94bd ebb6 a2bd
000003e0: bdea b3bd 1fee 103d 5d97 25be 4388 e33d
000003f0: d291 b83d eed4 a6bd 5aa3 0b3d 3951 e7bd
-0.03558857 -0.0940899 -0.079446234 -0.13090248 -0.09167614 0.030853907 0.030776488 0.088967726
0.14497364 -0.09728487 -0.019127376 0.0066474555 -0.048555795 -0.056848846 0.07732606 -0.032303587
-0.13304731 0.0168754 -0.03793655 0.013119058 -0.030354578 0.101797536 -0.031138703 -0.046690177
0.06910392 0.04237065 -0.20908639 0.04543283 0.07877405 -0.029239118 0.076373 0.08537842
0.061231796 -0.051138297 -0.029537179 0.11308181 0.048395306 -0.08831011 -0.06151708 -0.1630223
0.0034184542 -0.021061486 0.10517842 0.06802798 0.028534213 -0.0751487 0.086858936 0.19890586
0.046546787 -0.09523011 -0.052800775 -0.07057571 -0.015307085 -0.07855996 0.06534018 -0.10062731
-0.25920707 -0.1974469 -0.00083729514 -0.07498288 -0.022883914 -0.009979511 0.15386233 0.10145734
-0.06540032 -0.06182306 -0.056511454 -0.17758588 0.10801911 -0.07231989 -0.01863358 -0.076233044
-0.095248595 -0.012852773 -0.011422945 0.047178883 -0.12377082 -0.1377726 -0.021901082 0.05553892
-0.06254764 -0.08247746 0.028240263 0.113906294 0.027251298 0.070471294 0.12330985 0.09359258
0.05494741 0.07226769 -0.033811644 0.061528496 0.04339474 0.17987704 -0.046193663 0.19708161
0.13285632 0.035285924 -0.00055499596 0.12916352 0.09684095 -0.22044164 0.058467608 -0.193292
0.0060309595 0.13673125 0.09287551 0.06675494 0.03944782 -0.06335038 0.08594533 0.012395835
0.0034436916 0.14387365 0.085635625 -0.08696572 0.13298339 0.015831236 -0.11998593 0.1546661
-0.024622904 -0.031149864 -0.005946502 -0.13653363 -0.13011727 -0.072159246 0.11276739 -0.025621265
-0.009104638 -0.08870045 0.055797037 0.050209485 -0.028255047 0.09403597 -0.0060794237 0.005393577
-0.16709533 -0.04055656 -0.11977683 -0.093640216 -0.004610743 -0.008252792 0.0005820153 0.039301384
0.04730185 0.09921388 -0.069261566 0.18679976 -0.08812206 0.077949926 0.13064581 0.16288663
0.008774944 0.054233868 0.18249027 0.06165953 -0.028645525 -0.104669005 -0.0021726484 -0.1633075
0.17509297 0.024683632 -0.042147953 -0.022088552 0.100600794 -0.10796263 -0.07901622 -0.058902588
0.11339152 0.040529527 -0.28297785 -0.040662766 0.017316476 -0.08873054 0.11391235 -0.06648665
0.040129308 0.17244257 0.055347774 0.16046298 0.028711343 0.08421587 0.038286388 -0.095484436
-0.0554315 0.12803595 0.16618805 0.056891568 -0.039990578 0.13153632 0.10001368 -0.08142776
0.057067323 -0.0056485995 -0.007646224 0.08596322 0.01551696 -0.05992486 -0.16768484 0.08983164
-0.098014794 -0.039832514 -0.05055876 0.023867602 0.0072471667 -0.0077044363 -0.17141388 -0.0050433646
-0.114525504 -0.0038622995 -0.13673772 0.0727565 -0.1244668 -0.074975125 0.004900194 -0.0029634289
-0.13723832 0.08345599 0.11772792 0.027811771 0.09356927 -0.02737012 0.015639538 -0.09082171
-0.014062581 -0.029014638 -0.033878434 -0.10703806 0.03582988 -0.106540635 0.047178783 -0.03803195
0.0016804067 0.20344378 0.11371481 0.11529997 0.08358657 -0.042282104 -0.0776424 -0.02435428
-0.070909075 -0.095684394 -0.13147783 0.11996937 0.12067365 0.00800924 -0.07229481 -0.07945045
-0.08785007 0.03538334 -0.16171022 0.11109974 0.09012188 -0.08146082 0.03409133 -0.11294789

lstm.bias_hh_l0 f4 [256]
00000000: abb6 0bbe 9e7b 38bd fbc2 47bd 2bf2 87be
00000010: ff83 0cbe 7bd2 cdbd ceae a3bc 1aa3 fd3d
00000020: c437 093e 2a72 9e3d 604f c43d 2007 ecb7
00000030: f2c9 a83d 15ab a9bb 64d8 c23d 47a6 893d
00000040: f7ef f23c db52 e2bd 25fa 0cbe eee8 db3d
00000050: 9d0c 7e3c a811 193e b0bd 853d cc12 83bd
00000060: 4d90 c2bd 019c a7bb 60cf 25bd f44b aabd
00000070: 8f84 7abd 549e 9b3c cb3c 1b3d 30c9 24bd
00000080: 56bd 1cbe 4ff3 91bd e6dc c4bd b7dd 4a3d
00000090: 0cf5 5fbd e0ea e2bc c85f 393d fa58 233c
000000a0: 42a0 d3bd d130 d13d 65a2 d43d b2fb 13be
000000b0: b72b b83d 2ad0 9abd 4964 003d d324 b03d
000000c0: af40 373e 7f18 dcbc 2f9b 52be 9d63 08be
000000d0: 7f7e 3a3c 376d 873d fd3f 523d c16c 75bd
000000e0: ad95 9dbd cdee 39be 15c9 113d 320e 853d
000000f0: 522a 853c 876e 343e eabc 29bd 3c8c ab3d
00000100: 0555 063a b573 2d3d ff9e 2dbe adb6 00bd
00000110: a333 2fbc bb0b f6bd b56e 8dbd 6ac5 9cbd
00000120: 37cb 31be 3886 8f3d 0ad3 91bd 811a a3bd
00000130: 6e6b 063d 4a13 c2bc 5a5a 6cbd 593a 243d
00000140: a3f4 5ebc 3b70 853d 02a0 733d f6de 123d
00000150: 5e2a fbbd 65eb 38bd 6c8b 0a3e d2d3 40bd
00000160: a0ff d63d 3680 1c3e 3e73 f1bd 58a3 f9bb
00000170: 4208 9b3d 0161 183e d444 993d 56f6 e43d
00000180: 5242 a6bd 3543 8e3b 421e dc3d 3dfe febc
00000190: b1ec 1a3e 0970 04be 0c3f 9f3d dea2 87bd
000001a0: 589b 653c 339f 8abd 1c3f 8bbc ec1f f53d
000001b0: 84db 8b3d 98dd 7f3d c7cd 8ebb 8b90 0d3e
000001c0: 762d 5c3d 20a1 633e a7fe b63d b3d5 f73b
000001d0: 45fb cd3d 8540 8e3b e026 13bd 58f0 d93d
000001e0: fb34 44bd 0c23 eabc 76a1 0c3d bd46 83bc
000001f0: 7111 b43c 74e0 d23c efb7 193d 02ca 8dbd
00000200: 634f af3d 27b5 bf3d 9903 40be ce28 63bc
00000210: 8426 1f3e 7057 8cbd 82b6 a138 43ce 163e
00000220: 90c5 32be e947 5dbd b9e5 7d3d 9bb1 3f3d
00000230: 54e9 4bbe e84d 14bd 8663 95bc 3994 abbd
00000240: fd69 89bc 4046 3e3e 31b1 803c a256 c8bb
00000250: 1806 36bc a340 23bd 42a3 593e dbcd f63d
00000260: d48e 863d 7e78 ee3d c5da a13c fdb8 9ebd
00000270: 4b51 a8bd dd32 cebc 35ac 74bb 8490 16bd
00000280: 4ce7 ce3d 7b3c 113e bd44 d7bd 5f4f 5c3d
00000290: d85f 163d 0d6b b1bc 61f7 24be 1324 623d
000002a0: 0ab2 2cbd 1257 003d 6578 18be ade6 103e
000002b0: 2e21 95bd 036e 113e c16c d73d 6014 fbbc
000002c0: a420 c23d 9d2a 463d 7dc2 a13d 083f 643d
000002d0: d161 393e e10c 07bd c116 e43c 5ac2 0bbe
000002e0: 89b9 e8bd e5f6 403e d97d 02bd 09db 043d
000002f0: 3d5f e6bd 12ac 803d b9c9 0a3e f1a7 e5bd
00000300: b190 063e 26b5 d93d 4da4 6fbd dedd 62bd
00000310: fa5f 263e bcaf a7bd e74e 8a3b d30d a1bd
00000320: 2914 0bbe 4f39 af3d c86a 0a3e 78d1 c8bb
00000330: 31cd 013c 81f0 893d 84c8 35bd 300a 8cbb
00000340: 3b36 783d 1ab4 b43d 1018 ef3c b87d 19be
00000350: b02f a63d 49d2 70bd 73a2 e83d 2a80 3039
00000360: 6f9b 213d 6594 2a3d 1b92 e53d 00b7 e9bd
00000370: fcef 193e c16d b13d ca74 23be ea41 153e
00000380: 7394 2f3d e634 7f3d 85e3 0f3d a73e 52bd
00000390: e67b edbc 7c62 a33d 148a 8e3c f1e7 9bbc
000003a0: 262b 7fbd 3583 323e 7fb7 1d3e bcf4 5c3c
000003b0: 0c65 fe3c a8ce 873c 06c6 0dbd 9117 f23d
000003c0: 166a 853c a4e4 d23b 9a0e c03d d522 7dbc
000003d0: b2cf 49bc d247 203d 3feb 93bd 0f41 913d
000003e0: 0c3e 3ebd eb7e 29bd 7554 153a bd99 f53c
000003f0: e5e7 0f3e 3c9a 7ebc 0998 ed3c 597e be3d
-0.13643901 -0.045039766 -0.048769932 -0.26551947 -0.13722228 -0.100499116 -0.019980814 0.12384625
0.13400179 0.07736619 0.09585452 -2.813671e-05 0.08241643 -0.0051778653 0.095139295 0.06721168
0.02965544 -0.1105096 -0.13767298 0.10737787 0.015505937 0.14948142 0.06530321 -0.064000696
-0.095001794 -0.0051150327 -0.04048097 -0.08315268 -0.061161574 0.018996395 0.037899774 -0.04023093
-0.15306601 -0.071264856 -0.096124455 0.04952785 -0.054677054 -0.027699888 0.04525736 0.009969944
-0.10333301 0.10214389 0.10382537 -0.14451483 0.08992713 -0.075592354 0.03134564 0.08600774
0.17895769 -0.02686715 -0.2056701 -0.1331925 0.011382698 0.06612628 0.051330555 -0.05991817
-0.07694564 -0.18157502 0.035592157 0.06496848 0.016255531 0.17620288 -0.041439928 0.08376357
0.0005124363 0.042346675 -0.16955183 -0.031424213 -0.0106934635 -0.12013956 -0.06905881 -0.07654841
-0.17362677 0.07008022 -0.07120331 -0.079640396 0.032817297 -0.023690838 -0.057703353 0.040094707
-0.013608131 0.06515547 0.059478767 0.035857163 -0.1226394 -0.045146365 0.13529748 -0.047077008
0.10497975 0.15283284 -0.11789559 -0.007618349 0.075699344 0.14880754 0.07483831 0.11179797
-0.08118118 0.004341508 0.10747959 -0.03112709 0.15129353 -0.12933363 0.07775697 -0.06622861
0.014014088 -0.06768646 -0.016997866 0.11968979 0.06828979 0.062467188 -0.0043580267 0.1382467
0.053754292 0.22229433 0.0893529 0.0075633167 0.100576915 0.0043411874 -0.035925746 0.10641545
-0.04790209 -0.028581165 0.03433367 -0.016024942 0.021980973 0.025741793 0.03752893 -0.069232956
0.08560064 0.09360724 -0.18751372 -0.013864709 0.15542036 -0.06852615 7.711073e-05 0.1472712
-0.17458177 -0.054023657 0.06198666 0.046800237 -0.19913226 -0.03620711 -0.018235933 -0.083778806
-0.016774172 0.18581486 0.015709491 -0.006113843 -0.011109851 -0.039856564 0.21253684 0.120509826
0.06570211 0.11644076 0.019757638 -0.077501275 -0.082186304 -0.025170738 -0.0037334089 -0.036758915
0.1010271 0.14183228 -0.10511158 0.05378663 0.036712497 -0.021657491 -0.16109993 0.055210184
-0.04216198 0.031333037 -0.14889677 0.14150496 -0.07281719 0.14202122 0.1051879 -0.030649364
0.09478882 0.048380483 0.07898424 0.055724174 0.1810372 -0.032971267 0.027842881 -0.13648358
-0.11363513 0.18844183 -0.0318583 0.03243545 -0.11248634 0.0628282 0.13553514 -0.11213673
0.13141133 0.106302544 -0.0585063 -0.05538737 0.1624755 -0.081878155 0.0042208317 -0.07863965
-0.13581909 0.085558526 0.13517296 -0.0061284862 0.007922457 0.067353256 -0.04438068 -0.0042736754
0.060598593 0.08823414 0.029186279 -0.14989364 0.081145644 -0.058794294 0.1135911 0.00016832413
0.039454874 0.041645426 0.11209508 -0.114118576 0.15032953 0.08663512 -0.1596252 0.14575925
0.04286618 0.062306307 0.03512909 -0.05132928 -0.028989743 0.07977769 0.017399825 -0.019031497
-0.06229701 0.17432864 0.1540203 0.013486084 0.031054042 0.016578034 -0.034612678 0.11820901
0.016285937 0.0064359475 0.09377785 -0.015450199 -0.012317585 0.039130993 -0.07222604 0.07092487
-0.04644589 -0.041380804 0.0005696484 0.029980535 0.14053304 -0.015539702 0.02900316 0.09301443

lstm.weight_ih_l1 f4 [256, 64]
00000000: a7f2 d0bd 2051 4dbe e807 8fbc d4a9 2ebe
00000010: 6344 a9bd 8173 fa3d 3118 8d3c 35c7 703d
00000020: 56ac 3c3d 4192 6bbd 9499 243d 5bf7 e7bd
00000030: 13e5 d03d 2d26 33bd 64bf a7bd d0d9 05be
00000040: 74fd 40bd 225a 87bd 2879 d33d b9d4 adbc
00000050: 869a 63bd c192 033e 9d38 2d3c cc02 37be
00000060: ee00 55bd e9b6 b3bc 92dc 75be d34b 653d
00000070: 859d 95bc f35c 0fbd 9973 0cbe 7eb6 23be
00000080: 3cd6 18bd a336 ccbd 04da b23c 5ebf 15bd
00000090: 7eae eabd f2d4 27bd d426 83bd 6587 a53d
000000a0: 08a4 ee3a 1070 483d 8e83 c6bd aed7 183d
000000b0: d4e3 18be 282b 17bd 4b81 25bd 825c 24be
000000c0: 20d4 1abd 9d6e 923d aa6e c5bd 0815 95bd
000000d0: b24b ad3d 156d ea3d 5ab9 183d 7996 cb3d
000000e0: 2979 523d 91e6 8b3c 0bd5 1bbd 70ce 6c3d
000000f0: 671f d7bd b819 9a3d 797b 943d 6a97 253e
00000100: bd69 adbd 66fa 323b 72da 5b3d 2542 6e3d
00000110: d254 e0bc 5804 ce3d 03b6 cf3d 5144 853b
00000120: 0f1c 3e3c 0413 263e b86d ad3d 56a6 b53b
00000130: 1ece cdbd 9abd 87bd 442f a0bc ef27 20bd
00000140: bb86 913d 3347 ad3d a03c 193e b75b 033e
00000150: 5a74 2abe 80ca 393e 0293 683d 594b 2e3d
00000160: 05de 143d 1632 573d c644 69bb 047e fa3d
00000170: 3d8c 073e 849b 483e a2df c33d 5ae8 48bd
00000180: fa12 0abe fab5 dbbc fd35 0abc 5dbb 4d3d
00000190: 41e5 2c3d 1a25 0f3e 233d a9bd 11ae 2ebe
000001a0: 8ef2 e8bd c89c 28be 52a2 c0bc 2b16 8a3d
000001b0: 7bc2 723c 7283 eabc 37a8 b1bd bf23 27be
000001c0: bd0f f6bb 10b6 853e 9d44 cfbd 9fad 933c
000001d0: 7f20 21bc 929d cdba 54c3 133e 5654 80bd
000001e0: c074 903d 51a5 b8bc 1152 89bc 0ac8 19be
000001f0: 7660 c53d 58a1 1ebd d00c 99bc eea8 523d
00000200: e0cc e8bd 4869 bc3d 23aa 3e3e 0d1a e3bc
00000210: 6af0 103d 474b 0fbd 2e64 b63d abbf 05be
00000220: fffd 91bd c95a 23bd 0b84 41bd 7840 b8bd
00000230: cdb6 583d 036f a63d 236c b6bc ce9f bb3a
00000240: ab12 6e3d b324 89bc 2bbd 25be 6cee 26be
00000250: 1ebd abbc 8802 d7bd 4b84 ef3d 1760 0cbd
00000260: f57d 25bc d8a5 ecbd a906 e1bd c1e1 25bd
00000270: d6d6 cdbd f414 03bb bf42 17be 080c 133d
00000280: 450e a93d ea17 d93c f330 163c ae52 ab3c
00000290: 16fd 8dbd 599c bc3d 36c7 d1bc 3d00 dc3d
000002a0: 2655 4dbe e1a0 79bd db07 c6bd b724 febb
000002b0: 9ad5 863d 6953 16be 562f 11bd 559c 86bb
000002c0: 5d39 d8bd 4537 393d f4d6 0d3d fad6 7ebd
000002d0: 8c07 49bd a92c 86be 3773 abbb 0115 b63c
000002e0: 7685 e5bd cc4c 6e3d 3606 97bd 20f7 51bd
000002f0: 9a74 99bc ec6b 1a3e 8a1c c0bb 6f9e 223d
00000300: e19e 20ba 3f21 babd 7bc2 6d3d 700f 1abe
00000310: 3f11 f33d 44f1 f43d 7762 cc3d 1dce 08be
00000320: 0d05 0bbb c083 d5bd 2c4b 833d ae5c 383b
00000330: fb99 313e 23f3 b8bd ea06 fb3d 5b0d 37bd
00000340: 87ec 3bbe 379f bcbd 12a9 b23e 0a90 233d
00000350: 74a1 58bb 5c12 e6bc e53e 563d 06ce 963d
00000360: baa5 3d3d 7d1a 04bd 3db2 3fbd 60b7 18be
00000370: 83c7 183e 1c91 eb3c 3531 1dbe eb64 02bd
00000380: c59e 1c3d 3f43 31be 1f46 3bbd acd0 0a3e
00000390: b993 ab3d be93 0a3d d91b 643d 7651 803d
000003a0: 89ec 6fbc 3449 003e 82bf 89bd 5a61 65bd
000003b0: 596e 3abd 7de0 323d 12d7 033d b687 a7bd
000003c0: 8f61 c23d 5dac adbd dff5 053e 9905 9c3c
000003d0: 041b 093e b118 90bd 783b 523d 6649 be3d
000003e0: 2c7c f8bc 7ffb 11be 16f9 06bc 481f 413b
000003f0: acc3 63bc 1868 973d 8eeb 393e cc55 b93d
-0.10202532 -0.20050478 -0.017459825 -0.17056972 -0.08264997 0.12229062 0.01722345 0.05878373
0.04606279 -0.057512525 0.040185526 -0.11326476 0.101999424 -0.04373758 -0.08190802 -0.1307137
-0.04711671 -0.06608988 0.10325843 -0.021219598 -0.055567287 0.12848951 0.01057258 -0.1787216
-0.05200284 -0.021937804 -0.24009922 0.055980515 -0.018263588 -0.035000753 -0.13715972 -0.15987584
-0.037313685 -0.099713586 0.021832474 -0.036559455 -0.11459063 -0.040974565 -0.0640389 0.08082465
0.0018206844 0.048934996 -0.09693061 0.037315063 -0.1493066 -0.03690639 -0.040406507 -0.16050914
-0.037799954 0.07150004 -0.09640248 -0.07279402 0.08461703 0.11446587 0.03728614 0.0994081
0.05138508 0.017077716 -0.03804497 0.05781406 -0.105040364 0.07524437 0.07250113 0.16171041
-0.084674336 0.0027309894 0.053675123 0.05816855 -0.027384195 0.10059422 0.10142138 0.004066982
0.011603369 0.16218191 0.08468193 0.0055435104 -0.10049079 -0.066279605 -0.019553788 -0.039100584
0.07105776 0.08460846 0.14964533 0.12827955 -0.16645947 0.18143654 0.056780823 0.042552326
0.036344547 0.052538 -0.003559397 0.12231067 0.1323709 0.19590575 0.09564139 -0.049049713
-0.13483801 -0.026820172 -0.008435723 0.05022751 0.04221082 0.13978997 -0.08263614 -0.17058589
-0.11374389 -0.16466057 -0.0235149 0.067425095 0.014816876 -0.028627131 -0.086746626 -0.1632223
-0.0075092004 0.26115465 -0.10120509 0.018027125 -0.009834408 -0.0015687218 0.1442998 -0.06266086
0.07053518 -0.022539767 -0.016762765 -0.15017715 0.09637539 -0.03872809 -0.018682867 0.051430635
-0.11367202 0.09199768 0.1861959 -0.027722383 0.035385527 -0.0349839 0.089058265 -0.13061397
-0.07128524 -0.0398815 -0.047245067 -0.089966714 0.052908707 0.081266426 -0.02226836 0.0014314593
0.058123272 -0.016741132 -0.16185443 -0.16301888 -0.020964202 -0.1049853 0.11695155 -0.034271326
-0.010100831 -0.1155507 -0.109875984 -0.0404985 -0.10050742 -0.0020001503 -0.14771555 0.035900146
0.08254675 0.02650066 0.009166944 0.020913448 -0.06933038 0.092095084 -0.025607686 0.10742233
-0.20052013 -0.06094444 -0.09669467 -0.0077558416 0.0658371 -0.14680256 -0.035445534 -0.0041079917
-0.10557816 0.045218725 0.034628823 -0.062216736 -0.049079463 -0.26205948 -0.0052322405 0.022226812
-0.11207096 0.058178708 -0.073742315 -0.051261067 -0.018732358 0.15080231 -0.005862777 0.039701875
-0.00061271904 -0.090883724 0.0580468 -0.15044951 0.11868524 0.1196008 0.09979718 -0.13359876
-0.0021212727 -0.1042552 0.06410822 0.0028131413 0.17343895 -0.0903075 0.12257178 -0.04469047
-0.18351947 -0.09210055 0.34894615 0.03993229 -0.0033055218 -0.028084926 0.052306075 0.073635146
0.046300627 -0.032251824 -0.04680084 -0.14913702 0.14919858 0.028755717 -0.15350802 -0.031834524
0.038237352 -0.17310809 -0.04572117 0.13556165 0.08377785 0.033832304 0.05569062 0.062655374
-0.014643797 0.12527925 -0.0672598 -0.056001045 -0.045515392 0.04367112 0.03218753 -0.08180182
0.09491264 -0.08480141 0.13082074 0.019045638 0.13389212 -0.070359595 0.051326245 0.092913434
-0.030332647 -0.14256094 -0.008238098 0.0029468108 -0.013901632 0.07392901 0.18156263 0.090495676

lstm.weight_hh_l1 f4 [256, 64]
00000000: 4eb7 2bbd 8e72 25bd b034 bc3d 15f1 b7bc
00000010: 0b2c b23d 32e1 8cbe 6e12 9c3d 4d54 8bbc
00000020: 6718 ed3d e5cc d33d f6fb fa3c b6d0 e13d
00000030: eca8 9bbd 3784 3bbe 4b8d 81bd 608e 2ebe
00000040: 8d6c 79bd 90d3 89bc 2966 90bc be67 bbbd
00000050: 65a3 0d3d 3db9 5b3d fcb4 d13d 7800 e63c
00000060: 7e59 463e 3091 cbbd 3858 15bd aaaf c73d
00000070: 4f5b 19be 39f4 6f3d d982 a93d e61d c23d
00000080: aa79 643c ba14 253d 8436 183c 31b5 833d
00000090: 81dc 7b3d a209 503d 8d23 c13d 2146 17bd
000000a0: 95c9 44bb c1bc 273e 2491 c9bc 5070 1a3d
000000b0: 237a 2f3d cb63 693c 38d5 023e 5d0e 03be
000000c0: 5411 b5bd 943f 213e 8a53 0a3e 72f3 d43d
000000d0: 9b2e 30be 417e b1bc f68e 8d3c 5c77 b7bd
000000e0: 0633 31be 4f08 c0bd 3d4d ab3c 059a e6bd
000000f0: f55e 92bd 4ef6 5dbd 2ea0 e03d c8f6 5b3e
00000100: 5d48 df3c d09c 2b3d f28b 103e fbbd 9fbd
00000110: c83a ef3b 5f26 a9bd 31e5 eebd 2409 e73c
00000120: 2410 4ebd 2ac1 46be 8e89 d93d c40b 2fbe
00000130: 07ca 8b3d 6045 08bd a836 76be ed9f cebd
00000140: c989 123e 10b3 923c f28e 9b3d 744c f5bd
00000150: 75f1 23be 4202 5d3d 3238 4bbc c484 a83b
00000160: cd62 c8bd 9f2b cd3c edc7 a43d c746 e3bd
00000170: d2c7 293c 1b1f 50bc 59be a6bd f48f 46bc
00000180: 33c3 ff3c 7445 9c3d 5407 11be 7051 53bd
00000190: 42ec 14bd cb64 8cbd 036a 82bd 1971 4dbe
000001a0: 02a2 ddbd 1bca 56be 1a4e 1c3d b4bc 61be
000001b0: b575 4ebd 7925 ddbd 8036 64bd dcf3 2f3d
000001c0: 92a9 67be 3e6a a7bd c384 d53d 5d89 92bd
000001d0: 3021 0f3e d15f 22ba 3ccb e73d 950d a43d
000001e0: ef4d eb3d 0a75 893a 0f13 10bc e35c 973d
000001f0: d2d4 78bd 1a4e 943d ffe0 abbc 5863 30be
00000200: 47be d83d 21a5 2b3d b838 b33c f6c6 a73c
00000210: e3bb 333d bbfc 3ebe 1560 08bc a27f 043d
00000220: c369 3c3d 2b26 babd df57 3a3d 34b2 9dbd
00000230: e6b3 273b f827 b33c 1cb8 b3bb fc5a 913d
00000240: dda5 eb3d 04fe 203d 13c4 7f3d bcff e33d
00000250: f32c 943c 7da4 2fbd 604e b83d 9f67 413d
00000260: ce82 35bd 79c8 d23d 0b58 5a3e d410 cfbc
00000270: 65fe abbd b06f bebd e114 9f3d da12 63bd
00000280: 0811 ae3d 5db3 13be 4df8 8bbd 7c6b 793e
00000290: 25b3 ba3d ae43 3fbd f102 da3d 44a6 43be
000002a0: 5eaa e43d 7580 43be 8c41 e93d 77df dbbc
000002b0: e6b6 463e 6f45 8fbd b5ea 213d 847c ab3d
000002c0: 199a e3bc 3983 b0bd 26b9 973d 7e88 22bd
000002d0: e3b9 673d 2969 f739 abc4 c93b e6c7 62bd
000002e0: 5b78 b6bd b8af 493d 2e52 763d 4a90 bebd
000002f0: 0bd6 dfbd 8e74 b2bd 3102 c5bc 339f 89bb
00000300: 0ea2 82bd 4e85 3dbe 08dd 733d 61be 2ebd
00000310: b042 f3bd f444 0abd ee99 41bd 809b acbd
00000320: 91de 4f3e 0e00 42bc ec92 1a3e 5857 a83d
00000330: bf35 6bbd ce0d 4cbe d275 283e d08e 35be
00000340: bfa4 df3d 9193 aabd 176e dfbc 7583 913d
00000350: ea51 fb3d 692d 813d 2569 423e efd0 b5bd
00000360: 5b75 703d 3fb5 0d3e cb0b 4e3e 4dbf 46bd
00000370: 9ae3 c5bd b59a 66bd cc1b d6bb fb41 f33d
00000380: 7ba9 833b 0044 003e 8229 95bd 4ef7 203e
00000390: 2a5d 0c3e 37a3 7f3e 4aba 5d3e f80d d7bd
000003a0: 8feb 0d3d 8089 b0bd abfd 33bd af50 9bba
000003b0: 682e 073e c2ae f53c d0b2 523e 210b 1abe
000003c0: 926f 8fbd 4e99 acbc 0778 833d d668 213d
000003d0: f9c1 3abe f752 6c3d a295 12bd 453b 86bc
000003e0: ea7c 60be c31c ddbb bff5 213d 4890 2fbe
000003f0: 0af3 5abe 2097 f2bc bd70 973c bbe9 793d
-0.04192286 -0.04039245 0.09189737 -0.022453824 0.08699807 -0.2751556 0.07620703 -0.017007971
0.1157692 0.10341815 0.030637722 0.110261366 -0.07600579 -0.18312155 -0.063257776 -0.17046499
-0.060894538 -0.016824514 -0.017626839 -0.091506466 0.034579653 0.053643454 0.10239598 0.028076395
0.19370076 -0.09939802 -0.036461085 0.09750302 -0.14976238 0.05858252 0.0827691 0.09478359
0.013945023 0.04030297 0.009290341 0.06431044 0.061489586 0.050790437 0.09430609 -0.036932115
-0.0030027379 0.16380598 -0.024605341 0.037704766 0.042841088 0.014244984 0.12776649 -0.12798448
-0.08841196 0.1574691 0.1350843 0.10397996 -0.17205279 -0.021666648 0.017280083 -0.08958313
-0.1730462 -0.09376585 0.020910854 -0.11259846 -0.07147018 -0.054189973 0.10968052 0.21480858
0.027256185 0.041897595 0.14115885 -0.07799908 0.0073007084 -0.08259272 -0.116648085 0.0282026
-0.05030836 -0.19409624 0.106219396 -0.17094332 0.06825643 -0.033269286 -0.24044287 -0.10089097
0.14310373 0.01790765 0.07595624 -0.11977473 -0.16010077 0.05395723 -0.012403535 0.00514278
-0.0978447 0.025045214 0.08045945 -0.11097484 0.010362582 -0.012702729 -0.08141775 -0.012119282
0.031221008 0.07630435 -0.14162952 -0.051591337 -0.036358126 -0.06855162 -0.063678764 -0.20062675
-0.10821916 -0.20975535 0.03816042 -0.22044641 -0.050405223 -0.10798163 -0.055716038 0.04295717
-0.2262328 -0.08174561 0.10425713 -0.07155106 0.13977504 -0.00061940873 0.11318061 0.08010403
0.11489474 0.0010487151 -0.008793606 0.073907636 -0.060749836 0.07241459 -0.02098131 -0.17225397
0.105831675 0.041905526 0.021877632 0.020480614 0.043880355 -0.18651097 -0.008323689 0.032348283
0.0459993 -0.09089311 0.045493957 -0.07700005 0.0025589406 0.021869645 -0.005484594 0.07097432
0.11506245 0.03930475 0.06244285 0.11132762 0.01808784 -0.042881478 0.08999324 0.04721796
-0.0443142 0.102921434 0.21322648 -0.025276579 -0.08398131 -0.092986465 0.07767654 -0.0554379
0.08499342 -0.1442389 -0.06834469 0.24357408 0.091162 -0.046695404 0.10645092 -0.19106394
0.111653075 -0.19091971 0.11389455 -0.026839955 0.19405708 -0.06995665 0.039530475 0.08373359
-0.02778344 -0.08618779 0.07408361 -0.03968095 0.05657376 0.00047189862 0.006157478 -0.05536642
-0.08909675 0.049239844 0.060136966 -0.09304865 -0.10929497 -0.08713637 -0.024048897 -0.004199886
-0.06378566 -0.18507883 0.059536964 -0.04266203 -0.11877954 -0.033757165 -0.04726594 -0.08428097
0.20299746 -0.011840833 0.15095109 0.082197845 -0.057424303 -0.19927141 0.16451195 -0.1773026
0.10920095 -0.08328927 -0.027274175 0.071051516 0.12271483 0.063074894 0.18985422 -0.088777415
0.05870567 0.13838671 0.20121686 -0.048522282 -0.09662552 -0.056299884 -0.0065340754 0.11877819
0.0040180064 0.1252594 -0.072833076 0.15719339 0.13707414 0.24964605 0.21653095 -0.10500711
0.034648474 -0.08619976 -0.04394309 -0.0011849607 0.13201296 0.029990558 0.20576024 -0.15043308
-0.07003702 -0.021069195 0.06419378 0.03940662 -0.18238057 0.05769631 -0.035787232 -0.016385684
-0.21922651 -0.0067478134 0.039541002 -0.17144883 -0.21381775 -0.029613078 0.018486375 0.06101392

lstm.bias_ih_l1 f4 [256]
00000000: be86 843d 4d2a 90bd 25e9 86bd 8179 7dbd
00000010: 1e87 61bc a013 5ebd fb2d afbc d38a 213e
00000020: c40a 4abd a0f9 3cbe f0e8 d8bd 92b2 d5bd
00000030: f83e 8f3d 9fe4 a9bd c0a7 e3bd 8235 99bd
00000040: ef10 353d 1161 ef3c 81b0 613d 7d48 dabd
00000050: e9b3 8e3d 07c9 b1bd 3f02 f03c 340d 48bc
00000060: 801c cf3d 2f40 0c3d 04cc a8bb 1417 d63c
00000070: a7d3 023e e2cf 79bc 2a60 ec3d 8442 1b3e
00000080: a0d0 28be 3a6d 3ebe 5108 04be 746f 8ebd
00000090: 8805 73bd c962 bfbd 2b5e a9bd d362 993d
000000a0: c928 8cbc dbdc 9fbd d382 b63d 0609 a33d
000000b0: 7518 e0bd f29a 90bd 65e0 bcbd f2f6 babc
000000c0: 3d17 c43d 5ca8 edbd 0bef 28ba d385 113d
000000d0: 712e 93bd 5161 56ba cb9f 44ba 1a31 f1bc
000000e0: 492d 8fbd 0e07 02be d4f1 12bd 22d4 d63c
000000f0: a0cb ea3d 68e3 86bd 6033 313d 2d34 aa3d
00000100: 0c3e 10bd 057c 49bd 4304 d9bd a05f 12be
00000110: b2f5 17bc b29f acbd 2d94 d5bd d487 ac3d
00000120: c97a 093e 79f4 883d 86a3 3b3d 8723 8bbb
00000130: a85e efbb a906 013d 469e 3cbd e8fe 163e
00000140: ad0b fcbc 69b4 e2bc 1dec eb3d 6340 953d
00000150: 6e2b 38bd acd0 663d 2b4a 583c 5e78 b93c
00000160: 4a2e db3c 7152 1dba ccee f1bc b798 dbbc
00000170: 20cb a23d b142 66bd 4392 b33d b16f 9abd
00000180: 5daa 993d 8974 ecbd 58bc 473d 151a 80bd
00000190: 3243 f3bd d6eb 4e3e 2d4d da3c 715c 023e
000001a0: 52cb 2ebd 5e25 733d f97c 96bd 4b9e 563c
000001b0: 8b58 6d3d b420 f8bd 9f12 c93d c595 22bd
000001c0: a362 053e b1f9 a03d 3660 d13c f621 ed3d
000001d0: 76d8 2fbd a5c0 19bc 3efc 133d d878 1cbe
000001e0: e4b1 b6bd 6f1a 053d 1759 d7bc b4c6 0fbb
000001f0: 6c16 613d 9b40 1c3d e6ca bcbc e815 c43d
00000200: 5cb2 c4bd ba79 84bd b959 66bd 3d6e 993b
00000210: e635 2dbc 48e4 b03d 4a6a 123e 52f3 0e3d
00000220: 5285 ba3d c971 6dbd f4f7 793d 4c96 933d
00000230: 2360 fbbd 3ac4 d2bd 1518 70bd b6f2 8d3d
00000240: f3af 2a3c 7014 cdbd 6ff5 f43d d5f1 853d
00000250: c96e 75bd f37f 1fbd 9ab8 5dbd 8ad7 273d
00000260: 389d 643d 4bb9 293d 1ff5 9e3d 54e3 5bbc
00000270: 5737 eebd a8bc d7bc f7d5 1cbe 41a5 e6bd
00000280: 1706 b63d 8302 1e3d 5e85 063e a7e7 803d
00000290: 1307 073e a647 9ebd 37e3 0d3d 78f0 7e3d
000002a0: 064e 8fbd aee2 df3d ae65 1abe 15ff 2b3d
000002b0: 678f a0bc a2c7 ab3d 469f a43d 4f46 9a3d
000002c0: 22ee 363d d954 e13d 623e c7bd b2a1 7c3d
000002d0: 3c12 e6bd 8b61 0cbe 0210 f9bc ee41 d8bd
000002e0: 968c 66bd f0fd f0bd 7f7e ef3d f05d 9abd
000002f0: 767b c73d 5b74 a7bd 29e6 47bd cd51 083c
00000300: db12 ac3c b41d d9bd 629a e03b 5b2b 16be
00000310: b4b3 16bd 87cd 713d 0647 e63d 612a 533e
00000320: 90a7 81bd b354 7f3d 81ad 2c3d 1566 81bc
00000330: bbe1 543d 248b a23d 531a 2b3d 9605 893c
00000340: d739 963d 0093 a63d 6a88 953c bd8f 90bd
00000350: a60c d93d 4cab fbbc 059e 5e3d 2153 06bc
00000360: e171 25bb 4d76 4f3d 4569 a53d 24d7 3d3d
00000370: c33c 8dbd 2a91 85bc c2cb c6bd 3afe 11bd
00000380: a084 3e3d 89d0 db3c cba8 023e e633 a53d
00000390: 0cb8 013d 5ae4 213e 49f9 c53d 3d37 753d
000003a0: 2494 b63d 2e25 9dbd 8a5a 61bd e083 d33c
000003b0: 0100 8cbb 7918 b6bd e021 e93d eb68 e4bc
000003c0: 74c5 2c3e bc8e b3bc bd2b c8bd bbbc 40bd
000003d0: 74d0 843d a909 3bbd c1c5 b1bd f660 203d
000003e0: a0ba 913d c172 1bbd 84a4 323e 6773 173e
000003f0: 654c 093d 7a7e 2ebd 6e29 0dbe a210 09bc
0.064710125 -0.07039318 -0.065874375 -0.061883453 -0.013765125 -0.054217935 -0.02138423 0.15775613
-0.049326673 -0.184546 -0.10591304 -0.1043445 0.06994432 -0.08295559 -0.1111598 -0.07480909
0.044205602 0.02922109 0.055099968 -0.10658357 0.06967909 -0.08680921 0.029297946 -0.012210179
0.10112858 0.034240898 -0.0051512737 0.026134051 0.12776051 -0.015247317 0.11541779 0.15162092
-0.16485834 -0.18596354 -0.12893797 -0.06954852 -0.059331447 -0.09345014 -0.08269914 0.07489552
-0.017109292 -0.07805797 0.089116715 0.079607055 -0.10942165 -0.070608035 -0.09222487 -0.02282283
0.09574745 -0.116043776 -0.00064443116 0.035528015 -0.07186592 -0.00081779534 -0.00075006176 -0.029442359
-0.06991059 -0.12698004 -0.035875157 0.0262242 0.1146462 -0.06586343 0.043261886 0.08310733
-0.035215423 -0.04919054 -0.10596516 -0.1429429 -0.009274887 -0.08428897 -0.10428653 0.08424345
0.13425745 0.066872545 0.045810245 -0.0042461785 -0.007304985 0.031500492 -0.04604938 0.14745677
-0.030767286 -0.027673917 0.115196444 0.072876714 -0.044963293 0.05635135 0.013201277 0.022640403
0.02675547 -0.00060013594 -0.029532813 -0.026806219 0.07948899 -0.056215946 0.087681316 -0.07540835
0.07503197 -0.11545665 0.048763603 -0.06254975 -0.11878051 0.20207152 0.026648128 0.12730576
-0.04267437 0.059361808 -0.073480554 0.013099263 0.05794577 -0.121156126 0.09818005 -0.039693613
0.13025908 0.07860125 0.025558572 0.11578743 -0.042931043 -0.009384309 0.03612923 -0.15280473
-0.08920649 0.032495912 -0.026287599 -0.0021938505 0.054953024 0.03814755 -0.023045968 0.09574491
-0.09604332 -0.0646853 -0.05623791 0.004682331 -0.010571932 0.08637291 0.14298359 0.034900017
0.0910746 -0.057969842 0.061027482 0.07206401 -0.12274196 -0.102913335 -0.058616716 0.06931059
0.010417926 -0.10013664 0.11960875 0.065402664 -0.059920106 -0.03894038 -0.054131128 0.04097704
0.055813998 0.041436475 0.07761597 -0.0134208985 -0.11631649 -0.026335075 -0.15315996 -0.112619884
0.0888788 0.038576614 0.13136813 0.06294184 0.13186292 -0.077285096 0.034640517 0.062241048
-0.06997304 0.109319076 -0.1507785 0.041991312 -0.01959963 0.08387686 0.080381915 0.075329416
0.044660695 0.110025115 -0.097286955 0.061677642 -0.11233947 -0.13709085 -0.030403141 -0.1055945
-0.056286417 -0.11767185 0.11694049 -0.075374484 0.09740345 -0.0817649 -0.048803482 0.008320284
0.021005085 -0.106013685 0.0068543414 -0.14664976 -0.036792472 0.059033897 0.112440154 0.20621635
-0.06330788 0.062336635 0.042157654 -0.015795747 0.051973086 0.07936695 0.04177315 0.016726296
0.07335251 0.08133507 0.018253524 -0.07058666 0.105981156 -0.03072133 0.054349918 -0.00819853
-0.002524488 0.05064993 0.08076719 0.046347752 -0.06896355 -0.016304571 -0.097068325 -0.03564284
0.0465132 0.026832836 0.12759702 0.080665395 0.03166966 0.15809765 0.09666688 0.059867132
0.08914974 -0.07673107 -0.055017985 0.025819719 -0.0042724614 -0.088913865 0.11383414 -0.02788206
0.16872197 -0.021918647 -0.097739674 -0.047054987 0.06485072 -0.04566351 -0.08680297 0.03915497
0.07115674 -0.037951235 0.1744557 0.14790116 0.03352012 -0.042601086 -0.13785335 -0.008365782
