src/util/AI/checkpoints/022.ckpt (torch, 353508 bytes, 14 tensors)

lstm.weight_ih_l0 f4 [256, 12]
-0.04737812 0.080648504 -0.1580367 0.033661794 0.09488416 0.07923656 0.058579173 -0.01015307
-0.10687572 0.03599556 -0.1086053 -0.05216965 -0.16754162 -0.0008623312 -0.06659156 -0.1073165
-0.06885286 -0.06350387 0.12596786 0.11807219 0.08791838 0.035218492 -0.09121799 0.032165706
0.07069278 0.11867022 0.04116344 0.12713377 0.03667449 0.20280199 0.20406155 -0.102522366
0.015175689 -0.03467721 0.04399822 -0.087982036 0.015344076 0.04884193 0.06874374 -0.2072984
-0.19617178 -0.009115677 0.18525809 0.003953886 -0.1401523 -0.052420694 0.19620219 0.017970707
0.029289667 -0.07610688 -0.072481796 -0.052460052 0.04732416 -0.012890306 0.086917326 0.19595602
0.024544362 -0.07819747 -0.090146 -0.09469636 0.017115086 0.03883507 0.037664108 0.08754787
0.018240072 -0.0959743 0.24213965 0.29205856 -0.018575728 -0.04830843 -0.004431548 0.036101386
0.11722679 0.01747769 -0.15262628 -0.17443182 0.09747735 0.012730651 -0.05948591 0.12460316
-0.04962092 -0.060684707 0.01124782 -0.0007537199 -0.06247723 0.12721513 0.049929757 0.03945508
0.0804977 0.07780094 -0.008671641 0.1305924 -0.05439078 -0.028213607 -0.04640294 -0.052247282
-0.012057917 -0.004622894 -0.11604571 0.012719953 -0.009929821 0.05938472 0.21149793 0.27111357
0.020017734 -0.048723485 -0.094566494 -0.010371712 0.067604765 -0.036809746 0.10662685 0.070885494
-0.0451947 0.008694117 0.073803246 -0.15551864 -0.19841824 0.014542138 -0.027721697 0.124649405
0.028268222 -0.081204936 -0.114743635 -0.0505643 0.16444369 0.049479045 0.1163949 0.122159265
0.13359131 0.0049657575 0.09376875 -0.04784006 0.07794606 0.057188906 0.047861036 -0.088207446
0.053124797 0.01999995 -0.09676281 -0.18092655 -0.22046044 0.050840586 0.16673596 0.026597615
0.03607157 0.019097334 -0.13096555 -0.113296434 0.033541802 0.15384346 -0.07142014 -0.27201962
-0.08834288 0.030302089 -0.033711262 -0.10091774 0.018397799 0.055289287 0.0689091 -0.07358965
-0.12939756 -0.09763335 0.15431455 -0.11244537 -0.15811382 -0.07934955 0.0157168 0.036720008
-0.06618812 0.038278535 -0.08891961 0.10540369 -0.060355775 -0.07545432 0.10209969 0.040748645
-0.106827155 0.0076355017 -0.013848654 0.046360347 -0.061524596 -0.049625903 0.14638083 0.017520525
0.13103408 0.014607631 -0.11565794 -0.030915698 -0.038647607 -0.09115443 -0.051485125 0.13117644
-0.069534935 0.025885431 0.06024144 0.16473708 0.07289594 0.059384387 -0.054709133 -0.16756499
-0.044408664 -0.027875206 -0.093599245 -0.037920527 -0.07620478 -0.040798113 -0.03990094 -0.20843083
0.021084163 0.18527985 0.027175743 -0.11180743 0.07770898 -0.005388051 0.13563438 -0.12518911
-0.12948327 -0.005478259 -0.055244487 0.105073504 0.059491728 -0.1492952 -0.23377328 0.099020265
0.045697957 0.056900278 -0.19686171 -0.09677348 -0.21435505 0.014328775 -0.103135176 0.069458716
0.12731151 0.031507872 -0.0722628 -0.039393906 0.017827043 0.08584938 -0.07063245 0.010022771
-0.09228818 0.18022968 -0.10683087 -0.0066990717 -0.039253745 -0.083029255 -0.044669952 0.123945
-0.07393076 -0.08715749 0.04931329 0.016127782 -0.0016552778 0.06726167 -0.119287975 0.040763505
00000000: 8f0f 42bd 0b2b a53d 5fd4 21be f3e0 093d
00000010: a052 c23d c746 a23d b7f0 6f3d 1059 26bc
00000020: a8e1 dabd 1570 133d 756c debd d8af 55bd
00000030: 0890 2bbe 110e 62ba 2861 88bd c1c8 dbbd
00000040: ba02 8dbd 510e 82bd b8fd 003e d5cf f13d
00000050: 8d0e b43d 4441 103d 7fd0 babd 30c0 033d
00000060: 60c7 903d 5f09 f33d ff9a 283d 5b2f 023e
00000070: fd37 163d 53ab 4f3e 83f5 503e 3ff7 d1bd
00000080: 74a3 783c b109 0ebd 7a37 343d ed2f b4bd
00000090: b865 7b3c 7a0e 483d 85c9 8c3d 0846 54be
000000a0: 41e1 48be ec59 15bc 4cb4 3d3e 9a8f 813b
000000b0: 1684 0fbe 15b7 56bd 3ae9 483e 4e37 933c
000000c0: e2f0 ef3c eddd 9bbd 5671 94bd 5ae0 56bd
000000d0: fad6 413d dd31 53bc b601 b23d b2a8 483e
000000e0: 4211 c93c ff25 a0bd 779e b8bd 2af0 c1bd
000000f0: f034 8c3c 8611 1f3d ae45 1a3d 4c4c b33d
00000100: 346c 953c 2c8e c4bd 75f3 773e b388 953e
00000110: 202c 98bc 0fdf 45bd 8536 91bb 0cdf 133d
00000120: 9914 f03d 5f2d 8f3c 104a 1cbe 419e 32be
00000130: 34a2 c73d 3894 503c 7fa7 73bd f12f ff3d
00000140: 4e3f 4bbd 8790 78bd c748 383c 4995 45ba
00000150: 20e8 7fbd af44 023e 2583 4c3d a69b 213d
00000160: fadb a43d 1956 9f3d 8013 0ebc 04ba 053e
00000170: dec8 5ebd 3920 e7bc 0211 3ebd 3f01 56bd
00000180: 928e 45bc a57b 97bb 60a9 edbd 5a67 503c
00000190: b0b0 22bc 643d 733d ea92 583e 66cf 8a3e
000001a0: 3bfc a33c 4792 47bd 14ac c1bd 1dee 29bc
000001b0: 5e74 8a3d d1c5 16bd 2e5f da3d 6a2c 913d
000001c0: 141e 39bd c571 0e3c 2826 973d 4740 1fbe
000001d0: 272e 4bbe 2642 6e3c 9d18 e3bc 3048 ff3d
000001e0: c292 e73c c64e a6bd b6fe eabd 831c 4fbd
000001f0: ed63 283e 8aaa 4a3d 7360 ee3d a32e fa3d
00000200: 29cc 083e cbb7 a23b d509 c03d f0f3 43bd
00000210: 2fa2 9f3d ea3e 6a3d ef09 443d 1ba6 b4bd
00000220: 6399 593d efd6 a33c 952b c6bd cf44 39be
00000230: 62c0 61be 383e 503d d5bc 2a3e 3ee3 d93c
00000240: c8bf 133d 0372 9c3c d51b 06be f607 e8bd
00000250: 2163 093d 2489 1d3e b944 92bd 2846 8bbe
00000260: 1ded b4bd 163c f83c d214 0abd f6ad cebd
00000270: fbb6 963c 0577 623d 3720 8d3d 2cb6 96bd
00000280: cb80 04be fef3 c7bd a204 1e3e c249 e6bd
00000290: 97e8 21be 0482 a2bd 85c0 803c b867 163d
000002a0: a38d 87bd f4c9 1c3d 7c1b b6bd e4dd d73d
000002b0: 9e37 77bd cb87 9abd a419 d13d 0de8 263d
000002c0: 32c8 dabd 3b33 fa3b 77e5 62bc 59e4 3d3d
000002d0: 3701 7cbd 8844 4bbd dbe4 153e 3487 8f3c
000002e0: cc2d 063e d854 6f3c 12de ecbd eb42 fdbc
000002f0: f44c 1ebd 2caf babd 11e2 52bd 1e53 063e
00000300: 5568 8ebd af0d d43c babf 763d d6b0 283e
00000310: 774a 953d 0b3d 733d af16 60bd 2896 2bbe
00000320: dce5 35bd 8b5a e4bc f6b0 bfbd 8e52 1bbd
00000330: 4011 9cbd ec1b 27bd 2b6f 23bd e46e 55be
00000340: b2b8 ac3c 00ba 3d3e aa9f de3c 4bfb e4bd
00000350: e325 9f3d 3f8e b0bb bde3 0a3e 9331 00be
00000360: 4397 04be f882 b3bb 0b48 62bd c730 d73d
00000370: 99ad 733d d7e0 18be 4362 6fbe 23cb ca3d
00000380: c82d 3b3d 4410 693d 1e96 49be 2d31 c6bd
00000390: e47f 5bbe 3dc3 6a3c 8938 d3bd 5f40 8e3d
000003a0: f35d 023e 660e 013d 85fe 93bd 815b 21bd
000003b0: 050a 923c cdd1 af3d bfa7 90bd 8c36 243c
000003c0: 9601 bdbd 218e 383e 25ca dabd e383 dbbb
000003d0: 89c8 20bd 3e0b aabd d7f7 36bd e0d6 fd3d
000003e0: 0369 97bd a07f b2bd bbfc 493d 691e 843c
000003f0: e8f5 d8ba 7dc0 893d 414d f4bd a2f7 263d

lstm.weight_hh_l0 f4 [256, 64]
0.04428847 -0.065473236 0.160897 -0.019793684 0.06763918 0.1909885 -0.08778386 -0.019900016
0.116706066 0.18052167 0.079432376 0.026706591 0.19766407 -0.09942659 0.11809296 0.053792536
-0.046824053 0.061580546 0.0033067507 0.036073975 -0.033831485 -0.09060275 0.011507034 -0.02053617
0.16578786 -0.05286457 -0.13794145 -0.003804096 0.081378646 0.07334502 -0.12175115 -0.067968294
-0.068396196 0.0051980843 0.06826135 -0.11177746 -0.00021084752 0.033864997 -0.0705078 0.07183419
-0.06242179 -0.050150722 0.020502448 -0.11614594 -0.06893132 -0.17833331 -0.10784496 -0.1563934
0.08378208 0.07116672 0.097947694 0.058478057 -0.19303787 -0.005957252 0.21720509 -0.088580035
0.038668327 0.1182205 -0.13417646 -0.07167029 -0.060853563 0.15405516 0.023363398 0.108042054
0.050677422 -0.08522246 0.2616147 0.09563496 0.06531473 -0.09382495 -0.044648167 -0.059698492
-0.06575323 -0.15602568 0.10929414 0.021974398 0.010067566 -0.091384925 -0.17245619 0.07978729
0.13001636 -0.1993659 0.20093897 0.07309911 0.20647171 -0.11971533 -0.19561724 0.04244999
0.07409242 -0.15751584 0.053555876 0.15992746 -0.06873438 -0.23757845 -0.038565706 0.16891761
-0.14533271 -0.092658095 0.02375284 0.058179744 0.056532543 -0.067704946 -0.12005537 0.09363827
0.02825432 -0.17200081 -0.06433141 -0.17560795 -0.0756544 -0.14386153 -0.14230828 -0.047396004
-0.020562664 -0.011564072 0.071830176 0.00051350746 -0.17710753 0.09848589 -0.032011107 0.23072536
-0.0717144 0.11439645 -0.17075095 0.09836462 0.032143805 -0.06732927 0.07771747 -0.10840968
0.14256608 -0.20698275 -0.06787329 0.06854431 -0.059161555 0.057272136 -0.029127818 0.098549984
0.07138866 -0.0961509 0.04093024 0.06442473 0.17048153 -0.03368124 -0.05917877 0.08363767
-0.13209134 -0.030837923 0.20542003 0.0061638867 -0.10495142 0.031497624 -0.0007109532 0.04779035
-0.03173036 -0.15328255 -0.112418525 -0.0880052 0.0017361332 0.05357885 -0.17920013 -0.12224238
0.01568562 0.03202736 0.13008222 -0.033550385 0.048153248 0.1100722 -0.023284342 0.15867649
0.17585172 0.045479458 0.049392737 -0.014225394 0.02165859 0.11353376 -0.15583055 0.16585602
-0.07150673 0.009663164 0.005122877 -0.1658893 -0.004155678 -0.19900997 -0.003626931 -0.15522914
-0.1332576 0.0280751 0.09605311 0.0348522 -0.09389841 0.017278442 -0.113352396 0.23056342
0.26223707 -0.2706585 0.12704074 -0.2574817 -0.004545184 -0.23260473 -0.13709223 -0.08027387
0.15985806 -0.18508786 0.07703235 -0.005778695 -0.010858872 -0.027944544 -0.0024074246 0.15738541
0.062871166 0.0007471851 -0.1791259 0.19879566 -0.09209803 -0.16647078 -0.18067694 0.117426716
0.07665212 -0.1206952 -0.19204643 0.22142711 0.15846723 -0.10293283 0.16820501 0.0002962298
0.1737741 -0.004688116 0.0082936715 0.055247568 -0.109204374 -0.1122738 -0.028390601 0.09957318
0.20738815 0.1318848 0.01802366 -0.3115187 0.009516077 0.13170823 0.03480123 0.29929772
0.07759857 -0.18863359 -0.111336984 0.09000174 -0.0498466 0.12108971 0.08763101 0.035580207
0.08237729 0.021935565 -0.32377923 -0.1799748 0.09392621 -0.2750047 0.18533428 -0.008770672
00000000: d467 353d d516 86bd 2fc2 243e 5d26 a2bc
00000010: 6986 8a3d 7d92 433e 06c8 b3bd 5c05 a3bc
00000020: 9703 ef3d acda 383e 71ad a23d c8c7 da3c
00000030: 7368 4a3e 2ba0 cbbd b9da f13d 9055 5c3d
00000040: 94ca 3fbd e23b 7c3d 12b6 583b 4ec2 133d
00000050: e292 0abd ef8d b9bd 0088 3c3c 783b a8bc
00000060: 4bc4 293e 8588 58bd 8640 0dbe 244e 79bb
00000070: d9a9 a63d ea35 963d ab58 f9bd f632 8bbd
00000080: 4e13 8cbd b154 aa3b 9bcc 8b3d 95eb e4bd
00000090: f316 5db9 06b6 0a3d 6566 90bd ce1d 933d
000000a0: fead 7fbd d86a 4dbd c0f4 a73c ecdd edbd
000000b0: dd2b 8dbd 029d 36be d2dd dcbd 9725 20be
000000c0: f095 ab3d dbbf 913d cd98 c83d b086 6f3d
000000d0: b8ab 45be 0d35 c3bb 036b 5e3e 7369 b5bd
000000e0: ae62 1e3d 971d f23d 8e65 09be dfc7 92bd
000000f0: 9641 79bd a3c0 1d3e 9964 bf3c 2745 dd3d
00000100: 2193 4f3d 1d89 aebd 5df2 853e 43dc c33d
00000110: bbc3 853d 4c27 c0bd ffe0 36bd 6886 74bd
00000120: a1a9 86bd 32c5 1fbe 9bd5 df3d a703 b43c
00000130: 6ff2 243c 0528 bbbd 5b98 30be 8567 a33d
00000140: 0223 053e 9326 4cbe f2c2 4d3e fcb4 953d
00000150: 526d 533e 502d f5bd e34f 48be 0ae0 2d3d
00000160: c4bd 973d d54b 21be 685d 5b3d 06c4 233e
00000170: 9cc4 8cbd c447 73be 13f7 1dbd bdf8 2c3e
00000180: 19d2 14be 87c3 bdbd 5195 c23c e24d 6e3d
00000190: ab8e 673d e4a8 8abd 97df f5bd 6cc5 bf3d
000001a0: 9b75 e73c fb20 30be 30c0 83bd 92d2 33be
000001b0: b2f0 9abd 7050 13be 43b9 11be 5022 42bd
000001c0: 0873 a8bc 3c77 3dbc b31b 933d e79c 063a
000001d0: ad5b 35be f8b2 c93d 141e 03bd 4543 6c3e
000001e0: 00df 92bd b048 ea3d 56d9 2ebe 6473 c93d
000001f0: 39a9 033d eee3 89bd 562a 9f3d e505 debd
00000200: d8fc 113e 49f3 53be 2701 8bbd f660 8c3d
00000210: 6353 72bd 3096 6a3d 769d eebc 93d4 c93d
00000220: 3834 923d c3ea c4bd 78a6 273d 1df1 833d
00000230: b692 2e3e 57f5 09bd 7065 72bd 3a4a ab3d
00000240: f442 07be d09f fcbc a159 523e 6efa c93b
00000250: c5f0 d6bd a703 013d 435f 3aba d0bf 433d
00000260: b2f7 01bd 1af6 1cbe af3b e6bd 123c b4bd
00000270: f78e e33a 7f75 5b3d 3d80 37be 375a fabd
00000280: 217f 803c 1f2f 033d 4634 053e 216c 09bd
00000290: 573c 453d 896d e13d cebe bebc 177c 223e
000002a0: 7912 343e ab48 3a3d 0a50 4a3d a111 69bc
000002b0: 5b6d b13c 6384 e83d 0b92 1fbe 29d6 293e
000002c0: 1f72 92bd 3f52 1e3c cfdd a73b e2de 29be
000002d0: 5b2c 88bb 45c9 4bbe ceb1 6dbb 63f4 1ebe
000002e0: ae74 08be c1fd e53c 7eb7 c43d 2ec1 0e3d
000002f0: cf4d c0bd 858b 8d3c 4d25 e8bd d118 6c3e
00000300: f043 863e c093 8abe f816 023e a4d4 83be
00000310: c4ef 94bb ef2f 6ebe e861 0cbe a066 a4bd
00000320: d5b1 233e ac87 3dbe 23c3 9d3d 355b bdbb
00000330: 69e9 31bc f5eb e4bc e2c5 1dbb a429 213e
00000340: 99c2 803d bede 433a c86c 37be 1791 4b3e
00000350: e49d bcbd 5177 2abe 6003 39be 6b7d f03d
00000360: c9fb 9c3d 0c2f f7bd d2a7 44be cabd 623e
00000370: 3c45 223e 73ce d2bd ef3d 2c3e 4a4f 9b39
00000380: d6f1 313e c49e 99bb 2ee2 073c 464b 623d
00000390: 8ba6 dfbd ceef e5bd 6893 e8bc 06ed cb3d
000003a0: 8f5d 543e cf0c 073e 5ba6 933c 617f 9fbe
000003b0: 52e9 1b3c 86de 063e bc8b 0e3d 8d3d 993e
000003c0: 00ec 9e3d 2a29 41be a504 e4bd d552 b83d
000003d0: f32b 4cbd e2fd f73d e377 b33d 8dbc 113d
000003e0: 6db5 a83d 37b2 b33c 64c6 a5be 504b 38be
000003f0: 635c c03d 6bcd 8cbe 45c8 3d3e ddb2 0fbc

lstm.bias_ih_l0 f4 [256]
-0.036162447 -0.09508935 -0.07864263 -0.12984937 -0.092653476 0.031032545 0.0313915 0.08696863
0.14512774 -0.09583109 -0.018229736 0.0067289695 -0.049797058 -0.05684678 0.07719902 -0.031073855
-0.1336779 0.016334046 -0.03822597 0.012519507 -0.029705308 0.10145914 -0.030899592 -0.046642948
0.0695815 0.04333562 -0.21224967 0.047227778 0.079040505 -0.030556707 0.07592375 0.08523942
0.060842108 -0.05104881 -0.028363097 0.11400877 0.04751257 -0.08826015 -0.060278516 -0.16319238
0.0029441658 -0.021225577 0.1049947 0.06865813 0.02890054 -0.07574211 0.087203346 0.19826628
0.044560533 -0.09716751 -0.053462397 -0.069149174 -0.01648095 -0.07818619 0.06360622 -0.102875225
-0.26053056 -0.19835746 -0.0014599226 -0.07598326 -0.023236457 -0.009451916 0.15578173 0.102652505
-0.06664222 -0.062965125 -0.05809283 -0.1781185 0.10867403 -0.07295992 -0.018711267 -0.076959245
-0.096212886 -0.012057698 -0.010571958 0.04798268 -0.12373723 -0.13808592 -0.02125768 0.056600124
-0.06265578 -0.081766255 0.028562387 0.11224128 0.02870101 0.07092786 0.12339122 0.0944556
0.054953653 0.0708859 -0.03710268 0.060757123 0.042839404 0.17876498 -0.04517238 0.19778828
0.1331154 0.036522694 -0.00024314296 0.12959605 0.09671389 -0.22040308 0.05834594 -0.19364591
0.004620018 0.13696228 0.09189617 0.06665328 0.03843085 -0.063630566 0.086345635 0.012773926
0.0012204201 0.14101012 0.08450432 -0.08701749 0.1326087 0.017287355 -0.12128685 0.1539936
-0.02543696 -0.030649362 -0.0074249073 -0.13647404 -0.13095681 -0.07271859 0.11280457 -0.024664601
-0.008554372 -0.09009794 0.055694632 0.049138557 -0.028977145 0.09552862 -0.008591565 0.006434574
-0.16871408 -0.04008215 -0.118059784 -0.09378069 -0.0043849666 -0.008023139 2.003819e-05 0.040545497
0.04694138 0.09959595 -0.071243815 0.18566218 -0.09068847 0.07856162 0.13143155 0.16211218
0.009827051 0.053475697 0.18126665 0.062487777 -0.028393012 -0.10664113 -0.0021005513 -0.16392398
0.17515129 0.024658388 -0.041431442 -0.024438692 0.10049143 -0.10827561 -0.07959899 -0.057443433
0.11323349 0.040773924 -0.2834728 -0.042721007 0.019139554 -0.087717384 0.11417935 -0.06626579
0.04047043 0.17268246 0.0545181 0.16113487 0.02833479 0.08553709 0.03827475 -0.09715712
-0.05485671 0.12758411 0.16480064 0.057301976 -0.04001504 0.13172197 0.09994784 -0.081727795
0.05673962 -0.006814403 -0.0073851855 0.08499781 0.014853383 -0.060492504 -0.16828 0.08776091
-0.09669885 -0.039714884 -0.049528934 0.024674358 0.007113845 -0.007803797 -0.1711271 -0.0049489797
-0.11526725 -0.0035956388 -0.13867696 0.07321086 -0.12518382 -0.075375594 0.006339987 -0.0016044655
-0.13643372 0.08399804 0.11675372 0.026846353 0.092994 -0.028079445 0.014726903 -0.087745436
-0.017671352 -0.02608888 -0.032206528 -0.10683239 0.036906 -0.10766557 0.050530974 -0.038568024
0.00023627438 0.20353743 0.11544023 0.11536016 0.08292684 -0.04052745 -0.07746645 -0.022277452
-0.06860959 -0.09458686 -0.13230269 0.11992725 0.119838364 0.006983899 -0.07304729 -0.079069
-0.08882583 0.035709042 -0.16111392 0.11039544 0.09067493 -0.08191686 0.034796003 -0.11273458
00000000: 131f 14bd 35be c2bd 630f a1bd 3cf7 04be
00000010: 1bc1 bdbd f737 fe3c 6094 003d 9c1c b23d
00000020: 5e9c 143e 1743 c4bd 8756 95bc b07e dc3b
00000030: 00f8 4bbd 2bd8 68bd 851a 9e3d 998e febc
00000040: dce2 08be face 853c d692 1cbd 9e1e 4d3c
00000050: 8c58 f3bc cfc9 cf3d 2421 fdbc ad0c 3fbd
00000060: bf80 8e3d b180 313d fa57 59be ea71 413d
00000070: fddf a13d 0f52 fabc e97d 9b3d 0192 ae3d
00000080: 9335 793d 8f18 51bd ba59 e8bc 6e7d e93d
00000090: 8a9c 423d bdc1 b4bd 9be6 76bd e71b 27be
000000a0: e8f2 403b 43e1 adbc 7607 d73d a29c 8c3d
000000b0: d3c0 ec3c ae1e 9bbd ab97 b23d 5106 4b3e
000000c0: 1b85 363d c2ff c6bd 63fb 5abd 159e 8dbd
000000d0: 0f03 87bc 1520 a0bd fa43 823d 3fb0 d2bd
000000e0: 4364 85be 381e 4bbe e05a bfba 1d9d 9bbd
000000f0: 625a bebc 36dc 1abc 3f85 1f3e 7a3b d23d
00000100: b77b 88bd dcf3 80bd bff2 6dbd b264 36be
00000110: 7d90 de3d 036c 95bd 5f48 99bc cf9c 9dbd
00000120: 430b c5bd a78d 45bc 0136 2dbc 7d89 443d
00000130: f269 fdbd 6566 0dbe 9624 aebc 88d5 673d
00000140: ac51 80bd 1175 a7bd abfb e93c c2de e53d
00000150: 611e eb3c a042 913d 89b4 fc3d f071 c13d
00000160: 1517 613d a02c 913d fbf8 17bd 76dc 783d
00000170: 5f78 2f3d 2b0e 373e ac06 39bd 0389 4a3e
00000180: 674f 083e d298 153d 31f4 7eb9 d4b4 043e
00000190: ef11 c63d 58b1 61be 27fc 6e3d 1d4b 46be
000001a0: 8563 973b d73f 0c3e 0f34 bc3d 8481 883d
000001b0: ab69 1d3d be50 82bd fbd5 b03d bb49 513c
000001c0: 81f6 9f3a f564 103e 9a10 ad3d 3a36 b2bd
000001d0: 93ca 073e 369e 8d3c 3d65 f8bd 80b0 1d3e
000001e0: 2c61 d0bc 5f14 fbbc a34c f3bb dabf 0bbe
000001f0: 8b19 06be 7ced 94bd 1506 e73d 6b0d cabc
00000200: a327 0cbc 4585 b8bd 0e20 643d 8345 493d
00000210: 7a61 edbc 82a4 c33d a3c3 0cbc 1ed9 d23b
00000220: 62c3 2cbe 2e2d 24bd 54c9 f1bd 1710 c0bd
00000230: c4af 8fbb 7c73 03bc af17 a837 0913 263d
00000240: 9b45 403d f6f8 cb3d 47e8 91bd 3a1e 3e3e
00000250: e0ba b9bd eae4 a03d fe95 063e bc00 263e
00000260: a401 213c 5509 5b3d f79d 393e 2ff3 7f3d
00000270: 7698 e8bc aa66 dabd 67a9 09bb b0db 27be
00000280: dc5a 333e 6300 ca3c 04b4 29bd a733 c8bc
00000290: 73ce cd3d 9abf ddbd cc04 a3bd ce49 6bbd
000002a0: f6e6 e73d 8f02 273d 5923 91be 39fc 2ebd
000002b0: 8eca 9c3c 2ca5 b3bd ddd6 e93d 5cb6 87bd
000002c0: 52c4 253d acd3 303e 5f4e 5f3d 8a00 253e
000002d0: 5d1e e83c 122e af3d fcc5 1c3d 50fa c6bd
000002e0: 6eb1 60bd 69a5 023e 80c1 283e 7ab5 6a3d
000002f0: d0e6 23bd 20e2 063e 74b1 cc3d e760 a7bd
00000300: ce67 683d 5b4b dfbb 6dff f1bb 5513 ae3d
00000310: 9b5b 733c fdc6 77bd 9851 2cbe febb b33d
00000320: 0c0a c6bd 13ac 22bd dade 4abd e121 ca3c
00000330: 421b e93b feb6 ffbb f13b 2fbe 0d2b a2bb
00000340: 3c11 ecbd cfa4 6bbb 5501 0ebe 93ef 953d
00000350: 3030 00be 855e 9abd aabf cf3b ee4c d2ba
00000360: 48b5 0bbe 2a07 ac3d 931c ef3d e2ec db3c
00000370: a373 be3d dd06 e6bc 1c49 713c e1b3 b3bd
00000380: 83c3 90bc 59b8 d5bc feea 03bd f1ca dabd
00000390: bf2a 173d c47f dcbd 91f9 4e3d 81f9 1dbd
000003a0: 6cc0 7739 1e6c 503e ed6b ec3d f341 ec3d
000003b0: 8cd5 a93d 1d00 26bd bba6 9ebd 347f b6bc
000003c0: 2f83 8cbd c1b6 c1bd 5b7a 07be 6b9c f53d
000003d0: d16d f53d 31d9 e43b d199 95bd eeee a1bd
000003e0: 51ea b5bd a543 123d 0cfb 24be 0117 e23d
000003f0: c7b3 b93d 07c4 a7bd 4186 0e3d 63e1 e6bd

lstm.bias_hh_l0 f4 [256]
-0.13701288 -0.046039186 -0.047966357 -0.26446614 -0.13819958 -0.10032044 -0.019365808 0.12184715
0.1341559 0.07881997 0.09675223 5.3375225e-05 0.0811751 -0.005175801 0.095012255 0.06844143
0.02902482 -0.11105099 -0.13796245 0.1067783 0.016155217 0.1491431 0.06554237 -0.06395342
-0.09452421 -0.004150016 -0.043644078 -0.08135771 -0.060895164 0.017678807 0.037450522 -0.040369943
-0.1534558 -0.071175374 -0.09495032 0.050454818 -0.05555979 -0.02764999 0.04649592 0.009799848
-0.10380732 0.101979814 0.103641644 -0.14388475 0.09029349 -0.07618576 0.031690013 0.085368216
0.17697142 -0.028804649 -0.20633169 -0.1317658 0.010208829 0.066500045 0.04959659 -0.062166203
-0.07826915 -0.18248558 0.034969557 0.0639681 0.015902989 0.17673059 -0.039520543 0.08495873
-0.00072938704 0.041204665 -0.1711333 -0.031956814 -0.010038583 -0.120779596 -0.06913644 -0.07727461
-0.17459102 0.07087526 -0.07035237 -0.078836605 0.032850914 -0.02400414 -0.05705998 0.041155912
-0.013716302 0.06586667 0.05980091 0.03419216 -0.12118968 -0.044689916 0.13537887 -0.046213947
0.10498597 0.15145096 -0.12118661 -0.008389724 0.075144045 0.14769548 0.07585959 0.112504624
-0.080922045 0.005578264 0.107791364 -0.030694446 0.15116644 -0.12929507 0.07763527 -0.066582434
0.012603141 -0.067455426 -0.017977182 0.11958814 0.06727273 0.06218698 -0.003957705 0.13862479
0.051530976 0.2194308 0.088221595 0.0075114914 0.10020226 0.005797299 -0.03722662 0.10574309
-0.0487161 -0.028080663 0.032855283 -0.015965352 0.021141501 0.02518249 0.03756614 -0.06827631
0.08615096 0.09220975 -0.18761614 -0.014935694 0.15469831 -0.0670335 -0.0024350344 0.14831226
-0.17620051 -0.053549245 0.06370369 0.04665982 -0.19890642 -0.035977468 -0.018797928 -0.08253464
-0.017134614 0.18619704 0.013727254 -0.0072515756 -0.013676286 -0.039244868 0.21332258 0.119735315
0.06675423 0.115682654 0.018534081 -0.07667292 -0.081933744 -0.027142871 -0.0036613112 -0.03737537
0.10108542 0.14180705 -0.10439505 0.05143648 0.03660314 -0.021970443 -0.16168289 0.05666934
-0.042319935 0.031577434 -0.14939171 0.13944663 -0.07099414 0.14303449 0.1054549 -0.030428534
0.09513002 0.048620306 0.07815456 0.056396134 0.18066055 -0.031650044 0.027831271 -0.13815625
-0.11306038 0.18799 -0.03324575 0.03284586 -0.11251076 0.0630138 0.13546927 -0.112436764
0.13108356 0.10513674 -0.05824523 -0.056352742 0.16181192 -0.08244576 0.0036256695 -0.08071038
-0.13450319 0.08567624 0.1362028 -0.005321716 0.0077891448 0.06725391 -0.044093985 -0.004179289
0.05985688 0.08850078 0.027247183 -0.14943923 0.08042862 -0.05919483 0.11503087 0.0015272868
0.040259495 0.042187486 0.11112088 -0.11508403 0.1497541 0.08592577 -0.16053784 0.14883555
0.03925734 0.06523208 0.036800995 -0.051123593 -0.0279136 0.078652754 0.020752018 -0.01956758
-0.0637411 0.1744223 0.15574582 0.013546255 0.03039431 0.018332675 -0.034436766 0.12028586
0.018585468 0.0075334646 0.09295292 -0.015492311 -0.013152828 0.038105648 -0.07297852 0.07130632
-0.047421657 -0.041055102 0.0011659582 0.029276222 0.14108604 -0.015995765 0.029707866 0.09322774
00000000: 1b4d 0cbe 9693 3cbd 5f78 44bd 1b68 87be
00000010: 3184 0dbe ce74 cdbd 0ba5 9ebc 008b f93d
00000020: 2a60 093e 5d6c a13d 0826 c63d 36df 5f38
00000030: 213f a63d c499 a9bb c995 c23d 052b 8c3d
00000040: 76c5 ed3c b46e e3bd 0746 0dbe 95ae da3d
00000050: f257 843c f8b8 183e 143b 863d 03fa 82bd
00000060: e995 c1bd dbfc 87bb 22c4 32bd df9e a6bd
00000070: 356d 79bd 25d3 903c b865 193d f45a 25bd
00000080: 8423 1dbe 65c4 91bd 5075 c2bd b6a9 4e3d
00000090: aa92 63bd 3b82 e2bc 8172 3e3d 8b8f 203c
000000a0: ef98 d4bd cbda d03d 1242 d43d 8656 13be
000000b0: cbeb b83d 4807 9cbd 63cd 013d 88d5 ae3d
000000c0: ff37 353e baf7 ebbc 9d48 53be 9ded 06be
000000d0: ef42 273c 2d31 883d cb25 4b3d fda1 7ebd
000000e0: 934b a0bd 80dd 3abe 3d3c 0f3d b501 833d
000000f0: fc46 823c ddf8 343e 4be0 21bd d8fe ad3d
00000100: 5634 3fba 39c6 283d 913d 2fbe 26e5 02bd
00000110: de78 24bc 4b5b f7bd 6897 8dbd 2742 9ebd
00000120: fdc7 32be 0c27 913d e714 90bd 1675 a1bd
00000130: ae8e 063d 55a4 c4bc bab7 69bd 1a93 283d
00000140: 57ba 60bc 1be5 863d cdf1 743d 140d 0c3d
00000150: 4c32 f8bd c60c 37bd c2a0 0a3e d64a 3dbd
00000160: e202 d73d f615 1b3e af30 f8bd 0e75 09bc
00000170: 1fe5 993d 7c3d 173e 465c 9b3d d368 e63d
00000180: 75ba a5bd dfc9 b63b b8c1 dc3d eb72 fbbc
00000190: 60cb 1a3e ed65 04be 3eff 9e3d 5f5c 88bd
000001a0: 687d 4e3c 1226 8abd e244 93bc a0ea f43d
000001b0: 49c6 893d c6b7 7e3d a3af 81bb a8f3 0d3e
000001c0: 2512 533d 78b2 603e 86ad b43d f522 f63b
000001d0: d836 cd3d 45f7 bd3b f17a 18bd d58f d83d
000001e0: 898a 47bd 6b09 e6bc 4393 063d c5c9 82bc
000001f0: f130 ad3c 824b ce3c f4de 193d 73d4 8bbd
00000200: ea6f b03d 77d8 bc3d 721e 40be d7b4 74bc
00000210: 3c69 1e3e dc48 89bd 1995 1fbb 2bdf 173e
00000220: e86d 34be 7456 5bbd 1577 823d 5e1e 3f3d
00000230: 20ae 4bbe 1c5d 13bd 1dfe 99bc ec07 a9bd
00000240: e45d 8cbc 70aa 3e3e 47e8 603c a09e edbb
00000250: 8012 60bc 3abf 20bd 3c71 5a3e ca37 f53d
00000260: 71b6 883d 07eb ec3d c9d4 973c b106 9dbd
00000270: e1cc a7bd ba5a debc 9cf2 6fbb ea16 19bd
00000280: df05 cf3d de35 113e 12cd d5bd 0faf 523d
00000290: 2ded 153d 5cfb b3bc 3390 25be 1c1e 683d
000002a0: ab57 2dbd 5757 013d 24fa 18be 19cb 0e3e
000002b0: 6065 91bd a277 123e bdf8 d73d 4345 f9bc
000002c0: 87d3 c23d 1626 473d 7f0f a03d a2ff 663d
000002d0: 14ff 383e 7aa3 01bd 68fe e33c d578 0dbe
000002e0: 338c e7bd 7380 403e b22c 08bd 6189 063d
000002f0: 0b6c e6bd 610d 813d 75b8 0a3e 3f45 e6bd
00000300: c53a 063e ee51 d73d 8d92 6ebd 22d2 66bd
00000310: 06b2 253e 53d9 a8bd a49c 6d3b 7c4b a5bd
00000320: 34bb 09be 0677 af3d bf78 0b3e ca61 aebb
00000330: 153c ff3b 6bbc 893d e59b 34bd 6bf2 88bb
00000340: 7d2c 753d e63f b53d 7c35 df3c 9906 19be
00000350: c3b7 a43d 4776 72bd 4e95 eb3d 3e2f c83a
00000360: 24e7 243d c9cc 2c3d 5893 e33d 2db1 ebbd
00000370: 2459 193e daf9 af3d 0864 24be 5968 183e
00000380: 4ecc 203d 6698 853d a4bc 163d f966 51bd
00000390: 10ab e4bc b214 a13d 2300 aa3c 314c a0bc
000003a0: b28a 82bd c29b 323e d57b 1f3e 1df1 5d3c
000003b0: 7dfd f83c 682e 963c 910d 0dbd 6f58 f63d
000003c0: 8d40 983c 48db f63b 1a5e be3d 76d3 7dbc
000003d0: f67e 57bc ab14 1c3d c375 95bd 0c09 923d
000003e0: 363d 42bd 6529 28bd 11d3 983a b0d4 ef3c
000003f0: dc78 103e 8d09 83bc e95d f33c 2fee be3d

lstm.weight_ih_l1 f4 [256, 64]
-0.101729736 -0.20093463 -0.01755024 -0.172094 -0.083616346 0.123643175 0.016795777 0.059260502
0.046673283 -0.05749921 0.040441934 -0.11337458 0.1023492 -0.044633944 -0.081061035 -0.1308821
-0.047116585 -0.066656575 0.10306463 -0.020974925 -0.056258716 0.1279677 0.009967496 -0.17956609
-0.053311676 -0.022493077 -0.2399935 0.05572644 -0.017825594 -0.034834515 -0.1377677 -0.15980463
-0.037001375 -0.099598065 0.021425411 -0.037435923 -0.11468121 -0.040217154 -0.063873395 0.08176663
0.0026430364 0.050050903 -0.09694201 0.03682897 -0.14820129 -0.03737984 -0.040572055 -0.16071935
-0.037545003 0.07110955 -0.0982033 -0.0725504 0.08406223 0.11325231 0.037233133 0.09945526
0.05246359 0.015926061 -0.03846154 0.059041344 -0.10529696 0.07524243 0.07281623 0.16198276
-0.08411186 0.0035421618 0.051805995 0.059535205 -0.025750676 0.099288024 0.10128196 0.002645342
0.012061757 0.16176943 0.08593103 0.005877658 -0.10202616 -0.06665178 -0.020746097 -0.038421165
0.07090916 0.08385856 0.14984193 0.13140455 -0.16679436 0.18124846 0.05487397 0.04369044
0.03830468 0.054151054 -0.0035618013 0.12440984 0.13167834 0.1948363 0.097055405 -0.049327508
-0.13529044 -0.029182108 -0.009246116 0.05091808 0.041509524 0.13781181 -0.0821921 -0.17077859
-0.11150849 -0.1648572 -0.022809576 0.06681391 0.014512672 -0.026523527 -0.086695895 -0.16148342
-0.0057936427 0.26008415 -0.100214526 0.01862305 -0.009464079 -0.0007899563 0.14369735 -0.062293172
0.069242306 -0.02178063 -0.017063124 -0.15153193 0.09812368 -0.040002972 -0.01778732 0.051348057
-0.114234336 0.0897544 0.18657129 -0.0295777 0.034453418 -0.03384998 0.08969255 -0.1301832
-0.071818344 -0.039964046 -0.047455058 -0.0903797 0.053344544 0.08090885 -0.021776017 0.0014963206
0.059029374 -0.018027036 -0.1605334 -0.16268232 -0.020149156 -0.10377643 0.11656016 -0.035241872
-0.010324948 -0.114592254 -0.11096658 -0.04085285 -0.10165747 -0.00069544016 -0.14771594 0.03510234
0.081786655 0.027558515 0.0076173283 0.020434447 -0.068225324 0.09325039 -0.025717556 0.10572697
-0.20075825 -0.060833953 -0.096933 -0.0073490767 0.06491961 -0.14846724 -0.034737993 -0.004405375
-0.104995795 0.04429657 0.03364893 -0.06263701 -0.04862609 -0.26415262 -0.006097019 0.02217068
-0.11203885 0.057673242 -0.07284303 -0.052283905 -0.018781897 0.15189125 -0.0054317727 0.0403101
-0.00010750261 -0.08994386 0.057521302 -0.14933436 0.11658214 0.120012015 0.10011952 -0.1321462
-0.002062079 -0.10377207 0.065429315 0.0015243939 0.17438194 -0.08761108 0.12488331 -0.04672797
-0.18345831 -0.09298479 0.34808165 0.037702072 -0.00246489 -0.02800841 0.05431455 0.073741846
0.045823455 -0.03231533 -0.04422158 -0.14963397 0.14864425 0.028813118 -0.15425295 -0.03349757
0.03902469 -0.17087997 -0.044204514 0.13734467 0.0821959 0.034188606 0.054427102 0.060816955
-0.016702104 0.12371115 -0.067794256 -0.05680029 -0.044519275 0.043183517 0.0338126 -0.08330573
0.093479194 -0.08256238 0.13360237 0.017655326 0.13421476 -0.070874624 0.05114097 0.09396207
-0.030128289 -0.1421168 -0.009145117 0.0042896853 -0.016465073 0.07367095 0.1823024 0.09151686
00000000: ae57 d0bd cfc1 4dbe 85c5 8fbc 6939 30be
00000010: 0c3f abbd a238 fd3d 4c97 893c 24bb 723d
00000020: 7c2c 3f3d 4b84 6bbd 71a6 253d ef30 e8bd
00000030: 759c d13d 15d2 36bd 5403 a6bd f505 06be
00000040: 52fd 40bd 3e83 88bd 8c13 d33d 9bd3 abbc
00000050: 8a6f 66bd f709 033e b54e 233c 2ce0 37be
00000060: 585d 5abd 6743 b8bc dbc0 75be 6841 643d
00000070: fb06 92bc a3ae 0ebd fa12 0dbe d3a3 23be
00000080: c18e 17bd 12fa cbbd 5884 af3c 6956 19bd
00000090: fbdd eabd beba 24bd 0ed0 82bd 4375 a73d
000000a0: cb36 2d3b 2d02 4d3d 8889 c6bd f9d9 163d
000000b0: 14c2 17be 9a1b 19bd e22e 26bd 9d93 24be
000000c0: cac8 19bd e2a1 913d d01e c9bd 4e95 94bd
000000d0: d228 ac3d d4f0 e73d c581 183d 33af cb3d
000000e0: 10e4 563d 5f77 823c d989 1dbd 56d5 713d
000000f0: efa5 d7bd b418 9a3d ad20 953d cfde 253e
00000100: d742 acbd 9d23 683b 8632 543d 30db 733d
00000110: 15f3 d2bc 8557 cb3d eb6c cf3d 795d 2d3b
00000120: ad9e 453c e3a6 253e 9cfc af3d 5e99 c03b
00000130: 17f3 d0bd ba80 88bd b8f3 a9bc 835f 1dbd
00000140: d238 913d 09be ab3d 2a70 193e ea8e 063e
00000150: 24cc 2abe 3299 393e 87c3 603d bff4 323d
00000160: 5ee5 1c3d 7fcd 5d3d 1c6d 69bb 96ca fe3d
00000170: b0d6 063e 2b83 473e fcc4 c63d a40b 4abd
00000180: 9489 0abe 510f efbc 057d 17bc 7a8f 503d
00000190: e405 2a3d 8a1e 0d3e 5554 a8bd 95e0 2ebe
000001a0: 905e e4bd 53d0 28be 26db babc bbd5 883d
000001b0: 8fc6 6d3c de47 d9bc 9e8d b1bd e95b 25be
000001c0: 99d8 bdbb c029 853e 463d cdbd 5e8f 983c
000001d0: 390f 1bbc 1215 4fba 6625 133e 2027 7fbd
000001e0: e9ce 8d3d 4b6d b2bc f7c7 8bbc 302b 1bbe
000001f0: 11f5 c83d 28da 23bd b7b6 91bc 5752 523d
00000200: b1f3 e9bd 28d1 b73d 8b0c 3f3e ef4c f2bc
00000210: 071f 0d3d 47a6 0abd bab0 b73d bf4e 05be
00000220: 7f15 93bd 57b1 23bd 3c60 42bd fe18 b9bd
00000230: cf7f 5a3d 8ab3 a53d 9e63 b2bc 3020 c43a
00000240: c9c8 713d 6fad 93bc de62 24be 3296 26be
00000250: d80f a5bc bd88 d4bd 18b7 ee3d c859 10bd
00000260: f829 29bc 58af eabd 7242 e3bd 5155 27bd
00000270: cb31 d0bd 334e 36ba d942 17be 79c7 0f3d
00000280: c37f a73d 65c2 e13c c89a f93b 2466 a73c
00000290: b8b9 8bbd 0ffa be3d a0ad d2bc 6287 d83d
000002a0: 9293 4dbe 062d 79bd cf84 c6bd 86d0 f0bb
000002b0: 93f4 843d cc07 18be 6d49 0ebd f75a 90bb
000002c0: 0908 d7bd 5270 353d 76d3 093d d547 80bd
000002d0: 272c 47bd 033f 87be 81c9 c7bb 499f b53c
000002e0: a074 e5bd c73a 6c3d ba2e 95bd a627 56bd
000002f0: 7edc 99bc 6189 1b3e 03fd b1bb 341c 253d
00000300: 0673 e1b8 7d34 b8bd 759b 6b3d 1beb 18be
00000310: 9ec2 ee3d dcc8 f53d 770b cd3d 5551 07be
00000320: f223 07bb 7386 d4bd ceff 853d 2cce c73a
00000330: 2e91 323e 706d b3bd d2c2 ff3d d465 3fbd
00000340: 7fdc 3bbe cf6e bebd c237 b23e 7d6d 1a3d
00000350: fe89 21bb e571 e5bc ef78 5e3d f705 973d
00000360: 60b1 3b3d 145d 04bd b021 35bd a639 19be
00000370: 3336 183e 7d09 ec3c 7cf4 1dbe bf34 09bd
00000380: 5ad8 1f3d 29fb 2ebe cb0f 35bd 15a4 0c3e
00000390: 5356 a83d 5a09 0c3d f4ee 5e3d 331b 793d
000003a0: dad2 88bc 455c fd3d b7d7 8abd 6ca7 68bd
000003b0: d859 36bd 33e1 303d 157f 0a3d 329c aabd
000003c0: 0572 bf3d 7716 a9bd 0fcf 083e e7a1 903c
000003d0: 986f 093e b726 91bd 3279 513d 306f c03d
000003e0: 9acf f6bc 1187 11be 67d5 15bc 7d90 8c3b
000003f0: c3e1 86bc cce0 963d 7bad 3a3e 316d bb3d

lstm.weight_hh_l1 f4 [256, 64]
-0.042262614 -0.040172763 0.09247458 -0.023340076 0.087108426 -0.27506852 0.075012825 -0.017563647
0.1153798 0.103789784 0.030839572 0.11081769 -0.07561892 -0.18222484 -0.063456796 -0.16928375
-0.06085109 -0.01641172 -0.019305252 -0.092189 0.034354147 0.052316207 0.10133591 0.026648674
0.19339609 -0.099130444 -0.037063126 0.09694734 -0.14818351 0.059498724 0.08356349 0.09542839
0.014175196 0.041816626 0.0083248615 0.06358445 0.06134186 0.049445607 0.09375918 -0.037683744
-0.0032176473 0.16305707 -0.023906134 0.03723321 0.04251674 0.012292677 0.12672089 -0.12760785
-0.08867219 0.15659812 0.13505358 0.10259988 -0.17035916 -0.022307264 0.016779281 -0.08958667
-0.17316875 -0.09288921 0.020942857 -0.11232955 -0.071134895 -0.05520981 0.11003122 0.214619
0.026936047 0.04147345 0.13966408 -0.075743444 0.007485755 -0.082563765 -0.11454972 0.03025057
-0.05052415 -0.19601937 0.10599588 -0.17254478 0.068044946 -0.0339547 -0.23896703 -0.10237976
0.14400363 0.016839148 0.0784632 -0.120370835 -0.15987632 0.056818344 -0.011553135 0.005833716
-0.096914664 0.023937004 0.08012288 -0.10959056 0.007882606 -0.013611917 -0.084114924 -0.014833441
0.030290369 0.074728705 -0.14079498 -0.050679035 -0.035432648 -0.066752724 -0.06422843 -0.19906928
-0.10849444 -0.20810035 0.03619386 -0.22179033 -0.049278375 -0.105819516 -0.053588785 0.04144177
-0.2251166 -0.07992949 0.105947345 -0.07105278 0.13749272 -0.0015473476 0.11457238 0.08171179
0.11715926 -0.0007280368 -0.009329612 0.072256155 -0.06015481 0.074205235 -0.021478755 -0.1713041
0.107678235 0.04274986 0.023114279 0.018968811 0.043717828 -0.18493941 -0.009809456 0.031741712
0.04387456 -0.090335265 0.045243263 -0.07788401 0.002113928 0.022537285 -0.006832777 0.07200126
0.11413569 0.04079365 0.06078907 0.11083324 0.01967452 -0.043560192 0.08971278 0.046025254
-0.045406103 0.10188852 0.21332745 -0.026659606 -0.082640775 -0.0928898 0.0786596 -0.055040784
0.08606536 -0.14380613 -0.06998004 0.24205415 0.091310985 -0.048393957 0.105954096 -0.1923868
0.11178011 -0.19281062 0.11553962 -0.026029935 0.19334812 -0.07090795 0.038036507 0.085253276
-0.028714936 -0.0879531 0.07309515 -0.041479565 0.058210522 5.911834e-05 0.0049562156 -0.055963654
-0.088219605 0.051028676 0.060649995 -0.09109704 -0.10815735 -0.08867296 -0.023432536 -0.004582388
-0.06321983 -0.18503107 0.060534537 -0.041644804 -0.12120981 -0.031954553 -0.047767233 -0.084179536
0.20443612 -0.0100922715 0.15196088 0.08248108 -0.05831034 -0.2015515 0.16299412 -0.17980054
0.10903423 -0.083561584 -0.025722176 0.07369382 0.12382805 0.062247988 0.19185068 -0.086134605
0.059527833 0.13838035 0.20273982 -0.047865238 -0.097044826 -0.058073714 -0.006150329 0.1194248
0.0048230947 0.12661351 -0.0735278 0.15661654 0.13664383 0.25194344 0.21903743 -0.1059774
0.034886368 -0.08734691 -0.04316865 0.0013320158 0.13211352 0.03190427 0.20607765 -0.1497498
-0.06882796 -0.021258011 0.061272003 0.040850777 -0.18351349 0.059472438 -0.0386746 -0.017341223
-0.22123839 -0.006187677 0.041145544 -0.17035677 -0.21555528 -0.031698436 0.019458327 0.061732918
00000000: 901b 2dbd 328c 24bd 5063 bd3d b033 bfbc
00000010: e765 b23d c8d5 8cbe 53a0 993d a3e1 8fbc
00000020: 3f4c ec3d bd8f d43d 45a3 fc3c 63f4 e23d
00000030: 18de 9abd 2699 3abe a3f5 81bd b858 2dbe
00000040: fe3e 79bd df71 86bc 0c26 9ebc 96cd bcbd
00000050: efb6 0c3d 8549 563d 3489 cf3d 524e da3c
00000060: a009 463e e704 cbbd 81cf 17bd 548c c63d
00000070: 6bbd 17be efb4 733d 5623 ab3d f66f c33d
00000080: 153f 683c e947 2b3d 0065 083c 9038 823d
00000090: 9a41 7b3d 7a87 4a3d d004 c03d 455a 1abd
000000a0: 2adf 52bb 6ff8 263e ccd6 c3bc da81 183d
000000b0: 0826 2e3d 3967 493c 1fc3 013e a2ab 02be
000000c0: c499 b5bd 425b 203e 7c4b 0a3e e31f d23d
000000d0: a272 2ebe b9bd b6bc b474 893c 3779 b7bd
000000e0: 2653 31be b33c bebd 5b90 ab3c 090d e6bd
000000f0: 2caf 91bd af23 62bd 0c58 e13d 15c5 5b3e
00000100: fca8 dc3c 10e0 293d 1a04 0f3e 611f 9bbd
00000110: 104b f53b 3117 a9bd 0b99 eabd 0bd0 f73c
00000120: 69f2 4ebd 4db9 48be 5e14 d93d 94af 30be
00000130: 265b 8b3d 1514 0bbd c6b3 74be 7bac d1bd
00000140: b075 133e 41f2 893c 50b1 a03d fc84 f6bd
00000150: 9eb6 23be 5aba 683d 5c49 3dbc c228 bf3b
00000160: 327b c6bd 8917 c43c 7717 a43d 0471 e0bd
00000170: 0c26 013c 8504 5fbc 7244 acbd f607 73bc
00000180: 8223 f83c 5d0b 993d 8f2c 10be d294 4fbd
00000190: d321 11bd a7b5 88bd 328a 83bd d1d8 4bbe
000001a0: 5532 debd 4218 55be 0340 143d 011d 63be
000001b0: 1fd8 49bd e7b7 d8bd ea7f 5bbd d8be 293d
000001c0: f784 66be 13b2 a3bd ecfa d83d 1f84 91bd
000001d0: e4ca 0c3e 5fd0 caba eda4 ea3d 8358 a73d
000001e0: 32f1 ef3d b9d9 3eba 3bdb 18bc 09fb 933d
000001f0: e464 76bd eaf8 973d 37f4 afbc 586a 2fbe
00000200: 6886 dc3d 7a1a 2f3d 285a bd3c 7b64 9b3c
00000210: 7711 333d c260 3dbe d7b7 20bc 9903 023d
00000220: d0b5 333d b201 b9bd 0051 393d a781 9fbd
00000230: d489 0a3b 1da0 b83c 7de5 dfbb 6675 933d
00000240: f9bf e93d 3e17 273d f6fd 783d 8afc e23d
00000250: 752c a13c 2c6c 32bd 56bb b73d fa84 3c3d
00000260: c0fb 39bd eeaa d03d 8372 5a3e 3f65 dabc
00000270: 913f a9bd 023d bebd 4918 a13d 7272 61bd
00000280: 0943 b03d ea41 13be b251 8fbd 0bdd 773e
00000290: 4101 bb3d be38 46bd 76fe d83d 0c01 45be
000002a0: f8ec e43d 2670 45be 09a0 ec3d bb3c d5bc
000002b0: 0dfd 453e 3038 91bd 2bcc 1b3d 4599 ae3d
000002c0: 963b ebbc c120 b4bd e9b2 953d 7ae6 29bd
000002d0: 286e 6e3d d6f5 7738 c067 a23b 253a 65bd
000002e0: 7bac b4bd 7203 513d 216c 783d 1691 babd
000002f0: 9a81 ddbd 2b9a b5bd 97f5 bfbc db27 96bb
00000300: 6679 81bd c978 3dbe 10f3 773d be93 2abd
00000310: d93c f8bd c7e2 02bd 93a7 43bd 5266 acbd
00000320: b457 513e 0e5a 25bc a29b 1b3e d7eb a83d
00000330: d3d6 6ebd 8463 4ebe eee7 263e a21d 38be
00000340: 574d df3d 5622 abbd 50b7 d2bc c9ec 963d
00000350: 9099 fd3d bff7 7e3d 8174 443e 5767 b0bd
00000360: 75d3 733d 94b3 0d3e 079b 4f3e 570e 44bd
00000370: 70bf c6bd b4de 6dbd b388 c9bb fd94 f43d
00000380: 0d0b 9e3b f9a6 013e be95 96bd 1660 203e
00000390: 5cec 0b3e bbfe 803e 594b 603e ae0a d9bd
000003a0: 02e5 0e3d f0e2 b2bd 9cd1 30bd 0997 ae3a
000003b0: c448 073e 0dae 023d 0506 533e 0358 19be
000003c0: acf5 8cbd 4825 aebc 5af8 7a3d 2553 273d
000003d0: f6ea 3bbe 5f99 733d 4269 1ebd 2e0f 8ebc
000003e0: 518c 62be ffc1 cabb 3b88 283d 0172 2ebe
000003f0: 86ba 5cbe 38d6 01bd 1267 9f3c a8db 7c3d

lstm.bias_ih_l1 f4 [256]
0.064321704 -0.07163481 -0.06590142 -0.059495453 -0.012924669 -0.054753844 -0.021346865 0.15835287
-0.04981026 -0.18444605 -0.10715039 -0.10320647 0.0690524 -0.08336584 -0.11045408 -0.07678927
0.045968078 0.028956141 0.055896197 -0.10681846 0.06919051 -0.08511091 0.028730886 -0.010261245
0.09981081 0.034375258 -0.00561441 0.027157106 0.12811814 -0.013849058 0.116101235 0.15323801
-0.16357094 -0.18569323 -0.12826164 -0.06916258 -0.05847846 -0.09513832 -0.08218867 0.07339661
-0.016119104 -0.07846963 0.089753345 0.07873107 -0.10819987 -0.070036 -0.09079207 -0.023169436
0.09597699 -0.116802044 -0.00068302057 0.03442354 -0.06987584 -0.0003126441 -0.00062360003 -0.028916761
-0.070366494 -0.12746057 -0.035653338 0.025528474 0.11380128 -0.06542434 0.04443943 0.08415013
-0.03585741 -0.051387906 -0.10629517 -0.14126201 -0.007785228 -0.08470846 -0.10446431 0.084580086
0.13459142 0.066705436 0.045409665 -0.00305514 -0.008076035 0.03038467 -0.045125604 0.14586572
-0.028482763 -0.027600044 0.11554115 0.07308686 -0.044697907 0.057921223 0.013041281 0.024745066
0.025906688 0.0015146194 -0.030135408 -0.024849012 0.079257146 -0.054217868 0.08799414 -0.073585875
0.076664545 -0.11535476 0.04907625 -0.061605148 -0.11843343 0.20051725 0.02781013 0.12575454
-0.04159714 0.059118796 -0.07323156 0.014243393 0.05861038 -0.12050916 0.09900471 -0.039576083
0.13047539 0.07784485 0.024909792 0.11581526 -0.0414984 -0.009106033 0.03562313 -0.1516081
-0.08929958 0.032715216 -0.026730122 -0.0025818301 0.054497834 0.038250394 -0.022086866 0.09666719
-0.09689093 -0.06408663 -0.055469554 0.004656395 -0.011053394 0.08622196 0.1440317 0.0354541
0.09153565 -0.05796551 0.06092752 0.07182176 -0.121995114 -0.10202794 -0.059047848 0.06915201
0.011937756 -0.100104876 0.11939848 0.06523617 -0.061008867 -0.03744986 -0.054486733 0.041913856
0.05518938 0.042053994 0.07765155 -0.014493914 -0.11756225 -0.026927805 -0.15101989 -0.11307406
0.08907328 0.038163632 0.13139556 0.06270753 0.13299601 -0.077884376 0.03596594 0.062765524
-0.06971967 0.10929994 -0.15096772 0.042803314 -0.019824106 0.08420304 0.08058901 0.07666722
0.043789376 0.1098723 -0.09699749 0.06184573 -0.11118343 -0.13686143 -0.030047448 -0.10624527
-0.055647176 -0.11636767 0.11729532 -0.076324835 0.09733878 -0.081679866 -0.048179734 0.006909817
0.020611443 -0.107311465 0.0059354776 -0.14563552 -0.035488218 0.05875085 0.11315505 0.20681903
-0.062960066 0.06282713 0.041423704 -0.01413331 0.05080195 0.078161016 0.04218622 0.01715902
0.07502455 0.081719674 0.019673852 -0.07055399 0.10547506 -0.029901732 0.05332794 -0.006529876
-0.0034884068 0.05063347 0.08048042 0.04811463 -0.068290085 -0.0153697245 -0.096191585 -0.033808097
0.048508897 0.028184494 0.12837137 0.08027774 0.033199735 0.15590173 0.09729027 0.059324495
0.090233274 -0.076857485 -0.05505186 0.025351252 -0.0039011217 -0.088300586 0.11382185 -0.027827129
0.16983575 -0.021900274 -0.09833353 -0.04747271 0.066264704 -0.04459891 -0.087091714 0.039490607
0.071420774 -0.03837676 0.17405902 0.14820807 0.032246366 -0.04251971 -0.13676059 -0.006972619
00000000: 19bb 833d 45b5 92bd 53f7 86bd 81b1 73bd
00000010: fec1 53bc 9145 60bd 9fdf aebc 4127 223e
00000020: d805 4cbd 6ddf 3cbe aa71 dbbd ea5d d3bd
00000030: 586b 8d3d b6bb aabd c035 e2bd b143 9dbd
00000040: 0649 3c3d 6e35 ed3c 69f3 643d a3c3 dabd
00000050: c1b3 8d3d a14e aebd 095d eb3c c81e 28bc
00000060: 9c69 cc3d 12cd 0c3d 16f9 b7bb 9478 de3c
00000070: 6731 033e 29e7 62bc 7cc6 ed3d 6dea 1c3e
00000080: 247f 27be 5e26 3ebe 0557 03be 1ca5 8dbd
00000090: 1c87 6fbd e1d7 c2bd 8952 a8bd f650 963d
000000a0: 360c 84bc afb4 a0bd 9ad0 b73d c13d a13d
000000b0: e597 ddbd 096f 8fbd 31f1 b9bd d4cd bdbc
000000c0: 968f c43d e935 efbd bc0c 33ba b3ff 0c3d
000000d0: 101b 8fbd 61ea a3b9 1779 23ba d8e2 ecbc
000000e0: 4f1c 90bd 0685 02be 3c09 12bd 1721 d13c
000000f0: a510 e93d 32fd 85bd 1f06 363d e756 ac3d
00000100: 38df 12bd 207c 52bd 48b1 d9bd fda6 10be
00000110: 3a1b ffbb a17b adbd 62f1 d5bd 5338 ad3d
00000120: 55d2 093e dc9c 883d 7cff 393d be38 48bb
00000130: 5951 04bc 45e9 f83c a0d5 38bd d35d 153e
00000140: af54 e9bc 7d19 e2bc d7a0 ec3d 90ae 953d
00000150: 2715 37bd ce3e 6d3d 19ab 553c 2ab6 ca3c
00000160: 433a d43c 3286 c63a 88de f6bc 2890 cbbc
00000170: 9251 a23d 8e13 5ebd 4636 b43d 31b4 96bd
00000180: 4d02 9d3d 1e3f ecbd 2e04 493d ae55 7cbd
00000190: 3a8d f2bd 6554 4d3e 12d2 e33c ccc5 003e
000001a0: c361 2abd 8d26 723d 6efa 95bd 1f5d 693c
000001b0: 7011 703d 82cd f6bd fbc2 ca3d 881a 22bd
000001c0: 579b 053e 1f6d 9f3d 9f0f cc3c 8d30 ed3d
000001d0: 3afa 29bd 7831 15bc 8fe9 113d 273f 1bbe
000001e0: b3e2 b6bd 6400 063d 21f9 dabc ec33 29bb
000001f0: 1f39 5f3d 72ac 1c3d 84ef b4bc 73f9 c53d
00000200: c06e c6bd da3f 83bd 0b34 63bd ac94 983b
00000210: 4b19 35bc 2495 b03d 0c7d 133e 5238 113d
00000220: 0b77 bb3d 3e6d 6dbd 238f 793d 4917 933d
00000230: 93d8 f9bd 06f4 d0bd 28dc 71bd 929f 8d3d
00000240: 9496 433c c903 cdbd 3187 f43d 8b9a 853d
00000250: 6fe4 79bd 0665 19bd 7b2d 5fbd ddad 2b3d
00000260: 420e 623d cf40 2c3d c707 9f3d e277 6dbc
00000270: 7ac4 f0bd b397 dcbc f5a4 1abe 5f93 e7bd
00000280: 0d6c b63d 7851 1c3d 8f8c 063e ce6c 803d
00000290: 1b30 083e d881 9fbd 0651 133d 368b 803d
000002a0: 30c9 8ebd a6d8 df3d 4897 1abe 8752 2f3d
000002b0: 2a66 a2bc a572 ac3d da0b a53d b403 9d3d
000002c0: 7d5c 333d ba04 e13d 9fa6 c6bd f351 7d3d
000002d0: 23b4 e3bd 6725 0cbe 1126 f6bc 1f97 d9bd
000002e0: 4bee 63bd 2c52 eebd 8738 f03d 3250 9cbd
000002f0: 8e59 c73d c647 a7bd 1d58 45bd bf6b e23b
00000300: 54d9 a83c 1dc6 dbbd 657e c23b 7a21 15be
00000310: 185c 11bd bba4 703d d6bd e73d 5ec8 533e
00000320: 35f1 80bd 83ab 803d e7ab 293d 668f 67bc
00000330: b515 503d e212 a03d 75cb 2c3d 1391 8c3c
00000340: 79a6 993d a55c a73d 0f2b a13c 9c7e 90bd
00000350: 4f03 d83d 7af4 f4bc 666e 5a3d 92f8 d5bb
00000360: c19d 64bb 0b65 4f3d ebd2 a43d d913 453d
00000370: acdb 8bbd 4cd1 7bbc 1800 c5bd 5c7a 0abd
00000380: 44b1 463d 2be3 e63c c973 033e a868 a43d
00000390: 72fc 073d b4a4 1f3e 1f40 c73d 3efe 723d
000003a0: 39cc b83d 7567 9dbd 0f7e 61bd 6ead cf3c
000003b0: f6a9 7fbb f0d6 b4bd 6e1b e93d b8f5 e3bc
000003c0: 6ce9 2d3e 3468 b3bc 1763 c9bd bf72 42bd
000003d0: cab5 873d 59ad 36bd 245d b2bd e7c0 213d
000003e0: 0e45 923d f330 1dbd 873c 323e dbc3 173e
000003f0: c414 043d 2629 2ebd f80a 0cbe 917a e4bb

lstm.bias_hh_l1 f4 [256]
0.07682837 -0.1277181 -0.011569384 -0.089985676 -0.003277716 0.0036144098 0.01650385 0.23196025
-0.029274303 -0.08758596 -0.10205138 0.020655466 0.09862904 -0.07835697 -0.108529985 -0.07607058
-0.14708576 -0.11317108 0.032171946 -0.08711588 -0.025678001 0.053143978 0.119448885 0.013374286
0.013059076 0.06767619 -0.020678379 -0.055319276 0.05011752 -0.1371482 0.103572026 0.024201903
-0.09899018 0.012120395 -0.015511091 -0.0728719 0.085805915 -0.027914252 -0.06875505 -0.13192403
-0.08011111 0.06211271 0.08905104 0.08366955 -0.02072526 0.0002660722 0.041133847 -0.15526588
0.04518335 -0.09046077 -0.022166153 0.15405668 -0.10235223 0.0021921457 -0.103858404 -0.02933209
-0.044615224 -0.0568623 -0.02565378 0.014116296 0.009474014 -0.0906458 -0.025793178 0.07110562
0.14900869 -0.010109006 -0.077720314 0.0076461798 0.064308695 0.10941029 -0.01454309 -0.08754894
0.039920747 -0.107778445 -0.052406378 0.0047714394 -0.057546757 0.003985481 -0.05090428 -0.08315229
-0.16437267 0.09141858 0.00013530793 -0.021150101 0.12387027 0.15139075 -0.028718876 0.032341503
0.17354852 0.015348056 0.024027806 0.07835151 0.022034299 -0.08639496 -0.07934123 -0.038859744
0.07721231 0.028274868 0.15175077 0.054445885 -0.021143107 0.10345531 0.009155523 0.17646517
0.10795272 0.0635639 -0.06879427 -0.045814134 -0.025451839 0.043262314 -0.038359776 0.12286844
0.1444396 0.06726945 0.009855248 0.07560589 -0.061681196 0.13520384 -0.100554 -0.14437534
0.07656584 0.20778815 0.01077525 -0.04099961 0.024526527 -0.021575358 0.027476382 -0.120861866
0.03797511 0.035765093 0.026749259 -0.086649135 0.005946931 -0.02961576 0.035515863 -0.060960546
-0.087411635 -0.0074229916 0.005871538 0.0022810844 -0.026343305 -0.05433748 0.084005564 0.07224806
0.061284147 0.053703915 -0.04702099 0.047774322 -0.11433904 -0.015110556 -0.1212088 0.022063484
0.0008901013 0.0022328165 -0.10243579 0.013144845 -0.07075411 -0.11254423 0.065737985 -0.015711412
0.021251878 0.044067383 0.08467252 0.08954497 -0.054470494 0.12140548 0.14096469 0.13357152
-0.06356454 0.046190124 0.07584111 0.12744805 -0.07761223 -0.053846583 -0.05938463 -0.11153671
0.14795347 0.10418236 0.04077886 0.096972406 0.062130123 0.059087317 -0.11160591 0.028296942
-0.08290803 -0.054136794 -0.030157007 -0.0015150113 -0.0034862752 -0.053928986 -0.09922681 0.10707123
0.1023335 0.08620242 0.10885846 -0.11537129 0.09921393 0.10454922 0.043233577 0.22955747
0.023317326 -0.028462209 -0.032589577 -0.10519168 0.035805292 0.052888926 -0.045541342 -0.06478613
0.06237013 -0.016651886 0.16385594 -0.08724317 -0.002195031 -0.025967313 0.072026655 -0.106558554
-0.046704505 0.0056104106 0.03951716 0.15911008 0.17122126 0.024971772 0.061968528 -0.045659065
-0.019791262 0.054953888 -0.08697376 0.12452456 0.1906937 0.070830315 0.12142653 0.11172992
0.004807273 -0.065299444 -0.064267665 -0.10067758 -0.012191805 -0.054208867 -0.023847852 0.10107052
0.10452485 -0.034154516 -0.085219674 -0.020959163 0.035368703 0.062595665 0.05698415 -0.10423588
0.1085595 -0.048871007 0.06743997 -0.03726508 0.061010297 -0.097670466 -0.036349747 -0.13495997
00000000: 3158 9d3d 89c8 02be 838d 3dbc 694a b8bd
00000010: f3ce 56bb bcdf 6c3b 1533 873c fd86 6d3e
00000020: aad0 efbc 4560 b3bd 5000 d1bd a735 a93c
00000030: 06fe c93d 9e79 a0bd f844 debd e4ca 9bbd
00000040: a69d 16be 3dc6 e7bd bbc6 033d cf69 b2bd
00000050: ac5a d2bc 80ad 593d 9ea1 f43d d21f 5b3c
00000060: bcf5 553c d099 8a3d b465 a9bc 7796 62bd
00000070: 0748 4d3d 9470 0cbe 921d d43d 1243 c63c
00000080: 5dbb cabd 9f94 463c 3b22 7ebc dd3d 95bd
00000090: 03bb af3d 6eac e4bc 73cf 8cbd 1817 07be
000000a0: 4b11 a4bd e669 7e3d 6460 b63d f15a ab3d
000000b0: 05c8 a9bc 9b7f 8b39 f77b 283d 05fe 1ebe
000000c0: 2d12 393d 7f43 b9bd cb95 b5bc 09c1 1d3e
000000d0: 0c9e d1bd 1aaa 0f3b b7b3 d4bd da49 f0bc
000000e0: 74be 36bd 71e8 68bd e027 d2bc 0948 673c
000000f0: e538 1b3c 81a4 b9bd 374c d3bc d39f 913d
00000100: bc95 183e 3fa0 25bc d42b 9fbd ce8c fa3b
00000110: 47b4 833d 8112 e03d 2446 6ebc dc4c b3bd
00000120: f083 233d f2ba dcbd 12a8 56bd bc59 9c3b
00000130: 26b6 6bbd a398 823b 0281 50bd bf4b aabd
00000140: 4f51 28be aa39 bb3d 72e1 0d39 fa42 adbc
00000150: b2af fd3d 2d06 1b3e d943 ebbc 8678 043d
00000160: b4b6 313e 6a76 7b3c f6d5 c43c c276 a03d
00000170: 4681 b43c d7ef b0bd a87d a2bd 652b 1fbd
00000180: 7d21 9e3d b2a0 e73c 8e64 1b3e a602 5f3d
00000190: 4f34 adbc 61e0 d33d 0c01 163c 49b3 343e
000001a0: 5116 dd3d ca2d 823d 03e4 8cbd 9aa7 3bbd
000001b0: 6080 d0bc d333 313d 241f 1dbd 73a2 fb3d
000001c0: f9e7 133e 91c4 893d e877 213c 43d7 9a3d
000001d0: 6ca5 7cbd e072 0a3e 41ef cdbd 21d7 13be
000001e0: 8dce 9c3d 6bc6 543e ad8a 303c 35ef 27bd
000001f0: dbeb c83c cebe b0bc 2616 e13c 6d86 f7bd
00000200: ca8b 1b3d 6b7e 123d 4321 db3c 1a75 b1bd
00000210: 79de c23b c09c f2bc 1579 113d c4b1 79bd
00000220: df04 b3bd 913c f3bb 0866 c03b 3f7e 153b
00000230: eacd d7bc fa90 5ebd 1c0b ac3d caf6 933d
00000240: 1605 7b3d a3f8 5b3d 1599 40bd 02af 433d
00000250: 962a eabd 4492 77bc 523c f8bd 7bbe b43c
00000260: b055 693a 7254 123b dbc9 d1bd 7a5d 573c
00000270: 88e7 90bd 977d e6bd a3a1 863d 38b5 80bc
00000280: 6b18 ae3c 0080 343d c968 ad3d 5a63 b73d
00000290: 741c 5fbd 70a3 f83d 0c59 103e f9c6 083e
000002a0: 202e 82bd db31 3d3d 9552 9b3d be81 023e
000002b0: 29f3 9ebd 3c8e 5cbd 4c3d 73bd 5c6d e4bd
000002c0: 1d81 173e 905d d53d bc07 273d 7899 c63d
000002d0: 287c 7e3d 8b05 723d a491 e4bd fdce e73c
000002e0: afcb a9bd 8bbe 5dbd d40b f7bc 5893 c6ba
000002f0: fe79 64bb a4e4 5cbd 6d37 cbbd 2948 db3d
00000300: 3a94 d13d e58a b03d 2ff1 de3d c847 ecbd
00000310: ac30 cb3d e71d d63d b115 313d 1d11 6b3e
00000320: fa03 bf3c 9429 e9bc a67c 05bd bc6e d7bd
00000330: 92a8 123d 0fa2 583d 8f89 3abd 97ae 84bd
00000340: d277 7f3d 8969 88bc dac9 273e 8cac b2bd
00000350: 82da 0fbb 67b9 d4bc b682 933d 5f3b dabd
00000360: 394d 3fbd 89d7 b73b bfdc 213d c1ed 223e
00000370: a054 2f3e 9a91 cc3c b6d2 7d3d 0005 3bbd
00000380: 4921 a2bc 5417 613d 4c1f b2bd bc06 ff3d
00000390: 3645 433e 7c0f 913d 79ae f83d a8d2 e43d
000003a0: 5486 9d3b b7bb 85bd c49e 83bd 0c30 cebd
000003b0: 23c0 47bc 1e0a 5ebd 925c c3bc 10fe ce3d
000003c0: 2011 d63d 9be5 0bbd a787 aebd 8db2 abbc
000003d0: c6de 103d 2832 803d 3668 693d 9f79 d5bd
000003e0: 7154 de3d f72c 48bd f81d 8a3d 45a3 18bd
000003f0: efe5 793d 7407 c8bd 79e3 14bd f232 0abe
