src/util/AI/checkpoints/023.ckpt (torch, 353508 bytes, 14 tensors)

lstm.weight_ih_l0 f4 [256, 12]
000000 d0 8b 44 bd 90 b5 a3 3d ee c4 21 be 1f 29 0b 3d
       -0.047984898 0.07993615 -0.15797779 0.033974763
000010 4d ff c2 3d 40 46 a0 3d 53 0d 6d 3d 63 b6 17 bc
       0.09521351 0.07825899 0.057874035 -0.009259793
000020 9a 0c da bd 7f 3b 12 3d fa ea de bd b7 b4 54 bd
       -0.10646935 0.03570127 -0.10884662 -0.051930156
000030 40 ae 2b be 48 96 7e ba be a1 87 bd 7c b9 da bd
       -0.1676569 -0.00097117247 -0.06622647 -0.106799096
000040 45 9e 8c bd 38 6a 83 bd 6f b8 00 3e 76 85 f2 3d
       -0.06866125 -0.06416744 0.12570356 0.11841862
000050 4c 96 b4 3d 79 b9 0e 3d f8 a2 ba bd 9c 7e 03 3d
       0.08817729 0.03484485 -0.09113115 0.032103166
000060 70 39 91 3d bf 3a f3 3d d7 0e 26 3d 8c e7 01 3e
       0.070910335 0.11876439 0.040541496 0.12685984
000070 25 f3 16 3d 76 29 4f 3e 70 59 51 3e d0 c3 d0 bd
       0.036852974 0.2023066 0.20444274 -0.10193598
000080 1e 5f 82 3c 32 78 0b bd 16 b9 36 3d 2c 1c b4 bd
       0.015914496 -0.034050174 0.044610105 -0.08794436
000090 4c 35 80 3c b5 e5 41 3d 66 97 8a 3d dc 64 55 be
       0.015650414 0.047338206 0.06767158 -0.20839256
0000a0 34 d7 4a be 90 7b 29 bc 46 1d 3d 3e d2 3b 71 3b
       -0.19808656 -0.010344401 0.18468198 0.0036809337
0000b0 27 ea 0f be b9 40 5e bd b6 4b 47 3e 71 e5 8f 3c
       -0.14054166 -0.054260943 0.19462475 0.01756546
0000c0 06 68 f7 3c a2 87 9d bd dd 67 92 bd aa a6 53 bd
       0.03020097 -0.076918855 -0.071487166 -0.051672615
0000d0 da 31 47 3d 59 fe 60 bc 48 9b b1 3d 84 a3 47 3e
       0.048631527 -0.013732516 0.08672196 0.1949597
0000e0 d9 b1 be 3c 0c f1 a1 bd 8c 3d b6 bd 7a 0b bf bd
       0.023278164 -0.07907304 -0.08898458 -0.09328361
0000f0 4d 76 90 3c c7 12 1e 3d ae eb 19 3d fe 11 b2 3d
       0.017634535 0.038592126 0.037578277 0.08694838
000100 11 5e 8b 3c 4f c6 c5 bd 59 81 78 3e f0 0c 95 3e
       0.017012628 -0.09656965 0.24268092 0.29111433
000110 3c b5 94 bc 66 28 47 bd 53 fd 4d bb d6 94 16 3d
       -0.018152826 -0.04862251 -0.003143151 0.036763035
000120 53 e7 f0 3d 5e 10 8f 3c 9b 5c 1b be 39 f4 31 be
       0.117628716 0.01746386 -0.15172045 -0.1737832
000130 d8 00 cb 3d 31 81 52 3c f1 e7 75 bd c2 95 00 3e
       0.0991227 0.012848184 -0.06003565 0.12557128
000140 cf 21 4a bd 0d 18 77 bd e4 73 59 3c f9 f3 b4 39
       -0.04934865 -0.06032567 0.013272259 0.0003451405
000150 32 c8 80 bd b4 72 01 3e 0d af 4b 3d 73 c0 21 3d
       -0.06288184 0.12641412 0.04972749 0.039490175
000160 e5 74 a4 3d 90 fc 9d 3d 13 6f 14 bc c6 bc 06 3e
       0.08030108 0.07714188 -0.009059685 0.13157949
000170 7c 15 60 bd 12 d6 f0 bc bf eb 40 bd b9 d9 55 bd
       -0.05470799 -0.029398952 -0.047099825 -0.05220959
000180 80 87 47 bc bc b6 96 bb be 5d ed bd 8a fd 7d 3c
       -0.012178302 -0.0045994204 -0.115901455 0.015502343
000190 39 cd 11 bc 00 4c 77 3d 20 fc 58 3e 80 19 8a 3e
       -0.008899027 0.060375214 0.21189928 0.2697258
0001a0 50 f7 aa 3c f1 5a 49 bd bc 90 c3 bd 7e c2 39 bc
       0.02086988 -0.049158994 -0.0954909 -0.011337874
0001b0 d7 32 86 3d e2 8c 13 bd 52 f3 da 3d 4b 28 92 3d
       0.06552666 -0.03602303 0.10690941 0.071365915
0001c0 23 cf 38 bd 53 c5 14 3c ad 95 99 3d fc 48 20 be
       -0.045119416 0.009080249 0.074992515 -0.15652841
0001d0 02 cf 4c be fa 36 69 3c de f8 f0 bc 60 2f ff 3d
       -0.20000842 0.014234299 -0.029415544 0.12460208
0001e0 49 37 e8 3c 25 2a a6 bd ff 12 ea bd c7 7e 4c bd
       0.028346675 -0.08113507 -0.114294045 -0.04992559
0001f0 9a d1 28 3e 29 ad 4b 3d e6 7c ed 3d fb 2e fa 3d
       0.16486207 0.049725685 0.11596088 0.12215992
000200 3e 39 09 3e 3b 18 9b 3b 64 cd c0 3d 90 94 43 bd
       0.13400742 0.004733113 0.09414175 -0.047749102
000210 74 ba a1 3d 51 d3 68 3d ae dc 42 3d 12 b1 b2 bd
       0.07896891 0.056842152 0.047573738 -0.0872518
000220 c8 78 56 3d ce dd 9c 3c 84 71 c3 bd 55 ea 39 be
       0.05236128 0.019148733 -0.09543136 -0.18155797
000230 13 79 60 be 2c a9 57 3d 28 0f 2c 3e 03 e2 dc 3c
       -0.21921186 0.05265157 0.16802657 0.02696324
000240 08 d3 15 3d e7 34 9f 3c d1 22 05 be 67 1f e9 bd
       0.03657821 0.019434405 -0.13001563 -0.11382943
000250 1e f0 07 3d 72 6b 1e 3e 20 aa 91 bd f2 6c 8b be
       0.033187978 0.15470675 -0.07112527 -0.27231556
000260 cb 67 b5 bd 4d 3f f5 3c bf 89 06 bd 7c bd cc bd
       -0.088576876 0.02993741 -0.03284621 -0.09997079
000270 bc 3e 97 3c 81 36 60 3d 74 b3 8c 3d 7d fb 96 bd
       0.018462531 0.05473948 0.068701655 -0.07372186
000280 6a 0f 05 be c7 21 c9 bd aa da 1d 3e 71 2d e6 bd
       -0.12994161 -0.09820896 0.15415445 -0.11239136
000290 51 98 22 be 4a e4 a3 bd 2f 11 76 3c 46 0a 17 3d
       -0.15878417 -0.08002527 0.015018745 0.036875032
0002a0 15 a1 88 bd 55 ec 19 3d 8d cf b5 bd c9 5a d8 3d
       -0.06671349 0.0375789 -0.08877478 0.10564191
0002b0 06 df 75 bd 33 b8 9a bd 15 0d d1 3d a6 38 26 3d
       -0.060027145 -0.075546645 0.10207573 0.040581368
0002c0 1a 65 da bd 68 a5 ea 3b ac 55 54 bc f6 82 3f 3d
       -0.10663815 0.0071608312 -0.012959879 0.046755753
0002d0 ee a9 77 bd b4 39 4a bd c5 40 17 3e 1c d6 9a 3c
       -0.060464792 -0.049371436 0.14770801 0.018900923
0002e0 89 f5 07 3e b1 03 7b 3c b5 14 ec bd 43 83 f0 bc
       0.13277258 0.015320704 -0.11527387 -0.029359465
0002f0 61 5e 17 bd cc 37 b8 bd 2a 88 4f bd aa ee 07 3e
       -0.03695524 -0.089950174 -0.050666966 0.13274637
000300 4b b2 92 bd 57 da c6 3c 77 62 76 3d fc 55 27 3e
       -0.07162913 0.024274034 0.060152497 0.16341394
000310 5c 30 94 3d 32 5a 70 3d 18 12 5e bd f6 eb 2a be
       0.07235786 0.058679767 -0.054216474 -0.16691574
000320 c8 31 3a bd d8 de f0 bc e1 b9 bf bd ed f6 17 bd
       -0.04545763 -0.029403135 -0.093616255 -0.03710072
000330 9a 1b 9b bd 76 76 26 bd c5 c9 23 bd 27 66 56 be
       -0.07573624 -0.040640317 -0.039987344 -0.20937406
000340 7d 3a a4 3c 28 8c 3d 3e 4a 07 e8 3c 75 74 e4 bd
       0.02004742 0.18510497 0.028323788 -0.11155025
000350 83 9b 9e 3d 50 03 b8 bb 3c 30 0b 3e fa c9 ff bd
       0.07744505 -0.0056156293 0.13592619 -0.12489696
000360 5e 50 04 be 5a 14 b6 bb 86 a1 5f bd c5 0f d8 3d
       -0.12921283 -0.0055566253 -0.0545974 0.10549883
000370 38 fc 72 3d 52 09 1a be 33 cb 6f be ac 15 cb 3d
       0.059322566 -0.15042618 -0.23417358 0.09916243
000380 49 5e 3d 3d 9c 42 67 3d 66 88 48 be f8 93 c4 bd
       0.046232495 0.056460008 -0.19583282 -0.09598535
000390 06 72 5b be e5 13 71 3c 53 79 d3 bd 9a 6b 8d 3d
       -0.21430215 0.014714216 -0.10325875 0.06905289
0003a0 30 02 02 3e 1c 96 00 3d 87 e4 93 bd 33 4c 24 bd
       0.12696147 0.031393155 -0.072213225 -0.04011173
0003b0 d5 8c 8f 3c 8a 37 b1 3d f7 ea 91 bd 4e c9 0a 3c
       0.017523209 0.08653171 -0.07124894 0.008470846
0003c0 c7 c6 bc bd 6c 14 39 3e e8 c2 d9 bd 40 f2 bd bb
       -0.09217601 0.18074197 -0.106328785 -0.0057967007
0003d0 48 bd 1b bd 02 42 a8 bd 68 8a 32 bd 0e 6c 00 3e
       -0.03802231 -0.08215715 -0.043589026 0.1254122
0003e0 a3 9d 95 bd 6c 75 b1 bd 96 9f 47 3d 4e 2d 80 3c
       -0.073054574 -0.086649746 0.048736177 0.015646603
0003f0 4e 7a b6 ba be 4f 8a 3d de 66 f2 bd 90 16 2c 3d
       -0.0013921948 0.06753491 -0.118360266 0.042013705

lstm.weight_hh_l0 f4 [256, 64]
000000 8c 66 36 3d 23 39 85 bd 50 7d 24 3e 53 66 a7 bc
       0.04453139 -0.065050386 0.16063428 -0.020434534
000010 11 a3 8a 3d 09 70 43 3e 86 84 b3 bd 9d 90 a4 bc
       0.06769384 0.19085707 -0.08765511 -0.020088488
000020 08 cb ef 3d 9d 8c 39 3e 50 99 a2 3d 74 bc d0 3c
       0.11708647 0.18120046 0.07939398 0.025480486
000030 c2 d7 49 3e 52 92 ca bd 28 ab f3 3d c6 94 58 3d
       0.19711211 -0.0989119 0.1189788 0.052876256
000040 44 87 41 bd fc fa 7b 3d 38 bd 8e 3b 68 b1 0d 3d
       -0.04724814 0.061518654 0.0043560527 0.034593016
000050 7e d4 0b bd 66 7f ba bd a2 e2 2b 3c 8b de a1 bc
       -0.034138195 -0.091063306 0.010491045 -0.019759437
000060 cd a4 29 3e 47 06 5b bd 82 a3 0d be d9 d8 53 bb
       0.16566773 -0.053472783 -0.13831905 -0.0032325296
000070 05 0d a8 3d 9c 7c 95 3d 83 5a f8 bd a0 6b 8b bd
       0.08205608 0.07299158 -0.12126639 -0.06807637
000080 59 0a 8c bd 82 5e b0 3b 77 e6 8c 3d 87 1f e6 bd
       -0.06837911 0.00538236 0.06879895 -0.11236482
000090 24 8e 59 39 59 67 0a 3d ed 1a 90 bd 2a 9c 93 3d
       0.00020747684 0.033789966 -0.07036386 0.0720752
0000a0 23 27 80 bd f3 54 4e bd e2 4c a7 3c b2 d4 ed bd
       -0.06257465 -0.050373983 0.020422403 -0.11612834
0000b0 03 c2 8d bd 88 fc 35 be f8 d6 da bd 20 c0 1f be
       -0.069217704 -0.17772114 -0.10685533 -0.15600634
0000c0 2d 4a ac 3d fc e7 91 3d 0d 81 c7 3d 81 51 70 3d
       0.084125854 0.07124326 0.09741411 0.05867148
0000d0 99 bb 45 be 44 ad b5 bb 72 f7 5e 3e 4b f4 b6 bd
       -0.19309844 -0.0055443365 0.2177408 -0.08933314
0000e0 80 52 1f 3d 1b 0b f1 3d 85 e4 09 be 1d 0b 94 bd
       0.038897038 0.11769696 -0.1346608 -0.07228682
0000f0 38 c2 77 bd f6 81 1e 3e b8 38 c0 3c 73 0a dd 3d
       -0.060487956 0.15479264 0.023464546 0.10793009
000100 6d 50 4d 3d 79 49 ad bd 4d ed 85 3e 5c 1a c3 3d
       0.050125528 -0.084612794 0.2615761 0.09526512
000110 61 2c 86 3d a9 c7 be bd a2 b5 35 bd ba 79 73 bd
       0.06551433 -0.09315426 -0.04436267 -0.05944226
000120 0a 71 85 bd 6e 2b 20 be 82 c2 de 3d d2 78 b7 3c
       -0.06515701 -0.15641567 0.10876943 0.022396479
000130 90 bd 20 3c 6f 21 b9 bd a6 99 30 be 54 ff a3 3d
       0.00981082 -0.0903958 -0.17246112 0.08007684
000140 46 69 05 3e 57 6b 4d be ac e5 4e 3e 74 34 94 3d
       0.1302844 -0.20060478 0.202048 0.07236567
000150 c1 46 54 3e 2a ac f3 bd d3 69 48 be af 6c 2b 3d
       0.20730115 -0.11898072 -0.19571619 0.041851696
000160 da 1f 99 3d 93 23 21 be 24 96 58 3d 0c ab 23 3e
       0.07476778 -0.15736227 0.05287756 0.15983218
000170 c3 ee 8e bd 6a 2a 73 be 73 9d 1c bd ab 30 2d 3e
       -0.06979134 -0.23746648 -0.038236093 0.16913097
000180 64 b1 14 be c3 48 bd bd 38 14 c3 3c d2 58 6b 3d
       -0.14520794 -0.09242394 0.023813352 0.057457753
000190 39 6d 6a 3d 07 a0 8a bd 97 79 f6 bd 12 bb bf 3d
       0.05723307 -0.06768804 -0.1203491 0.09361853
0001a0 81 bf e8 3c 58 e0 2f be 13 1b 87 bd 9f 0b 33 be
       0.028411629 -0.17175424 -0.06596961 -0.17484902
0001b0 a8 d9 9b bd 42 ce 13 be 63 71 11 be 21 64 43 bd
       -0.07609874 -0.1443415 -0.1420341 -0.047702912
0001c0 0b 3c a8 bc 62 60 2f bc 82 fb 93 3d bc ca 06 3a
       -0.020536443 -0.010704132 0.07225706 0.0005141904
0001d0 07 59 35 be 7b 43 c9 3d af 3b fb bc 7d 77 6c 3e
       -0.17709742 0.09827324 -0.030668108 0.23092456
0001e0 e6 28 94 bd 50 4b ea 3d ca 15 2e be de a1 c9 3d
       -0.07234363 0.11440146 -0.170005 0.09845327
0001f0 0c 4f 03 3d a6 0c 89 bd b1 b1 9e 3d 91 8c de bd
       0.032057807 -0.066918656 0.07748736 -0.10866655
000200 f0 67 10 3e b3 c1 53 be a5 b5 88 bd 1a 17 8c 3d
       0.14102149 -0.20679359 -0.06675271 0.06840344
000210 a2 c2 75 bd 5e 81 6b 3d 6f c4 ec bc 2b 95 c8 3d
       -0.06000007 0.05749642 -0.02890226 0.097940765
000220 50 56 90 3d b0 f9 c2 bd 15 ad 1f 3d 92 3c 83 3d
       0.07047713 -0.0952028 0.038983423 0.06408037
000230 fe f0 2f 3e 9b 86 0c bd 6c 44 73 bd be e3 ad 3d
       0.17181775 -0.034308057 -0.059391424 0.08490704
000240 5b 27 07 be 84 66 01 bd c7 24 52 3e 84 d6 c1 3b
       -0.13198607 -0.031591907 0.20521842 0.005915465
000250 13 72 db bd 85 84 08 3d b4 39 e0 b9 ea f9 3f 3d
       -0.10715117 0.033329505 -0.00042767602 0.046869196
000260 0b bb 02 bd e4 a3 1d be 97 82 e5 bd a0 1f b6 bd
       -0.03191666 -0.1539455 -0.11206549 -0.08892751
000270 56 13 0d 39 3a bd 5d 3d cd 7a 38 be 5b 3f fb bd
       0.00013454011 0.05413554 -0.18015595 -0.122679435
000280 a0 4a 79 3c a0 35 02 3d fd ba 05 3e 6c c5 09 bd
       0.015215546 0.031789422 0.13059612 -0.03363554
000290 e5 56 48 3d f7 54 e2 3d a5 6d b6 bc b2 45 21 3e
       0.048910994 0.11051362 -0.02226908 0.15749243
0002a0 19 4a 33 3e 1f dd 3a 3d 70 f3 4b 3d d0 29 48 bc
       0.17508735 0.045621034 0.049792707 -0.012217
0002b0 0e 79 a4 3c e3 bc e5 3d 5b 7b 1f be 32 4c 29 3e
       0.020077255 0.11217668 -0.155744 0.16532972
0002c0 af 2f 93 bd 2a fd 23 3c ca 3e b4 3b 95 c2 29 be
       -0.07186829 0.0100090895 0.005500649 -0.16578133
0002d0 19 6d 29 bb 72 6a 4b be 43 44 57 bb 4a 51 1e be
       -0.002585238 -0.19864824 -0.0032847084 -0.15460697
0002e0 ed a0 07 be cc fa eb 3c 18 25 c7 3d 2f c9 0f 3d
       -0.13244982 0.028806113 0.09723872 0.035103973
0002f0 e1 dc c0 bd d1 2c 93 3c ac e2 e7 bd 6e 96 6c 3e
       -0.09417129 0.017965706 -0.11322531 0.2310426
000300 2d 25 86 3e 92 6a 8a be 10 58 03 3e c1 2b 84 be
       0.26200238 -0.27034432 0.12826562 -0.25814632
000310 c1 f7 72 bb 7f ee 6e be 09 4c 0d be 3e 14 a7 bd
       -0.0037073942 -0.23333167 -0.13798536 -0.08158158
000320 7b a3 24 3e 3a b8 3e be f4 e2 9c 3d e2 87 92 bb
       0.16077988 -0.18624964 0.076604754 -0.004471765
000330 27 3a 33 bc d3 c0 f1 bc b8 64 10 bb 93 d5 22 3e
       -0.010939158 -0.029510891 -0.002203269 0.15901785
000340 30 00 79 3d 8d a4 a9 ba 72 7c 37 be ee 08 4c 3e
       0.060791194 -0.0012942717 -0.17918566 0.19925281
000350 48 90 be bd e8 39 2a be d3 2a 3a be e8 4a f0 3d
       -0.09304863 -0.16623652 -0.18180399 0.11733037
000360 2f ba 9c 3d 1c 32 f6 bd f5 29 45 be 5b 51 62 3e
       0.07652699 -0.12021276 -0.19254287 0.22101347
000370 4e 7e 22 3e de 1e d2 bd fa 19 2c 3e 77 3b 3d 3a
       0.15868494 -0.10259794 0.16806784 0.0007218639
000380 b0 6c 32 3e 33 40 9b bb 51 c9 d9 3b 60 20 63 3d
       0.17424273 -0.0047378778 0.0066463132 0.055450797
000390 25 a7 e0 bd dc 57 e5 bd 6f c7 e6 bc a0 76 cb 3d
       -0.1096938 -0.111983985 -0.02817127 0.09934735
0003a0 ba 82 55 3e 1e 13 08 3e 6c e0 95 3c 30 29 9f be
       0.2085065 0.13288543 0.01829549 -0.3108611
0003b0 b6 c0 07 3c 1e fa 06 3e 05 61 0c 3d 49 c3 99 3e
       0.008285692 0.1318135 0.034272213 0.30031803
0003c0 13 c8 9e 3d fc 76 42 be c3 bf e5 bd 1b d0 b7 3d
       0.07753005 -0.18990701 -0.11218216 0.0897524
0003d0 36 42 4b bd b5 fd f7 3d cd e8 b3 3d ea 1a 19 3d
       -0.04962369 0.12108938 0.087846376 0.037379183
0003e0 65 13 aa 3d c0 9e b5 3c 05 aa a5 be af 22 3a be
       0.083044805 0.022170424 -0.32356277 -0.18177293
0003f0 a3 75 c3 3d 31 cf 8c be d9 98 3d 3e 21 22 2d bc
       0.09543922 -0.27501824 0.18515338 -0.010567219

lstm.bias_ih_l0 f4 [256]
000000 fd 60 16 bd f6 5a c2 bd ea 40 a0 bd ae 0a 06 be
       -0.03671359 -0.09490006 -0.078248814 -0.13090011
000010 44 4e c0 bd 24 2d f9 3c 2b 48 ff 3c 5b 63 af 3d
       -0.09389928 0.030417033 0.031162342 0.085638724
000020 8b 31 15 3e a4 03 c4 bd 50 39 93 bc af 52 e0 3b
       0.1456968 -0.09571007 -0.017971665 0.006845794
000030 8a 9f 4a bd 40 f0 6b bd 2e 41 9c 3d a4 17 fa bc
       -0.049468555 -0.057602167 0.076296195 -0.03052885
000040 8e b5 0a be d3 91 85 3c 3d 27 1b bd eb c0 49 3c
       -0.1354582 0.016304886 -0.037879217 0.012314062
000050 48 31 ee bc 80 9e cf 3d e4 1f ff bc a4 ac 40 bd
       -0.029076234 0.10137653 -0.031143136 -0.047039643
000060 49 eb 8e 3d 39 e9 32 3d a9 fc 58 be f5 59 3e 3d
       0.06978471 0.04367945 -0.21190132 0.04647251
000070 91 96 a1 3d a6 7d f6 bc 92 56 9c 3d 7b 38 b4 3d
       0.078900464 -0.03008921 0.076336995 0.08799835
000080 2d d9 7a 3d 37 87 51 bd 73 b0 f3 bc 33 27 e7 3d
       0.06124227 -0.05115434 -0.029747223 0.112867735
000090 1b 3b 42 3d 49 f7 b2 bd 1b c2 7a bd 81 4e 26 be
       0.04741965 -0.08738572 -0.06122027 -0.16240884
0000a0 3d 91 e8 3a f9 be a5 bc d2 ba d6 3d cd df 8a 3d
       0.001774348 -0.020232664 0.10484852 0.06780968
0000b0 1d 04 ee 3c 56 09 9d bd 9d 8e b2 3d 6a 37 4b 3e
       0.029054696 -0.07667796 0.087186076 0.19845358
0000c0 ea af 3e 3d ea 3a c9 bd 16 1c 58 bd df 3d 8e bd
       0.046554483 -0.0982569 -0.05276116 -0.06945395
0000d0 63 ff 8b bc f7 79 a0 bd 71 21 81 3d 10 6a d3 bd
       -0.017089551 -0.07835763 0.063052066 -0.10322964
0000e0 b5 2b 86 be 62 9b 4c be be 32 a9 ba 8d 93 9b bd
       -0.2620522 -0.19981149 -0.0012908799 -0.075965025
0000f0 97 e7 bc bc 1b 97 05 bc 30 d9 1f 3e 3c 36 d2 3d
       -0.02305965 -0.008153702 0.15610194 0.10264251
000100 06 fe 86 bd fe 35 80 bd 71 37 69 bd 34 46 37 be
       -0.0659142 -0.06260298 -0.05693764 -0.17897874
000110 cd 4f e0 3d 4d 48 93 bd 7f 12 99 bc 4a 50 9f bd
       0.10952721 -0.07191525 -0.018685577 -0.07778986
000120 9c 60 c5 bd 4d 8a 44 bc df 02 30 bc d3 68 45 3d
       -0.096375674 -0.011995864 -0.010742872 0.04819567
000130 39 e8 fc bd 57 9c 0d be 66 d8 b6 bc ab 95 65 3d
       -0.123489805 -0.1382917 -0.022319984 0.056050938
000140 0c 5b 7d bd fa 0d a6 bd d4 19 f1 3c 28 ec e4 3d
       -0.061854407 -0.081081346 0.029431261 0.11177856
000150 26 ea f2 3c f6 15 91 3d d1 25 fb 3d 18 d1 c1 3d
       0.029652666 0.07084267 0.12263072 0.094637096
000160 d3 0f 62 3d 99 50 91 3d 66 e7 16 bd 8f c0 77 3d
       0.055190872 0.07095451 -0.036841772 0.060486373
000170 47 27 2c 3d 1c 2b 37 3e f4 8a 37 bd aa 28 4c 3e
       0.042029645 0.17887539 -0.04481025 0.19937387
000180 86 23 09 3e 96 74 16 3d dc f5 fd ba f8 1f 03 3e
       0.13392457 0.03673228 -0.001937564 0.12805164
000190 9e 7a c3 3d 57 fd 61 be d9 9b 6c 3d 3c bb 45 be
       0.09544872 -0.22069298 0.057765815 -0.19309705
0001a0 0a db 5e 3b c5 79 0c 3e d0 f1 bb 3d c1 9a 86 3d
       0.003400507 0.13718326 0.091769814 0.06572486
0001b0 05 ef 1d 3d 51 76 83 bd c6 f7 b1 3d bf 09 5a 3c
       0.038558025 -0.064190514 0.08689837 0.013307988
0001c0 4f 80 6d 3b 91 c9 0f 3e f3 2c ab 3d c7 ef b1 bd
       0.0036239808 0.14041735 0.08358183 -0.08688312
0001d0 bb 68 07 3e ef fc 94 3c fc 11 f7 bd a7 e7 1d 3e
       0.13223545 0.018187014 -0.12063977 0.154204
0001e0 58 30 d9 bc ad fd ff bc 8e 7c e3 bb cd f6 0c be
       -0.02651231 -0.031248892 -0.0069423383 -0.13766022
0001f0 60 13 06 be 4e b6 93 bd 99 c0 e4 3d 18 3d cd bc
       -0.13093328 -0.07212506 0.111695476 -0.025053546
000200 c9 19 0a bc eb 84 b8 bd 84 d8 66 3d 7f bf 47 3d
       -0.008428999 -0.09009727 0.05635883 0.04876661
000210 c2 ef f3 bc 90 62 c5 3d dd 23 03 bc df cf ec 3b
       -0.029777411 0.0963794 -0.008004156 0.0072269286
000220 78 e1 2b be 9d 04 20 bd 32 7b f2 bd 10 bb c0 bd
       -0.16785228 -0.0390669 -0.11839904 -0.09410679
000230 f9 32 57 bb 50 9a 08 bc 4a 6d e5 39 10 f4 24 3d
       -0.0032836779 -0.008337572 0.0004375971 0.04027182
000240 70 88 40 3d 95 6c cb 3d 12 75 91 bd 99 c6 3d 3e
       0.047005117 0.0993282 -0.071024075 0.1853279
000250 41 a7 ba bd 03 0c a2 3d 3b da 06 3e 90 d1 25 3e
       -0.091139324 0.07912447 0.13169186 0.16193223
000260 ad 24 1a 3c 93 8b 5d 3d 27 7d 38 3e 05 60 7d 3d
       0.009408158 0.054088186 0.18016492 0.06185915
000270 1d 0b f6 bc 30 0e da bd 8a cb 39 bb 14 0b 29 be
       -0.030034596 -0.10647237 -0.0028350079 -0.16508132
000280 3c 28 34 3e c8 9f d0 3c 01 b7 2c bd b7 f6 c8 bc
       0.17593473 0.025466815 -0.042166714 -0.024531705
000290 b2 bb ce 3d b2 c5 dc bd ce b7 a3 bd bd 10 6f bd
       0.10094394 -0.10779895 -0.07994042 -0.058365572
0002a0 cb 11 e9 3d 1e d3 26 3d ef 4e 91 be 2a 23 2e bd
       0.11380347 0.04072868 -0.28380534 -0.042514004
0002b0 50 12 9d 3c 17 9d b4 bd 09 33 eb 3d c2 86 88 bd
       0.019173771 -0.08819025 0.114843436 -0.06666328
0002c0 a7 a4 28 3d 36 46 31 3e 51 16 61 3d 4a 42 24 3e
       0.04117265 0.1731194 0.054952923 0.16040912
0002d0 1f 10 e7 3c cd cc ac 3d 03 ce 17 3d 30 d0 c8 bd
       0.02820593 0.084375 0.037061702 -0.098053336
0002e0 43 73 60 bd 10 42 03 3e 2a 48 28 3e 2a 0a 6e 3d
       -0.054797422 0.1281817 0.16433778 0.058115162
0002f0 15 ae 26 bd f5 a8 07 3e 38 01 cc 3d 5e 58 a5 bd
       -0.04069336 0.13248046 0.0996117 -0.08073495
000300 f2 01 6e 3d 69 71 b6 bb 37 f8 da bb 43 2c ac 3d
       0.058107324 -0.0055677188 -0.0066824215 0.0840688
000310 e9 16 6c 3c 0b 09 7a bd 48 d4 2b be cf b3 b1 3d
       0.014409759 -0.06104378 -0.16780198 0.08676874
000320 03 5e c4 bd be fa 22 bd 6f fa 49 bd 72 43 d8 3c
       -0.09588244 -0.039789908 -0.049311098 0.026399348
000330 47 8d e5 3b 6f c0 d4 bb 9f 7e 2f be 0c 6a 98 bb
       0.007005367 -0.0064926664 -0.17138146 -0.0046513136
000340 f8 43 ec bd 40 a0 42 bb e6 47 0e be af bf 96 3d
       -0.115364015 -0.0029697567 -0.13894615 0.073607795
000350 73 b3 ff bd 11 76 9b bd 54 84 c7 3b 19 5f 93 ba
       -0.12485399 -0.07590879 0.006088773 -0.0011243551
000360 9a d8 0b be af f2 ab 3d 6d 3f f0 3d 32 7b de 3c
       -0.13656846 0.083958976 0.117308475 0.027158353
000370 4b f2 be 3d 30 54 e7 bc c8 3f 77 3c 6d dd b3 bd
       0.093235575 -0.028238386 0.01509089 -0.08782468
000380 ee a9 8b bc ae ed dd bc 9d 36 05 bd cf d5 dc bd
       -0.017048802 -0.027090874 -0.032522786 -0.10782968
000390 c6 24 11 3d 3f 3d dc bd be 9f 49 3d 4c 93 1a bd
       0.03543546 -0.10753869 0.049224608 -0.03773813
0003a0 1e 9d 37 3a 75 83 51 3e a0 c8 ed 3d be 41 eb 3d
       0.0007004308 0.20460303 0.11610532 0.11487149
0003b0 2e 42 a8 3d f8 00 20 bd 7e 00 9d bd 57 40 b6 bc
       0.08215748 -0.039063424 -0.076661095 -0.022247477
0003c0 7c 6c 8d bd f2 83 c3 bd d4 ba 08 be cf 36 f6 3d
       -0.069054574 -0.09546651 -0.1335252 0.12022173
0003d0 29 47 f4 3d 5a 6c d8 3b c4 e2 93 bd 3f 60 a2 bd
       0.11927635 0.0066047134 -0.072209865 -0.07928514
0003e0 e7 12 b8 bd d5 f3 13 3d d3 a5 24 be f1 14 e2 3d
       -0.0898798 0.03612121 -0.16078882 0.110391505
0003f0 4c ee b7 3d 0f dc a6 bd 61 dc 0a 3d 12 53 e7 bd
       0.089809984 -0.081474416 0.033901576 -0.11295141

lstm.bias_hh_l0 f4 [256]
000000 99 dd 0c be 13 cd 3b bd 79 db 42 bd d1 f1 87 be
       -0.13756408 -0.04584987 -0.047572587 -0.2655168
000010 cf ca 0e be 82 b7 ce bd ac 85 a0 bc bf d1 f6 3d
       -0.13944553 -0.10093595 -0.01959499 0.12051725
000020 57 f5 09 3e d0 ab a1 3d 55 ad c6 3d e9 77 32 39
       0.13472496 0.07894099 0.09701029 0.00017020073
000030 5c eb a6 3d 75 5a c2 bb 72 bc c0 3d c4 48 8d 3d
       0.0815036 -0.0059311935 0.09410943 0.068986446
000040 f5 2f df 3c 03 7e e3 bd 1e eb 0c be d6 42 da 3d
       0.027244547 -0.11108019 -0.13761565 0.10657279
000050 36 7f 89 3c 4f a3 18 3e 60 bb 85 3d f5 c9 83 bd
       0.016784292 0.14906047 0.065298796 -0.064350046
000060 5f 2b c1 bd 2b 71 79 bb 02 57 31 bd de 2a a8 bd
       -0.094321005 -0.0038061838 -0.043295868 -0.08211301
000070 fb ff 79 bd 8e a7 94 3c 12 17 1b 3d ff 0d 1a bd
       -0.061035138 0.018146303 0.0378638 -0.037611004
000080 9e ba 1c be c2 fb 91 bd 05 4b c5 bd 4a fd 49 3d
       -0.15305564 -0.07128097 -0.096334495 0.04931382
000090 19 f4 63 bd 5c 58 db bc 01 97 3a 3d 96 65 2d 3c
       -0.05565271 -0.026775531 0.045554165 0.010583302
0000a0 3f fe d6 bd 59 e3 d2 3d 6e f5 d3 3d 01 35 14 be
       -0.10497712 0.102972694 0.103495464 -0.14473344
0000b0 a6 3c b9 3d f0 f1 9d bd 51 bb 01 3d be 37 af 3d
       0.09044771 -0.077121615 0.03167278 0.08555554
0000c0 af 42 37 3e 65 e4 f4 bc c4 90 52 be 81 3d 07 be
       0.17896532 -0.029894063 -0.20563036 -0.13207056
0000d0 43 4a 1d 3c 4b d7 87 3d c5 e0 48 3d cc 0a 80 bd
       0.009600225 0.06632861 0.049042482 -0.06252059
0000e0 47 69 a3 bd aa 5a 3c be 82 ed 0f 3d 45 0b 83 3d
       -0.079790644 -0.1839396 0.035138614 0.06398634
0000f0 c7 b9 83 3c 31 4d 36 3e a4 90 20 bd 9a f9 ad 3d
       0.016079796 0.17802884 -0.03920044 0.08494873
000100 c4 dd bd b5 f8 41 2a 3d bb 0e 2e be 31 6b 06 bd
       -1.414614e-06 0.04156682 -0.16997807 -0.03281707
000110 69 7e 16 bc 95 37 f5 bd f4 89 8d bd a2 f5 9f bd
       -0.009185412 -0.11973492 -0.06911078 -0.078105226
000120 a0 f2 32 be 74 47 91 3d 7b 6e 90 bd 75 05 a1 bd
       -0.17475367 0.07093707 -0.070523225 -0.07862369
000130 20 92 07 3d 14 54 c6 bc a2 11 6e bd 3d 53 26 3d
       0.03309834 -0.024210013 -0.058122285 0.040606726
000140 44 99 53 bc 32 4c 88 3d e5 80 78 3d dd 27 0a 3d
       -0.012914959 0.06655158 0.0606698 0.033729423
000150 58 3f f6 bd 12 66 37 bd 6e d9 09 3e 7b 8c 3c bd
       -0.120238006 -0.044775076 0.13461849 -0.04603241
000160 49 7f d7 3d f3 27 1b 3e e8 a7 f7 bd b0 e4 0d bc
       0.105223246 0.15151958 -0.120925725 -0.00866048
000170 91 3c 98 3d 6d 5a 17 3e 22 1a 9c 3d 24 a8 e9 3d
       0.07433427 0.14780588 0.07622172 0.114090234
000180 4c 12 a4 bd d7 a7 bd 3b 5a 49 d9 3d f6 0c 04 bd
       -0.08011302 0.0057878303 0.10609694 -0.032238923
000190 ba 7f 19 3e ec b1 04 be 0c cf 9d 3d a9 3c 87 bd
       0.1499013 -0.12958497 0.07705507 -0.06603367
0001a0 6e 82 3a 3c 51 b2 89 bd e2 4d 94 bc dd 03 f3 3d
       0.011383636 -0.06723464 -0.018103544 0.11865971
0001b0 f4 08 8a 3d a7 6c 7c 3d 44 27 5f bb ab 7f 0e 3e
       0.06739989 0.061627056 -0.0034050504 0.13915889
0001c0 77 ea 5c 3d 14 17 60 3e df c9 b2 3d 9e 8a fa 3b
       0.05393454 0.21883804 0.0872991 0.007645919
0001d0 14 73 cc 3d 04 72 db 3b 77 d4 15 bd 1a fe d8 3d
       0.09982887 0.0066969413 -0.036579575 0.10595341
0001e0 23 f2 4b bd ba f2 ea bc 4c 8d 08 3d 56 81 8c bc
       -0.049791466 -0.028680194 0.033337876 -0.017151516
0001f0 4f 62 ad 3c 0b 28 d3 3c 05 54 15 3d 64 a0 8c bd
       0.021165041 0.02577593 0.03645708 -0.068665296
000200 a2 b1 b0 3d d1 d8 bc 3d 51 70 3f be fb cc 7a bc
       0.08627631 0.09221042 -0.18695189 -0.01530766
000210 6d 97 1d 3e ce 8a 87 bd 17 2c f2 ba de ae 18 3e
       0.15389796 -0.06618272 -0.0018476275 0.14910457
000220 fe 8b 33 be e3 2d 57 bd 37 c5 81 3d 58 c8 3d 3d
       -0.17533872 -0.052533995 0.06336444 0.04633364
000230 6f 8d 4a be c5 a6 14 bd 6f 92 96 bc 75 97 a9 bd
       -0.19780515 -0.036291856 -0.018380372 -0.08280841
000240 3e d8 8b bc 3e 64 3e 3e fa 81 64 3c 56 92 f8 bb
       -0.017070886 0.18592927 0.013947004 -0.007585804
000250 97 75 67 bc 1b 71 1e bd 79 b5 5a 3e 71 d9 f4 3d
       -0.014127157 -0.038682085 0.21358289 0.11955536
000260 cc da 87 3d 31 2c ee 3d 39 ce 8e 3c 44 50 9e bd
       0.06633529 0.116295226 0.017432319 -0.07730153
000270 87 29 ab bd d7 f8 dc bc 5e 0a 90 bb 71 d4 1d bd
       -0.0835753 -0.026974125 -0.004395767 -0.038532678
000280 90 a0 d0 3d c7 09 12 3e 92 4e d7 bd 8e 4d 52 3d
       0.10186875 0.14261542 -0.10513033 0.051343493
000290 a4 c7 17 3d ae 13 b0 bc b8 e9 25 be 2d 57 64 3d
       0.037055627 -0.021493759 -0.16202438 0.0557472
0002a0 0e 02 2b bd e6 27 01 3d 54 51 19 be 5e 01 0f 3e
       -0.041750006 0.03153219 -0.1497243 0.13965365
0002b0 78 53 91 bd b4 fb 11 3e e9 54 d9 3d ad 86 fc bc
       -0.070959985 0.14256173 0.106118985 -0.030825937
0002c0 ae 43 c4 3d 65 f0 48 3d 7b f3 a0 3d 87 06 64 3d
       0.095832214 0.049057383 0.0785894 0.055670287
0002d0 47 dd 38 3e 04 66 06 bd 7d 0e da 3c c8 63 0e be
       0.1805316 -0.032812133 0.026618237 -0.13905251
0002e0 1a 6d e7 bd 1a 1d 41 3e 1c 12 0a bd 11 de 09 3d
       -0.11300106 0.18858758 -0.033708677 0.033659045
0002f0 a8 cf e7 bd 12 9b 82 3d 59 60 0a 3e b6 3c e4 bd
       -0.11318904 0.063772336 0.13513316 -0.11144392
000300 44 a1 07 3e 94 df d9 3d a4 b1 6b bd 50 a0 6a bd
       0.13245112 0.10638347 -0.05754246 -0.057281792
000310 ba 3d 25 3e 53 fa a9 bd 39 78 86 3b ab 53 a7 bd
       0.16136828 -0.08299699 0.004103687 -0.08170255
000320 2f e5 08 be b4 4f af 3d d9 b1 0b 3e 36 b7 6b bb
       -0.13368677 0.08560124 0.13642062 -0.0035967357
000330 13 ae fb 3b ce 6b 8c 3d 7b a6 35 bd dd 62 7e bb
       0.0076806634 0.068564996 -0.04434822 -0.0038816251
000340 16 c7 74 3d 0f 88 b6 3d 15 01 dd 3c 94 9e 18 be
       0.059760176 0.0891267 0.026978055 -0.14904243
000350 aa 64 a5 3d 5b a5 74 bd 95 11 eb 3d 8b 8e 03 3b
       0.08075841 -0.059728008 0.11477963 0.0020073976
000360 d3 59 24 3d e1 a3 2c 3d 32 b6 e4 3d 9b 0d eb bd
       0.040124726 0.042148475 0.111675635 -0.114772044
000370 6c 98 19 3e 8a a6 af 3d 93 04 24 be 87 53 18 3e
       0.1499955 0.08576687 -0.1601737 0.14875613
000380 1e 59 23 3d 09 8b 83 3d 05 71 15 3d bb 7c 55 bd
       0.03987991 0.06423003 0.036484737 -0.052120905
000390 e9 b6 f0 bc 37 57 a1 3d 7e 4c 9f 3c be 7f 99 bc
       -0.029384093 0.07877963 0.019445654 -0.01873767
0003a0 53 97 81 bd 19 b3 33 3e 30 2a 20 3e 78 ef 55 3c
       -0.06327691 0.17548789 0.15641093 0.013057582
0003b0 06 b0 f2 3c 9c 2c a2 3c 10 c1 09 bd 2b 68 f6 3d
       0.02962495 0.019796662 -0.033631384 0.12031587
0003c0 71 9b 94 3c 72 08 da 3b 23 dd bb 3d 36 00 79 bc
       0.018140526 0.006653839 0.09173038 -0.015197804
0003d0 50 b4 60 bc 0f 87 1a 3d b6 be 93 bd bb 97 91 3d
       -0.013714865 0.03772646 -0.072141096 0.071090184
0003e0 6c 8e 46 bd 35 79 26 bd 8b 73 c3 3a 7c cc ef 3c
       -0.048475668 -0.040642936 0.0014911754 0.02927231
0003f0 18 96 0f 3e 44 d3 7e bc 2b 0a ec 3c 80 7c be 3d
       0.140221 -0.015553299 0.028813442 0.0930109

lstm.weight_ih_l1 f4 [256, 64]
000000 90 85 d1 bd 47 b9 4c be cd 37 8d bc 7b bd 2e be
       -0.10230553 -0.19992553 -0.017238522 -0.17064469
000010 9d 5c ab bd ee 5b fe 3d 38 45 91 3c 3a 29 6f 3d
       -0.08367274 0.12419878 0.017733201 0.058388926
000020 0f a2 3a 3d d5 34 6e bd 47 6f 23 3d 53 9c eb bd
       0.045564707 -0.058155853 0.039901044 -0.11504426
000030 94 a9 d3 3d 27 c3 38 bd f3 77 a6 bd 51 02 06 be
       0.10335079 -0.045107987 -0.08128347 -0.13086821
000040 4b f5 3b bd 28 09 8b bd 94 f9 d4 3d 50 1c b5 bc
       -0.045888226 -0.06788856 0.10399166 -0.022108227
000050 bb 5d 66 bd 62 da 03 3e 47 4b 3c 3c 88 43 39 be
       -0.056241732 0.12876275 0.011492557 -0.18092167
000060 d6 4e 58 bd 97 35 b9 bc 92 76 75 be 62 cc 61 3d
       -0.05280956 -0.022608561 -0.23971012 0.055126555
000070 06 f6 9a bc 38 b4 0a bd cf e4 0d be e5 33 22 be
       -0.018916141 -0.033863276 -0.13856815 -0.15840109
000080 15 ad 1a bd 1c 7e ca bd 15 5f a8 3c 84 ff 10 bd
       -0.03776272 -0.09887335 0.020553151 -0.03539993
000090 8f 17 ed bd 90 f6 20 bd 6a be 7e bd e0 35 a6 3d
       -0.11576759 -0.03929764 -0.06219331 0.081157446
0000a0 14 2a 21 3b ac 0e 45 3d 3d 28 c4 bd 97 f4 17 3d
       0.002459173 0.048109695 -0.09577987 0.037098493
0000b0 87 0b 19 be c1 40 1d bd e9 f0 2d bd a4 96 25 be
       -0.14945804 -0.038391832 -0.042466078 -0.16170746
0000c0 7f 24 1a bd bb 38 91 3d 9b ef c8 bd 11 ab 91 bd
       -0.03763246 0.070908986 -0.09811326 -0.071127065
0000d0 0d 0c ae 3d bb cb e8 3d 51 bd 16 3d 15 f1 cd 3d
       0.08498392 0.113669835 0.03680164 0.100557484
0000e0 5c 78 56 3d e7 60 87 3c ed 68 1c bd d7 e5 73 3d
       0.052360877 0.016525699 -0.038186003 0.059545364
0000f0 c8 7f d8 bd e1 16 9c 3d 61 0a 93 3d 22 48 26 3e
       -0.10571247 0.07621551 0.07179714 0.16238454
000100 a6 4e ab bd 76 dd 4b 3b 49 0f 54 3d ab 4b 78 3d
       -0.083646104 0.0031107343 0.05177239 0.060619038
000110 e2 4b d5 bc fc c1 cb 3d 8a 79 cc 3d f1 13 23 3b
       -0.02603716 0.09949109 0.09984119 0.0024883712
000120 66 7f 3e 3c 4e 8b 26 3e 6d eb b0 3d 77 c1 d5 3b
       0.011627054 0.16264078 0.08638654 0.006523307
000130 3c 29 d1 bd 93 ee 87 bd 30 17 b1 bc fa a0 1e bd
       -0.10212943 -0.06637301 -0.021617502 -0.038727738
000140 09 c7 8f 3d 9c 09 ad 3d 3d 52 18 3e b4 96 07 3e
       0.07020385 0.084490985 0.14875121 0.13241082
000150 93 b4 2a be b9 7a 3a 3e 17 5a 5e 3d d1 7b 3a 3d
       -0.16670446 0.18210877 0.054285135 0.045528237
000160 e9 1e 21 3d 11 85 61 3d 26 62 54 bb 0a 31 00 3e
       0.03933612 0.055058543 -0.0032407134 0.12518707
000170 56 d5 05 3e 7b d8 47 3e 5d c8 c6 3d db a5 4c bd
       0.13069662 0.19516174 0.09706185 -0.04996286
000180 43 d8 0b be 52 eb f7 bc fd cb 1a bc 35 c9 58 3d
       -0.13656716 -0.030263577 -0.009448049 0.05292626
000190 31 b0 2d 3d 45 2b 0c 3e ed 93 a8 bd b8 a2 30 be
       0.042404357 0.13688381 -0.082313396 -0.17249572
0001a0 7a 52 e5 bd 94 a6 27 be a5 b0 bc bc a4 66 8a 3d
       -0.11197372 -0.16372138 -0.02303345 0.067578584
0001b0 99 4e 58 3c 44 06 d7 bc 9d 71 af bd 75 f4 24 be
       0.013202333 -0.026248105 -0.08566592 -0.16108878
0001c0 d9 9e 97 bb 62 4c 85 3e 5e a7 ce bd d6 92 85 3c
       -0.0046270904 0.26034838 -0.100905165 0.016305368
0001d0 34 ec 05 bc 98 52 c1 ba 41 9a 13 3e 65 83 80 bd
       -0.008173991 -0.0014749346 0.14414312 -0.062750615
0001e0 a3 91 8f 3d a9 b0 aa bc 7c 8c 86 bc 7b 9c 1a be
       0.070102 -0.020836191 -0.01642441 -0.15098755
0001f0 1f 9a c7 3d d2 ea 23 bd de 06 8c bc 25 ab 48 3d
       0.09746193 -0.040018864 -0.017093118 0.04899134
000200 8b 17 eb bd bd 19 b6 3d 5d f8 3e 3e f4 52 f2 bc
       -0.114791 0.08891628 0.1864943 -0.02958057
000210 86 b1 0a 3d a3 bb 06 bd a9 7d b8 3d ff 96 04 be
       0.033860706 -0.032893788 0.09008343 -0.12948225
000220 8b de 92 bd c7 89 22 bd af 2f 43 bd 53 a7 b8 bd
       -0.07171353 -0.039682176 -0.047652896 -0.090162896
000230 df 24 5a 3d 83 47 a7 3d 16 ed af bc 5e dc b7 37
       0.05325782 0.08167937 -0.021475356 2.1917916e-05
000240 71 2c 74 3d b8 cb 95 bc a8 e4 23 be 69 23 27 be
       0.059612695 -0.018285617 -0.16005194 -0.16322102
000250 ed fe 9b bc 88 41 d3 bd 27 1d f0 3d 29 57 13 bd
       -0.019042457 -0.103152335 0.1172431 -0.035971794
000260 ec a7 1a bc 81 08 ea bd 89 6e e5 bd bd 42 27 bd
       -0.00943945 -0.11427403 -0.112027235 -0.04083513
000270 ea 5b d1 bd 81 b2 de b9 72 da 16 be 33 b5 0e 3d
       -0.10222609 -0.00042476135 -0.14731768 0.034840774
000280 83 e8 a7 3d d3 14 e1 3c 1f 1a 0d 3c 47 cb a8 3c
       0.08198645 0.02747575 0.008612185 0.020604743
000290 a3 ac 8b bd 99 19 c0 3d 8e d4 d5 bc e8 09 db 3d
       -0.06820037 0.09379882 -0.02610233 0.10695249
0002a0 15 b9 4d be 38 ea 79 bd 1b 66 c8 bd da 9b f6 bb
       -0.20090134 -0.061014384 -0.097851 -0.007525903
0002b0 40 2c 86 3d 14 04 18 be d2 75 0d bd 83 b9 a5 bb
       0.06551409 -0.14845306 -0.03453619 -0.005057515
0002c0 83 19 d8 bd 4d 8a 31 3d 2a 80 09 3d 79 e4 81 bd
       -0.10551741 0.043344785 0.033569492 -0.06342406
0002d0 23 44 49 bd 84 22 87 be 47 b7 cd bb 5a 51 ae 3c
       -0.049137246 -0.2639352 -0.006277952 0.021279026
0002e0 85 8a e6 bd b2 59 6b 3d 1a 63 94 bd 9e 0a 55 bd
       -0.11256889 0.057458587 -0.072454646 -0.05201208
0002f0 d1 59 9d bc 13 97 1b 3e 17 2e b9 bb 22 75 24 3d
       -0.019207867 0.15194349 -0.0056512463 0.04015077
000300 3b af b7 b8 91 0f b7 bd 81 03 6d 3d 6a ee 16 be
       -8.758759e-05 -0.08938516 0.05786467 -0.14739385
000310 bc 74 ee 3d 1a 19 f6 3d 8c 15 cd 3d ae 43 08 be
       0.11643359 0.120165065 0.10013875 -0.13307068
000320 76 03 37 bb ec 46 d4 bd a6 d1 85 3d 5c 36 23 3a
       -0.0027925647 -0.1036509 0.06534128 0.0006226057
000330 89 fe 32 3e a3 1a b4 bd b7 ae fd 3d ea f6 3e bd
       0.1747991 -0.08794143 0.1238684 -0.046622194
000340 bd b7 3b be 2f f6 bd bd e5 c9 b1 3e 3e 94 19 3d
       -0.1833181 -0.092754714 0.34724346 0.03749489
000350 d9 90 21 ba 65 11 e1 bc 0d 8d 61 3d cd e5 96 3d
       -0.00061632466 -0.027474115 0.055066157 0.0736805
000360 81 26 3d 3d d0 55 05 bd 31 1a 34 bd e2 1c 19 be
       0.0461793 -0.03255254 -0.04397029 -0.14952424
000370 cf 01 18 3e d3 6a ed 3c 7b 35 1e be 2c 3d 01 bd
       0.1484444 0.028981602 -0.15450089 -0.03155248
000380 46 ad 1a 3d ef dd 2e be 4f 79 30 bd 18 7b 0d 3e
       0.037762903 -0.17076848 -0.04308444 0.13816488
000390 d7 01 aa 3d c9 37 0c 3d 46 e8 65 3d 89 62 78 3d
       0.08301132 0.03423289 0.056129716 0.060640845
0003a0 76 fc 88 bc a0 56 fc 3d ef 6d 87 bd fc 4c 6f bd
       -0.016721945 0.1232121 -0.06612765 -0.058423027
0003b0 ab ec 30 bd 2c 42 31 3d 27 7c 02 3d 3a 89 aa bd
       -0.043194454 0.043275997 0.031856682 -0.08326955
0003c0 8c bd be 3d a1 0a aa bd a6 9c 09 3e fa e5 9a 3c
       0.09313497 -0.083028086 0.13438663 0.01890849
0003d0 c4 9e 09 3e c9 2a 90 bd e2 57 50 3d 21 64 c1 3d
       0.1343947 -0.070394106 0.05086506 0.09442926
0003e0 bf ca ef bc ce 03 12 be 46 3a 12 bc f7 e0 9a 3b
       -0.029271482 -0.14259264 -0.008925026 0.004726525
0003f0 52 c2 81 bc c9 4d 96 3d e7 06 39 3e a5 78 bb 3d
       -0.01583973 0.07339055 0.1806904 0.091538705

lstm.weight_hh_l1 f4 [256, 64]
000000 a2 53 2c bd b0 c5 22 bd 28 32 be 3d 4d e3 c6 bc
       -0.042071946 -0.03973931 0.0928691 -0.024278307
000010 d8 ad b3 3d b0 9f 8c be 7f 2d 97 3d 63 64 9c bc
       0.087733924 -0.27465582 0.073817246 -0.019090837
000020 ca 62 ed 3d a7 18 d7 3d 34 10 03 3d ca 96 e4 3d
       0.11591108 0.10502749 0.031997874 0.11161573
000030 56 b3 99 bd 92 20 3a be 01 49 83 bd 3d 1e 2d be
       -0.07504909 -0.18176487 -0.06410409 -0.16906066
000040 5e 10 7b bd bb db 86 bc 7a d6 a0 bc c4 69 bc bd
       -0.061294906 -0.016462198 -0.01963352 -0.09199861
000050 7b b7 0a 3d 43 61 4e 3d e6 5a ce 3d 83 fc ce 3c
       0.033866387 0.050385725 0.10075931 0.025266891
000060 cb d4 45 3e ad d5 cb bd 35 d0 18 bd 3f 44 c5 3d
       0.19319455 -0.09952865 -0.037307937 0.096321575
000070 74 ad 16 be 0b 3e 7a 3d 10 75 ae 3d 08 9b c4 3d
       -0.14714605 0.061094325 0.08518422 0.09599882
000080 7b 04 6f 3c 54 30 34 3d 69 ca e7 3b 91 75 80 3d
       0.014588471 0.0439914 0.0070736897 0.06272424
000090 b9 cc 76 3d 61 15 46 3d 0e 28 c2 3d 00 b7 1c bd
       0.060253832 0.048360232 0.09480296 -0.03826046
0000a0 a9 d4 9b bb 75 33 26 3e ce 9c be bc a9 c8 1a 3d
       -0.0047555757 0.16230567 -0.02326813 0.03778902
0000b0 fa f4 29 3d 80 f6 3b 3c df cb 00 3e 80 60 02 be
       0.041493393 0.011472344 0.1257777 -0.12732124
0000c0 bd d6 b6 bd 34 7b 1f 3e 2b 94 09 3e e8 79 cf 3d
       -0.08927677 0.15574342 0.13435428 0.10130674
0000d0 48 0e 2d be 67 10 b9 bc c0 76 6e 3c ba e9 b9 bd
       -0.16899979 -0.022590829 0.014554679 -0.09077783
0000e0 cd 90 31 be 04 77 bc bd fb 25 ae 3c db 10 e6 bd
       -0.17340393 -0.09202388 0.021258345 -0.11233684
0000f0 f4 38 94 bd 5e 3a 66 bd 66 54 e1 3d 61 54 5b 3e
       -0.072374254 -0.056208007 0.11002426 0.21418907
000100 c9 0a da 3c 83 73 28 3d 02 4e 0f 3e 28 07 9c bd
       0.02661647 0.041125786 0.13994601 -0.076185524
000110 bc 99 f7 3b 75 a5 a8 bd 88 14 eb bd 52 fc fc 3c
       0.0075561684 -0.082346834 -0.114785254 0.030882034
000120 6d 51 53 bd 65 dd 48 be ef f5 d9 3d 4b 73 31 be
       -0.051591326 -0.19615705 0.10642611 -0.17329137
000130 1d fe 88 3d 1b c2 06 bd de 10 75 be 67 aa ce bd
       0.06689093 -0.032899957 -0.23932216 -0.100910954
000140 8f 79 13 3e ed 57 8e 3c 98 91 9f 3d 7d 96 f9 bd
       0.1440184 0.01737591 0.07791442 -0.121869065
000150 13 a2 23 be 84 3b 6c 3d fa 05 49 bc b7 6c c2 3b
       -0.15979795 0.057673946 -0.012269491 0.00593337
000160 79 6f c7 bd 8a 44 ca 3c 8d ab a4 3d 8f c3 df bd
       -0.097380586 0.024690885 0.08040533 -0.10925972
000170 05 33 01 3c 75 3a 47 bc 79 04 ab bd c5 1e 81 bc
       0.007885699 -0.012159933 -0.083504625 -0.015761742
000180 10 b2 fa 3c 96 81 98 3d dc a9 0f be ba 91 4d bd
       0.030602485 0.074465916 -0.1402964 -0.050187804
000190 c1 d7 0e bd e7 54 8a bd 7d 7d 84 bd 42 b3 4b be
       -0.034873728 -0.06754475 -0.064692475 -0.198926
0001a0 53 2b de bd 1d 11 55 be d7 bc 13 3d f1 c9 63 be
       -0.10848107 -0.2080731 0.036068764 -0.22245003
0001b0 ea 19 48 bd 70 59 d9 bd 3f de 5c bd 38 ef 2a 3d
       -0.04885284 -0.10612762 -0.053922888 0.041732043
0001c0 23 a6 66 be f6 c8 a3 bd b3 c2 d9 3d d6 3a 92 bd
       -0.22524314 -0.07997315 0.10632839 -0.07140128
0001d0 72 af 0d 3e a4 b0 09 bb 92 02 eb 3d 7b 3d a8 3d
       0.13836458 -0.0021009827 0.114750996 0.082148515
0001e0 8d 3b f1 3d 04 16 21 ba 6d f1 15 bc 8f 4b 94 3d
       0.117789365 -0.0006144943 -0.009151799 0.07240974
0001f0 0d 62 75 bd 10 f4 96 3d d9 bc ad bc 10 c4 2f be
       -0.05990796 0.0737077 -0.021208214 -0.17164636
000200 ec 22 dc 3d bf 06 2a 3d c1 cd bd 3c b4 a7 98 3c
       0.10748848 0.04151034 0.0231694 0.018634655
000210 fa 49 30 3d 05 4a 3e be 17 77 1a bc 2a d7 05 3d
       0.0430393 -0.18582924 -0.009427807 0.0326759
000220 4c 69 36 3d 80 54 b9 bd 35 1f 3d 3d 9b 0d 9f bd
       0.044534013 -0.0904932 0.04617234 -0.07766267
000230 05 1f 13 3b 82 93 b0 3c d3 20 de bb a1 50 92 3d
       0.002244891 0.021554712 -0.0067788153 0.07144285
000240 5b 35 ec 3d 38 d0 24 3d 4f 98 7b 3d 49 c7 e2 3d
       0.11533614 0.040237635 0.06142455 0.11073167
000250 a2 01 a9 3c 80 d0 2e bd cc d4 b9 3d 24 45 3c 3d
       0.020630661 -0.04267931 0.09073791 0.045964375
000260 40 3b 34 bd 90 aa d2 3d 0e da 5a 3e 5f 82 de bc
       -0.044001818 0.102864385 0.21372244 -0.027161775
000270 0c f3 ab bd ae cd c0 bd dc 5b a0 3d 49 d8 67 bd
       -0.08395967 -0.0941423 0.07830021 -0.05660275
000280 a1 f7 b0 3d 80 bc 12 be 08 85 91 bd 65 aa 78 3e
       0.086409815 -0.1432972 -0.07105452 0.2428375
000290 25 60 bc 3d ef 74 42 bd bf b4 da 3d 39 64 44 be
       0.091980256 -0.047474798 0.10679006 -0.19178857
0002a0 81 30 e5 3d 3c 24 45 be e7 e3 ea 3d cd da d9 bc
       0.11190892 -0.19252104 0.1146925 -0.02659359
0002b0 9f 56 47 3e 1b ed 8d bd bd a7 1f 3d 97 46 ae 3d
       0.19466637 -0.0692999 0.038978327 0.08509558
0002c0 ab 82 de bc f3 35 b3 bd a4 d7 95 3d bf e0 29 bd
       -0.027161917 -0.08750524 0.07316521 -0.0414741
0002d0 b8 af 6d 3d 82 06 0f ba 73 a1 a7 3b ca 18 66 bd
       0.058028907 -0.0005455987 0.005115682 -0.056175984
0002e0 75 2a b5 bd e9 0e 4d 3d 1d 49 75 3d f4 23 bb bd
       -0.08845989 0.050063048 0.05988418 -0.09137717
0002f0 10 f8 de bd 82 bb b6 bd 91 03 bf bc 59 3a 77 bb
       -0.10887158 -0.08922483 -0.02331713 -0.0037723987
000300 28 b9 7f bd ed eb 3d be 67 0a 73 3d ef 85 2c bd
       -0.062432438 -0.1854703 0.059336092 -0.042119917
000310 9b ed f8 bd fd 0d fc bc 7f 4b 43 bd b8 f6 ae bd
       -0.12154695 -0.030768389 -0.04767942 -0.085431516
000320 42 d5 51 3e d4 95 18 bc 59 ac 1a 3e e2 da ab 3d
       0.20491508 -0.009313066 0.15104808 0.08391358
000330 92 d4 69 bd d0 40 4e be e6 35 28 3e f3 fe 37 be
       -0.05708749 -0.20141912 0.1642681 -0.17968349
000340 f0 de db 3d c6 cd ac bd 68 68 d2 bc ed cd 97 3d
       0.10735881 -0.08437686 -0.02568455 0.07412324
000350 72 09 fd 3d 6c b4 80 3d cd ce 42 3e ba 17 b1 bd
       0.12355317 0.06284413 0.190242 -0.086471036
000360 ec a0 71 3d 17 6d 0c 3e 16 92 4e 3e 12 e5 3e bd
       0.058991358 0.1371349 0.20172915 -0.046605177
000370 a7 91 c5 bd 6b 33 67 bd e6 a4 cd bb a4 81 f6 3d
       -0.096469216 -0.05644552 -0.006275761 0.12036446
000380 4c ac 76 3b 12 45 02 3e d3 20 94 bd 69 63 1f 3e
       0.0037639318 0.1272166 -0.07232823 0.15565266
000390 93 cb 0a 3e 93 25 81 3e 4d 7f 5f 3e 54 ad d6 bd
       0.1355422 0.2522398 0.21825905 -0.104822785
0003a0 8d 66 0a 3d 1d 67 b1 bd 48 00 35 bd 99 8d d5 3a
       0.033789206 -0.086622454 -0.04418972 0.001629281
0003b0 5d a8 05 3e 54 c3 fc 3c 77 1c 53 3e 5e b3 1a be
       0.13052507 0.030854858 0.20616327 -0.15107486
0003c0 34 51 8b bd 0f 69 a6 bc 88 c5 78 3d c2 c8 27 3d
       -0.06802598 -0.020313768 0.060735255 0.040962942
0003d0 0b 58 3a be 26 46 78 3d c2 66 26 bd 1b 6f 86 bc
       -0.18197648 0.060613774 -0.04062534 -0.016410401
0003e0 24 fe 62 be e4 53 d7 bb 6c 4e 26 3d 7a f0 2e be
       -0.2216726 -0.00657128 0.040602133 -0.17083922
0003f0 ff 28 5d be 1e 6b 00 bd 02 57 91 3c 9b d2 7f 3d
       -0.2159767 -0.031352155 0.017741684 0.06245671

lstm.bias_ih_l1 f4 [256]
000000 47 e1 84 3d 4a 96 92 bd 70 8b 86 bd 98 ea 74 bd
       0.06488281 -0.071575716 -0.06569564 -0.05979404
000010 8b 48 6f bc bc 61 60 bd 87 e8 ac bc 0c 88 23 3e
       -0.014604698 -0.054780707 -0.021106971 0.15969867
000020 79 a4 4b bd 29 b9 3b be 3d f2 dd bd c1 75 d3 bd
       -0.0497174 -0.18332352 -0.10837219 -0.10325194
000030 b9 62 8d 3d 61 9f a8 bd 6a eb e2 bd eb c3 9e bd
       0.069035955 -0.08233524 -0.11080058 -0.07752212
000040 1a fd 3a 3d 96 c0 ea 3c b1 06 68 3d 70 2e db bd
       0.045651533 0.028656285 0.056647006 -0.107022166
000050 2e e2 90 3d 01 95 af bd e9 2f f3 3c 0b 27 0f bc
       0.0707439 -0.08573342 0.029685931 -0.008737336
000060 2e 08 cf 3d ca 9a 0a 3d 3d 54 c8 bb 4c 62 cf 3c
       0.10108982 0.033839025 -0.0061135576 0.025315426
000070 67 b7 03 3e 20 9e 4e bc 0e 14 ed 3d d6 9d 1d 3e
       0.12862931 -0.012610942 0.11576091 0.15392241
000080 9d b1 28 be f3 85 3c be 00 94 04 be a9 80 8f bd
       -0.16474004 -0.18410473 -0.12947083 -0.07006962
000090 16 ff 71 bd 4c 6e c4 bd 2c 57 a7 bd e5 5d 96 3d
       -0.05908116 -0.0959135 -0.081709236 0.07342128
0000a0 3f 81 86 bc 70 54 9f bd a7 57 ba 3d 49 66 a2 3d
       -0.016419051 -0.07779777 0.090987496 0.079296656
0000b0 c4 cb dc bd bf 01 8f bd 0f d7 b7 bd 4d 0c b3 bc
       -0.10781053 -0.06982755 -0.08976566 -0.021856451
0000c0 64 49 c2 3d 50 fe ed bd 0f 15 83 ba 25 50 0a 3d
       0.094866544 -0.11620772 -0.0010000783 0.033767838
0000d0 d3 af 8d bd 04 29 67 39 8c 0a a3 39 b6 bc ee bc
       -0.069183014 0.00022045156 0.0003109764 -0.029142719
0000e0 cf 18 8f bd eb 72 01 be ea b4 14 bd e3 38 d2 3c
       -0.06987154 -0.12641494 -0.036305346 0.025661891
0000f0 7a a4 e7 3d 19 b4 84 bd 66 19 34 3d 54 fb aa 3d
       0.11310668 -0.064796634 0.043969534 0.08348718
000100 48 6b 15 bd 11 1e 52 bd 2d 5e da bd a3 c8 11 be
       -0.036479264 -0.051298205 -0.10662494 -0.14236693
000110 e4 6c 1b bc 92 95 ad bd 14 b7 d6 bd f0 b2 ad 3d
       -0.009486411 -0.08475794 -0.10484138 0.08481395
000120 42 91 0a 3e 4b f8 8b 3d 3a 45 38 3d 06 06 37 bb
       0.13531974 0.068344675 0.044987895 -0.0027927174
000130 49 f9 f0 bb 50 e4 f9 3c 9a ad 39 bd 8f 44 14 3e
       -0.007353936 0.030504376 -0.045331575 0.14479278
000140 9e f8 ec bc eb c3 e1 bc 69 61 ed 3d 19 4e 95 3d
       -0.028927144 -0.027559241 0.11590845 0.072902866
000150 ea 22 30 bd fb 42 6b 3d 19 fb 6a 3c 26 73 d0 3c
       -0.043002047 0.057436924 0.014342093 0.025445532
000160 94 e6 d6 3c a0 8e c3 3a 3f d2 fb bc a3 50 d7 bc
       0.026232995 0.0014919825 -0.030739902 -0.026283568
000170 83 95 a3 3d 01 e4 57 bd b7 bc b3 3d b9 76 95 bd
       0.079875015 -0.052707676 0.08776229 -0.07298035
000180 88 42 9a 3d 29 c0 ea bd 28 f8 43 3d 6d 51 80 bd
       0.07532221 -0.11462433 0.047844082 -0.06265531
000190 2b d1 f2 bd 8f 1a 4d 3e 09 c7 ed 3c fa 17 01 3e
       -0.11856302 0.20029663 0.029025571 0.12606803
0001a0 00 82 28 bd 6f 47 6e 3d 16 5d 94 bd 6f 9b 6e 3c
       -0.041139603 0.058173593 -0.07244317 0.014563425
0001b0 69 4d 72 3d 8c d8 f4 bd 89 65 cc 3d 53 b8 21 bd
       0.059155855 -0.119553655 0.09980304 -0.039482426
0001c0 23 f2 03 3e 7c a4 9f 3d ad a8 c6 3c 37 6a ed 3d
       0.12885337 0.07795045 0.024250353 0.115925245
0001d0 29 80 29 bd c5 7f 0a bc d0 3e 11 3d 9c 48 1b be
       -0.04138199 -0.008453314 0.035460293 -0.15164417
0001e0 fc 33 b4 bd 2e 61 05 3d 46 cd df bc 85 2d 30 bb
       -0.08798978 0.03256338 -0.027319562 -0.00268826
0001f0 79 3c 5e 3d 8f 60 1a 3d e6 79 b5 bc d3 e8 c4 3d
       0.05425689 0.03768974 -0.022152852 0.0961472
000200 12 6e c6 bd c0 23 83 bd fa 26 63 bd 26 13 88 3b
       -0.09688963 -0.06403303 -0.055457093 0.0041526733
000210 d2 ba 36 bc d9 33 b0 3d 64 5a 13 3e dc 11 11 3d
       -0.01115294 0.08603639 0.1438995 0.035417423
000220 3d 72 bb 3d 29 85 6b bd c5 21 80 3d cd f5 91 3d
       0.091526486 -0.05750004 0.06256441 0.07126961
000230 9a 29 fa bd 74 1e d1 bd cb 51 75 bd 07 68 8c 3d
       -0.12214966 -0.102108866 -0.059892457 0.06855779
000240 52 e7 3d 3c c3 7c cd bd 66 f5 f3 3d be a4 85 3d
       0.011590796 -0.10033562 0.119120404 0.06525563
000250 bf 2d 7a bd d4 ac 19 bd e1 78 5a bd bb 8d 2a 3d
       -0.061078783 -0.037518337 -0.053337935 0.04163907
000260 bd 6a 61 3d 62 c8 2d 3d 6c a9 9f 3d 7c bf 71 bc
       0.055033434 0.042427428 0.077959865 -0.014755126
000270 7a dd f0 bd 3c 24 e2 bc b9 0b 1b be 8f ed e8 bd
       -0.11760993 -0.027605169 -0.1514119 -0.11373436
000280 c9 7d b7 3d ea ea 1a 3d 6b 3d 06 3e b8 31 80 3d
       0.089595385 0.037821688 0.13109367 0.06259483
000290 fa 21 07 3e fa 11 a0 bd e4 c5 14 3d 94 27 80 3d
       0.13196555 -0.07815929 0.036321536 0.06257549
0002a0 8d 89 8f bd 2a 2d e0 3d a4 77 1a be 4f 7b 2d 3d
       -0.070086576 0.10946114 -0.15084702 0.042353924
0002b0 4a 23 9f bc 0f ab ae 3d 3c a9 a3 3d cb 21 9e 3d
       -0.019426007 0.085287206 0.07991263 0.07721289
0002c0 e7 e7 32 3d f5 fd e0 3d ec ef c6 bd a4 01 7c 3d
       0.04367819 0.109859385 -0.0971373 0.061525002
0002d0 c9 17 e4 bd b4 57 0d be 75 73 f6 bc b6 ae dd bd
       -0.11137349 -0.13802987 -0.030084351 -0.10824339
0002e0 48 4f 64 bd ba 44 ef bd 46 21 ef 3d 83 11 9c bd
       -0.05573967 -0.116830304 0.11676268 -0.076205276
0002f0 f7 07 c5 3d 90 2a a7 bd 90 4d 41 bd b2 21 d4 3b
       0.0962066 -0.08162415 -0.04719311 0.0064737434
000300 38 35 ae 3c 51 98 dc bd 03 ff d3 3b 3b d0 15 be
       0.021265611 -0.107712395 0.0064696088 -0.14630215
000310 1e 89 16 bd 18 07 72 3d d3 61 e8 3d b2 8a 54 3e
       -0.03675186 0.059088796 0.113467835 0.20756033
000320 40 27 7e bd 46 64 83 3d de cb 27 3d d9 a7 65 bc
       -0.06204915 0.0641561 0.040965907 -0.014017069
000330 aa a9 50 3d b7 9b a1 3d 2e af 2b 3d 5f e5 88 3c
       0.050943054 0.078910284 0.04191511 0.016710935
000340 6d 39 99 3d 54 e6 a7 3d cc 3e a8 3c 4b 68 91 bd
       0.07481656 0.081982285 0.020537756 -0.070999704
000350 ac ef db 3d cb 1f f8 bc 78 6a 5b 3d 5d 20 a2 bb
       0.10739073 -0.030288598 0.053568333 -0.0049477057
000360 39 0a 36 bb 7e ea 50 3d 79 65 a4 3d bb f0 40 3d
       -0.002777709 0.05100488 0.08027167 0.04710458
000370 ed 53 89 bd 97 ee 62 bc c8 12 c5 bd f7 63 08 bd
       -0.06705461 -0.01385083 -0.09622723 -0.03329846
000380 20 e6 45 3d 57 ea f2 3c 8d 89 02 3e 33 d8 a3 3d
       0.048315167 0.029652758 0.12747784 0.08000221
000390 83 45 08 3d d2 86 1f 3e e6 f1 c7 3d bf b1 72 3d
       0.033269417 0.15578774 0.09762935 0.059251543
0003a0 73 f4 b8 3d 84 3d 9d bd 9a 14 5d bd d2 20 cd 3c
       0.09031 -0.07677749 -0.053974725 0.025040064
0003b0 9e 22 56 bb ff 1d b4 bd c9 23 ec 3d 31 25 de bc
       -0.0032674442 -0.08794784 0.11530263 -0.027117344
0003c0 20 9d 2d 3e a6 4a b1 bc c9 aa c9 bd 37 09 45 bd
       0.1695447 -0.02164204 -0.09847028 -0.04810449
0003d0 6d b5 89 3d 44 e1 32 bd d1 f7 b0 bd d0 5a 22 3d
       0.06724057 -0.04367186 -0.08641017 0.039637387
0003e0 7e e4 93 3d 8c e1 1c bd eb 7c 31 3e 0c f6 18 3e
       0.07221316 -0.038301036 0.17332809 0.1493761
0003f0 25 88 05 3d 88 37 29 bd ac 64 0c be fa 00 f4 bb
       0.03260054 -0.041312724 -0.13710278 -0.0074464055
