src/util/AI/checkpoints/024.ckpt (torch, 353508 bytes, 14 tensors)

lstm.weight_ih_l0 f4 [256, 12]
0	0xbd473bcc	-0.04864101
1	0x3da171e6	0.078830525
2	0xbe2204ce	-0.15822145
3	0x3d0c8b0d	0.034312297
4	0x3dc1b0ae	0.09457527
5	0x3d9e73c8	0.07736927
6	0x3d6fff93	0.058593344
7	0xbc0d8205	-0.008636956
8	0xbddb59de	-0.107105
9	0x3d0b4398	0.03400001
10	0xbde1afc3	-0.11019852
11	0xbd522339	-0.051303122
12	0xbe2c60ad	-0.16833754
13	0xbb06eee7	-0.0020589174
14	0xbd87a676	-0.06623547
15	0xbdd9f8d7	-0.106431656
16	0xbd8c8efb	-0.06863209
17	0xbd87b0fc	-0.06625554
18	0x3dff2fa8	0.124602616
19	0x3df2ef33	0.1186203
20	0x3db5c678	0.088757455
21	0x3d0cacb2	0.034344383
22	0xbdbac45d	-0.091194846
23	0x3d04dfa8	0.032439858
24	0x3d94b97f	0.07261943
25	0x3df0fbea	0.11766799
26	0x3d2662b7	0.040621486
27	0x3e0194de	0.12654445
28	0x3d1730d3	0.036911797
29	0x3e4f3655	0.2023557
30	0x3e522e60	0.20525503
31	0xbdcf9628	-0.10136062
32	0x3c8716e0	0.0164904
33	0xbd0df5b1	-0.034658138
34	0x3d389d8d	0.045072127
35	0xbdb28d1f	-0.08718323
36	0x3c80e2c4	0.01573313
37	0x3d42ff84	0.04760696
38	0x3d8a4063	0.06750562
39	0xbe55d3b9	-0.20881547
40	0xbe49c796	-0.19705042
41	0xbc251700	-0.010076284
42	0x3e3ef354	0.1864751
43	0x3b9fd960	0.004878208
44	0xbe0db7e7	-0.13839684
45	0xbd586159	-0.052827213
46	0x3e465771	0.19369294
47	0x3c9ffd36	0.01952992
48	0x3cf2709c	0.029594712
49	0xbd9c7874	-0.07640162
50	0xbd93a31e	-0.072088465
51	0xbd50c285	-0.05096676
52	0x3d49266c	0.049108908
53	0xbc48cd5f	-0.012255996
54	0x3db25ef2	0.08709516
55	0x3e47fff1	0.19531228
56	0x3cbd046e	0.023073401
57	0xbda25ccd	-0.079278566
58	0xbdb7f8be	-0.08982991
59	0xbdc04919	-0.09388942
60	0x3c967b78	0.018369421
61	0x3d1de00b	0.038543742
62	0x3d1ad2af	0.03779858
63	0x3db437e9	0.087997265
64	0x3c8b2b13	0.016988313
65	0xbdc7071a	-0.097181514
66	0x3e782f68	0.24236834
67	0x3e946430	0.28982687
68	0xbc8faee7	-0.017539455
69	0xbd4b9d6e	-0.049710684
70	0xbb630aec	-0.003464396
71	0x3d1972e0	0.03746307
72	0x3df051d1	0.11734355
73	0x3c8efc1c	0.0174542
74	0xbe1a4726	-0.15066203
75	0xbe323d7a	-0.17406264
76	0x3dcd351c	0.100198954
77	0x3c4dc825	0.012559925
78	0xbd7bbb55	-0.06145795
79	0x3e02c585	0.1277066
80	0xbd5147a8	-0.051093727
81	0xbd785559	-0.06062827
82	0x3c5d7314	0.013516206
83	0x3784fa6c	1.5852238e-05
84	0xbd803d60	-0.06261706
85	0x3e01db12	0.12681225
86	0x3d4b953f	0.04970288
87	0x3d249263	0.040178668
88	0x3da56621	0.0807612
89	0x3d9d7530	0.07688367
90	0xbc2e7389	-0.010647663
91	0x3e04fc2f	0.12986825
92	0xbd62234e	-0.05520945
93	0xbcf7fed3	-0.030272877
94	0xbd412b39	-0.04716036
95	0xbd539654	-0.051657036
96	0xbc49e536	-0.012322715
97	0xbb87d1c1	-0.0041448777
98	0xbded9e7f	-0.11602496
99	0x3c8405e4	0.01611609
100	0xbc1176dd	-0.008878437
101	0x3d729d9f	0.05923235
102	0x3e57c633	0.21071701
103	0x3e8a5978	0.27021384
104	0x3cb460c9	0.022018807
105	0xbd4c5ca0	-0.04989302
106	0xbdc3f071	-0.09567345
107	0xbc403313	-0.011730927
108	0x3d82a328	0.06378776
109	0xbd15c46a	-0.03656427
110	0x3dde4966	0.108538434
111	0x3d9133bf	0.07089948
112	0xbd390fd9	-0.04518113
113	0x3c263c8b	0.0101462705
114	0x3d99370b	0.07481202
115	0xbe20c35d	-0.15699525
116	0xbe4c2670	-0.19936538
117	0x3c753d43	0.014968219
118	0xbcf632f7	-0.030053599
119	0x3dfddcba	0.12395616
120	0x3ce64efe	0.028113838
121	0xbda4751b	-0.080301486
122	0xbdeba120	-0.115053415
123	0xbd4bf67f	-0.049795624
124	0x3e292176	0.1651667
125	0x3d4fd4fb	0.050740223
126	0x3dee0cb2	0.11623515
127	0x3dfb5f26	0.122740075
128	0x3e091027	0.13385068
129	0x3b983557	0.0046450305
130	0x3dc232c5	0.0948234
131	0xbd4258d5	-0.047447998
132	0x3da3d183	0.079989456
133	0x3d64b6bc	0.05583833
134	0x3d468e13	0.048475336
135	0xbdb3e43a	-0.08783765
136	0x3d5421f8	0.051790208
137	0x3c9d5e59	0.019210028
138	0xbdc1ead7	-0.0946862
139	0xbe38e155	-0.18054707
140	0xbe5f692f	-0.21817468
141	0x3d576b11	0.05259234
142	0x3e2d6a4e	0.16935083
143	0x3cdec410	0.0271931
144	0x3d13c2bb	0.03607438
145	0x3caada9c	0.020856194
146	0xbe05b556	-0.13057455
147	0xbde6c2ea	-0.11267646
148	0x3d09b125	0.033616204
149	0x3e1f4541	0.15553762
150	0xbd90bd23	-0.07067325
151	0xbe8aaef9	-0.2708662
152	0xbdb40512	-0.087900296
153	0x3cf6f319	0.030145215
154	0xbd093c14	-0.03350456
155	0xbdcff6fa	-0.10154529
156	0x3c960515	0.01831297
157	0x3d5dadc1	0.054120783
158	0x3d8b4909	0.0680104
159	0xbd972245	-0.07379583
160	0xbe0656c2	-0.13119033
161	0xbdca7db3	-0.098872565
162	0x3e1e2f00	0.15447617
163	0xbde5a0c6	-0.11212306
164	0xbe22aab4	-0.1588543
165	0xbda39028	-0.0798648
166	0x3c769089	0.015049108
167	0x3d1c5e25	0.03817572
168	0xbd869cfa	-0.0657291
169	0x3d14dc5e	0.03634297
170	0xbdb62a3b	-0.088947736
171	0x3ddb5e99	0.107114024
172	0xbd6f1e03	-0.05837823
173	0xbd9eb80e	-0.077499494
174	0x3dd476f4	0.10374251
175	0x3d2f9b06	0.04287245
176	0xbdd5f4aa	-0.104470566
177	0x3bc810ec	0.006105533
178	0xbc58bd68	-0.013228752
179	0x3d45477c	0.048163876
180	0xbd780ab0	-0.060557067
181	0xbd520319	-0.051272485
182	0x3e14f065	0.14544828
183	0x3c934443	0.017976886
184	0x3e084bd7	0.1331018
185	0x3c643176	0.013927808
186	0xbdec8965	-0.115496434
187	0xbcf50982	-0.02991176
188	0xbd1b5c0e	-0.037929587
189	0xbdbac312	-0.09119238
190	0xbd4fc512	-0.05072505
191	0x3e0824e1	0.13295318
192	0xbd92bcc5	-0.07164911
193	0x3cc84da9	0.024451094
194	0x3d79ac8a	0.06095556
195	0x3e27211a	0.16321221
196	0x3d91335f	0.070898764
197	0x3d72ae7b	0.05924843
198	0xbd5bb89b	-0.05364285
199	0xbe2ab620	-0.16671038
200	0xbd3eaada	-0.046549655
201	0xbcf809fe	-0.030278202
202	0xbdbf97ba	-0.093551114
203	0xbd195a94	-0.037439898
204	0xbd98f9a5	-0.07469491
205	0xbd2673e0	-0.04063785
206	0xbd26aae3	-0.040690314
207	0xbe57fbe4	-0.21092182
208	0x3c9fe381	0.019517662
209	0x3e3d34b8	0.18477142
210	0x3cea2f2b	0.028586945
211	0xbde5cdd0	-0.11220896
212	0x3d9c506e	0.07632528
213	0xbbad9133	-0.00529685
214	0x3e0c4e4d	0.13701744
215	0xbdff3215	-0.12460724
216	0xbe03b99b	-0.12863772
217	0xbbabe95b	-0.005246324
218	0xbd5be5a1	-0.053685788
219	0x3dd9cb0e	0.10634433
220	0x3d751f1a	0.059844114
221	0xbe1a7bab	-0.15086238
222	0xbe701975	-0.23447211
223	0x3dcaa8cf	0.09895479
224	0x3d3db317	0.04631337
225	0x3d68bf72	0.0568232
226	0xbe488560	-0.19582129
227	0xbdc548b5	-0.096330084
228	0xbe5a1a90	-0.21299195
229	0x3c83dee4	0.016097493
230	0xbdd4ba6b	-0.10387119
231	0x3d8e737d	0.069556214
232	0x3e028b75	0.12748511
233	0x3d033197	0.032029714
234	0xbd92ff27	-0.07177573
235	0xbd222a52	-0.03959114
236	0x3c91f74d	0.017818118
237	0x3db42b00	0.08797264
238	0xbd92e434	-0.071724325
239	0x3bf06ff2	0.0073375637
240	0xbdbc6f58	-0.09200925
241	0x3e3908ed	0.18069811
242	0xbddc7cb7	-0.10765975
243	0xbbda6f32	-0.0066660875
244	0xbd1d37bc	-0.03838323
245	0xbda4530c	-0.080236524
246	0xbd2a455a	-0.041570045
247	0x3e01b66c	0.12667245
248	0xbd97b884	-0.074082404
249	0xbdb20eae	-0.08694206
250	0x3d49b90e	0.049248748
251	0x3c7e0508	0.015504129
252	0xbb1be10a	-0.0023785257
253	0x3d879487	0.06620126
254	0xbdf4ff15	-0.119627155
255	0x3d295b7d	0.041347016

lstm.weight_hh_l0 f4 [256, 64]
0	0x3d396a11	0.04526717
1	0xbd861ab8	-0.06548065
2	0x3e259742	0.16170982
3	0xbcab65b7	-0.020922525
4	0x3d8c8d43	0.06862881
5	0x3e4326c8	0.19057763
6	0xbdb33492	-0.08750261
7	0xbca6e76a	-0.020374019
8	0x3df02705	0.117261924
9	0x3e3707f3	0.17874126
10	0x3da3cf7f	0.07998561
11	0x3cd3af89	0.025840538
12	0x3e490d52	0.19633988
13	0xbdc91c55	-0.09819857
14	0x3df46509	0.119333334
15	0x3d564b37	0.052317824
16	0xbd4255b1	-0.047445003
17	0x3d807c05	0.06273655
18	0x3ba2aac1	0.004964203
19	0x3d0f3483	0.03496219
20	0xbd073d10	-0.033017218
21	0xbdbae57f	-0.09125804
22	0x3c24e892	0.010065215
23	0xbc99daae	-0.018781032
24	0x3e2941cc	0.16529006
25	0xbd5af1cf	-0.053453263
26	0xbe0e4674	-0.13894063
27	0xbb1325bf	-0.0022452918
28	0x3da937db	0.08262607
29	0x3d9468ef	0.07246577
30	0xbdf6413d	-0.12024162
31	0xbd8b5fd7	-0.068053894
32	0xbd8c408e	-0.0684825
33	0x3bb7a0ce	0.005603886
34	0x3d8e0fa6	0.069365785
35	0xbde5fded	-0.11230073
36	0x3a37d74b	0.0007012977
37	0x3d08f54f	0.03343707
38	0xbd8fc17e	-0.070193276
39	0x3d92992b	0.07158121
40	0xbd7b6b08	-0.06138137
41	0xbd4f7992	-0.050653048
42	0x3ca15fdf	0.019699035
43	0xbdee167f	-0.116253845
44	0xbd8e4a9c	-0.06947824
45	0xbe362a9d	-0.17789693
46	0xbdd9ce59	-0.10635061
47	0xbe1eca3f	-0.15506838
48	0x3dacd5aa	0.08439191
49	0x3d90b19f	0.070651285
50	0x3dc7e337	0.09760135
51	0x3d71bdc5	0.05901887
52	0xbe45b486	-0.19307145
53	0xbb752413	-0.0037405535
54	0x3e5fcd12	0.21855572
55	0xbdb888f9	-0.090105005
56	0x3d14d518	0.036336035
57	0x3def35e5	0.116802014
58	0xbe0a25e2	-0.13491014
59	0xbd93112b	-0.07181009
60	0xbd7632dc	-0.060107097
61	0x3e1db1da	0.15399876
62	0x3cc087ef	0.023502318
63	0x3dde4919	0.10853786
64	0x3d4ca2b5	0.049959857
65	0xbdaa86c4	-0.08326486
66	0x3e861be8	0.26193166
67	0x3dc0d68d	0.09415922
68	0x3d852ad1	0.06502307
69	0xbdbbda47	-0.091724925
70	0xbd368a06	-0.044565223
71	0xbd75b9d3	-0.05999167
72	0xbd819c17	-0.063286
73	0xbe1f18fd	-0.15536876
74	0x3dde90f1	0.10867489
75	0x3cbf6b69	0.023366647
76	0x3c10c200	0.008835316
77	0xbdb7268e	-0.089429006
78	0xbe2fada9	-0.1715609
79	0x3da46fea	0.080291584
80	0x3e05176f	0.1299722
81	0xbe4eb180	-0.20184898
82	0x3e4f5c87	0.2025014
83	0x3d93822a	0.07202561
84	0x3e553ba2	0.2082353
85	0xbdf17022	-0.11788966
86	0xbe49edf6	-0.19719681
87	0x3d2ce0b1	0.04220647
88	0x3d9b8f52	0.075956956
89	0xbe226045	-0.15857036
90	0x3d55a7df	0.052162047
91	0x3e23c05d	0.1599135
92	0xbd8a329b	-0.067479335
93	0xbe73aa4c	-0.23795432
94	0xbd195127	-0.03743091
95	0x3e2edc80	0.17076302
96	0xbe14648a	-0.14491478
97	0xbdbfac66	-0.09359054
98	0x3cbc001b	0.022949269
99	0x3d61a3bf	0.0550878
100	0x3d6eb681	0.058279518
101	0xbd8ade47	-0.06780677
102	0xbdf42ccf	-0.11922609
103	0x3dc38849	0.09547479
104	0x3ceabcca	0.028654475
105	0xbe2e7178	-0.17035472
106	0xbd84b16d	-0.06479154
107	0xbe3289ac	-0.1743533
108	0xbd9aa3d1	-0.07550777
109	0xbe135f7e	-0.14391896
110	0xbe131c8e	-0.14366361
111	0xbd3f7891	-0.04674584
112	0xbcaaad90	-0.020834714
113	0xbc39e570	-0.011346206
114	0x3d923175	0.071383394
115	0x3ac5da62	0.001509499
116	0xbe37c5e3	-0.17946582
117	0x3dcb996a	0.09941371
118	0xbcf2cb48	-0.029637948
119	0x3e6c98e8	0.23105204
120	0xbd903cd1	-0.0704285
121	0x3dec78b8	0.11546463
122	0xbe2d67b9	-0.16934098
123	0x3dc8e182	0.09808637
124	0x3d05acc1	0.032635454
125	0xbd88c72c	-0.06678614
126	0x3da03b16	0.0782377
127	0xbdddfcbd	-0.108392216
128	0x3e0fc1d5	0.14038785
129	0xbe52b7f1	-0.2057798
130	0xbd864675	-0.06556407
131	0x3d8beaea	0.06831916
132	0xbd75859b	-0.05994187
133	0x3d6acf10	0.057326376
134	0xbce8c2d0	-0.028413206
135	0x3dc61809	0.09672553
136	0x3d8f7153	0.07004037
137	0xbdc3d5b9	-0.09562249
138	0x3d1df5fb	0.038564663
139	0x3d83fa0d	0.06444178
140	0x3e307ae8	0.17234385
141	0xbd10d196	-0.035356127
142	0xbd78addb	-0.060712676
143	0x3db20013	0.086914204
144	0xbe066802	-0.13125613
145	0xbd02bc34	-0.031917766
146	0x3e527b9a	0.20554963
147	0x3bc05881	0.0058699255
148	0xbddbf984	-0.10740951
149	0x3d0c75fd	0.03429221
150	0xba56db2e	-0.00081961125
151	0x3d3c66bc	0.045996413
152	0xbcf92364	-0.030412383
153	0xbe1d9752	-0.15389755
154	0xbde6972b	-0.11259302
155	0xbdb76ee1	-0.08956695
156	0xba5fa6a3	-0.00085316057
157	0x3d5fc1c7	0.05462816
158	0xbe38cbca	-0.1804649
159	0xbdf850a2	-0.121247545
160	0x3c7815d1	0.01514192
161	0x3cfb2372	0.03065655
162	0x3e05784d	0.13034172
163	0xbd05a2be	-0.032625906
164	0x3d4f1193	0.05055387
165	0x3de20d87	0.110377364
166	0xbcabe7bf	-0.020984529
167	0x3e202909	0.15640654
168	0x3e334b7a	0.17509261
169	0x3d3da128	0.04629627
170	0x3d51283f	0.051063772
171	0xbc41394f	-0.011793449
172	0x3ca016a6	0.01954205
173	0x3de498e6	0.111619756
174	0xbe2149dd	-0.15750833
175	0x3e2962a4	0.16541535
176	0xbd9319d7	-0.07182663
177	0x3c1908d7	0.0093404865
178	0x3b9c42ae	0.004768691
179	0xbe29ec15	-0.16593964
180	0xbae49aef	-0.0017441193
181	0xbe4b7039	-0.19867028
182	0xbb7f4b30	-0.0038954727
183	0xbe1e0aa8	-0.15433753
184	0xbe07621d	-0.13221021
185	0x3cf21014	0.029548682
186	0x3dc73316	0.09726541
187	0x3d0fffa5	0.03515591
188	0xbdc00db9	-0.093776174
189	0x3c98d68b	0.01865699
190	0xbde8d0ac	-0.11367926
191	0x3e6c381b	0.23068278
192	0x3e866c0b	0.26254305
193	0xbe89d451	-0.26919797
194	0x3e0411a7	0.12897359
195	0xbe84332c	-0.2582029
196	0xbb703706	-0.003665389
197	0xbe6ddaca	-0.23227993
198	0xbe0d337d	-0.13789172
199	0xbda781d3	-0.08179059
200	0x3e25761d	0.16158338
201	0xbe3ee517	-0.18642078
202	0x3d9ea0f5	0.07745544
203	0xbb61f7a8	-0.003447989
204	0xbc2d8ad1	-0.010592178
205	0xbcec9644	-0.028880246
206	0xbad1bd35	-0.0016001823
207	0x3e238325	0.15967996
208	0x3d804029	0.062622376
209	0xb7df4d8d	-2.6619784e-05
210	0xbe3745f4	-0.17897779
211	0x3e4bc277	0.19898401
212	0xbdbd48b3	-0.09242382
213	0xbe2a1621	-0.16610004
214	0xbe39cfdb	-0.18145697
215	0x3df12faf	0.11776673
216	0x3d9ba88e	0.07600509
217	0xbdf4623d	-0.119328
218	0xbe46762e	-0.1938102
219	0x3e626391	0.22108294
220	0x3e22071b	0.15823023
221	0xbdd24eba	-0.10268922
222	0x3e2c5999	0.16831054
223	0x3a502888	0.000794061
224	0x3e32fe3c	0.17479795
225	0xbba99b1e	-0.005175962
226	0x3bf610c8	0.0075093247
227	0x3d6031e8	0.054735094
228	0xbde217d5	-0.11039702
229	0xbde602c4	-0.11230996
230	0xbce84237	-0.028351886
231	0x3dca253e	0.09870385
232	0x3e56ad2f	0.20964502
233	0x3e0862b6	0.13318905
234	0x3c92d839	0.017925369
235	0xbe9eff28	-0.31054044
236	0x3c1b9683	0.009496334
237	0x3e0702a0	0.13184595
238	0x3d0db199	0.0345932
239	0x3e99ab73	0.30013618
240	0x3d9f0495	0.07764546
241	0xbe42a673	-0.19008808
242	0xbde5c163	-0.11218526
243	0x3db8a300	0.09015465
244	0xbd4c9cf4	-0.04995437
245	0x3df7f7e0	0.12107825
246	0x3db3c6a4	0.08778122
247	0x3d150d3d	0.036389578
248	0x3da84426	0.08216123
249	0x3cbc49d3	0.02298442
250	0xbea5994b	-0.32343516
251	0xbe3974c2	-0.18110946
252	0x3dc2f30f	0.09519016
253	0xbe8c501f	-0.27404878
254	0x3e3d64d7	0.18495499
255	0xbc2806a8	-0.010255493

lstm.bias_ih_l0 f4 [256]
0	0xbd199301	-0.03749371
1	0xbdc59e88	-0.09649378
2	0xbda1e913	-0.079057835
3	0xbe05d7c1	-0.13070585
4	0xbdbd7f81	-0.09252835
5	0x3cfa2ded	0.030539477
6	0x3cfcf2ee	0.030877557
7	0x3dadad26	0.08480291
8	0x3e15f532	0.14644316
9	0xbdc597eb	-0.09648117
10	0xbc8e6eb7	-0.017386777
11	0x3bc8a51c	0.006123198
12	0xbd4709da	-0.04859338
13	0xbd6eb8bf	-0.058281656
14	0x3d99f775	0.07517902
15	0xbd058797	-0.03260001
16	0xbe0a6e44	-0.13518625
17	0x3c880005	0.016601572
18	0xbd1a4b34	-0.037669376
19	0x3c5cc47a	0.013474578
20	0xbce5628b	-0.02800109
21	0x3dce2f62	0.10067631
22	0xbcf8a31d	-0.030351216
23	0xbd454a23	-0.048166405
24	0x3d902f7c	0.07040307
25	0x3d3239db	0.043512207
26	0xbe57e7e3	-0.21084552
27	0x3d410245	0.047121305
28	0x3da04669	0.0782593
29	0xbcf1b1dd	-0.029503757
30	0x3d9e005a	0.07714911
31	0x3db4acfd	0.088220574
32	0x3d7a6496	0.061131082
33	0xbd548bf5	-0.051891286
34	0xbcef35de	-0.02920049
35	0x3de843e6	0.113410756
36	0x3d3d355b	0.046193462
37	0xbdb43c6b	-0.08800586
38	0xbd810321	-0.06299425
39	0xbe268a1a	-0.16263619
40	0x3b3c9a5e	0.0028778533
41	0xbc9cb89c	-0.019130997
42	0x3dd504c1	0.10401297
43	0x3d88bdaa	0.066768005
44	0x3cee0d7e	0.029059168
45	0xbd9b3270	-0.075779796
46	0x3db12962	0.08650471
47	0x3e4c45de	0.19948527
48	0x3d41de28	0.047331005
49	0xbdcd8f1c	-0.100370616
50	0xbd595b56	-0.05306562
51	0xbd8cf83e	-0.06883286
52	0xbc82f66b	-0.015986642
53	0xbd9ec070	-0.07751548
54	0x3d84133a	0.0644898
55	0xbdd6ec40	-0.1049428
56	0xbe857390	-0.2606473
57	0xbe4c268d	-0.19936581
58	0xbaa5262d	-0.0012599878
59	0xbd9f00ee	-0.07763849
60	0xbcb5a35c	-0.022172622
61	0xbc0b500b	-0.00850297
62	0x3e213135	0.15741427
63	0x3dd11563	0.10209157
64	0xbd880581	-0.06641675
65	0xbd7cfaaa	-0.06176249
66	0xbd616c3e	-0.05503487
67	0xbe36415f	-0.17798375
68	0x3de1944f	0.11014616
69	0xbd930329	-0.07178337
70	0xbc958066	-0.018249702
71	0xbda1ac61	-0.07894207
72	0xbdc48583	-0.09595778
73	0xbc465f71	-0.012107716
74	0xbc1fd9e6	-0.009756541
75	0x3d442243	0.047884237
76	0xbdfd640f	-0.123726
77	0xbe0d0fa8	-0.13775504
78	0xbca679ac	-0.02032169
79	0x3d651b02	0.05593396
80	0xbd7d0f8e	-0.061782412
81	0xbda4f549	-0.08054597
82	0x3cfd3e37	0.030913455
83	0x3de7ae52	0.11312546
84	0x3cfb1462	0.030649368
85	0x3d91b3c9	0.071143694
86	0x3dfdb922	0.12388827
87	0x3dc0772a	0.09397729
88	0x3d64b17f	0.055833336
89	0x3d8f218e	0.06988822
90	0xbd16b9f2	-0.036798425
91	0x3d7a0eaa	0.06104914
92	0x3d2c52d8	0.042071193
93	0x3e374669	0.17897953
94	0xbd356413	-0.04428489
95	0x3e4c3ac2	0.1994429
96	0x3e092bc7	0.13395606
97	0x3d0fe47a	0.03513
98	0xbb1edb40	-0.002423957
99	0x3e0351f1	0.12824227
100	0x3dc00fd3	0.09378018
101	0xbe625535	-0.22102816
102	0x3d6f1c30	0.05837649
103	0xbe465cbf	-0.19371317
104	0x3b72f63a	0.0037073032
105	0x3e0d0614	0.1377185
106	0x3db801de	0.08984731
107	0x3d846d44	0.06466153
108	0x3d1ffcd5	0.03905948
109	0xbd81cc8e	-0.06337844
110	0x3db05349	0.086096354
111	0x3c522b79	0.0128277475
112	0x3b14aea2	0.0022687097
113	0x3e105efa	0.1409873
114	0x3daad3e5	0.08341197
115	0xbdb2d9e4	-0.087329656
116	0x3e0803ea	0.13282743
117	0x3c8f7f50	0.017516762
118	0xbdf898ec	-0.121385425
119	0x3e1d2038	0.15344322
120	0xbcd5164c	-0.026011609
121	0xbcf633b5	-0.030053953
122	0xbbd671ba	-0.006544319
123	0xbe0b11c2	-0.13580993
124	0xbe04a1cf	-0.1295235
125	0xbd92eea1	-0.07174421
126	0x3de7d551	0.11319984
127	0xbcbc576b	-0.022990903
128	0xbbf304ff	-0.007416367
129	0xbdb99373	-0.09061327
130	0x3d6b8c3a	0.057506777
131	0x3d474fbf	0.048660036
132	0xbce95c6e	-0.028486457
133	0x3dc729ba	0.097247556
134	0xbc0bc2c7	-0.008530325
135	0x3bf0e47b	0.0073514557
136	0xbe2c3c6b	-0.16819923
137	0xbd270264	-0.040773764
138	0xbdf23855	-0.11827151
139	0xbdc3ab6d	-0.09554181
140	0xbb8157f2	-0.0039472515
141	0xbc0282a0	-0.007965714
142	0x3a05e4c6	0.0005107637
143	0x3d26c1af	0.040712055
144	0x3d422eac	0.04740779
145	0x3dcd6388	0.1002875
146	0xbd92ac70	-0.07161796
147	0x3e3dc0e0	0.18530607
148	0xbdbc1d47	-0.09185272
149	0x3da798d0	0.081834435
150	0x3e08fd66	0.13377914
151	0x3e25d480	0.16194344
152	0x3c1509dc	0.009096589
153	0x3d59cc5d	0.05317341
154	0x3e39242e	0.18080208
155	0x3d7ec969	0.0622038
156	0xbcfc07c0	-0.030765414
157	0xbddaa811	-0.106765874
158	0xbb44bbf9	-0.0030019267
159	0xbe2a1489	-0.16609396
160	0x3e348d81	0.17632104
161	0x3cd5028f	0.026002197
162	0xbd29b0e7	-0.041428473
163	0xbcc63927	-0.024197174
164	0x3dcfe064	0.10150221
165	0xbddf7669	-0.10911257
166	0xbda5e776	-0.08100788
167	0xbd70a164	-0.058747664
168	0x3de7cc8b	0.1131831
169	0x3d2a13aa	0.04152266
170	0xbe91c899	-0.28473356
171	0xbd3195ee	-0.043355875
172	0x3c9f5d06	0.019453537
173	0xbdb51150	-0.08841193
174	0x3dec2497	0.115304165
175	0xbd8697fb	-0.06571957
176	0x3d27c270	0.040956914
177	0x3e314f04	0.17315298
178	0x3d6233ca	0.05522517
179	0x3e23c125	0.15991648
180	0x3ce81afb	0.028333178
181	0x3db028d6	0.08601539
182	0x3d1a5ca6	0.037686013
183	0xbdc87c7d	-0.09789369
184	0xbd6137c1	-0.05498481
185	0x3e0522a3	0.13001494
186	0x3e28288b	0.16421716
187	0x3d6f9543	0.058491956
188	0xbd268d1c	-0.040661916
189	0x3e06ca92	0.13163212
190	0x3dcb2590	0.09919274
191	0xbda74993	-0.0816833
192	0x3d6a9168	0.057267576
193	0xbb9a0ef2	-0.0047014887
194	0xbc04d21e	-0.0081067365
195	0x3daa704f	0.083222024
196	0x3c71ef84	0.014766578
197	0xbd7b7920	-0.06139481
198	0xbe2b7402	-0.16743472
199	0x3db290d9	0.08719034
200	0xbdc159dd	-0.09440968
201	0xbd1f3ba8	-0.038875252
202	0xbd499754	-0.049216583
203	0x3ccc608b	0.024948379
204	0x3bdb8bdf	0.0067000235
205	0xbbdbbe30	-0.0067060217
206	0xbe2d8e39	-0.16948785
207	0xbbd9afd1	-0.0066432734
208	0xbdea5f20	-0.11443925
209	0xbaef296d	-0.0018246599
210	0xbe0e8da6	-0.13921222
211	0x3d96c5d1	0.07361949
212	0xbdfe110f	-0.124055974
213	0xbd9d1654	-0.076702744
214	0x3bc62c3d	0.006047754
215	0xba691585	-0.0008891451
216	0xbe0aff3e	-0.1357393
217	0x3dad446d	0.08460317
218	0x3df1638e	0.11786567
219	0x3cdf38b2	0.027248714
220	0x3dc201e8	0.0947302
221	0xbcecf2e2	-0.02892441
222	0x3c84b892	0.016201291
223	0xbdb53bb2	-0.088492766
224	0xbc84795d	-0.016171152
225	0xbce3a681	-0.027789356
226	0xbcfd2ce1	-0.030905189
227	0xbddb7e69	-0.1071747
228	0x3d1090be	0.035294287
229	0xbddaeb30	-0.1068939
230	0x3d45c6ac	0.04828517
231	0xbd2318a0	-0.039818406
232	0x3a6bc831	0.00089943694
233	0x3e4f5de1	0.20250656
234	0x3def0dc0	0.116725445
235	0x3dea6500	0.114450455
236	0x3da87b14	0.082266
237	0xbd20c9dc	-0.039255008
238	0xbd9cba2d	-0.07652698
239	0xbcb68090	-0.0222781
240	0xbd90ee11	-0.070766576
241	0xbdc4fd22	-0.09618594
242	0xbe079812	-0.13241604
243	0x3df57661	0.119854696
244	0x3df65749	0.12028367
245	0x3bed9b00	0.0072511435
246	0xbd962aee	-0.07332407
247	0xbda20b78	-0.07912344
248	0xbdb9adbc	-0.0906634
249	0x3d118f2e	0.035536937
250	0xbe22ebb7	-0.1591023
251	0x3de3b6c5	0.11118845
252	0x3db95fa8	0.09051448
253	0xbda5e9dc	-0.08101246
254	0x3d0e568d	0.03475051
255	0xbde68004	-0.11254886

lstm.bias_hh_l0 f4 [256]
0	0xbe0daa1a	-0.1383442
1	0xbd42543d	-0.047443617
2	0xbd462bbb	-0.04838155
3	0xbe87d859	-0.26532248
4	0xbe0d6375	-0.13807471
5	0xbdce775a	-0.10081358
6	0xbca2dae6	-0.01987977
7	0x3df51b8a	0.11968143
8	0x3e0ab8fe	0.13547131
9	0x3da01789	0.07816989
10	0x3dc7dffd	0.09759519
11	0xba10ceaa	-0.00055239594
12	0x3da8b63b	0.08237883
13	0xbbd89e0a	-0.0066106366
14	0x3dbe72b9	0.09299225
15	0x3d890ade	0.06691526
16	0x3ce16a1d	0.027516419
17	0xbde2e272	-0.11078347
18	0xbe0cb419	-0.13740577
19	0x3ddca34a	0.107733324
20	0x3c924df3	0.017859435
21	0x3e17ebc2	0.14836028
22	0x3d875a8c	0.06609067
23	0xbd8618b2	-0.06547679
24	0xbdbfe72c	-0.093702644
25	0xbb823334	-0.003973389
26	0xbd2d0408	-0.042240173
27	0xbda6d6b8	-0.08146423
28	0xbd7ca04d	-0.061676312
29	0x3c997357	0.018731756
30	0x3d1e6ab0	0.038675964
31	0xbd1924f9	-0.037388775
32	0xbe1cd7cc	-0.15316695
33	0xbd937e27	-0.07201796
34	0xbdc42c64	-0.09578779
35	0x3d4c36be	0.049856894
36	0xbd68f9d9	-0.0568789
37	0xbce06ce8	-0.02739568
38	0x3d3352da	0.043780185
39	0x3c29ac19	0.010355973
40	0xbdd4bbaf	-0.1038736
41	0x3dd524ee	0.104074344
42	0x3dd23f5d	0.10265992
43	0xbe15461c	-0.14577526
44	0x3db93efc	0.090452164
45	0xbd9c1b0a	-0.07622345
46	0x3cfde19a	0.030991364
47	0x3db154a8	0.08658725
48	0x3e380e3c	0.1797418
49	0xbd031a79	-0.03200767
50	0xbe52e096	-0.20593485
51	0xbe069aac	-0.1314494
52	0x3c2f5c23	0.010703119
53	0x3d8990d2	0.067170754
54	0x3d4ec44d	0.050480176
55	0xbd838cfc	-0.06423375
56	0xbda0889d	-0.07838557
57	0xbe3be5d5	-0.18349393
58	0x3d100de6	0.035169505
59	0x3d7f3bc8	0.06231287
60	0x3c8afe02	0.016966823
61	0x3e35f1a9	0.17767967
62	0xbd1b309c	-0.037888154
63	0x3dacd8c1	0.0843978
64	0xba041b3d	-0.0005039459
65	0x3d2db345	0.042407293
66	0xbe2c1bec	-0.16807526
67	0xbd0257e9	-0.03182212
68	0xbc0c5a8c	-0.00856651
69	0xbdf4f271	-0.119603045
70	0xbd8ca56b	-0.068674885
71	0xbda251b9	-0.079257436
72	0xbe32850c	-0.17433566
73	0x3d910cd4	0.07082525
74	0xbd8e6962	-0.06953694
75	0xbda1a8b8	-0.07893509
76	0x3d069a7d	0.032862175
77	0xbcc1ee4b	-0.023673197
78	0xbd65e243	-0.056123983
79	0x3d25d894	0.040489748
80	0xbc526b37	-0.012842945
81	0x3d8964e3	0.06708696
82	0x3d7e9318	0.062152
83	0x3d0fac32	0.035076328
84	0xbdf434ca	-0.11924131
85	0xbd362a5c	-0.04447399
86	0x3e0b2314	0.135876
87	0xbd3f403a	-0.04669211
88	0x3dd8d015	0.105865635
89	0x3e1a1077	0.15045343
90	0xbdf7911f	-0.120882265
91	0xbc04ac63	-0.008097741
92	0x3d985255	0.074375786
93	0x3e1775ba	0.14791003
94	0x3d9d2d96	0.076747105
95	0x3de9cc4b	0.11415919
96	0xbda401db	-0.080081664
97	0x3b892712	0.0041855657
98	0x3dd84a5b	0.10561057
99	0xbd03453e	-0.032048456
100	0x3e17ca56	0.14823279
101	0xbe0509ca	-0.12992015
102	0x3d9f0f3d	0.07766578
103	0xbd887fc0	-0.066649914
104	0x3c3f893b	0.011690433
105	0xbd88999d	-0.066699244
106	0xbca40daa	-0.020026047
107	0x3df0d660	0.11759639
108	0x3d8b0fd3	0.067901276
109	0x3d7fc02e	0.062439136
110	0xbb89db50	-0.0042070523
111	0x3e0e01cc	0.13867873
112	0x3d575d59	0.052579258
113	0x3e60ac7d	0.21940799
114	0x3db270d1	0.08712924
115	0x3bebe921	0.007199422
116	0x3dcda97b	0.100420915
117	0x3bc57b73	0.006026679
118	0xbd18e246	-0.037325166
119	0x3dd76f3a	0.10519262
120	0xbd49e516	-0.04929074
121	0xbce128c7	-0.027485264
122	0x3d0a2ea0	0.03373587
123	0xbc7ab22c	-0.015301269
124	0x3cb8ee99	0.02257471
125	0x3cd646cf	0.026156811
126	0x3d1b7d7e	0.037961476
127	0xbd8866f0	-0.06660259
128	0x3db2c48b	0.08728894
129	0x3dbbca49	0.09169442
130	0xbe3e4366	-0.18580398
131	0xbc7c8c25	-0.015414272
132	0x3e1ee9dc	0.15518898
133	0xbd85c3a4	-0.06531456
134	0xbb1b91c4	-0.0023738006
135	0x3e18cf80	0.14922905
136	0xbe33e6f1	-0.17568566
137	0xbd5e2baa	-0.05424086
138	0x3d820814	0.06349197
139	0x3d37e79e	0.04489862
140	0xbe4b3b61	-0.1984687
141	0xbd1320e3	-0.035920035
142	0xbc95f901	-0.01830721
143	0xbda8b0b0	-0.082368255
144	0xbc888bc8	-0.016668215
145	0x3e3f5fb0	0.18688846
146	0x3c5ac6ec	0.013353091
147	0xbbf948ce	-0.007607556
148	0xbc7325cf	-0.014840557
149	0xbd13577b	-0.0359721
150	0x3e5cd8a4	0.21567017
151	0x3df4df52	0.119566575
152	0x3d873774	0.06602374
153	0x3dec4c92	0.11538042
154	0x3c94065a	0.018069435
155	0xbd9d9b92	-0.07695688
156	0xbdaca8ab	-0.08430608
157	0xbcdf605b	-0.027267626
158	0xbb958295	-0.0045626857
159	0xbd21fa26	-0.0395452
160	0x3dd16b33	0.10225525
161	0x3e12961a	0.14315072
162	0xbdd5cb8c	-0.10439214
163	0x3d53ac57	0.051678028
164	0x3d1a110e	0.03761392
165	0xbcbad681	-0.022807362
166	0xbe270193	-0.16309194
167	0x3d62c686	0.055365108
168	0xbd2d8c87	-0.042370345
169	0x3d046872	0.03232617
170	0xbe1a44b3	-0.15065269
171	0x3e0e24b0	0.13881183
172	0xbd90c0cf	-0.07068025
173	0x3e11c194	0.14234
174	0x3dda4677	0.10657971
175	0xbcf4cb92	-0.029882226
176	0x3dc3d29a	0.095616534
177	0x3d4913ac	0.049091026
178	0x3da18232	0.07886161
179	0x3d6201f9	0.055177663
180	0x3e38fea1	0.18065883
181	0xbcff5be0	-0.03117174
182	0x3cdf2bb4	0.027242519
183	0xbe0e39f8	-0.13889301
184	0xbde7cf53	-0.11318841
185	0x3e42fdad	0.19042082
186	0xbd0a90a1	-0.033829335
187	0x3d0b692a	0.03403584
188	0xbde7bf32	-0.113157645
189	0x3d80de39	0.062923856
190	0x3e09f285	0.1347142
191	0xbde62deb	-0.11239227
192	0x3e06c521	0.13161136
193	0x3ddba5ba	0.10724969
194	0xbd71871c	-0.05896674
195	0xbd6e1835	-0.058128554
196	0x3e259b45	0.16172512
197	0xbdaab25c	-0.083348006
198	0x3b9280dc	0.0044709276
199	0xbda676a1	-0.081280954
200	0xbe07631d	-0.13221402
201	0x3db12f3e	0.08651589
202	0x3e0bcaa3	0.13651519
203	0xbba56726	-0.0050476966
204	0x3bf1acb1	0.0073753227
205	0x3d8bfbec	0.0683516
206	0xbd2de50f	-0.042454775
207	0xbbc07731	-0.0058735837
208	0x3d7890ca	0.060684957
209	0x3db8e069	0.09027178
210	0x3cdad2d0	0.026711851
211	0xbe189b87	-0.14903079
212	0x3da70710	0.08155644
213	0xbd77e5d5	-0.06052192
214	0x3deafc05	0.1147385
215	0x3b12f8b6	0.0022426075
216	0x3d27bf47	0.0409539
217	0x3d2f4747	0.042792585
218	0x3de5da53	0.11223283
219	0xbdeade3a	-0.114681676
220	0x3e1b2045	0.15149029
221	0x3dae3edd	0.08508084
222	0xbe22e17d	-0.1590633
223	0x3e17a465	0.14808805
224	0x3d26f165	0.040757556
225	0x3d821cd2	0.06353153
226	0x3d1c112e	0.03810232
227	0xbd52cdee	-0.05146592
228	0xbcf1deeb	-0.02952524
229	0x3da2a946	0.079424426
230	0x3c979a5f	0.018506227
231	0xbcaa8a66	-0.020817947
232	0xbd812f00	-0.06307793
233	0x3e318d85	0.17339142
234	0x3e20ccb4	0.15703088
235	0x3c4f09a5	0.012636577
236	0x3cf393a0	0.029733479
237	0x3ca09acb	0.019605061
238	0xbd093469	-0.033497248
239	0x3df6581d	0.12028525
240	0x3c869520	0.01642853
241	0x3bc2758e	0.0059344238
242	0x3dbe229d	0.09283946
243	0xbc7f035f	-0.015564769
244	0xbc50334e	-0.0127075445
245	0x3d1d2ce2	0.03837288
246	0xbd9606e0	-0.0732553
247	0x3d91ec82	0.071251884
248	0xbd49c407	-0.049259212
249	0xbd28dddc	-0.041227207
250	0x3b503f63	0.0031776063
251	0x3cf653e1	0.030069293
252	0x3e104ecd	0.1409256
253	0xbc7741c5	-0.015091364
254	0x3cf2fe67	0.029662324
255	0x3dbf4f8e	0.09341346

lstm.weight_ih_l1 f4 [256, 64]
0	0xbdd150ba	-0.102204755
1	0xbe4b2e9d	-0.19842
2	0xbc8981ef	-0.01678559
3	0xbe2c7505	-0.16841514
4	0xbdab02c8	-0.0835014
5	0x3dfd3767	0.12364083
6	0x3c94edf7	0.018179877
7	0x3d68f84b	0.056877416
8	0x3d36263a	0.04447005
9	0xbd7624d1	-0.060093705
10	0x3d22fc5a	0.039791442
11	0xbdefae21	-0.11703134
12	0x3dd53c73	0.104119204
13	0xbd3df0ef	-0.04637235
14	0xbda6ffc6	-0.08154254
15	0xbe05d1e0	-0.13068342
16	0xbd3b6474	-0.045750096
17	0xbd8fe73b	-0.070265256
18	0x3dd4ef7a	0.10397239
19	0xbcaac3ef	-0.020845382
20	0xbd6a93cf	-0.057269868
21	0x3e0414f1	0.12898614
22	0x3c4c250c	0.012460005
23	0xbe39ef3e	-0.1815767
24	0xbd553a30	-0.052057445
25	0xbcc04de0	-0.023474634
26	0xbe74aa61	-0.2389312
27	0x3d5ff3a3	0.05467571
28	0xbc9d8ad7	-0.019231243
29	0xbd0824ed	-0.03323834
30	0xbe0ed7f2	-0.13949564
31	0xbe2176b1	-0.15767933
32	0xbd1f6277	-0.038912263
33	0xbdca0927	-0.09865027
34	0x3ca238ad	0.019802416
35	0xbd05a9ae	-0.032632522
36	0xbdef08a3	-0.11671569
37	0xbd1ef9e3	-0.03881253
38	0xbd7b209a	-0.06131039
39	0x3da43530	0.08017957
40	0x3b000449	0.0019533804
41	0x3d3f0812	0.046638556
42	0xbdc16a8e	-0.09444152
43	0x3d1ba76b	0.03800146
44	0xbe1a34d7	-0.1505922
45	0xbd2109b3	-0.03931589
46	0xbd31d1f0	-0.043413103
47	0xbe26180d	-0.16220112
48	0xbd223abf	-0.039606806
49	0x3d92319c	0.071383685
50	0xbdc760dc	-0.09735271
51	0xbd906ba3	-0.0705178
52	0x3dafd373	0.085852526
53	0x3de9be6b	0.114132725
54	0x3d11908c	0.03553824
55	0x3dd00f6b	0.10159191
56	0x3d548871	0.051887933
57	0x3c76fad0	0.015074447
58	0xbd1bbfc8	-0.038024694
59	0x3d73c3a7	0.05951276
60	0xbdd9e27f	-0.10638904
61	0x3d9c5b12	0.07634558
62	0x3d90a023	0.07061794
63	0x3e2710ee	0.16315052
64	0xbdac656d	-0.08417783
65	0x3b2eceb4	0.0026673498
66	0x3d531822	0.051536687
67	0x3d7d8002	0.061889656
68	0xbce01420	-0.027353346
69	0x3dcbbd18	0.09948176
70	0x3dcc8695	0.09986607
71	0x3b60c030	0.003429424
72	0x3c2ad64b	0.010427068
73	0x3e25f883	0.16208081
74	0x3db0f70a	0.08640869
75	0x3bbccfd8	0.0057620816
76	0xbdd0037f	-0.10156917
77	0xbd8719a1	-0.06596685
78	0xbcad8d66	-0.021185588
79	0xbd21ebfd	-0.039531697
80	0x3d8fa221	0.070133455
81	0x3daeac0b	0.08528908
82	0x3e17e7a1	0.14834453
83	0x3e0785c6	0.13234624
84	0xbe2accaa	-0.16679636
85	0x3e3ac6bb	0.18239872
86	0x3d607161	0.054795627
87	0x3d3948cc	0.04523544
88	0x3d1bfe87	0.038084533
89	0x3d60c4e2	0.054875262
90	0xbb7ea3eb	-0.0038855027
91	0x3dff8e96	0.12478368
92	0x3e05ec3a	0.13078395
93	0x3e489fb7	0.19592176
94	0x3dc53948	0.09630066
95	0xbd50cb3c	-0.05097507
96	0xbe0b2330	-0.13587642
97	0xbcfb043c	-0.030641668
98	0xbc1e8dfe	-0.009677408
99	0x3d543471	0.051807825
100	0x3d2e1b65	0.042506594
101	0x3e0ce838	0.1376046
102	0xbda99a05	-0.0828133
103	0xbe2f0adf	-0.1709399
104	0xbde6587d	-0.112473466
105	0xbe2733b9	-0.16328324
106	0xbccac6ee	-0.02475306
107	0x3d8ab440	0.06772661
108	0x3c6c682b	0.014429132
109	0xbce051f1	-0.027382823
110	0xbdaca37f	-0.08429622
111	0xbe257430	-0.16157603
112	0xbb9b1279	-0.0047324267
113	0x3e8601a0	0.26173115
114	0xbdcb956b	-0.099406086
115	0x3c756b98	0.014979266
116	0xbc0d35d2	-0.008618789
117	0xbb1bea23	-0.002379068
118	0x3e13ff90	0.14452958
119	0xbd806bcd	-0.06270561
120	0x3d8c27cd	0.06843529
121	0xbca2795d	-0.019833261
122	0xbc85ce58	-0.016333744
123	0xbe1a6f52	-0.15081528
124	0x3dc65218	0.09683627
125	0xbd20156d	-0.039082933
126	0xbc870f71	-0.016486855
127	0x3d487d7e	0.048947804
128	0xbdeb9882	-0.11503698
129	0x3db7f3c0	0.089820385
130	0x3e3efecf	0.1865189
131	0xbcea4b6b	-0.028600415
132	0x3d0c104f	0.03419524
133	0xbd09c7ae	-0.033637695
134	0x3dba33e5	0.09091929
135	0xbe063f8a	-0.13110176
136	0xbd9393c3	-0.07205918
137	0xbd205d41	-0.039151434
138	0xbd44070f	-0.047858294
139	0xbdb9fa0c	-0.09080896
140	0x3d59a336	0.053134166
141	0x3da7ec35	0.0819935
142	0xbcb5221e	-0.022110995
143	0x392c3412	0.00016422596
144	0x3d733af7	0.059382405
145	0xbc904c08	-0.01761438
146	0xbe24a7eb	-0.1607968
147	0xbe2739f5	-0.16330703
148	0xbca8a923	-0.020588463
149	0xbdd22722	-0.1026137
150	0x3df12918	0.11775416
151	0xbd15ffca	-0.036620893
152	0xbc17fabf	-0.009276091
153	0xbdea52ce	-0.11441575
154	0xbde37b49	-0.11107499
155	0xbd260519	-0.040532205
156	0xbdd23617	-0.10264223
157	0xba1b2c2f	-0.00059193646
158	0xbe16516b	-0.14679496
159	0x3d14f32d	0.036364723
160	0x3da5f052	0.08102478
161	0x3cd4b38c	0.02596452
162	0x3c1ea766	0.009683466
163	0x3cb1488e	0.021641042
164	0xbd8bd4f1	-0.06827725
165	0x3dc1965b	0.09452506
166	0xbcccbddd	-0.024992878
167	0x3ddabf94	0.10681072
168	0xbe4f7466	-0.20259246
169	0xbd7eef60	-0.062240005
170	0xbdc7301f	-0.09725975
171	0xbc025bf5	-0.007956495
172	0x3d87372a	0.066023186
173	0xbe1743f0	-0.1477201
174	0xbd109302	-0.035296448
175	0xbbca8432	-0.0061803097
176	0xbdd8bbc0	-0.105826855
177	0x3d32e4c3	0.043675195
178	0x3d0d11ca	0.034440793
179	0xbd822d71	-0.063563235
180	0xbd468a12	-0.048471518
181	0xbe869727	-0.26287195
182	0xbbec2108	-0.007206086
183	0x3cad5cdf	0.021162448
184	0xbde843c1	-0.11341048
185	0x3d6b9a9a	0.057520486
186	0xbd928f63	-0.07156255
187	0xbd53644e	-0.05160933
188	0xbc9c95e3	-0.01911444
189	0x3e1ae128	0.15124953
190	0xbbda4ea8	-0.0066622086
191	0x3d2ab2e0	0.041674495
192	0xb9a46eb6	-0.00031363004
193	0xbdb500c7	-0.08838039
194	0x3d6ec848	0.05829647
195	0xbe16084f	-0.14651607
196	0x3def87e6	0.116958424
197	0x3df75a5e	0.12077783
198	0x3dceac6f	0.10091483
199	0xbe08545d	-0.13313432
200	0xbb277dae	-0.0025557089
201	0xbdd6ce6f	-0.10488593
202	0x3d86ccdb	0.06582042
203	0x38d0b917	9.9526886e-05
204	0x3e32e537	0.17470251
205	0xbdb4d337	-0.088293485
206	0x3dfaeedc	0.1225259
207	0xbd41330f	-0.047167834
208	0xbe3b7f9a	-0.18310395
209	0xbdbde405	-0.09272007
210	0x3eb13380	0.34609604
211	0x3d17acb0	0.037029922
212	0xbae9e606	-0.0017845042
213	0xbce28e69	-0.027655797
214	0x3d627099	0.055283163
215	0x3d983ce9	0.07433493
216	0x3d3f0678	0.04663703
217	0xbd040875	-0.032234628
218	0xbd35446e	-0.044254713
219	0xbe18e480	-0.14930916
220	0x3e188c1e	0.148972
221	0x3ceb118a	0.028694887
222	0xbe1e03cb	-0.15431134
223	0xbcf9ab8e	-0.030477311
224	0x3d16a1ae	0.036775284
225	0xbe2fb56f	-0.17159055
226	0xbd2e2780	-0.04251814
227	0x3e0cf713	0.13766126
228	0x3da9a759	0.08283872
229	0x3d0cf4e6	0.03441324
230	0x3d68f7cf	0.056876954
231	0x3d76c78b	0.060248893
232	0xbc86b6eb	-0.016444644
233	0x3dfb86f7	0.12281602
234	0xbd86383e	-0.06553696
235	0xbd6d0be1	-0.057872657
236	0xbd2c5696	-0.042074762
237	0x3d34327a	0.04399345
238	0x3cfb0849	0.0306436
239	0xbdaafc74	-0.08348933
240	0x3dbd5575	0.09244815
241	0xbda84188	-0.08215624
242	0x3e09bf0d	0.13451786
243	0x3c954e7a	0.018225897
244	0x3e0a130e	0.13483831
245	0xbd8f61a7	-0.070010476
246	0x3d50579c	0.0508648
247	0x3dc1cc2c	0.09462771
248	0xbcf309d3	-0.02966777
249	0xbe11e157	-0.14246117
250	0xbc047c9b	-0.008086349
251	0x3ba4b5b3	0.005026543
252	0xbc84d765	-0.01621599
253	0x3d95a647	0.073071055
254	0x3e38531e	0.18000457
255	0x3dbc0823	0.091812395

lstm.weight_hh_l1 f4 [256, 64]
0	0xbd275830	-0.040855587
1	0xbd2296d5	-0.039694626
2	0x3dbd5d5e	0.09246324
3	0xbcc8ab0c	-0.024495624
4	0x3db35eb6	0.08758299
5	0xbe8c3495	-0.27383867
6	0x3d970a92	0.07375063
7	0xbca68ed4	-0.020331778
8	0x3deeb5c6	0.11655764
9	0x3dd8ef63	0.105925344
10	0x3d0a6f32	0.03379745
11	0x3de56e75	0.11202709
12	0xbd970155	-0.07373301
13	0xbe3b1aa6	-0.18271884
14	0xbd841ffb	-0.06451412
15	0xbe2e542b	-0.17024295
16	0xbd7f878f	-0.062385138
17	0xbc86d760	-0.01646012
18	0xbca306a3	-0.019900626
19	0xbdb9d718	-0.09074229
20	0x3d0d2144	0.034455553
21	0x3d4a3a0f	0.049371775
22	0x3dce83d4	0.10083738
23	0x3cda6a12	0.026661906
24	0x3e465e8a	0.19372001
25	0xbdcc3ddf	-0.099727385
26	0xbd167346	-0.036731027
27	0x3dc63bad	0.09679351
28	0xbe15d04f	-0.14630245
29	0x3d77a354	0.060458496
30	0x3db07a4c	0.08617076
31	0x3dc69ac4	0.09697488
32	0x3c745fc6	0.014915412
33	0x3d33bcd1	0.04388124
34	0x3bd4e249	0.006496702
35	0x3d7d31ca	0.06181506
36	0x3d745d74	0.059659436
37	0x3d45d20d	0.048296023
38	0x3dc49b7a	0.09599967
39	0xbd1f9b2e	-0.03896635
40	0xbbc1a322	-0.0059093395
41	0x3e25aef8	0.16180027
42	0xbcba80c6	-0.022766482
43	0x3d2170fa	0.039414383
44	0x3d298097	0.0413824
45	0x3c3c1062	0.011478515
46	0x3e00555d	0.12532564
47	0xbe028ecc	-0.12749785
48	0xbdb895fa	-0.09012981
49	0x3e1ef087	0.15521441
50	0x3e08777c	0.1332683
51	0x3dcfad9d	0.10140536
52	0xbe2cf2c6	-0.16889486
53	0xbcb19cdf	-0.021681247
54	0x3c41f7da	0.011838878
55	0xbdbbf3f6	-0.09177391
56	0xbe322fb1	-0.17401005
57	0xbdbb1d6c	-0.09136471
58	0x3cadaef7	0.021201594
59	0xbde64069	-0.11242754
60	0xbd96f487	-0.07370859
61	0xbd68321b	-0.05668841
62	0x3de1b8e6	0.11021595
63	0x3e5ba014	0.21447784
64	0x3cd013f9	0.025400149
65	0x3d2d1db9	0.042264674
66	0x3e10c26b	0.14136665
67	0xbd971367	-0.073767476
68	0x3bc24048	0.005928073
69	0xbda8eb42	-0.08247997
70	0xbded01df	-0.115726225
71	0x3cfd1962	0.030895893
72	0xbd58081d	-0.052742112
73	0xbe485ff5	-0.19567855
74	0x3dda9bd9	0.10674257
75	0xbe323aaf	-0.17405199
76	0x3d87ff43	0.06640484
77	0xbd0abb1f	-0.03386986
78	0xbe765422	-0.24055532
79	0xbdd081f3	-0.10181036
80	0x3e14c061	0.14526512
81	0x3c97d5e4	0.018534608
82	0x3d9e4a5e	0.07729028
83	0xbdf70741	-0.120619304
84	0xbe24a7ef	-0.16079687
85	0x3d68c70c	0.05683045
86	0xbc2b24dc	-0.0104458
87	0x3bec3e60	0.007209584
88	0xbdc9a104	-0.098451644
89	0x3ccbd252	0.024880562
90	0x3da83168	0.082125485
91	0xbddfc084	-0.10925391
92	0x3c08f599	0.008359336
93	0xbc5f1e0e	-0.013618005
94	0xbda96bbd	-0.082725026
95	0xbc81f1c4	-0.015862353
96	0x3d00e916	0.031472288
97	0x3d9ab39b	0.07553788
98	0xbe0ff280	-0.1405735
99	0xbd4a5c5b	-0.049404483
100	0xbd0922c4	-0.03348042
101	0xbd8a774b	-0.067610346
102	0xbd8243a9	-0.063605614
103	0xbe4d3e88	-0.20043385
104	0xbddb609d	-0.10711787
105	0xbe55eca4	-0.20891052
106	0x3d173437	0.03691503
107	0xbe640baf	-0.22270082
108	0xbd4481cc	-0.047975346
109	0xbdd8c745	-0.10584883
110	0xbd60f300	-0.054919243
111	0x3d2f8f10	0.042861044
112	0xbe67bf53	-0.22631578
113	0xbda5a3b5	-0.08087865
114	0x3dd88933	0.10573044
115	0xbd91e8dc	-0.071244925
116	0x3e0d1c4f	0.1378033
117	0xbabc5634	-0.0014368952
118	0x3deaff6e	0.114745006
119	0x3da5dd67	0.0809887
120	0x3df04097	0.117310695
121	0x39ae19f7	0.00033207212
122	0xbbf9ef33	-0.0076273917
123	0x3d9429d7	0.07234543
124	0xbd731660	-0.05934751
125	0x3d96c37c	0.073615044
126	0xbca13416	-0.019678157
127	0xbe309a0c	-0.17246264
128	0x3ddb0333	0.106939696
129	0x3d2947ae	0.041328125
130	0x3cba1195	0.022713462
131	0x3ca1a63b	0.019732585
132	0x3d30030a	0.04297165
133	0xbe3e725f	-0.18598317
134	0xbc059518	-0.0081532225
135	0x3d095d90	0.033536494
136	0x3d3a7ce5	0.045529265
137	0xbdb9578e	-0.09049903
138	0x3d408449	0.047001157
139	0xbda103fa	-0.078620866
140	0x3b4093d1	0.002938498
141	0x3cabc419	0.02096753
142	0xbbcb3e84	-0.006202521
143	0x3d9031db	0.07040759
144	0x3dee749e	0.11643337
145	0x3d2394fe	0.039937012
146	0x3d7f7b50	0.06237346
147	0x3de3d038	0.11123699
148	0x3ca9c118	0.020721957
149	0xbd2d7f07	-0.04235747
150	0x3dbbe8bb	0.09175249
151	0x3d3c29a8	0.045938164
152	0xbd3153cb	-0.0432928
153	0x3dd3eeba	0.10348268
154	0x3e5bc3ba	0.21461383
155	0xbcda7721	-0.026668133
156	0xbdacff52	-0.08447136
157	0xbdc25be1	-0.09490181
158	0x3d9f7f5d	0.077879645
159	0xbd69c234	-0.057069972
160	0x3db092f4	0.08621779
161	0xbe133b94	-0.14378196
162	0xbd914e43	-0.07095005
163	0x3e7941dc	0.2434153
164	0x3dbdceb4	0.09267941
165	0xbd3f108d	-0.046646643
166	0x3ddbb3db	0.10727664
167	0xbe43b8a6	-0.19113407
168	0x3de36649	0.11103494
169	0xbe44a80f	-0.19204734
170	0x3de94028	0.1138919
171	0xbcd4ea6f	-0.025990693
172	0x3e48612d	0.1956832
173	0xbd8bf07f	-0.0683298
174	0x3d22fef2	0.039793916
175	0x3dac72b3	0.08420315
176	0xbcd9c07a	-0.026581038
177	0xbdb1168b	-0.08646878
178	0x3d95964b	0.07304057
179	0xbd24fb4d	-0.04027872
180	0x3d6904e6	0.056889437
181	0xb9a215a4	-0.0003091517
182	0x3ba95616	0.005167733
183	0xbd65f0c9	-0.056137834
184	0xbdb3d785	-0.087813415
185	0x3d499fe3	0.049224745
186	0x3d754504	0.05988027
187	0xbdbd15ba	-0.0923266
188	0xbde0a42f	-0.109688155
189	0xbdb59705	-0.08866695
190	0xbcc044e7	-0.023470355
191	0xbb6eef02	-0.0036458378
192	0xbd7fb7a1	-0.06243098
193	0xbe3e2c47	-0.18571578
194	0x3d70e938	0.058816165
195	0xbd2eea8c	-0.04270415
196	0xbdf80a0e	-0.12111293
197	0xbcf8e564	-0.03038282
198	0xbd40a581	-0.047032837
199	0xbdaf92e7	-0.08572941
200	0x3e51d386	0.20490846
201	0xbc1b7d90	-0.009490386
202	0x3e1a457e	0.15065572
203	0x3dac37af	0.08409058
204	0xbd6847c7	-0.056709077
205	0xbe4e4838	-0.20144737
206	0x3e288578	0.16457164
207	0xbe37daad	-0.17954512
208	0x3dda1760	0.1064899
209	0xbdab8252	-0.08374466
210	0xbcd452f2	-0.025918458
211	0x3d98102e	0.07424961
212	0x3dfc8a75	0.12331096
213	0x3d80629a	0.06268807
214	0x3e432591	0.19057299
215	0xbdb16c7e	-0.08663271
216	0x3d70595e	0.058678977
217	0x3e0c45e4	0.13698536
218	0x3e4e335f	0.20136784
219	0xbd3c8a43	-0.046030294
220	0xbdc50e12	-0.09621824
221	0xbd6456c7	-0.05574682
222	0xbbd399df	-0.006457552
223	0x3df70212	0.12060942
224	0x3b6addde	0.003583781
225	0x3e0316be	0.12801644
226	0xbd925cba	-0.071465924
227	0x3e1fca66	0.15604553
228	0x3e095029	0.13409485
229	0x3e814041	0.25244334
230	0x3e5ef274	0.21772176
231	0xbdd65687	-0.104657225
232	0x3d0ab20a	0.033861198
233	0xbdb0ee2e	-0.08639179
234	0xbd36c2e3	-0.044619452
235	0x3a60699b	0.00085606583
236	0x3e0501ae	0.12988922
237	0x3cfc2613	0.030779874
238	0x3e52d7c6	0.20590124
239	0xbe1ad022	-0.15118459
240	0xbd8b0384	-0.0678778
241	0xbca8c0ec	-0.020599805
242	0x3d796a4b	0.060892384
243	0x3d27abf3	0.040935468
244	0xbe39895b	-0.18118803
245	0x3d775f04	0.06039335
246	0xbd272736	-0.04080888
247	0xbc773d91	-0.015090362
248	0xbe629f4d	-0.22131081
249	0xbbdace45	-0.0066774213
250	0x3d255631	0.0403654
251	0xbe2fc67d	-0.17165561
252	0xbe5d446a	-0.21608129
253	0xbcfc8b13	-0.030828035
254	0x3c89fd63	0.016844457
255	0x3d7ca1c7	0.06167772

lstm.bias_ih_l1 f4 [256]
0	0x3d86098e	0.06544791
1	0xbd90a8c7	-0.07063442
2	0xbd869b4b	-0.065725885
3	0xbd762fad	-0.06010406
4	0xbc5ca817	-0.01346781
5	0xbd5d763b	-0.05406783
6	0xbcabee79	-0.020987736
7	0x3e223f73	0.15844516
8	0xbd4c7eba	-0.049925543
9	0xbe3a884c	-0.18216056
10	0xbddee376	-0.108832285
11	0xbdcf9c14	-0.101371914
12	0x3d8b74a1	0.068093546
13	0xbda98dda	-0.08279009
14	0xbde32aaf	-0.110921256
15	0xbd9cccdb	-0.076562606
16	0x3d3f19c3	0.046655428
17	0x3ce5f8a6	0.028072666
18	0x3d69de21	0.057096604
19	0xbdd9a161	-0.10626484
20	0x3d918bec	0.07106766
21	0xbdaf2165	-0.085512914
22	0x3cff4888	0.031162515
23	0xbc083f85	-0.0083159255
24	0x3dd05a09	0.10173423
25	0x3d08019c	0.03320466
26	0xbbf8a86e	-0.0075884378
27	0x3cca07be	0.024661895
28	0x3e03bb83	0.12864499
29	0xbc55ab64	-0.013041351
30	0x3dedffa9	0.11621029
31	0x3e1cde65	0.15319212
32	0xbe2841fa	-0.16431418
33	0xbe3cd0eb	-0.18439071
34	0xbe03c56b	-0.12868278
35	0xbd90832c	-0.07056269
36	0xbd6ab2b7	-0.057299342
37	0xbdc10b6e	-0.09426008
38	0xbda4db2e	-0.08049618
39	0x3d9611cc	0.07327613
40	0xbc764b09	-0.015032538
41	0xbd9ef611	-0.07761777
42	0x3db975f0	0.09055698
43	0x3da397bd	0.07987926
44	0xbddde7a9	-0.10835201
45	0xbd8cd14f	-0.0687586
46	0xbdb75190	-0.08951104
47	0xbcb18e68	-0.02167435
48	0x3dbe99d8	0.09306687
49	0xbdecacdc	-0.11556408
50	0xb8bda176	-9.042297e-05
51	0x3d0e4a55	0.034738857
52	0xbd8e7767	-0.06956368
53	0xb9f25656	-0.00046222162
54	0x3a8b506c	0.0010628826
55	0xbceb113f	-0.028694747
56	0xbd8eb9f3	-0.06969061
57	0xbe011927	-0.12607251
58	0xbd0d71e4	-0.034532443
59	0x3cd4119a	0.0258873
60	0x3de697d4	0.11259428
61	0xbd839f73	-0.06426897
62	0x3d3095f9	0.043111775
63	0x3da7ad4e	0.08187352
64	0xbd159e36	-0.036527835
65	0xbd4b7508	-0.049672157
66	0xbdda1c6e	-0.10649954
67	0xbe128e99	-0.14312209
68	0xbc0685d6	-0.00821062
69	0xbdac4681	-0.08411885
70	0xbdd67dee	-0.10473238
71	0x3daa020f	0.08301174
72	0x3e0bef22	0.1366544
73	0x3d8e9296	0.06961553
74	0x3d395238	0.045244426
75	0xba8058ea	-0.0009792123
76	0xbc09c58f	-0.008408918
77	0x3cf9792c	0.030453287
78	0xbd3bbc5c	-0.04583393
79	0x3e14f2b6	0.14545712
80	0xbce6d200	-0.028176308
81	0xbce30c55	-0.027715841
82	0x3dee9978	0.116503656
83	0x3d975e04	0.07390979
84	0xbd28b56c	-0.041188642
85	0x3d696bda	0.05698762
86	0x3c831ea8	0.016005829
87	0x3cdcd9b0	0.02695927
88	0x3ce8f720	0.02843815
89	0x3a9351a6	0.0011239543
90	0xbd024244	-0.031801477
91	0xbcdce436	-0.026964288
92	0x3da371ea	0.07980712
93	0xbd58b001	-0.052902225
94	0x3db50d45	0.088404216
95	0xbd98607e	-0.074402794
96	0x3d9b03ad	0.075690605
97	0xbdeb0b5b	-0.11476775
98	0x3d4799fd	0.04873084
99	0xbd80f81c	-0.06297323
100	0xbdef44cb	-0.11683043
101	0x3e4f1166	0.2022148
102	0x3cf6f5e5	0.030146549
103	0x3e012a81	0.1261387
104	0xbd215b5f	-0.03939378
105	0x3d6e4d11	0.058178965
106	0xbd9616ad	-0.07328544
107	0x3c849c41	0.016187789
108	0x3d7430e5	0.059616942
109	0xbdf2a49b	-0.11847802
110	0x3dcf61c8	0.10126072
111	0xbd1e9267	-0.03871384
112	0x3e026a85	0.12735946
113	0x3da161ac	0.078799576
114	0x3ccbd06a	0.024879653
115	0x3df0d7fe	0.11759947
116	0xbd2b405c	-0.041809425
117	0xbbfd05cf	-0.0077216397
118	0x3d11c573	0.035588693
119	0xbe1ab4a2	-0.15107968
120	0xbdb4836c	-0.08814129
121	0x3d07911a	0.033097364
122	0xbcd3b6b5	-0.025843957
123	0xbb4460c1	-0.0029964896
124	0x3d6015a5	0.05470814
125	0x3d1d720a	0.038438834
126	0xbcbc345a	-0.022974182
127	0x3dc24d8e	0.09487449
128	0xbdc471d7	-0.09592026
129	0xbd819e62	-0.06329037
130	0xbd65928c	-0.05604796
131	0x3b40c61e	0.0029414962
132	0xbc34f8b8	-0.011045627
133	0x3db0b04b	0.08627375
134	0x3e12a515	0.14320786
135	0x3d0d87fe	0.03455352
136	0x3dbb64b4	0.09150067
137	0xbd69abe1	-0.057048682
138	0x3d7dae6f	0.06193393
139	0x3d8f7e72	0.070065394
140	0xbdf8ac34	-0.1214222
141	0xbdd3d621	-0.10343576
142	0xbd76c73f	-0.06024861
143	0x3d8ac945	0.0677667
144	0x3c2fb3da	0.010724032
145	0xbdce53b8	-0.10074562
146	0x3df49cea	0.119439915
147	0x3d87295c	0.065996855
148	0xbd769d41	-0.060208563
149	0xbd1cc851	-0.038276974
150	0xbd5c0a9f	-0.053721067
151	0x3d2949f4	0.041330293
152	0x3d6107e1	0.054939155
153	0x3d2ce922	0.04221452
154	0x3d9ebfbc	0.07751414
155	0xbc6e30d7	-0.0145380115
156	0xbdf170af	-0.11789071
157	0xbcda5e13	-0.026656186
158	0xbe1a7130	-0.1508224
159	0xbde6aaf5	-0.11263076
160	0x3db79399	0.08963699
161	0x3d1966e8	0.037451655
162	0x3e062b1f	0.13102387
163	0x3d7d88e2	0.06189812
164	0x3e07f819	0.13278235
165	0xbd9eb395	-0.07749096
166	0x3d16a6a9	0.036780033
167	0x3d8104a0	0.0629971
168	0xbd8f6f46	-0.070036456
169	0x3ddfe9af	0.109332435
170	0xbe1aadac	-0.15105313
171	0x3d3112c9	0.043230806
172	0xbca044f4	-0.01956413
173	0x3dad1602	0.08451463
174	0x3da3c50c	0.07996568
175	0x3d9d5460	0.07682109
176	0x3d321a46	0.043482088
177	0x3de204b7	0.110360555
178	0xbdc9abe9	-0.098472424
179	0x3d7ce62a	0.06174294
180	0xbde14bec	-0.11000809
181	0xbe0bd589	-0.13655676
182	0xbcf978a2	-0.03045303
183	0xbdde960f	-0.10868465
184	0xbd633929	-0.055474434
185	0xbdef37fc	-0.116806
186	0x3deeed8e	0.11666404
187	0xbd9aaf04	-0.07552913
188	0x3dc49d86	0.09600358
189	0xbda7d019	-0.08193988
190	0xbd426c9e	-0.047466867
191	0x3bdf2c86	0.0068107275
192	0x3cb372d2	0.021905337
193	0xbddaa635	-0.10676233
194	0x3bec2378	0.0072063766
195	0xbe160555	-0.14650472
196	0xbd11898b	-0.03553156
197	0x3d759cf8	0.05996415
198	0x3de8e3cf	0.11371576
199	0x3e537ae0	0.20652342
200	0xbd7cd52b	-0.06172673
201	0x3d85b9af	0.06529557
202	0x3d27f069	0.041000757
203	0xbc4b6332	-0.012413787
204	0x3d4e4d53	0.05036671
205	0x3da08c76	0.07839291
206	0x3d290501	0.041264538
207	0x3c894f6b	0.016761502
208	0x3d9bb318	0.07602519
209	0x3da76011	0.0817262
210	0x3cac95ed	0.021067584
211	0xbd8fec88	-0.07027537
212	0x3ddbd9e7	0.10734921
213	0xbcfc4413	-0.030794179
214	0x3d5e4a2c	0.054269955
215	0xbb98c7db	-0.0046624965
216	0xbb0b42f7	-0.002124963
217	0x3d52e301	0.05148602
218	0x3da2d140	0.079500675
219	0x3d426a17	0.047464456
220	0xbd89a4c9	-0.067208834
221	0xbc63a898	-0.013895176
222	0xbdc3f15c	-0.0956752
223	0xbd0a1b9e	-0.033717744
224	0x3d4581ca	0.04821948
225	0x3cf70ca8	0.030157402
226	0x3e03d13c	0.12872785
227	0x3da21c31	0.07915533
228	0x3d120a0e	0.03565412
229	0x3e21d71f	0.15804718
230	0x3dca4096	0.098756
231	0x3d72e8a6	0.059303902
232	0x3dbca5f3	0.0921134
233	0xbd9bb7b6	-0.076033995
234	0xbd5f80bf	-0.05456614
235	0x3cd510ec	0.026009046
236	0xbb5fd70c	-0.0034155278
237	0xbdb265a0	-0.0871079
238	0x3dedc969	0.116106816
239	0xbcd90020	-0.026489317
240	0x3e2c566a	0.1682984
241	0xbcae2dac	-0.021262012
242	0xbdc8ce00	-0.098049164
243	0xbd426711	-0.047461573
244	0x3d88e8dc	0.066850394
245	0xbd335156	-0.04377874
246	0xbdaecc16	-0.0853502
247	0x3d25e0f6	0.040497743
248	0x3d94109b	0.0722973
249	0xbd1d3f2c	-0.038390324
250	0x3e332465	0.17494352
251	0x3e19a7f3	0.15005474
252	0x3d05cb12	0.032664366
253	0xbd26fae8	-0.040766627
254	0xbe0d2d59	-0.1378683
255	0xbc140a04	-0.009035591
