src/util/AI/checkpoints/025.ckpt (torch, 353508 bytes, 14 tensors)

lstm.weight_ih_l0 f4 [256, 12]
0	0xbd43ef41	-0.047835592
1	0x3da28e6c	0.07937321
2	0xbe2190ce	-0.15777895
3	0x3d0c5469	0.034260187
4	0x3dc3018f	0.09521782
5	0x3da095a7	0.07841044
6	0x3d702728	0.058631092
7	0xbc16b5e1	-0.009198637
8	0xbddb85be	-0.10718869
9	0x3d0ad62c	0.033895656
10	0xbde476b2	-0.11155452
11	0xbd556137	-0.052094664
12	0xbe2c6c69	-0.1683823
13	0xbb332fba	-0.002734168
14	0xbd88d9a7	-0.06682139
15	0xbdd7fdb5	-0.10546438
16	0xbd89818c	-0.06714162
17	0xbd8af072	-0.067841426
18	0x3dfb3ae1	0.1226709
19	0x3df57382	0.11984922
20	0x3db91398	0.0903694
21	0x3d0eba5b	0.03484569
22	0xbdbe000d	-0.092773534
23	0x3d02b241	0.031908277
24	0x3d962fc9	0.07333333
25	0x3deff594	0.11716762
26	0x3d24e488	0.040257007
27	0x3dff6a10	0.12471402
28	0x3d1cf2a3	0.038317334
29	0x3e51754b	0.204549
30	0x3e50164f	0.2032101
31	0xbdd3fd40	-0.10351038
32	0x3c83f017	0.016105695
33	0xbd10e1a0	-0.035371423
34	0x3d3cdaa7	0.04610696
35	0xbdb3d7f5	-0.08781425
36	0x3c8b8335	0.017030338
37	0x3d45a6d4	0.048254803
38	0x3d8c3eaf	0.068478934
39	0xbe54a238	-0.20765007
40	0xbe484beb	-0.1956021
41	0xbc257dd3	-0.0101008
42	0x3e40206d	0.1876237
43	0x3bc51f69	0.0060157073
44	0xbe0c9964	-0.13730389
45	0xbd568088	-0.05236867
46	0x3e46c6ea	0.19411817
47	0x3ca03959	0.019558595
48	0x3cf0a5ed	0.029375995
49	0xbd9e86cb	-0.077405535
50	0xbd926ab0	-0.07149255
51	0xbd52a557	-0.05142721
52	0x3d46da5f	0.0485481
53	0xbc58e23e	-0.013237534
54	0x3daf802b	0.08569368
55	0x3e46ee52	0.1942685
56	0x3cbadffd	0.022811884
57	0xbda404bf	-0.08008718
58	0xbdb8005e	-0.08984445
59	0xbdc06de7	-0.09395962
60	0x3c8de99e	0.017323311
61	0x3d211350	0.03932506
62	0x3d18e80a	0.037330665
63	0x3db4792b	0.088121735
64	0x3c8db7a1	0.017299475
65	0xbdc73128	-0.09726173
66	0x3e767bb3	0.24070625
67	0x3e95279f	0.2913179
68	0xbc84b316	-0.016198676
69	0xbd45f7eb	-0.048332136
70	0xbb9d8f37	-0.0048083323
71	0x3d1cbc91	0.03826577
72	0x3deec7eb	0.11659225
73	0x3c923375	0.017846802
74	0xbe1ae0f5	-0.15124877
75	0xbe32fdf4	-0.17479688
76	0x3dcb771d	0.099348284
77	0x3c50a051	0.012733535
78	0xbd7ab434	-0.06120701
79	0x3e030a9e	0.12797019
80	0xbd513c87	-0.051083114
81	0xbd75fa55	-0.06005319
82	0x3c678635	0.014131119
83	0xb90d7b7a	-0.00013492806
84	0xbd7c30d5	-0.061570007
85	0x3e035954	0.12827045
86	0x3d477160	0.048692107
87	0x3d1a3f92	0.03765828
88	0x3da0fe4b	0.078610025
89	0x3d9e8248	0.07739693
90	0xbbe3dfac	-0.006954154
91	0x3e090ed6	0.13384566
92	0xbd5f7ef6	-0.05456444
93	0xbcf8654f	-0.030321745
94	0xbd378018	-0.044799894
95	0xbd484a5e	-0.048899047
96	0xbc5b0858	-0.0133686885
97	0xbb7b1817	-0.003831392
98	0xbdf239a9	-0.11827404
99	0x3c8a4d72	0.016882632
100	0xbbf286f0	-0.0074013397
101	0x3d71b701	0.059012417
102	0x3e5628a4	0.2091394
103	0x3e89c684	0.26909268
104	0x3cbb61b0	0.02287373
105	0xbd46e08e	-0.048553996
106	0xbdbeca9e	-0.0931599
107	0xbc28af0b	-0.01029564
108	0x3d80c6d1	0.06287921
109	0xbd1794a7	-0.037007
110	0x3ddf0358	0.1088931
111	0x3d9045f9	0.07044596
112	0xbd3adcf4	-0.045620874
113	0x3c21fffc	0.009887692
114	0x3d96c34d	0.073614694
115	0xbe217100	-0.15765762
116	0xbe4c95c9	-0.19979014
117	0x3c72b6c4	0.0148140825
118	0xbcf4aa72	-0.02986643
119	0x3dfe26ba	0.1240973
120	0x3cde6d2e	0.02715167
121	0xbda43947	-0.08018737
122	0xbdebae5b	-0.11507865
123	0xbd4a8ce2	-0.049450763
124	0x3e2a1d0c	0.16612643
125	0x3d5246ee	0.051337175
126	0x3dee43d3	0.1163403
127	0x3dfab51f	0.12241577
128	0x3e08f41b	0.13374369
129	0x3b7467cc	0.0037293313
130	0x3dc1b4c8	0.094583094
131	0xbd3f3277	-0.046678986
132	0x3da0ff35	0.07861177
133	0x3d6812bd	0.056658495
134	0x3d42b7d1	0.047538582
135	0xbdb0ca0e	-0.08632289
136	0x3d54becd	0.051939774
137	0x3c9e1bc9	0.019300358
138	0xbdc61c13	-0.096733235
139	0xbe3b4797	-0.18289028
140	0xbe5d46c6	-0.21609029
141	0x3d5cbfe3	0.053893935
142	0x3e2fbfc6	0.17163
143	0x3cd8ce1b	0.026465466
144	0x3d13e28a	0.036104716
145	0x3cacaef6	0.021079522
146	0xbe05c329	-0.13062729
147	0xbde6129f	-0.112340204
148	0x3d096388	0.033542186
149	0x3e1ea15c	0.15491241
150	0xbd909978	-0.07060522
151	0xbe8b072e	-0.27153915
152	0xbdb3db3b	-0.08782049
153	0x3cfc8208	0.030823722
154	0xbd0a7805	-0.033805866
155	0xbdd046ba	-0.1016974
156	0x3c8b4704	0.017001636
157	0x3d60fc48	0.054928094
158	0x3d8dc668	0.069226086
159	0xbd962fc6	-0.07333331
160	0xbe053bcb	-0.1301109
161	0xbdc81737	-0.09770053
162	0x3e1f8742	0.1557894
163	0xbde24259	-0.11047811
164	0xbe223293	-0.15839605
165	0xbda3cc44	-0.07997945
166	0x3c8235fe	0.015894886
167	0x3d21221c	0.03933917
168	0xbd834f20	-0.06411576
169	0x3d0e0bae	0.034679107
170	0xbdba5ceb	-0.09099754
171	0x3dde7e1a	0.10863896
172	0xbd75f588	-0.06004861
173	0xbda19144	-0.07889035
174	0x3dd6bd5b	0.104853354
175	0x3d34d66b	0.044149797
176	0xbdd165e5	-0.10224513
177	0x3b9aa5e3	0.0047194823
178	0xbc3b6161	-0.011436791
179	0x3d4410e5	0.047867674
180	0xbd7df4f5	-0.062001187
181	0xbd4fd7c6	-0.050742887
182	0x3e144eee	0.14483234
183	0x3c90f705	0.017695913
184	0x3e06f806	0.13180551
185	0x3c482719	0.012216353
186	0xbdee7b29	-0.11644585
187	0xbcf77fec	-0.030212365
188	0xbd1d1a87	-0.038355377
189	0xbdbba566	-0.091624066
190	0xbd50fbd9	-0.05102143
191	0x3e0835a8	0.13301718
192	0xbd94c5c3	-0.072642826
193	0x3cc141cb	0.023590943
194	0x3d750afa	0.05982492
195	0x3e268987	0.162634
196	0x3d906455	0.07050387
197	0x3d6d7d69	0.05798093
198	0xbd5faa1e	-0.054605596
199	0xbe2bb008	-0.1676637
200	0xbd3ece69	-0.046583567
201	0xbcf2184b	-0.0295526
202	0xbdbf1c5f	-0.09331583
203	0xbd19209d	-0.037384618
204	0xbd995680	-0.07487202
205	0xbd2be375	-0.041964967
206	0xbd287c76	-0.04113432
207	0xbe58f6f9	-0.21187963
208	0x3c8f2979	0.01747583
209	0x3e3af5b0	0.18257785
210	0x3ce0f599	0.02746086
211	0xbde54ed9	-0.111966796
212	0x3d9dd984	0.077075034
213	0xbbd1a9c6	-0.0063984124
214	0x3e0c4047	0.13696395
215	0xbdff654b	-0.12470492
216	0xbe02362e	-0.1271598
217	0xbbad944c	-0.0052972194
218	0xbd5cac25	-0.053875107
219	0x3ddc1de7	0.10747891
220	0x3d749408	0.059711486
221	0xbe1b6886	-0.15176591
222	0xbe711f4e	-0.23547098
223	0x3dcc2b13	0.09969153
224	0x3d452292	0.048128672
225	0x3d6d0f53	0.057875942
226	0xbe4991a6	-0.19684467
227	0xbdc5d779	-0.09660239
228	0xbe591a12	-0.21201351
229	0x3c89a5a9	0.016802626
230	0xbdd5a41a	-0.104316905
231	0x3d8e8160	0.0695827
232	0x3e02d3cc	0.12776107
233	0x3d04f3d3	0.03245909
234	0xbd93c365	-0.07215003
235	0xbd24a52c	-0.040196583
236	0x3c8f2bb5	0.017476896
237	0x3db7c65e	0.089733824
238	0xbd92b32c	-0.071630806
239	0x3bdad616	0.006678353
240	0xbdbf549a	-0.09342308
241	0x3e371236	0.1787804
242	0xbde23072	-0.110443965
243	0xbbbc13aa	-0.005739649
244	0xbd1c37d8	-0.038139194
245	0xbda9686d	-0.08271871
246	0xbd33727e	-0.04381036
247	0x3e0145b9	0.12624253
248	0xbd966ad9	-0.07344598
249	0xbdb22226	-0.086979195
250	0x3d46c229	0.04852501
251	0x3c7eff54	0.015563805
252	0xbb41f0a9	-0.0029592908
253	0x3d865c0c	0.06560525
254	0xbdf75ef9	-0.120786615
255	0x3d25be2b	0.04046456

lstm.weight_hh_l0 f4 [256, 64]
0	0x3d365db6	0.044522963
1	0xbd8464cd	-0.06464539
2	0x3e262106	0.16223535
3	0xbca9d5e8	-0.020731881
4	0x3d8c0cdb	0.068383895
5	0x3e43cd72	0.1912134
6	0xbdb4f6f4	-0.08836165
7	0xbca3a541	-0.01997626
8	0x3def784c	0.11692867
9	0x3e36d921	0.17856266
10	0x3da04945	0.07826475
11	0x3cd7357e	0.026270624
12	0x3e498b07	0.19681941
13	0xbdc92ec8	-0.09823376
14	0x3df2ef1a	0.11862011
15	0x3d569e32	0.05239696
16	0xbd44451a	-0.047917463
17	0x3d808c71	0.06276787
18	0x3baedf72	0.0053366954
19	0x3d109907	0.03530219
20	0xbd082f78	-0.033248395
21	0xbdb98441	-0.090584286
22	0x3c224dfb	0.009906287
23	0xbc993d62	-0.018706027
24	0x3e294785	0.16531189
25	0xbd5acfc2	-0.05342079
26	0xbe0f4c6f	-0.13994001
27	0xbb213a89	-0.002460154
28	0x3da8521a	0.08218785
29	0x3d9696d6	0.073529884
30	0xbdf6bb26	-0.120474145
31	0xbd8b98b7	-0.068162374
32	0xbd8d5ffc	-0.06903073
33	0x3ba28323	0.0049594804
34	0x3d8d6159	0.06903333
35	0xbde5fe8d	-0.11230192
36	0x3a66742b	0.0008791114
37	0x3d089c70	0.033352315
38	0xbd918470	-0.071053386
39	0x3d9209f1	0.071308024
40	0xbd7af8be	-0.061272375
41	0xbd4f3864	-0.050590888
42	0x3c8fe571	0.01756546
43	0xbdebb9dd	-0.1151006
44	0xbd8f24d1	-0.06989444
45	0xbe366cda	-0.17814961
46	0xbddaf33a	-0.10690923
47	0xbe1ecfd7	-0.15508972
48	0x3dac263b	0.084057294
49	0x3d90f889	0.07078654
50	0x3dc678d4	0.09691015
51	0x3d7064aa	0.05868975
52	0xbe44fac0	-0.19236279
53	0xbb8c741e	-0.004286303
54	0x3e5fbb2e	0.21848747
55	0xbdb888d6	-0.090104744
56	0x3d170d1c	0.036877736
57	0x3df00b5e	0.11720918
58	0xbe094cc7	-0.13408194
59	0xbd936c41	-0.07198382
60	0xbd784054	-0.060608223
61	0x3e1ec3ba	0.15504351
62	0x3cc1b9bc	0.023648135
63	0x3dde6030	0.1085819
64	0x3d4a608e	0.049408488
65	0xbdab02f2	-0.08350171
66	0x3e8657c6	0.2623884
67	0x3dbe468c	0.092907995
68	0x3d865fc4	0.065612346
69	0xbdb8c79f	-0.0902245
70	0xbd351a02	-0.044214256
71	0xbd71787a	-0.058952786
72	0xbd7b909c	-0.061417207
73	0xbe211338	-0.15729988
74	0x3ddea078	0.10870451
75	0x3cc8664a	0.024462838
76	0x3c02c343	0.007981124
77	0xbdb62fd0	-0.08895838
78	0xbe2d972e	-0.16952202
79	0x3da58327	0.08081656
80	0x3e06a116	0.13147387
81	0xbe4cefc3	-0.20013337
82	0x3e505c1d	0.20347638
83	0x3d9142e4	0.070928365
84	0x3e55b0c8	0.20868218
85	0xbdf0996d	-0.11748014
86	0xbe4b01b3	-0.19824867
87	0x3d33686e	0.043800764
88	0x3d9e0188	0.07715136
89	0xbe2211f4	-0.15827161
90	0x3d52e78c	0.05149035
91	0x3e234f22	0.15948156
92	0xbd8a5796	-0.06754987
93	0xbe7443c8	-0.23853981
94	0xbd15a9c8	-0.03653887
95	0x3e3128a9	0.17300667
96	0xbe149c06	-0.14512643
97	0xbdc225d8	-0.09479874
98	0x3cbb7e7e	0.022887465
99	0x3d577a3c	0.052606806
100	0x3d70e718	0.05881414
101	0xbd8a9d07	-0.06768232
102	0xbdf210ee	-0.11819635
103	0x3dc51536	0.09623186
104	0x3ce3b2bc	0.027795188
105	0xbe2dae13	-0.16960935
106	0xbd84ec56	-0.0649039
107	0xbe3336e3	-0.17501406
108	0xbd9d410b	-0.076784216
109	0xbe1291ea	-0.14313474
110	0xbe146f8c	-0.14495677
111	0xbd3b6276	-0.045748197
112	0xbca53631	-0.020167442
113	0xbc30a5fa	-0.010781759
114	0x3d8ec151	0.06970466
115	0x3abded5e	0.0014490297
116	0xbe382512	-0.17982891
117	0x3dca4adb	0.09877559
118	0xbce31ba9	-0.02772315
119	0x3e6c0727	0.23049603
120	0xbd8ce141	-0.06878901
121	0x3deed083	0.11660864
122	0xbe2d7a3b	-0.16941158
123	0x3dcbb051	0.09945739
124	0x3d06ad19	0.032879923
125	0xbd882e3e	-0.06649445
126	0x3da10df5	0.0786399
127	0xbddf205c	-0.10894844
128	0x3e114abe	0.14188668
129	0xbe55b0ce	-0.20868227
130	0xbd855595	-0.06510464
131	0x3d894e63	0.06704404
132	0xbd6deb7a	-0.058085896
133	0x3d67cee4	0.05659379
134	0xbcd6f17a	-0.026238192
135	0x3dc7eba6	0.09761743
136	0x3d8f3d89	0.06994159
137	0xbdc403ea	-0.09571059
138	0x3d258859	0.040413234
139	0x3d821711	0.06352056
140	0x3e320ac0	0.17386913
141	0xbd1025bb	-0.035192233
142	0xbd7840b4	-0.06060858
143	0x3db4cdd6	0.088283226
144	0xbe06cbbc	-0.13163656
145	0xbcf80e46	-0.030280244
146	0x3e53b32c	0.20673817
147	0x3bd941d2	0.006630161
148	0xbddb1ed3	-0.10699239
149	0x3d086a30	0.033304393
150	0x3929561a	0.00016149171
151	0x3d344ffc	0.04402159
152	0xbcfff643	-0.031245356
153	0xbe1ebc7a	-0.15501586
154	0xbde19fe9	-0.110168286
155	0xbdba3d65	-0.09093741
156	0xba0e64e6	-0.0005431905
157	0x3d660923	0.056161057
158	0xbe3a20c0	-0.18176556
159	0xbdf52798	-0.119704425
160	0x3c7827a3	0.015146169
161	0x3cf8a542	0.030352239
162	0x3e05eeb6	0.13079342
163	0xbd0b632d	-0.03403013
164	0x3d4f0794	0.050544336
165	0x3de2edcd	0.11080513
166	0xbcbd7ca4	-0.023130722
167	0x3e20bccf	0.15697025
168	0x3e33c4e4	0.17555577
169	0x3d37f757	0.044913616
170	0x3d5a5be0	0.053310275
171	0xbc64fa57	-0.013975701
172	0x3c9a39b0	0.018826336
173	0x3de40b4e	0.11134969
174	0xbe21cc75	-0.1580065
175	0x3e2923dc	0.16517586
176	0xbd91e36c	-0.071234554
177	0x3c10791c	0.008817937
178	0x3b51aaf5	0.0031992767
179	0xbe26632e	-0.16248772
180	0xbad93a80	-0.001657322
181	0xbe4a895a	-0.19778958
182	0xbb9bd906	-0.004756096
183	0xbe1da4ea	-0.15394941
184	0xbe052a7a	-0.13004485
185	0x3cf02935	0.029316524
186	0x3dc4ea33	0.096149825
187	0x3d0cd388	0.03438142
188	0xbdbf8510	-0.093515515
189	0x3c9bb703	0.019008165
190	0xbde84e5d	-0.113430716
191	0x3e6c7650	0.23092008
192	0x3e858cc3	0.26083955
193	0xbe89c3f9	-0.26907328
194	0x3e036529	0.12831558
195	0xbe83e853	-0.25763187
196	0xbb722aa4	-0.0036951685
197	0xbe6c8759	-0.23098506
198	0xbe0dff80	-0.13866997
199	0xbda63be4	-0.08116892
200	0x3e23f8b1	0.16012837
201	0xbe3f9b71	-0.1871164
202	0x3d9d83e1	0.076911695
203	0xbb1a48aa	-0.0023541846
204	0xbc222768	-0.0098970905
205	0xbce61179	-0.028084503
206	0xbaf93b28	-0.0019014822
207	0x3e234ac5	0.15946491
208	0x3d827f1d	0.06371901
209	0x39029402	0.00012452903
210	0xbe3678a5	-0.1781946
211	0x3e4bcea6	0.19903049
212	0xbdc13799	-0.094344325
213	0xbe284451	-0.1643231
214	0xbe391920	-0.1807599
215	0x3df30308	0.118658125
216	0x3d9dcd01	0.07705117
217	0xbdef7461	-0.116921194
218	0xbe474afd	-0.194622
219	0x3e60effe	0.2196655
220	0x3e1ffa7b	0.15622894
221	0xbdd0d9e0	-0.10197806
222	0x3e2b3e0c	0.16722888
223	0x3aa0a238	0.0012255376
224	0x3e323fab	0.174071
225	0xbb898c59	-0.004197639
226	0x3be90e74	0.0071123186
227	0x3d658217	0.056032266
228	0xbde49744	-0.11161664
229	0xbde3700b	-0.11105355
230	0xbce556e1	-0.027995529
231	0x3dcbc0d7	0.09948891
232	0x3e57d448	0.21077073
233	0x3e0874c0	0.13325787
234	0x3c8d7097	0.017265601
235	0xbe9ed8e2	-0.31024843
236	0x3c0c0eab	0.008548419
237	0x3e040169	0.12891163
238	0x3d0d99da	0.034570552
239	0x3e98e96a	0.2986558
240	0x3d9e7a70	0.07738197
241	0xbe425bdd	-0.18980356
242	0xbde48209	-0.11157615
243	0x3db8a7d2	0.09016384
244	0xbd4b1516	-0.049580656
245	0x3df682bd	0.12036655
246	0x3db04c5c	0.086083144
247	0x3d0f974f	0.03505641
248	0x3da75cce	0.08171998
249	0x3ccc6222	0.024949137
250	0xbea58766	-0.32329863
251	0xbe3a6f84	-0.18206602
252	0x3dc0106c	0.09378132
253	0xbe8bda2c	-0.2731489
254	0x3e3d8eb8	0.18511474
255	0xbc410303	-0.011780503

lstm.bias_ih_l0 f4 [256]
0	0xbd16a144	-0.03677489
1	0xbdc7f2e0	-0.097631216
2	0xbda20a99	-0.079121776
3	0xbe051580	-0.12996483
4	0xbdbfd1cd	-0.09366188
5	0x3cf9d5e8	0.030497506
6	0x3d00c472	0.031437345
7	0x3daf944f	0.085732095
8	0x3e1814ec	0.14851731
9	0xbdc7b11e	-0.09750579
10	0xbc8e4d18	-0.017370746
11	0x3bf18278	0.0073702894
12	0xbd470d48	-0.04859665
13	0xbd67e4c4	-0.056614652
14	0x3d96e566	0.07367973
15	0xbd06bfc1	-0.032897715
16	0xbe0bdff5	-0.13659652
17	0x3c6c891a	0.014436984
18	0xbd19fee8	-0.037596613
19	0x3c67040b	0.014100085
20	0xbcf4b0b5	-0.029869417
21	0x3dccd503	0.10001566
22	0xbcf6e1d1	-0.030136975
23	0xbd3ee20a	-0.046602286
24	0x3d8edda4	0.06975868
25	0x3d329aea	0.04360477
26	0xbe592c0a	-0.21208206
27	0x3d3ffaec	0.046870157
28	0x3d9fe394	0.07807079
29	0xbcf5e31b	-0.030015519
30	0x3d9cfc4b	0.076653086
31	0x3db6d1c1	0.08926726
32	0x3d72227b	0.059114914
33	0xbd54183a	-0.051780917
34	0xbced7860	-0.028988063
35	0x3de7769f	0.11301922
36	0x3d3ec91b	0.046578508
37	0xbdb4f700	-0.08836174
38	0xbd7aa066	-0.061188124
39	0xbe275f61	-0.16344978
40	0x3b06626c	0.0020505441
41	0xbcabed33	-0.020987129
42	0x3dd7dd22	0.105402246
43	0x3d85aaac	0.06526694
44	0x3cf38ed0	0.029731184
45	0xbd9e6d32	-0.07735671
46	0x3db34204	0.08752826
47	0x3e4c933d	0.19978042
48	0x3d46b6a0	0.04851401
49	0xbdca9662	-0.098919645
50	0xbd5c42a4	-0.05377449
51	0xbd89da0d	-0.06731043
52	0xbc8787e2	-0.016544286
53	0xbd9e6855	-0.077347435
54	0x3d82d472	0.06388177
55	0xbdda2953	-0.10652413
56	0xbe8528f4	-0.26007807
57	0xbe4a61e0	-0.19763899
58	0xbb001a0a	-0.001954677
59	0xbda06188	-0.078311026
60	0xbcac805e	-0.021057304
61	0xbc1aee63	-0.00945625
62	0x3e1eeed7	0.15520798
63	0x3dd3be0b	0.10338982
64	0xbd86be66	-0.06579284
65	0xbd80c873	-0.06288233
66	0xbd5ddd05	-0.05416586
67	0xbe37189b	-0.1788048
68	0x3de1c8ab	0.110246025
69	0xbd978e69	-0.074002095
70	0xbc974a72	-0.018468115
71	0xbd9e1f9c	-0.07720873
72	0xbdc5e583	-0.096629165
73	0xbc5bb35e	-0.013409464
74	0xbc11098c	-0.008852374
75	0x3d43c15c	0.047791824
76	0xbdfc4cef	-0.123193614
77	0xbe0c1ee8	-0.13683665
78	0xbca62a8c	-0.02028396
79	0x3d646180	0.055757046
80	0xbd7e7614	-0.062124327
81	0xbda6e975	-0.08149997
82	0x3cf9e3ca	0.030504126
83	0x3de85396	0.11344068
84	0x3cee29f9	0.029072748
85	0x3d926291	0.07147706
86	0x3dfd7c69	0.12377245
87	0x3dc368b6	0.095414564
88	0x3d64d1ba	0.055864073
89	0x3d8cc74c	0.0687395
90	0xbd1a5eec	-0.03768818
91	0x3d7a6a41	0.061136488
92	0x3d2a1ad3	0.041529488
93	0x3e36666e	0.17812511
94	0xbd373ce6	-0.04473581
95	0x3e4ef94d	0.20212288
96	0x3e07823a	0.13233271
97	0x3d1668cc	0.036721036
98	0xbb85518f	-0.0040685604
99	0x3e0373cf	0.12837146
100	0x3dc0d249	0.09415109
101	0xbe6393e5	-0.22224386
102	0x3d6eaefc	0.058272347
103	0xbe469257	-0.19391762
104	0x3b676a43	0.003531114
105	0x3e0bd6ed	0.13656206
106	0x3db8b0ff	0.09018134
107	0x3d839e49	0.06426675
108	0x3d235ea9	0.039885197
109	0xbd836f69	-0.06417734
110	0x3db2c858	0.08729619
111	0x3c5040bc	0.012710746
112	0x3b120fa7	0.0022287162
113	0x3e112c75	0.14177115
114	0x3dacebda	0.084434226
115	0xbdb38402	-0.08765413
116	0x3e08b009	0.13348402
117	0x3c94042b	0.018068394
118	0xbdf88b1b	-0.12135907
119	0x3e1ac576	0.15114388
120	0xbce02c03	-0.027364736
121	0xbcea61f9	-0.02861117
122	0xbbb2eb3e	-0.005460172
123	0xbe0b418d	-0.13599224
124	0xbe06f736	-0.13180241
125	0xbd94aa62	-0.072590604
126	0x3de841c8	0.11340672
127	0xbcc9f77f	-0.024654148
128	0xbbe8cd0c	-0.0071045216
129	0xbdbbff25	-0.09179524
130	0x3d6dba35	0.05803891
131	0x3d493cef	0.049130376
132	0xbce6b5bd	-0.028162831
133	0x3dc79d85	0.09746841
134	0xbc0db5aa	-0.008649269
135	0x3bde85fe	0.0067908755
136	0xbe2adcb9	-0.16685762
137	0xbd296e7f	-0.041365143
138	0xbdf03c36	-0.11730234
139	0xbdc3e8ab	-0.09565862
140	0xbb84d8f4	-0.004054183
141	0xbbe150a4	-0.006876068
142	0x398e90b1	0.00027192154
143	0x3d237c32	0.039913364
144	0x3d468265	0.048464198
145	0x3dce1e4a	0.10064371
146	0xbd94874a	-0.07252367
147	0x3e3dd74a	0.18539158
148	0xbdbb1473	-0.0913476
149	0x3da62c45	0.081139125
150	0x3e098f9a	0.13433686
151	0x3e24b38a	0.16084114
152	0x3c16f765	0.009214257
153	0x3d5a76c6	0.053335927
154	0x3e37c0be	0.17944619
155	0x3d7b62fb	0.061373692
156	0xbd015174	-0.03157182
157	0xbdda1f6d	-0.10650525
158	0xbb7ced1d	-0.003859348
159	0xbe2bc978	-0.16776073
160	0x3e35b6f6	0.17745575
161	0x3cde628a	0.027146596
162	0xbd279e73	-0.040922593
163	0xbcc36672	-0.02385256
164	0x3dcfa678	0.10139173
165	0xbddd0d6d	-0.107935764
166	0xbda2c683	-0.07948019
167	0xbd72ca36	-0.059274875
168	0x3deb2e62	0.11483456
169	0x3d206b76	0.039164983
170	0xbe914c1a	-0.28378373
171	0xbd3cd44c	-0.0461009
172	0x3c922160	0.01783818
173	0xbdb64d96	-0.08901517
174	0x3dee13fa	0.11624904
175	0xbd822e99	-0.06356544
176	0x3d2d95e4	0.042379275
177	0x3e31eb49	0.1737491
178	0x3d60e83a	0.05490897
179	0x3e24c67f	0.16091345
180	0x3cec871e	0.028873023
181	0x3daf6a81	0.08565236
182	0x3d1b9134	0.037980273
183	0xbdc80863	-0.09767225
184	0xbd68b3ba	-0.056812026
185	0x3e060172	0.13086489
186	0x3e29200b	0.1651613
187	0x3d754a0e	0.059885077
188	0xbd27c462	-0.04095877
189	0x3e05cfaf	0.13067506
190	0x3dca29ba	0.0987124
191	0xbda7ded0	-0.08196795
192	0x3d69bc5c	0.0570644
193	0xbbb59138	-0.005540993
194	0xbc09eb75	-0.008417954
195	0x3da92a6d	0.08260045
196	0x3c67c22e	0.014145417
197	0xbd7da269	-0.061922465
198	0xbe2b03c5	-0.16700657
199	0x3db4e1e1	0.088321455
200	0xbdc16027	-0.09442168
201	0xbd1d1268	-0.03834763
202	0xbd4ebfd2	-0.050475903
203	0x3cc8a45d	0.024492437
204	0x3c05b3f6	0.008160582
205	0xbc069114	-0.0082133
206	0xbe2d7f08	-0.1694299
207	0xbc03779e	-0.008024124
208	0xbdecdfca	-0.11566122
209	0xbb258c2e	-0.0025260556
210	0xbe0f114d	-0.13971443
211	0x3d929bf6	0.071586534
212	0xbdff5c4d	-0.12468777
213	0xbd9c1883	-0.07621863
214	0x3b97aa41	0.00462845
215	0xba81abff	-0.0009893178
216	0xbe0b73fa	-0.1361846
217	0x3dabd86f	0.08390891
218	0x3deddb03	0.11614039
219	0x3cd51146	0.026009213
220	0x3dc27324	0.094946176
221	0xbceb2a17	-0.028706593
222	0x3c84432b	0.01614531
223	0xbdb40c4f	-0.0879141
224	0xbc84ef0a	-0.016227264
225	0xbced917d	-0.029000038
226	0xbcfd5fce	-0.030929472
227	0xbddab23c	-0.10678527
228	0x3d0d87d2	0.034553356
229	0xbddcf01a	-0.10787983
230	0x3d40adab	0.047040623
231	0xbd1e9e07	-0.038724925
232	0x3ad24857	0.0016043287
233	0x3e51a85a	0.20474377
234	0x3df0a8c8	0.117509425
235	0x3dea3596	0.11436002
236	0x3da9faa8	0.08299762
237	0xbd213576	-0.039357625
238	0xbd979c98	-0.07402915
239	0xbcb05b80	-0.021528006
240	0xbd9204ac	-0.07129797
241	0xbdc3bb85	-0.09557251
242	0xbe05e676	-0.13076195
243	0x3df586a3	0.119885705
244	0x3df9cbd8	0.12197083
245	0x3bfb1033	0.007661843
246	0xbd95c2c6	-0.07312541
247	0xbda3dbfb	-0.08000942
248	0xbdb7c223	-0.089725755
249	0x3d15f415	0.036609728
250	0xbe21e2e8	-0.15809214
251	0x3de46185	0.11151413
252	0x3db7c777	0.08973592
253	0xbda540f0	-0.080690265
254	0x3d0bfbf4	0.034175828
255	0xbde81c57	-0.113335304

lstm.bias_hh_l0 f4 [256]
0	0xbe0cedad	-0.13762541
1	0xbd46fce9	-0.048581038
2	0xbd466ed8	-0.048445553
3	0xbe87773c	-0.26458156
4	0xbe0e8c8e	-0.13920805
5	0xbdce8d63	-0.10085561
6	0xbc9e44f4	-0.019319989
7	0x3df702b3	0.12061062
8	0x3e0cd8b8	0.13754547
9	0x3d9dfe56	0.07714526
10	0x3dc7e85b	0.09761115
11	0x3a361bfa	0.0006946918
12	0x3da8b48a	0.0823756
13	0xbba1fdf3	-0.004943603
14	0x3dbb60aa	0.091492966
15	0x3d886ecc	0.06661758
16	0x3cd5dc99	0.026106166
17	0xbde75153	-0.11294808
18	0xbe0ca104	-0.13733298
19	0x3dddeb34	0.10835877
20	0x3c82ffc9	0.015991108
21	0x3e173e98	0.14769971
22	0x3d87cadf	0.066304915
23	0xbd82e4a8	-0.06391269
24	0xbdc13904	-0.09434703
25	0xbb7e557e	-0.0038808282
26	0xbd3214af	-0.043476757
27	0xbda75a66	-0.08171539
28	0xbd7d6603	-0.061864864
29	0x3c954219	0.018219994
30	0x3d1c6292	0.03817994
31	0xbd14db72	-0.03634209
32	0xbe1ee84d	-0.15518303
33	0xbd93444a	-0.071907595
34	0xbdc3bd03	-0.095575355
35	0x3d4a9c2a	0.049465336
36	0xbd676619	-0.056493852
37	0xbce3572d	-0.02775153
38	0x3d3ab8b8	0.045586318
39	0x3c1c5826	0.009542501
40	0xbdd66d6c	-0.10470089
41	0x3dd157c8	0.10221821
42	0x3dd517be	0.10404919
43	0xbe16cf9a	-0.14727631
44	0x3dba9f54	0.09112421
45	0xbd9f55cc	-0.07780036
46	0x3d03221f	0.032014962
47	0x3db1ef65	0.08688239
48	0x3e394455	0.18092473
49	0xbcfa522a	-0.030556757
50	0xbe539a64	-0.20664364
51	0xbe050b94	-0.12992698
52	0x3c263933	0.010145473
53	0x3d89e8ed	0.0673388
54	0x3d4c46c3	0.04987217
55	0xbd86ca0f	-0.06581508
56	0xbd9f5e4e	-0.07781659
57	0xbe3a2128	-0.1817671
58	0x3d0d357c	0.034474835
59	0x3d7c7a91	0.061640326
60	0x3c942100	0.018082142
61	0x3e34f7c1	0.17672636
62	0xbd243a2b	-0.040094536
63	0x3daf8169	0.08569605
64	0x38fba054	0.00011998476
65	0x3d291d08	0.041287452
66	0xbe2b3823	-0.16720633
67	0xbd05b4cf	-0.032643136
68	0xbc0ab7e3	-0.008466694
69	0xbdf97db1	-0.12182177
70	0xbd8d17e9	-0.06889326
71	0xbd9ec4f4	-0.077524096
72	0xbe33350c	-0.17500705
73	0x3d8e6256	0.0695235
74	0xbd8c8f54	-0.06863275
75	0xbda1d932	-0.07902755
76	0x3d08c8c2	0.033394583
77	0xbcba6868	-0.022754863
78	0xbd65bab2	-0.05608625
79	0x3d251f12	0.040312834
80	0xbc580559	-0.013184869
81	0x3d8770b7	0.066132955
82	0x3d7ce5e1	0.061742667
83	0x3d10f698	0.03539142
84	0xbdf76f62	-0.120817915
85	0xbd34ccc9	-0.04414061
86	0x3e0b04bc	0.13576025
87	0xbd395d25	-0.045254845
88	0x3dd8e02e	0.10589634
89	0x3e18e351	0.14930464
90	0xbdf963a1	-0.12177206
91	0xbc033df5	-0.008010377
92	0x3d973652	0.07383408
93	0x3e1695bf	0.14705561
94	0x3d9c4133	0.07629623
95	0x3def4951	0.11683906
96	0xbda754ff	-0.081705086
97	0x3bbd49b1	0.005776607
98	0x3dd4ec20	0.103966
99	0xbd02bdce	-0.031919293
100	0x3e182b8f	0.14860366
101	0xbe06487a	-0.13113585
102	0x3d9ed8a6	0.07756166
103	0xbd88eaf0	-0.06685436
104	0x3c3ca639	0.01151424
105	0xbd8af7e0	-0.0678556
106	0xbca15122	-0.019692007
107	0x3df00765	0.117201604
108	0x3d8cc0b9	0.068726964
109	0x3d7c7a7c	0.061640248
110	0xbb451523	-0.0030072413
111	0x3e0de323	0.13856177
112	0x3d57336a	0.052539267
113	0x3e6179f8	0.22019184
114	0x3db488c6	0.0881515
115	0x3be146d6	0.0068748994
116	0x3dcf01c5	0.101077594
117	0x3bd78ec8	0.0065783
118	0xbd18c6a7	-0.037298825
119	0x3dd2b9b4	0.10289326
120	0xbd4f6ff8	-0.05064389
121	0xbcd5570b	-0.026042482
122	0x3d0e9f6c	0.034820005
123	0xbc7daf35	-0.015483667
124	0x3ca64391	0.02029589
125	0x3ccf57ba	0.025310386
126	0x3d1c5678	0.0381684
127	0xbd8bcef5	-0.06826583
128	0x3db3680a	0.08760078
129	0x3db95e97	0.09051245
130	0xbe3db7f2	-0.18527201
131	0xbc74d745	-0.014943902
132	0x3e1f3eac	0.15551251
133	0xbd854fd9	-0.0650937
134	0xbb235d3b	-0.0024927396
135	0x3e183c8d	0.14866848
136	0xbe32873f	-0.17434405
137	0xbd6097c5	-0.05483224
138	0x3d840433	0.064461134
139	0x3d376d1e	0.044781797
140	0xbe4b5767	-0.1985756
141	0xbd0eaa50	-0.03483039
142	0xbc97ede1	-0.018546047
143	0xbdaa536a	-0.08316691
144	0xbc7fc8d4	-0.015611846
145	0x3e3fbd14	0.18724471
146	0x3c4bf04f	0.012447431
147	0xbbf67af5	-0.007521982
148	0xbc6adf21	-0.014335425
149	0xbd163084	-0.03666736
150	0x3e5d6ad8	0.21622789
151	0x3df29d60	0.11846423
152	0x3d877523	0.06614139
153	0x3deca1cb	0.11554297
154	0x3c88eab4	0.016713478
155	0xbd9f4ebe	-0.07778691
156	0xbdae4f72	-0.08511247
157	0xbcdd3d91	-0.027006896
158	0xbbb19b21	-0.005420104
159	0xbd28cdc3	-0.041211855
160	0x3dd3be2b	0.10339006
161	0x3e13c224	0.14429528
162	0xbdd4c250	-0.10388625
163	0x3d5515af	0.052022632
164	0x3d199d26	0.037503384
165	0xbcb1328f	-0.021630554
166	0xbe257113	-0.16156416
167	0x3d609db4	0.054837897
168	0xbd26c8d4	-0.04071887
169	0x3cf58083	0.029968506
170	0xbe194bbc	-0.14970297
171	0x3e0b550e	0.13606665
172	0xbd940fb0	-0.07229555
173	0x3e11236e	0.14173672
174	0x3ddc35da	0.10752459
175	0xbce325db	-0.027728012
176	0x3dc6bc57	0.09703892
177	0x3d4b84ae	0.04968708
178	0x3da0dc77	0.0785455
179	0x3d661768	0.056174666
180	0x3e398c29	0.18119873
181	0xbd012a8a	-0.03153471
182	0x3ce194d8	0.027536795
183	0xbe0dfff0	-0.13867164
184	0xbdeb8d51	-0.11501563
185	0x3e43dc7c	0.19127077
186	0xbd06b293	-0.032885145
187	0x3d111df5	0.03542896
188	0xbde85ac9	-0.11345441
189	0x3d7dd100	0.061966896
190	0x3e09748d	0.13423367
191	0xbde6c328	-0.11267692
192	0x3e068fe0	0.13140821
193	0x3dd9ed97	0.1064102
194	0xbd72cd6d	-0.05927794
195	0xbd70a3fd	-0.05875014
196	0x3e24f86e	0.16110393
197	0xbdabc6fd	-0.083875634
198	0x3ba087a8	0.004898984
199	0xbda42599	-0.08014984
200	0xbe076641	-0.132226
201	0x3db243e5	0.08704356
202	0x3e0a8081	0.13525583
203	0xbbb457e2	-0.0055036405
204	0x3c10c460	0.008835882
205	0x3d88e5b1	0.06684435
206	0xbd2da845	-0.042396802
207	0xbbedb69b	-0.0072544343
208	0x3d738f89	0.059463058
209	0x3db770b0	0.0895704
210	0x3cd6b5db	0.026209762
211	0xbe1ab06f	-0.15106367
212	0x3da5bbd2	0.080924645
213	0xbd75ea2f	-0.060037788
214	0x3de813e4	0.11331919
215	0x3b0c6816	0.0021424345
216	0x3d25ec5f	0.040508624
217	0x3d2c6f44	0.0420983
218	0x3de251c8	0.11050755
219	0xbded681d	-0.11592124
220	0x3e1b58eb	0.15170638
221	0x3daeb115	0.085298695
222	0xbe22f032	-0.1591194
223	0x3e183c1a	0.14866677
224	0x3d26b68b	0.04070143
225	0x3d7f4423	0.06232084
226	0x3d1bf7b2	0.038078018
227	0xbd513597	-0.051076498
228	0xbcf7f0c9	-0.030266182
229	0x3da0a45c	0.07843849
230	0x3c8d6855	0.017261663
231	0xbca19543	-0.019724494
232	0xbd7f7add	-0.06237303
233	0x3e33d7fe	0.17562863
234	0x3e219a3a	0.15781489
235	0x3c4d8e4b	0.012546132
236	0x3cf991c6	0.030465018
237	0x3c9fc37d	0.019502396
238	0xbcfdf2c0	-0.030999541
239	0x3df7e15e	0.12103532
240	0x3c823aa3	0.0158971
241	0x3bd68fc0	0.006547898
242	0x3dc185d2	0.09449352
243	0xbc7e813a	-0.01553374
244	0xbc348ece	-0.011020375
245	0x3d1edb84	0.038783565
246	0xbd959eb8	-0.07305664
247	0x3d901bff	0.0703659
248	0xbd45ece2	-0.048321612
249	0xbd2478f5	-0.040154416
250	0x3b893985	0.004187765
251	0x3cf8fecf	0.03039494
252	0x3e0f82b9	0.1401471
253	0xbc71fa52	-0.014769154
254	0x3cee4931	0.029087635
255	0x3dbdb33b	0.09262701

lstm.weight_ih_l1 f4 [256, 64]
0	0xbdd0c6c2	-0.1019416
1	0xbe49b8b1	-0.1969936
2	0xbc91a923	-0.017780846
3	0xbe2bb1b7	-0.16767012
4	0xbdab9df8	-0.083797395
5	0x3e003042	0.12518409
6	0x3c921fa9	0.017837362
7	0x3d709bd7	0.05874237
8	0x3d2ed7da	0.04268632
9	0xbd78c51b	-0.06073485
10	0x3d22f404	0.039783493
11	0xbdf34a69	-0.11879427
12	0x3dd6cf59	0.10488767
13	0xbd380031	-0.044922058
14	0xbda80b56	-0.08205287
15	0xbe07813f	-0.13232897
16	0xbd363548	-0.044484407
17	0xbd8f0f19	-0.069853015
18	0x3dd317cd	0.10307274
19	0xbcaebfe8	-0.021331742
20	0xbd664657	-0.056219425
21	0x3e0541e5	0.13013418
22	0x3c66d15d	0.014088002
23	0xbe3a7896	-0.18210062
24	0xbd4f31a1	-0.05058444
25	0xbcc90394	-0.024537839
26	0xbe73e815	-0.23819001
27	0x3d5afc77	0.053463425
28	0xbca52546	-0.020159375
29	0xbd01c6ba	-0.03168366
30	0xbe0fbc0f	-0.14036582
31	0xbe20af0f	-0.1569178
32	0xbd24d167	-0.040238764
33	0xbdcd1d2a	-0.10015328
34	0x3caf6f87	0.021415485
35	0xbcf856a8	-0.030314758
36	0xbdee778f	-0.11643898
37	0xbd1b5243	-0.037920248
38	0xbd7acf33	-0.061232757
39	0x3da408d1	0.08009494
40	0x3b26855a	0.0025409074
41	0x3d3c16dd	0.04592024
42	0xbdc0fc40	-0.09423113
43	0x3d1d4fb3	0.038406085
44	0xbe1b2751	-0.15151717
45	0xbd22b71b	-0.039725404
46	0xbd2fd38f	-0.042926367
47	0xbe27a498	-0.16371381
48	0xbd2112df	-0.039324638
49	0x3d9579ed	0.07298646
50	0xbdc6b3d3	-0.097022675
51	0xbd90c325	-0.07068471
52	0x3db33089	0.08749492
53	0x3de865f8	0.11347574
54	0x3d0ec469	0.03485528
55	0x3dd0c23c	0.10193297
56	0x3d54abab	0.051921528
57	0x3c7fd908	0.015615709
58	0xbd197cb2	-0.037472434
59	0x3d7d68ac	0.0618674
60	0xbddce6a0	-0.10786176
61	0x3d9b89c9	0.0759464
62	0x3d90b678	0.07066053
63	0x3e282bb0	0.16422915
64	0xbda7f216	-0.08200471
65	0x3ad6add7	0.0016378713
66	0x3d546401	0.051853184
67	0x3d77c993	0.06049497
68	0xbcd70a82	-0.026250128
69	0x3dc82281	0.09772206
70	0x3dcc91c7	0.09988742
71	0x3b4e30e5	0.003146225
72	0x3c2965dd	0.0103392275
73	0x3e26aa6c	0.16275948
74	0x3db20aec	0.086934894
75	0x3bcb8739	0.006211188
76	0xbdd229d7	-0.102618866
77	0xbd88721a	-0.06662388
78	0xbcb47130	-0.022026628
79	0xbd23c06b	-0.039978426
80	0x3d8f3cdd	0.069940306
81	0x3daca3fc	0.08429715
82	0x3e18710e	0.14886877
83	0x3e07fa02	0.13278964
84	0xbe2a9a02	-0.16660312
85	0x3e38823c	0.1801843
86	0x3d5878e2	0.052849658
87	0x3d36a282	0.044588573
88	0x3d20599d	0.039147962
89	0x3d60102b	0.05470292
90	0xbb17e703	-0.0023178465
91	0x3e00b65a	0.12569562
92	0x3e08de4b	0.13366048
93	0x3e48092b	0.19534747
94	0x3dc7d866	0.097580716
95	0xbd526a2d	-0.05137079
96	0xbe0b4c9f	-0.13603447
97	0xbcf469f1	-0.029835673
98	0xbc13c79d	-0.0090197595
99	0x3d4cda81	0.05001307
100	0x3d2df1e2	0.042467006
101	0x3e0b391f	0.13596009
102	0xbda9612c	-0.08270487
103	0xbe301ef6	-0.1719931
104	0xbde74151	-0.11291755
105	0xbe27a8fa	-0.16373053
106	0xbccac79e	-0.024753388
107	0x3d876a45	0.06612066
108	0x3c6fb388	0.014630206
109	0xbcd5904a	-0.026069779
110	0xbdac03a9	-0.083991356
111	0xbe251097	-0.1611961
112	0xbbbd7844	-0.005782159
113	0x3e85eecf	0.2615876
114	0xbdcb9c72	-0.09941949
115	0x3c823b3c	0.015897386
116	0xbc2ffd77	-0.010741583
117	0xbadc42b0	-0.0016804542
118	0x3e131aee	0.14365742
119	0xbd819b70	-0.063284755
120	0x3d8e9bcc	0.0696331
121	0xbcb49426	-0.022043299
122	0xbc8ed47f	-0.01743531
123	0xbe1bcf6c	-0.15215844
124	0x3dc8b8ac	0.09800848
125	0xbd24e07e	-0.040253155
126	0xbc847483	-0.016168838
127	0x3d4a8d74	0.049451306
128	0xbdeacd2e	-0.11464916
129	0x3db918b1	0.09037913
130	0x3e3f509d	0.18683095
131	0xbcf2b289	-0.029626148
132	0x3d096af7	0.033549275
133	0xbd0cd98a	-0.03438715
134	0x3db84fb5	0.08999578
135	0xbe06a6b7	-0.13149534
136	0xbd963bf5	-0.07335655
137	0xbd1f7b1d	-0.03893577
138	0xbd4631ac	-0.048387215
139	0xbdb76444	-0.08954671
140	0x3d574564	0.05255641
141	0x3dab35d9	0.0835988
142	0xbcbb6cf6	-0.022879105
143	0x39b203b1	0.00033953556
144	0x3d743216	0.05961808
145	0xbc94cdfd	-0.01816463
146	0xbe24fe06	-0.16112527
147	0xbe27735a	-0.16352597
148	0xbca55352	-0.020181332
149	0xbdd288bb	-0.102799855
150	0x3defe9f0	0.11714542
151	0xbd0cdb09	-0.034388576
152	0xbbf30677	-0.007416542
153	0xbde96d34	-0.11397782
154	0xbde621e2	-0.112369314
155	0xbd2148a4	-0.039375916
156	0xbdcefb24	-0.10106495
157	0xbb2cc9e3	-0.002636545
158	0xbe148a96	-0.14505991
159	0x3d173bd3	0.036922287
160	0x3da64672	0.08118905
161	0x3cd29202	0.025704388
162	0x3c276448	0.01021678
163	0x3ca6c25a	0.020356346
164	0xbd8d4fd1	-0.068999894
165	0x3dc1acfa	0.09456821
166	0xbcc511dc	-0.024056368
167	0x3ddb2180	0.10699749
168	0xbe501c34	-0.20323259
169	0xbd80eb3f	-0.0629487
170	0xbdc6ca74	-0.097065836
171	0xbc19f5e3	-0.009397003
172	0x3d88b367	0.06674843
173	0xbe175a15	-0.14780457
174	0xbd13023b	-0.0358908
175	0xbba8f61e	-0.0051562926
176	0xbdd97aac	-0.10619101
177	0x3d2ed10d	0.042679835
178	0x3d0d8b85	0.034556884
179	0xbd80f1be	-0.06296109
180	0xbd4bb58a	-0.049733676
181	0xbe863df2	-0.26219136
182	0xbbd2f8e8	-0.0064383633
183	0x3cacdd86	0.021101724
184	0xbdec365c	-0.11533806
185	0x3d6fee5e	0.058576934
186	0xbd92662e	-0.071483955
187	0xbd5995ed	-0.053121496
188	0xbc9f7ead	-0.019469583
189	0x3e1aafb2	0.15106085
190	0xbbc515dc	-0.0060145687
191	0x3d2b27ec	0.04178612
192	0x3ace5e0a	0.0015744579
193	0xbdb5140d	-0.08841715
194	0x3d6fa3c1	0.058505777
195	0xbe16d73e	-0.14730546
196	0x3def597a	0.11686988
197	0x3df4e6bf	0.11958074
198	0x3dce6e35	0.10079614
199	0xbe081483	-0.13289075
200	0xbb003702	-0.0019564037
201	0xbddc2021	-0.107483156
202	0x3d86835d	0.06568024
203	0x3a8f3cd3	0.0010928161
204	0x3e31edc6	0.1737586
205	0xbdb39f21	-0.08770586
206	0x3dfc0bb8	0.12306923
207	0xbd399919	-0.04531202
208	0xbe3c4aca	-0.18387905
209	0xbdbe914b	-0.09305056
210	0x3eb0f8ce	0.34564823
211	0x3d18f3e3	0.037341963
212	0xb8bca731	-8.9956804e-05
213	0xbcf109c5	-0.029423604
214	0x3d6065cd	0.054784585
215	0x3d9677ae	0.07347046
216	0x3d426166	0.047456168
217	0xbd037428	-0.032093197
218	0xbd32034c	-0.043460175
219	0xbe191e01	-0.14952852
220	0x3e19162b	0.14949863
221	0x3ceb271a	0.028705169
222	0xbe1d4a80	-0.1536045
223	0xbd013882	-0.03154803
224	0x3d184171	0.037171785
225	0xbe2f9485	-0.171465
226	0xbd2a9a49	-0.041651044
227	0x3e0fbfa1	0.14037944
228	0x3da9a49f	0.08283352
229	0x3d095d33	0.033536147
230	0x3d631880	0.055443287
231	0x3d745f83	0.0596614
232	0xbc725fdb	-0.014793362
233	0x3dfa0fc4	0.12210038
234	0xbd8686e2	-0.065686956
235	0xbd7421ac	-0.059602425
236	0xbd2fb0c3	-0.042893182
237	0x3d38e046	0.04513576
238	0x3cff3de6	0.031157445
239	0xbdaabdc0	-0.08336973
240	0x3dbec1c2	0.093143
241	0xbda46461	-0.08026958
242	0x3e0ae2dc	0.13563102
243	0x3c976916	0.018482726
244	0x3e0a3ef9	0.13500585
245	0xbd931a58	-0.07182759
246	0x3d55b677	0.052175965
247	0x3dc809f3	0.09767523
248	0xbcf76ac0	-0.03020227
249	0xbe134a47	-0.14383803
250	0xbc206434	-0.009789515
251	0x3be1aef4	0.006887311
252	0xbc84f545	-0.016230235
253	0x3d9585ab	0.07300886
254	0x3e3915a1	0.18074657
255	0x3db9e8d1	0.09077609

lstm.weight_hh_l1 f4 [256, 64]
0	0xbd29dd47	-0.041470792
1	0xbd21f312	-0.03953845
2	0x3dbc8b20	0.092062235
3	0xbccd5660	-0.0250656
4	0x3db378de	0.08763288
5	0xbe8c3a51	-0.27388242
6	0x3d97b979	0.07408423
7	0xbca2f7f2	-0.01989362
8	0x3dee29fc	0.11629102
9	0x3dd88e6e	0.10574041
10	0x3d10301d	0.035202134
11	0x3de54c66	0.111962125
12	0xbd99a92f	-0.07502972
13	0xbe3bfd01	-0.18358232
14	0xbd84b56d	-0.06479917
15	0xbe2fc9ad	-0.17166777
16	0xbd7fd48d	-0.062458564
17	0xbc8dc6f7	-0.017306788
18	0xbc9dcde7	-0.019263221
19	0xbdb7ebd6	-0.08980529
20	0x3d101f50	0.035186112
21	0x3d4d124b	0.050066274
22	0x3dd18954	0.102312714
23	0x3cda9f9f	0.026687441
24	0x3e468c80	0.19389534
25	0xbdcbfdf4	-0.09960547
26	0xbd1476e6	-0.036246203
27	0x3dc69f75	0.09698383
28	0xbe179c22	-0.14805654
29	0x3d79bcfb	0.06097124
30	0x3db04421	0.086067446
31	0x3dc3b101	0.09555245
32	0x3c7848a5	0.015154039
33	0x3d37d63f	0.044882055
34	0x3bdea6a3	0.006794767
35	0x3d802d03	0.06258585
36	0x3d71420a	0.05890087
37	0x3d4a75b1	0.049428646
38	0x3dc55d42	0.09636928
39	0xbd1c86d2	-0.038214512
40	0xbbc501d9	-0.006012183
41	0x3e2641a7	0.16235982
42	0xbcc12f67	-0.023582174
43	0x3d1dc7b3	0.038520526
44	0x3d28f6ae	0.041250877
45	0x3c5ed677	0.013600937
46	0x3e00d872	0.12582567
47	0xbe0262d4	-0.12733012
48	0xbdb723bd	-0.089423634
49	0x3e1f4192	0.15552357
50	0x3e08cb74	0.13358861
51	0x3dcfff4c	0.10156116
52	0xbe2d9d73	-0.16954593
53	0xbcb4675e	-0.022021946
54	0x3c56d081	0.013111235
55	0xbdbbc4c7	-0.09168392
56	0xbe320167	-0.17383347
57	0xbdbdab9b	-0.09261247
58	0x3cb0cb1c	0.021581225
59	0xbde78004	-0.11303714
60	0xbd97dcf3	-0.074151896
61	0xbd6a3dad	-0.057187725
62	0x3de1f4bf	0.1103301
63	0x3e5c0813	0.21487455
64	0x3cd85c15	0.026411096
65	0x3d2ae5d7	0.0417231
66	0x3e10d407	0.14143382
67	0xbd98af80	-0.07455349
68	0x3bfda957	0.007741134
69	0xbda9b9be	-0.08287381
70	0xbdec51c6	-0.115390345
71	0x3cff6ec8	0.031180754
72	0xbd5075ed	-0.050893713
73	0xbe4702dd	-0.19434686
74	0x3ddd2a6d	0.10799108
75	0xbe312055	-0.1729749
76	0x3d8b8bef	0.068137996
77	0xbd0f28a5	-0.03495087
78	0xbe759a4b	-0.2398464
79	0xbdd02550	-0.10163367
80	0x3e14dcd5	0.14537366
81	0x3c967326	0.018365454
82	0x3d9f1e3f	0.07769441
83	0xbdfa2c6d	-0.12215505
84	0xbe23d7f2	-0.16000345
85	0x3d674f64	0.056472197
86	0xbc398a46	-0.011324471
87	0x3bfc70e1	0.007703886
88	0xbdc61d33	-0.09673538
89	0x3cc63d18	0.024199054
90	0x3da567cb	0.080764376
91	0xbdde85b1	-0.10865343
92	0x3c16cd76	0.009204259
93	0xbc5aac1a	-0.013346696
94	0xbda901ce	-0.08252297
95	0xbc75f363	-0.015011641
96	0x3cfc8944	0.030827172
97	0x3d970892	0.073746815
98	0xbe107c98	-0.14110029
99	0xbd4db6f7	-0.050223317
100	0xbd04d0ba	-0.03242562
101	0xbd8930e5	-0.06698779
102	0xbd826395	-0.0636665
103	0xbe4d2126	-0.20032176
104	0xbdde2577	-0.108469896
105	0xbe562996	-0.20914301
106	0x3d16cdf2	0.0368175
107	0xbe63f61f	-0.22261856
108	0xbd422b68	-0.047404677
109	0xbddca8db	-0.10774394
110	0xbd5cc433	-0.053898048
111	0x3d2a884b	0.041633885
112	0xbe679e5a	-0.22619
113	0xbda3c575	-0.07996646
114	0x3dd8a303	0.10577967
115	0xbd913e09	-0.070919104
116	0x3e0ccd18	0.13750112
117	0xbb0ba5ce	-0.0021308544
118	0x3de9ae8e	0.11410247
119	0x3da6d17b	0.08145424
120	0x3deefe6c	0.11669621
121	0x3a02a3e1	0.00049835263
122	0xbc146309	-0.009056815
123	0x3d951149	0.072786875
124	0xbd79bfce	-0.060973935
125	0x3d964252	0.07336868
126	0xbc9ec884	-0.019382723
127	0xbe2ef6b2	-0.17086294
128	0x3dde0289	0.10840327
129	0x3d23279c	0.039832696
130	0x3cad21cd	0.021134282
131	0x3cb1d8f1	0.021709891
132	0x3d261fbe	0.040557615
133	0xbe3e618d	-0.185919
134	0xbbe134c6	-0.006872746
135	0x3d0dc288	0.034609348
136	0x3d3e6fb2	0.04649324
137	0xbdbb4c90	-0.091454625
138	0x3d3b58ca	0.045738973
139	0xbd9e996b	-0.07744106
140	0x3b56c6d7	0.0032772326
141	0x3ca02754	0.019550003
142	0xbb99a4fd	-0.0046888576
143	0x3d8bf4b9	0.068337865
144	0x3df2cb4d	0.11855183
145	0x3d1bac2c	0.038005993
146	0x3d83c40d	0.06433878
147	0x3de6c46a	0.11267932
148	0x3ca2137b	0.01978468
149	0xbd262cf2	-0.040570207
150	0x3dbf82cb	0.09351119
151	0x3d41a83c	0.04727958
152	0xbd2b787e	-0.041862957
153	0x3dd0ade3	0.10189416
154	0x3e5c38ca	0.21506038
155	0xbccb32a1	-0.024804415
156	0xbdafa680	-0.08576679
157	0xbdc500a8	-0.09619266
158	0x3d9cb80a	0.0765229
159	0xbd6c5e47	-0.057707097
160	0x3daca13b	0.0842919
161	0xbe12fc34	-0.1435402
162	0xbd8c679b	-0.06855699
163	0x3e78f49f	0.24312066
164	0x3dbc971e	0.09208511
165	0xbd38d4ce	-0.04512482
166	0x3dda9e39	0.1067471
167	0xbe41eed1	-0.18938757
168	0x3de27212	0.110569134
169	0xbe431e43	-0.19054513
170	0x3de5e490	0.112252355
171	0xbcd60092	-0.026123319
172	0x3e49d00d	0.19708271
173	0xbd8990ff	-0.06717109
174	0x3d291c09	0.041286502
175	0x3da8d8e4	0.082444936
176	0xbccc4f4c	-0.024940155
177	0xbdad6aea	-0.08467658
178	0x3d96c589	0.073618956
179	0xbd200d28	-0.039075047
180	0x3d6127ed	0.054969717
181	0x3a8ca0be	0.0010729057
182	0x3bc847aa	0.0061120586
183	0xbd600c33	-0.054699134
184	0xbdb555a8	-0.08854228
185	0x3d41907c	0.04725693
186	0x3d7073f2	0.058704324
187	0xbdc0f5e2	-0.094218984
188	0xbde38a73	-0.111103915
189	0xbdb39706	-0.0876904
190	0xbcccb176	-0.024986964
191	0xbb0364e0	-0.002004914
192	0xbd7acb1a	-0.06122885
193	0xbe3db3d0	-0.18525624
194	0x3d73d376	0.059527837
195	0xbd2a8a91	-0.041636053
196	0xbdfc5d13	-0.1232244
197	0xbcef1313	-0.0291839
198	0xbd3f25c1	-0.046666864
199	0xbdafb1d0	-0.08578837
200	0x3e516fcf	0.20452808
201	0xbc184db0	-0.009295866
202	0x3e1b073e	0.15139481
203	0x3dad482f	0.084610336
204	0xbd6460d6	-0.055756412
205	0xbe4fbdda	-0.20287266
206	0x3e282d66	0.16423568
207	0xbe38f379	-0.18061627
208	0x3ddb5b6c	0.10710797
209	0xbdabc9d5	-0.08388106
210	0xbcd21e9d	-0.025649363
211	0x3d9b73da	0.07590456
212	0x3dfb4a31	0.1227001
213	0x3d80f1e3	0.06296136
214	0x3e441ba0	0.19151163
215	0xbdb06dff	-0.0861473
216	0x3d6fab48	0.058512956
217	0x3e0be381	0.13661005
218	0x3e4eb408	0.20185864
219	0xbd38b92b	-0.045098465
220	0xbdc444be	-0.09583424
221	0xbd690360	-0.056887984
222	0xbbdedfac	-0.006801566
223	0x3df69fd1	0.12042201
224	0x3b89c2a1	0.00420411
225	0x3e03c2dc	0.12867302
226	0xbd940875	-0.072281756
227	0x3e1f8d63	0.15581279
228	0x3e08de22	0.13365987
229	0x3e8190ea	0.25305873
230	0x3e5fe91b	0.21866266
231	0xbdd7ea4d	-0.10542736
232	0x3d0eec8d	0.03489356
233	0xbdb2e082	-0.08734228
234	0xbd343d35	-0.044003684
235	0x3af33088	0.0018553892
236	0x3e05705a	0.1303114
237	0x3d01cc96	0.03168925
238	0x3e52799f	0.20554207
239	0xbe1a9788	-0.15096867
240	0xbd8b3906	-0.06797986
241	0xbcb02f22	-0.02150685
242	0x3d737ce9	0.059445295
243	0x3d22fe6b	0.039793413
244	0xbe3aa1c8	-0.18225777
245	0x3d7c27ef	0.06156152
246	0xbd313e64	-0.04327239
247	0xbc74cb91	-0.014941112
248	0xbe635f22	-0.22204259
249	0xbbcd56ce	-0.0062664514
250	0x3d277950	0.040887177
251	0xbe2f11b9	-0.17096604
252	0xbe5dcccf	-0.2166016
253	0xbd01ef81	-0.03172255
254	0x3c8c1d7d	0.017103905
255	0x3d79b729	0.06096569

lstm.bias_ih_l1 f4 [256]
0	0x3d8934f8	0.06699556
1	0xbd92f6b9	-0.07175965
2	0xbd88138c	-0.06644353
3	0xbd76b0f7	-0.06022736
4	0xbc4668f0	-0.01210998
5	0xbd5f4d3a	-0.05451701
6	0xbcaba75b	-0.020953825
7	0x3e235fff	0.15954588
8	0xbd554d48	-0.052075654
9	0xbe398930	-0.18118739
10	0xbdde89b9	-0.10866112
11	0xbdcef798	-0.101058185
12	0x3d8ddcbe	0.06926869
13	0xbda61e75	-0.08111278
14	0xbde4f598	-0.11179656
15	0xbd9c3e03	-0.07629015
16	0x3d3855a0	0.045003533
17	0x3ce15af3	0.027509188
18	0x3d69ee0e	0.057111792
19	0xbdd67460	-0.104714155
20	0x3d9348eb	0.071916424
21	0xbdacdff7	-0.084411554
22	0x3d014965	0.031564135
23	0xbc034daf	-0.008014127
24	0x3dccf9b1	0.10008562
25	0x3d088e4f	0.03333884
26	0xbc04778a	-0.008085141
27	0x3cbe2591	0.023211272
28	0x3e04d989	0.12973608
29	0xbc625a61	-0.013815493
30	0x3def6f90	0.11691201
31	0x3e1d48d6	0.15359816
32	0xbe281683	-0.16414838
33	0xbe3cb477	-0.18428217
34	0xbe03718b	-0.12836282
35	0xbd91eb0e	-0.07124911
36	0xbd6ae2d5	-0.05734523
37	0xbdbf4af8	-0.09340471
38	0xbda5211c	-0.08062956
39	0x3d96c535	0.07361833
40	0xbc7eb078	-0.015545003
41	0xbd9e9f27	-0.077452
42	0x3dbb4270	0.09143531
43	0x3da4ac87	0.080407195
44	0xbde1f896	-0.11033742
45	0xbd8b6c40	-0.068077564
46	0xbdb864c6	-0.09003596
47	0xbcc0c6ad	-0.023532236
48	0x3dc012f5	0.09378616
49	0xbdee6840	-0.11640978
50	0x39aca906	0.0003293233
51	0x3d14886f	0.036262926
52	0xbd8e8376	-0.06958668
53	0xbaf0fd8e	-0.0018386112
54	0x3adc623d	0.0016813945
55	0xbcee6af0	-0.029103726
56	0xbd8f4518	-0.069956005
57	0xbe017bef	-0.12644933
58	0xbd11703c	-0.035507426
59	0x3cd05be3	0.02543444
60	0x3de4b5ee	0.11167513
61	0xbd80ce2a	-0.06289323
62	0x3d3257e8	0.043540865
63	0x3da9d28d	0.082921125
64	0xbd0c1f4d	-0.03420954
65	0xbd4ffcb0	-0.05077809
66	0xbddb2a5f	-0.10701441
67	0xbe1258f8	-0.14291751
68	0xbc00d954	-0.007864315
69	0xbdabd3e7	-0.083900265
70	0xbdd8706d	-0.105683185
71	0x3daaafeb	0.08334335
72	0x3e0b3d36	0.13597569
73	0x3d91e386	0.07123475
74	0x3d3c0d57	0.04591116
75	0xbab26c72	-0.0013612641
76	0xbbec66cc	-0.007214403
77	0x3cf81c43	0.030286914
78	0xbd3e7d3f	-0.046506163
79	0x3e14f8f1	0.14548089
80	0xbcf23559	-0.029566454
81	0xbcec4802	-0.02884293
82	0x3dec6d2a	0.11544259
83	0x3d9a6534	0.07538834
84	0xbd260a96	-0.04053744
85	0x3d71eced	0.05906384
86	0x3c803958	0.015652344
87	0x3cdc8f17	0.0269237
88	0x3ce25aad	0.027631128
89	0x3ad38cfa	0.0016140037
90	0xbd03563a	-0.032064654
91	0xbce363e0	-0.027757585
92	0x3da715bb	0.08158442
93	0xbd5d6f95	-0.05406149
94	0x3db6c971	0.08925141
95	0xbd96673c	-0.07343909
96	0x3d9c0942	0.07618953
97	0xbdeaa149	-0.11456544
98	0x3d4ada82	0.04952479
99	0xbd7db674	-0.06194158
100	0xbdeb7203	-0.114963554
101	0x3e4eb13f	0.20184802
102	0x3cf6d241	0.030129554
103	0x3e0114d5	0.12605603
104	0xbd24d271	-0.040239755
105	0x3d7043b5	0.05865832
106	0xbd95cd08	-0.07314497
107	0x3c91ffd5	0.017822186
108	0x3d713a9b	0.05889378
109	0xbdf28d32	-0.11843337
110	0x3dcce4e6	0.100045964
111	0xbd29720c	-0.04136853
112	0x3e023047	0.12713729
113	0x3d9e16a1	0.0771916
114	0x3ccfa689	0.025347965
115	0x3df14e94	0.11782566
116	0xbd31e645	-0.043432493
117	0xbc110182	-0.008850457
118	0x3d13f500	0.036122322
119	0xbe19f15e	-0.1503348
120	0xbdb376ed	-0.08762918
121	0x3d06a7fc	0.032875046
122	0xbcd91fd8	-0.026504442
123	0xbb37fa7d	-0.0028072887
124	0x3d5d52e6	0.054034136
125	0x3d231561	0.03981531
126	0xbcb997bc	-0.02265536
127	0x3dc38d6c	0.095484585
128	0xbdc7a41c	-0.09748098
129	0xbd83bf6d	-0.06432996
130	0xbd6610e3	-0.05616845
131	0x3b2b58ff	0.0026145575
132	0xbc3c968a	-0.011510501
133	0x3db1e6a9	0.08686573
134	0x3e137dad	0.1440341
135	0x3d0ca832	0.03434009
136	0x3dbb4267	0.091435246
137	0xbd68eb6a	-0.056865133
138	0x3d7ed244	0.062212244
139	0x3d92455b	0.07142135
140	0xbdfa8d61	-0.12233997
141	0xbdd43a79	-0.10362715
142	0xbd75bb3a	-0.059993006
143	0x3d89ba48	0.067249835
144	0x3c2a070a	0.010377655
145	0xbdce5d5f	-0.10076403
146	0x3df4479b	0.1192772
147	0x3d8b27f1	0.067947276
148	0xbd7c2215	-0.06155594
149	0xbd1d5c7e	-0.038418286
150	0xbd612d33	-0.054974746
151	0x3d2a967b	0.041647416
152	0x3d6382a9	0.05554453
153	0x3d2bf76d	0.04198401
154	0x3d9d356a	0.076762035
155	0xbc60c127	-0.013717926
156	0xbdf0e4cb	-0.11762389
157	0xbcdda331	-0.027055355
158	0xbe1a6113	-0.15076093
159	0xbde4892c	-0.11158976
160	0x3db7b173	0.08969393
161	0x3d1a1c0a	0.037624396
162	0x3e06ff2d	0.1318328
163	0x3d7b3741	0.06133199
164	0x3e070553	0.13185625
165	0xbd9d50ce	-0.07681428
166	0x3d169249	0.036760602
167	0x3d81da66	0.06340484
168	0xbd8f0906	-0.06984143
169	0x3de29f3c	0.11065528
170	0xbe1bf95e	-0.15231845
171	0x3d30b340	0.043139696
172	0xbca48b8e	-0.020086076
173	0x3daa0792	0.08302225
174	0x3da4227a	0.080143884
175	0x3d9c7f9d	0.07641528
176	0x3d381ca4	0.04494919
177	0x3de24567	0.11048394
178	0xbdc9c8f8	-0.09852785
179	0x3d7dcc50	0.061962426
180	0xbddff6c3	-0.10935738
181	0xbe0be4cf	-0.13661502
182	0xbcf7c159	-0.030243563
183	0xbddea166	-0.10870628
184	0xbd64e0a7	-0.055878308
185	0xbdee9bd4	-0.116508156
186	0x3def78aa	0.11692937
187	0xbd9b9934	-0.075975806
188	0x3dc54814	0.096328884
189	0xbda75204	-0.0816994
190	0xbd3e5468	-0.046467215
191	0x3bcbbf91	0.006217905
192	0x3cc47d06	0.023985397
193	0xbddad227	-0.10684615
194	0x3be5caa8	0.007012684
195	0xbe164562	-0.14674905
196	0xbd0e7c24	-0.03478636
197	0x3d75b1ae	0.0599839
198	0x3de8b6b4	0.11362973
199	0x3e550ac1	0.20804884
200	0xbd801d30	-0.06255567
201	0x3d88230f	0.06647312
202	0x3d285ce7	0.041104224
203	0xbc488784	-0.012239341
204	0x3d54f497	0.05199107
205	0x3da34217	0.0797159
206	0x3d262517	0.040562715
207	0x3c89f7bd	0.016841764
208	0x3d9a4625	0.0753291
209	0x3da5e740	0.08100748
210	0x3caac515	0.02084593
211	0xbd8de0b7	-0.069276266
212	0x3ddf696d	0.1090878
213	0xbcf2897a	-0.02960657
214	0x3d5eef28	0.054427296
215	0xbb8406ed	-0.004029146
216	0xbb4ad4a9	-0.003094951
217	0x3d58bcd8	0.05291447
218	0x3da2d36d	0.079504825
219	0x3d3fec4f	0.04685622
220	0xbd87673b	-0.066114865
221	0xbc702a33	-0.014658499
222	0xbdc2566c	-0.0948914
223	0xbd08507b	-0.033279877
224	0x3d464743	0.048407804
225	0x3cfd4ed9	0.030921387
226	0x3e047f55	0.12939198
227	0x3da213ac	0.07913908
228	0x3d15d393	0.036578726
229	0x3e22b0df	0.15887783
230	0x3dcb3ca1	0.099236734
231	0x3d733c53	0.0593837
232	0x3dbcd96a	0.09221156
233	0xbd9c458d	-0.07630453
234	0xbd5d4852	-0.05402405
235	0x3cdccec4	0.026954062
236	0xbba9cdca	-0.0051820027
237	0xbdb11e18	-0.08648318
238	0x3dec3c18	0.115348995
239	0xbce78f02	-0.028266434
240	0x3e2ca85e	0.16861102
241	0xbcb58e36	-0.022162538
242	0xbdc82611	-0.097728856
243	0xbd3cd08b	-0.04609732
244	0x3d89b2ea	0.06723578
245	0xbd3283c0	-0.043582678
246	0xbdad931f	-0.08475327
247	0x3d269427	0.040668633
248	0x3d94309c	0.07235834
249	0xbd1caab2	-0.038248725
250	0x3e31ec47	0.17375289
251	0x3e1b0cbc	0.15141577
252	0x3d03a4b3	0.03213949
253	0xbd224562	-0.03961695
254	0xbe0c110a	-0.13678375
255	0xbc068e03	-0.008212569
